…
I1012 20:26:26.440548 26891 net.cpp:296] The NetState phase (0) differed from the phase (1) specified by a rule in layer data
I1012 20:26:26.443004 26891 net.cpp:53] Initializing net from parameters: 
name: "ResNet-101"
state {
  phase: TRAIN
  level: 0
  stage: ""
}
layer {
  name: "data"
  type: "Data"
  top: "data"
  top: "label"
  include {
    phase: TRAIN
  }
  transform_param {
    mirror: true
    mean_value: 103.939
    mean_value: 116.779
    mean_value: 123.68
  }
  data_param {
    source: "/home/processyuan/data/Paris/aug/paris_aug_lmdb"
    batch_size: 8
    backend: LMDB
  }
}
layer {
  name: "features"
  type: "Python"
  bottom: "label"
  top: "features"
  python_param {
    module: "custom_layers"
    layer: "FeatureLayer"
    param_str: "{\'features\': \'/home/processyuan/data/Paris/aug/features.npy\'}"
  }
}
layer {
  name: "rois"
  type: "Python"
  bottom: "data"
  top: "rois"
  python_param {
    module: "custom_layers"
    layer: "RigidGridLayer"
    param_str: "{}"
  }
}
layer {
  name: "conv1"
  type: "Convolution"
  bottom: "data"
  top: "conv1"
  param {
    lr_mult: 0
    decay_mult: 0
  }
  convolution_param {
    num_output: 64
    bias_term: false
    pad: 3
    kernel_size: 7
    stride: 2
  }
}
layer {
  name: "bn_conv1"
  type: "BatchNorm"
  bottom: "conv1"
  top: "conv1"
  param {
    lr_mult: 0
    decay_mult: 0
  }
  param {
    lr_mult: 0
    decay_mult: 0
  }
  param {
    lr_mult: 0
    decay_mult: 0
  }
  batch_norm_param {
    use_global_stats: true
  }
}
layer {
  name: "scale_conv1"
  type: "Scale"
  bottom: "conv1"
  top: "conv1"
  param {
    lr_mult: 0
    decay_mult: 0
  }
  param {
    lr_mult: 0
    decay_mult: 0
  }
  scale_param {
    bias_term: true
  }
}
layer {
  name: "conv1_relu"
  type: "ReLU"
  bottom: "conv1"
  top: "conv1"
}
layer {
  name: "pool1"
  type: "Pooling"
  bottom: "conv1"
  top: "pool1"
  pooling_param {
    pool: MAX
    kernel_size: 3
    stride: 2
  }
}
layer {
  name: "res2a_branch1"
  type: "Convolution"
  bottom: "pool1"
  top: "res2a_branch1"
  param {
    lr_mult: 0
    decay_mult: 0
  }
  convolution_param {
    num_output: 256
    bias_term: false
    pad: 0
    kernel_size: 1
    stride: 1
  }
}
layer {
  name: "bn2a_branch1"
  type: "BatchNorm"
  bottom: "res2a_branch1"
  top: "res2a_branch1"
  param {
    lr_mult: 0
    decay_mult: 0
  }
  param {
    lr_mult: 0
    decay_mult: 0
  }
  param {
    lr_mult: 0
    decay_mult: 0
  }
  batch_norm_param {
    use_global_stats: true
  }
}
layer {
  name: "scale2a_branch1"
  type: "Scale"
  bottom: "res2a_branch1"
  top: "res2a_branch1"
  param {
    lr_mult: 0
    decay_mult: 0
  }
  param {
    lr_mult: 0
    decay_mult: 0
  }
  scale_param {
    bias_term: true
  }
}
layer {
  name: "res2a_branch2a"
  type: "Convolution"
  bottom: "pool1"
  top: "res2a_branch2a"
  param {
    lr_mult: 0
    decay_mult: 0
  }
  convolution_param {
    num_output: 64
    bias_term: false
    pad: 0
    kernel_size: 1
    stride: 1
  }
}
layer {
  name: "bn2a_branch2a"
  type: "BatchNorm"
  bottom: "res2a_branch2a"
  top: "res2a_branch2a"
  param {
    lr_mult: 0
    decay_mult: 0
  }
  param {
    lr_mult: 0
    decay_mult: 0
  }
  param {
    lr_mult: 0
    decay_mult: 0
  }
  batch_norm_param {
    use_global_stats: true
  }
}
layer {
  name: "scale2a_branch2a"
  type: "Scale"
  bottom: "res2a_branch2a"
  top: "res2a_branch2a"
  param {
    lr_mult: 0
    decay_mult: 0
  }
  param {
    lr_mult: 0
    decay_mult: 0
  }
  scale_param {
    bias_term: true
  }
}
layer {
  name: "res2a_branch2a_relu"
  type: "ReLU"
  bottom: "res2a_branch2a"
  top: "res2a_branch2a"
}
layer {
  name: "res2a_branch2b"
  type: "Convolution"
  bottom: "res2a_branch2a"
  top: "res2a_branch2b"
  param {
    lr_mult: 0
    decay_mult: 0
  }
  convolution_param {
    num_output: 64
    bias_term: false
    pad: 1
    kernel_size: 3
    stride: 1
  }
}
layer {
  name: "bn2a_branch2b"
  type: "BatchNorm"
  bottom: "res2a_branch2b"
  top: "res2a_branch2b"
  param {
    lr_mult: 0
    decay_mult: 0
  }
  param {
    lr_mult: 0
    decay_mult: 0
  }
  param {
    lr_mult: 0
    decay_mult: 0
  }
  batch_norm_param {
    use_global_stats: true
  }
}
layer {
  name: "scale2a_branch2b"
  type: "Scale"
  bottom: "res2a_branch2b"
  top: "res2a_branch2b"
  param {
    lr_mult: 0
    decay_mult: 0
  }
  param {
    lr_mult: 0
    decay_mult: 0
  }
  scale_param {
    bias_term: true
  }
}
layer {
  name: "res2a_branch2b_relu"
  type: "ReLU"
  bottom: "res2a_branch2b"
  top: "res2a_branch2b"
}
layer {
  name: "res2a_branch2c"
  type: "Convolution"
  bottom: "res2a_branch2b"
  top: "res2a_branch2c"
  param {
    lr_mult: 0
    decay_mult: 0
  }
  convolution_param {
    num_output: 256
    bias_term: false
    pad: 0
    kernel_size: 1
    stride: 1
  }
}
layer {
  name: "bn2a_branch2c"
  type: "BatchNorm"
  bottom: "res2a_branch2c"
  top: "res2a_branch2c"
  param {
    lr_mult: 0
    decay_mult: 0
  }
  param {
    lr_mult: 0
    decay_mult: 0
  }
  param {
    lr_mult: 0
    decay_mult: 0
  }
  batch_norm_param {
    use_global_stats: true
  }
}
layer {
  name: "scale2a_branch2c"
  type: "Scale"
  bottom: "res2a_branch2c"
  top: "res2a_branch2c"
  param {
    lr_mult: 0
    decay_mult: 0
  }
  param {
    lr_mult: 0
    decay_mult: 0
  }
  scale_param {
    bias_term: true
  }
}
layer {
  name: "res2a"
  type: "Eltwise"
  bottom: "res2a_branch1"
  bottom: "res2a_branch2c"
  top: "res2a"
}
layer {
  name: "res2a_relu"
  type: "ReLU"
  bottom: "res2a"
  top: "res2a"
}
layer {
  name: "res2b_branch2a"
  type: "Convolution"
  bottom: "res2a"
  top: "res2b_branch2a"
  param {
    lr_mult: 0
    decay_mult: 0
  }
  convolution_param {
    num_output: 64
    bias_term: false
    pad: 0
    kernel_size: 1
    stride: 1
  }
}
layer {
  name: "bn2b_branch2a"
  type: "BatchNorm"
  bottom: "res2b_branch2a"
  top: "res2b_branch2a"
  param {
    lr_mult: 0
    decay_mult: 0
  }
  param {
    lr_mult: 0
    decay_mult: 0
  }
  param {
    lr_mult: 0
    decay_mult: 0
  }
  batch_norm_param {
    use_global_stats: true
  }
}
layer {
  name: "scale2b_branch2a"
  type: "Scale"
  bottom: "res2b_branch2a"
  top: "res2b_branch2a"
  param {
    lr_mult: 0
    decay_mult: 0
  }
  param {
    lr_mult: 0
    decay_mult: 0
  }
  scale_param {
    bias_term: true
  }
}
layer {
  name: "res2b_branch2a_relu"
  type: "ReLU"
  bottom: "res2b_branch2a"
  top: "res2b_branch2a"
}
layer {
  name: "res2b_branch2b"
  type: "Convolution"
  bottom: "res2b_branch2a"
  top: "res2b_branch2b"
  param {
    lr_mult: 0
    decay_mult: 0
  }
  convolution_param {
    num_output: 64
    bias_term: false
    pad: 1
    kernel_size: 3
    stride: 1
  }
}
layer {
  name: "bn2b_branch2b"
  type: "BatchNorm"
  bottom: "res2b_branch2b"
  top: "res2b_branch2b"
  param {
    lr_mult: 0
    decay_mult: 0
  }
  param {
    lr_mult: 0
    decay_mult: 0
  }
  param {
    lr_mult: 0
    decay_mult: 0
  }
  batch_norm_param {
    use_global_stats: true
  }
}
layer {
  name: "scale2b_branch2b"
  type: "Scale"
  bottom: "res2b_branch2b"
  top: "res2b_branch2b"
  param {
    lr_mult: 0
    decay_mult: 0
  }
  param {
    lr_mult: 0
    decay_mult: 0
  }
  scale_param {
    bias_term: true
  }
}
layer {
  name: "res2b_branch2b_relu"
  type: "ReLU"
  bottom: "res2b_branch2b"
  top: "res2b_branch2b"
}
layer {
  name: "res2b_branch2c"
  type: "Convolution"
  bottom: "res2b_branch2b"
  top: "res2b_branch2c"
  param {
    lr_mult: 0
    decay_mult: 0
  }
  convolution_param {
    num_output: 256
    bias_term: false
    pad: 0
    kernel_size: 1
    stride: 1
  }
}
layer {
  name: "bn2b_branch2c"
  type: "BatchNorm"
  bottom: "res2b_branch2c"
  top: "res2b_branch2c"
  param {
    lr_mult: 0
    decay_mult: 0
  }
  param {
    lr_mult: 0
    decay_mult: 0
  }
  param {
    lr_mult: 0
    decay_mult: 0
  }
  batch_norm_param {
    use_global_stats: true
  }
}
layer {
  name: "scale2b_branch2c"
  type: "Scale"
  bottom: "res2b_branch2c"
  top: "res2b_branch2c"
  param {
    lr_mult: 0
    decay_mult: 0
  }
  param {
    lr_mult: 0
    decay_mult: 0
  }
  scale_param {
    bias_term: true
  }
}
layer {
  name: "res2b"
  type: "Eltwise"
  bottom: "res2a"
  bottom: "res2b_branch2c"
  top: "res2b"
}
layer {
  name: "res2b_relu"
  type: "ReLU"
  bottom: "res2b"
  top: "res2b"
}
layer {
  name: "res2c_branch2a"
  type: "Convolution"
  bottom: "res2b"
  top: "res2c_branch2a"
  param {
    lr_mult: 0
    decay_mult: 0
  }
  convolution_param {
    num_output: 64
    bias_term: false
    pad: 0
    kernel_size: 1
    stride: 1
  }
}
layer {
  name: "bn2c_branch2a"
  type: "BatchNorm"
  bottom: "res2c_branch2a"
  top: "res2c_branch2a"
  param {
    lr_mult: 0
    decay_mult: 0
  }
  param {
    lr_mult: 0
    decay_mult: 0
  }
  param {
    lr_mult: 0
    decay_mult: 0
  }
  batch_norm_param {
    use_global_stats: true
  }
}
layer {
  name: "scale2c_branch2a"
  type: "Scale"
  bottom: "res2c_branch2a"
  top: "res2c_branch2a"
  param {
    lr_mult: 0
    decay_mult: 0
  }
  param {
    lr_mult: 0
    decay_mult: 0
  }
  scale_param {
    bias_term: true
  }
}
layer {
  name: "res2c_branch2a_relu"
  type: "ReLU"
  bottom: "res2c_branch2a"
  top: "res2c_branch2a"
}
layer {
  name: "res2c_branch2b"
  type: "Convolution"
  bottom: "res2c_branch2a"
  top: "res2c_branch2b"
  param {
    lr_mult: 0
    decay_mult: 0
  }
  convolution_param {
    num_output: 64
    bias_term: false
    pad: 1
    kernel_size: 3
    stride: 1
  }
}
layer {
  name: "bn2c_branch2b"
  type: "BatchNorm"
  bottom: "res2c_branch2b"
  top: "res2c_branch2b"
  param {
    lr_mult: 0
    decay_mult: 0
  }
  param {
    lr_mult: 0
    decay_mult: 0
  }
  param {
    lr_mult: 0
    decay_mult: 0
  }
  batch_norm_param {
    use_global_stats: true
  }
}
layer {
  name: "scale2c_branch2b"
  type: "Scale"
  bottom: "res2c_branch2b"
  top: "res2c_branch2b"
  param {
    lr_mult: 0
    decay_mult: 0
  }
  param {
    lr_mult: 0
    decay_mult: 0
  }
  scale_param {
    bias_term: true
  }
}
layer {
  name: "res2c_branch2b_relu"
  type: "ReLU"
  bottom: "res2c_branch2b"
  top: "res2c_branch2b"
}
layer {
  name: "res2c_branch2c"
  type: "Convolution"
  bottom: "res2c_branch2b"
  top: "res2c_branch2c"
  param {
    lr_mult: 0
    decay_mult: 0
  }
  convolution_param {
    num_output: 256
    bias_term: false
    pad: 0
    kernel_size: 1
    stride: 1
  }
}
layer {
  name: "bn2c_branch2c"
  type: "BatchNorm"
  bottom: "res2c_branch2c"
  top: "res2c_branch2c"
  param {
    lr_mult: 0
    decay_mult: 0
  }
  param {
    lr_mult: 0
    decay_mult: 0
  }
  param {
    lr_mult: 0
    decay_mult: 0
  }
  batch_norm_param {
    use_global_stats: true
  }
}
layer {
  name: "scale2c_branch2c"
  type: "Scale"
  bottom: "res2c_branch2c"
  top: "res2c_branch2c"
  param {
    lr_mult: 0
    decay_mult: 0
  }
  param {
    lr_mult: 0
    decay_mult: 0
  }
  scale_param {
    bias_term: true
  }
}
layer {
  name: "res2c"
  type: "Eltwise"
  bottom: "res2b"
  bottom: "res2c_branch2c"
  top: "res2c"
}
layer {
  name: "res2c_relu"
  type: "ReLU"
  bottom: "res2c"
  top: "res2c"
}
layer {
  name: "res3a_branch1"
  type: "Convolution"
  bottom: "res2c"
  top: "res3a_branch1"
  param {
    lr_mult: 0
    decay_mult: 0
  }
  convolution_param {
    num_output: 512
    bias_term: false
    pad: 0
    kernel_size: 1
    stride: 2
  }
}
layer {
  name: "bn3a_branch1"
  type: "BatchNorm"
  bottom: "res3a_branch1"
  top: "res3a_branch1"
  param {
    lr_mult: 0
    decay_mult: 0
  }
  param {
    lr_mult: 0
    decay_mult: 0
  }
  param {
    lr_mult: 0
    decay_mult: 0
  }
  batch_norm_param {
    use_global_stats: true
  }
}
layer {
  name: "scale3a_branch1"
  type: "Scale"
  bottom: "res3a_branch1"
  top: "res3a_branch1"
  param {
    lr_mult: 0
    decay_mult: 0
  }
  param {
    lr_mult: 0
    decay_mult: 0
  }
  scale_param {
    bias_term: true
  }
}
layer {
  name: "res3a_branch2a"
  type: "Convolution"
  bottom: "res2c"
  top: "res3a_branch2a"
  param {
    lr_mult: 0
    decay_mult: 0
  }
  convolution_param {
    num_output: 128
    bias_term: false
    pad: 0
    kernel_size: 1
    stride: 2
  }
}
layer {
  name: "bn3a_branch2a"
  type: "BatchNorm"
  bottom: "res3a_branch2a"
  top: "res3a_branch2a"
  param {
    lr_mult: 0
    decay_mult: 0
  }
  param {
    lr_mult: 0
    decay_mult: 0
  }
  param {
    lr_mult: 0
    decay_mult: 0
  }
  batch_norm_param {
    use_global_stats: true
  }
}
layer {
  name: "scale3a_branch2a"
  type: "Scale"
  bottom: "res3a_branch2a"
  top: "res3a_branch2a"
  param {
    lr_mult: 0
    decay_mult: 0
  }
  param {
    lr_mult: 0
    decay_mult: 0
  }
  scale_param {
    bias_term: true
  }
}
layer {
  name: "res3a_branch2a_relu"
  type: "ReLU"
  bottom: "res3a_branch2a"
  top: "res3a_branch2a"
}
layer {
  name: "res3a_branch2b"
  type: "Convolution"
  bottom: "res3a_branch2a"
  top: "res3a_branch2b"
  param {
    lr_mult: 0
    decay_mult: 0
  }
  convolution_param {
    num_output: 128
    bias_term: false
    pad: 1
    kernel_size: 3
    stride: 1
  }
}
layer {
  name: "bn3a_branch2b"
  type: "BatchNorm"
  bottom: "res3a_branch2b"
  top: "res3a_branch2b"
  param {
    lr_mult: 0
    decay_mult: 0
  }
  param {
    lr_mult: 0
    decay_mult: 0
  }
  param {
    lr_mult: 0
    decay_mult: 0
  }
  batch_norm_param {
    use_global_stats: true
  }
}
layer {
  name: "scale3a_branch2b"
  type: "Scale"
  bottom: "res3a_branch2b"
  top: "res3a_branch2b"
  param {
    lr_mult: 0
    decay_mult: 0
  }
  param {
    lr_mult: 0
    decay_mult: 0
  }
  scale_param {
    bias_term: true
  }
}
layer {
  name: "res3a_branch2b_relu"
  type: "ReLU"
  bottom: "res3a_branch2b"
  top: "res3a_branch2b"
}
layer {
  name: "res3a_branch2c"
  type: "Convolution"
  bottom: "res3a_branch2b"
  top: "res3a_branch2c"
  param {
    lr_mult: 0
    decay_mult: 0
  }
  convolution_param {
    num_output: 512
    bias_term: false
    pad: 0
    kernel_size: 1
    stride: 1
  }
}
layer {
  name: "bn3a_branch2c"
  type: "BatchNorm"
  bottom: "res3a_branch2c"
  top: "res3a_branch2c"
  param {
    lr_mult: 0
    decay_mult: 0
  }
  param {
    lr_mult: 0
    decay_mult: 0
  }
  param {
    lr_mult: 0
    decay_mult: 0
  }
  batch_norm_param {
    use_global_stats: true
  }
}
layer {
  name: "scale3a_branch2c"
  type: "Scale"
  bottom: "res3a_branch2c"
  top: "res3a_branch2c"
  param {
    lr_mult: 0
    decay_mult: 0
  }
  param {
    lr_mult: 0
    decay_mult: 0
  }
  scale_param {
    bias_term: true
  }
}
layer {
  name: "res3a"
  type: "Eltwise"
  bottom: "res3a_branch1"
  bottom: "res3a_branch2c"
  top: "res3a"
}
layer {
  name: "res3a_relu"
  type: "ReLU"
  bottom: "res3a"
  top: "res3a"
}
layer {
  name: "res3b1_branch2a"
  type: "Convolution"
  bottom: "res3a"
  top: "res3b1_branch2a"
  param {
    lr_mult: 0
    decay_mult: 0
  }
  convolution_param {
    num_output: 128
    bias_term: false
    pad: 0
    kernel_size: 1
    stride: 1
  }
}
layer {
  name: "bn3b1_branch2a"
  type: "BatchNorm"
  bottom: "res3b1_branch2a"
  top: "res3b1_branch2a"
  param {
    lr_mult: 0
    decay_mult: 0
  }
  param {
    lr_mult: 0
    decay_mult: 0
  }
  param {
    lr_mult: 0
    decay_mult: 0
  }
  batch_norm_param {
    use_global_stats: true
  }
}
layer {
  name: "scale3b1_branch2a"
  type: "Scale"
  bottom: "res3b1_branch2a"
  top: "res3b1_branch2a"
  param {
    lr_mult: 0
    decay_mult: 0
  }
  param {
    lr_mult: 0
    decay_mult: 0
  }
  scale_param {
    bias_term: true
  }
}
layer {
  name: "res3b1_branch2a_relu"
  type: "ReLU"
  bottom: "res3b1_branch2a"
  top: "res3b1_branch2a"
}
layer {
  name: "res3b1_branch2b"
  type: "Convolution"
  bottom: "res3b1_branch2a"
  top: "res3b1_branch2b"
  param {
    lr_mult: 0
    decay_mult: 0
  }
  convolution_param {
    num_output: 128
    bias_term: false
    pad: 1
    kernel_size: 3
    stride: 1
  }
}
layer {
  name: "bn3b1_branch2b"
  type: "BatchNorm"
  bottom: "res3b1_branch2b"
  top: "res3b1_branch2b"
  param {
    lr_mult: 0
    decay_mult: 0
  }
  param {
    lr_mult: 0
    decay_mult: 0
  }
  param {
    lr_mult: 0
    decay_mult: 0
  }
  batch_norm_param {
    use_global_stats: true
  }
}
layer {
  name: "scale3b1_branch2b"
  type: "Scale"
  bottom: "res3b1_branch2b"
  top: "res3b1_branch2b"
  param {
    lr_mult: 0
    decay_mult: 0
  }
  param {
    lr_mult: 0
    decay_mult: 0
  }
  scale_param {
    bias_term: true
  }
}
layer {
  name: "res3b1_branch2b_relu"
  type: "ReLU"
  bottom: "res3b1_branch2b"
  top: "res3b1_branch2b"
}
layer {
  name: "res3b1_branch2c"
  type: "Convolution"
  bottom: "res3b1_branch2b"
  top: "res3b1_branch2c"
  param {
    lr_mult: 0
    decay_mult: 0
  }
  convolution_param {
    num_output: 512
    bias_term: false
    pad: 0
    kernel_size: 1
    stride: 1
  }
}
layer {
  name: "bn3b1_branch2c"
  type: "BatchNorm"
  bottom: "res3b1_branch2c"
  top: "res3b1_branch2c"
  param {
    lr_mult: 0
    decay_mult: 0
  }
  param {
    lr_mult: 0
    decay_mult: 0
  }
  param {
    lr_mult: 0
    decay_mult: 0
  }
  batch_norm_param {
    use_global_stats: true
  }
}
layer {
  name: "scale3b1_branch2c"
  type: "Scale"
  bottom: "res3b1_branch2c"
  top: "res3b1_branch2c"
  param {
    lr_mult: 0
    decay_mult: 0
  }
  param {
    lr_mult: 0
    decay_mult: 0
  }
  scale_param {
    bias_term: true
  }
}
layer {
  name: "res3b1"
  type: "Eltwise"
  bottom: "res3a"
  bottom: "res3b1_branch2c"
  top: "res3b1"
}
layer {
  name: "res3b1_relu"
  type: "ReLU"
  bottom: "res3b1"
  top: "res3b1"
}
layer {
  name: "res3b2_branch2a"
  type: "Convolution"
  bottom: "res3b1"
  top: "res3b2_branch2a"
  param {
    lr_mult: 0
    decay_mult: 0
  }
  convolution_param {
    num_output: 128
    bias_term: false
    pad: 0
    kernel_size: 1
    stride: 1
  }
}
layer {
  name: "bn3b2_branch2a"
  type: "BatchNorm"
  bottom: "res3b2_branch2a"
  top: "res3b2_branch2a"
  param {
    lr_mult: 0
    decay_mult: 0
  }
  param {
    lr_mult: 0
    decay_mult: 0
  }
  param {
    lr_mult: 0
    decay_mult: 0
  }
  batch_norm_param {
    use_global_stats: true
  }
}
layer {
  name: "scale3b2_branch2a"
  type: "Scale"
  bottom: "res3b2_branch2a"
  top: "res3b2_branch2a"
  param {
    lr_mult: 0
    decay_mult: 0
  }
  param {
    lr_mult: 0
    decay_mult: 0
  }
  scale_param {
    bias_term: true
  }
}
layer {
  name: "res3b2_branch2a_relu"
  type: "ReLU"
  bottom: "res3b2_branch2a"
  top: "res3b2_branch2a"
}
layer {
  name: "res3b2_branch2b"
  type: "Convolution"
  bottom: "res3b2_branch2a"
  top: "res3b2_branch2b"
  param {
    lr_mult: 0
    decay_mult: 0
  }
  convolution_param {
    num_output: 128
    bias_term: false
    pad: 1
    kernel_size: 3
    stride: 1
  }
}
layer {
  name: "bn3b2_branch2b"
  type: "BatchNorm"
  bottom: "res3b2_branch2b"
  top: "res3b2_branch2b"
  param {
    lr_mult: 0
    decay_mult: 0
  }
  param {
    lr_mult: 0
    decay_mult: 0
  }
  param {
    lr_mult: 0
    decay_mult: 0
  }
  batch_norm_param {
    use_global_stats: true
  }
}
layer {
  name: "scale3b2_branch2b"
  type: "Scale"
  bottom: "res3b2_branch2b"
  top: "res3b2_branch2b"
  param {
    lr_mult: 0
    decay_mult: 0
  }
  param {
    lr_mult: 0
    decay_mult: 0
  }
  scale_param {
    bias_term: true
  }
}
layer {
  name: "res3b2_branch2b_relu"
  type: "ReLU"
  bottom: "res3b2_branch2b"
  top: "res3b2_branch2b"
}
layer {
  name: "res3b2_branch2c"
  type: "Convolution"
  bottom: "res3b2_branch2b"
  top: "res3b2_branch2c"
  param {
    lr_mult: 0
    decay_mult: 0
  }
  convolution_param {
    num_output: 512
    bias_term: false
    pad: 0
    kernel_size: 1
    stride: 1
  }
}
layer {
  name: "bn3b2_branch2c"
  type: "BatchNorm"
  bottom: "res3b2_branch2c"
  top: "res3b2_branch2c"
  param {
    lr_mult: 0
    decay_mult: 0
  }
  param {
    lr_mult: 0
    decay_mult: 0
  }
  param {
    lr_mult: 0
    decay_mult: 0
  }
  batch_norm_param {
    use_global_stats: true
  }
}
layer {
  name: "scale3b2_branch2c"
  type: "Scale"
  bottom: "res3b2_branch2c"
  top: "res3b2_branch2c"
  param {
    lr_mult: 0
    decay_mult: 0
  }
  param {
    lr_mult: 0
    decay_mult: 0
  }
  scale_param {
    bias_term: true
  }
}
layer {
  name: "res3b2"
  type: "Eltwise"
  bottom: "res3b1"
  bottom: "res3b2_branch2c"
  top: "res3b2"
}
layer {
  name: "res3b2_relu"
  type: "ReLU"
  bottom: "res3b2"
  top: "res3b2"
}
layer {
  name: "res3b3_branch2a"
  type: "Convolution"
  bottom: "res3b2"
  top: "res3b3_branch2a"
  param {
    lr_mult: 0
    decay_mult: 0
  }
  convolution_param {
    num_output: 128
    bias_term: false
    pad: 0
    kernel_size: 1
    stride: 1
  }
}
layer {
  name: "bn3b3_branch2a"
  type: "BatchNorm"
  bottom: "res3b3_branch2a"
  top: "res3b3_branch2a"
  param {
    lr_mult: 0
    decay_mult: 0
  }
  param {
    lr_mult: 0
    decay_mult: 0
  }
  param {
    lr_mult: 0
    decay_mult: 0
  }
  batch_norm_param {
    use_global_stats: true
  }
}
layer {
  name: "scale3b3_branch2a"
  type: "Scale"
  bottom: "res3b3_branch2a"
  top: "res3b3_branch2a"
  param {
    lr_mult: 0
    decay_mult: 0
  }
  param {
    lr_mult: 0
    decay_mult: 0
  }
  scale_param {
    bias_term: true
  }
}
layer {
  name: "res3b3_branch2a_relu"
  type: "ReLU"
  bottom: "res3b3_branch2a"
  top: "res3b3_branch2a"
}
layer {
  name: "res3b3_branch2b"
  type: "Convolution"
  bottom: "res3b3_branch2a"
  top: "res3b3_branch2b"
  param {
    lr_mult: 0
    decay_mult: 0
  }
  convolution_param {
    num_output: 128
    bias_term: false
    pad: 1
    kernel_size: 3
    stride: 1
  }
}
layer {
  name: "bn3b3_branch2b"
  type: "BatchNorm"
  bottom: "res3b3_branch2b"
  top: "res3b3_branch2b"
  param {
    lr_mult: 0
    decay_mult: 0
  }
  param {
    lr_mult: 0
    decay_mult: 0
  }
  param {
    lr_mult: 0
    decay_mult: 0
  }
  batch_norm_param {
    use_global_stats: true
  }
}
layer {
  name: "scale3b3_branch2b"
  type: "Scale"
  bottom: "res3b3_branch2b"
  top: "res3b3_branch2b"
  param {
    lr_mult: 0
    decay_mult: 0
  }
  param {
    lr_mult: 0
    decay_mult: 0
  }
  scale_param {
    bias_term: true
  }
}
layer {
  name: "res3b3_branch2b_relu"
  type: "ReLU"
  bottom: "res3b3_branch2b"
  top: "res3b3_branch2b"
}
layer {
  name: "res3b3_branch2c"
  type: "Convolution"
  bottom: "res3b3_branch2b"
  top: "res3b3_branch2c"
  param {
    lr_mult: 0
    decay_mult: 0
  }
  convolution_param {
    num_output: 512
    bias_term: false
    pad: 0
    kernel_size: 1
    stride: 1
  }
}
layer {
  name: "bn3b3_branch2c"
  type: "BatchNorm"
  bottom: "res3b3_branch2c"
  top: "res3b3_branch2c"
  param {
    lr_mult: 0
    decay_mult: 0
  }
  param {
    lr_mult: 0
    decay_mult: 0
  }
  param {
    lr_mult: 0
    decay_mult: 0
  }
  batch_norm_param {
    use_global_stats: true
  }
}
layer {
  name: "scale3b3_branch2c"
  type: "Scale"
  bottom: "res3b3_branch2c"
  top: "res3b3_branch2c"
  param {
    lr_mult: 0
    decay_mult: 0
  }
  param {
    lr_mult: 0
    decay_mult: 0
  }
  scale_param {
    bias_term: true
  }
}
layer {
  name: "res3b3"
  type: "Eltwise"
  bottom: "res3b2"
  bottom: "res3b3_branch2c"
  top: "res3b3"
}
layer {
  name: "res3b3_relu"
  type: "ReLU"
  bottom: "res3b3"
  top: "res3b3"
}
layer {
  name: "res4a_branch1"
  type: "Convolution"
  bottom: "res3b3"
  top: "res4a_branch1"
  param {
    lr_mult: 0
    decay_mult: 0
  }
  convolution_param {
    num_output: 1024
    bias_term: false
    pad: 0
    kernel_size: 1
    stride: 2
  }
}
layer {
  name: "bn4a_branch1"
  type: "BatchNorm"
  bottom: "res4a_branch1"
  top: "res4a_branch1"
  param {
    lr_mult: 0
    decay_mult: 0
  }
  param {
    lr_mult: 0
    decay_mult: 0
  }
  param {
    lr_mult: 0
    decay_mult: 0
  }
  batch_norm_param {
    use_global_stats: true
  }
}
layer {
  name: "scale4a_branch1"
  type: "Scale"
  bottom: "res4a_branch1"
  top: "res4a_branch1"
  param {
    lr_mult: 0
    decay_mult: 0
  }
  param {
    lr_mult: 0
    decay_mult: 0
  }
  scale_param {
    bias_term: true
  }
}
layer {
  name: "res4a_branch2a"
  type: "Convolution"
  bottom: "res3b3"
  top: "res4a_branch2a"
  param {
    lr_mult: 0
    decay_mult: 0
  }
  convolution_param {
    num_output: 256
    bias_term: false
    pad: 0
    kernel_size: 1
    stride: 2
  }
}
layer {
  name: "bn4a_branch2a"
  type: "BatchNorm"
  bottom: "res4a_branch2a"
  top: "res4a_branch2a"
  param {
    lr_mult: 0
    decay_mult: 0
  }
  param {
    lr_mult: 0
    decay_mult: 0
  }
  param {
    lr_mult: 0
    decay_mult: 0
  }
  batch_norm_param {
    use_global_stats: true
  }
}
layer {
  name: "scale4a_branch2a"
  type: "Scale"
  bottom: "res4a_branch2a"
  top: "res4a_branch2a"
  param {
    lr_mult: 0
    decay_mult: 0
  }
  param {
    lr_mult: 0
    decay_mult: 0
  }
  scale_param {
    bias_term: true
  }
}
layer {
  name: "res4a_branch2a_relu"
  type: "ReLU"
  bottom: "res4a_branch2a"
  top: "res4a_branch2a"
}
layer {
  name: "res4a_branch2b"
  type: "Convolution"
  bottom: "res4a_branch2a"
  top: "res4a_branch2b"
  param {
    lr_mult: 0
    decay_mult: 0
  }
  convolution_param {
    num_output: 256
    bias_term: false
    pad: 1
    kernel_size: 3
    stride: 1
  }
}
layer {
  name: "bn4a_branch2b"
  type: "BatchNorm"
  bottom: "res4a_branch2b"
  top: "res4a_branch2b"
  param {
    lr_mult: 0
    decay_mult: 0
  }
  param {
    lr_mult: 0
    decay_mult: 0
  }
  param {
    lr_mult: 0
    decay_mult: 0
  }
  batch_norm_param {
    use_global_stats: true
  }
}
layer {
  name: "scale4a_branch2b"
  type: "Scale"
  bottom: "res4a_branch2b"
  top: "res4a_branch2b"
  param {
    lr_mult: 0
    decay_mult: 0
  }
  param {
    lr_mult: 0
    decay_mult: 0
  }
  scale_param {
    bias_term: true
  }
}
layer {
  name: "res4a_branch2b_relu"
  type: "ReLU"
  bottom: "res4a_branch2b"
  top: "res4a_branch2b"
}
layer {
  name: "res4a_branch2c"
  type: "Convolution"
  bottom: "res4a_branch2b"
  top: "res4a_branch2c"
  param {
    lr_mult: 0
    decay_mult: 0
  }
  convolution_param {
    num_output: 1024
    bias_term: false
    pad: 0
    kernel_size: 1
    stride: 1
  }
}
layer {
  name: "bn4a_branch2c"
  type: "BatchNorm"
  bottom: "res4a_branch2c"
  top: "res4a_branch2c"
  param {
    lr_mult: 0
    decay_mult: 0
  }
  param {
    lr_mult: 0
    decay_mult: 0
  }
  param {
    lr_mult: 0
    decay_mult: 0
  }
  batch_norm_param {
    use_global_stats: true
  }
}
layer {
  name: "scale4a_branch2c"
  type: "Scale"
  bottom: "res4a_branch2c"
  top: "res4a_branch2c"
  param {
    lr_mult: 0
    decay_mult: 0
  }
  param {
    lr_mult: 0
    decay_mult: 0
  }
  scale_param {
    bias_term: true
  }
}
layer {
  name: "res4a"
  type: "Eltwise"
  bottom: "res4a_branch1"
  bottom: "res4a_branch2c"
  top: "res4a"
}
layer {
  name: "res4a_relu"
  type: "ReLU"
  bottom: "res4a"
  top: "res4a"
}
layer {
  name: "res4b1_branch2a"
  type: "Convolution"
  bottom: "res4a"
  top: "res4b1_branch2a"
  param {
    lr_mult: 0
    decay_mult: 0
  }
  convolution_param {
    num_output: 256
    bias_term: false
    pad: 0
    kernel_size: 1
    stride: 1
  }
}
layer {
  name: "bn4b1_branch2a"
  type: "BatchNorm"
  bottom: "res4b1_branch2a"
  top: "res4b1_branch2a"
  param {
    lr_mult: 0
    decay_mult: 0
  }
  param {
    lr_mult: 0
    decay_mult: 0
  }
  param {
    lr_mult: 0
    decay_mult: 0
  }
  batch_norm_param {
    use_global_stats: true
  }
}
layer {
  name: "scale4b1_branch2a"
  type: "Scale"
  bottom: "res4b1_branch2a"
  top: "res4b1_branch2a"
  param {
    lr_mult: 0
    decay_mult: 0
  }
  param {
    lr_mult: 0
    decay_mult: 0
  }
  scale_param {
    bias_term: true
  }
}
layer {
  name: "res4b1_branch2a_relu"
  type: "ReLU"
  bottom: "res4b1_branch2a"
  top: "res4b1_branch2a"
}
layer {
  name: "res4b1_branch2b"
  type: "Convolution"
  bottom: "res4b1_branch2a"
  top: "res4b1_branch2b"
  param {
    lr_mult: 0
    decay_mult: 0
  }
  convolution_param {
    num_output: 256
    bias_term: false
    pad: 1
    kernel_size: 3
    stride: 1
  }
}
layer {
  name: "bn4b1_branch2b"
  type: "BatchNorm"
  bottom: "res4b1_branch2b"
  top: "res4b1_branch2b"
  param {
    lr_mult: 0
    decay_mult: 0
  }
  param {
    lr_mult: 0
    decay_mult: 0
  }
  param {
    lr_mult: 0
    decay_mult: 0
  }
  batch_norm_param {
    use_global_stats: true
  }
}
layer {
  name: "scale4b1_branch2b"
  type: "Scale"
  bottom: "res4b1_branch2b"
  top: "res4b1_branch2b"
  param {
    lr_mult: 0
    decay_mult: 0
  }
  param {
    lr_mult: 0
    decay_mult: 0
  }
  scale_param {
    bias_term: true
  }
}
layer {
  name: "res4b1_branch2b_relu"
  type: "ReLU"
  bottom: "res4b1_branch2b"
  top: "res4b1_branch2b"
}
layer {
  name: "res4b1_branch2c"
  type: "Convolution"
  bottom: "res4b1_branch2b"
  top: "res4b1_branch2c"
  param {
    lr_mult: 0
    decay_mult: 0
  }
  convolution_param {
    num_output: 1024
    bias_term: false
    pad: 0
    kernel_size: 1
    stride: 1
  }
}
layer {
  name: "bn4b1_branch2c"
  type: "BatchNorm"
  bottom: "res4b1_branch2c"
  top: "res4b1_branch2c"
  param {
    lr_mult: 0
    decay_mult: 0
  }
  param {
    lr_mult: 0
    decay_mult: 0
  }
  param {
    lr_mult: 0
    decay_mult: 0
  }
  batch_norm_param {
    use_global_stats: true
  }
}
layer {
  name: "scale4b1_branch2c"
  type: "Scale"
  bottom: "res4b1_branch2c"
  top: "res4b1_branch2c"
  param {
    lr_mult: 0
    decay_mult: 0
  }
  param {
    lr_mult: 0
    decay_mult: 0
  }
  scale_param {
    bias_term: true
  }
}
layer {
  name: "res4b1"
  type: "Eltwise"
  bottom: "res4a"
  bottom: "res4b1_branch2c"
  top: "res4b1"
}
layer {
  name: "res4b1_relu"
  type: "ReLU"
  bottom: "res4b1"
  top: "res4b1"
}
layer {
  name: "res4b2_branch2a"
  type: "Convolution"
  bottom: "res4b1"
  top: "res4b2_branch2a"
  param {
    lr_mult: 0
    decay_mult: 0
  }
  convolution_param {
    num_output: 256
    bias_term: false
    pad: 0
    kernel_size: 1
    stride: 1
  }
}
layer {
  name: "bn4b2_branch2a"
  type: "BatchNorm"
  bottom: "res4b2_branch2a"
  top: "res4b2_branch2a"
  param {
    lr_mult: 0
    decay_mult: 0
  }
  param {
    lr_mult: 0
    decay_mult: 0
  }
  param {
    lr_mult: 0
    decay_mult: 
I1012 20:26:26.444720 26891 layer_factory.hpp:77] Creating layer data
I1012 20:26:26.444869 26891 db_lmdb.cpp:35] Opened lmdb /home/processyuan/data/Paris/aug/paris_aug_lmdb
I1012 20:26:26.444907 26891 net.cpp:86] Creating Layer data
I1012 20:26:26.444916 26891 net.cpp:382] data -> data
I1012 20:26:26.444945 26891 net.cpp:382] data -> label
I1012 20:26:26.447080 26891 data_layer.cpp:45] output data size: 8,3,384,512
I1012 20:26:26.490662 26891 net.cpp:124] Setting up data
I1012 20:26:26.490708 26891 net.cpp:131] Top shape: 8 3 384 512 (4718592)
I1012 20:26:26.490715 26891 net.cpp:131] Top shape: 8 (8)
I1012 20:26:26.490720 26891 net.cpp:139] Memory required for data: 18874400
I1012 20:26:26.490732 26891 layer_factory.hpp:77] Creating layer data_data_0_split
I1012 20:26:26.490749 26891 net.cpp:86] Creating Layer data_data_0_split
I1012 20:26:26.490757 26891 net.cpp:408] data_data_0_split <- data
I1012 20:26:26.490777 26891 net.cpp:382] data_data_0_split -> data_data_0_split_0
I1012 20:26:26.490792 26891 net.cpp:382] data_data_0_split -> data_data_0_split_1
I1012 20:26:26.490911 26891 net.cpp:124] Setting up data_data_0_split
I1012 20:26:26.490918 26891 net.cpp:131] Top shape: 8 3 384 512 (4718592)
I1012 20:26:26.490923 26891 net.cpp:131] Top shape: 8 3 384 512 (4718592)
I1012 20:26:26.490927 26891 net.cpp:139] Memory required for data: 56623136
I1012 20:26:26.490931 26891 layer_factory.hpp:77] Creating layer features
I1012 20:26:27.107941 26891 net.cpp:86] Creating Layer features
I1012 20:26:27.107990 26891 net.cpp:408] features <- label
I1012 20:26:27.108042 26891 net.cpp:382] features -> features
I1012 20:26:27.574045 26891 net.cpp:124] Setting up features
I1012 20:26:27.574087 26891 net.cpp:131] Top shape: 8 2048 1 1 (16384)
I1012 20:26:27.574092 26891 net.cpp:139] Memory required for data: 56688672
I1012 20:26:27.574100 26891 layer_factory.hpp:77] Creating layer rois
I1012 20:26:27.574180 26891 net.cpp:86] Creating Layer rois
I1012 20:26:27.574189 26891 net.cpp:408] rois <- data_data_0_split_0
I1012 20:26:27.574199 26891 net.cpp:382] rois -> rois
I1012 20:26:27.582609 26891 net.cpp:124] Setting up rois
I1012 20:26:27.582633 26891 net.cpp:131] Top shape: 64 5 (320)
I1012 20:26:27.582636 26891 net.cpp:139] Memory required for data: 56689952
I1012 20:26:27.582643 26891 layer_factory.hpp:77] Creating layer rois_rois_0_split
I1012 20:26:27.582662 26891 net.cpp:86] Creating Layer rois_rois_0_split
I1012 20:26:27.582667 26891 net.cpp:408] rois_rois_0_split <- rois
I1012 20:26:27.582677 26891 net.cpp:382] rois_rois_0_split -> rois_rois_0_split_0
I1012 20:26:27.582686 26891 net.cpp:382] rois_rois_0_split -> rois_rois_0_split_1
I1012 20:26:27.582722 26891 net.cpp:124] Setting up rois_rois_0_split
I1012 20:26:27.582728 26891 net.cpp:131] Top shape: 64 5 (320)
I1012 20:26:27.582732 26891 net.cpp:131] Top shape: 64 5 (320)
I1012 20:26:27.582736 26891 net.cpp:139] Memory required for data: 56692512
I1012 20:26:27.582741 26891 layer_factory.hpp:77] Creating layer conv1
I1012 20:26:27.582767 26891 net.cpp:86] Creating Layer conv1
I1012 20:26:27.582772 26891 net.cpp:408] conv1 <- data_data_0_split_1
I1012 20:26:27.582780 26891 net.cpp:382] conv1 -> conv1
I1012 20:26:28.116600 26891 net.cpp:124] Setting up conv1
I1012 20:26:28.116649 26891 net.cpp:131] Top shape: 8 64 192 256 (25165824)
I1012 20:26:28.116654 26891 net.cpp:139] Memory required for data: 157355808
I1012 20:26:28.116688 26891 layer_factory.hpp:77] Creating layer bn_conv1
I1012 20:26:28.116709 26891 net.cpp:86] Creating Layer bn_conv1
I1012 20:26:28.116715 26891 net.cpp:408] bn_conv1 <- conv1
I1012 20:26:28.116724 26891 net.cpp:369] bn_conv1 -> conv1 (in-place)
I1012 20:26:28.118151 26891 net.cpp:124] Setting up bn_conv1
I1012 20:26:28.118166 26891 net.cpp:131] Top shape: 8 64 192 256 (25165824)
I1012 20:26:28.118170 26891 net.cpp:139] Memory required for data: 258019104
I1012 20:26:28.118202 26891 layer_factory.hpp:77] Creating layer scale_conv1
I1012 20:26:28.118213 26891 net.cpp:86] Creating Layer scale_conv1
I1012 20:26:28.118217 26891 net.cpp:408] scale_conv1 <- conv1
I1012 20:26:28.118223 26891 net.cpp:369] scale_conv1 -> conv1 (in-place)
I1012 20:26:28.118285 26891 layer_factory.hpp:77] Creating layer scale_conv1
I1012 20:26:28.118458 26891 net.cpp:124] Setting up scale_conv1
I1012 20:26:28.118466 26891 net.cpp:131] Top shape: 8 64 192 256 (25165824)
I1012 20:26:28.118469 26891 net.cpp:139] Memory required for data: 358682400
I1012 20:26:28.118477 26891 layer_factory.hpp:77] Creating layer conv1_relu
I1012 20:26:28.118486 26891 net.cpp:86] Creating Layer conv1_relu
I1012 20:26:28.118491 26891 net.cpp:408] conv1_relu <- conv1
I1012 20:26:28.118505 26891 net.cpp:369] conv1_relu -> conv1 (in-place)
I1012 20:26:28.118702 26891 net.cpp:124] Setting up conv1_relu
I1012 20:26:28.118712 26891 net.cpp:131] Top shape: 8 64 192 256 (25165824)
I1012 20:26:28.118716 26891 net.cpp:139] Memory required for data: 459345696
I1012 20:26:28.118721 26891 layer_factory.hpp:77] Creating layer pool1
I1012 20:26:28.118727 26891 net.cpp:86] Creating Layer pool1
I1012 20:26:28.118732 26891 net.cpp:408] pool1 <- conv1
I1012 20:26:28.118738 26891 net.cpp:382] pool1 -> pool1
I1012 20:26:28.118803 26891 net.cpp:124] Setting up pool1
I1012 20:26:28.118811 26891 net.cpp:131] Top shape: 8 64 96 128 (6291456)
I1012 20:26:28.118816 26891 net.cpp:139] Memory required for data: 484511520
I1012 20:26:28.118826 26891 layer_factory.hpp:77] Creating layer pool1_pool1_0_split
I1012 20:26:28.118834 26891 net.cpp:86] Creating Layer pool1_pool1_0_split
I1012 20:26:28.118837 26891 net.cpp:408] pool1_pool1_0_split <- pool1
I1012 20:26:28.118860 26891 net.cpp:382] pool1_pool1_0_split -> pool1_pool1_0_split_0
I1012 20:26:28.118870 26891 net.cpp:382] pool1_pool1_0_split -> pool1_pool1_0_split_1
I1012 20:26:28.118904 26891 net.cpp:124] Setting up pool1_pool1_0_split
I1012 20:26:28.118911 26891 net.cpp:131] Top shape: 8 64 96 128 (6291456)
I1012 20:26:28.118916 26891 net.cpp:131] Top shape: 8 64 96 128 (6291456)
I1012 20:26:28.118919 26891 net.cpp:139] Memory required for data: 534843168
I1012 20:26:28.118923 26891 layer_factory.hpp:77] Creating layer res2a_branch1
I1012 20:26:28.118933 26891 net.cpp:86] Creating Layer res2a_branch1
I1012 20:26:28.118938 26891 net.cpp:408] res2a_branch1 <- pool1_pool1_0_split_0
I1012 20:26:28.118944 26891 net.cpp:382] res2a_branch1 -> res2a_branch1
I1012 20:26:28.120338 26891 net.cpp:124] Setting up res2a_branch1
I1012 20:26:28.120353 26891 net.cpp:131] Top shape: 8 256 96 128 (25165824)
I1012 20:26:28.120358 26891 net.cpp:139] Memory required for data: 635506464
I1012 20:26:28.120364 26891 layer_factory.hpp:77] Creating layer bn2a_branch1
I1012 20:26:28.120371 26891 net.cpp:86] Creating Layer bn2a_branch1
I1012 20:26:28.120376 26891 net.cpp:408] bn2a_branch1 <- res2a_branch1
I1012 20:26:28.120383 26891 net.cpp:369] bn2a_branch1 -> res2a_branch1 (in-place)
I1012 20:26:28.120574 26891 net.cpp:124] Setting up bn2a_branch1
I1012 20:26:28.120582 26891 net.cpp:131] Top shape: 8 256 96 128 (25165824)
I1012 20:26:28.120585 26891 net.cpp:139] Memory required for data: 736169760
I1012 20:26:28.120595 26891 layer_factory.hpp:77] Creating layer scale2a_branch1
I1012 20:26:28.120616 26891 net.cpp:86] Creating Layer scale2a_branch1
I1012 20:26:28.120621 26891 net.cpp:408] scale2a_branch1 <- res2a_branch1
I1012 20:26:28.120627 26891 net.cpp:369] scale2a_branch1 -> res2a_branch1 (in-place)
I1012 20:26:28.120667 26891 layer_factory.hpp:77] Creating layer scale2a_branch1
I1012 20:26:28.120786 26891 net.cpp:124] Setting up scale2a_branch1
I1012 20:26:28.120795 26891 net.cpp:131] Top shape: 8 256 96 128 (25165824)
I1012 20:26:28.120798 26891 net.cpp:139] Memory required for data: 836833056
I1012 20:26:28.120805 26891 layer_factory.hpp:77] Creating layer res2a_branch2a
I1012 20:26:28.120813 26891 net.cpp:86] Creating Layer res2a_branch2a
I1012 20:26:28.120817 26891 net.cpp:408] res2a_branch2a <- pool1_pool1_0_split_1
I1012 20:26:28.120838 26891 net.cpp:382] res2a_branch2a -> res2a_branch2a
I1012 20:26:28.123037 26891 net.cpp:124] Setting up res2a_branch2a
I1012 20:26:28.123054 26891 net.cpp:131] Top shape: 8 64 96 128 (6291456)
I1012 20:26:28.123057 26891 net.cpp:139] Memory required for data: 861998880
I1012 20:26:28.123062 26891 layer_factory.hpp:77] Creating layer bn2a_branch2a
I1012 20:26:28.123070 26891 net.cpp:86] Creating Layer bn2a_branch2a
I1012 20:26:28.123075 26891 net.cpp:408] bn2a_branch2a <- res2a_branch2a
I1012 20:26:28.123081 26891 net.cpp:369] bn2a_branch2a -> res2a_branch2a (in-place)
I1012 20:26:28.123281 26891 net.cpp:124] Setting up bn2a_branch2a
I1012 20:26:28.123289 26891 net.cpp:131] Top shape: 8 64 96 128 (6291456)
I1012 20:26:28.123293 26891 net.cpp:139] Memory required for data: 887164704
I1012 20:26:28.123299 26891 layer_factory.hpp:77] Creating layer scale2a_branch2a
I1012 20:26:28.123308 26891 net.cpp:86] Creating Layer scale2a_branch2a
I1012 20:26:28.123313 26891 net.cpp:408] scale2a_branch2a <- res2a_branch2a
I1012 20:26:28.123319 26891 net.cpp:369] scale2a_branch2a -> res2a_branch2a (in-place)
I1012 20:26:28.123358 26891 layer_factory.hpp:77] Creating layer scale2a_branch2a
I1012 20:26:28.123493 26891 net.cpp:124] Setting up scale2a_branch2a
I1012 20:26:28.123502 26891 net.cpp:131] Top shape: 8 64 96 128 (6291456)
I1012 20:26:28.123504 26891 net.cpp:139] Memory required for data: 912330528
I1012 20:26:28.123522 26891 layer_factory.hpp:77] Creating layer res2a_branch2a_relu
I1012 20:26:28.123529 26891 net.cpp:86] Creating Layer res2a_branch2a_relu
I1012 20:26:28.123534 26891 net.cpp:408] res2a_branch2a_relu <- res2a_branch2a
I1012 20:26:28.123539 26891 net.cpp:369] res2a_branch2a_relu -> res2a_branch2a (in-place)
I1012 20:26:28.123731 26891 net.cpp:124] Setting up res2a_branch2a_relu
I1012 20:26:28.123741 26891 net.cpp:131] Top shape: 8 64 96 128 (6291456)
I1012 20:26:28.123745 26891 net.cpp:139] Memory required for data: 937496352
I1012 20:26:28.123749 26891 layer_factory.hpp:77] Creating layer res2a_branch2b
I1012 20:26:28.123757 26891 net.cpp:86] Creating Layer res2a_branch2b
I1012 20:26:28.123761 26891 net.cpp:408] res2a_branch2b <- res2a_branch2a
I1012 20:26:28.123775 26891 net.cpp:382] res2a_branch2b -> res2a_branch2b
I1012 20:26:28.124855 26891 net.cpp:124] Setting up res2a_branch2b
I1012 20:26:28.124869 26891 net.cpp:131] Top shape: 8 64 96 128 (6291456)
I1012 20:26:28.124873 26891 net.cpp:139] Memory required for data: 962662176
I1012 20:26:28.124879 26891 layer_factory.hpp:77] Creating layer bn2a_branch2b
I1012 20:26:28.124886 26891 net.cpp:86] Creating Layer bn2a_branch2b
I1012 20:26:28.124891 26891 net.cpp:408] bn2a_branch2b <- res2a_branch2b
I1012 20:26:28.124897 26891 net.cpp:369] bn2a_branch2b -> res2a_branch2b (in-place)
I1012 20:26:28.125097 26891 net.cpp:124] Setting up bn2a_branch2b
I1012 20:26:28.125105 26891 net.cpp:131] Top shape: 8 64 96 128 (6291456)
I1012 20:26:28.125108 26891 net.cpp:139] Memory required for data: 987828000
I1012 20:26:28.125115 26891 layer_factory.hpp:77] Creating layer scale2a_branch2b
I1012 20:26:28.125130 26891 net.cpp:86] Creating Layer scale2a_branch2b
I1012 20:26:28.125135 26891 net.cpp:408] scale2a_branch2b <- res2a_branch2b
I1012 20:26:28.125146 26891 net.cpp:369] scale2a_branch2b -> res2a_branch2b (in-place)
I1012 20:26:28.125188 26891 layer_factory.hpp:77] Creating layer scale2a_branch2b
I1012 20:26:28.125317 26891 net.cpp:124] Setting up scale2a_branch2b
I1012 20:26:28.125325 26891 net.cpp:131] Top shape: 8 64 96 128 (6291456)
I1012 20:26:28.125329 26891 net.cpp:139] Memory required for data: 1012993824
I1012 20:26:28.125334 26891 layer_factory.hpp:77] Creating layer res2a_branch2b_relu
I1012 20:26:28.125341 26891 net.cpp:86] Creating Layer res2a_branch2b_relu
I1012 20:26:28.125345 26891 net.cpp:408] res2a_branch2b_relu <- res2a_branch2b
I1012 20:26:28.125350 26891 net.cpp:369] res2a_branch2b_relu -> res2a_branch2b (in-place)
I1012 20:26:28.125857 26891 net.cpp:124] Setting up res2a_branch2b_relu
I1012 20:26:28.125871 26891 net.cpp:131] Top shape: 8 64 96 128 (6291456)
I1012 20:26:28.125881 26891 net.cpp:139] Memory required for data: 1038159648
I1012 20:26:28.125886 26891 layer_factory.hpp:77] Creating layer res2a_branch2c
I1012 20:26:28.125895 26891 net.cpp:86] Creating Layer res2a_branch2c
I1012 20:26:28.125900 26891 net.cpp:408] res2a_branch2c <- res2a_branch2b
I1012 20:26:28.125906 26891 net.cpp:382] res2a_branch2c -> res2a_branch2c
I1012 20:26:28.126981 26891 net.cpp:124] Setting up res2a_branch2c
I1012 20:26:28.126996 26891 net.cpp:131] Top shape: 8 256 96 128 (25165824)
I1012 20:26:28.127001 26891 net.cpp:139] Memory required for data: 1138822944
I1012 20:26:28.127007 26891 layer_factory.hpp:77] Creating layer bn2a_branch2c
I1012 20:26:28.127013 26891 net.cpp:86] Creating Layer bn2a_branch2c
I1012 20:26:28.127018 26891 net.cpp:408] bn2a_branch2c <- res2a_branch2c
I1012 20:26:28.127025 26891 net.cpp:369] bn2a_branch2c -> res2a_branch2c (in-place)
I1012 20:26:28.127224 26891 net.cpp:124] Setting up bn2a_branch2c
I1012 20:26:28.127233 26891 net.cpp:131] Top shape: 8 256 96 128 (25165824)
I1012 20:26:28.127235 26891 net.cpp:139] Memory required for data: 1239486240
I1012 20:26:28.127251 26891 layer_factory.hpp:77] Creating layer scale2a_branch2c
I1012 20:26:28.127259 26891 net.cpp:86] Creating Layer scale2a_branch2c
I1012 20:26:28.127264 26891 net.cpp:408] scale2a_branch2c <- res2a_branch2c
I1012 20:26:28.127269 26891 net.cpp:369] scale2a_branch2c -> res2a_branch2c (in-place)
I1012 20:26:28.127311 26891 layer_factory.hpp:77] Creating layer scale2a_branch2c
I1012 20:26:28.127435 26891 net.cpp:124] Setting up scale2a_branch2c
I1012 20:26:28.127444 26891 net.cpp:131] Top shape: 8 256 96 128 (25165824)
I1012 20:26:28.127446 26891 net.cpp:139] Memory required for data: 1340149536
I1012 20:26:28.127461 26891 layer_factory.hpp:77] Creating layer res2a
I1012 20:26:28.127468 26891 net.cpp:86] Creating Layer res2a
I1012 20:26:28.127472 26891 net.cpp:408] res2a <- res2a_branch1
I1012 20:26:28.127477 26891 net.cpp:408] res2a <- res2a_branch2c
I1012 20:26:28.127483 26891 net.cpp:382] res2a -> res2a
I1012 20:26:28.127516 26891 net.cpp:124] Setting up res2a
I1012 20:26:28.127522 26891 net.cpp:131] Top shape: 8 256 96 128 (25165824)
I1012 20:26:28.127526 26891 net.cpp:139] Memory required for data: 1440812832
I1012 20:26:28.127530 26891 layer_factory.hpp:77] Creating layer res2a_relu
I1012 20:26:28.127535 26891 net.cpp:86] Creating Layer res2a_relu
I1012 20:26:28.127540 26891 net.cpp:408] res2a_relu <- res2a
I1012 20:26:28.127552 26891 net.cpp:369] res2a_relu -> res2a (in-place)
I1012 20:26:28.127735 26891 net.cpp:124] Setting up res2a_relu
I1012 20:26:28.127744 26891 net.cpp:131] Top shape: 8 256 96 128 (25165824)
I1012 20:26:28.127748 26891 net.cpp:139] Memory required for data: 1541476128
I1012 20:26:28.127751 26891 layer_factory.hpp:77] Creating layer res2a_res2a_relu_0_split
I1012 20:26:28.127764 26891 net.cpp:86] Creating Layer res2a_res2a_relu_0_split
I1012 20:26:28.127769 26891 net.cpp:408] res2a_res2a_relu_0_split <- res2a
I1012 20:26:28.127775 26891 net.cpp:382] res2a_res2a_relu_0_split -> res2a_res2a_relu_0_split_0
I1012 20:26:28.127782 26891 net.cpp:382] res2a_res2a_relu_0_split -> res2a_res2a_relu_0_split_1
I1012 20:26:28.127825 26891 net.cpp:124] Setting up res2a_res2a_relu_0_split
I1012 20:26:28.127830 26891 net.cpp:131] Top shape: 8 256 96 128 (25165824)
I1012 20:26:28.127835 26891 net.cpp:131] Top shape: 8 256 96 128 (25165824)
I1012 20:26:28.127838 26891 net.cpp:139] Memory required for data: 1742802720
I1012 20:26:28.127842 26891 layer_factory.hpp:77] Creating layer res2b_branch2a
I1012 20:26:28.127851 26891 net.cpp:86] Creating Layer res2b_branch2a
I1012 20:26:28.127854 26891 net.cpp:408] res2b_branch2a <- res2a_res2a_relu_0_split_0
I1012 20:26:28.127867 26891 net.cpp:382] res2b_branch2a -> res2b_branch2a
I1012 20:26:28.128943 26891 net.cpp:124] Setting up res2b_branch2a
I1012 20:26:28.128957 26891 net.cpp:131] Top shape: 8 64 96 128 (6291456)
I1012 20:26:28.128962 26891 net.cpp:139] Memory required for data: 1767968544
I1012 20:26:28.128968 26891 layer_factory.hpp:77] Creating layer bn2b_branch2a
I1012 20:26:28.128980 26891 net.cpp:86] Creating Layer bn2b_branch2a
I1012 20:26:28.128985 26891 net.cpp:408] bn2b_branch2a <- res2b_branch2a
I1012 20:26:28.128991 26891 net.cpp:369] bn2b_branch2a -> res2b_branch2a (in-place)
I1012 20:26:28.129202 26891 net.cpp:124] Setting up bn2b_branch2a
I1012 20:26:28.129211 26891 net.cpp:131] Top shape: 8 64 96 128 (6291456)
I1012 20:26:28.129215 26891 net.cpp:139] Memory required for data: 1793134368
I1012 20:26:28.129225 26891 layer_factory.hpp:77] Creating layer scale2b_branch2a
I1012 20:26:28.129232 26891 net.cpp:86] Creating Layer scale2b_branch2a
I1012 20:26:28.129237 26891 net.cpp:408] scale2b_branch2a <- res2b_branch2a
I1012 20:26:28.129243 26891 net.cpp:369] scale2b_branch2a -> res2b_branch2a (in-place)
I1012 20:26:28.129284 26891 layer_factory.hpp:77] Creating layer scale2b_branch2a
I1012 20:26:28.129423 26891 net.cpp:124] Setting up scale2b_branch2a
I1012 20:26:28.129434 26891 net.cpp:131] Top shape: 8 64 96 128 (6291456)
I1012 20:26:28.129437 26891 net.cpp:139] Memory required for data: 1818300192
I1012 20:26:28.129451 26891 layer_factory.hpp:77] Creating layer res2b_branch2a_relu
I1012 20:26:28.129457 26891 net.cpp:86] Creating Layer res2b_branch2a_relu
I1012 20:26:28.129462 26891 net.cpp:408] res2b_branch2a_relu <- res2b_branch2a
I1012 20:26:28.129467 26891 net.cpp:369] res2b_branch2a_relu -> res2b_branch2a (in-place)
I1012 20:26:28.129667 26891 net.cpp:124] Setting up res2b_branch2a_relu
I1012 20:26:28.129678 26891 net.cpp:131] Top shape: 8 64 96 128 (6291456)
I1012 20:26:28.129683 26891 net.cpp:139] Memory required for data: 1843466016
I1012 20:26:28.129686 26891 layer_factory.hpp:77] Creating layer res2b_branch2b
I1012 20:26:28.129709 26891 net.cpp:86] Creating Layer res2b_branch2b
I1012 20:26:28.129714 26891 net.cpp:408] res2b_branch2b <- res2b_branch2a
I1012 20:26:28.129729 26891 net.cpp:382] res2b_branch2b -> res2b_branch2b
I1012 20:26:28.131225 26891 net.cpp:124] Setting up res2b_branch2b
I1012 20:26:28.131240 26891 net.cpp:131] Top shape: 8 64 96 128 (6291456)
I1012 20:26:28.131244 26891 net.cpp:139] Memory required for data: 1868631840
I1012 20:26:28.131250 26891 layer_factory.hpp:77] Creating layer bn2b_branch2b
I1012 20:26:28.131259 26891 net.cpp:86] Creating Layer bn2b_branch2b
I1012 20:26:28.131264 26891 net.cpp:408] bn2b_branch2b <- res2b_branch2b
I1012 20:26:28.131273 26891 net.cpp:369] bn2b_branch2b -> res2b_branch2b (in-place)
I1012 20:26:28.131502 26891 net.cpp:124] Setting up bn2b_branch2b
I1012 20:26:28.131511 26891 net.cpp:131] Top shape: 8 64 96 128 (6291456)
I1012 20:26:28.131515 26891 net.cpp:139] Memory required for data: 1893797664
I1012 20:26:28.131521 26891 layer_factory.hpp:77] Creating layer scale2b_branch2b
I1012 20:26:28.131538 26891 net.cpp:86] Creating Layer scale2b_branch2b
I1012 20:26:28.131543 26891 net.cpp:408] scale2b_branch2b <- res2b_branch2b
I1012 20:26:28.131548 26891 net.cpp:369] scale2b_branch2b -> res2b_branch2b (in-place)
I1012 20:26:28.131594 26891 layer_factory.hpp:77] Creating layer scale2b_branch2b
I1012 20:26:28.131738 26891 net.cpp:124] Setting up scale2b_branch2b
I1012 20:26:28.131747 26891 net.cpp:131] Top shape: 8 64 96 128 (6291456)
I1012 20:26:28.131750 26891 net.cpp:139] Memory required for data: 1918963488
I1012 20:26:28.131755 26891 layer_factory.hpp:77] Creating layer res2b_branch2b_relu
I1012 20:26:28.131762 26891 net.cpp:86] Creating Layer res2b_branch2b_relu
I1012 20:26:28.131767 26891 net.cpp:408] res2b_branch2b_relu <- res2b_branch2b
I1012 20:26:28.131773 26891 net.cpp:369] res2b_branch2b_relu -> res2b_branch2b (in-place)
I1012 20:26:28.132299 26891 net.cpp:124] Setting up res2b_branch2b_relu
I1012 20:26:28.132313 26891 net.cpp:131] Top shape: 8 64 96 128 (6291456)
I1012 20:26:28.132318 26891 net.cpp:139] Memory required for data: 1944129312
I1012 20:26:28.132321 26891 layer_factory.hpp:77] Creating layer res2b_branch2c
I1012 20:26:28.132333 26891 net.cpp:86] Creating Layer res2b_branch2c
I1012 20:26:28.132338 26891 net.cpp:408] res2b_branch2c <- res2b_branch2b
I1012 20:26:28.132359 26891 net.cpp:382] res2b_branch2c -> res2b_branch2c
I1012 20:26:28.133517 26891 net.cpp:124] Setting up res2b_branch2c
I1012 20:26:28.133530 26891 net.cpp:131] Top shape: 8 256 96 128 (25165824)
I1012 20:26:28.133535 26891 net.cpp:139] Memory required for data: 2044792608
I1012 20:26:28.133540 26891 layer_factory.hpp:77] Creating layer bn2b_branch2c
I1012 20:26:28.133549 26891 net.cpp:86] Creating Layer bn2b_branch2c
I1012 20:26:28.133554 26891 net.cpp:408] bn2b_branch2c <- res2b_branch2c
I1012 20:26:28.133561 26891 net.cpp:369] bn2b_branch2c -> res2b_branch2c (in-place)
I1012 20:26:28.133779 26891 net.cpp:124] Setting up bn2b_branch2c
I1012 20:26:28.133786 26891 net.cpp:131] Top shape: 8 256 96 128 (25165824)
I1012 20:26:28.133790 26891 net.cpp:139] Memory required for data: 2145455904
I1012 20:26:28.133805 26891 layer_factory.hpp:77] Creating layer scale2b_branch2c
I1012 20:26:28.133813 26891 net.cpp:86] Creating Layer scale2b_branch2c
I1012 20:26:28.133817 26891 net.cpp:408] scale2b_branch2c <- res2b_branch2c
I1012 20:26:28.133823 26891 net.cpp:369] scale2b_branch2c -> res2b_branch2c (in-place)
I1012 20:26:28.133869 26891 layer_factory.hpp:77] Creating layer scale2b_branch2c
I1012 20:26:28.134007 26891 net.cpp:124] Setting up scale2b_branch2c
I1012 20:26:28.134016 26891 net.cpp:131] Top shape: 8 256 96 128 (25165824)
I1012 20:26:28.134018 26891 net.cpp:139] Memory required for data: 2246119200
I1012 20:26:28.134024 26891 layer_factory.hpp:77] Creating layer res2b
I1012 20:26:28.134030 26891 net.cpp:86] Creating Layer res2b
I1012 20:26:28.134034 26891 net.cpp:408] res2b <- res2a_res2a_relu_0_split_1
I1012 20:26:28.134039 26891 net.cpp:408] res2b <- res2b_branch2c
I1012 20:26:28.134057 26891 net.cpp:382] res2b -> res2b
I1012 20:26:28.134086 26891 net.cpp:124] Setting up res2b
I1012 20:26:28.134093 26891 net.cpp:131] Top shape: 8 256 96 128 (25165824)
I1012 20:26:28.134096 26891 net.cpp:139] Memory required for data: 2346782496
I1012 20:26:28.134100 26891 layer_factory.hpp:77] Creating layer res2b_relu
I1012 20:26:28.134106 26891 net.cpp:86] Creating Layer res2b_relu
I1012 20:26:28.134110 26891 net.cpp:408] res2b_relu <- res2b
I1012 20:26:28.134129 26891 net.cpp:369] res2b_relu -> res2b (in-place)
I1012 20:26:28.134331 26891 net.cpp:124] Setting up res2b_relu
I1012 20:26:28.134342 26891 net.cpp:131] Top shape: 8 256 96 128 (25165824)
I1012 20:26:28.134346 26891 net.cpp:139] Memory required for data: 2447445792
I1012 20:26:28.134351 26891 layer_factory.hpp:77] Creating layer res2b_res2b_relu_0_split
I1012 20:26:28.134362 26891 net.cpp:86] Creating Layer res2b_res2b_relu_0_split
I1012 20:26:28.134367 26891 net.cpp:408] res2b_res2b_relu_0_split <- res2b
I1012 20:26:28.134376 26891 net.cpp:382] res2b_res2b_relu_0_split -> res2b_res2b_relu_0_split_0
I1012 20:26:28.134383 26891 net.cpp:382] res2b_res2b_relu_0_split -> res2b_res2b_relu_0_split_1
I1012 20:26:28.134430 26891 net.cpp:124] Setting up res2b_res2b_relu_0_split
I1012 20:26:28.134438 26891 net.cpp:131] Top shape: 8 256 96 128 (25165824)
I1012 20:26:28.134441 26891 net.cpp:131] Top shape: 8 256 96 128 (25165824)
I1012 20:26:28.134445 26891 net.cpp:139] Memory required for data: 2648772384
I1012 20:26:28.134449 26891 layer_factory.hpp:77] Creating layer res2c_branch2a
I1012 20:26:28.134459 26891 net.cpp:86] Creating Layer res2c_branch2a
I1012 20:26:28.134464 26891 net.cpp:408] res2c_branch2a <- res2b_res2b_relu_0_split_0
I1012 20:26:28.134469 26891 net.cpp:382] res2c_branch2a -> res2c_branch2a
I1012 20:26:28.135651 26891 net.cpp:124] Setting up res2c_branch2a
I1012 20:26:28.135665 26891 net.cpp:131] Top shape: 8 64 96 128 (6291456)
I1012 20:26:28.135669 26891 net.cpp:139] Memory required for data: 2673938208
I1012 20:26:28.135675 26891 layer_factory.hpp:77] Creating layer bn2c_branch2a
I1012 20:26:28.135684 26891 net.cpp:86] Creating Layer bn2c_branch2a
I1012 20:26:28.135689 26891 net.cpp:408] bn2c_branch2a <- res2c_branch2a
I1012 20:26:28.135704 26891 net.cpp:369] bn2c_branch2a -> res2c_branch2a (in-place)
I1012 20:26:28.135929 26891 net.cpp:124] Setting up bn2c_branch2a
I1012 20:26:28.135942 26891 net.cpp:131] Top shape: 8 64 96 128 (6291456)
I1012 20:26:28.135946 26891 net.cpp:139] Memory required for data: 2699104032
I1012 20:26:28.135953 26891 layer_factory.hpp:77] Creating layer scale2c_branch2a
I1012 20:26:28.135962 26891 net.cpp:86] Creating Layer scale2c_branch2a
I1012 20:26:28.135967 26891 net.cpp:408] scale2c_branch2a <- res2c_branch2a
I1012 20:26:28.135979 26891 net.cpp:369] scale2c_branch2a -> res2c_branch2a (in-place)
I1012 20:26:28.136026 26891 layer_factory.hpp:77] Creating layer scale2c_branch2a
I1012 20:26:28.136169 26891 net.cpp:124] Setting up scale2c_branch2a
I1012 20:26:28.136178 26891 net.cpp:131] Top shape: 8 64 96 128 (6291456)
I1012 20:26:28.136181 26891 net.cpp:139] Memory required for data: 2724269856
I1012 20:26:28.136193 26891 layer_factory.hpp:77] Creating layer res2c_branch2a_relu
I1012 20:26:28.136201 26891 net.cpp:86] Creating Layer res2c_branch2a_relu
I1012 20:26:28.136206 26891 net.cpp:408] res2c_branch2a_relu <- res2c_branch2a
I1012 20:26:28.136212 26891 net.cpp:369] res2c_branch2a_relu -> res2c_branch2a (in-place)
I1012 20:26:28.136410 26891 net.cpp:124] Setting up res2c_branch2a_relu
I1012 20:26:28.136420 26891 net.cpp:131] Top shape: 8 64 96 128 (6291456)
I1012 20:26:28.136423 26891 net.cpp:139] Memory required for data: 2749435680
I1012 20:26:28.136427 26891 layer_factory.hpp:77] Creating layer res2c_branch2b
I1012 20:26:28.136440 26891 net.cpp:86] Creating Layer res2c_branch2b
I1012 20:26:28.136445 26891 net.cpp:408] res2c_branch2b <- res2c_branch2a
I1012 20:26:28.136459 26891 net.cpp:382] res2c_branch2b -> res2c_branch2b
I1012 20:26:28.137634 26891 net.cpp:124] Setting up res2c_branch2b
I1012 20:26:28.137647 26891 net.cpp:131] Top shape: 8 64 96 128 (6291456)
I1012 20:26:28.137660 26891 net.cpp:139] Memory required for data: 2774601504
I1012 20:26:28.137667 26891 layer_factory.hpp:77] Creating layer bn2c_branch2b
I1012 20:26:28.137676 26891 net.cpp:86] Creating Layer bn2c_branch2b
I1012 20:26:28.137681 26891 net.cpp:408] bn2c_branch2b <- res2c_branch2b
I1012 20:26:28.137689 26891 net.cpp:369] bn2c_branch2b -> res2c_branch2b (in-place)
I1012 20:26:28.137920 26891 net.cpp:124] Setting up bn2c_branch2b
I1012 20:26:28.137928 26891 net.cpp:131] Top shape: 8 64 96 128 (6291456)
I1012 20:26:28.137933 26891 net.cpp:139] Memory required for data: 2799767328
I1012 20:26:28.137938 26891 layer_factory.hpp:77] Creating layer scale2c_branch2b
I1012 20:26:28.137954 26891 net.cpp:86] Creating Layer scale2c_branch2b
I1012 20:26:28.137959 26891 net.cpp:408] scale2c_branch2b <- res2c_branch2b
I1012 20:26:28.137966 26891 net.cpp:369] scale2c_branch2b -> res2c_branch2b (in-place)
I1012 20:26:28.138010 26891 layer_factory.hpp:77] Creating layer scale2c_branch2b
I1012 20:26:28.138156 26891 net.cpp:124] Setting up scale2c_branch2b
I1012 20:26:28.138164 26891 net.cpp:131] Top shape: 8 64 96 128 (6291456)
I1012 20:26:28.138167 26891 net.cpp:139] Memory required for data: 2824933152
I1012 20:26:28.138173 26891 layer_factory.hpp:77] Creating layer res2c_branch2b_relu
I1012 20:26:28.138180 26891 net.cpp:86] Creating Layer res2c_branch2b_relu
I1012 20:26:28.138185 26891 net.cpp:408] res2c_branch2b_relu <- res2c_branch2b
I1012 20:26:28.138190 26891 net.cpp:369] res2c_branch2b_relu -> res2c_branch2b (in-place)
I1012 20:26:28.138399 26891 net.cpp:124] Setting up res2c_branch2b_relu
I1012 20:26:28.138411 26891 net.cpp:131] Top shape: 8 64 96 128 (6291456)
I1012 20:26:28.138415 26891 net.cpp:139] Memory required for data: 2850098976
I1012 20:26:28.138419 26891 layer_factory.hpp:77] Creating layer res2c_branch2c
I1012 20:26:28.138428 26891 net.cpp:86] Creating Layer res2c_branch2c
I1012 20:26:28.138434 26891 net.cpp:408] res2c_branch2c <- res2c_branch2b
I1012 20:26:28.138448 26891 net.cpp:382] res2c_branch2c -> res2c_branch2c
I1012 20:26:28.139626 26891 net.cpp:124] Setting up res2c_branch2c
I1012 20:26:28.139641 26891 net.cpp:131] Top shape: 8 256 96 128 (25165824)
I1012 20:26:28.139645 26891 net.cpp:139] Memory required for data: 2950762272
I1012 20:26:28.139655 26891 layer_factory.hpp:77] Creating layer bn2c_branch2c
I1012 20:26:28.139665 26891 net.cpp:86] Creating Layer bn2c_branch2c
I1012 20:26:28.139670 26891 net.cpp:408] bn2c_branch2c <- res2c_branch2c
I1012 20:26:28.139678 26891 net.cpp:369] bn2c_branch2c -> res2c_branch2c (in-place)
I1012 20:26:28.139896 26891 net.cpp:124] Setting up bn2c_branch2c
I1012 20:26:28.139904 26891 net.cpp:131] Top shape: 8 256 96 128 (25165824)
I1012 20:26:28.139907 26891 net.cpp:139] Memory required for data: 3051425568
I1012 20:26:28.139924 26891 layer_factory.hpp:77] Creating layer scale2c_branch2c
I1012 20:26:28.139933 26891 net.cpp:86] Creating Layer scale2c_branch2c
I1012 20:26:28.139937 26891 net.cpp:408] scale2c_branch2c <- res2c_branch2c
I1012 20:26:28.139948 26891 net.cpp:369] scale2c_branch2c -> res2c_branch2c (in-place)
I1012 20:26:28.139994 26891 layer_factory.hpp:77] Creating layer scale2c_branch2c
I1012 20:26:28.140134 26891 net.cpp:124] Setting up scale2c_branch2c
I1012 20:26:28.140141 26891 net.cpp:131] Top shape: 8 256 96 128 (25165824)
I1012 20:26:28.140146 26891 net.cpp:139] Memory required for data: 3152088864
I1012 20:26:28.140162 26891 layer_factory.hpp:77] Creating layer res2c
I1012 20:26:28.140169 26891 net.cpp:86] Creating Layer res2c
I1012 20:26:28.140174 26891 net.cpp:408] res2c <- res2b_res2b_relu_0_split_1
I1012 20:26:28.140179 26891 net.cpp:408] res2c <- res2c_branch2c
I1012 20:26:28.140185 26891 net.cpp:382] res2c -> res2c
I1012 20:26:28.140213 26891 net.cpp:124] Setting up res2c
I1012 20:26:28.140219 26891 net.cpp:131] Top shape: 8 256 96 128 (25165824)
I1012 20:26:28.140223 26891 net.cpp:139] Memory required for data: 3252752160
I1012 20:26:28.140226 26891 layer_factory.hpp:77] Creating layer res2c_relu
I1012 20:26:28.140240 26891 net.cpp:86] Creating Layer res2c_relu
I1012 20:26:28.140244 26891 net.cpp:408] res2c_relu <- res2c
I1012 20:26:28.140259 26891 net.cpp:369] res2c_relu -> res2c (in-place)
I1012 20:26:28.140796 26891 net.cpp:124] Setting up res2c_relu
I1012 20:26:28.140810 26891 net.cpp:131] Top shape: 8 256 96 128 (25165824)
I1012 20:26:28.140813 26891 net.cpp:139] Memory required for data: 3353415456
I1012 20:26:28.140817 26891 layer_factory.hpp:77] Creating layer res2c_res2c_relu_0_split
I1012 20:26:28.140835 26891 net.cpp:86] Creating Layer res2c_res2c_relu_0_split
I1012 20:26:28.140839 26891 net.cpp:408] res2c_res2c_relu_0_split <- res2c
I1012 20:26:28.140846 26891 net.cpp:382] res2c_res2c_relu_0_split -> res2c_res2c_relu_0_split_0
I1012 20:26:28.140854 26891 net.cpp:382] res2c_res2c_relu_0_split -> res2c_res2c_relu_0_split_1
I1012 20:26:28.140902 26891 net.cpp:124] Setting up res2c_res2c_relu_0_split
I1012 20:26:28.140909 26891 net.cpp:131] Top shape: 8 256 96 128 (25165824)
I1012 20:26:28.140914 26891 net.cpp:131] Top shape: 8 256 96 128 (25165824)
I1012 20:26:28.140918 26891 net.cpp:139] Memory required for data: 3554742048
I1012 20:26:28.140923 26891 layer_factory.hpp:77] Creating layer res3a_branch1
I1012 20:26:28.140933 26891 net.cpp:86] Creating Layer res3a_branch1
I1012 20:26:28.140938 26891 net.cpp:408] res3a_branch1 <- res2c_res2c_relu_0_split_0
I1012 20:26:28.140945 26891 net.cpp:382] res3a_branch1 -> res3a_branch1
I1012 20:26:28.143373 26891 net.cpp:124] Setting up res3a_branch1
I1012 20:26:28.143388 26891 net.cpp:131] Top shape: 8 512 48 64 (12582912)
I1012 20:26:28.143393 26891 net.cpp:139] Memory required for data: 3605073696
I1012 20:26:28.143409 26891 layer_factory.hpp:77] Creating layer bn3a_branch1
I1012 20:26:28.143419 26891 net.cpp:86] Creating Layer bn3a_branch1
I1012 20:26:28.143424 26891 net.cpp:408] bn3a_branch1 <- res3a_branch1
I1012 20:26:28.143432 26891 net.cpp:369] bn3a_branch1 -> res3a_branch1 (in-place)
I1012 20:26:28.144807 26891 net.cpp:124] Setting up bn3a_branch1
I1012 20:26:28.144822 26891 net.cpp:131] Top shape: 8 512 48 64 (12582912)
I1012 20:26:28.144826 26891 net.cpp:139] Memory required for data: 3655405344
I1012 20:26:28.144834 26891 layer_factory.hpp:77] Creating layer scale3a_branch1
I1012 20:26:28.144840 26891 net.cpp:86] Creating Layer scale3a_branch1
I1012 20:26:28.144851 26891 net.cpp:408] scale3a_branch1 <- res3a_branch1
I1012 20:26:28.144866 26891 net.cpp:369] scale3a_branch1 -> res3a_branch1 (in-place)
I1012 20:26:28.144913 26891 layer_factory.hpp:77] Creating layer scale3a_branch1
I1012 20:26:28.145031 26891 net.cpp:124] Setting up scale3a_branch1
I1012 20:26:28.145040 26891 net.cpp:131] Top shape: 8 512 48 64 (12582912)
I1012 20:26:28.145043 26891 net.cpp:139] Memory required for data: 3705736992
I1012 20:26:28.145061 26891 layer_factory.hpp:77] Creating layer res3a_branch2a
I1012 20:26:28.145071 26891 net.cpp:86] Creating Layer res3a_branch2a
I1012 20:26:28.145076 26891 net.cpp:408] res3a_branch2a <- res2c_res2c_relu_0_split_1
I1012 20:26:28.145082 26891 net.cpp:382] res3a_branch2a -> res3a_branch2a
I1012 20:26:28.146309 26891 net.cpp:124] Setting up res3a_branch2a
I1012 20:26:28.146325 26891 net.cpp:131] Top shape: 8 128 48 64 (3145728)
I1012 20:26:28.146329 26891 net.cpp:139] Memory required for data: 3718319904
I1012 20:26:28.146335 26891 layer_factory.hpp:77] Creating layer bn3a_branch2a
I1012 20:26:28.146342 26891 net.cpp:86] Creating Layer bn3a_branch2a
I1012 20:26:28.146347 26891 net.cpp:408] bn3a_branch2a <- res3a_branch2a
I1012 20:26:28.146363 26891 net.cpp:369] bn3a_branch2a -> res3a_branch2a (in-place)
I1012 20:26:28.146574 26891 net.cpp:124] Setting up bn3a_branch2a
I1012 20:26:28.146581 26891 net.cpp:131] Top shape: 8 128 48 64 (3145728)
I1012 20:26:28.146585 26891 net.cpp:139] Memory required for data: 3730902816
I1012 20:26:28.146592 26891 layer_factory.hpp:77] Creating layer scale3a_branch2a
I1012 20:26:28.146600 26891 net.cpp:86] Creating Layer scale3a_branch2a
I1012 20:26:28.146605 26891 net.cpp:408] scale3a_branch2a <- res3a_branch2a
I1012 20:26:28.146620 26891 net.cpp:369] scale3a_branch2a -> res3a_branch2a (in-place)
I1012 20:26:28.146667 26891 layer_factory.hpp:77] Creating layer scale3a_branch2a
I1012 20:26:28.146783 26891 net.cpp:124] Setting up scale3a_branch2a
I1012 20:26:28.146790 26891 net.cpp:131] Top shape: 8 128 48 64 (3145728)
I1012 20:26:28.146795 26891 net.cpp:139] Memory required for data: 3743485728
I1012 20:26:28.146806 26891 layer_factory.hpp:77] Creating layer res3a_branch2a_relu
I1012 20:26:28.146812 26891 net.cpp:86] Creating Layer res3a_branch2a_relu
I1012 20:26:28.146816 26891 net.cpp:408] res3a_branch2a_relu <- res3a_branch2a
I1012 20:26:28.146824 26891 net.cpp:369] res3a_branch2a_relu -> res3a_branch2a (in-place)
I1012 20:26:28.147032 26891 net.cpp:124] Setting up res3a_branch2a_relu
I1012 20:26:28.147042 26891 net.cpp:131] Top shape: 8 128 48 64 (3145728)
I1012 20:26:28.147047 26891 net.cpp:139] Memory required for data: 3756068640
I1012 20:26:28.147049 26891 layer_factory.hpp:77] Creating layer res3a_branch2b
I1012 20:26:28.147060 26891 net.cpp:86] Creating Layer res3a_branch2b
I1012 20:26:28.147065 26891 net.cpp:408] res3a_branch2b <- res3a_branch2a
I1012 20:26:28.147073 26891 net.cpp:382] res3a_branch2b -> res3a_branch2b
I1012 20:26:28.148653 26891 net.cpp:124] Setting up res3a_branch2b
I1012 20:26:28.148667 26891 net.cpp:131] Top shape: 8 128 48 64 (3145728)
I1012 20:26:28.148671 26891 net.cpp:139] Memory required for data: 3768651552
I1012 20:26:28.148677 26891 layer_factory.hpp:77] Creating layer bn3a_branch2b
I1012 20:26:28.148694 26891 net.cpp:86] Creating Layer bn3a_branch2b
I1012 20:26:28.148701 26891 net.cpp:408] bn3a_branch2b <- res3a_branch2b
I1012 20:26:28.148715 26891 net.cpp:369] bn3a_branch2b -> res3a_branch2b (in-place)
I1012 20:26:28.148936 26891 net.cpp:124] Setting up bn3a_branch2b
I1012 20:26:28.148946 26891 net.cpp:131] Top shape: 8 128 48 64 (3145728)
I1012 20:26:28.148949 26891 net.cpp:139] Memory required for data: 3781234464
I1012 20:26:28.148957 26891 layer_factory.hpp:77] Creating layer scale3a_branch2b
I1012 20:26:28.148963 26891 net.cpp:86] Creating Layer scale3a_branch2b
I1012 20:26:28.148967 26891 net.cpp:408] scale3a_branch2b <- res3a_branch2b
I1012 20:26:28.148977 26891 net.cpp:369] scale3a_branch2b -> res3a_branch2b (in-place)
I1012 20:26:28.149019 26891 layer_factory.hpp:77] Creating layer scale3a_branch2b
I1012 20:26:28.149137 26891 net.cpp:124] Setting up scale3a_branch2b
I1012 20:26:28.149145 26891 net.cpp:131] Top shape: 8 128 48 64 (3145728)
I1012 20:26:28.149149 26891 net.cpp:139] Memory required for data: 3793817376
I1012 20:26:28.149161 26891 layer_factory.hpp:77] Creating layer res3a_branch2b_relu
I1012 20:26:28.149168 26891 net.cpp:86] Creating Layer res3a_branch2b_relu
I1012 20:26:28.149171 26891 net.cpp:408] res3a_branch2b_relu <- res3a_branch2b
I1012 20:26:28.149180 26891 net.cpp:369] res3a_branch2b_relu -> res3a_branch2b (in-place)
I1012 20:26:28.149386 26891 net.cpp:124] Setting up res3a_branch2b_relu
I1012 20:26:28.149396 26891 net.cpp:131] Top shape: 8 128 48 64 (3145728)
I1012 20:26:28.149399 26891 net.cpp:139] Memory required for data: 3806400288
I1012 20:26:28.149405 26891 layer_factory.hpp:77] Creating layer res3a_branch2c
I1012 20:26:28.149413 26891 net.cpp:86] Creating Layer res3a_branch2c
I1012 20:26:28.149418 26891 net.cpp:408] res3a_branch2c <- res3a_branch2b
I1012 20:26:28.149427 26891 net.cpp:382] res3a_branch2c -> res3a_branch2c
I1012 20:26:28.150969 26891 net.cpp:124] Setting up res3a_branch2c
I1012 20:26:28.150985 26891 net.cpp:131] Top shape: 8 512 48 64 (12582912)
I1012 20:26:28.150990 26891 net.cpp:139] Memory required for data: 3856731936
I1012 20:26:28.150995 26891 layer_factory.hpp:77] Creating layer bn3a_branch2c
I1012 20:26:28.151005 26891 net.cpp:86] Creating Layer bn3a_branch2c
I1012 20:26:28.151010 26891 net.cpp:408] bn3a_branch2c <- res3a_branch2c
I1012 20:26:28.151018 26891 net.cpp:369] bn3a_branch2c -> res3a_branch2c (in-place)
I1012 20:26:28.151235 26891 net.cpp:124] Setting up bn3a_branch2c
I1012 20:26:28.151244 26891 net.cpp:131] Top shape: 8 512 48 64 (12582912)
I1012 20:26:28.151257 26891 net.cpp:139] Memory required for data: 3907063584
I1012 20:26:28.151271 26891 layer_factory.hpp:77] Creating layer scale3a_branch2c
I1012 20:26:28.151278 26891 net.cpp:86] Creating Layer scale3a_branch2c
I1012 20:26:28.151283 26891 net.cpp:408] scale3a_branch2c <- res3a_branch2c
I1012 20:26:28.151289 26891 net.cpp:369] scale3a_branch2c -> res3a_branch2c (in-place)
I1012 20:26:28.151332 26891 layer_factory.hpp:77] Creating layer scale3a_branch2c
I1012 20:26:28.151449 26891 net.cpp:124] Setting up scale3a_branch2c
I1012 20:26:28.151458 26891 net.cpp:131] Top shape: 8 512 48 64 (12582912)
I1012 20:26:28.151461 26891 net.cpp:139] Memory required for data: 3957395232
I1012 20:26:28.151466 26891 layer_factory.hpp:77] Creating layer res3a
I1012 20:26:28.151474 26891 net.cpp:86] Creating Layer res3a
I1012 20:26:28.151479 26891 net.cpp:408] res3a <- res3a_branch1
I1012 20:26:28.151484 26891 net.cpp:408] res3a <- res3a_branch2c
I1012 20:26:28.151490 26891 net.cpp:382] res3a -> res3a
I1012 20:26:28.151517 26891 net.cpp:124] Setting up res3a
I1012 20:26:28.151525 26891 net.cpp:131] Top shape: 8 512 48 64 (12582912)
I1012 20:26:28.151528 26891 net.cpp:139] Memory required for data: 4007726880
I1012 20:26:28.151532 26891 layer_factory.hpp:77] Creating layer res3a_relu
I1012 20:26:28.151537 26891 net.cpp:86] Creating Layer res3a_relu
I1012 20:26:28.151542 26891 net.cpp:408] res3a_relu <- res3a
I1012 20:26:28.151548 26891 net.cpp:369] res3a_relu -> res3a (in-place)
I1012 20:26:28.152079 26891 net.cpp:124] Setting up res3a_relu
I1012 20:26:28.152093 26891 net.cpp:131] Top shape: 8 512 48 64 (12582912)
I1012 20:26:28.152098 26891 net.cpp:139] Memory required for data: 4058058528
I1012 20:26:28.152102 26891 layer_factory.hpp:77] Creating layer res3a_res3a_relu_0_split
I1012 20:26:28.152117 26891 net.cpp:86] Creating Layer res3a_res3a_relu_0_split
I1012 20:26:28.152123 26891 net.cpp:408] res3a_res3a_relu_0_split <- res3a
I1012 20:26:28.152130 26891 net.cpp:382] res3a_res3a_relu_0_split -> res3a_res3a_relu_0_split_0
I1012 20:26:28.152138 26891 net.cpp:382] res3a_res3a_relu_0_split -> res3a_res3a_relu_0_split_1
I1012 20:26:28.152189 26891 net.cpp:124] Setting up res3a_res3a_relu_0_split
I1012 20:26:28.152196 26891 net.cpp:131] Top shape: 8 512 48 64 (12582912)
I1012 20:26:28.152207 26891 net.cpp:131] Top shape: 8 512 48 64 (12582912)
I1012 20:26:28.152211 26891 net.cpp:139] Memory required for data: 4158721824
I1012 20:26:28.152215 26891 layer_factory.hpp:77] Creating layer res3b1_branch2a
I1012 20:26:28.152225 26891 net.cpp:86] Creating Layer res3b1_branch2a
I1012 20:26:28.152231 26891 net.cpp:408] res3b1_branch2a <- res3a_res3a_relu_0_split_0
I1012 20:26:28.152240 26891 net.cpp:382] res3b1_branch2a -> res3b1_branch2a
I1012 20:26:28.153439 26891 net.cpp:124] Setting up res3b1_branch2a
I1012 20:26:28.153453 26891 net.cpp:131] Top shape: 8 128 48 64 (3145728)
I1012 20:26:28.153458 26891 net.cpp:139] Memory required for data: 4171304736
I1012 20:26:28.153463 26891 layer_factory.hpp:77] Creating layer bn3b1_branch2a
I1012 20:26:28.153473 26891 net.cpp:86] Creating Layer bn3b1_branch2a
I1012 20:26:28.153478 26891 net.cpp:408] bn3b1_branch2a <- res3b1_branch2a
I1012 20:26:28.153486 26891 net.cpp:369] bn3b1_branch2a -> res3b1_branch2a (in-place)
I1012 20:26:28.153702 26891 net.cpp:124] Setting up bn3b1_branch2a
I1012 20:26:28.153709 26891 net.cpp:131] Top shape: 8 128 48 64 (3145728)
I1012 20:26:28.153712 26891 net.cpp:139] Memory required for data: 4183887648
I1012 20:26:28.153720 26891 layer_factory.hpp:77] Creating layer scale3b1_branch2a
I1012 20:26:28.153726 26891 net.cpp:86] Creating Layer scale3b1_branch2a
I1012 20:26:28.153730 26891 net.cpp:408] scale3b1_branch2a <- res3b1_branch2a
I1012 20:26:28.153736 26891 net.cpp:369] scale3b1_branch2a -> res3b1_branch2a (in-place)
I1012 20:26:28.153784 26891 layer_factory.hpp:77] Creating layer scale3b1_branch2a
I1012 20:26:28.153898 26891 net.cpp:124] Setting up scale3b1_branch2a
I1012 20:26:28.153905 26891 net.cpp:131] Top shape: 8 128 48 64 (3145728)
I1012 20:26:28.153916 26891 net.cpp:139] Memory required for data: 4196470560
I1012 20:26:28.153930 26891 layer_factory.hpp:77] Creating layer res3b1_branch2a_relu
I1012 20:26:28.153940 26891 net.cpp:86] Creating Layer res3b1_branch2a_relu
I1012 20:26:28.153944 26891 net.cpp:408] res3b1_branch2a_relu <- res3b1_branch2a
I1012 20:26:28.153950 26891 net.cpp:369] res3b1_branch2a_relu -> res3b1_branch2a (in-place)
I1012 20:26:28.154152 26891 net.cpp:124] Setting up res3b1_branch2a_relu
I1012 20:26:28.154162 26891 net.cpp:131] Top shape: 8 128 48 64 (3145728)
I1012 20:26:28.154165 26891 net.cpp:139] Memory required for data: 4209053472
I1012 20:26:28.154170 26891 layer_factory.hpp:77] Creating layer res3b1_branch2b
I1012 20:26:28.154181 26891 net.cpp:86] Creating Layer res3b1_branch2b
I1012 20:26:28.154186 26891 net.cpp:408] res3b1_branch2b <- res3b1_branch2a
I1012 20:26:28.154192 26891 net.cpp:382] res3b1_branch2b -> res3b1_branch2b
I1012 20:26:28.155791 26891 net.cpp:124] Setting up res3b1_branch2b
I1012 20:26:28.155805 26891 net.cpp:131] Top shape: 8 128 48 64 (3145728)
I1012 20:26:28.155809 26891 net.cpp:139] Memory required for data: 4221636384
I1012 20:26:28.155817 26891 layer_factory.hpp:77] Creating layer bn3b1_branch2b
I1012 20:26:28.155825 26891 net.cpp:86] Creating Layer bn3b1_branch2b
I1012 20:26:28.155831 26891 net.cpp:408] bn3b1_branch2b <- res3b1_branch2b
I1012 20:26:28.155838 26891 net.cpp:369] bn3b1_branch2b -> res3b1_branch2b (in-place)
I1012 20:26:28.156052 26891 net.cpp:124] Setting up bn3b1_branch2b
I1012 20:26:28.156060 26891 net.cpp:131] Top shape: 8 128 48 64 (3145728)
I1012 20:26:28.156064 26891 net.cpp:139] Memory required for data: 4234219296
I1012 20:26:28.156071 26891 layer_factory.hpp:77] Creating layer scale3b1_branch2b
I1012 20:26:28.156080 26891 net.cpp:86] Creating Layer scale3b1_branch2b
I1012 20:26:28.156085 26891 net.cpp:408] scale3b1_branch2b <- res3b1_branch2b
I1012 20:26:28.156093 26891 net.cpp:369] scale3b1_branch2b -> res3b1_branch2b (in-place)
I1012 20:26:28.156139 26891 layer_factory.hpp:77] Creating layer scale3b1_branch2b
I1012 20:26:28.156252 26891 net.cpp:124] Setting up scale3b1_branch2b
I1012 20:26:28.156260 26891 net.cpp:131] Top shape: 8 128 48 64 (3145728)
I1012 20:26:28.156263 26891 net.cpp:139] Memory required for data: 4246802208
I1012 20:26:28.156276 26891 layer_factory.hpp:77] Creating layer res3b1_branch2b_relu
I1012 20:26:28.156288 26891 net.cpp:86] Creating Layer res3b1_branch2b_relu
I1012 20:26:28.156293 26891 net.cpp:408] res3b1_branch2b_relu <- res3b1_branch2b
I1012 20:26:28.156301 26891 net.cpp:369] res3b1_branch2b_relu -> res3b1_branch2b (in-place)
I1012 20:26:28.156504 26891 net.cpp:124] Setting up res3b1_branch2b_relu
I1012 20:26:28.156514 26891 net.cpp:131] Top shape: 8 128 48 64 (3145728)
I1012 20:26:28.156517 26891 net.cpp:139] Memory required for data: 4259385120
I1012 20:26:28.156522 26891 layer_factory.hpp:77] Creating layer res3b1_branch2c
I1012 20:26:28.156532 26891 net.cpp:86] Creating Layer res3b1_branch2c
I1012 20:26:28.156536 26891 net.cpp:408] res3b1_branch2c <- res3b1_branch2b
I1012 20:26:28.156545 26891 net.cpp:382] res3b1_branch2c -> res3b1_branch2c
I1012 20:26:28.157770 26891 net.cpp:124] Setting up res3b1_branch2c
I1012 20:26:28.157784 26891 net.cpp:131] Top shape: 8 512 48 64 (12582912)
I1012 20:26:28.157788 26891 net.cpp:139] Memory required for data: 4309716768
I1012 20:26:28.157794 26891 layer_factory.hpp:77] Creating layer bn3b1_branch2c
I1012 20:26:28.157804 26891 net.cpp:86] Creating Layer bn3b1_branch2c
I1012 20:26:28.157809 26891 net.cpp:408] bn3b1_branch2c <- res3b1_branch2c
I1012 20:26:28.157815 26891 net.cpp:369] bn3b1_branch2c -> res3b1_branch2c (in-place)
I1012 20:26:28.158026 26891 net.cpp:124] Setting up bn3b1_branch2c
I1012 20:26:28.158035 26891 net.cpp:131] Top shape: 8 512 48 64 (12582912)
I1012 20:26:28.158038 26891 net.cpp:139] Memory required for data: 4360048416
I1012 20:26:28.158044 26891 layer_factory.hpp:77] Creating layer scale3b1_branch2c
I1012 20:26:28.158061 26891 net.cpp:86] Creating Layer scale3b1_branch2c
I1012 20:26:28.158074 26891 net.cpp:408] scale3b1_branch2c <- res3b1_branch2c
I1012 20:26:28.158080 26891 net.cpp:369] scale3b1_branch2c -> res3b1_branch2c (in-place)
I1012 20:26:28.158123 26891 layer_factory.hpp:77] Creating layer scale3b1_branch2c
I1012 20:26:28.158243 26891 net.cpp:124] Setting up scale3b1_branch2c
I1012 20:26:28.158252 26891 net.cpp:131] Top shape: 8 512 48 64 (12582912)
I1012 20:26:28.158255 26891 net.cpp:139] Memory required for data: 4410380064
I1012 20:26:28.158260 26891 layer_factory.hpp:77] Creating layer res3b1
I1012 20:26:28.158274 26891 net.cpp:86] Creating Layer res3b1
I1012 20:26:28.158279 26891 net.cpp:408] res3b1 <- res3a_res3a_relu_0_split_1
I1012 20:26:28.158284 26891 net.cpp:408] res3b1 <- res3b1_branch2c
I1012 20:26:28.158293 26891 net.cpp:382] res3b1 -> res3b1
I1012 20:26:28.158324 26891 net.cpp:124] Setting up res3b1
I1012 20:26:28.158330 26891 net.cpp:131] Top shape: 8 512 48 64 (12582912)
I1012 20:26:28.158334 26891 net.cpp:139] Memory required for data: 4460711712
I1012 20:26:28.158337 26891 layer_factory.hpp:77] Creating layer res3b1_relu
I1012 20:26:28.158342 26891 net.cpp:86] Creating Layer res3b1_relu
I1012 20:26:28.158347 26891 net.cpp:408] res3b1_relu <- res3b1
I1012 20:26:28.158354 26891 net.cpp:369] res3b1_relu -> res3b1 (in-place)
I1012 20:26:28.158885 26891 net.cpp:124] Setting up res3b1_relu
I1012 20:26:28.158898 26891 net.cpp:131] Top shape: 8 512 48 64 (12582912)
I1012 20:26:28.158902 26891 net.cpp:139] Memory required for data: 4511043360
I1012 20:26:28.158906 26891 layer_factory.hpp:77] Creating layer res3b1_res3b1_relu_0_split
I1012 20:26:28.158916 26891 net.cpp:86] Creating Layer res3b1_res3b1_relu_0_split
I1012 20:26:28.158921 26891 net.cpp:408] res3b1_res3b1_relu_0_split <- res3b1
I1012 20:26:28.158928 26891 net.cpp:382] res3b1_res3b1_relu_0_split -> res3b1_res3b1_relu_0_split_0
I1012 20:26:28.158937 26891 net.cpp:382] res3b1_res3b1_relu_0_split -> res3b1_res3b1_relu_0_split_1
I1012 20:26:28.158987 26891 net.cpp:124] Setting up res3b1_res3b1_relu_0_split
I1012 20:26:28.158993 26891 net.cpp:131] Top shape: 8 512 48 64 (12582912)
I1012 20:26:28.158998 26891 net.cpp:131] Top shape: 8 512 48 64 (12582912)
I1012 20:26:28.159003 26891 net.cpp:139] Memory required for data: 4611706656
I1012 20:26:28.159013 26891 layer_factory.hpp:77] Creating layer res3b2_branch2a
I1012 20:26:28.159030 26891 net.cpp:86] Creating Layer res3b2_branch2a
I1012 20:26:28.159036 26891 net.cpp:408] res3b2_branch2a <- res3b1_res3b1_relu_0_split_0
I1012 20:26:28.159044 26891 net.cpp:382] res3b2_branch2a -> res3b2_branch2a
I1012 20:26:28.161437 26891 net.cpp:124] Setting up res3b2_branch2a
I1012 20:26:28.161453 26891 net.cpp:131] Top shape: 8 128 48 64 (3145728)
I1012 20:26:28.161458 26891 net.cpp:139] Memory required for data: 4624289568
I1012 20:26:28.161463 26891 layer_factory.hpp:77] Creating layer bn3b2_branch2a
I1012 20:26:28.161473 26891 net.cpp:86] Creating Layer bn3b2_branch2a
I1012 20:26:28.161478 26891 net.cpp:408] bn3b2_branch2a <- res3b2_branch2a
I1012 20:26:28.161487 26891 net.cpp:369] bn3b2_branch2a -> res3b2_branch2a (in-place)
I1012 20:26:28.161702 26891 net.cpp:124] Setting up bn3b2_branch2a
I1012 20:26:28.161710 26891 net.cpp:131] Top shape: 8 128 48 64 (3145728)
I1012 20:26:28.161713 26891 net.cpp:139] Memory required for data: 4636872480
I1012 20:26:28.161720 26891 layer_factory.hpp:77] Creating layer scale3b2_branch2a
I1012 20:26:28.161726 26891 net.cpp:86] Creating Layer scale3b2_branch2a
I1012 20:26:28.161731 26891 net.cpp:408] scale3b2_branch2a <- res3b2_branch2a
I1012 20:26:28.161738 26891 net.cpp:369] scale3b2_branch2a -> res3b2_branch2a (in-place)
I1012 20:26:28.161784 26891 layer_factory.hpp:77] Creating layer scale3b2_branch2a
I1012 20:26:28.161900 26891 net.cpp:124] Setting up scale3b2_branch2a
I1012 20:26:28.161911 26891 net.cpp:131] Top shape: 8 128 48 64 (3145728)
I1012 20:26:28.161914 26891 net.cpp:139] Memory required for data: 4649455392
I1012 20:26:28.161928 26891 layer_factory.hpp:77] Creating layer res3b2_branch2a_relu
I1012 20:26:28.161936 26891 net.cpp:86] Creating Layer res3b2_branch2a_relu
I1012 20:26:28.161947 26891 net.cpp:408] res3b2_branch2a_relu <- res3b2_branch2a
I1012 20:26:28.161953 26891 net.cpp:369] res3b2_branch2a_relu -> res3b2_branch2a (in-place)
I1012 20:26:28.162160 26891 net.cpp:124] Setting up res3b2_branch2a_relu
I1012 20:26:28.162169 26891 net.cpp:131] Top shape: 8 128 48 64 (3145728)
I1012 20:26:28.162173 26891 net.cpp:139] Memory required for data: 4662038304
I1012 20:26:28.162178 26891 layer_factory.hpp:77] Creating layer res3b2_branch2b
I1012 20:26:28.162187 26891 net.cpp:86] Creating Layer res3b2_branch2b
I1012 20:26:28.162192 26891 net.cpp:408] res3b2_branch2b <- res3b2_branch2a
I1012 20:26:28.162199 26891 net.cpp:382] res3b2_branch2b -> res3b2_branch2b
I1012 20:26:28.165015 26891 net.cpp:124] Setting up res3b2_branch2b
I1012 20:26:28.165031 26891 net.cpp:131] Top shape: 8 128 48 64 (3145728)
I1012 20:26:28.165036 26891 net.cpp:139] Memory required for data: 4674621216
I1012 20:26:28.165041 26891 layer_factory.hpp:77] Creating layer bn3b2_branch2b
I1012 20:26:28.165051 26891 net.cpp:86] Creating Layer bn3b2_branch2b
I1012 20:26:28.165056 26891 net.cpp:408] bn3b2_branch2b <- res3b2_branch2b
I1012 20:26:28.165063 26891 net.cpp:369] bn3b2_branch2b -> res3b2_branch2b (in-place)
I1012 20:26:28.165287 26891 net.cpp:124] Setting up bn3b2_branch2b
I1012 20:26:28.165295 26891 net.cpp:131] Top shape: 8 128 48 64 (3145728)
I1012 20:26:28.165299 26891 net.cpp:139] Memory required for data: 4687204128
I1012 20:26:28.165307 26891 layer_factory.hpp:77] Creating layer scale3b2_branch2b
I1012 20:26:28.165314 26891 net.cpp:86] Creating Layer scale3b2_branch2b
I1012 20:26:28.165319 26891 net.cpp:408] scale3b2_branch2b <- res3b2_branch2b
I1012 20:26:28.165325 26891 net.cpp:369] scale3b2_branch2b -> res3b2_branch2b (in-place)
I1012 20:26:28.165374 26891 layer_factory.hpp:77] Creating layer scale3b2_branch2b
I1012 20:26:28.165491 26891 net.cpp:124] Setting up scale3b2_branch2b
I1012 20:26:28.165498 26891 net.cpp:131] Top shape: 8 128 48 64 (3145728)
I1012 20:26:28.165503 26891 net.cpp:139] Memory required for data: 4699787040
I1012 20:26:28.165518 26891 layer_factory.hpp:77] Creating layer res3b2_branch2b_relu
I1012 20:26:28.165524 26891 net.cpp:86] Creating Layer res3b2_branch2b_relu
I1012 20:26:28.165529 26891 net.cpp:408] res3b2_branch2b_relu <- res3b2_branch2b
I1012 20:26:28.165542 26891 net.cpp:369] res3b2_branch2b_relu -> res3b2_branch2b (in-place)
I1012 20:26:28.165750 26891 net.cpp:124] Setting up res3b2_branch2b_relu
I1012 20:26:28.165760 26891 net.cpp:131] Top shape: 8 128 48 64 (3145728)
I1012 20:26:28.165765 26891 net.cpp:139] Memory required for data: 4712369952
I1012 20:26:28.165768 26891 layer_factory.hpp:77] Creating layer res3b2_branch2c
I1012 20:26:28.165778 26891 net.cpp:86] Creating Layer res3b2_branch2c
I1012 20:26:28.165783 26891 net.cpp:408] res3b2_branch2c <- res3b2_branch2b
I1012 20:26:28.165791 26891 net.cpp:382] res3b2_branch2c -> res3b2_branch2c
I1012 20:26:28.167047 26891 net.cpp:124] Setting up res3b2_branch2c
I1012 20:26:28.167062 26891 net.cpp:131] Top shape: 8 512 48 64 (12582912)
I1012 20:26:28.167066 26891 net.cpp:139] Memory required for data: 4762701600
I1012 20:26:28.167073 26891 layer_factory.hpp:77] Creating layer bn3b2_branch2c
I1012 20:26:28.167081 26891 net.cpp:86] Creating Layer bn3b2_branch2c
I1012 20:26:28.167086 26891 net.cpp:408] bn3b2_branch2c <- res3b2_branch2c
I1012 20:26:28.167094 26891 net.cpp:369] bn3b2_branch2c -> res3b2_branch2c (in-place)
I1012 20:26:28.167325 26891 net.cpp:124] Setting up bn3b2_branch2c
I1012 20:26:28.167335 26891 net.cpp:131] Top shape: 8 512 48 64 (12582912)
I1012 20:26:28.167340 26891 net.cpp:139] Memory required for data: 4813033248
I1012 20:26:28.167353 26891 layer_factory.hpp:77] Creating layer scale3b2_branch2c
I1012 20:26:28.167361 26891 net.cpp:86] Creating Layer scale3b2_branch2c
I1012 20:26:28.167366 26891 net.cpp:408] scale3b2_branch2c <- res3b2_branch2c
I1012 20:26:28.167371 26891 net.cpp:369] scale3b2_branch2c -> res3b2_branch2c (in-place)
I1012 20:26:28.167413 26891 layer_factory.hpp:77] Creating layer scale3b2_branch2c
I1012 20:26:28.167542 26891 net.cpp:124] Setting up scale3b2_branch2c
I1012 20:26:28.167551 26891 net.cpp:131] Top shape: 8 512 48 64 (12582912)
I1012 20:26:28.167554 26891 net.cpp:139] Memory required for data: 4863364896
I1012 20:26:28.167559 26891 layer_factory.hpp:77] Creating layer res3b2
I1012 20:26:28.167569 26891 net.cpp:86] Creating Layer res3b2
I1012 20:26:28.167575 26891 net.cpp:408] res3b2 <- res3b1_res3b1_relu_0_split_1
I1012 20:26:28.167580 26891 net.cpp:408] res3b2 <- res3b2_branch2c
I1012 20:26:28.167585 26891 net.cpp:382] res3b2 -> res3b2
I1012 20:26:28.167614 26891 net.cpp:124] Setting up res3b2
I1012 20:26:28.167623 26891 net.cpp:131] Top shape: 8 512 48 64 (12582912)
I1012 20:26:28.167625 26891 net.cpp:139] Memory required for data: 4913696544
I1012 20:26:28.167629 26891 layer_factory.hpp:77] Creating layer res3b2_relu
I1012 20:26:28.167634 26891 net.cpp:86] Creating Layer res3b2_relu
I1012 20:26:28.167639 26891 net.cpp:408] res3b2_relu <- res3b2
I1012 20:26:28.167646 26891 net.cpp:369] res3b2_relu -> res3b2 (in-place)
I1012 20:26:28.167857 26891 net.cpp:124] Setting up res3b2_relu
I1012 20:26:28.167866 26891 net.cpp:131] Top shape: 8 512 48 64 (12582912)
I1012 20:26:28.167870 26891 net.cpp:139] Memory required for data: 4964028192
I1012 20:26:28.167874 26891 layer_factory.hpp:77] Creating layer res3b2_res3b2_relu_0_split
I1012 20:26:28.167882 26891 net.cpp:86] Creating Layer res3b2_res3b2_relu_0_split
I1012 20:26:28.167886 26891 net.cpp:408] res3b2_res3b2_relu_0_split <- res3b2
I1012 20:26:28.167893 26891 net.cpp:382] res3b2_res3b2_relu_0_split -> res3b2_res3b2_relu_0_split_0
I1012 20:26:28.167902 26891 net.cpp:382] res3b2_res3b2_relu_0_split -> res3b2_res3b2_relu_0_split_1
I1012 20:26:28.167948 26891 net.cpp:124] Setting up res3b2_res3b2_relu_0_split
I1012 20:26:28.167955 26891 net.cpp:131] Top shape: 8 512 48 64 (12582912)
I1012 20:26:28.167961 26891 net.cpp:131] Top shape: 8 512 48 64 (12582912)
I1012 20:26:28.167964 26891 net.cpp:139] Memory required for data: 5064691488
I1012 20:26:28.167974 26891 layer_factory.hpp:77] Creating layer res3b3_branch2a
I1012 20:26:28.167984 26891 net.cpp:86] Creating Layer res3b3_branch2a
I1012 20:26:28.167990 26891 net.cpp:408] res3b3_branch2a <- res3b2_res3b2_relu_0_split_0
I1012 20:26:28.167999 26891 net.cpp:382] res3b3_branch2a -> res3b3_branch2a
I1012 20:26:28.169224 26891 net.cpp:124] Setting up res3b3_branch2a
I1012 20:26:28.169239 26891 net.cpp:131] Top shape: 8 128 48 64 (3145728)
I1012 20:26:28.169243 26891 net.cpp:139] Memory required for data: 5077274400
I1012 20:26:28.169250 26891 layer_factory.hpp:77] Creating layer bn3b3_branch2a
I1012 20:26:28.169258 26891 net.cpp:86] Creating Layer bn3b3_branch2a
I1012 20:26:28.169263 26891 net.cpp:408] bn3b3_branch2a <- res3b3_branch2a
I1012 20:26:28.169272 26891 net.cpp:369] bn3b3_branch2a -> res3b3_branch2a (in-place)
I1012 20:26:28.169486 26891 net.cpp:124] Setting up bn3b3_branch2a
I1012 20:26:28.169494 26891 net.cpp:131] Top shape: 8 128 48 64 (3145728)
I1012 20:26:28.169497 26891 net.cpp:139] Memory required for data: 5089857312
I1012 20:26:28.169522 26891 layer_factory.hpp:77] Creating layer scale3b3_branch2a
I1012 20:26:28.169529 26891 net.cpp:86] Creating Layer scale3b3_branch2a
I1012 20:26:28.169533 26891 net.cpp:408] scale3b3_branch2a <- res3b3_branch2a
I1012 20:26:28.169539 26891 net.cpp:369] scale3b3_branch2a -> res3b3_branch2a (in-place)
I1012 20:26:28.169589 26891 layer_factory.hpp:77] Creating layer scale3b3_branch2a
I1012 20:26:28.169706 26891 net.cpp:124] Setting up scale3b3_branch2a
I1012 20:26:28.169713 26891 net.cpp:131] Top shape: 8 128 48 64 (3145728)
I1012 20:26:28.169716 26891 net.cpp:139] Memory required for data: 5102440224
I1012 20:26:28.169730 26891 layer_factory.hpp:77] Creating layer res3b3_branch2a_relu
I1012 20:26:28.169739 26891 net.cpp:86] Creating Layer res3b3_branch2a_relu
I1012 20:26:28.169744 26891 net.cpp:408] res3b3_branch2a_relu <- res3b3_branch2a
I1012 20:26:28.169749 26891 net.cpp:369] res3b3_branch2a_relu -> res3b3_branch2a (in-place)
I1012 20:26:28.170322 26891 net.cpp:124] Setting up res3b3_branch2a_relu
I1012 20:26:28.170336 26891 net.cpp:131] Top shape: 8 128 48 64 (3145728)
I1012 20:26:28.170341 26891 net.cpp:139] Memory required for data: 5115023136
I1012 20:26:28.170344 26891 layer_factory.hpp:77] Creating layer res3b3_branch2b
I1012 20:26:28.170356 26891 net.cpp:86] Creating Layer res3b3_branch2b
I1012 20:26:28.170361 26891 net.cpp:408] res3b3_branch2b <- res3b3_branch2a
I1012 20:26:28.170368 26891 net.cpp:382] res3b3_branch2b -> res3b3_branch2b
I1012 20:26:28.171986 26891 net.cpp:124] Setting up res3b3_branch2b
I1012 20:26:28.172001 26891 net.cpp:131] Top shape: 8 128 48 64 (3145728)
I1012 20:26:28.172005 26891 net.cpp:139] Memory required for data: 5127606048
I1012 20:26:28.172011 26891 layer_factory.hpp:77] Creating layer bn3b3_branch2b
I1012 20:26:28.172020 26891 net.cpp:86] Creating Layer bn3b3_branch2b
I1012 20:26:28.172025 26891 net.cpp:408] bn3b3_branch2b <- res3b3_branch2b
I1012 20:26:28.172032 26891 net.cpp:369] bn3b3_branch2b -> res3b3_branch2b (in-place)
I1012 20:26:28.172261 26891 net.cpp:124] Setting up bn3b3_branch2b
I1012 20:26:28.172269 26891 net.cpp:131] Top shape: 8 128 48 64 (3145728)
I1012 20:26:28.172273 26891 net.cpp:139] Memory required for data: 5140188960
I1012 20:26:28.172281 26891 layer_factory.hpp:77] Creating layer scale3b3_branch2b
I1012 20:26:28.172294 26891 net.cpp:86] Creating Layer scale3b3_branch2b
I1012 20:26:28.172299 26891 net.cpp:408] scale3b3_branch2b <- res3b3_branch2b
I1012 20:26:28.172308 26891 net.cpp:369] scale3b3_branch2b -> res3b3_branch2b (in-place)
I1012 20:26:28.172354 26891 layer_factory.hpp:77] Creating layer scale3b3_branch2b
I1012 20:26:28.172477 26891 net.cpp:124] Setting up scale3b3_branch2b
I1012 20:26:28.172483 26891 net.cpp:131] Top shape: 8 128 48 64 (3145728)
I1012 20:26:28.172487 26891 net.cpp:139] Memory required for data: 5152771872
I1012 20:26:28.172493 26891 layer_factory.hpp:77] Creating layer res3b3_branch2b_relu
I1012 20:26:28.172499 26891 net.cpp:86] Creating Layer res3b3_branch2b_relu
I1012 20:26:28.172503 26891 net.cpp:408] res3b3_branch2b_relu <- res3b3_branch2b
I1012 20:26:28.172511 26891 net.cpp:369] res3b3_branch2b_relu -> res3b3_branch2b (in-place)
I1012 20:26:28.172719 26891 net.cpp:124] Setting up res3b3_branch2b_relu
I1012 20:26:28.172734 26891 net.cpp:131] Top shape: 8 128 48 64 (3145728)
I1012 20:26:28.172737 26891 net.cpp:139] Memory required for data: 5165354784
I1012 20:26:28.172742 26891 layer_factory.hpp:77] Creating layer res3b3_branch2c
I1012 20:26:28.172752 26891 net.cpp:86] Creating Layer res3b3_branch2c
I1012 20:26:28.172757 26891 net.cpp:408] res3b3_branch2c <- res3b3_branch2b
I1012 20:26:28.172765 26891 net.cpp:382] res3b3_branch2c -> res3b3_branch2c
I1012 20:26:28.174021 26891 net.cpp:124] Setting up res3b3_branch2c
I1012 20:26:28.174034 26891 net.cpp:131] Top shape: 8 512 48 64 (12582912)
I1012 20:26:28.174038 26891 net.cpp:139] Memory required for data: 5215686432
I1012 20:26:28.174044 26891 layer_factory.hpp:77] Creating layer bn3b3_branch2c
I1012 20:26:28.174054 26891 net.cpp:86] Creating Layer bn3b3_branch2c
I1012 20:26:28.174059 26891 net.cpp:408] bn3b3_branch2c <- res3b3_branch2c
I1012 20:26:28.174067 26891 net.cpp:369] bn3b3_branch2c -> res3b3_branch2c (in-place)
I1012 20:26:28.174305 26891 net.cpp:124] Setting up bn3b3_branch2c
I1012 20:26:28.174314 26891 net.cpp:131] Top shape: 8 512 48 64 (12582912)
I1012 20:26:28.174319 26891 net.cpp:139] Memory required for data: 5266018080
I1012 20:26:28.174332 26891 layer_factory.hpp:77] Creating layer scale3b3_branch2c
I1012 20:26:28.174340 26891 net.cpp:86] Creating Layer scale3b3_branch2c
I1012 20:26:28.174345 26891 net.cpp:408] scale3b3_branch2c <- res3b3_branch2c
I1012 20:26:28.174353 26891 net.cpp:369] scale3b3_branch2c -> res3b3_branch2c (in-place)
I1012 20:26:28.174396 26891 layer_factory.hpp:77] Creating layer scale3b3_branch2c
I1012 20:26:28.174518 26891 net.cpp:124] Setting up scale3b3_branch2c
I1012 20:26:28.174527 26891 net.cpp:131] Top shape: 8 512 48 64 (12582912)
I1012 20:26:28.174538 26891 net.cpp:139] Memory required for data: 5316349728
I1012 20:26:28.174544 26891 layer_factory.hpp:77] Creating layer res3b3
I1012 20:26:28.174552 26891 net.cpp:86] Creating Layer res3b3
I1012 20:26:28.174558 26891 net.cpp:408] res3b3 <- res3b2_res3b2_relu_0_split_1
I1012 20:26:28.174563 26891 net.cpp:408] res3b3 <- res3b3_branch2c
I1012 20:26:28.174569 26891 net.cpp:382] res3b3 -> res3b3
I1012 20:26:28.174599 26891 net.cpp:124] Setting up res3b3
I1012 20:26:28.174607 26891 net.cpp:131] Top shape: 8 512 48 64 (12582912)
I1012 20:26:28.174610 26891 net.cpp:139] Memory required for data: 5366681376
I1012 20:26:28.174614 26891 layer_factory.hpp:77] Creating layer res3b3_relu
I1012 20:26:28.174619 26891 net.cpp:86] Creating Layer res3b3_relu
I1012 20:26:28.174624 26891 net.cpp:408] res3b3_relu <- res3b3
I1012 20:26:28.174631 26891 net.cpp:369] res3b3_relu -> res3b3 (in-place)
I1012 20:26:28.174837 26891 net.cpp:124] Setting up res3b3_relu
I1012 20:26:28.174846 26891 net.cpp:131] Top shape: 8 512 48 64 (12582912)
I1012 20:26:28.174851 26891 net.cpp:139] Memory required for data: 5417013024
I1012 20:26:28.174854 26891 layer_factory.hpp:77] Creating layer res3b3_res3b3_relu_0_split
I1012 20:26:28.174870 26891 net.cpp:86] Creating Layer res3b3_res3b3_relu_0_split
I1012 20:26:28.174873 26891 net.cpp:408] res3b3_res3b3_relu_0_split <- res3b3
I1012 20:26:28.174880 26891 net.cpp:382] res3b3_res3b3_relu_0_split -> res3b3_res3b3_relu_0_split_0
I1012 20:26:28.174887 26891 net.cpp:382] res3b3_res3b3_relu_0_split -> res3b3_res3b3_relu_0_split_1
I1012 20:26:28.174937 26891 net.cpp:124] Setting up res3b3_res3b3_relu_0_split
I1012 20:26:28.174943 26891 net.cpp:131] Top shape: 8 512 48 64 (12582912)
I1012 20:26:28.174949 26891 net.cpp:131] Top shape: 8 512 48 64 (12582912)
I1012 20:26:28.174952 26891 net.cpp:139] Memory required for data: 5517676320
I1012 20:26:28.174957 26891 layer_factory.hpp:77] Creating layer res4a_branch1
I1012 20:26:28.174965 26891 net.cpp:86] Creating Layer res4a_branch1
I1012 20:26:28.174970 26891 net.cpp:408] res4a_branch1 <- res3b3_res3b3_relu_0_split_0
I1012 20:26:28.174978 26891 net.cpp:382] res4a_branch1 -> res4a_branch1
I1012 20:26:28.177985 26891 net.cpp:124] Setting up res4a_branch1
I1012 20:26:28.178000 26891 net.cpp:131] Top shape: 8 1024 24 32 (6291456)
I1012 20:26:28.178004 26891 net.cpp:139] Memory required for data: 5542842144
I1012 20:26:28.178016 26891 layer_factory.hpp:77] Creating layer bn4a_branch1
I1012 20:26:28.178026 26891 net.cpp:86] Creating Layer bn4a_branch1
I1012 20:26:28.178031 26891 net.cpp:408] bn4a_branch1 <- res4a_branch1
I1012 20:26:28.178040 26891 net.cpp:369] bn4a_branch1 -> res4a_branch1 (in-place)
I1012 20:26:28.178278 26891 net.cpp:124] Setting up bn4a_branch1
I1012 20:26:28.178288 26891 net.cpp:131] Top shape: 8 1024 24 32 (6291456)
I1012 20:26:28.178292 26891 net.cpp:139] Memory required for data: 5568007968
I1012 20:26:28.178300 26891 layer_factory.hpp:77] Creating layer scale4a_branch1
I1012 20:26:28.178308 26891 net.cpp:86] Creating Layer scale4a_branch1
I1012 20:26:28.178311 26891 net.cpp:408] scale4a_branch1 <- res4a_branch1
I1012 20:26:28.178318 26891 net.cpp:369] scale4a_branch1 -> res4a_branch1 (in-place)
I1012 20:26:28.178360 26891 layer_factory.hpp:77] Creating layer scale4a_branch1
I1012 20:26:28.178475 26891 net.cpp:124] Setting up scale4a_branch1
I1012 20:26:28.178483 26891 net.cpp:131] Top shape: 8 1024 24 32 (6291456)
I1012 20:26:28.178486 26891 net.cpp:139] Memory required for data: 5593173792
I1012 20:26:28.178501 26891 layer_factory.hpp:77] Creating layer res4a_branch2a
I1012 20:26:28.178511 26891 net.cpp:86] Creating Layer res4a_branch2a
I1012 20:26:28.178516 26891 net.cpp:408] res4a_branch2a <- res3b3_res3b3_relu_0_split_1
I1012 20:26:28.178522 26891 net.cpp:382] res4a_branch2a -> res4a_branch2a
I1012 20:26:28.179836 26891 net.cpp:124] Setting up res4a_branch2a
I1012 20:26:28.179853 26891 net.cpp:131] Top shape: 8 256 24 32 (1572864)
I1012 20:26:28.179857 26891 net.cpp:139] Memory required for data: 5599465248
I1012 20:26:28.179863 26891 layer_factory.hpp:77] Creating layer bn4a_branch2a
I1012 20:26:28.179880 26891 net.cpp:86] Creating Layer bn4a_branch2a
I1012 20:26:28.179885 26891 net.cpp:408] bn4a_branch2a <- res4a_branch2a
I1012 20:26:28.179894 26891 net.cpp:369] bn4a_branch2a -> res4a_branch2a (in-place)
I1012 20:26:28.180136 26891 net.cpp:124] Setting up bn4a_branch2a
I1012 20:26:28.180145 26891 net.cpp:131] Top shape: 8 256 24 32 (1572864)
I1012 20:26:28.180150 26891 net.cpp:139] Memory required for data: 5605756704
I1012 20:26:28.180156 26891 layer_factory.hpp:77] Creating layer scale4a_branch2a
I1012 20:26:28.180162 26891 net.cpp:86] Creating Layer scale4a_branch2a
I1012 20:26:28.180167 26891 net.cpp:408] scale4a_branch2a <- res4a_branch2a
I1012 20:26:28.180172 26891 net.cpp:369] scale4a_branch2a -> res4a_branch2a (in-place)
I1012 20:26:28.180219 26891 layer_factory.hpp:77] Creating layer scale4a_branch2a
I1012 20:26:28.180335 26891 net.cpp:124] Setting up scale4a_branch2a
I1012 20:26:28.180342 26891 net.cpp:131] Top shape: 8 256 24 32 (1572864)
I1012 20:26:28.180346 26891 net.cpp:139] Memory required for data: 5612048160
I1012 20:26:28.180351 26891 layer_factory.hpp:77] Creating layer res4a_branch2a_relu
I1012 20:26:28.180359 26891 net.cpp:86] Creating Layer res4a_branch2a_relu
I1012 20:26:28.180364 26891 net.cpp:408] res4a_branch2a_relu <- res4a_branch2a
I1012 20:26:28.180369 26891 net.cpp:369] res4a_branch2a_relu -> res4a_branch2a (in-place)
I1012 20:26:28.180929 26891 net.cpp:124] Setting up res4a_branch2a_relu
I1012 20:26:28.180943 26891 net.cpp:131] Top shape: 8 256 24 32 (1572864)
I1012 20:26:28.180946 26891 net.cpp:139] Memory required for data: 5618339616
I1012 20:26:28.180959 26891 layer_factory.hpp:77] Creating layer res4a_branch2b
I1012 20:26:28.180970 26891 net.cpp:86] Creating Layer res4a_branch2b
I1012 20:26:28.180975 26891 net.cpp:408] res4a_branch2b <- res4a_branch2a
I1012 20:26:28.180984 26891 net.cpp:382] res4a_branch2b -> res4a_branch2b
I1012 20:26:28.184273 26891 net.cpp:124] Setting up res4a_branch2b
I1012 20:26:28.184288 26891 net.cpp:131] Top shape: 8 256 24 32 (1572864)
I1012 20:26:28.184293 26891 net.cpp:139] Memory required for data: 5624631072
I1012 20:26:28.184299 26891 layer_factory.hpp:77] Creating layer bn4a_branch2b
I1012 20:26:28.184306 26891 net.cpp:86] Creating Layer bn4a_branch2b
I1012 20:26:28.184316 26891 net.cpp:408] bn4a_branch2b <- res4a_branch2b
I1012 20:26:28.184324 26891 net.cpp:369] bn4a_branch2b -> res4a_branch2b (in-place)
I1012 20:26:28.184556 26891 net.cpp:124] Setting up bn4a_branch2b
I1012 20:26:28.184563 26891 net.cpp:131] Top shape: 8 256 24 32 (1572864)
I1012 20:26:28.184566 26891 net.cpp:139] Memory required for data: 5630922528
I1012 20:26:28.184573 26891 layer_factory.hpp:77] Creating layer scale4a_branch2b
I1012 20:26:28.184582 26891 net.cpp:86] Creating Layer scale4a_branch2b
I1012 20:26:28.184587 26891 net.cpp:408] scale4a_branch2b <- res4a_branch2b
I1012 20:26:28.184594 26891 net.cpp:369] scale4a_branch2b -> res4a_branch2b (in-place)
I1012 20:26:28.184644 26891 layer_factory.hpp:77] Creating layer scale4a_branch2b
I1012 20:26:28.184762 26891 net.cpp:124] Setting up scale4a_branch2b
I1012 20:26:28.184769 26891 net.cpp:131] Top shape: 8 256 24 32 (1572864)
I1012 20:26:28.184773 26891 net.cpp:139] Memory required for data: 5637213984
I1012 20:26:28.184787 26891 layer_factory.hpp:77] Creating layer res4a_branch2b_relu
I1012 20:26:28.184793 26891 net.cpp:86] Creating Layer res4a_branch2b_relu
I1012 20:26:28.184798 26891 net.cpp:408] res4a_branch2b_relu <- res4a_branch2b
I1012 20:26:28.184805 26891 net.cpp:369] res4a_branch2b_relu -> res4a_branch2b (in-place)
I1012 20:26:28.185019 26891 net.cpp:124] Setting up res4a_branch2b_relu
I1012 20:26:28.185029 26891 net.cpp:131] Top shape: 8 256 24 32 (1572864)
I1012 20:26:28.185031 26891 net.cpp:139] Memory required for data: 5643505440
I1012 20:26:28.185035 26891 layer_factory.hpp:77] Creating layer res4a_branch2c
I1012 20:26:28.185047 26891 net.cpp:86] Creating Layer res4a_branch2c
I1012 20:26:28.185052 26891 net.cpp:408] res4a_branch2c <- res4a_branch2b
I1012 20:26:28.185070 26891 net.cpp:382] res4a_branch2c -> res4a_branch2c
I1012 20:26:28.187690 26891 net.cpp:124] Setting up res4a_branch2c
I1012 20:26:28.187705 26891 net.cpp:131] Top shape: 8 1024 24 32 (6291456)
I1012 20:26:28.187710 26891 net.cpp:139] Memory required for data: 5668671264
I1012 20:26:28.187716 26891 layer_factory.hpp:77] Creating layer bn4a_branch2c
I1012 20:26:28.187726 26891 net.cpp:86] Creating Layer bn4a_branch2c
I1012 20:26:28.187731 26891 net.cpp:408] bn4a_branch2c <- res4a_branch2c
I1012 20:26:28.187739 26891 net.cpp:369] bn4a_branch2c -> res4a_branch2c (in-place)
I1012 20:26:28.187963 26891 net.cpp:124] Setting up bn4a_branch2c
I1012 20:26:28.187970 26891 net.cpp:131] Top shape: 8 1024 24 32 (6291456)
I1012 20:26:28.187973 26891 net.cpp:139] Memory required for data: 5693837088
I1012 20:26:28.187980 26891 layer_factory.hpp:77] Creating layer scale4a_branch2c
I1012 20:26:28.188011 26891 net.cpp:86] Creating Layer scale4a_branch2c
I1012 20:26:28.188017 26891 net.cpp:408] scale4a_branch2c <- res4a_branch2c
I1012 20:26:28.188024 26891 net.cpp:369] scale4a_branch2c -> res4a_branch2c (in-place)
I1012 20:26:28.188067 26891 layer_factory.hpp:77] Creating layer scale4a_branch2c
I1012 20:26:28.188187 26891 net.cpp:124] Setting up scale4a_branch2c
I1012 20:26:28.188194 26891 net.cpp:131] Top shape: 8 1024 24 32 (6291456)
I1012 20:26:28.188199 26891 net.cpp:139] Memory required for data: 5719002912
I1012 20:26:28.188205 26891 layer_factory.hpp:77] Creating layer res4a
I1012 20:26:28.188212 26891 net.cpp:86] Creating Layer res4a
I1012 20:26:28.188217 26891 net.cpp:408] res4a <- res4a_branch1
I1012 20:26:28.188222 26891 net.cpp:408] res4a <- res4a_branch2c
I1012 20:26:28.188228 26891 net.cpp:382] res4a -> res4a
I1012 20:26:28.188256 26891 net.cpp:124] Setting up res4a
I1012 20:26:28.188262 26891 net.cpp:131] Top shape: 8 1024 24 32 (6291456)
I1012 20:26:28.188266 26891 net.cpp:139] Memory required for data: 5744168736
I1012 20:26:28.188269 26891 layer_factory.hpp:77] Creating layer res4a_relu
I1012 20:26:28.188275 26891 net.cpp:86] Creating Layer res4a_relu
I1012 20:26:28.188279 26891 net.cpp:408] res4a_relu <- res4a
I1012 20:26:28.188287 26891 net.cpp:369] res4a_relu -> res4a (in-place)
I1012 20:26:28.188840 26891 net.cpp:124] Setting up res4a_relu
I1012 20:26:28.188854 26891 net.cpp:131] Top shape: 8 1024 24 32 (6291456)
I1012 20:26:28.188863 26891 net.cpp:139] Memory required for data: 5769334560
I1012 20:26:28.188868 26891 layer_factory.hpp:77] Creating layer res4a_res4a_relu_0_split
I1012 20:26:28.188876 26891 net.cpp:86] Creating Layer res4a_res4a_relu_0_split
I1012 20:26:28.188881 26891 net.cpp:408] res4a_res4a_relu_0_split <- res4a
I1012 20:26:28.188889 26891 net.cpp:382] res4a_res4a_relu_0_split -> res4a_res4a_relu_0_split_0
I1012 20:26:28.188899 26891 net.cpp:382] res4a_res4a_relu_0_split -> res4a_res4a_relu_0_split_1
I1012 20:26:28.188953 26891 net.cpp:124] Setting up res4a_res4a_relu_0_split
I1012 20:26:28.188961 26891 net.cpp:131] Top shape: 8 1024 24 32 (6291456)
I1012 20:26:28.188966 26891 net.cpp:131] Top shape: 8 1024 24 32 (6291456)
I1012 20:26:28.188968 26891 net.cpp:139] Memory required for data: 5819666208
I1012 20:26:28.188980 26891 layer_factory.hpp:77] Creating layer res4b1_branch2a
I1012 20:26:28.188992 26891 net.cpp:86] Creating Layer res4b1_branch2a
I1012 20:26:28.188997 26891 net.cpp:408] res4b1_branch2a <- res4a_res4a_relu_0_split_0
I1012 20:26:28.189004 26891 net.cpp:382] res4b1_branch2a -> res4b1_branch2a
I1012 20:26:28.190402 26891 net.cpp:124] Setting up res4b1_branch2a
I1012 20:26:28.190418 26891 net.cpp:131] Top shape: 8 256 24 32 (1572864)
I1012 20:26:28.190423 26891 net.cpp:139] Memory required for data: 5825957664
I1012 20:26:28.190428 26891 layer_factory.hpp:77] Creating layer bn4b1_branch2a
I1012 20:26:28.190439 26891 net.cpp:86] Creating Layer bn4b1_branch2a
I1012 20:26:28.190444 26891 net.cpp:408] bn4b1_branch2a <- res4b1_branch2a
I1012 20:26:28.190451 26891 net.cpp:369] bn4b1_branch2a -> res4b1_branch2a (in-place)
I1012 20:26:28.190696 26891 net.cpp:124] Setting up bn4b1_branch2a
I1012 20:26:28.190713 26891 net.cpp:131] Top shape: 8 256 24 32 (1572864)
I1012 20:26:28.190717 26891 net.cpp:139] Memory required for data: 5832249120
I1012 20:26:28.190723 26891 layer_factory.hpp:77] Creating layer scale4b1_branch2a
I1012 20:26:28.190732 26891 net.cpp:86] Creating Layer scale4b1_branch2a
I1012 20:26:28.190737 26891 net.cpp:408] scale4b1_branch2a <- res4b1_branch2a
I1012 20:26:28.190743 26891 net.cpp:369] scale4b1_branch2a -> res4b1_branch2a (in-place)
I1012 20:26:28.190793 26891 layer_factory.hpp:77] Creating layer scale4b1_branch2a
I1012 20:26:28.190913 26891 net.cpp:124] Setting up scale4b1_branch2a
I1012 20:26:28.190922 26891 net.cpp:131] Top shape: 8 256 24 32 (1572864)
I1012 20:26:28.190924 26891 net.cpp:139] Memory required for data: 5838540576
I1012 20:26:28.190930 26891 layer_factory.hpp:77] Creating layer res4b1_branch2a_relu
I1012 20:26:28.190945 26891 net.cpp:86] Creating Layer res4b1_branch2a_relu
I1012 20:26:28.190950 26891 net.cpp:408] res4b1_branch2a_relu <- res4b1_branch2a
I1012 20:26:28.190958 26891 net.cpp:369] res4b1_branch2a_relu -> res4b1_branch2a (in-place)
I1012 20:26:28.191526 26891 net.cpp:124] Setting up res4b1_branch2a_relu
I1012 20:26:28.191541 26891 net.cpp:131] Top shape: 8 256 24 32 (1572864)
I1012 20:26:28.191546 26891 net.cpp:139] Memory required for data: 5844832032
I1012 20:26:28.191550 26891 layer_factory.hpp:77] Creating layer res4b1_branch2b
I1012 20:26:28.191560 26891 net.cpp:86] Creating Layer res4b1_branch2b
I1012 20:26:28.191565 26891 net.cpp:408] res4b1_branch2b <- res4b1_branch2a
I1012 20:26:28.191581 26891 net.cpp:382] res4b1_branch2b -> res4b1_branch2b
I1012 20:26:28.194865 26891 net.cpp:124] Setting up res4b1_branch2b
I1012 20:26:28.194881 26891 net.cpp:131] Top shape: 8 256 24 32 (1572864)
I1012 20:26:28.194886 26891 net.cpp:139] Memory required for data: 5851123488
I1012 20:26:28.194892 26891 layer_factory.hpp:77] Creating layer bn4b1_branch2b
I1012 20:26:28.194902 26891 net.cpp:86] Creating Layer bn4b1_branch2b
I1012 20:26:28.194907 26891 net.cpp:408] bn4b1_branch2b <- res4b1_branch2b
I1012 20:26:28.194916 26891 net.cpp:369] bn4b1_branch2b -> res4b1_branch2b (in-place)
I1012 20:26:28.195148 26891 net.cpp:124] Setting up bn4b1_branch2b
I1012 20:26:28.195156 26891 net.cpp:131] Top shape: 8 256 24 32 (1572864)
I1012 20:26:28.195166 26891 net.cpp:139] Memory required for data: 5857414944
I1012 20:26:28.195174 26891 layer_factory.hpp:77] Creating layer scale4b1_branch2b
I1012 20:26:28.195183 26891 net.cpp:86] Creating Layer scale4b1_branch2b
I1012 20:26:28.195188 26891 net.cpp:408] scale4b1_branch2b <- res4b1_branch2b
I1012 20:26:28.195194 26891 net.cpp:369] scale4b1_branch2b -> res4b1_branch2b (in-place)
I1012 20:26:28.195242 26891 layer_factory.hpp:77] Creating layer scale4b1_branch2b
I1012 20:26:28.195363 26891 net.cpp:124] Setting up scale4b1_branch2b
I1012 20:26:28.195372 26891 net.cpp:131] Top shape: 8 256 24 32 (1572864)
I1012 20:26:28.195375 26891 net.cpp:139] Memory required for data: 5863706400
I1012 20:26:28.195389 26891 layer_factory.hpp:77] Creating layer res4b1_branch2b_relu
I1012 20:26:28.195396 26891 net.cpp:86] Creating Layer res4b1_branch2b_relu
I1012 20:26:28.195400 26891 net.cpp:408] res4b1_branch2b_relu <- res4b1_branch2b
I1012 20:26:28.195411 26891 net.cpp:369] res4b1_branch2b_relu -> res4b1_branch2b (in-place)
I1012 20:26:28.195626 26891 net.cpp:124] Setting up res4b1_branch2b_relu
I1012 20:26:28.195636 26891 net.cpp:131] Top shape: 8 256 24 32 (1572864)
I1012 20:26:28.195639 26891 net.cpp:139] Memory required for data: 5869997856
I1012 20:26:28.195643 26891 layer_factory.hpp:77] Creating layer res4b1_branch2c
I1012 20:26:28.195653 26891 net.cpp:86] Creating Layer res4b1_branch2c
I1012 20:26:28.195659 26891 net.cpp:408] res4b1_branch2c <- res4b1_branch2b
I1012 20:26:28.195665 26891 net.cpp:382] res4b1_branch2c -> res4b1_branch2c
I1012 20:26:28.198235 26891 net.cpp:124] Setting up res4b1_branch2c
I1012 20:26:28.198252 26891 net.cpp:131] Top shape: 8 1024 24 32 (6291456)
I1012 20:26:28.198257 26891 net.cpp:139] Memory required for data: 5895163680
I1012 20:26:28.198297 26891 layer_factory.hpp:77] Creating layer bn4b1_branch2c
I1012 20:26:28.198305 26891 net.cpp:86] Creating Layer bn4b1_branch2c
I1012 20:26:28.198310 26891 net.cpp:408] bn4b1_branch2c <- res4b1_branch2c
I1012 20:26:28.198320 26891 net.cpp:369] bn4b1_branch2c -> res4b1_branch2c (in-place)
I1012 20:26:28.198562 26891 net.cpp:124] Setting up bn4b1_branch2c
I1012 20:26:28.198585 26891 net.cpp:131] Top shape: 8 1024 24 32 (6291456)
I1012 20:26:28.198590 26891 net.cpp:139] Memory required for data: 5920329504
I1012 20:26:28.198596 26891 layer_factory.hpp:77] Creating layer scale4b1_branch2c
I1012 20:26:28.198611 26891 net.cpp:86] Creating Layer scale4b1_branch2c
I1012 20:26:28.198616 26891 net.cpp:408] scale4b1_branch2c <- res4b1_branch2c
I1012 20:26:28.198622 26891 net.cpp:369] scale4b1_branch2c -> res4b1_branch2c (in-place)
I1012 20:26:28.198668 26891 layer_factory.hpp:77] Creating layer scale4b1_branch2c
I1012 20:26:28.198793 26891 net.cpp:124] Setting up scale4b1_branch2c
I1012 20:26:28.198801 26891 net.cpp:131] Top shape: 8 1024 24 32 (6291456)
I1012 20:26:28.198806 26891 net.cpp:139] Memory required for data: 5945495328
I1012 20:26:28.198812 26891 layer_factory.hpp:77] Creating layer res4b1
I1012 20:26:28.198818 26891 net.cpp:86] Creating Layer res4b1
I1012 20:26:28.198822 26891 net.cpp:408] res4b1 <- res4a_res4a_relu_0_split_1
I1012 20:26:28.198834 26891 net.cpp:408] res4b1 <- res4b1_branch2c
I1012 20:26:28.198843 26891 net.cpp:382] res4b1 -> res4b1
I1012 20:26:28.198873 26891 net.cpp:124] Setting up res4b1
I1012 20:26:28.198879 26891 net.cpp:131] Top shape: 8 1024 24 32 (6291456)
I1012 20:26:28.198884 26891 net.cpp:139] Memory required for data: 5970661152
I1012 20:26:28.198887 26891 layer_factory.hpp:77] Creating layer res4b1_relu
I1012 20:26:28.198895 26891 net.cpp:86] Creating Layer res4b1_relu
I1012 20:26:28.198899 26891 net.cpp:408] res4b1_relu <- res4b1
I1012 20:26:28.198905 26891 net.cpp:369] res4b1_relu -> res4b1 (in-place)
I1012 20:26:28.199117 26891 net.cpp:124] Setting up res4b1_relu
I1012 20:26:28.199127 26891 net.cpp:131] Top shape: 8 1024 24 32 (6291456)
I1012 20:26:28.199131 26891 net.cpp:139] Memory required for data: 5995826976
I1012 20:26:28.199134 26891 layer_factory.hpp:77] Creating layer res4b1_res4b1_relu_0_split
I1012 20:26:28.199146 26891 net.cpp:86] Creating Layer res4b1_res4b1_relu_0_split
I1012 20:26:28.199151 26891 net.cpp:408] res4b1_res4b1_relu_0_split <- res4b1
I1012 20:26:28.199159 26891 net.cpp:382] res4b1_res4b1_relu_0_split -> res4b1_res4b1_relu_0_split_0
I1012 20:26:28.199167 26891 net.cpp:382] res4b1_res4b1_relu_0_split -> res4b1_res4b1_relu_0_split_1
I1012 20:26:28.199218 26891 net.cpp:124] Setting up res4b1_res4b1_relu_0_split
I1012 20:26:28.199225 26891 net.cpp:131] Top shape: 8 1024 24 32 (6291456)
I1012 20:26:28.199229 26891 net.cpp:131] Top shape: 8 1024 24 32 (6291456)
I1012 20:26:28.199232 26891 net.cpp:139] Memory required for data: 6046158624
I1012 20:26:28.199249 26891 layer_factory.hpp:77] Creating layer res4b2_branch2a
I1012 20:26:28.199259 26891 net.cpp:86] Creating Layer res4b2_branch2a
I1012 20:26:28.199265 26891 net.cpp:408] res4b2_branch2a <- res4b1_res4b1_relu_0_split_0
I1012 20:26:28.199270 26891 net.cpp:382] res4b2_branch2a -> res4b2_branch2a
I1012 20:26:28.200634 26891 net.cpp:124] Setting up res4b2_branch2a
I1012 20:26:28.200649 26891 net.cpp:131] Top shape: 8 256 24 32 (1572864)
I1012 20:26:28.200652 26891 net.cpp:139] Memory required for data: 6052450080
I1012 20:26:28.200659 26891 layer_factory.hpp:77] Creating layer bn4b2_branch2a
I1012 20:26:28.200668 26891 net.cpp:86] Creating Layer bn4b2_branch2a
I1012 20:26:28.200673 26891 net.cpp:408] bn4b2_branch2a <- res4b2_branch2a
I1012 20:26:28.200682 26891 net.cpp:369] bn4b2_branch2a -> res4b2_branch2a (in-place)
I1012 20:26:28.200906 26891 net.cpp:124] Setting up bn4b2_branch2a
I1012 20:26:28.200914 26891 net.cpp:131] Top shape: 8 256 24 32 (1572864)
I1012 20:26:28.200917 26891 net.cpp:139] Memory required for data: 6058741536
I1012 20:26:28.200933 26891 layer_factory.hpp:77] Creating layer scale4b2_branch2a
I1012 20:26:28.200940 26891 net.cpp:86] Creating Layer scale4b2_branch2a
I1012 20:26:28.200945 26891 net.cpp:408] scale4b2_branch2a <- res4b2_branch2a
I1012 20:26:28.200953 26891 net.cpp:369] scale4b2_branch2a -> res4b2_branch2a (in-place)
I1012 20:26:28.201002 26891 layer_factory.hpp:77] Creating layer scale4b2_branch2a
I1012 20:26:28.201124 26891 net.cpp:124] Setting up scale4b2_branch2a
I1012 20:26:28.201134 26891 net.cpp:131] Top shape: 8 256 24 32 (1572864)
I1012 20:26:28.201138 26891 net.cpp:139] Memory required for data: 6065032992
I1012 20:26:28.201144 26891 layer_factory.hpp:77] Creating layer res4b2_branch2a_relu
I1012 20:26:28.201159 26891 net.cpp:86] Creating Layer res4b2_branch2a_relu
I1012 20:26:28.201164 26891 net.cpp:408] res4b2_branch2a_relu <- res4b2_branch2a
I1012 20:26:28.201169 26891 net.cpp:369] res4b2_branch2a_relu -> res4b2_branch2a (in-place)
I1012 20:26:28.201376 26891 net.cpp:124] Setting up res4b2_branch2a_relu
I1012 20:26:28.201385 26891 net.cpp:131] Top shape: 8 256 24 32 (1572864)
I1012 20:26:28.201390 26891 net.cpp:139] Memory required for data: 6071324448
I1012 20:26:28.201395 26891 layer_factory.hpp:77] Creating layer res4b2_branch2b
I1012 20:26:28.201405 26891 net.cpp:86] Creating Layer res4b2_branch2b
I1012 20:26:28.201408 26891 net.cpp:408] res4b2_branch2b <- res4b2_branch2a
I1012 20:26:28.201416 26891 net.cpp:382] res4b2_branch2b -> res4b2_branch2b
I1012 20:26:28.204751 26891 net.cpp:124] Setting up res4b2_branch2b
I1012 20:26:28.204767 26891 net.cpp:131] Top shape: 8 256 24 32 (1572864)
I1012 20:26:28.204771 26891 net.cpp:139] Memory required for data: 6077615904
I1012 20:26:28.204778 26891 layer_factory.hpp:77] Creating layer bn4b2_branch2b
I1012 20:26:28.204787 26891 net.cpp:86] Creating Layer bn4b2_branch2b
I1012 20:26:28.204792 26891 net.cpp:408] bn4b2_branch2b <- res4b2_branch2b
I1012 20:26:28.204798 26891 net.cpp:369] bn4b2_branch2b -> res4b2_branch2b (in-place)
I1012 20:26:28.205034 26891 net.cpp:124] Setting up bn4b2_branch2b
I1012 20:26:28.205042 26891 net.cpp:131] Top shape: 8 256 24 32 (1572864)
I1012 20:26:28.205046 26891 net.cpp:139] Memory required for data: 6083907360
I1012 20:26:28.205054 26891 layer_factory.hpp:77] Creating layer scale4b2_branch2b
I1012 20:26:28.205062 26891 net.cpp:86] Creating Layer scale4b2_branch2b
I1012 20:26:28.205071 26891 net.cpp:408] scale4b2_branch2b <- res4b2_branch2b
I1012 20:26:28.205077 26891 net.cpp:369] scale4b2_branch2b -> res4b2_branch2b (in-place)
I1012 20:26:28.205128 26891 layer_factory.hpp:77] Creating layer scale4b2_branch2b
I1012 20:26:28.205250 26891 net.cpp:124] Setting up scale4b2_branch2b
I1012 20:26:28.205257 26891 net.cpp:131] Top shape: 8 256 24 32 (1572864)
I1012 20:26:28.205260 26891 net.cpp:139] Memory required for data: 6090198816
I1012 20:26:28.205274 26891 layer_factory.hpp:77] Creating layer res4b2_branch2b_relu
I1012 20:26:28.205283 26891 net.cpp:86] Creating Layer res4b2_branch2b_relu
I1012 20:26:28.205287 26891 net.cpp:408] res4b2_branch2b_relu <- res4b2_branch2b
I1012 20:26:28.205293 26891 net.cpp:369] res4b2_branch2b_relu -> res4b2_branch2b (in-place)
I1012 20:26:28.205874 26891 net.cpp:124] Setting up res4b2_branch2b_relu
I1012 20:26:28.205888 26891 net.cpp:131] Top shape: 8 256 24 32 (1572864)
I1012 20:26:28.205893 26891 net.cpp:139] Memory required for data: 6096490272
I1012 20:26:28.205896 26891 layer_factory.hpp:77] Creating layer res4b2_branch2c
I1012 20:26:28.205907 26891 net.cpp:86] Creating Layer res4b2_branch2c
I1012 20:26:28.205914 26891 net.cpp:408] res4b2_branch2c <- res4b2_branch2b
I1012 20:26:28.205920 26891 net.cpp:382] res4b2_branch2c -> res4b2_branch2c
I1012 20:26:28.208571 26891 net.cpp:124] Setting up res4b2_branch2c
I1012 20:26:28.208587 26891 net.cpp:131] Top shape: 8 1024 24 32 (6291456)
I1012 20:26:28.208591 26891 net.cpp:139] Memory required for data: 6121656096
I1012 20:26:28.208597 26891 layer_factory.hpp:77] Creating layer bn4b2_branch2c
I1012 20:26:28.208606 26891 net.cpp:86] Creating Layer bn4b2_branch2c
I1012 20:26:28.208619 26891 net.cpp:408] bn4b2_branch2c <- res4b2_branch2c
I1012 20:26:28.208629 26891 net.cpp:369] bn4b2_branch2c -> res4b2_branch2c (in-place)
I1012 20:26:28.208864 26891 net.cpp:124] Setting up bn4b2_branch2c
I1012 20:26:28.208873 26891 net.cpp:131] Top shape: 8 1024 24 32 (6291456)
I1012 20:26:28.208876 26891 net.cpp:139] Memory required for data: 6146821920
I1012 20:26:28.208884 26891 layer_factory.hpp:77] Creating layer scale4b2_branch2c
I1012 20:26:28.208899 26891 net.cpp:86] Creating Layer scale4b2_branch2c
I1012 20:26:28.208904 26891 net.cpp:408] scale4b2_branch2c <- res4b2_branch2c
I1012 20:26:28.208909 26891 net.cpp:369] scale4b2_branch2c -> res4b2_branch2c (in-place)
I1012 20:26:28.208957 26891 layer_factory.hpp:77] Creating layer scale4b2_branch2c
I1012 20:26:28.209080 26891 net.cpp:124] Setting up scale4b2_branch2c
I1012 20:26:28.209089 26891 net.cpp:131] Top shape: 8 1024 24 32 (6291456)
I1012 20:26:28.209091 26891 net.cpp:139] Memory required for data: 6171987744
I1012 20:26:28.209098 26891 layer_factory.hpp:77] Creating layer res4b2
I1012 20:26:28.209106 26891 net.cpp:86] Creating Layer res4b2
I1012 20:26:28.209110 26891 net.cpp:408] res4b2 <- res4b1_res4b1_relu_0_split_1
I1012 20:26:28.209116 26891 net.cpp:408] res4b2 <- res4b2_branch2c
I1012 20:26:28.209122 26891 net.cpp:382] res4b2 -> res4b2
I1012 20:26:28.209152 26891 net.cpp:124] Setting up res4b2
I1012 20:26:28.209159 26891 net.cpp:131] Top shape: 8 1024 24 32 (6291456)
I1012 20:26:28.209163 26891 net.cpp:139] Memory required for data: 6197153568
I1012 20:26:28.209167 26891 layer_factory.hpp:77] Creating layer res4b2_relu
I1012 20:26:28.209172 26891 net.cpp:86] Creating Layer res4b2_relu
I1012 20:26:28.209177 26891 net.cpp:408] res4b2_relu <- res4b2
I1012 20:26:28.209184 26891 net.cpp:369] res4b2_relu -> res4b2 (in-place)
I1012 20:26:28.209390 26891 net.cpp:124] Setting up res4b2_relu
I1012 20:26:28.209399 26891 net.cpp:131] Top shape: 8 1024 24 32 (6291456)
I1012 20:26:28.209403 26891 net.cpp:139] Memory required for data: 6222319392
I1012 20:26:28.209408 26891 layer_factory.hpp:77] Creating layer res4b2_res4b2_relu_0_split
I1012 20:26:28.209415 26891 net.cpp:86] Creating Layer res4b2_res4b2_relu_0_split
I1012 20:26:28.209420 26891 net.cpp:408] res4b2_res4b2_relu_0_split <- res4b2
I1012 20:26:28.209429 26891 net.cpp:382] res4b2_res4b2_relu_0_split -> res4b2_res4b2_relu_0_split_0
I1012 20:26:28.209441 26891 net.cpp:382] res4b2_res4b2_relu_0_split -> res4b2_res4b2_relu_0_split_1
I1012 20:26:28.209492 26891 net.cpp:124] Setting up res4b2_res4b2_relu_0_split
I1012 20:26:28.209501 26891 net.cpp:131] Top shape: 8 1024 24 32 (6291456)
I1012 20:26:28.209506 26891 net.cpp:131] Top shape: 8 1024 24 32 (6291456)
I1012 20:26:28.209509 26891 net.cpp:139] Memory required for data: 6272651040
I1012 20:26:28.209519 26891 layer_factory.hpp:77] Creating layer res4b3_branch2a
I1012 20:26:28.209528 26891 net.cpp:86] Creating Layer res4b3_branch2a
I1012 20:26:28.209533 26891 net.cpp:408] res4b3_branch2a <- res4b2_res4b2_relu_0_split_0
I1012 20:26:28.209542 26891 net.cpp:382] res4b3_branch2a -> res4b3_branch2a
I1012 20:26:28.210988 26891 net.cpp:124] Setting up res4b3_branch2a
I1012 20:26:28.211002 26891 net.cpp:131] Top shape: 8 256 24 32 (1572864)
I1012 20:26:28.211007 26891 net.cpp:139] Memory required for data: 6278942496
I1012 20:26:28.211012 26891 layer_factory.hpp:77] Creating layer bn4b3_branch2a
I1012 20:26:28.211024 26891 net.cpp:86] Creating Layer bn4b3_branch2a
I1012 20:26:28.211030 26891 net.cpp:408] bn4b3_branch2a <- res4b3_branch2a
I1012 20:26:28.211035 26891 net.cpp:369] bn4b3_branch2a -> res4b3_branch2a (in-place)
I1012 20:26:28.211268 26891 net.cpp:124] Setting up bn4b3_branch2a
I1012 20:26:28.211277 26891 net.cpp:131] Top shape: 8 256 24 32 (1572864)
I1012 20:26:28.211280 26891 net.cpp:139] Memory required for data: 6285233952
I1012 20:26:28.211287 26891 layer_factory.hpp:77] Creating layer scale4b3_branch2a
I1012 20:26:28.211293 26891 net.cpp:86] Creating Layer scale4b3_branch2a
I1012 20:26:28.211298 26891 net.cpp:408] scale4b3_branch2a <- res4b3_branch2a
I1012 20:26:28.211313 26891 net.cpp:369] scale4b3_branch2a -> res4b3_branch2a (in-place)
I1012 20:26:28.211362 26891 layer_factory.hpp:77] Creating layer scale4b3_branch2a
I1012 20:26:28.211486 26891 net.cpp:124] Setting up scale4b3_branch2a
I1012 20:26:28.211494 26891 net.cpp:131] Top shape: 8 256 24 32 (1572864)
I1012 20:26:28.211498 26891 net.cpp:139] Memory required for data: 6291525408
I1012 20:26:28.211503 26891 layer_factory.hpp:77] Creating layer res4b3_branch2a_relu
I1012 20:26:28.211520 26891 net.cpp:86] Creating Layer res4b3_branch2a_relu
I1012 20:26:28.211525 26891 net.cpp:408] res4b3_branch2a_relu <- res4b3_branch2a
I1012 20:26:28.211531 26891 net.cpp:369] res4b3_branch2a_relu -> res4b3_branch2a (in-place)
I1012 20:26:28.211742 26891 net.cpp:124] Setting up res4b3_branch2a_relu
I1012 20:26:28.211753 26891 net.cpp:131] Top shape: 8 256 24 32 (1572864)
I1012 20:26:28.211758 26891 net.cpp:139] Memory required for data: 6297816864
I1012 20:26:28.211761 26891 layer_factory.hpp:77] Creating layer res4b3_branch2b
I1012 20:26:28.211769 26891 net.cpp:86] Creating Layer res4b3_branch2b
I1012 20:26:28.211774 26891 net.cpp:408] res4b3_branch2b <- res4b3_branch2a
I1012 20:26:28.211783 26891 net.cpp:382] res4b3_branch2b -> res4b3_branch2b
I1012 20:26:28.215108 26891 net.cpp:124] Setting up res4b3_branch2b
I1012 20:26:28.215123 26891 net.cpp:131] Top shape: 8 256 24 32 (1572864)
I1012 20:26:28.215127 26891 net.cpp:139] Memory required for data: 6304108320
I1012 20:26:28.215134 26891 layer_factory.hpp:77] Creating layer bn4b3_branch2b
I1012 20:26:28.215143 26891 net.cpp:86] Creating Layer bn4b3_branch2b
I1012 20:26:28.215148 26891 net.cpp:408] bn4b3_branch2b <- res4b3_branch2b
I1012 20:26:28.215154 26891 net.cpp:369] bn4b3_branch2b -> res4b3_branch2b (in-place)
I1012 20:26:28.215394 26891 net.cpp:124] Setting up bn4b3_branch2b
I1012 20:26:28.215402 26891 net.cpp:131] Top shape: 8 256 24 32 (1572864)
I1012 20:26:28.215406 26891 net.cpp:139] Memory required for data: 6310399776
I1012 20:26:28.215414 26891 layer_factory.hpp:77] Creating layer scale4b3_branch2b
I1012 20:26:28.215422 26891 net.cpp:86] Creating Layer scale4b3_branch2b
I1012 20:26:28.215426 26891 net.cpp:408] scale4b3_branch2b <- res4b3_branch2b
I1012 20:26:28.215432 26891 net.cpp:369] scale4b3_branch2b -> res4b3_branch2b (in-place)
I1012 20:26:28.215487 26891 layer_factory.hpp:77] Creating layer scale4b3_branch2b
I1012 20:26:28.215615 26891 net.cpp:124] Setting up scale4b3_branch2b
I1012 20:26:28.215622 26891 net.cpp:131] Top shape: 8 256 24 32 (1572864)
I1012 20:26:28.215626 26891 net.cpp:139] Memory required for data: 6316691232
I1012 20:26:28.215639 26891 layer_factory.hpp:77] Creating layer res4b3_branch2b_relu
I1012 20:26:28.215647 26891 net.cpp:86] Creating Layer res4b3_branch2b_relu
I1012 20:26:28.215651 26891 net.cpp:408] res4b3_branch2b_relu <- res4b3_branch2b
I1012 20:26:28.215658 26891 net.cpp:369] res4b3_branch2b_relu -> res4b3_branch2b (in-place)
I1012 20:26:28.216250 26891 net.cpp:124] Setting up res4b3_branch2b_relu
I1012 20:26:28.216265 26891 net.cpp:131] Top shape: 8 256 24 32 (1572864)
I1012 20:26:28.216269 26891 net.cpp:139] Memory required for data: 6322982688
I1012 20:26:28.216272 26891 layer_factory.hpp:77] Creating layer res4b3_branch2c
I1012 20:26:28.216284 26891 net.cpp:86] Creating Layer res4b3_branch2c
I1012 20:26:28.216289 26891 net.cpp:408] res4b3_branch2c <- res4b3_branch2b
I1012 20:26:28.216295 26891 net.cpp:382] res4b3_branch2c -> res4b3_branch2c
I1012 20:26:28.219014 26891 net.cpp:124] Setting up res4b3_branch2c
I1012 20:26:28.219029 26891 net.cpp:131] Top shape: 8 1024 24 32 (6291456)
I1012 20:26:28.219034 26891 net.cpp:139] Memory required for data: 6348148512
I1012 20:26:28.219040 26891 layer_factory.hpp:77] Creating layer bn4b3_branch2c
I1012 20:26:28.219050 26891 net.cpp:86] Creating Layer bn4b3_branch2c
I1012 20:26:28.219055 26891 net.cpp:408] bn4b3_branch2c <- res4b3_branch2c
I1012 20:26:28.219063 26891 net.cpp:369] bn4b3_branch2c -> res4b3_branch2c (in-place)
I1012 20:26:28.219295 26891 net.cpp:124] Setting up bn4b3_branch2c
I1012 20:26:28.219310 26891 net.cpp:131] Top shape: 8 1024 24 32 (6291456)
I1012 20:26:28.219314 26891 net.cpp:139] Memory required for data: 6373314336
I1012 20:26:28.219331 26891 layer_factory.hpp:77] Creating layer scale4b3_branch2c
I1012 20:26:28.219339 26891 net.cpp:86] Creating Layer scale4b3_branch2c
I1012 20:26:28.219343 26891 net.cpp:408] scale4b3_branch2c <- res4b3_branch2c
I1012 20:26:28.219349 26891 net.cpp:369] scale4b3_branch2c -> res4b3_branch2c (in-place)
I1012 20:26:28.219398 26891 layer_factory.hpp:77] Creating layer scale4b3_branch2c
I1012 20:26:28.219529 26891 net.cpp:124] Setting up scale4b3_branch2c
I1012 20:26:28.219537 26891 net.cpp:131] Top shape: 8 1024 24 32 (6291456)
I1012 20:26:28.219540 26891 net.cpp:139] Memory required for data: 6398480160
I1012 20:26:28.219547 26891 layer_factory.hpp:77] Creating layer res4b3
I1012 20:26:28.219554 26891 net.cpp:86] Creating Layer res4b3
I1012 20:26:28.219558 26891 net.cpp:408] res4b3 <- res4b2_res4b2_relu_0_split_1
I1012 20:26:28.219564 26891 net.cpp:408] res4b3 <- res4b3_branch2c
I1012 20:26:28.219570 26891 net.cpp:382] res4b3 -> res4b3
I1012 20:26:28.219601 26891 net.cpp:124] Setting up res4b3
I1012 20:26:28.219609 26891 net.cpp:131] Top shape: 8 1024 24 32 (6291456)
I1012 20:26:28.219611 26891 net.cpp:139] Memory required for data: 6423645984
I1012 20:26:28.219616 26891 layer_factory.hpp:77] Creating layer res4b3_relu
I1012 20:26:28.219621 26891 net.cpp:86] Creating Layer res4b3_relu
I1012 20:26:28.219625 26891 net.cpp:408] res4b3_relu <- res4b3
I1012 20:26:28.219632 26891 net.cpp:369] res4b3_relu -> res4b3 (in-place)
I1012 20:26:28.219841 26891 net.cpp:124] Setting up res4b3_relu
I1012 20:26:28.219851 26891 net.cpp:131] Top shape: 8 1024 24 32 (6291456)
I1012 20:26:28.219854 26891 net.cpp:139] Memory required for data: 6448811808
I1012 20:26:28.219858 26891 layer_factory.hpp:77] Creating layer res4b3_res4b3_relu_0_split
I1012 20:26:28.219867 26891 net.cpp:86] Creating Layer res4b3_res4b3_relu_0_split
I1012 20:26:28.219871 26891 net.cpp:408] res4b3_res4b3_relu_0_split <- res4b3
I1012 20:26:28.219877 26891 net.cpp:382] res4b3_res4b3_relu_0_split -> res4b3_res4b3_relu_0_split_0
I1012 20:26:28.219884 26891 net.cpp:382] res4b3_res4b3_relu_0_split -> res4b3_res4b3_relu_0_split_1
I1012 20:26:28.219939 26891 net.cpp:124] Setting up res4b3_res4b3_relu_0_split
I1012 20:26:28.219951 26891 net.cpp:131] Top shape: 8 1024 24 32 (6291456)
I1012 20:26:28.219956 26891 net.cpp:131] Top shape: 8 1024 24 32 (6291456)
I1012 20:26:28.219960 26891 net.cpp:139] Memory required for data: 6499143456
I1012 20:26:28.219970 26891 layer_factory.hpp:77] Creating layer res4b4_branch2a
I1012 20:26:28.219981 26891 net.cpp:86] Creating Layer res4b4_branch2a
I1012 20:26:28.219986 26891 net.cpp:408] res4b4_branch2a <- res4b3_res4b3_relu_0_split_0
I1012 20:26:28.220002 26891 net.cpp:382] res4b4_branch2a -> res4b4_branch2a
I1012 20:26:28.221415 26891 net.cpp:124] Setting up res4b4_branch2a
I1012 20:26:28.221428 26891 net.cpp:131] Top shape: 8 256 24 32 (1572864)
I1012 20:26:28.221432 26891 net.cpp:139] Memory required for data: 6505434912
I1012 20:26:28.221438 26891 layer_factory.hpp:77] Creating layer bn4b4_branch2a
I1012 20:26:28.221446 26891 net.cpp:86] Creating Layer bn4b4_branch2a
I1012 20:26:28.221451 26891 net.cpp:408] bn4b4_branch2a <- res4b4_branch2a
I1012 20:26:28.221459 26891 net.cpp:369] bn4b4_branch2a -> res4b4_branch2a (in-place)
I1012 20:26:28.221696 26891 net.cpp:124] Setting up bn4b4_branch2a
I1012 20:26:28.221705 26891 net.cpp:131] Top shape: 8 256 24 32 (1572864)
I1012 20:26:28.221709 26891 net.cpp:139] Memory required for data: 6511726368
I1012 20:26:28.221715 26891 layer_factory.hpp:77] Creating layer scale4b4_branch2a
I1012 20:26:28.221722 26891 net.cpp:86] Creating Layer scale4b4_branch2a
I1012 20:26:28.221727 26891 net.cpp:408] scale4b4_branch2a <- res4b4_branch2a
I1012 20:26:28.221735 26891 net.cpp:369] scale4b4_branch2a -> res4b4_branch2a (in-place)
I1012 20:26:28.221782 26891 layer_factory.hpp:77] Creating layer scale4b4_branch2a
I1012 20:26:28.221918 26891 net.cpp:124] Setting up scale4b4_branch2a
I1012 20:26:28.221927 26891 net.cpp:131] Top shape: 8 256 24 32 (1572864)
I1012 20:26:28.221930 26891 net.cpp:139] Memory required for data: 6518017824
I1012 20:26:28.221936 26891 layer_factory.hpp:77] Creating layer res4b4_branch2a_relu
I1012 20:26:28.221951 26891 net.cpp:86] Creating Layer res4b4_branch2a_relu
I1012 20:26:28.221956 26891 net.cpp:408] res4b4_branch2a_relu <- res4b4_branch2a
I1012 20:26:28.221966 26891 net.cpp:369] res4b4_branch2a_relu -> res4b4_branch2a (in-place)
I1012 20:26:28.222184 26891 net.cpp:124] Setting up res4b4_branch2a_relu
I1012 20:26:28.222193 26891 net.cpp:131] Top shape: 8 256 24 32 (1572864)
I1012 20:26:28.222198 26891 net.cpp:139] Memory required for data: 6524309280
I1012 20:26:28.222203 26891 layer_factory.hpp:77] Creating layer res4b4_branch2b
I1012 20:26:28.222213 26891 net.cpp:86] Creating Layer res4b4_branch2b
I1012 20:26:28.222218 26891 net.cpp:408] res4b4_branch2b <- res4b4_branch2a
I1012 20:26:28.222226 26891 net.cpp:382] res4b4_branch2b -> res4b4_branch2b
I1012 20:26:28.225518 26891 net.cpp:124] Setting up res4b4_branch2b
I1012 20:26:28.225538 26891 net.cpp:131] Top shape: 8 256 24 32 (1572864)
I1012 20:26:28.225543 26891 net.cpp:139] Memory required for data: 6530600736
I1012 20:26:28.225548 26891 layer_factory.hpp:77] Creating layer bn4b4_branch2b
I1012 20:26:28.225555 26891 net.cpp:86] Creating Layer bn4b4_branch2b
I1012 20:26:28.225560 26891 net.cpp:408] bn4b4_branch2b <- res4b4_branch2b
I1012 20:26:28.225569 26891 net.cpp:369] bn4b4_branch2b -> res4b4_branch2b (in-place)
I1012 20:26:28.225814 26891 net.cpp:124] Setting up bn4b4_branch2b
I1012 20:26:28.225822 26891 net.cpp:131] Top shape: 8 256 24 32 (1572864)
I1012 20:26:28.225826 26891 net.cpp:139] Memory required for data: 6536892192
I1012 20:26:28.225833 26891 layer_factory.hpp:77] Creating layer scale4b4_branch2b
I1012 20:26:28.225842 26891 net.cpp:86] Creating Layer scale4b4_branch2b
I1012 20:26:28.225847 26891 net.cpp:408] scale4b4_branch2b <- res4b4_branch2b
I1012 20:26:28.225852 26891 net.cpp:369] scale4b4_branch2b -> res4b4_branch2b (in-place)
I1012 20:26:28.225903 26891 layer_factory.hpp:77] Creating layer scale4b4_branch2b
I1012 20:26:28.226032 26891 net.cpp:124] Setting up scale4b4_branch2b
I1012 20:26:28.226039 26891 net.cpp:131] Top shape: 8 256 24 32 (1572864)
I1012 20:26:28.226047 26891 net.cpp:139] Memory required for data: 6543183648
I1012 20:26:28.226061 26891 layer_factory.hpp:77] Creating layer res4b4_branch2b_relu
I1012 20:26:28.226069 26891 net.cpp:86] Creating Layer res4b4_branch2b_relu
I1012 20:26:28.226073 26891 net.cpp:408] res4b4_branch2b_relu <- res4b4_branch2b
I1012 20:26:28.226084 26891 net.cpp:369] res4b4_branch2b_relu -> res4b4_branch2b (in-place)
I1012 20:26:28.226681 26891 net.cpp:124] Setting up res4b4_branch2b_relu
I1012 20:26:28.226698 26891 net.cpp:131] Top shape: 8 256 24 32 (1572864)
I1012 20:26:28.226703 26891 net.cpp:139] Memory required for data: 6549475104
I1012 20:26:28.226707 26891 layer_factory.hpp:77] Creating layer res4b4_branch2c
I1012 20:26:28.226717 26891 net.cpp:86] Creating Layer res4b4_branch2c
I1012 20:26:28.226723 26891 net.cpp:408] res4b4_branch2c <- res4b4_branch2b
I1012 20:26:28.226730 26891 net.cpp:382] res4b4_branch2c -> res4b4_branch2c
I1012 20:26:28.229387 26891 net.cpp:124] Setting up res4b4_branch2c
I1012 20:26:28.229403 26891 net.cpp:131] Top shape: 8 1024 24 32 (6291456)
I1012 20:26:28.229408 26891 net.cpp:139] Memory required for data: 6574640928
I1012 20:26:28.229413 26891 layer_factory.hpp:77] Creating layer bn4b4_branch2c
I1012 20:26:28.229423 26891 net.cpp:86] Creating Layer bn4b4_branch2c
I1012 20:26:28.229429 26891 net.cpp:408] bn4b4_branch2c <- res4b4_branch2c
I1012 20:26:28.229434 26891 net.cpp:369] bn4b4_branch2c -> res4b4_branch2c (in-place)
I1012 20:26:28.229672 26891 net.cpp:124] Setting up bn4b4_branch2c
I1012 20:26:28.229681 26891 net.cpp:131] Top shape: 8 1024 24 32 (6291456)
I1012 20:26:28.229684 26891 net.cpp:139] Memory required for data: 6599806752
I1012 20:26:28.229699 26891 layer_factory.hpp:77] Creating layer scale4b4_branch2c
I1012 20:26:28.229717 26891 net.cpp:86] Creating Layer scale4b4_branch2c
I1012 20:26:28.229722 26891 net.cpp:408] scale4b4_branch2c <- res4b4_branch2c
I1012 20:26:28.229728 26891 net.cpp:369] scale4b4_branch2c -> res4b4_branch2c (in-place)
I1012 20:26:28.229777 26891 layer_factory.hpp:77] Creating layer scale4b4_branch2c
I1012 20:26:28.229912 26891 net.cpp:124] Setting up scale4b4_branch2c
I1012 20:26:28.229920 26891 net.cpp:131] Top shape: 8 1024 24 32 (6291456)
I1012 20:26:28.229924 26891 net.cpp:139] Memory required for data: 6624972576
I1012 20:26:28.229930 26891 layer_factory.hpp:77] Creating layer res4b4
I1012 20:26:28.229936 26891 net.cpp:86] Creating Layer res4b4
I1012 20:26:28.229940 26891 net.cpp:408] res4b4 <- res4b3_res4b3_relu_0_split_1
I1012 20:26:28.229945 26891 net.cpp:408] res4b4 <- res4b4_branch2c
I1012 20:26:28.229954 26891 net.cpp:382] res4b4 -> res4b4
I1012 20:26:28.229984 26891 net.cpp:124] Setting up res4b4
I1012 20:26:28.229992 26891 net.cpp:131] Top shape: 8 1024 24 32 (6291456)
I1012 20:26:28.229996 26891 net.cpp:139] Memory required for data: 6650138400
I1012 20:26:28.230000 26891 layer_factory.hpp:77] Creating layer res4b4_relu
I1012 20:26:28.230005 26891 net.cpp:86] Creating Layer res4b4_relu
I1012 20:26:28.230010 26891 net.cpp:408] res4b4_relu <- res4b4
I1012 20:26:28.230015 26891 net.cpp:369] res4b4_relu -> res4b4 (in-place)
I1012 20:26:28.230228 26891 net.cpp:124] Setting up res4b4_relu
I1012 20:26:28.230238 26891 net.cpp:131] Top shape: 8 1024 24 32 (6291456)
I1012 20:26:28.230242 26891 net.cpp:139] Memory required for data: 6675304224
I1012 20:26:28.230245 26891 layer_factory.hpp:77] Creating layer res4b4_res4b4_relu_0_split
I1012 20:26:28.230252 26891 net.cpp:86] Creating Layer res4b4_res4b4_relu_0_split
I1012 20:26:28.230257 26891 net.cpp:408] res4b4_res4b4_relu_0_split <- res4b4
I1012 20:26:28.230274 26891 net.cpp:382] res4b4_res4b4_relu_0_split -> res4b4_res4b4_relu_0_split_0
I1012 20:26:28.230283 26891 net.cpp:382] res4b4_res4b4_relu_0_split -> res4b4_res4b4_relu_0_split_1
I1012 20:26:28.230338 26891 net.cpp:124] Setting up res4b4_res4b4_relu_0_split
I1012 20:26:28.230345 26891 net.cpp:131] Top shape: 8 1024 24 32 (6291456)
I1012 20:26:28.230350 26891 net.cpp:131] Top shape: 8 1024 24 32 (6291456)
I1012 20:26:28.230353 26891 net.cpp:139] Memory required for data: 6725635872
I1012 20:26:28.230368 26891 layer_factory.hpp:77] Creating layer res4b5_branch2a
I1012 20:26:28.230379 26891 net.cpp:86] Creating Layer res4b5_branch2a
I1012 20:26:28.230384 26891 net.cpp:408] res4b5_branch2a <- res4b4_res4b4_relu_0_split_0
I1012 20:26:28.230391 26891 net.cpp:382] res4b5_branch2a -> res4b5_branch2a
I1012 20:26:28.231801 26891 net.cpp:124] Setting up res4b5_branch2a
I1012 20:26:28.231817 26891 net.cpp:131] Top shape: 8 256 24 32 (1572864)
I1012 20:26:28.231820 26891 net.cpp:139] Memory required for data: 6731927328
I1012 20:26:28.231827 26891 layer_factory.hpp:77] Creating layer bn4b5_branch2a
I1012 20:26:28.231834 26891 net.cpp:86] Creating Layer bn4b5_branch2a
I1012 20:26:28.231839 26891 net.cpp:408] bn4b5_branch2a <- res4b5_branch2a
I1012 20:26:28.231848 26891 net.cpp:369] bn4b5_branch2a -> res4b5_branch2a (in-place)
I1012 20:26:28.232087 26891 net.cpp:124] Setting up bn4b5_branch2a
I1012 20:26:28.232096 26891 net.cpp:131] Top shape: 8 256 24 32 (1572864)
I1012 20:26:28.232100 26891 net.cpp:139] Memory required for data: 6738218784
I1012 20:26:28.232107 26891 layer_factory.hpp:77] Creating layer scale4b5_branch2a
I1012 20:26:28.232113 26891 net.cpp:86] Creating Layer scale4b5_branch2a
I1012 20:26:28.232118 26891 net.cpp:408] scale4b5_branch2a <- res4b5_branch2a
I1012 20:26:28.232123 26891 net.cpp:369] scale4b5_branch2a -> res4b5_branch2a (in-place)
I1012 20:26:28.232173 26891 layer_factory.hpp:77] Creating layer scale4b5_branch2a
I1012 20:26:28.232300 26891 net.cpp:124] Setting up scale4b5_branch2a
I1012 20:26:28.232307 26891 net.cpp:131] Top shape: 8 256 24 32 (1572864)
I1012 20:26:28.232311 26891 net.cpp:139] Memory required for data: 6744510240
I1012 20:26:28.232324 26891 layer_factory.hpp:77] Creating layer res4b5_branch2a_relu
I1012 20:26:28.232342 26891 net.cpp:86] Creating Layer res4b5_branch2a_relu
I1012 20:26:28.232347 26891 net.cpp:408] res4b5_branch2a_relu <- res4b5_branch2a
I1012 20:26:28.232352 26891 net.cpp:369] res4b5_branch2a_relu -> res4b5_branch2a (in-place)
I1012 20:26:28.232563 26891 net.cpp:124] Setting up res4b5_branch2a_relu
I1012 20:26:28.232573 26891 net.cpp:131] Top shape: 8 256 24 32 (1572864)
I1012 20:26:28.232578 26891 net.cpp:139] Memory required for data: 6750801696
I1012 20:26:28.232580 26891 layer_factory.hpp:77] Creating layer res4b5_branch2b
I1012 20:26:28.232590 26891 net.cpp:86] Creating Layer res4b5_branch2b
I1012 20:26:28.232595 26891 net.cpp:408] res4b5_branch2b <- res4b5_branch2a
I1012 20:26:28.232602 26891 net.cpp:382] res4b5_branch2b -> res4b5_branch2b
I1012 20:26:28.235944 26891 net.cpp:124] Setting up res4b5_branch2b
I1012 20:26:28.235960 26891 net.cpp:131] Top shape: 8 256 24 32 (1572864)
I1012 20:26:28.235963 26891 net.cpp:139] Memory required for data: 6757093152
I1012 20:26:28.235970 26891 layer_factory.hpp:77] Creating layer bn4b5_branch2b
I1012 20:26:28.235980 26891 net.cpp:86] Creating Layer bn4b5_branch2b
I1012 20:26:28.235985 26891 net.cpp:408] bn4b5_branch2b <- res4b5_branch2b
I1012 20:26:28.235992 26891 net.cpp:369] bn4b5_branch2b -> res4b5_branch2b (in-place)
I1012 20:26:28.236241 26891 net.cpp:124] Setting up bn4b5_branch2b
I1012 20:26:28.236249 26891 net.cpp:131] Top shape: 8 256 24 32 (1572864)
I1012 20:26:28.236253 26891 net.cpp:139] Memory required for data: 6763384608
I1012 20:26:28.236260 26891 layer_factory.hpp:77] Creating layer scale4b5_branch2b
I1012 20:26:28.236266 26891 net.cpp:86] Creating Layer scale4b5_branch2b
I1012 20:26:28.236271 26891 net.cpp:408] scale4b5_branch2b <- res4b5_branch2b
I1012 20:26:28.236279 26891 net.cpp:369] scale4b5_branch2b -> res4b5_branch2b (in-place)
I1012 20:26:28.236330 26891 layer_factory.hpp:77] Creating layer scale4b5_branch2b
I1012 20:26:28.236459 26891 net.cpp:124] Setting up scale4b5_branch2b
I1012 20:26:28.236467 26891 net.cpp:131] Top shape: 8 256 24 32 (1572864)
I1012 20:26:28.236471 26891 net.cpp:139] Memory required for data: 6769676064
I1012 20:26:28.236485 26891 layer_factory.hpp:77] Creating layer res4b5_branch2b_relu
I1012 20:26:28.236491 26891 net.cpp:86] Creating Layer res4b5_branch2b_relu
I1012 20:26:28.236500 26891 net.cpp:408] res4b5_branch2b_relu <- res4b5_branch2b
I1012 20:26:28.236506 26891 net.cpp:369] res4b5_branch2b_relu -> res4b5_branch2b (in-place)
I1012 20:26:28.236727 26891 net.cpp:124] Setting up res4b5_branch2b_relu
I1012 20:26:28.236739 26891 net.cpp:131] Top shape: 8 256 24 32 (1572864)
I1012 20:26:28.236743 26891 net.cpp:139] Memory required for data: 6775967520
I1012 20:26:28.236747 26891 layer_factory.hpp:77] Creating layer res4b5_branch2c
I1012 20:26:28.236754 26891 net.cpp:86] Creating Layer res4b5_branch2c
I1012 20:26:28.236760 26891 net.cpp:408] res4b5_branch2c <- res4b5_branch2b
I1012 20:26:28.236768 26891 net.cpp:382] res4b5_branch2c -> res4b5_branch2c
I1012 20:26:28.239783 26891 net.cpp:124] Setting up res4b5_branch2c
I1012 20:26:28.239800 26891 net.cpp:131] Top shape: 8 1024 24 32 (6291456)
I1012 20:26:28.239805 26891 net.cpp:139] Memory required for data: 6801133344
I1012 20:26:28.239810 26891 layer_factory.hpp:77] Creating layer bn4b5_branch2c
I1012 20:26:28.239817 26891 net.cpp:86] Creating Layer bn4b5_branch2c
I1012 20:26:28.239822 26891 net.cpp:408] bn4b5_branch2c <- res4b5_branch2c
I1012 20:26:28.239831 26891 net.cpp:369] bn4b5_branch2c -> res4b5_branch2c (in-place)
I1012 20:26:28.240072 26891 net.cpp:124] Setting up bn4b5_branch2c
I1012 20:26:28.240080 26891 net.cpp:131] Top shape: 8 1024 24 32 (6291456)
I1012 20:26:28.240083 26891 net.cpp:139] Memory required for data: 6826299168
I1012 20:26:28.240099 26891 layer_factory.hpp:77] Creating layer scale4b5_branch2c
I1012 20:26:28.240109 26891 net.cpp:86] Creating Layer scale4b5_branch2c
I1012 20:26:28.240113 26891 net.cpp:408] scale4b5_branch2c <- res4b5_branch2c
I1012 20:26:28.240128 26891 net.cpp:369] scale4b5_branch2c -> res4b5_branch2c (in-place)
I1012 20:26:28.240178 26891 layer_factory.hpp:77] Creating layer scale4b5_branch2c
I1012 20:26:28.240312 26891 net.cpp:124] Setting up scale4b5_branch2c
I1012 20:26:28.240320 26891 net.cpp:131] Top shape: 8 1024 24 32 (6291456)
I1012 20:26:28.240324 26891 net.cpp:139] Memory required for data: 6851464992
I1012 20:26:28.240360 26891 layer_factory.hpp:77] Creating layer res4b5
I1012 20:26:28.240367 26891 net.cpp:86] Creating Layer res4b5
I1012 20:26:28.240372 26891 net.cpp:408] res4b5 <- res4b4_res4b4_relu_0_split_1
I1012 20:26:28.240377 26891 net.cpp:408] res4b5 <- res4b5_branch2c
I1012 20:26:28.240384 26891 net.cpp:382] res4b5 -> res4b5
I1012 20:26:28.240417 26891 net.cpp:124] Setting up res4b5
I1012 20:26:28.240423 26891 net.cpp:131] Top shape: 8 1024 24 32 (6291456)
I1012 20:26:28.240427 26891 net.cpp:139] Memory required for data: 6876630816
I1012 20:26:28.240432 26891 layer_factory.hpp:77] Creating layer res4b5_relu
I1012 20:26:28.240437 26891 net.cpp:86] Creating Layer res4b5_relu
I1012 20:26:28.240440 26891 net.cpp:408] res4b5_relu <- res4b5
I1012 20:26:28.240445 26891 net.cpp:369] res4b5_relu -> res4b5 (in-place)
I1012 20:26:28.241044 26891 net.cpp:124] Setting up res4b5_relu
I1012 20:26:28.241062 26891 net.cpp:131] Top shape: 8 1024 24 32 (6291456)
I1012 20:26:28.241066 26891 net.cpp:139] Memory required for data: 6901796640
I1012 20:26:28.241070 26891 layer_factory.hpp:77] Creating layer res4b5_res4b5_relu_0_split
I1012 20:26:28.241077 26891 net.cpp:86] Creating Layer res4b5_res4b5_relu_0_split
I1012 20:26:28.241081 26891 net.cpp:408] res4b5_res4b5_relu_0_split <- res4b5
I1012 20:26:28.241091 26891 net.cpp:382] res4b5_res4b5_relu_0_split -> res4b5_res4b5_relu_0_split_0
I1012 20:26:28.241099 26891 net.cpp:382] res4b5_res4b5_relu_0_split -> res4b5_res4b5_relu_0_split_1
I1012 20:26:28.241155 26891 net.cpp:124] Setting up res4b5_res4b5_relu_0_split
I1012 20:26:28.241163 26891 net.cpp:131] Top shape: 8 1024 24 32 (6291456)
I1012 20:26:28.241166 26891 net.cpp:131] Top shape: 8 1024 24 32 (6291456)
I1012 20:26:28.241170 26891 net.cpp:139] Memory required for data: 6952128288
I1012 20:26:28.241181 26891 layer_factory.hpp:77] Creating layer res4b6_branch2a
I1012 20:26:28.241192 26891 net.cpp:86] Creating Layer res4b6_branch2a
I1012 20:26:28.241202 26891 net.cpp:408] res4b6_branch2a <- res4b5_res4b5_relu_0_split_0
I1012 20:26:28.241209 26891 net.cpp:382] res4b6_branch2a -> res4b6_branch2a
I1012 20:26:28.242645 26891 net.cpp:124] Setting up res4b6_branch2a
I1012 20:26:28.242660 26891 net.cpp:131] Top shape: 8 256 24 32 (1572864)
I1012 20:26:28.242663 26891 net.cpp:139] Memory required for data: 6958419744
I1012 20:26:28.242669 26891 layer_factory.hpp:77] Creating layer bn4b6_branch2a
I1012 20:26:28.242679 26891 net.cpp:86] Creating Layer bn4b6_branch2a
I1012 20:26:28.242684 26891 net.cpp:408] bn4b6_branch2a <- res4b6_branch2a
I1012 20:26:28.242692 26891 net.cpp:369] bn4b6_branch2a -> res4b6_branch2a (in-place)
I1012 20:26:28.242933 26891 net.cpp:124] Setting up bn4b6_branch2a
I1012 20:26:28.242943 26891 net.cpp:131] Top shape: 8 256 24 32 (1572864)
I1012 20:26:28.242945 26891 net.cpp:139] Memory required for data: 6964711200
I1012 20:26:28.242952 26891 layer_factory.hpp:77] Creating layer scale4b6_branch2a
I1012 20:26:28.242960 26891 net.cpp:86] Creating Layer scale4b6_branch2a
I1012 20:26:28.242965 26891 net.cpp:408] scale4b6_branch2a <- res4b6_branch2a
I1012 20:26:28.242971 26891 net.cpp:369] scale4b6_branch2a -> res4b6_branch2a (in-place)
I1012 20:26:28.243022 26891 layer_factory.hpp:77] Creating layer scale4b6_branch2a
I1012 20:26:28.243155 26891 net.cpp:124] Setting up scale4b6_branch2a
I1012 20:26:28.243162 26891 net.cpp:131] Top shape: 8 256 24 32 (1572864)
I1012 20:26:28.243165 26891 net.cpp:139] Memory required for data: 6971002656
I1012 20:26:28.243180 26891 layer_factory.hpp:77] Creating layer res4b6_branch2a_relu
I1012 20:26:28.243185 26891 net.cpp:86] Creating Layer res4b6_branch2a_relu
I1012 20:26:28.243191 26891 net.cpp:408] res4b6_branch2a_relu <- res4b6_branch2a
I1012 20:26:28.243204 26891 net.cpp:369] res4b6_branch2a_relu -> res4b6_branch2a (in-place)
I1012 20:26:28.243422 26891 net.cpp:124] Setting up res4b6_branch2a_relu
I1012 20:26:28.243432 26891 net.cpp:131] Top shape: 8 256 24 32 (1572864)
I1012 20:26:28.243438 26891 net.cpp:139] Memory required for data: 6977294112
I1012 20:26:28.243440 26891 layer_factory.hpp:77] Creating layer res4b6_branch2b
I1012 20:26:28.243451 26891 net.cpp:86] Creating Layer res4b6_branch2b
I1012 20:26:28.243456 26891 net.cpp:408] res4b6_branch2b <- res4b6_branch2a
I1012 20:26:28.243463 26891 net.cpp:382] res4b6_branch2b -> res4b6_branch2b
I1012 20:26:28.246821 26891 net.cpp:124] Setting up res4b6_branch2b
I1012 20:26:28.246837 26891 net.cpp:131] Top shape: 8 256 24 32 (1572864)
I1012 20:26:28.246841 26891 net.cpp:139] Memory required for data: 6983585568
I1012 20:26:28.246847 26891 layer_factory.hpp:77] Creating layer bn4b6_branch2b
I1012 20:26:28.246858 26891 net.cpp:86] Creating Layer bn4b6_branch2b
I1012 20:26:28.246865 26891 net.cpp:408] bn4b6_branch2b <- res4b6_branch2b
I1012 20:26:28.246872 26891 net.cpp:369] bn4b6_branch2b -> res4b6_branch2b (in-place)
I1012 20:26:28.247129 26891 net.cpp:124] Setting up bn4b6_branch2b
I1012 20:26:28.247138 26891 net.cpp:131] Top shape: 8 256 24 32 (1572864)
I1012 20:26:28.247141 26891 net.cpp:139] Memory required for data: 6989877024
I1012 20:26:28.247148 26891 layer_factory.hpp:77] Creating layer scale4b6_branch2b
I1012 20:26:28.247164 26891 net.cpp:86] Creating Layer scale4b6_branch2b
I1012 20:26:28.247169 26891 net.cpp:408] scale4b6_branch2b <- res4b6_branch2b
I1012 20:26:28.247174 26891 net.cpp:369] scale4b6_branch2b -> res4b6_branch2b (in-place)
I1012 20:26:28.247227 26891 layer_factory.hpp:77] Creating layer scale4b6_branch2b
I1012 20:26:28.247359 26891 net.cpp:124] Setting up scale4b6_branch2b
I1012 20:26:28.247366 26891 net.cpp:131] Top shape: 8 256 24 32 (1572864)
I1012 20:26:28.247370 26891 net.cpp:139] Memory required for data: 6996168480
I1012 20:26:28.247376 26891 layer_factory.hpp:77] Creating layer res4b6_branch2b_relu
I1012 20:26:28.247385 26891 net.cpp:86] Creating Layer res4b6_branch2b_relu
I1012 20:26:28.247388 26891 net.cpp:408] res4b6_branch2b_relu <- res4b6_branch2b
I1012 20:26:28.247393 26891 net.cpp:369] res4b6_branch2b_relu -> res4b6_branch2b (in-place)
I1012 20:26:28.247613 26891 net.cpp:124] Setting up res4b6_branch2b_relu
I1012 20:26:28.247624 26891 net.cpp:131] Top shape: 8 256 24 32 (1572864)
I1012 20:26:28.247628 26891 net.cpp:139] Memory required for data: 7002459936
I1012 20:26:28.247632 26891 layer_factory.hpp:77] Creating layer res4b6_branch2c
I1012 20:26:28.247642 26891 net.cpp:86] Creating Layer res4b6_branch2c
I1012 20:26:28.247648 26891 net.cpp:408] res4b6_branch2c <- res4b6_branch2b
I1012 20:26:28.247656 26891 net.cpp:382] res4b6_branch2c -> res4b6_branch2c
I1012 20:26:28.250346 26891 net.cpp:124] Setting up res4b6_branch2c
I1012 20:26:28.250361 26891 net.cpp:131] Top shape: 8 1024 24 32 (6291456)
I1012 20:26:28.250366 26891 net.cpp:139] Memory required for data: 7027625760
I1012 20:26:28.250372 26891 layer_factory.hpp:77] Creating layer bn4b6_branch2c
I1012 20:26:28.250381 26891 net.cpp:86] Creating Layer bn4b6_branch2c
I1012 20:26:28.250387 26891 net.cpp:408] bn4b6_branch2c <- res4b6_branch2c
I1012 20:26:28.250396 26891 net.cpp:369] bn4b6_branch2c -> res4b6_branch2c (in-place)
I1012 20:26:28.250638 26891 net.cpp:124] Setting up bn4b6_branch2c
I1012 20:26:28.250646 26891 net.cpp:131] Top shape: 8 1024 24 32 (6291456)
…
I1012 20:26:28.422741 26891 net.cpp:382] res4b21_branch2c -> res4b21_branch2c
I1012 20:26:28.425748 26891 net.cpp:124] Setting up res4b21_branch2c
I1012 20:26:28.425763 26891 net.cpp:131] Top shape: 8 1024 24 32 (6291456)
I1012 20:26:28.425768 26891 net.cpp:139] Memory required for data: 10425012000
I1012 20:26:28.425774 26891 layer_factory.hpp:77] Creating layer bn4b21_branch2c
I1012 20:26:28.425783 26891 net.cpp:86] Creating Layer bn4b21_branch2c
I1012 20:26:28.425789 26891 net.cpp:408] bn4b21_branch2c <- res4b21_branch2c
I1012 20:26:28.425798 26891 net.cpp:369] bn4b21_branch2c -> res4b21_branch2c (in-place)
I1012 20:26:28.426115 26891 net.cpp:124] Setting up bn4b21_branch2c
I1012 20:26:28.426122 26891 net.cpp:131] Top shape: 8 1024 24 32 (6291456)
I1012 20:26:28.426126 26891 net.cpp:139] Memory required for data: 10450177824
I1012 20:26:28.426147 26891 layer_factory.hpp:77] Creating layer scale4b21_branch2c
I1012 20:26:28.426156 26891 net.cpp:86] Creating Layer scale4b21_branch2c
I1012 20:26:28.426159 26891 net.cpp:408] scale4b21_branch2c <- res4b21_branch2c
I1012 20:26:28.426167 26891 net.cpp:369] scale4b21_branch2c -> res4b21_branch2c (in-place)
I1012 20:26:28.426228 26891 layer_factory.hpp:77] Creating layer scale4b21_branch2c
I1012 20:26:28.426419 26891 net.cpp:124] Setting up scale4b21_branch2c
I1012 20:26:28.426430 26891 net.cpp:131] Top shape: 8 1024 24 32 (6291456)
I1012 20:26:28.426434 26891 net.cpp:139] Memory required for data: 10475343648
I1012 20:26:28.426440 26891 layer_factory.hpp:77] Creating layer res4b21
I1012 20:26:28.426448 26891 net.cpp:86] Creating Layer res4b21
I1012 20:26:28.426453 26891 net.cpp:408] res4b21 <- res4b20_res4b20_relu_0_split_1
I1012 20:26:28.426460 26891 net.cpp:408] res4b21 <- res4b21_branch2c
I1012 20:26:28.426465 26891 net.cpp:382] res4b21 -> res4b21
I1012 20:26:28.426506 26891 net.cpp:124] Setting up res4b21
I1012 20:26:28.426512 26891 net.cpp:131] Top shape: 8 1024 24 32 (6291456)
I1012 20:26:28.426517 26891 net.cpp:139] Memory required for data: 10500509472
I1012 20:26:28.426520 26891 layer_factory.hpp:77] Creating layer res4b21_relu
I1012 20:26:28.426527 26891 net.cpp:86] Creating Layer res4b21_relu
I1012 20:26:28.426530 26891 net.cpp:408] res4b21_relu <- res4b21
I1012 20:26:28.426537 26891 net.cpp:369] res4b21_relu -> res4b21 (in-place)
I1012 20:26:28.426771 26891 net.cpp:124] Setting up res4b21_relu
I1012 20:26:28.426784 26891 net.cpp:131] Top shape: 8 1024 24 32 (6291456)
I1012 20:26:28.426786 26891 net.cpp:139] Memory required for data: 10525675296
I1012 20:26:28.426790 26891 layer_factory.hpp:77] Creating layer res4b21_res4b21_relu_0_split
I1012 20:26:28.426797 26891 net.cpp:86] Creating Layer res4b21_res4b21_relu_0_split
I1012 20:26:28.426801 26891 net.cpp:408] res4b21_res4b21_relu_0_split <- res4b21
I1012 20:26:28.426808 26891 net.cpp:382] res4b21_res4b21_relu_0_split -> res4b21_res4b21_relu_0_split_0
I1012 20:26:28.426817 26891 net.cpp:382] res4b21_res4b21_relu_0_split -> res4b21_res4b21_relu_0_split_1
I1012 20:26:28.426898 26891 net.cpp:124] Setting up res4b21_res4b21_relu_0_split
I1012 20:26:28.426904 26891 net.cpp:131] Top shape: 8 1024 24 32 (6291456)
I1012 20:26:28.426909 26891 net.cpp:131] Top shape: 8 1024 24 32 (6291456)
I1012 20:26:28.426913 26891 net.cpp:139] Memory required for data: 10576006944
I1012 20:26:28.426923 26891 layer_factory.hpp:77] Creating layer res4b22_branch2a
I1012 20:26:28.426934 26891 net.cpp:86] Creating Layer res4b22_branch2a
I1012 20:26:28.426939 26891 net.cpp:408] res4b22_branch2a <- res4b21_res4b21_relu_0_split_0
I1012 20:26:28.426949 26891 net.cpp:382] res4b22_branch2a -> res4b22_branch2a
I1012 20:26:28.428606 26891 net.cpp:124] Setting up res4b22_branch2a
I1012 20:26:28.428622 26891 net.cpp:131] Top shape: 8 256 24 32 (1572864)
I1012 20:26:28.428625 26891 net.cpp:139] Memory required for data: 10582298400
I1012 20:26:28.428630 26891 layer_factory.hpp:77] Creating layer bn4b22_branch2a
I1012 20:26:28.428640 26891 net.cpp:86] Creating Layer bn4b22_branch2a
I1012 20:26:28.428645 26891 net.cpp:408] bn4b22_branch2a <- res4b22_branch2a
I1012 20:26:28.428654 26891 net.cpp:369] bn4b22_branch2a -> res4b22_branch2a (in-place)
I1012 20:26:28.428974 26891 net.cpp:124] Setting up bn4b22_branch2a
I1012 20:26:28.428983 26891 net.cpp:131] Top shape: 8 256 24 32 (1572864)
I1012 20:26:28.428987 26891 net.cpp:139] Memory required for data: 10588589856
I1012 20:26:28.428993 26891 layer_factory.hpp:77] Creating layer scale4b22_branch2a
I1012 20:26:28.429000 26891 net.cpp:86] Creating Layer scale4b22_branch2a
I1012 20:26:28.429005 26891 net.cpp:408] scale4b22_branch2a <- res4b22_branch2a
I1012 20:26:28.429010 26891 net.cpp:369] scale4b22_branch2a -> res4b22_branch2a (in-place)
I1012 20:26:28.429075 26891 layer_factory.hpp:77] Creating layer scale4b22_branch2a
I1012 20:26:28.429247 26891 net.cpp:124] Setting up scale4b22_branch2a
I1012 20:26:28.429255 26891 net.cpp:131] Top shape: 8 256 24 32 (1572864)
I1012 20:26:28.429260 26891 net.cpp:139] Memory required for data: 10594881312
I1012 20:26:28.429272 26891 layer_factory.hpp:77] Creating layer res4b22_branch2a_relu
I1012 20:26:28.429280 26891 net.cpp:86] Creating Layer res4b22_branch2a_relu
I1012 20:26:28.429286 26891 net.cpp:408] res4b22_branch2a_relu <- res4b22_branch2a
I1012 20:26:28.429297 26891 net.cpp:369] res4b22_branch2a_relu -> res4b22_branch2a (in-place)
I1012 20:26:28.429535 26891 net.cpp:124] Setting up res4b22_branch2a_relu
I1012 20:26:28.429545 26891 net.cpp:131] Top shape: 8 256 24 32 (1572864)
I1012 20:26:28.429549 26891 net.cpp:139] Memory required for data: 10601172768
I1012 20:26:28.429553 26891 layer_factory.hpp:77] Creating layer res4b22_branch2b
I1012 20:26:28.429563 26891 net.cpp:86] Creating Layer res4b22_branch2b
I1012 20:26:28.429569 26891 net.cpp:408] res4b22_branch2b <- res4b22_branch2a
I1012 20:26:28.429575 26891 net.cpp:382] res4b22_branch2b -> res4b22_branch2b
I1012 20:26:28.433336 26891 net.cpp:124] Setting up res4b22_branch2b
I1012 20:26:28.433351 26891 net.cpp:131] Top shape: 8 256 24 32 (1572864)
I1012 20:26:28.433356 26891 net.cpp:139] Memory required for data: 10607464224
I1012 20:26:28.433362 26891 layer_factory.hpp:77] Creating layer bn4b22_branch2b
I1012 20:26:28.433372 26891 net.cpp:86] Creating Layer bn4b22_branch2b
I1012 20:26:28.433377 26891 net.cpp:408] bn4b22_branch2b <- res4b22_branch2b
I1012 20:26:28.433387 26891 net.cpp:369] bn4b22_branch2b -> res4b22_branch2b (in-place)
I1012 20:26:28.433715 26891 net.cpp:124] Setting up bn4b22_branch2b
I1012 20:26:28.433724 26891 net.cpp:131] Top shape: 8 256 24 32 (1572864)
I1012 20:26:28.433728 26891 net.cpp:139] Memory required for data: 10613755680
I1012 20:26:28.433735 26891 layer_factory.hpp:77] Creating layer scale4b22_branch2b
I1012 20:26:28.433751 26891 net.cpp:86] Creating Layer scale4b22_branch2b
I1012 20:26:28.433756 26891 net.cpp:408] scale4b22_branch2b <- res4b22_branch2b
I1012 20:26:28.433764 26891 net.cpp:369] scale4b22_branch2b -> res4b22_branch2b (in-place)
I1012 20:26:28.433832 26891 layer_factory.hpp:77] Creating layer scale4b22_branch2b
I1012 20:26:28.434018 26891 net.cpp:124] Setting up scale4b22_branch2b
I1012 20:26:28.434028 26891 net.cpp:131] Top shape: 8 256 24 32 (1572864)
I1012 20:26:28.434032 26891 net.cpp:139] Memory required for data: 10620047136
I1012 20:26:28.434038 26891 layer_factory.hpp:77] Creating layer res4b22_branch2b_relu
I1012 20:26:28.434044 26891 net.cpp:86] Creating Layer res4b22_branch2b_relu
I1012 20:26:28.434049 26891 net.cpp:408] res4b22_branch2b_relu <- res4b22_branch2b
I1012 20:26:28.434054 26891 net.cpp:369] res4b22_branch2b_relu -> res4b22_branch2b (in-place)
I1012 20:26:28.434777 26891 net.cpp:124] Setting up res4b22_branch2b_relu
I1012 20:26:28.434792 26891 net.cpp:131] Top shape: 8 256 24 32 (1572864)
I1012 20:26:28.434797 26891 net.cpp:139] Memory required for data: 10626338592
I1012 20:26:28.434800 26891 layer_factory.hpp:77] Creating layer res4b22_branch2c
I1012 20:26:28.434811 26891 net.cpp:86] Creating Layer res4b22_branch2c
I1012 20:26:28.434819 26891 net.cpp:408] res4b22_branch2c <- res4b22_branch2b
I1012 20:26:28.434826 26891 net.cpp:382] res4b22_branch2c -> res4b22_branch2c
I1012 20:26:28.437849 26891 net.cpp:124] Setting up res4b22_branch2c
I1012 20:26:28.437865 26891 net.cpp:131] Top shape: 8 1024 24 32 (6291456)
I1012 20:26:28.437870 26891 net.cpp:139] Memory required for data: 10651504416
I1012 20:26:28.437876 26891 layer_factory.hpp:77] Creating layer bn4b22_branch2c
I1012 20:26:28.437885 26891 net.cpp:86] Creating Layer bn4b22_branch2c
I1012 20:26:28.437891 26891 net.cpp:408] bn4b22_branch2c <- res4b22_branch2c
I1012 20:26:28.437897 26891 net.cpp:369] bn4b22_branch2c -> res4b22_branch2c (in-place)
I1012 20:26:28.438228 26891 net.cpp:124] Setting up bn4b22_branch2c
I1012 20:26:28.438237 26891 net.cpp:131] Top shape: 8 1024 24 32 (6291456)
I1012 20:26:28.438241 26891 net.cpp:139] Memory required for data: 10676670240
I1012 20:26:28.438249 26891 layer_factory.hpp:77] Creating layer scale4b22_branch2c
I1012 20:26:28.438271 26891 net.cpp:86] Creating Layer scale4b22_branch2c
I1012 20:26:28.438278 26891 net.cpp:408] scale4b22_branch2c <- res4b22_branch2c
I1012 20:26:28.438284 26891 net.cpp:369] scale4b22_branch2c -> res4b22_branch2c (in-place)
I1012 20:26:28.438347 26891 layer_factory.hpp:77] Creating layer scale4b22_branch2c
I1012 20:26:28.438519 26891 net.cpp:124] Setting up scale4b22_branch2c
I1012 20:26:28.438534 26891 net.cpp:131] Top shape: 8 1024 24 32 (6291456)
I1012 20:26:28.438537 26891 net.cpp:139] Memory required for data: 10701836064
I1012 20:26:28.438544 26891 layer_factory.hpp:77] Creating layer res4b22
I1012 20:26:28.438552 26891 net.cpp:86] Creating Layer res4b22
I1012 20:26:28.438557 26891 net.cpp:408] res4b22 <- res4b21_res4b21_relu_0_split_1
I1012 20:26:28.438563 26891 net.cpp:408] res4b22 <- res4b22_branch2c
I1012 20:26:28.438575 26891 net.cpp:382] res4b22 -> res4b22
I1012 20:26:28.438616 26891 net.cpp:124] Setting up res4b22
I1012 20:26:28.438623 26891 net.cpp:131] Top shape: 8 1024 24 32 (6291456)
I1012 20:26:28.438627 26891 net.cpp:139] Memory required for data: 10727001888
I1012 20:26:28.438632 26891 layer_factory.hpp:77] Creating layer res4b22_relu
I1012 20:26:28.438637 26891 net.cpp:86] Creating Layer res4b22_relu
I1012 20:26:28.438640 26891 net.cpp:408] res4b22_relu <- res4b22
I1012 20:26:28.438647 26891 net.cpp:369] res4b22_relu -> res4b22 (in-place)
I1012 20:26:28.438889 26891 net.cpp:124] Setting up res4b22_relu
I1012 20:26:28.438899 26891 net.cpp:131] Top shape: 8 1024 24 32 (6291456)
I1012 20:26:28.438902 26891 net.cpp:139] Memory required for data: 10752167712
I1012 20:26:28.438906 26891 layer_factory.hpp:77] Creating layer res4b22_res4b22_relu_0_split
I1012 20:26:28.438913 26891 net.cpp:86] Creating Layer res4b22_res4b22_relu_0_split
I1012 20:26:28.438917 26891 net.cpp:408] res4b22_res4b22_relu_0_split <- res4b22
I1012 20:26:28.438925 26891 net.cpp:382] res4b22_res4b22_relu_0_split -> res4b22_res4b22_relu_0_split_0
I1012 20:26:28.438933 26891 net.cpp:382] res4b22_res4b22_relu_0_split -> res4b22_res4b22_relu_0_split_1
I1012 20:26:28.438951 26891 net.cpp:382] res4b22_res4b22_relu_0_split -> res4b22_res4b22_relu_0_split_2
I1012 20:26:28.439041 26891 net.cpp:124] Setting up res4b22_res4b22_relu_0_split
I1012 20:26:28.439049 26891 net.cpp:131] Top shape: 8 1024 24 32 (6291456)
I1012 20:26:28.439054 26891 net.cpp:131] Top shape: 8 1024 24 32 (6291456)
I1012 20:26:28.439059 26891 net.cpp:131] Top shape: 8 1024 24 32 (6291456)
I1012 20:26:28.439061 26891 net.cpp:139] Memory required for data: 10827665184
I1012 20:26:28.439071 26891 layer_factory.hpp:77] Creating layer res5a_branch1
I1012 20:26:28.439081 26891 net.cpp:86] Creating Layer res5a_branch1
I1012 20:26:28.439087 26891 net.cpp:408] res5a_branch1 <- res4b22_res4b22_relu_0_split_0
I1012 20:26:28.439097 26891 net.cpp:382] res5a_branch1 -> res5a_branch1
I1012 20:26:28.445642 26891 net.cpp:124] Setting up res5a_branch1
I1012 20:26:28.445658 26891 net.cpp:131] Top shape: 8 2048 12 16 (3145728)
I1012 20:26:28.445663 26891 net.cpp:139] Memory required for data: 10840248096
I1012 20:26:28.445669 26891 layer_factory.hpp:77] Creating layer bn5a_branch1
I1012 20:26:28.445678 26891 net.cpp:86] Creating Layer bn5a_branch1
I1012 20:26:28.445683 26891 net.cpp:408] bn5a_branch1 <- res5a_branch1
I1012 20:26:28.445693 26891 net.cpp:369] bn5a_branch1 -> res5a_branch1 (in-place)
I1012 20:26:28.446048 26891 net.cpp:124] Setting up bn5a_branch1
I1012 20:26:28.446058 26891 net.cpp:131] Top shape: 8 2048 12 16 (3145728)
I1012 20:26:28.446061 26891 net.cpp:139] Memory required for data: 10852831008
I1012 20:26:28.446069 26891 layer_factory.hpp:77] Creating layer scale5a_branch1
I1012 20:26:28.446076 26891 net.cpp:86] Creating Layer scale5a_branch1
I1012 20:26:28.446081 26891 net.cpp:408] scale5a_branch1 <- res5a_branch1
I1012 20:26:28.446087 26891 net.cpp:369] scale5a_branch1 -> res5a_branch1 (in-place)
I1012 20:26:28.446151 26891 layer_factory.hpp:77] Creating layer scale5a_branch1
I1012 20:26:28.446357 26891 net.cpp:124] Setting up scale5a_branch1
I1012 20:26:28.446367 26891 net.cpp:131] Top shape: 8 2048 12 16 (3145728)
I1012 20:26:28.446370 26891 net.cpp:139] Memory required for data: 10865413920
I1012 20:26:28.446384 26891 layer_factory.hpp:77] Creating layer res5a_branch2a
I1012 20:26:28.446395 26891 net.cpp:86] Creating Layer res5a_branch2a
I1012 20:26:28.446401 26891 net.cpp:408] res5a_branch2a <- res4b22_res4b22_relu_0_split_1
I1012 20:26:28.446416 26891 net.cpp:382] res5a_branch2a -> res5a_branch2a
I1012 20:26:28.449604 26891 net.cpp:124] Setting up res5a_branch2a
I1012 20:26:28.449620 26891 net.cpp:131] Top shape: 8 512 12 16 (786432)
I1012 20:26:28.449623 26891 net.cpp:139] Memory required for data: 10868559648
I1012 20:26:28.449630 26891 layer_factory.hpp:77] Creating layer bn5a_branch2a
I1012 20:26:28.449638 26891 net.cpp:86] Creating Layer bn5a_branch2a
I1012 20:26:28.449645 26891 net.cpp:408] bn5a_branch2a <- res5a_branch2a
I1012 20:26:28.449652 26891 net.cpp:369] bn5a_branch2a -> res5a_branch2a (in-place)
I1012 20:26:28.449976 26891 net.cpp:124] Setting up bn5a_branch2a
I1012 20:26:28.449985 26891 net.cpp:131] Top shape: 8 512 12 16 (786432)
I1012 20:26:28.449990 26891 net.cpp:139] Memory required for data: 10871705376
I1012 20:26:28.449995 26891 layer_factory.hpp:77] Creating layer scale5a_branch2a
I1012 20:26:28.450004 26891 net.cpp:86] Creating Layer scale5a_branch2a
I1012 20:26:28.450009 26891 net.cpp:408] scale5a_branch2a <- res5a_branch2a
I1012 20:26:28.450016 26891 net.cpp:369] scale5a_branch2a -> res5a_branch2a (in-place)
I1012 20:26:28.450075 26891 layer_factory.hpp:77] Creating layer scale5a_branch2a
I1012 20:26:28.450273 26891 net.cpp:124] Setting up scale5a_branch2a
I1012 20:26:28.450284 26891 net.cpp:131] Top shape: 8 512 12 16 (786432)
I1012 20:26:28.450287 26891 net.cpp:139] Memory required for data: 10874851104
I1012 20:26:28.450294 26891 layer_factory.hpp:77] Creating layer res5a_branch2a_relu
I1012 20:26:28.450309 26891 net.cpp:86] Creating Layer res5a_branch2a_relu
I1012 20:26:28.450314 26891 net.cpp:408] res5a_branch2a_relu <- res5a_branch2a
I1012 20:26:28.450320 26891 net.cpp:369] res5a_branch2a_relu -> res5a_branch2a (in-place)
I1012 20:26:28.450565 26891 net.cpp:124] Setting up res5a_branch2a_relu
I1012 20:26:28.450577 26891 net.cpp:131] Top shape: 8 512 12 16 (786432)
I1012 20:26:28.450580 26891 net.cpp:139] Memory required for data: 10877996832
I1012 20:26:28.450584 26891 layer_factory.hpp:77] Creating layer res5a_branch2b
I1012 20:26:28.450594 26891 net.cpp:86] Creating Layer res5a_branch2b
I1012 20:26:28.450599 26891 net.cpp:408] res5a_branch2b <- res5a_branch2a
I1012 20:26:28.450608 26891 net.cpp:382] res5a_branch2b -> res5a_branch2b
I1012 20:26:28.457733 26891 net.cpp:124] Setting up res5a_branch2b
I1012 20:26:28.457751 26891 net.cpp:131] Top shape: 8 512 12 16 (786432)
I1012 20:26:28.457756 26891 net.cpp:139] Memory required for data: 10881142560
I1012 20:26:28.457762 26891 layer_factory.hpp:77] Creating layer bn5a_branch2b
I1012 20:26:28.457772 26891 net.cpp:86] Creating Layer bn5a_branch2b
I1012 20:26:28.457777 26891 net.cpp:408] bn5a_branch2b <- res5a_branch2b
I1012 20:26:28.457782 26891 net.cpp:369] bn5a_branch2b -> res5a_branch2b (in-place)
I1012 20:26:28.458107 26891 net.cpp:124] Setting up bn5a_branch2b
I1012 20:26:28.458117 26891 net.cpp:131] Top shape: 8 512 12 16 (786432)
I1012 20:26:28.458119 26891 net.cpp:139] Memory required for data: 10884288288
I1012 20:26:28.458127 26891 layer_factory.hpp:77] Creating layer scale5a_branch2b
I1012 20:26:28.458135 26891 net.cpp:86] Creating Layer scale5a_branch2b
I1012 20:26:28.458140 26891 net.cpp:408] scale5a_branch2b <- res5a_branch2b
I1012 20:26:28.458147 26891 net.cpp:369] scale5a_branch2b -> res5a_branch2b (in-place)
I1012 20:26:28.458207 26891 layer_factory.hpp:77] Creating layer scale5a_branch2b
I1012 20:26:28.458411 26891 net.cpp:124] Setting up scale5a_branch2b
I1012 20:26:28.458420 26891 net.cpp:131] Top shape: 8 512 12 16 (786432)
I1012 20:26:28.458425 26891 net.cpp:139] Memory required for data: 10887434016
I1012 20:26:28.458431 26891 layer_factory.hpp:77] Creating layer res5a_branch2b_relu
I1012 20:26:28.458447 26891 net.cpp:86] Creating Layer res5a_branch2b_relu
I1012 20:26:28.458452 26891 net.cpp:408] res5a_branch2b_relu <- res5a_branch2b
I1012 20:26:28.458464 26891 net.cpp:369] res5a_branch2b_relu -> res5a_branch2b (in-place)
I1012 20:26:28.459204 26891 net.cpp:124] Setting up res5a_branch2b_relu
I1012 20:26:28.459224 26891 net.cpp:131] Top shape: 8 512 12 16 (786432)
I1012 20:26:28.459228 26891 net.cpp:139] Memory required for data: 10890579744
I1012 20:26:28.459233 26891 layer_factory.hpp:77] Creating layer res5a_branch2c
I1012 20:26:28.459244 26891 net.cpp:86] Creating Layer res5a_branch2c
I1012 20:26:28.459249 26891 net.cpp:408] res5a_branch2c <- res5a_branch2b
I1012 20:26:28.459256 26891 net.cpp:382] res5a_branch2c -> res5a_branch2c
I1012 20:26:28.463623 26891 net.cpp:124] Setting up res5a_branch2c
I1012 20:26:28.463637 26891 net.cpp:131] Top shape: 8 2048 12 16 (3145728)
I1012 20:26:28.463642 26891 net.cpp:139] Memory required for data: 10903162656
I1012 20:26:28.463649 26891 layer_factory.hpp:77] Creating layer bn5a_branch2c
I1012 20:26:28.463657 26891 net.cpp:86] Creating Layer bn5a_branch2c
I1012 20:26:28.463662 26891 net.cpp:408] bn5a_branch2c <- res5a_branch2c
I1012 20:26:28.463670 26891 net.cpp:369] bn5a_branch2c -> res5a_branch2c (in-place)
I1012 20:26:28.464006 26891 net.cpp:124] Setting up bn5a_branch2c
I1012 20:26:28.464015 26891 net.cpp:131] Top shape: 8 2048 12 16 (3145728)
I1012 20:26:28.464018 26891 net.cpp:139] Memory required for data: 10915745568
I1012 20:26:28.464026 26891 layer_factory.hpp:77] Creating layer scale5a_branch2c
I1012 20:26:28.464041 26891 net.cpp:86] Creating Layer scale5a_branch2c
I1012 20:26:28.464046 26891 net.cpp:408] scale5a_branch2c <- res5a_branch2c
I1012 20:26:28.464054 26891 net.cpp:369] scale5a_branch2c -> res5a_branch2c (in-place)
I1012 20:26:28.464118 26891 layer_factory.hpp:77] Creating layer scale5a_branch2c
I1012 20:26:28.464315 26891 net.cpp:124] Setting up scale5a_branch2c
I1012 20:26:28.464323 26891 net.cpp:131] Top shape: 8 2048 12 16 (3145728)
I1012 20:26:28.464336 26891 net.cpp:139] Memory required for data: 10928328480
I1012 20:26:28.464344 26891 layer_factory.hpp:77] Creating layer res5a
I1012 20:26:28.464349 26891 net.cpp:86] Creating Layer res5a
I1012 20:26:28.464354 26891 net.cpp:408] res5a <- res5a_branch1
I1012 20:26:28.464359 26891 net.cpp:408] res5a <- res5a_branch2c
I1012 20:26:28.464367 26891 net.cpp:382] res5a -> res5a
I1012 20:26:28.464407 26891 net.cpp:124] Setting up res5a
I1012 20:26:28.464416 26891 net.cpp:131] Top shape: 8 2048 12 16 (3145728)
I1012 20:26:28.464421 26891 net.cpp:139] Memory required for data: 10940911392
I1012 20:26:28.464424 26891 layer_factory.hpp:77] Creating layer res5a_relu
I1012 20:26:28.464429 26891 net.cpp:86] Creating Layer res5a_relu
I1012 20:26:28.464434 26891 net.cpp:408] res5a_relu <- res5a
I1012 20:26:28.464439 26891 net.cpp:369] res5a_relu -> res5a (in-place)
I1012 20:26:28.464681 26891 net.cpp:124] Setting up res5a_relu
I1012 20:26:28.464692 26891 net.cpp:131] Top shape: 8 2048 12 16 (3145728)
I1012 20:26:28.464696 26891 net.cpp:139] Memory required for data: 10953494304
I1012 20:26:28.464700 26891 layer_factory.hpp:77] Creating layer res5a_res5a_relu_0_split
I1012 20:26:28.464707 26891 net.cpp:86] Creating Layer res5a_res5a_relu_0_split
I1012 20:26:28.464712 26891 net.cpp:408] res5a_res5a_relu_0_split <- res5a
I1012 20:26:28.464718 26891 net.cpp:382] res5a_res5a_relu_0_split -> res5a_res5a_relu_0_split_0
I1012 20:26:28.464726 26891 net.cpp:382] res5a_res5a_relu_0_split -> res5a_res5a_relu_0_split_1
I1012 20:26:28.464795 26891 net.cpp:124] Setting up res5a_res5a_relu_0_split
I1012 20:26:28.464802 26891 net.cpp:131] Top shape: 8 2048 12 16 (3145728)
I1012 20:26:28.464807 26891 net.cpp:131] Top shape: 8 2048 12 16 (3145728)
I1012 20:26:28.464810 26891 net.cpp:139] Memory required for data: 10978660128
I1012 20:26:28.464823 26891 layer_factory.hpp:77] Creating layer res5b_branch2a
I1012 20:26:28.464831 26891 net.cpp:86] Creating Layer res5b_branch2a
I1012 20:26:28.464835 26891 net.cpp:408] res5b_branch2a <- res5a_res5a_relu_0_split_0
I1012 20:26:28.464843 26891 net.cpp:382] res5b_branch2a -> res5b_branch2a
I1012 20:26:28.469200 26891 net.cpp:124] Setting up res5b_branch2a
I1012 20:26:28.469216 26891 net.cpp:131] Top shape: 8 512 12 16 (786432)
I1012 20:26:28.469220 26891 net.cpp:139] Memory required for data: 10981805856
I1012 20:26:28.469231 26891 layer_factory.hpp:77] Creating layer bn5b_branch2a
I1012 20:26:28.469242 26891 net.cpp:86] Creating Layer bn5b_branch2a
I1012 20:26:28.469247 26891 net.cpp:408] bn5b_branch2a <- res5b_branch2a
I1012 20:26:28.469254 26891 net.cpp:369] bn5b_branch2a -> res5b_branch2a (in-place)
I1012 20:26:28.469588 26891 net.cpp:124] Setting up bn5b_branch2a
I1012 20:26:28.469597 26891 net.cpp:131] Top shape: 8 512 12 16 (786432)
I1012 20:26:28.469601 26891 net.cpp:139] Memory required for data: 10984951584
I1012 20:26:28.469609 26891 layer_factory.hpp:77] Creating layer scale5b_branch2a
I1012 20:26:28.469616 26891 net.cpp:86] Creating Layer scale5b_branch2a
I1012 20:26:28.469621 26891 net.cpp:408] scale5b_branch2a <- res5b_branch2a
I1012 20:26:28.469627 26891 net.cpp:369] scale5b_branch2a -> res5b_branch2a (in-place)
I1012 20:26:28.469689 26891 layer_factory.hpp:77] Creating layer scale5b_branch2a
I1012 20:26:28.469883 26891 net.cpp:124] Setting up scale5b_branch2a
I1012 20:26:28.469892 26891 net.cpp:131] Top shape: 8 512 12 16 (786432)
I1012 20:26:28.469895 26891 net.cpp:139] Memory required for data: 10988097312
I1012 20:26:28.469902 26891 layer_factory.hpp:77] Creating layer res5b_branch2a_relu
I1012 20:26:28.469915 26891 net.cpp:86] Creating Layer res5b_branch2a_relu
I1012 20:26:28.469920 26891 net.cpp:408] res5b_branch2a_relu <- res5b_branch2a
I1012 20:26:28.469928 26891 net.cpp:369] res5b_branch2a_relu -> res5b_branch2a (in-place)
I1012 20:26:28.470161 26891 net.cpp:124] Setting up res5b_branch2a_relu
I1012 20:26:28.470171 26891 net.cpp:131] Top shape: 8 512 12 16 (786432)
I1012 20:26:28.470175 26891 net.cpp:139] Memory required for data: 10991243040
I1012 20:26:28.470180 26891 layer_factory.hpp:77] Creating layer res5b_branch2b
I1012 20:26:28.470197 26891 net.cpp:86] Creating Layer res5b_branch2b
I1012 20:26:28.470202 26891 net.cpp:408] res5b_branch2b <- res5b_branch2a
I1012 20:26:28.470211 26891 net.cpp:382] res5b_branch2b -> res5b_branch2b
I1012 20:26:28.477367 26891 net.cpp:124] Setting up res5b_branch2b
I1012 20:26:28.477385 26891 net.cpp:131] Top shape: 8 512 12 16 (786432)
I1012 20:26:28.477388 26891 net.cpp:139] Memory required for data: 10994388768
I1012 20:26:28.477394 26891 layer_factory.hpp:77] Creating layer bn5b_branch2b
I1012 20:26:28.477406 26891 net.cpp:86] Creating Layer bn5b_branch2b
I1012 20:26:28.477411 26891 net.cpp:408] bn5b_branch2b <- res5b_branch2b
I1012 20:26:28.477418 26891 net.cpp:369] bn5b_branch2b -> res5b_branch2b (in-place)
I1012 20:26:28.477754 26891 net.cpp:124] Setting up bn5b_branch2b
I1012 20:26:28.477762 26891 net.cpp:131] Top shape: 8 512 12 16 (786432)
I1012 20:26:28.477766 26891 net.cpp:139] Memory required for data: 10997534496
I1012 20:26:28.477773 26891 layer_factory.hpp:77] Creating layer scale5b_branch2b
I1012 20:26:28.477790 26891 net.cpp:86] Creating Layer scale5b_branch2b
I1012 20:26:28.477795 26891 net.cpp:408] scale5b_branch2b <- res5b_branch2b
I1012 20:26:28.477802 26891 net.cpp:369] scale5b_branch2b -> res5b_branch2b (in-place)
I1012 20:26:28.477865 26891 layer_factory.hpp:77] Creating layer scale5b_branch2b
I1012 20:26:28.478061 26891 net.cpp:124] Setting up scale5b_branch2b
I1012 20:26:28.478070 26891 net.cpp:131] Top shape: 8 512 12 16 (786432)
I1012 20:26:28.478072 26891 net.cpp:139] Memory required for data: 11000680224
I1012 20:26:28.478078 26891 layer_factory.hpp:77] Creating layer res5b_branch2b_relu
I1012 20:26:28.478087 26891 net.cpp:86] Creating Layer res5b_branch2b_relu
I1012 20:26:28.478091 26891 net.cpp:408] res5b_branch2b_relu <- res5b_branch2b
I1012 20:26:28.478097 26891 net.cpp:369] res5b_branch2b_relu -> res5b_branch2b (in-place)
I1012 20:26:28.478853 26891 net.cpp:124] Setting up res5b_branch2b_relu
I1012 20:26:28.478868 26891 net.cpp:131] Top shape: 8 512 12 16 (786432)
I1012 20:26:28.478873 26891 net.cpp:139] Memory required for data: 11003825952
I1012 20:26:28.478876 26891 layer_factory.hpp:77] Creating layer res5b_branch2c
I1012 20:26:28.478889 26891 net.cpp:86] Creating Layer res5b_branch2c
I1012 20:26:28.478895 26891 net.cpp:408] res5b_branch2c <- res5b_branch2b
I1012 20:26:28.478909 26891 net.cpp:382] res5b_branch2c -> res5b_branch2c
I1012 20:26:28.483875 26891 net.cpp:124] Setting up res5b_branch2c
I1012 20:26:28.483891 26891 net.cpp:131] Top shape: 8 2048 12 16 (3145728)
I1012 20:26:28.483896 26891 net.cpp:139] Memory required for data: 11016408864
I1012 20:26:28.483902 26891 layer_factory.hpp:77] Creating layer bn5b_branch2c
I1012 20:26:28.483909 26891 net.cpp:86] Creating Layer bn5b_branch2c
I1012 20:26:28.483916 26891 net.cpp:408] bn5b_branch2c <- res5b_branch2c
I1012 20:26:28.483924 26891 net.cpp:369] bn5b_branch2c -> res5b_branch2c (in-place)
I1012 20:26:28.484269 26891 net.cpp:124] Setting up bn5b_branch2c
I1012 20:26:28.484277 26891 net.cpp:131] Top shape: 8 2048 12 16 (3145728)
I1012 20:26:28.484282 26891 net.cpp:139] Memory required for data: 11028991776
I1012 20:26:28.484297 26891 layer_factory.hpp:77] Creating layer scale5b_branch2c
I1012 20:26:28.484304 26891 net.cpp:86] Creating Layer scale5b_branch2c
I1012 20:26:28.484309 26891 net.cpp:408] scale5b_branch2c <- res5b_branch2c
I1012 20:26:28.484318 26891 net.cpp:369] scale5b_branch2c -> res5b_branch2c (in-place)
I1012 20:26:28.484382 26891 layer_factory.hpp:77] Creating layer scale5b_branch2c
I1012 20:26:28.484580 26891 net.cpp:124] Setting up scale5b_branch2c
I1012 20:26:28.484587 26891 net.cpp:131] Top shape: 8 2048 12 16 (3145728)
I1012 20:26:28.484591 26891 net.cpp:139] Memory required for data: 11041574688
I1012 20:26:28.484597 26891 layer_factory.hpp:77] Creating layer res5b
I1012 20:26:28.484603 26891 net.cpp:86] Creating Layer res5b
I1012 20:26:28.484608 26891 net.cpp:408] res5b <- res5a_res5a_relu_0_split_1
I1012 20:26:28.484613 26891 net.cpp:408] res5b <- res5b_branch2c
I1012 20:26:28.484628 26891 net.cpp:382] res5b -> res5b
I1012 20:26:28.484671 26891 net.cpp:124] Setting up res5b
I1012 20:26:28.484681 26891 net.cpp:131] Top shape: 8 2048 12 16 (3145728)
I1012 20:26:28.484684 26891 net.cpp:139] Memory required for data: 11054157600
I1012 20:26:28.484689 26891 layer_factory.hpp:77] Creating layer res5b_relu
I1012 20:26:28.484694 26891 net.cpp:86] Creating Layer res5b_relu
I1012 20:26:28.484699 26891 net.cpp:408] res5b_relu <- res5b
I1012 20:26:28.484704 26891 net.cpp:369] res5b_relu -> res5b (in-place)
I1012 20:26:28.484951 26891 net.cpp:124] Setting up res5b_relu
I1012 20:26:28.484964 26891 net.cpp:131] Top shape: 8 2048 12 16 (3145728)
I1012 20:26:28.484968 26891 net.cpp:139] Memory required for data: 11066740512
I1012 20:26:28.484973 26891 layer_factory.hpp:77] Creating layer res5b_res5b_relu_0_split
I1012 20:26:28.484980 26891 net.cpp:86] Creating Layer res5b_res5b_relu_0_split
I1012 20:26:28.484985 26891 net.cpp:408] res5b_res5b_relu_0_split <- res5b
I1012 20:26:28.484992 26891 net.cpp:382] res5b_res5b_relu_0_split -> res5b_res5b_relu_0_split_0
I1012 20:26:28.485002 26891 net.cpp:382] res5b_res5b_relu_0_split -> res5b_res5b_relu_0_split_1
I1012 20:26:28.485071 26891 net.cpp:124] Setting up res5b_res5b_relu_0_split
I1012 20:26:28.485078 26891 net.cpp:131] Top shape: 8 2048 12 16 (3145728)
I1012 20:26:28.485083 26891 net.cpp:131] Top shape: 8 2048 12 16 (3145728)
I1012 20:26:28.485086 26891 net.cpp:139] Memory required for data: 11091906336
I1012 20:26:28.485091 26891 layer_factory.hpp:77] Creating layer res5c_branch2a
I1012 20:26:28.485101 26891 net.cpp:86] Creating Layer res5c_branch2a
I1012 20:26:28.485106 26891 net.cpp:408] res5c_branch2a <- res5b_res5b_relu_0_split_0
I1012 20:26:28.485114 26891 net.cpp:382] res5c_branch2a -> res5c_branch2a
I1012 20:26:28.489547 26891 net.cpp:124] Setting up res5c_branch2a
I1012 20:26:28.489564 26891 net.cpp:131] Top shape: 8 512 12 16 (786432)
I1012 20:26:28.489568 26891 net.cpp:139] Memory required for data: 11095052064
I1012 20:26:28.489574 26891 layer_factory.hpp:77] Creating layer bn5c_branch2a
I1012 20:26:28.489583 26891 net.cpp:86] Creating Layer bn5c_branch2a
I1012 20:26:28.489588 26891 net.cpp:408] bn5c_branch2a <- res5c_branch2a
I1012 20:26:28.489595 26891 net.cpp:369] bn5c_branch2a -> res5c_branch2a (in-place)
I1012 20:26:28.489940 26891 net.cpp:124] Setting up bn5c_branch2a
I1012 20:26:28.489950 26891 net.cpp:131] Top shape: 8 512 12 16 (786432)
I1012 20:26:28.489954 26891 net.cpp:139] Memory required for data: 11098197792
I1012 20:26:28.489969 26891 layer_factory.hpp:77] Creating layer scale5c_branch2a
I1012 20:26:28.489979 26891 net.cpp:86] Creating Layer scale5c_branch2a
I1012 20:26:28.489984 26891 net.cpp:408] scale5c_branch2a <- res5c_branch2a
I1012 20:26:28.489990 26891 net.cpp:369] scale5c_branch2a -> res5c_branch2a (in-place)
I1012 20:26:28.490054 26891 layer_factory.hpp:77] Creating layer scale5c_branch2a
I1012 20:26:28.490253 26891 net.cpp:124] Setting up scale5c_branch2a
I1012 20:26:28.490284 26891 net.cpp:131] Top shape: 8 512 12 16 (786432)
I1012 20:26:28.490289 26891 net.cpp:139] Memory required for data: 11101343520
I1012 20:26:28.490295 26891 layer_factory.hpp:77] Creating layer res5c_branch2a_relu
I1012 20:26:28.490304 26891 net.cpp:86] Creating Layer res5c_branch2a_relu
I1012 20:26:28.490310 26891 net.cpp:408] res5c_branch2a_relu <- res5c_branch2a
I1012 20:26:28.490316 26891 net.cpp:369] res5c_branch2a_relu -> res5c_branch2a (in-place)
I1012 20:26:28.490588 26891 net.cpp:124] Setting up res5c_branch2a_relu
I1012 20:26:28.490600 26891 net.cpp:131] Top shape: 8 512 12 16 (786432)
I1012 20:26:28.490604 26891 net.cpp:139] Memory required for data: 11104489248
I1012 20:26:28.490608 26891 layer_factory.hpp:77] Creating layer res5c_branch2b
I1012 20:26:28.490618 26891 net.cpp:86] Creating Layer res5c_branch2b
I1012 20:26:28.490623 26891 net.cpp:408] res5c_branch2b <- res5c_branch2a
I1012 20:26:28.490630 26891 net.cpp:382] res5c_branch2b -> res5c_branch2b
I1012 20:26:28.497851 26891 net.cpp:124] Setting up res5c_branch2b
I1012 20:26:28.497876 26891 net.cpp:131] Top shape: 8 512 12 16 (786432)
I1012 20:26:28.497881 26891 net.cpp:139] Memory required for data: 11107634976
I1012 20:26:28.497898 26891 layer_factory.hpp:77] Creating layer bn5c_branch2b
I1012 20:26:28.497910 26891 net.cpp:86] Creating Layer bn5c_branch2b
I1012 20:26:28.497915 26891 net.cpp:408] bn5c_branch2b <- res5c_branch2b
I1012 20:26:28.497921 26891 net.cpp:369] bn5c_branch2b -> res5c_branch2b (in-place)
I1012 20:26:28.498293 26891 net.cpp:124] Setting up bn5c_branch2b
I1012 20:26:28.498303 26891 net.cpp:131] Top shape: 8 512 12 16 (786432)
I1012 20:26:28.498307 26891 net.cpp:139] Memory required for data: 11110780704
I1012 20:26:28.498314 26891 layer_factory.hpp:77] Creating layer scale5c_branch2b
I1012 20:26:28.498322 26891 net.cpp:86] Creating Layer scale5c_branch2b
I1012 20:26:28.498327 26891 net.cpp:408] scale5c_branch2b <- res5c_branch2b
I1012 20:26:28.498333 26891 net.cpp:369] scale5c_branch2b -> res5c_branch2b (in-place)
I1012 20:26:28.498401 26891 layer_factory.hpp:77] Creating layer scale5c_branch2b
I1012 20:26:28.498626 26891 net.cpp:124] Setting up scale5c_branch2b
I1012 20:26:28.498634 26891 net.cpp:131] Top shape: 8 512 12 16 (786432)
I1012 20:26:28.498637 26891 net.cpp:139] Memory required for data: 11113926432
I1012 20:26:28.498651 26891 layer_factory.hpp:77] Creating layer res5c_branch2b_relu
I1012 20:26:28.498657 26891 net.cpp:86] Creating Layer res5c_branch2b_relu
I1012 20:26:28.498662 26891 net.cpp:408] res5c_branch2b_relu <- res5c_branch2b
I1012 20:26:28.498669 26891 net.cpp:369] res5c_branch2b_relu -> res5c_branch2b (in-place)
I1012 20:26:28.498903 26891 net.cpp:124] Setting up res5c_branch2b_relu
I1012 20:26:28.498914 26891 net.cpp:131] Top shape: 8 512 12 16 (786432)
I1012 20:26:28.498919 26891 net.cpp:139] Memory required for data: 11117072160
I1012 20:26:28.498922 26891 layer_factory.hpp:77] Creating layer res5c_branch2c
I1012 20:26:28.498932 26891 net.cpp:86] Creating Layer res5c_branch2c
I1012 20:26:28.498937 26891 net.cpp:408] res5c_branch2c <- res5c_branch2b
I1012 20:26:28.498946 26891 net.cpp:382] res5c_branch2c -> res5c_branch2c
I1012 20:26:28.503350 26891 net.cpp:124] Setting up res5c_branch2c
I1012 20:26:28.503366 26891 net.cpp:131] Top shape: 8 2048 12 16 (3145728)
I1012 20:26:28.503371 26891 net.cpp:139] Memory required for data: 11129655072
I1012 20:26:28.503381 26891 layer_factory.hpp:77] Creating layer bn5c_branch2c
I1012 20:26:28.503391 26891 net.cpp:86] Creating Layer bn5c_branch2c
I1012 20:26:28.503396 26891 net.cpp:408] bn5c_branch2c <- res5c_branch2c
I1012 20:26:28.503406 26891 net.cpp:369] bn5c_branch2c -> res5c_branch2c (in-place)
I1012 20:26:28.503759 26891 net.cpp:124] Setting up bn5c_branch2c
I1012 20:26:28.503768 26891 net.cpp:131] Top shape: 8 2048 12 16 (3145728)
I1012 20:26:28.503772 26891 net.cpp:139] Memory required for data: 11142237984
I1012 20:26:28.503779 26891 layer_factory.hpp:77] Creating layer scale5c_branch2c
I1012 20:26:28.503788 26891 net.cpp:86] Creating Layer scale5c_branch2c
I1012 20:26:28.503793 26891 net.cpp:408] scale5c_branch2c <- res5c_branch2c
I1012 20:26:28.503798 26891 net.cpp:369] scale5c_branch2c -> res5c_branch2c (in-place)
I1012 20:26:28.503865 26891 layer_factory.hpp:77] Creating layer scale5c_branch2c
I1012 20:26:28.504065 26891 net.cpp:124] Setting up scale5c_branch2c
I1012 20:26:28.504073 26891 net.cpp:131] Top shape: 8 2048 12 16 (3145728)
I1012 20:26:28.504076 26891 net.cpp:139] Memory required for data: 11154820896
I1012 20:26:28.504083 26891 layer_factory.hpp:77] Creating layer res5c
I1012 20:26:28.504091 26891 net.cpp:86] Creating Layer res5c
I1012 20:26:28.504096 26891 net.cpp:408] res5c <- res5b_res5b_relu_0_split_1
I1012 20:26:28.504101 26891 net.cpp:408] res5c <- res5c_branch2c
I1012 20:26:28.504107 26891 net.cpp:382] res5c -> res5c
I1012 20:26:28.504149 26891 net.cpp:124] Setting up res5c
I1012 20:26:28.504156 26891 net.cpp:131] Top shape: 8 2048 12 16 (3145728)
I1012 20:26:28.504160 26891 net.cpp:139] Memory required for data: 11167403808
I1012 20:26:28.504164 26891 layer_factory.hpp:77] Creating layer res5c_relu
I1012 20:26:28.504179 26891 net.cpp:86] Creating Layer res5c_relu
I1012 20:26:28.504184 26891 net.cpp:408] res5c_relu <- res5c
I1012 20:26:28.504190 26891 net.cpp:369] res5c_relu -> res5c (in-place)
I1012 20:26:28.504943 26891 net.cpp:124] Setting up res5c_relu
I1012 20:26:28.504957 26891 net.cpp:131] Top shape: 8 2048 12 16 (3145728)
I1012 20:26:28.504961 26891 net.cpp:139] Memory required for data: 11179986720
I1012 20:26:28.504966 26891 layer_factory.hpp:77] Creating layer pooled_rois_branch_1
I1012 20:26:28.504974 26891 net.cpp:86] Creating Layer pooled_rois_branch_1
I1012 20:26:28.504981 26891 net.cpp:408] pooled_rois_branch_1 <- res4b22_res4b22_relu_0_split_2
I1012 20:26:28.504988 26891 net.cpp:408] pooled_rois_branch_1 <- rois_rois_0_split_0
I1012 20:26:28.504998 26891 net.cpp:382] pooled_rois_branch_1 -> pooled_rois_branch_1
I1012 20:26:28.505012 26891 roi_pooling_layer.cpp:30] Spatial scale: 0.0625
I1012 20:26:28.505126 26891 net.cpp:124] Setting up pooled_rois_branch_1
I1012 20:26:28.505138 26891 net.cpp:131] Top shape: 64 1024 1 1 (65536)
I1012 20:26:28.505142 26891 net.cpp:139] Memory required for data: 11180248864
I1012 20:26:28.505152 26891 layer_factory.hpp:77] Creating layer pooled_rois_branch_1/normalized
I1012 20:26:28.505159 26891 net.cpp:86] Creating Layer pooled_rois_branch_1/normalized
I1012 20:26:28.505164 26891 net.cpp:408] pooled_rois_branch_1/normalized <- pooled_rois_branch_1
I1012 20:26:28.505172 26891 net.cpp:382] pooled_rois_branch_1/normalized -> pooled_rois_branch_1/normalized
I1012 20:26:28.505261 26891 net.cpp:124] Setting up pooled_rois_branch_1/normalized
I1012 20:26:28.505268 26891 net.cpp:131] Top shape: 64 1024 1 1 (65536)
I1012 20:26:28.505272 26891 net.cpp:139] Memory required for data: 11180511008
I1012 20:26:28.505275 26891 layer_factory.hpp:77] Creating layer pooled_rois_branch_1/normalized_flat
I1012 20:26:28.505286 26891 net.cpp:86] Creating Layer pooled_rois_branch_1/normalized_flat
I1012 20:26:28.505290 26891 net.cpp:408] pooled_rois_branch_1/normalized_flat <- pooled_rois_branch_1/normalized
I1012 20:26:28.505298 26891 net.cpp:382] pooled_rois_branch_1/normalized_flat -> pooled_rois_branch_1/normalized_flat
I1012 20:26:28.505347 26891 net.cpp:124] Setting up pooled_rois_branch_1/normalized_flat
I1012 20:26:28.505354 26891 net.cpp:131] Top shape: 64 1024 1 1 (65536)
I1012 20:26:28.505363 26891 net.cpp:139] Memory required for data: 11180773152
I1012 20:26:28.505367 26891 layer_factory.hpp:77] Creating layer pooled_rois_branch_1/centered
I1012 20:26:28.505376 26891 net.cpp:86] Creating Layer pooled_rois_branch_1/centered
I1012 20:26:28.505383 26891 net.cpp:408] pooled_rois_branch_1/centered <- pooled_rois_branch_1/normalized_flat
I1012 20:26:28.505390 26891 net.cpp:382] pooled_rois_branch_1/centered -> pooled_rois_branch_1/centered
I1012 20:26:28.505457 26891 layer_factory.hpp:77] Creating layer pooled_rois_branch_1/centered
I1012 20:26:28.505651 26891 net.cpp:124] Setting up pooled_rois_branch_1/centered
I1012 20:26:28.505661 26891 net.cpp:131] Top shape: 64 1024 1 1 (65536)
I1012 20:26:28.505663 26891 net.cpp:139] Memory required for data: 11181035296
I1012 20:26:28.505671 26891 layer_factory.hpp:77] Creating layer pooled_rois_branch_1/pca
I1012 20:26:28.505686 26891 net.cpp:86] Creating Layer pooled_rois_branch_1/pca
I1012 20:26:28.505692 26891 net.cpp:408] pooled_rois_branch_1/pca <- pooled_rois_branch_1/centered
I1012 20:26:28.505698 26891 net.cpp:382] pooled_rois_branch_1/pca -> pooled_rois_branch_1/pca
I1012 20:26:28.513257 26891 net.cpp:124] Setting up pooled_rois_branch_1/pca
I1012 20:26:28.513272 26891 net.cpp:131] Top shape: 64 1024 (65536)
I1012 20:26:28.513275 26891 net.cpp:139] Memory required for data: 11181297440
I1012 20:26:28.513283 26891 layer_factory.hpp:77] Creating layer pooled_rois_branch_1/pca/reshaped
I1012 20:26:28.513289 26891 net.cpp:86] Creating Layer pooled_rois_branch_1/pca/reshaped
I1012 20:26:28.513294 26891 net.cpp:408] pooled_rois_branch_1/pca/reshaped <- pooled_rois_branch_1/pca
I1012 20:26:28.513312 26891 net.cpp:382] pooled_rois_branch_1/pca/reshaped -> pooled_rois_branch_1/pca/reshaped
I1012 20:26:28.513361 26891 net.cpp:124] Setting up pooled_rois_branch_1/pca/reshaped
I1012 20:26:28.513370 26891 net.cpp:131] Top shape: 64 1024 1 1 (65536)
I1012 20:26:28.513373 26891 net.cpp:139] Memory required for data: 11181559584
I1012 20:26:28.513377 26891 layer_factory.hpp:77] Creating layer pooled_rois_branch_1/pca/normalized
I1012 20:26:28.513383 26891 net.cpp:86] Creating Layer pooled_rois_branch_1/pca/normalized
I1012 20:26:28.513387 26891 net.cpp:408] pooled_rois_branch_1/pca/normalized <- pooled_rois_branch_1/pca/reshaped
I1012 20:26:28.513396 26891 net.cpp:382] pooled_rois_branch_1/pca/normalized -> pooled_rois_branch_1/pca/normalized
I1012 20:26:28.513484 26891 net.cpp:124] Setting up pooled_rois_branch_1/pca/normalized
I1012 20:26:28.513491 26891 net.cpp:131] Top shape: 64 1024 1 1 (65536)
I1012 20:26:28.513494 26891 net.cpp:139] Memory required for data: 11181821728
I1012 20:26:28.513499 26891 layer_factory.hpp:77] Creating layer rmac_branch_1
I1012 20:26:28.513789 26891 net.cpp:86] Creating Layer rmac_branch_1
I1012 20:26:28.513798 26891 net.cpp:408] rmac_branch_1 <- pooled_rois_branch_1/pca/normalized
I1012 20:26:28.513805 26891 net.cpp:382] rmac_branch_1 -> rmac_branch_1
I1012 20:26:28.514988 26891 net.cpp:124] Setting up rmac_branch_1
I1012 20:26:28.515004 26891 net.cpp:131] Top shape: 8 1024 1 1 (8192)
I1012 20:26:28.515008 26891 net.cpp:139] Memory required for data: 11181854496
I1012 20:26:28.515013 26891 layer_factory.hpp:77] Creating layer rmac_branch_1/normalized
I1012 20:26:28.515019 26891 net.cpp:86] Creating Layer rmac_branch_1/normalized
I1012 20:26:28.515025 26891 net.cpp:408] rmac_branch_1/normalized <- rmac_branch_1
I1012 20:26:28.515031 26891 net.cpp:382] rmac_branch_1/normalized -> rmac_branch_1/normalized
I1012 20:26:28.515120 26891 net.cpp:124] Setting up rmac_branch_1/normalized
I1012 20:26:28.515130 26891 net.cpp:131] Top shape: 8 1024 1 1 (8192)
I1012 20:26:28.515134 26891 net.cpp:139] Memory required for data: 11181887264
I1012 20:26:28.515138 26891 layer_factory.hpp:77] Creating layer pooled_rois
I1012 20:26:28.515144 26891 net.cpp:86] Creating Layer pooled_rois
I1012 20:26:28.515148 26891 net.cpp:408] pooled_rois <- res5c
I1012 20:26:28.515154 26891 net.cpp:408] pooled_rois <- rois_rois_0_split_1
I1012 20:26:28.515166 26891 net.cpp:382] pooled_rois -> pooled_rois
I1012 20:26:28.515173 26891 roi_pooling_layer.cpp:30] Spatial scale: 0.03125
I1012 20:26:28.515239 26891 net.cpp:124] Setting up pooled_rois
I1012 20:26:28.515247 26891 net.cpp:131] Top shape: 64 2048 1 1 (131072)
I1012 20:26:28.515251 26891 net.cpp:139] Memory required for data: 11182411552
I1012 20:26:28.515255 26891 layer_factory.hpp:77] Creating layer pooled_rois/normalized
I1012 20:26:28.515260 26891 net.cpp:86] Creating Layer pooled_rois/normalized
I1012 20:26:28.515265 26891 net.cpp:408] pooled_rois/normalized <- pooled_rois
I1012 20:26:28.515271 26891 net.cpp:382] pooled_rois/normalized -> pooled_rois/normalized
I1012 20:26:28.515353 26891 net.cpp:124] Setting up pooled_rois/normalized
I1012 20:26:28.515360 26891 net.cpp:131] Top shape: 64 2048 1 1 (131072)
I1012 20:26:28.515364 26891 net.cpp:139] Memory required for data: 11182935840
I1012 20:26:28.515374 26891 layer_factory.hpp:77] Creating layer pooled_rois/normalized_flat
I1012 20:26:28.515381 26891 net.cpp:86] Creating Layer pooled_rois/normalized_flat
I1012 20:26:28.515385 26891 net.cpp:408] pooled_rois/normalized_flat <- pooled_rois/normalized
I1012 20:26:28.515393 26891 net.cpp:382] pooled_rois/normalized_flat -> pooled_rois/normalized_flat
I1012 20:26:28.515436 26891 net.cpp:124] Setting up pooled_rois/normalized_flat
I1012 20:26:28.515444 26891 net.cpp:131] Top shape: 64 2048 1 1 (131072)
I1012 20:26:28.515449 26891 net.cpp:139] Memory required for data: 11183460128
I1012 20:26:28.515452 26891 layer_factory.hpp:77] Creating layer pooled_rois/centered
I1012 20:26:28.515458 26891 net.cpp:86] Creating Layer pooled_rois/centered
I1012 20:26:28.515463 26891 net.cpp:408] pooled_rois/centered <- pooled_rois/normalized_flat
I1012 20:26:28.515477 26891 net.cpp:382] pooled_rois/centered -> pooled_rois/centered
I1012 20:26:28.515548 26891 layer_factory.hpp:77] Creating layer pooled_rois/centered
I1012 20:26:28.515745 26891 net.cpp:124] Setting up pooled_rois/centered
I1012 20:26:28.515753 26891 net.cpp:131] Top shape: 64 2048 1 1 (131072)
I1012 20:26:28.515756 26891 net.cpp:139] Memory required for data: 11183984416
I1012 20:26:28.515763 26891 layer_factory.hpp:77] Creating layer pooled_rois/pca
I1012 20:26:28.515770 26891 net.cpp:86] Creating Layer pooled_rois/pca
I1012 20:26:28.515775 26891 net.cpp:408] pooled_rois/pca <- pooled_rois/centered
I1012 20:26:28.515784 26891 net.cpp:382] pooled_rois/pca -> pooled_rois/pca
I1012 20:26:28.544023 26891 net.cpp:124] Setting up pooled_rois/pca
I1012 20:26:28.544046 26891 net.cpp:131] Top shape: 64 2048 (131072)
I1012 20:26:28.544050 26891 net.cpp:139] Memory required for data: 11184508704
I1012 20:26:28.544066 26891 layer_factory.hpp:77] Creating layer pooled_rois/pca/reshaped
I1012 20:26:28.544077 26891 net.cpp:86] Creating Layer pooled_rois/pca/reshaped
I1012 20:26:28.544082 26891 net.cpp:408] pooled_rois/pca/reshaped <- pooled_rois/pca
I1012 20:26:28.544092 26891 net.cpp:382] pooled_rois/pca/reshaped -> pooled_rois/pca/reshaped
I1012 20:26:28.544142 26891 net.cpp:124] Setting up pooled_rois/pca/reshaped
I1012 20:26:28.544149 26891 net.cpp:131] Top shape: 64 2048 1 1 (131072)
I1012 20:26:28.544153 26891 net.cpp:139] Memory required for data: 11185032992
I1012 20:26:28.544157 26891 layer_factory.hpp:77] Creating layer pooled_rois/pca/normalized
I1012 20:26:28.544162 26891 net.cpp:86] Creating Layer pooled_rois/pca/normalized
I1012 20:26:28.544167 26891 net.cpp:408] pooled_rois/pca/normalized <- pooled_rois/pca/reshaped
I1012 20:26:28.544178 26891 net.cpp:382] pooled_rois/pca/normalized -> pooled_rois/pca/normalized
I1012 20:26:28.544266 26891 net.cpp:124] Setting up pooled_rois/pca/normalized
I1012 20:26:28.544275 26891 net.cpp:131] Top shape: 64 2048 1 1 (131072)
I1012 20:26:28.544278 26891 net.cpp:139] Memory required for data: 11185557280
I1012 20:26:28.544281 26891 layer_factory.hpp:77] Creating layer rmac
I1012 20:26:28.544313 26891 net.cpp:86] Creating Layer rmac
I1012 20:26:28.544320 26891 net.cpp:408] rmac <- pooled_rois/pca/normalized
I1012 20:26:28.544334 26891 net.cpp:382] rmac -> rmac
I1012 20:26:28.544818 26891 net.cpp:124] Setting up rmac
I1012 20:26:28.544832 26891 net.cpp:131] Top shape: 8 2048 1 1 (16384)
I1012 20:26:28.544836 26891 net.cpp:139] Memory required for data: 11185622816
I1012 20:26:28.544840 26891 layer_factory.hpp:77] Creating layer rmac/normalized
I1012 20:26:28.544849 26891 net.cpp:86] Creating Layer rmac/normalized
I1012 20:26:28.544854 26891 net.cpp:408] rmac/normalized <- rmac
I1012 20:26:28.544862 26891 net.cpp:382] rmac/normalized -> rmac/normalized
I1012 20:26:28.544950 26891 net.cpp:124] Setting up rmac/normalized
I1012 20:26:28.544957 26891 net.cpp:131] Top shape: 8 2048 1 1 (16384)
I1012 20:26:28.544961 26891 net.cpp:139] Memory required for data: 11185688352
I1012 20:26:28.544972 26891 layer_factory.hpp:77] Creating layer rmac/concat
I1012 20:26:28.544982 26891 net.cpp:86] Creating Layer rmac/concat
I1012 20:26:28.544987 26891 net.cpp:408] rmac/concat <- rmac_branch_1/normalized
I1012 20:26:28.544992 26891 net.cpp:408] rmac/concat <- rmac/normalized
I1012 20:26:28.544998 26891 net.cpp:382] rmac/concat -> rmac/concat
I1012 20:26:28.545043 26891 net.cpp:124] Setting up rmac/concat
I1012 20:26:28.545050 26891 net.cpp:131] Top shape: 8 3072 1 1 (24576)
I1012 20:26:28.545054 26891 net.cpp:139] Memory required for data: 11185786656
I1012 20:26:28.545058 26891 layer_factory.hpp:77] Creating layer rmac/centered
I1012 20:26:28.545068 26891 net.cpp:86] Creating Layer rmac/centered
I1012 20:26:28.545073 26891 net.cpp:408] rmac/centered <- rmac/concat
I1012 20:26:28.545078 26891 net.cpp:382] rmac/centered -> rmac/centered
I1012 20:26:28.545150 26891 layer_factory.hpp:77] Creating layer rmac/centered
I1012 20:26:28.545357 26891 net.cpp:124] Setting up rmac/centered
I1012 20:26:28.545367 26891 net.cpp:131] Top shape: 8 3072 1 1 (24576)
I1012 20:26:28.545369 26891 net.cpp:139] Memory required for data: 11185884960
I1012 20:26:28.545377 26891 layer_factory.hpp:77] Creating layer rmac/pca
I1012 20:26:28.545387 26891 net.cpp:86] Creating Layer rmac/pca
I1012 20:26:28.545392 26891 net.cpp:408] rmac/pca <- rmac/centered
I1012 20:26:28.545397 26891 net.cpp:382] rmac/pca -> rmac/pca
I1012 20:26:28.588145 26891 net.cpp:124] Setting up rmac/pca
I1012 20:26:28.588176 26891 net.cpp:131] Top shape: 8 2048 (16384)
I1012 20:26:28.588179 26891 net.cpp:139] Memory required for data: 11185950496
I1012 20:26:28.588193 26891 layer_factory.hpp:77] Creating layer rmac/pca/reshaped
I1012 20:26:28.588204 26891 net.cpp:86] Creating Layer rmac/pca/reshaped
I1012 20:26:28.588212 26891 net.cpp:408] rmac/pca/reshaped <- rmac/pca
I1012 20:26:28.588223 26891 net.cpp:382] rmac/pca/reshaped -> rmac/pca/reshaped
I1012 20:26:28.588280 26891 net.cpp:124] Setting up rmac/pca/reshaped
I1012 20:26:28.588289 26891 net.cpp:131] Top shape: 8 2048 1 1 (16384)
I1012 20:26:28.588294 26891 net.cpp:139] Memory required for data: 11186016032
I1012 20:26:28.588297 26891 layer_factory.hpp:77] Creating layer rmac/pca/normalized
I1012 20:26:28.588304 26891 net.cpp:86] Creating Layer rmac/pca/normalized
I1012 20:26:28.588308 26891 net.cpp:408] rmac/pca/normalized <- rmac/pca/reshaped
I1012 20:26:28.588316 26891 net.cpp:382] rmac/pca/normalized -> rmac/pca/normalized
I1012 20:26:28.588409 26891 net.cpp:124] Setting up rmac/pca/normalized
I1012 20:26:28.588416 26891 net.cpp:131] Top shape: 8 2048 1 1 (16384)
I1012 20:26:28.588420 26891 net.cpp:139] Memory required for data: 11186081568
I1012 20:26:28.588424 26891 layer_factory.hpp:77] Creating layer loss
I1012 20:26:28.588430 26891 net.cpp:86] Creating Layer loss
I1012 20:26:28.588435 26891 net.cpp:408] loss <- features
I1012 20:26:28.588440 26891 net.cpp:408] loss <- rmac/pca/normalized
I1012 20:26:28.588449 26891 net.cpp:382] loss -> loss
…
