…
I1013 17:05:30.648609  8042 net.cpp:296] The NetState phase (0) differed from the phase (1) specified by a rule in layer features
I1013 17:05:30.651008  8042 net.cpp:53] Initializing net from parameters: 
name: "ResNet-101"
state {
  phase: TRAIN
  level: 0
  stage: ""
}
layer {
  name: "data"
  type: "Data"
  top: "data"
  top: "label"
  include {
    phase: TRAIN
  }
  transform_param {
    mirror: true
    mean_value: 103.939
    mean_value: 116.779
    mean_value: 123.68
  }
  data_param {
    source: "/home/processyuan/data/Paris/aug/paris_aug_lmdb"
    batch_size: 4
    backend: LMDB
  }
}
layer {
  name: "features"
  type: "Python"
  bottom: "label"
  top: "features"
  include {
    phase: TRAIN
  }
  python_param {
    module: "custom_layers"
    layer: "FeatureLayer"
    param_str: "{\'features\': \'/home/processyuan/data/Paris/aug/features.npy\'}"
  }
}
layer {
  name: "rois"
  type: "Python"
  bottom: "data"
  top: "rois"
  python_param {
    module: "custom_layers"
    layer: "RigidGridLayer"
    param_str: "{\'dataset\': \'paris\'}"
  }
}
layer {
  name: "conv1"
  type: "Convolution"
  bottom: "data"
  top: "conv1"
  param {
    lr_mult: 0
    decay_mult: 0
  }
  convolution_param {
    num_output: 64
    bias_term: false
    pad: 3
    kernel_size: 7
    stride: 2
  }
}
layer {
  name: "bn_conv1"
  type: "BatchNorm"
  bottom: "conv1"
  top: "conv1"
  param {
    lr_mult: 0
    decay_mult: 0
  }
  param {
    lr_mult: 0
    decay_mult: 0
  }
  param {
    lr_mult: 0
    decay_mult: 0
  }
  batch_norm_param {
    use_global_stats: true
  }
}
layer {
  name: "scale_conv1"
  type: "Scale"
  bottom: "conv1"
  top: "conv1"
  param {
    lr_mult: 0
    decay_mult: 0
  }
  param {
    lr_mult: 0
    decay_mult: 0
  }
  scale_param {
    bias_term: true
  }
}
layer {
  name: "conv1_relu"
  type: "ReLU"
  bottom: "conv1"
  top: "conv1"
}
layer {
  name: "pool1"
  type: "Pooling"
  bottom: "conv1"
  top: "pool1"
  pooling_param {
    pool: MAX
    kernel_size: 3
    stride: 2
  }
}
layer {
  name: "res2a_branch1"
  type: "Convolution"
  bottom: "pool1"
  top: "res2a_branch1"
  param {
    lr_mult: 0
    decay_mult: 0
  }
  convolution_param {
    num_output: 256
    bias_term: false
    pad: 0
    kernel_size: 1
    stride: 1
  }
}
layer {
  name: "bn2a_branch1"
  type: "BatchNorm"
  bottom: "res2a_branch1"
  top: "res2a_branch1"
  param {
    lr_mult: 0
    decay_mult: 0
  }
  param {
    lr_mult: 0
    decay_mult: 0
  }
  param {
    lr_mult: 0
    decay_mult: 0
  }
  batch_norm_param {
    use_global_stats: true
  }
}
layer {
  name: "scale2a_branch1"
  type: "Scale"
  bottom: "res2a_branch1"
  top: "res2a_branch1"
  param {
    lr_mult: 0
    decay_mult: 0
  }
  param {
    lr_mult: 0
    decay_mult: 0
  }
  scale_param {
    bias_term: true
  }
}
layer {
  name: "res2a_branch2a"
  type: "Convolution"
  bottom: "pool1"
  top: "res2a_branch2a"
  param {
    lr_mult: 0
    decay_mult: 0
  }
  convolution_param {
    num_output: 64
    bias_term: false
    pad: 0
    kernel_size: 1
    stride: 1
  }
}
layer {
  name: "bn2a_branch2a"
  type: "BatchNorm"
  bottom: "res2a_branch2a"
  top: "res2a_branch2a"
  param {
    lr_mult: 0
    decay_mult: 0
  }
  param {
    lr_mult: 0
    decay_mult: 0
  }
  param {
    lr_mult: 0
    decay_mult: 0
  }
  batch_norm_param {
    use_global_stats: true
  }
}
layer {
  name: "scale2a_branch2a"
  type: "Scale"
  bottom: "res2a_branch2a"
  top: "res2a_branch2a"
  param {
    lr_mult: 0
    decay_mult: 0
  }
  param {
    lr_mult: 0
    decay_mult: 0
  }
  scale_param {
    bias_term: true
  }
}
layer {
  name: "res2a_branch2a_relu"
  type: "ReLU"
  bottom: "res2a_branch2a"
  top: "res2a_branch2a"
}
layer {
  name: "res2a_branch2b"
  type: "Convolution"
  bottom: "res2a_branch2a"
  top: "res2a_branch2b"
  param {
    lr_mult: 0
    decay_mult: 0
  }
  convolution_param {
    num_output: 64
    bias_term: false
    pad: 1
    kernel_size: 3
    stride: 1
  }
}
layer {
  name: "bn2a_branch2b"
  type: "BatchNorm"
  bottom: "res2a_branch2b"
  top: "res2a_branch2b"
  param {
    lr_mult: 0
    decay_mult: 0
  }
  param {
    lr_mult: 0
    decay_mult: 0
  }
  param {
    lr_mult: 0
    decay_mult: 0
  }
  batch_norm_param {
    use_global_stats: true
  }
}
layer {
  name: "scale2a_branch2b"
  type: "Scale"
  bottom: "res2a_branch2b"
  top: "res2a_branch2b"
  param {
    lr_mult: 0
    decay_mult: 0
  }
  param {
    lr_mult: 0
    decay_mult: 0
  }
  scale_param {
    bias_term: true
  }
}
layer {
  name: "res2a_branch2b_relu"
  type: "ReLU"
  bottom: "res2a_branch2b"
  top: "res2a_branch2b"
}
layer {
  name: "res2a_branch2c"
  type: "Convolution"
  bottom: "res2a_branch2b"
  top: "res2a_branch2c"
  param {
    lr_mult: 0
    decay_mult: 0
  }
  convolution_param {
    num_output: 256
    bias_term: false
    pad: 0
    kernel_size: 1
    stride: 1
  }
}
layer {
  name: "bn2a_branch2c"
  type: "BatchNorm"
  bottom: "res2a_branch2c"
  top: "res2a_branch2c"
  param {
    lr_mult: 0
    decay_mult: 0
  }
  param {
    lr_mult: 0
    decay_mult: 0
  }
  param {
    lr_mult: 0
    decay_mult: 0
  }
  batch_norm_param {
    use_global_stats: true
  }
}
layer {
  name: "scale2a_branch2c"
  type: "Scale"
  bottom: "res2a_branch2c"
  top: "res2a_branch2c"
  param {
    lr_mult: 0
    decay_mult: 0
  }
  param {
    lr_mult: 0
    decay_mult: 0
  }
  scale_param {
    bias_term: true
  }
}
layer {
  name: "res2a"
  type: "Eltwise"
  bottom: "res2a_branch1"
  bottom: "res2a_branch2c"
  top: "res2a"
}
layer {
  name: "res2a_relu"
  type: "ReLU"
  bottom: "res2a"
  top: "res2a"
}
layer {
  name: "res2b_branch2a"
  type: "Convolution"
  bottom: "res2a"
  top: "res2b_branch2a"
  param {
    lr_mult: 0
    decay_mult: 0
  }
  convolution_param {
    num_output: 64
    bias_term: false
    pad: 0
    kernel_size: 1
    stride: 1
  }
}
layer {
  name: "bn2b_branch2a"
  type: "BatchNorm"
  bottom: "res2b_branch2a"
  top: "res2b_branch2a"
  param {
    lr_mult: 0
    decay_mult: 0
  }
  param {
    lr_mult: 0
    decay_mult: 0
  }
  param {
    lr_mult: 0
    decay_mult: 0
  }
  batch_norm_param {
    use_global_stats: true
  }
}
layer {
  name: "scale2b_branch2a"
  type: "Scale"
  bottom: "res2b_branch2a"
  top: "res2b_branch2a"
  param {
    lr_mult: 0
    decay_mult: 0
  }
  param {
    lr_mult: 0
    decay_mult: 0
  }
  scale_param {
    bias_term: true
  }
}
layer {
  name: "res2b_branch2a_relu"
  type: "ReLU"
  bottom: "res2b_branch2a"
  top: "res2b_branch2a"
}
layer {
  name: "res2b_branch2b"
  type: "Convolution"
  bottom: "res2b_branch2a"
  top: "res2b_branch2b"
  param {
    lr_mult: 0
    decay_mult: 0
  }
  convolution_param {
    num_output: 64
    bias_term: false
    pad: 1
    kernel_size: 3
    stride: 1
  }
}
layer {
  name: "bn2b_branch2b"
  type: "BatchNorm"
  bottom: "res2b_branch2b"
  top: "res2b_branch2b"
  param {
    lr_mult: 0
    decay_mult: 0
  }
  param {
    lr_mult: 0
    decay_mult: 0
  }
  param {
    lr_mult: 0
    decay_mult: 0
  }
  batch_norm_param {
    use_global_stats: true
  }
}
layer {
  name: "scale2b_branch2b"
  type: "Scale"
  bottom: "res2b_branch2b"
  top: "res2b_branch2b"
  param {
    lr_mult: 0
    decay_mult: 0
  }
  param {
    lr_mult: 0
    decay_mult: 0
  }
  scale_param {
    bias_term: true
  }
}
layer {
  name: "res2b_branch2b_relu"
  type: "ReLU"
  bottom: "res2b_branch2b"
  top: "res2b_branch2b"
}
layer {
  name: "res2b_branch2c"
  type: "Convolution"
  bottom: "res2b_branch2b"
  top: "res2b_branch2c"
  param {
    lr_mult: 0
    decay_mult: 0
  }
  convolution_param {
    num_output: 256
    bias_term: false
    pad: 0
    kernel_size: 1
    stride: 1
  }
}
layer {
  name: "bn2b_branch2c"
  type: "BatchNorm"
  bottom: "res2b_branch2c"
  top: "res2b_branch2c"
  param {
    lr_mult: 0
    decay_mult: 0
  }
  param {
    lr_mult: 0
    decay_mult: 0
  }
  param {
    lr_mult: 0
    decay_mult: 0
  }
  batch_norm_param {
    use_global_stats: true
  }
}
layer {
  name: "scale2b_branch2c"
  type: "Scale"
  bottom: "res2b_branch2c"
  top: "res2b_branch2c"
  param {
    lr_mult: 0
    decay_mult: 0
  }
  param {
    lr_mult: 0
    decay_mult: 0
  }
  scale_param {
    bias_term: true
  }
}
layer {
  name: "res2b"
  type: "Eltwise"
  bottom: "res2a"
  bottom: "res2b_branch2c"
  top: "res2b"
}
layer {
  name: "res2b_relu"
  type: "ReLU"
  bottom: "res2b"
  top: "res2b"
}
layer {
  name: "res2c_branch2a"
  type: "Convolution"
  bottom: "res2b"
  top: "res2c_branch2a"
  param {
    lr_mult: 0
    decay_mult: 0
  }
  convolution_param {
    num_output: 64
    bias_term: false
    pad: 0
    kernel_size: 1
    stride: 1
  }
}
layer {
  name: "bn2c_branch2a"
  type: "BatchNorm"
  bottom: "res2c_branch2a"
  top: "res2c_branch2a"
  param {
    lr_mult: 0
    decay_mult: 0
  }
  param {
    lr_mult: 0
    decay_mult: 0
  }
  param {
    lr_mult: 0
    decay_mult: 0
  }
  batch_norm_param {
    use_global_stats: true
  }
}
layer {
  name: "scale2c_branch2a"
  type: "Scale"
  bottom: "res2c_branch2a"
  top: "res2c_branch2a"
  param {
    lr_mult: 0
    decay_mult: 0
  }
  param {
    lr_mult: 0
    decay_mult: 0
  }
  scale_param {
    bias_term: true
  }
}
layer {
  name: "res2c_branch2a_relu"
  type: "ReLU"
  bottom: "res2c_branch2a"
  top: "res2c_branch2a"
}
layer {
  name: "res2c_branch2b"
  type: "Convolution"
  bottom: "res2c_branch2a"
  top: "res2c_branch2b"
  param {
    lr_mult: 0
    decay_mult: 0
  }
  convolution_param {
    num_output: 64
    bias_term: false
    pad: 1
    kernel_size: 3
    stride: 1
  }
}
layer {
  name: "bn2c_branch2b"
  type: "BatchNorm"
  bottom: "res2c_branch2b"
  top: "res2c_branch2b"
  param {
    lr_mult: 0
    decay_mult: 0
  }
  param {
    lr_mult: 0
    decay_mult: 0
  }
  param {
    lr_mult: 0
    decay_mult: 0
  }
  batch_norm_param {
    use_global_stats: true
  }
}
layer {
  name: "scale2c_branch2b"
  type: "Scale"
  bottom: "res2c_branch2b"
  top: "res2c_branch2b"
  param {
    lr_mult: 0
    decay_mult: 0
  }
  param {
    lr_mult: 0
    decay_mult: 0
  }
  scale_param {
    bias_term: true
  }
}
layer {
  name: "res2c_branch2b_relu"
  type: "ReLU"
  bottom: "res2c_branch2b"
  top: "res2c_branch2b"
}
layer {
  name: "res2c_branch2c"
  type: "Convolution"
  bottom: "res2c_branch2b"
  top: "res2c_branch2c"
  param {
    lr_mult: 0
    decay_mult: 0
  }
  convolution_param {
    num_output: 256
    bias_term: false
    pad: 0
    kernel_size: 1
    stride: 1
  }
}
layer {
  name: "bn2c_branch2c"
  type: "BatchNorm"
  bottom: "res2c_branch2c"
  top: "res2c_branch2c"
  param {
    lr_mult: 0
    decay_mult: 0
  }
  param {
    lr_mult: 0
    decay_mult: 0
  }
  param {
    lr_mult: 0
    decay_mult: 0
  }
  batch_norm_param {
    use_global_stats: true
  }
}
layer {
  name: "scale2c_branch2c"
  type: "Scale"
  bottom: "res2c_branch2c"
  top: "res2c_branch2c"
  param {
    lr_mult: 0
    decay_mult: 0
  }
  param {
    lr_mult: 0
    decay_mult: 0
  }
  scale_param {
    bias_term: true
  }
}
layer {
  name: "res2c"
  type: "Eltwise"
  bottom: "res2b"
  bottom: "res2c_branch2c"
  top: "res2c"
}
layer {
  name: "res2c_relu"
  type: "ReLU"
  bottom: "res2c"
  top: "res2c"
}
layer {
  name: "res3a_branch1"
  type: "Convolution"
  bottom: "res2c"
  top: "res3a_branch1"
  param {
    lr_mult: 0
    decay_mult: 0
  }
  convolution_param {
    num_output: 512
    bias_term: false
    pad: 0
    kernel_size: 1
    stride: 2
  }
}
layer {
  name: "bn3a_branch1"
  type: "BatchNorm"
  bottom: "res3a_branch1"
  top: "res3a_branch1"
  param {
    lr_mult: 0
    decay_mult: 0
  }
  param {
    lr_mult: 0
    decay_mult: 0
  }
  param {
    lr_mult: 0
    decay_mult: 0
  }
  batch_norm_param {
    use_global_stats: true
  }
}
layer {
  name: "scale3a_branch1"
  type: "Scale"
  bottom: "res3a_branch1"
  top: "res3a_branch1"
  param {
    lr_mult: 0
    decay_mult: 0
  }
  param {
    lr_mult: 0
    decay_mult: 0
  }
  scale_param {
    bias_term: true
  }
}
layer {
  name: "res3a_branch2a"
  type: "Convolution"
  bottom: "res2c"
  top: "res3a_branch2a"
  param {
    lr_mult: 0
    decay_mult: 0
  }
  convolution_param {
    num_output: 128
    bias_term: false
    pad: 0
    kernel_size: 1
    stride: 2
  }
}
layer {
  name: "bn3a_branch2a"
  type: "BatchNorm"
  bottom: "res3a_branch2a"
  top: "res3a_branch2a"
  param {
    lr_mult: 0
    decay_mult: 0
  }
  param {
    lr_mult: 0
    decay_mult: 0
  }
  param {
    lr_mult: 0
    decay_mult: 0
  }
  batch_norm_param {
    use_global_stats: true
  }
}
layer {
  name: "scale3a_branch2a"
  type: "Scale"
  bottom: "res3a_branch2a"
  top: "res3a_branch2a"
  param {
    lr_mult: 0
    decay_mult: 0
  }
  param {
    lr_mult: 0
    decay_mult: 0
  }
  scale_param {
    bias_term: true
  }
}
layer {
  name: "res3a_branch2a_relu"
  type: "ReLU"
  bottom: "res3a_branch2a"
  top: "res3a_branch2a"
}
layer {
  name: "res3a_branch2b"
  type: "Convolution"
  bottom: "res3a_branch2a"
  top: "res3a_branch2b"
  param {
    lr_mult: 0
    decay_mult: 0
  }
  convolution_param {
    num_output: 128
    bias_term: false
    pad: 1
    kernel_size: 3
    stride: 1
  }
}
layer {
  name: "bn3a_branch2b"
  type: "BatchNorm"
  bottom: "res3a_branch2b"
  top: "res3a_branch2b"
  param {
    lr_mult: 0
    decay_mult: 0
  }
  param {
    lr_mult: 0
    decay_mult: 0
  }
  param {
    lr_mult: 0
    decay_mult: 0
  }
  batch_norm_param {
    use_global_stats: true
  }
}
layer {
  name: "scale3a_branch2b"
  type: "Scale"
  bottom: "res3a_branch2b"
  top: "res3a_branch2b"
  param {
    lr_mult: 0
    decay_mult: 0
  }
  param {
    lr_mult: 0
    decay_mult: 0
  }
  scale_param {
    bias_term: true
  }
}
layer {
  name: "res3a_branch2b_relu"
  type: "ReLU"
  bottom: "res3a_branch2b"
  top: "res3a_branch2b"
}
layer {
  name: "res3a_branch2c"
  type: "Convolution"
  bottom: "res3a_branch2b"
  top: "res3a_branch2c"
  param {
    lr_mult: 0
    decay_mult: 0
  }
  convolution_param {
    num_output: 512
    bias_term: false
    pad: 0
    kernel_size: 1
    stride: 1
  }
}
layer {
  name: "bn3a_branch2c"
  type: "BatchNorm"
  bottom: "res3a_branch2c"
  top: "res3a_branch2c"
  param {
    lr_mult: 0
    decay_mult: 0
  }
  param {
    lr_mult: 0
    decay_mult: 0
  }
  param {
    lr_mult: 0
    decay_mult: 0
  }
  batch_norm_param {
    use_global_stats: true
  }
}
layer {
  name: "scale3a_branch2c"
  type: "Scale"
  bottom: "res3a_branch2c"
  top: "res3a_branch2c"
  param {
    lr_mult: 0
    decay_mult: 0
  }
  param {
    lr_mult: 0
    decay_mult: 0
  }
  scale_param {
    bias_term: true
  }
}
layer {
  name: "res3a"
  type: "Eltwise"
  bottom: "res3a_branch1"
  bottom: "res3a_branch2c"
  top: "res3a"
}
layer {
  name: "res3a_relu"
  type: "ReLU"
  bottom: "res3a"
  top: "res3a"
}
layer {
  name: "res3b1_branch2a"
  type: "Convolution"
  bottom: "res3a"
  top: "res3b1_branch2a"
  param {
    lr_mult: 0
    decay_mult: 0
  }
  convolution_param {
    num_output: 128
    bias_term: false
    pad: 0
    kernel_size: 1
    stride: 1
  }
}
layer {
  name: "bn3b1_branch2a"
  type: "BatchNorm"
  bottom: "res3b1_branch2a"
  top: "res3b1_branch2a"
  param {
    lr_mult: 0
    decay_mult: 0
  }
  param {
    lr_mult: 0
    decay_mult: 0
  }
  param {
    lr_mult: 0
    decay_mult: 0
  }
  batch_norm_param {
    use_global_stats: true
  }
}
layer {
  name: "scale3b1_branch2a"
  type: "Scale"
  bottom: "res3b1_branch2a"
  top: "res3b1_branch2a"
  param {
    lr_mult: 0
    decay_mult: 0
  }
  param {
    lr_mult: 0
    decay_mult: 0
  }
  scale_param {
    bias_term: true
  }
}
layer {
  name: "res3b1_branch2a_relu"
  type: "ReLU"
  bottom: "res3b1_branch2a"
  top: "res3b1_branch2a"
}
layer {
  name: "res3b1_branch2b"
  type: "Convolution"
  bottom: "res3b1_branch2a"
  top: "res3b1_branch2b"
  param {
    lr_mult: 0
    decay_mult: 0
  }
  convolution_param {
    num_output: 128
    bias_term: false
    pad: 1
    kernel_size: 3
    stride: 1
  }
}
layer {
  name: "bn3b1_branch2b"
  type: "BatchNorm"
  bottom: "res3b1_branch2b"
  top: "res3b1_branch2b"
  param {
    lr_mult: 0
    decay_mult: 0
  }
  param {
    lr_mult: 0
    decay_mult: 0
  }
  param {
    lr_mult: 0
    decay_mult: 0
  }
  batch_norm_param {
    use_global_stats: true
  }
}
layer {
  name: "scale3b1_branch2b"
  type: "Scale"
  bottom: "res3b1_branch2b"
  top: "res3b1_branch2b"
  param {
    lr_mult: 0
    decay_mult: 0
  }
  param {
    lr_mult: 0
    decay_mult: 0
  }
  scale_param {
    bias_term: true
  }
}
layer {
  name: "res3b1_branch2b_relu"
  type: "ReLU"
  bottom: "res3b1_branch2b"
  top: "res3b1_branch2b"
}
layer {
  name: "res3b1_branch2c"
  type: "Convolution"
  bottom: "res3b1_branch2b"
  top: "res3b1_branch2c"
  param {
    lr_mult: 0
    decay_mult: 0
  }
  convolution_param {
    num_output: 512
    bias_term: false
    pad: 0
    kernel_size: 1
    stride: 1
  }
}
layer {
  name: "bn3b1_branch2c"
  type: "BatchNorm"
  bottom: "res3b1_branch2c"
  top: "res3b1_branch2c"
  param {
    lr_mult: 0
    decay_mult: 0
  }
  param {
    lr_mult: 0
    decay_mult: 0
  }
  param {
    lr_mult: 0
    decay_mult: 0
  }
  batch_norm_param {
    use_global_stats: true
  }
}
layer {
  name: "scale3b1_branch2c"
  type: "Scale"
  bottom: "res3b1_branch2c"
  top: "res3b1_branch2c"
  param {
    lr_mult: 0
    decay_mult: 0
  }
  param {
    lr_mult: 0
    decay_mult: 0
  }
  scale_param {
    bias_term: true
  }
}
layer {
  name: "res3b1"
  type: "Eltwise"
  bottom: "res3a"
  bottom: "res3b1_branch2c"
  top: "res3b1"
}
layer {
  name: "res3b1_relu"
  type: "ReLU"
  bottom: "res3b1"
  top: "res3b1"
}
layer {
  name: "res3b2_branch2a"
  type: "Convolution"
  bottom: "res3b1"
  top: "res3b2_branch2a"
  param {
    lr_mult: 0
    decay_mult: 0
  }
  convolution_param {
    num_output: 128
    bias_term: false
    pad: 0
    kernel_size: 1
    stride: 1
  }
}
layer {
  name: "bn3b2_branch2a"
  type: "BatchNorm"
  bottom: "res3b2_branch2a"
  top: "res3b2_branch2a"
  param {
    lr_mult: 0
    decay_mult: 0
  }
  param {
    lr_mult: 0
    decay_mult: 0
  }
  param {
    lr_mult: 0
    decay_mult: 0
  }
  batch_norm_param {
    use_global_stats: true
  }
}
layer {
  name: "scale3b2_branch2a"
  type: "Scale"
  bottom: "res3b2_branch2a"
  top: "res3b2_branch2a"
  param {
    lr_mult: 0
    decay_mult: 0
  }
  param {
    lr_mult: 0
    decay_mult: 0
  }
  scale_param {
    bias_term: true
  }
}
layer {
  name: "res3b2_branch2a_relu"
  type: "ReLU"
  bottom: "res3b2_branch2a"
  top: "res3b2_branch2a"
}
layer {
  name: "res3b2_branch2b"
  type: "Convolution"
  bottom: "res3b2_branch2a"
  top: "res3b2_branch2b"
  param {
    lr_mult: 0
    decay_mult: 0
  }
  convolution_param {
    num_output: 128
    bias_term: false
    pad: 1
    kernel_size: 3
    stride: 1
  }
}
layer {
  name: "bn3b2_branch2b"
  type: "BatchNorm"
  bottom: "res3b2_branch2b"
  top: "res3b2_branch2b"
  param {
    lr_mult: 0
    decay_mult: 0
  }
  param {
    lr_mult: 0
    decay_mult: 0
  }
  param {
    lr_mult: 0
    decay_mult: 0
  }
  batch_norm_param {
    use_global_stats: true
  }
}
layer {
  name: "scale3b2_branch2b"
  type: "Scale"
  bottom: "res3b2_branch2b"
  top: "res3b2_branch2b"
  param {
    lr_mult: 0
    decay_mult: 0
  }
  param {
    lr_mult: 0
    decay_mult: 0
  }
  scale_param {
    bias_term: true
  }
}
layer {
  name: "res3b2_branch2b_relu"
  type: "ReLU"
  bottom: "res3b2_branch2b"
  top: "res3b2_branch2b"
}
layer {
  name: "res3b2_branch2c"
  type: "Convolution"
  bottom: "res3b2_branch2b"
  top: "res3b2_branch2c"
  param {
    lr_mult: 0
    decay_mult: 0
  }
  convolution_param {
    num_output: 512
    bias_term: false
    pad: 0
    kernel_size: 1
    stride: 1
  }
}
layer {
  name: "bn3b2_branch2c"
  type: "BatchNorm"
  bottom: "res3b2_branch2c"
  top: "res3b2_branch2c"
  param {
    lr_mult: 0
    decay_mult: 0
  }
  param {
    lr_mult: 0
    decay_mult: 0
  }
  param {
    lr_mult: 0
    decay_mult: 0
  }
  batch_norm_param {
    use_global_stats: true
  }
}
layer {
  name: "scale3b2_branch2c"
  type: "Scale"
  bottom: "res3b2_branch2c"
  top: "res3b2_branch2c"
  param {
    lr_mult: 0
    decay_mult: 0
  }
  param {
    lr_mult: 0
    decay_mult: 0
  }
  scale_param {
    bias_term: true
  }
}
layer {
  name: "res3b2"
  type: "Eltwise"
  bottom: "res3b1"
  bottom: "res3b2_branch2c"
  top: "res3b2"
}
layer {
  name: "res3b2_relu"
  type: "ReLU"
  bottom: "res3b2"
  top: "res3b2"
}
layer {
  name: "res3b3_branch2a"
  type: "Convolution"
  bottom: "res3b2"
  top: "res3b3_branch2a"
  param {
    lr_mult: 0
    decay_mult: 0
  }
  convolution_param {
    num_output: 128
    bias_term: false
    pad: 0
    kernel_size: 1
    stride: 1
  }
}
layer {
  name: "bn3b3_branch2a"
  type: "BatchNorm"
  bottom: "res3b3_branch2a"
  top: "res3b3_branch2a"
  param {
    lr_mult: 0
    decay_mult: 0
  }
  param {
    lr_mult: 0
    decay_mult: 0
  }
  param {
    lr_mult: 0
    decay_mult: 0
  }
  batch_norm_param {
    use_global_stats: true
  }
}
layer {
  name: "scale3b3_branch2a"
  type: "Scale"
  bottom: "res3b3_branch2a"
  top: "res3b3_branch2a"
  param {
    lr_mult: 0
    decay_mult: 0
  }
  param {
    lr_mult: 0
    decay_mult: 0
  }
  scale_param {
    bias_term: true
  }
}
layer {
  name: "res3b3_branch2a_relu"
  type: "ReLU"
  bottom: "res3b3_branch2a"
  top: "res3b3_branch2a"
}
layer {
  name: "res3b3_branch2b"
  type: "Convolution"
  bottom: "res3b3_branch2a"
  top: "res3b3_branch2b"
  param {
    lr_mult: 0
    decay_mult: 0
  }
  convolution_param {
    num_output: 128
    bias_term: false
    pad: 1
    kernel_size: 3
    stride: 1
  }
}
layer {
  name: "bn3b3_branch2b"
  type: "BatchNorm"
  bottom: "res3b3_branch2b"
  top: "res3b3_branch2b"
  param {
    lr_mult: 0
    decay_mult: 0
  }
  param {
    lr_mult: 0
    decay_mult: 0
  }
  param {
    lr_mult: 0
    decay_mult: 0
  }
  batch_norm_param {
    use_global_stats: true
  }
}
layer {
  name: "scale3b3_branch2b"
  type: "Scale"
  bottom: "res3b3_branch2b"
  top: "res3b3_branch2b"
  param {
    lr_mult: 0
    decay_mult: 0
  }
  param {
    lr_mult: 0
    decay_mult: 0
  }
  scale_param {
    bias_term: true
  }
}
layer {
  name: "res3b3_branch2b_relu"
  type: "ReLU"
  bottom: "res3b3_branch2b"
  top: "res3b3_branch2b"
}
layer {
  name: "res3b3_branch2c"
  type: "Convolution"
  bottom: "res3b3_branch2b"
  top: "res3b3_branch2c"
  param {
    lr_mult: 0
    decay_mult: 0
  }
  convolution_param {
    num_output: 512
    bias_term: false
    pad: 0
    kernel_size: 1
    stride: 1
  }
}
layer {
  name: "bn3b3_branch2c"
  type: "BatchNorm"
  bottom: "res3b3_branch2c"
  top: "res3b3_branch2c"
  param {
    lr_mult: 0
    decay_mult: 0
  }
  param {
    lr_mult: 0
    decay_mult: 0
  }
  param {
    lr_mult: 0
    decay_mult: 0
  }
  batch_norm_param {
    use_global_stats: true
  }
}
layer {
  name: "scale3b3_branch2c"
  type: "Scale"
  bottom: "res3b3_branch2c"
  top: "res3b3_branch2c"
  param {
    lr_mult: 0
    decay_mult: 0
  }
  param {
    lr_mult: 0
    decay_mult: 0
  }
  scale_param {
    bias_term: true
  }
}
layer {
  name: "res3b3"
  type: "Eltwise"
  bottom: "res3b2"
  bottom: "res3b3_branch2c"
  top: "res3b3"
}
layer {
  name: "res3b3_relu"
  type: "ReLU"
  bottom: "res3b3"
  top: "res3b3"
}
layer {
  name: "res4a_branch1"
  type: "Convolution"
  bottom: "res3b3"
  top: "res4a_branch1"
  param {
    lr_mult: 0
    decay_mult: 0
  }
  convolution_param {
    num_output: 1024
    bias_term: false
    pad: 0
    kernel_size: 1
    stride: 2
  }
}
layer {
  name: "bn4a_branch1"
  type: "BatchNorm"
  bottom: "res4a_branch1"
  top: "res4a_branch1"
  param {
    lr_mult: 0
    decay_mult: 0
  }
  param {
    lr_mult: 0
    decay_mult: 0
  }
  param {
    lr_mult: 0
    decay_mult: 0
  }
  batch_norm_param {
    use_global_stats: true
  }
}
layer {
  name: "scale4a_branch1"
  type: "Scale"
  bottom: "res4a_branch1"
  top: "res4a_branch1"
  param {
    lr_mult: 0
    decay_mult: 0
  }
  param {
    lr_mult: 0
    decay_mult: 0
  }
  scale_param {
    bias_term: true
  }
}
layer {
  name: "res4a_branch2a"
  type: "Convolution"
  bottom: "res3b3"
  top: "res4a_branch2a"
  param {
    lr_mult: 0
    decay_mult: 0
  }
  convolution_param {
    num_output: 256
    bias_term: false
    pad: 0
    kernel_size: 1
    stride: 2
  }
}
layer {
  name: "bn4a_branch2a"
  type: "BatchNorm"
  bottom: "res4a_branch2a"
  top: "res4a_branch2a"
  param {
    lr_mult: 0
    decay_mult: 0
  }
  param {
    lr_mult: 0
    decay_mult: 0
  }
  param {
    lr_mult: 0
    decay_mult: 0
  }
  batch_norm_param {
    use_global_stats: true
  }
}
layer {
  name: "scale4a_branch2a"
  type: "Scale"
  bottom: "res4a_branch2a"
  top: "res4a_branch2a"
  param {
    lr_mult: 0
    decay_mult: 0
  }
  param {
    lr_mult: 0
    decay_mult: 0
  }
  scale_param {
    bias_term: true
  }
}
layer {
  name: "res4a_branch2a_relu"
  type: "ReLU"
  bottom: "res4a_branch2a"
  top: "res4a_branch2a"
}
layer {
  name: "res4a_branch2b"
  type: "Convolution"
  bottom: "res4a_branch2a"
  top: "res4a_branch2b"
  param {
    lr_mult: 0
    decay_mult: 0
  }
  convolution_param {
    num_output: 256
    bias_term: false
    pad: 1
    kernel_size: 3
    stride: 1
  }
}
layer {
  name: "bn4a_branch2b"
  type: "BatchNorm"
  bottom: "res4a_branch2b"
  top: "res4a_branch2b"
  param {
    lr_mult: 0
    decay_mult: 0
  }
  param {
    lr_mult: 0
    decay_mult: 0
  }
  param {
    lr_mult: 0
    decay_mult: 0
  }
  batch_norm_param {
    use_global_stats: true
  }
}
layer {
  name: "scale4a_branch2b"
  type: "Scale"
  bottom: "res4a_branch2b"
  top: "res4a_branch2b"
  param {
    lr_mult: 0
    decay_mult: 0
  }
  param {
    lr_mult: 0
    decay_mult: 0
  }
  scale_param {
    bias_term: true
  }
}
layer {
  name: "res4a_branch2b_relu"
  type: "ReLU"
  bottom: "res4a_branch2b"
  top: "res4a_branch2b"
}
layer {
  name: "res4a_branch2c"
  type: "Convolution"
  bottom: "res4a_branch2b"
  top: "res4a_branch2c"
  param {
    lr_mult: 0
    decay_mult: 0
  }
  convolution_param {
    num_output: 1024
    bias_term: false
    pad: 0
    kernel_size: 1
    stride: 1
  }
}
layer {
  name: "bn4a_branch2c"
  type: "BatchNorm"
  bottom: "res4a_branch2c"
  top: "res4a_branch2c"
  param {
    lr_mult: 0
    decay_mult: 0
  }
  param {
    lr_mult: 0
    decay_mult: 0
  }
  param {
    lr_mult: 0
    decay_mult: 0
  }
  batch_norm_param {
    use_global_stats: true
  }
}
layer {
  name: "scale4a_branch2c"
  type: "Scale"
  bottom: "res4a_branch2c"
  top: "res4a_branch2c"
  param {
    lr_mult: 0
    decay_mult: 0
  }
  param {
    lr_mult: 0
    decay_mult: 0
  }
  scale_param {
    bias_term: true
  }
}
layer {
  name: "res4a"
  type: "Eltwise"
  bottom: "res4a_branch1"
  bottom: "res4a_branch2c"
  top: "res4a"
}
layer {
  name: "res4a_relu"
  type: "ReLU"
  bottom: "res4a"
  top: "res4a"
}
layer {
  name: "res4b1_branch2a"
  type: "Convolution"
  bottom: "res4a"
  top: "res4b1_branch2a"
  param {
    lr_mult: 0
    decay_mult: 0
  }
  convolution_param {
    num_output: 256
    bias_term: false
    pad: 0
    kernel_size: 1
    stride: 1
  }
}
layer {
  name: "bn4b1_branch2a"
  type: "BatchNorm"
  bottom: "res4b1_branch2a"
  top: "res4b1_branch2a"
  param {
    lr_mult: 0
    decay_mult: 0
  }
  param {
    lr_mult: 0
    decay_mult: 0
  }
  param {
    lr_mult: 0
    decay_mult: 0
  }
  batch_norm_param {
    use_global_stats: true
  }
}
layer {
  name: "scale4b1_branch2a"
  type: "Scale"
  bottom: "res4b1_branch2a"
  top: "res4b1_branch2a"
  param {
    lr_mult: 0
    decay_mult: 0
  }
  param {
    lr_mult: 0
    decay_mult: 0
  }
  scale_param {
    bias_term: true
  }
}
layer {
  name: "res4b1_branch2a_relu"
  type: "ReLU"
  bottom: "res4b1_branch2a"
  top: "res4b1_branch2a"
}
layer {
  name: "res4b1_branch2b"
  type: "Convolution"
  bottom: "res4b1_branch2a"
  top: "res4b1_branch2b"
  param {
    lr_mult: 0
    decay_mult: 0
  }
  convolution_param {
    num_output: 256
    bias_term: false
    pad: 1
    kernel_size: 3
    stride: 1
  }
}
layer {
  name: "bn4b1_branch2b"
  type: "BatchNorm"
  bottom: "res4b1_branch2b"
  top: "res4b1_branch2b"
  param {
    lr_mult: 0
    decay_mult: 0
  }
  param {
    lr_mult: 0
    decay_mult: 0
  }
  param {
    lr_mult: 0
    decay_mult: 0
  }
  batch_norm_param {
    use_global_stats: true
  }
}
layer {
  name: "scale4b1_branch2b"
  type: "Scale"
  bottom: "res4b1_branch2b"
  top: "res4b1_branch2b"
  param {
    lr_mult: 0
    decay_mult: 0
  }
  param {
    lr_mult: 0
    decay_mult: 0
  }
  scale_param {
    bias_term: true
  }
}
layer {
  name: "res4b1_branch2b_relu"
  type: "ReLU"
  bottom: "res4b1_branch2b"
  top: "res4b1_branch2b"
}
layer {
  name: "res4b1_branch2c"
  type: "Convolution"
  bottom: "res4b1_branch2b"
  top: "res4b1_branch2c"
  param {
    lr_mult: 0
    decay_mult: 0
  }
  convolution_param {
    num_output: 1024
    bias_term: false
    pad: 0
    kernel_size: 1
    stride: 1
  }
}
layer {
  name: "bn4b1_branch2c"
  type: "BatchNorm"
  bottom: "res4b1_branch2c"
  top: "res4b1_branch2c"
  param {
    lr_mult: 0
    decay_mult: 0
  }
  param {
    lr_mult: 0
    decay_mult: 0
  }
  param {
    lr_mult: 0
    decay_mult: 0
  }
  batch_norm_param {
    use_global_stats: true
  }
}
layer {
  name: "scale4b1_branch2c"
  type: "Scale"
  bottom: "res4b1_branch2c"
  top: "res4b1_branch2c"
  param {
    lr_mult: 0
    decay_mult: 0
  }
  param {
    lr_mult: 0
    decay_mult: 0
  }
  scale_param {
    bias_term: true
  }
}
layer {
  name: "res4b1"
  type: "Eltwise"
  bottom: "res4a"
  bottom: "res4b1_branch2c"
  top: "res4b1"
}
layer {
  name: "res4b1_relu"
  type: "ReLU"
  bottom: "res4b1"
  top: "res4b1"
}
layer {
  name: "res4b2_branch2a"
  type: "Convolution"
  bottom: "res4b1"
  top: "res4b2_branch2a"
  param {
    lr_mult: 0
    decay_mult: 0
  }
  convolution_param {
    num_output: 256
    bias_term: false
    pad: 0
    kernel_size: 1
    stride: 1
  }
}
layer {
  name: "bn4b2_branch2a"
  type: "BatchNorm"
  bottom: "res4b2_branch2a"
  top: "res4b2_branch2a"
  param {
    lr_mult: 0
    decay_mult: 0
  }
  param {
    lr_mult: 0
    deca
I1013 17:05:30.652889  8042 layer_factory.hpp:77] Creating layer data
I1013 17:05:30.653029  8042 db_lmdb.cpp:35] Opened lmdb /home/processyuan/data/Paris/aug/paris_aug_lmdb
I1013 17:05:30.653065  8042 net.cpp:86] Creating Layer data
I1013 17:05:30.653074  8042 net.cpp:382] data -> data
I1013 17:05:30.653097  8042 net.cpp:382] data -> label
I1013 17:05:30.655474  8042 data_layer.cpp:45] output data size: 4,3,384,512
I1013 17:05:30.681149  8042 net.cpp:124] Setting up data
I1013 17:05:30.681196  8042 net.cpp:131] Top shape: 4 3 384 512 (2359296)
I1013 17:05:30.681203  8042 net.cpp:131] Top shape: 4 (4)
I1013 17:05:30.681208  8042 net.cpp:139] Memory required for data: 9437200
I1013 17:05:30.681218  8042 layer_factory.hpp:77] Creating layer data_data_0_split
I1013 17:05:30.681241  8042 net.cpp:86] Creating Layer data_data_0_split
I1013 17:05:30.681248  8042 net.cpp:408] data_data_0_split <- data
I1013 17:05:30.681263  8042 net.cpp:382] data_data_0_split -> data_data_0_split_0
I1013 17:05:30.681277  8042 net.cpp:382] data_data_0_split -> data_data_0_split_1
I1013 17:05:30.681383  8042 net.cpp:124] Setting up data_data_0_split
I1013 17:05:30.681394  8042 net.cpp:131] Top shape: 4 3 384 512 (2359296)
I1013 17:05:30.681399  8042 net.cpp:131] Top shape: 4 3 384 512 (2359296)
I1013 17:05:30.681402  8042 net.cpp:139] Memory required for data: 28311568
I1013 17:05:30.681422  8042 layer_factory.hpp:77] Creating layer features
I1013 17:05:31.276110  8042 net.cpp:86] Creating Layer features
I1013 17:05:31.276139  8042 net.cpp:408] features <- label
I1013 17:05:31.276151  8042 net.cpp:382] features -> features
I1013 17:05:31.783288  8042 net.cpp:124] Setting up features
I1013 17:05:31.783349  8042 net.cpp:131] Top shape: 4 2048 1 1 (8192)
I1013 17:05:31.783354  8042 net.cpp:139] Memory required for data: 28344336
I1013 17:05:31.783363  8042 layer_factory.hpp:77] Creating layer rois
I1013 17:05:31.783529  8042 net.cpp:86] Creating Layer rois
I1013 17:05:31.783540  8042 net.cpp:408] rois <- data_data_0_split_0
I1013 17:05:31.783574  8042 net.cpp:382] rois -> rois
I1013 17:05:31.789007  8042 net.cpp:124] Setting up rois
I1013 17:05:31.789024  8042 net.cpp:131] Top shape: 32 5 (160)
I1013 17:05:31.789028  8042 net.cpp:139] Memory required for data: 28344976
I1013 17:05:31.789033  8042 layer_factory.hpp:77] Creating layer conv1
I1013 17:05:31.789099  8042 net.cpp:86] Creating Layer conv1
I1013 17:05:31.789106  8042 net.cpp:408] conv1 <- data_data_0_split_1
I1013 17:05:31.789117  8042 net.cpp:382] conv1 -> conv1
I1013 17:05:32.358484  8042 net.cpp:124] Setting up conv1
I1013 17:05:32.358537  8042 net.cpp:131] Top shape: 4 64 192 256 (12582912)
I1013 17:05:32.358543  8042 net.cpp:139] Memory required for data: 78676624
I1013 17:05:32.358567  8042 layer_factory.hpp:77] Creating layer bn_conv1
I1013 17:05:32.358631  8042 net.cpp:86] Creating Layer bn_conv1
I1013 17:05:32.358654  8042 net.cpp:408] bn_conv1 <- conv1
I1013 17:05:32.358661  8042 net.cpp:369] bn_conv1 -> conv1 (in-place)
I1013 17:05:32.360225  8042 net.cpp:124] Setting up bn_conv1
I1013 17:05:32.360255  8042 net.cpp:131] Top shape: 4 64 192 256 (12582912)
I1013 17:05:32.360260  8042 net.cpp:139] Memory required for data: 129008272
I1013 17:05:32.360272  8042 layer_factory.hpp:77] Creating layer scale_conv1
I1013 17:05:32.360307  8042 net.cpp:86] Creating Layer scale_conv1
I1013 17:05:32.360316  8042 net.cpp:408] scale_conv1 <- conv1
I1013 17:05:32.360324  8042 net.cpp:369] scale_conv1 -> conv1 (in-place)
I1013 17:05:32.360396  8042 layer_factory.hpp:77] Creating layer scale_conv1
I1013 17:05:32.360589  8042 net.cpp:124] Setting up scale_conv1
I1013 17:05:32.360605  8042 net.cpp:131] Top shape: 4 64 192 256 (12582912)
I1013 17:05:32.360608  8042 net.cpp:139] Memory required for data: 179339920
I1013 17:05:32.360618  8042 layer_factory.hpp:77] Creating layer conv1_relu
I1013 17:05:32.360628  8042 net.cpp:86] Creating Layer conv1_relu
I1013 17:05:32.360633  8042 net.cpp:408] conv1_relu <- conv1
I1013 17:05:32.360638  8042 net.cpp:369] conv1_relu -> conv1 (in-place)
I1013 17:05:32.360858  8042 net.cpp:124] Setting up conv1_relu
I1013 17:05:32.360870  8042 net.cpp:131] Top shape: 4 64 192 256 (12582912)
I1013 17:05:32.360873  8042 net.cpp:139] Memory required for data: 229671568
I1013 17:05:32.360877  8042 layer_factory.hpp:77] Creating layer pool1
I1013 17:05:32.360890  8042 net.cpp:86] Creating Layer pool1
I1013 17:05:32.360898  8042 net.cpp:408] pool1 <- conv1
I1013 17:05:32.360922  8042 net.cpp:382] pool1 -> pool1
I1013 17:05:32.360980  8042 net.cpp:124] Setting up pool1
I1013 17:05:32.360988  8042 net.cpp:131] Top shape: 4 64 96 128 (3145728)
I1013 17:05:32.360992  8042 net.cpp:139] Memory required for data: 242254480
I1013 17:05:32.360996  8042 layer_factory.hpp:77] Creating layer pool1_pool1_0_split
I1013 17:05:32.361002  8042 net.cpp:86] Creating Layer pool1_pool1_0_split
I1013 17:05:32.361007  8042 net.cpp:408] pool1_pool1_0_split <- pool1
I1013 17:05:32.361013  8042 net.cpp:382] pool1_pool1_0_split -> pool1_pool1_0_split_0
I1013 17:05:32.361027  8042 net.cpp:382] pool1_pool1_0_split -> pool1_pool1_0_split_1
I1013 17:05:32.361071  8042 net.cpp:124] Setting up pool1_pool1_0_split
I1013 17:05:32.361080  8042 net.cpp:131] Top shape: 4 64 96 128 (3145728)
I1013 17:05:32.361085  8042 net.cpp:131] Top shape: 4 64 96 128 (3145728)
I1013 17:05:32.361088  8042 net.cpp:139] Memory required for data: 267420304
I1013 17:05:32.361112  8042 layer_factory.hpp:77] Creating layer res2a_branch1
I1013 17:05:32.361124  8042 net.cpp:86] Creating Layer res2a_branch1
I1013 17:05:32.361131  8042 net.cpp:408] res2a_branch1 <- pool1_pool1_0_split_0
I1013 17:05:32.361140  8042 net.cpp:382] res2a_branch1 -> res2a_branch1
I1013 17:05:32.362784  8042 net.cpp:124] Setting up res2a_branch1
I1013 17:05:32.362817  8042 net.cpp:131] Top shape: 4 256 96 128 (12582912)
I1013 17:05:32.362821  8042 net.cpp:139] Memory required for data: 317751952
I1013 17:05:32.362828  8042 layer_factory.hpp:77] Creating layer bn2a_branch1
I1013 17:05:32.362836  8042 net.cpp:86] Creating Layer bn2a_branch1
I1013 17:05:32.362840  8042 net.cpp:408] bn2a_branch1 <- res2a_branch1
I1013 17:05:32.362848  8042 net.cpp:369] bn2a_branch1 -> res2a_branch1 (in-place)
I1013 17:05:32.363088  8042 net.cpp:124] Setting up bn2a_branch1
I1013 17:05:32.363097  8042 net.cpp:131] Top shape: 4 256 96 128 (12582912)
I1013 17:05:32.363101  8042 net.cpp:139] Memory required for data: 368083600
I1013 17:05:32.363111  8042 layer_factory.hpp:77] Creating layer scale2a_branch1
I1013 17:05:32.363117  8042 net.cpp:86] Creating Layer scale2a_branch1
I1013 17:05:32.363121  8042 net.cpp:408] scale2a_branch1 <- res2a_branch1
I1013 17:05:32.363127  8042 net.cpp:369] scale2a_branch1 -> res2a_branch1 (in-place)
I1013 17:05:32.363173  8042 layer_factory.hpp:77] Creating layer scale2a_branch1
I1013 17:05:32.363318  8042 net.cpp:124] Setting up scale2a_branch1
I1013 17:05:32.363327  8042 net.cpp:131] Top shape: 4 256 96 128 (12582912)
I1013 17:05:32.363330  8042 net.cpp:139] Memory required for data: 418415248
I1013 17:05:32.363337  8042 layer_factory.hpp:77] Creating layer res2a_branch2a
I1013 17:05:32.363346  8042 net.cpp:86] Creating Layer res2a_branch2a
I1013 17:05:32.363350  8042 net.cpp:408] res2a_branch2a <- pool1_pool1_0_split_1
I1013 17:05:32.363356  8042 net.cpp:382] res2a_branch2a -> res2a_branch2a
I1013 17:05:32.365867  8042 net.cpp:124] Setting up res2a_branch2a
I1013 17:05:32.365882  8042 net.cpp:131] Top shape: 4 64 96 128 (3145728)
I1013 17:05:32.365902  8042 net.cpp:139] Memory required for data: 430998160
I1013 17:05:32.365909  8042 layer_factory.hpp:77] Creating layer bn2a_branch2a
I1013 17:05:32.365921  8042 net.cpp:86] Creating Layer bn2a_branch2a
I1013 17:05:32.365926  8042 net.cpp:408] bn2a_branch2a <- res2a_branch2a
I1013 17:05:32.365934  8042 net.cpp:369] bn2a_branch2a -> res2a_branch2a (in-place)
I1013 17:05:32.366173  8042 net.cpp:124] Setting up bn2a_branch2a
I1013 17:05:32.366183  8042 net.cpp:131] Top shape: 4 64 96 128 (3145728)
I1013 17:05:32.366185  8042 net.cpp:139] Memory required for data: 443581072
I1013 17:05:32.366192  8042 layer_factory.hpp:77] Creating layer scale2a_branch2a
I1013 17:05:32.366199  8042 net.cpp:86] Creating Layer scale2a_branch2a
I1013 17:05:32.366204  8042 net.cpp:408] scale2a_branch2a <- res2a_branch2a
I1013 17:05:32.366211  8042 net.cpp:369] scale2a_branch2a -> res2a_branch2a (in-place)
I1013 17:05:32.366255  8042 layer_factory.hpp:77] Creating layer scale2a_branch2a
I1013 17:05:32.366439  8042 net.cpp:124] Setting up scale2a_branch2a
I1013 17:05:32.366453  8042 net.cpp:131] Top shape: 4 64 96 128 (3145728)
I1013 17:05:32.366456  8042 net.cpp:139] Memory required for data: 456163984
I1013 17:05:32.366466  8042 layer_factory.hpp:77] Creating layer res2a_branch2a_relu
I1013 17:05:32.366478  8042 net.cpp:86] Creating Layer res2a_branch2a_relu
I1013 17:05:32.366485  8042 net.cpp:408] res2a_branch2a_relu <- res2a_branch2a
I1013 17:05:32.366492  8042 net.cpp:369] res2a_branch2a_relu -> res2a_branch2a (in-place)
I1013 17:05:32.366729  8042 net.cpp:124] Setting up res2a_branch2a_relu
I1013 17:05:32.366739  8042 net.cpp:131] Top shape: 4 64 96 128 (3145728)
I1013 17:05:32.366744  8042 net.cpp:139] Memory required for data: 468746896
I1013 17:05:32.366747  8042 layer_factory.hpp:77] Creating layer res2a_branch2b
I1013 17:05:32.366762  8042 net.cpp:86] Creating Layer res2a_branch2b
I1013 17:05:32.366768  8042 net.cpp:408] res2a_branch2b <- res2a_branch2a
I1013 17:05:32.366787  8042 net.cpp:382] res2a_branch2b -> res2a_branch2b
I1013 17:05:32.368041  8042 net.cpp:124] Setting up res2a_branch2b
I1013 17:05:32.368072  8042 net.cpp:131] Top shape: 4 64 96 128 (3145728)
I1013 17:05:32.368077  8042 net.cpp:139] Memory required for data: 481329808
I1013 17:05:32.368083  8042 layer_factory.hpp:77] Creating layer bn2a_branch2b
I1013 17:05:32.368090  8042 net.cpp:86] Creating Layer bn2a_branch2b
I1013 17:05:32.368094  8042 net.cpp:408] bn2a_branch2b <- res2a_branch2b
I1013 17:05:32.368105  8042 net.cpp:369] bn2a_branch2b -> res2a_branch2b (in-place)
I1013 17:05:32.368340  8042 net.cpp:124] Setting up bn2a_branch2b
I1013 17:05:32.368348  8042 net.cpp:131] Top shape: 4 64 96 128 (3145728)
I1013 17:05:32.368351  8042 net.cpp:139] Memory required for data: 493912720
I1013 17:05:32.368360  8042 layer_factory.hpp:77] Creating layer scale2a_branch2b
I1013 17:05:32.368367  8042 net.cpp:86] Creating Layer scale2a_branch2b
I1013 17:05:32.368371  8042 net.cpp:408] scale2a_branch2b <- res2a_branch2b
I1013 17:05:32.368378  8042 net.cpp:369] scale2a_branch2b -> res2a_branch2b (in-place)
I1013 17:05:32.368420  8042 layer_factory.hpp:77] Creating layer scale2a_branch2b
I1013 17:05:32.368574  8042 net.cpp:124] Setting up scale2a_branch2b
I1013 17:05:32.368584  8042 net.cpp:131] Top shape: 4 64 96 128 (3145728)
I1013 17:05:32.368587  8042 net.cpp:139] Memory required for data: 506495632
I1013 17:05:32.368592  8042 layer_factory.hpp:77] Creating layer res2a_branch2b_relu
I1013 17:05:32.368599  8042 net.cpp:86] Creating Layer res2a_branch2b_relu
I1013 17:05:32.368602  8042 net.cpp:408] res2a_branch2b_relu <- res2a_branch2b
I1013 17:05:32.368609  8042 net.cpp:369] res2a_branch2b_relu -> res2a_branch2b (in-place)
I1013 17:05:32.369189  8042 net.cpp:124] Setting up res2a_branch2b_relu
I1013 17:05:32.369220  8042 net.cpp:131] Top shape: 4 64 96 128 (3145728)
I1013 17:05:32.369223  8042 net.cpp:139] Memory required for data: 519078544
I1013 17:05:32.369228  8042 layer_factory.hpp:77] Creating layer res2a_branch2c
I1013 17:05:32.369240  8042 net.cpp:86] Creating Layer res2a_branch2c
I1013 17:05:32.369246  8042 net.cpp:408] res2a_branch2c <- res2a_branch2b
I1013 17:05:32.369251  8042 net.cpp:382] res2a_branch2c -> res2a_branch2c
I1013 17:05:32.370496  8042 net.cpp:124] Setting up res2a_branch2c
I1013 17:05:32.370527  8042 net.cpp:131] Top shape: 4 256 96 128 (12582912)
I1013 17:05:32.370532  8042 net.cpp:139] Memory required for data: 569410192
I1013 17:05:32.370537  8042 layer_factory.hpp:77] Creating layer bn2a_branch2c
I1013 17:05:32.370548  8042 net.cpp:86] Creating Layer bn2a_branch2c
I1013 17:05:32.370553  8042 net.cpp:408] bn2a_branch2c <- res2a_branch2c
I1013 17:05:32.370575  8042 net.cpp:369] bn2a_branch2c -> res2a_branch2c (in-place)
I1013 17:05:32.370828  8042 net.cpp:124] Setting up bn2a_branch2c
I1013 17:05:32.370837  8042 net.cpp:131] Top shape: 4 256 96 128 (12582912)
I1013 17:05:32.370841  8042 net.cpp:139] Memory required for data: 619741840
I1013 17:05:32.370848  8042 layer_factory.hpp:77] Creating layer scale2a_branch2c
I1013 17:05:32.370856  8042 net.cpp:86] Creating Layer scale2a_branch2c
I1013 17:05:32.370859  8042 net.cpp:408] scale2a_branch2c <- res2a_branch2c
I1013 17:05:32.370867  8042 net.cpp:369] scale2a_branch2c -> res2a_branch2c (in-place)
I1013 17:05:32.370909  8042 layer_factory.hpp:77] Creating layer scale2a_branch2c
I1013 17:05:32.371055  8042 net.cpp:124] Setting up scale2a_branch2c
I1013 17:05:32.371065  8042 net.cpp:131] Top shape: 4 256 96 128 (12582912)
I1013 17:05:32.371068  8042 net.cpp:139] Memory required for data: 670073488
I1013 17:05:32.371074  8042 layer_factory.hpp:77] Creating layer res2a
I1013 17:05:32.371091  8042 net.cpp:86] Creating Layer res2a
I1013 17:05:32.371098  8042 net.cpp:408] res2a <- res2a_branch1
I1013 17:05:32.371104  8042 net.cpp:408] res2a <- res2a_branch2c
I1013 17:05:32.371110  8042 net.cpp:382] res2a -> res2a
I1013 17:05:32.371161  8042 net.cpp:124] Setting up res2a
I1013 17:05:32.371170  8042 net.cpp:131] Top shape: 4 256 96 128 (12582912)
I1013 17:05:32.371184  8042 net.cpp:139] Memory required for data: 720405136
I1013 17:05:32.371191  8042 layer_factory.hpp:77] Creating layer res2a_relu
I1013 17:05:32.371196  8042 net.cpp:86] Creating Layer res2a_relu
I1013 17:05:32.371201  8042 net.cpp:408] res2a_relu <- res2a
I1013 17:05:32.371208  8042 net.cpp:369] res2a_relu -> res2a (in-place)
I1013 17:05:32.371417  8042 net.cpp:124] Setting up res2a_relu
I1013 17:05:32.371426  8042 net.cpp:131] Top shape: 4 256 96 128 (12582912)
I1013 17:05:32.371429  8042 net.cpp:139] Memory required for data: 770736784
I1013 17:05:32.371433  8042 layer_factory.hpp:77] Creating layer res2a_res2a_relu_0_split
I1013 17:05:32.371439  8042 net.cpp:86] Creating Layer res2a_res2a_relu_0_split
I1013 17:05:32.371443  8042 net.cpp:408] res2a_res2a_relu_0_split <- res2a
I1013 17:05:32.371451  8042 net.cpp:382] res2a_res2a_relu_0_split -> res2a_res2a_relu_0_split_0
I1013 17:05:32.371459  8042 net.cpp:382] res2a_res2a_relu_0_split -> res2a_res2a_relu_0_split_1
I1013 17:05:32.371510  8042 net.cpp:124] Setting up res2a_res2a_relu_0_split
I1013 17:05:32.371516  8042 net.cpp:131] Top shape: 4 256 96 128 (12582912)
I1013 17:05:32.371520  8042 net.cpp:131] Top shape: 4 256 96 128 (12582912)
I1013 17:05:32.371523  8042 net.cpp:139] Memory required for data: 871400080
I1013 17:05:32.371527  8042 layer_factory.hpp:77] Creating layer res2b_branch2a
I1013 17:05:32.371537  8042 net.cpp:86] Creating Layer res2b_branch2a
I1013 17:05:32.371541  8042 net.cpp:408] res2b_branch2a <- res2a_res2a_relu_0_split_0
I1013 17:05:32.371548  8042 net.cpp:382] res2b_branch2a -> res2b_branch2a
I1013 17:05:32.372728  8042 net.cpp:124] Setting up res2b_branch2a
I1013 17:05:32.372756  8042 net.cpp:131] Top shape: 4 64 96 128 (3145728)
I1013 17:05:32.372759  8042 net.cpp:139] Memory required for data: 883982992
I1013 17:05:32.372766  8042 layer_factory.hpp:77] Creating layer bn2b_branch2a
I1013 17:05:32.372774  8042 net.cpp:86] Creating Layer bn2b_branch2a
I1013 17:05:32.372778  8042 net.cpp:408] bn2b_branch2a <- res2b_branch2a
I1013 17:05:32.372789  8042 net.cpp:369] bn2b_branch2a -> res2b_branch2a (in-place)
I1013 17:05:32.373023  8042 net.cpp:124] Setting up bn2b_branch2a
I1013 17:05:32.373033  8042 net.cpp:131] Top shape: 4 64 96 128 (3145728)
I1013 17:05:32.373035  8042 net.cpp:139] Memory required for data: 896565904
I1013 17:05:32.373047  8042 layer_factory.hpp:77] Creating layer scale2b_branch2a
I1013 17:05:32.373056  8042 net.cpp:86] Creating Layer scale2b_branch2a
I1013 17:05:32.373060  8042 net.cpp:408] scale2b_branch2a <- res2b_branch2a
I1013 17:05:32.373066  8042 net.cpp:369] scale2b_branch2a -> res2b_branch2a (in-place)
I1013 17:05:32.373113  8042 layer_factory.hpp:77] Creating layer scale2b_branch2a
I1013 17:05:32.373266  8042 net.cpp:124] Setting up scale2b_branch2a
I1013 17:05:32.373277  8042 net.cpp:131] Top shape: 4 64 96 128 (3145728)
I1013 17:05:32.373281  8042 net.cpp:139] Memory required for data: 909148816
I1013 17:05:32.373286  8042 layer_factory.hpp:77] Creating layer res2b_branch2a_relu
I1013 17:05:32.373291  8042 net.cpp:86] Creating Layer res2b_branch2a_relu
I1013 17:05:32.373296  8042 net.cpp:408] res2b_branch2a_relu <- res2b_branch2a
I1013 17:05:32.373303  8042 net.cpp:369] res2b_branch2a_relu -> res2b_branch2a (in-place)
I1013 17:05:32.373534  8042 net.cpp:124] Setting up res2b_branch2a_relu
I1013 17:05:32.373544  8042 net.cpp:131] Top shape: 4 64 96 128 (3145728)
I1013 17:05:32.373548  8042 net.cpp:139] Memory required for data: 921731728
I1013 17:05:32.373553  8042 layer_factory.hpp:77] Creating layer res2b_branch2b
I1013 17:05:32.373564  8042 net.cpp:86] Creating Layer res2b_branch2b
I1013 17:05:32.373569  8042 net.cpp:408] res2b_branch2b <- res2b_branch2a
I1013 17:05:32.373577  8042 net.cpp:382] res2b_branch2b -> res2b_branch2b
I1013 17:05:32.374848  8042 net.cpp:124] Setting up res2b_branch2b
I1013 17:05:32.374863  8042 net.cpp:131] Top shape: 4 64 96 128 (3145728)
I1013 17:05:32.374883  8042 net.cpp:139] Memory required for data: 934314640
I1013 17:05:32.374902  8042 layer_factory.hpp:77] Creating layer bn2b_branch2b
I1013 17:05:32.374945  8042 net.cpp:86] Creating Layer bn2b_branch2b
I1013 17:05:32.374955  8042 net.cpp:408] bn2b_branch2b <- res2b_branch2b
I1013 17:05:32.374963  8042 net.cpp:369] bn2b_branch2b -> res2b_branch2b (in-place)
I1013 17:05:32.375203  8042 net.cpp:124] Setting up bn2b_branch2b
I1013 17:05:32.375212  8042 net.cpp:131] Top shape: 4 64 96 128 (3145728)
I1013 17:05:32.375216  8042 net.cpp:139] Memory required for data: 946897552
I1013 17:05:32.375222  8042 layer_factory.hpp:77] Creating layer scale2b_branch2b
I1013 17:05:32.375244  8042 net.cpp:86] Creating Layer scale2b_branch2b
I1013 17:05:32.375250  8042 net.cpp:408] scale2b_branch2b <- res2b_branch2b
I1013 17:05:32.375272  8042 net.cpp:369] scale2b_branch2b -> res2b_branch2b (in-place)
I1013 17:05:32.375320  8042 layer_factory.hpp:77] Creating layer scale2b_branch2b
I1013 17:05:32.375483  8042 net.cpp:124] Setting up scale2b_branch2b
I1013 17:05:32.375492  8042 net.cpp:131] Top shape: 4 64 96 128 (3145728)
I1013 17:05:32.375495  8042 net.cpp:139] Memory required for data: 959480464
I1013 17:05:32.375500  8042 layer_factory.hpp:77] Creating layer res2b_branch2b_relu
I1013 17:05:32.375509  8042 net.cpp:86] Creating Layer res2b_branch2b_relu
I1013 17:05:32.375514  8042 net.cpp:408] res2b_branch2b_relu <- res2b_branch2b
I1013 17:05:32.375520  8042 net.cpp:369] res2b_branch2b_relu -> res2b_branch2b (in-place)
I1013 17:05:32.376179  8042 net.cpp:124] Setting up res2b_branch2b_relu
I1013 17:05:32.376194  8042 net.cpp:131] Top shape: 4 64 96 128 (3145728)
I1013 17:05:32.376196  8042 net.cpp:139] Memory required for data: 972063376
I1013 17:05:32.376201  8042 layer_factory.hpp:77] Creating layer res2b_branch2c
I1013 17:05:32.376211  8042 net.cpp:86] Creating Layer res2b_branch2c
I1013 17:05:32.376216  8042 net.cpp:408] res2b_branch2c <- res2b_branch2b
I1013 17:05:32.376224  8042 net.cpp:382] res2b_branch2c -> res2b_branch2c
I1013 17:05:32.377426  8042 net.cpp:124] Setting up res2b_branch2c
I1013 17:05:32.377440  8042 net.cpp:131] Top shape: 4 256 96 128 (12582912)
I1013 17:05:32.377445  8042 net.cpp:139] Memory required for data: 1022395024
I1013 17:05:32.377451  8042 layer_factory.hpp:77] Creating layer bn2b_branch2c
I1013 17:05:32.377457  8042 net.cpp:86] Creating Layer bn2b_branch2c
I1013 17:05:32.377461  8042 net.cpp:408] bn2b_branch2c <- res2b_branch2c
I1013 17:05:32.377470  8042 net.cpp:369] bn2b_branch2c -> res2b_branch2c (in-place)
I1013 17:05:32.377712  8042 net.cpp:124] Setting up bn2b_branch2c
I1013 17:05:32.377720  8042 net.cpp:131] Top shape: 4 256 96 128 (12582912)
I1013 17:05:32.377723  8042 net.cpp:139] Memory required for data: 1072726672
I1013 17:05:32.377730  8042 layer_factory.hpp:77] Creating layer scale2b_branch2c
I1013 17:05:32.377737  8042 net.cpp:86] Creating Layer scale2b_branch2c
I1013 17:05:32.377741  8042 net.cpp:408] scale2b_branch2c <- res2b_branch2c
I1013 17:05:32.377746  8042 net.cpp:369] scale2b_branch2c -> res2b_branch2c (in-place)
I1013 17:05:32.377792  8042 layer_factory.hpp:77] Creating layer scale2b_branch2c
I1013 17:05:32.377938  8042 net.cpp:124] Setting up scale2b_branch2c
I1013 17:05:32.377948  8042 net.cpp:131] Top shape: 4 256 96 128 (12582912)
I1013 17:05:32.377950  8042 net.cpp:139] Memory required for data: 1123058320
I1013 17:05:32.377956  8042 layer_factory.hpp:77] Creating layer res2b
I1013 17:05:32.377965  8042 net.cpp:86] Creating Layer res2b
I1013 17:05:32.377970  8042 net.cpp:408] res2b <- res2a_res2a_relu_0_split_1
I1013 17:05:32.377975  8042 net.cpp:408] res2b <- res2b_branch2c
I1013 17:05:32.377981  8042 net.cpp:382] res2b -> res2b
I1013 17:05:32.378026  8042 net.cpp:124] Setting up res2b
I1013 17:05:32.378032  8042 net.cpp:131] Top shape: 4 256 96 128 (12582912)
I1013 17:05:32.378036  8042 net.cpp:139] Memory required for data: 1173389968
I1013 17:05:32.378039  8042 layer_factory.hpp:77] Creating layer res2b_relu
I1013 17:05:32.378046  8042 net.cpp:86] Creating Layer res2b_relu
I1013 17:05:32.378051  8042 net.cpp:408] res2b_relu <- res2b
I1013 17:05:32.378069  8042 net.cpp:369] res2b_relu -> res2b (in-place)
I1013 17:05:32.378309  8042 net.cpp:124] Setting up res2b_relu
I1013 17:05:32.378321  8042 net.cpp:131] Top shape: 4 256 96 128 (12582912)
I1013 17:05:32.378324  8042 net.cpp:139] Memory required for data: 1223721616
I1013 17:05:32.378327  8042 layer_factory.hpp:77] Creating layer res2b_res2b_relu_0_split
I1013 17:05:32.378336  8042 net.cpp:86] Creating Layer res2b_res2b_relu_0_split
I1013 17:05:32.378340  8042 net.cpp:408] res2b_res2b_relu_0_split <- res2b
I1013 17:05:32.378346  8042 net.cpp:382] res2b_res2b_relu_0_split -> res2b_res2b_relu_0_split_0
I1013 17:05:32.378356  8042 net.cpp:382] res2b_res2b_relu_0_split -> res2b_res2b_relu_0_split_1
I1013 17:05:32.378408  8042 net.cpp:124] Setting up res2b_res2b_relu_0_split
I1013 17:05:32.378417  8042 net.cpp:131] Top shape: 4 256 96 128 (12582912)
I1013 17:05:32.378420  8042 net.cpp:131] Top shape: 4 256 96 128 (12582912)
I1013 17:05:32.378423  8042 net.cpp:139] Memory required for data: 1324384912
I1013 17:05:32.378427  8042 layer_factory.hpp:77] Creating layer res2c_branch2a
I1013 17:05:32.378437  8042 net.cpp:86] Creating Layer res2c_branch2a
I1013 17:05:32.378442  8042 net.cpp:408] res2c_branch2a <- res2b_res2b_relu_0_split_0
I1013 17:05:32.378449  8042 net.cpp:382] res2c_branch2a -> res2c_branch2a
I1013 17:05:32.379724  8042 net.cpp:124] Setting up res2c_branch2a
I1013 17:05:32.379739  8042 net.cpp:131] Top shape: 4 64 96 128 (3145728)
I1013 17:05:32.379760  8042 net.cpp:139] Memory required for data: 1336967824
I1013 17:05:32.379766  8042 layer_factory.hpp:77] Creating layer bn2c_branch2a
I1013 17:05:32.379776  8042 net.cpp:86] Creating Layer bn2c_branch2a
I1013 17:05:32.379781  8042 net.cpp:408] bn2c_branch2a <- res2c_branch2a
I1013 17:05:32.379791  8042 net.cpp:369] bn2c_branch2a -> res2c_branch2a (in-place)
I1013 17:05:32.380029  8042 net.cpp:124] Setting up bn2c_branch2a
I1013 17:05:32.380039  8042 net.cpp:131] Top shape: 4 64 96 128 (3145728)
I1013 17:05:32.380043  8042 net.cpp:139] Memory required for data: 1349550736
I1013 17:05:32.380049  8042 layer_factory.hpp:77] Creating layer scale2c_branch2a
I1013 17:05:32.380057  8042 net.cpp:86] Creating Layer scale2c_branch2a
I1013 17:05:32.380062  8042 net.cpp:408] scale2c_branch2a <- res2c_branch2a
I1013 17:05:32.380067  8042 net.cpp:369] scale2c_branch2a -> res2c_branch2a (in-place)
I1013 17:05:32.380115  8042 layer_factory.hpp:77] Creating layer scale2c_branch2a
I1013 17:05:32.380272  8042 net.cpp:124] Setting up scale2c_branch2a
I1013 17:05:32.380282  8042 net.cpp:131] Top shape: 4 64 96 128 (3145728)
I1013 17:05:32.380285  8042 net.cpp:139] Memory required for data: 1362133648
I1013 17:05:32.380290  8042 layer_factory.hpp:77] Creating layer res2c_branch2a_relu
I1013 17:05:32.380298  8042 net.cpp:86] Creating Layer res2c_branch2a_relu
I1013 17:05:32.380303  8042 net.cpp:408] res2c_branch2a_relu <- res2c_branch2a
I1013 17:05:32.380311  8042 net.cpp:369] res2c_branch2a_relu -> res2c_branch2a (in-place)
I1013 17:05:32.380522  8042 net.cpp:124] Setting up res2c_branch2a_relu
I1013 17:05:32.380532  8042 net.cpp:131] Top shape: 4 64 96 128 (3145728)
I1013 17:05:32.380537  8042 net.cpp:139] Memory required for data: 1374716560
I1013 17:05:32.380540  8042 layer_factory.hpp:77] Creating layer res2c_branch2b
I1013 17:05:32.380551  8042 net.cpp:86] Creating Layer res2c_branch2b
I1013 17:05:32.380555  8042 net.cpp:408] res2c_branch2b <- res2c_branch2a
I1013 17:05:32.380563  8042 net.cpp:382] res2c_branch2b -> res2c_branch2b
I1013 17:05:32.381824  8042 net.cpp:124] Setting up res2c_branch2b
I1013 17:05:32.381837  8042 net.cpp:131] Top shape: 4 64 96 128 (3145728)
I1013 17:05:32.381857  8042 net.cpp:139] Memory required for data: 1387299472
I1013 17:05:32.381863  8042 layer_factory.hpp:77] Creating layer bn2c_branch2b
I1013 17:05:32.381870  8042 net.cpp:86] Creating Layer bn2c_branch2b
I1013 17:05:32.381875  8042 net.cpp:408] bn2c_branch2b <- res2c_branch2b
I1013 17:05:32.381886  8042 net.cpp:369] bn2c_branch2b -> res2c_branch2b (in-place)
I1013 17:05:32.382133  8042 net.cpp:124] Setting up bn2c_branch2b
I1013 17:05:32.382153  8042 net.cpp:131] Top shape: 4 64 96 128 (3145728)
I1013 17:05:32.382156  8042 net.cpp:139] Memory required for data: 1399882384
I1013 17:05:32.382164  8042 layer_factory.hpp:77] Creating layer scale2c_branch2b
I1013 17:05:32.382171  8042 net.cpp:86] Creating Layer scale2c_branch2b
I1013 17:05:32.382175  8042 net.cpp:408] scale2c_branch2b <- res2c_branch2b
I1013 17:05:32.382182  8042 net.cpp:369] scale2c_branch2b -> res2c_branch2b (in-place)
I1013 17:05:32.382233  8042 layer_factory.hpp:77] Creating layer scale2c_branch2b
I1013 17:05:32.382429  8042 net.cpp:124] Setting up scale2c_branch2b
I1013 17:05:32.382439  8042 net.cpp:131] Top shape: 4 64 96 128 (3145728)
I1013 17:05:32.382442  8042 net.cpp:139] Memory required for data: 1412465296
I1013 17:05:32.382448  8042 layer_factory.hpp:77] Creating layer res2c_branch2b_relu
I1013 17:05:32.382455  8042 net.cpp:86] Creating Layer res2c_branch2b_relu
I1013 17:05:32.382459  8042 net.cpp:408] res2c_branch2b_relu <- res2c_branch2b
I1013 17:05:32.382467  8042 net.cpp:369] res2c_branch2b_relu -> res2c_branch2b (in-place)
I1013 17:05:32.382705  8042 net.cpp:124] Setting up res2c_branch2b_relu
I1013 17:05:32.382716  8042 net.cpp:131] Top shape: 4 64 96 128 (3145728)
I1013 17:05:32.382719  8042 net.cpp:139] Memory required for data: 1425048208
I1013 17:05:32.382725  8042 layer_factory.hpp:77] Creating layer res2c_branch2c
I1013 17:05:32.382735  8042 net.cpp:86] Creating Layer res2c_branch2c
I1013 17:05:32.382740  8042 net.cpp:408] res2c_branch2c <- res2c_branch2b
I1013 17:05:32.382746  8042 net.cpp:382] res2c_branch2c -> res2c_branch2c
I1013 17:05:32.384028  8042 net.cpp:124] Setting up res2c_branch2c
I1013 17:05:32.384059  8042 net.cpp:131] Top shape: 4 256 96 128 (12582912)
I1013 17:05:32.384063  8042 net.cpp:139] Memory required for data: 1475379856
I1013 17:05:32.384069  8042 layer_factory.hpp:77] Creating layer bn2c_branch2c
I1013 17:05:32.384078  8042 net.cpp:86] Creating Layer bn2c_branch2c
I1013 17:05:32.384083  8042 net.cpp:408] bn2c_branch2c <- res2c_branch2c
I1013 17:05:32.384090  8042 net.cpp:369] bn2c_branch2c -> res2c_branch2c (in-place)
I1013 17:05:32.384327  8042 net.cpp:124] Setting up bn2c_branch2c
I1013 17:05:32.384336  8042 net.cpp:131] Top shape: 4 256 96 128 (12582912)
I1013 17:05:32.384340  8042 net.cpp:139] Memory required for data: 1525711504
I1013 17:05:32.384347  8042 layer_factory.hpp:77] Creating layer scale2c_branch2c
I1013 17:05:32.384353  8042 net.cpp:86] Creating Layer scale2c_branch2c
I1013 17:05:32.384359  8042 net.cpp:408] scale2c_branch2c <- res2c_branch2c
I1013 17:05:32.384366  8042 net.cpp:369] scale2c_branch2c -> res2c_branch2c (in-place)
I1013 17:05:32.384414  8042 layer_factory.hpp:77] Creating layer scale2c_branch2c
I1013 17:05:32.384563  8042 net.cpp:124] Setting up scale2c_branch2c
I1013 17:05:32.384572  8042 net.cpp:131] Top shape: 4 256 96 128 (12582912)
I1013 17:05:32.384582  8042 net.cpp:139] Memory required for data: 1576043152
I1013 17:05:32.384598  8042 layer_factory.hpp:77] Creating layer res2c
I1013 17:05:32.384608  8042 net.cpp:86] Creating Layer res2c
I1013 17:05:32.384613  8042 net.cpp:408] res2c <- res2b_res2b_relu_0_split_1
I1013 17:05:32.384618  8042 net.cpp:408] res2c <- res2c_branch2c
I1013 17:05:32.384624  8042 net.cpp:382] res2c -> res2c
I1013 17:05:32.384651  8042 net.cpp:124] Setting up res2c
I1013 17:05:32.384661  8042 net.cpp:131] Top shape: 4 256 96 128 (12582912)
I1013 17:05:32.384665  8042 net.cpp:139] Memory required for data: 1626374800
I1013 17:05:32.384668  8042 layer_factory.hpp:77] Creating layer res2c_relu
I1013 17:05:32.384675  8042 net.cpp:86] Creating Layer res2c_relu
I1013 17:05:32.384677  8042 net.cpp:408] res2c_relu <- res2c
I1013 17:05:32.384682  8042 net.cpp:369] res2c_relu -> res2c (in-place)
I1013 17:05:32.385263  8042 net.cpp:124] Setting up res2c_relu
I1013 17:05:32.385294  8042 net.cpp:131] Top shape: 4 256 96 128 (12582912)
I1013 17:05:32.385298  8042 net.cpp:139] Memory required for data: 1676706448
I1013 17:05:32.385301  8042 layer_factory.hpp:77] Creating layer res2c_res2c_relu_0_split
I1013 17:05:32.385320  8042 net.cpp:86] Creating Layer res2c_res2c_relu_0_split
I1013 17:05:32.385325  8042 net.cpp:408] res2c_res2c_relu_0_split <- res2c
I1013 17:05:32.385335  8042 net.cpp:382] res2c_res2c_relu_0_split -> res2c_res2c_relu_0_split_0
I1013 17:05:32.385344  8042 net.cpp:382] res2c_res2c_relu_0_split -> res2c_res2c_relu_0_split_1
I1013 17:05:32.385396  8042 net.cpp:124] Setting up res2c_res2c_relu_0_split
I1013 17:05:32.385403  8042 net.cpp:131] Top shape: 4 256 96 128 (12582912)
I1013 17:05:32.385407  8042 net.cpp:131] Top shape: 4 256 96 128 (12582912)
I1013 17:05:32.385411  8042 net.cpp:139] Memory required for data: 1777369744
I1013 17:05:32.385414  8042 layer_factory.hpp:77] Creating layer res3a_branch1
I1013 17:05:32.385426  8042 net.cpp:86] Creating Layer res3a_branch1
I1013 17:05:32.385432  8042 net.cpp:408] res3a_branch1 <- res2c_res2c_relu_0_split_0
I1013 17:05:32.385437  8042 net.cpp:382] res3a_branch1 -> res3a_branch1
I1013 17:05:32.388005  8042 net.cpp:124] Setting up res3a_branch1
I1013 17:05:32.388038  8042 net.cpp:131] Top shape: 4 512 48 64 (6291456)
I1013 17:05:32.388043  8042 net.cpp:139] Memory required for data: 1802535568
I1013 17:05:32.388051  8042 layer_factory.hpp:77] Creating layer bn3a_branch1
I1013 17:05:32.388062  8042 net.cpp:86] Creating Layer bn3a_branch1
I1013 17:05:32.388065  8042 net.cpp:408] bn3a_branch1 <- res3a_branch1
I1013 17:05:32.388073  8042 net.cpp:369] bn3a_branch1 -> res3a_branch1 (in-place)
I1013 17:05:32.389536  8042 net.cpp:124] Setting up bn3a_branch1
I1013 17:05:32.389551  8042 net.cpp:131] Top shape: 4 512 48 64 (6291456)
I1013 17:05:32.389571  8042 net.cpp:139] Memory required for data: 1827701392
I1013 17:05:32.389578  8042 layer_factory.hpp:77] Creating layer scale3a_branch1
I1013 17:05:32.389585  8042 net.cpp:86] Creating Layer scale3a_branch1
I1013 17:05:32.389590  8042 net.cpp:408] scale3a_branch1 <- res3a_branch1
I1013 17:05:32.389598  8042 net.cpp:369] scale3a_branch1 -> res3a_branch1 (in-place)
I1013 17:05:32.389644  8042 layer_factory.hpp:77] Creating layer scale3a_branch1
I1013 17:05:32.389770  8042 net.cpp:124] Setting up scale3a_branch1
I1013 17:05:32.389780  8042 net.cpp:131] Top shape: 4 512 48 64 (6291456)
I1013 17:05:32.389782  8042 net.cpp:139] Memory required for data: 1852867216
I1013 17:05:32.389787  8042 layer_factory.hpp:77] Creating layer res3a_branch2a
I1013 17:05:32.389797  8042 net.cpp:86] Creating Layer res3a_branch2a
I1013 17:05:32.389804  8042 net.cpp:408] res3a_branch2a <- res2c_res2c_relu_0_split_1
I1013 17:05:32.389814  8042 net.cpp:382] res3a_branch2a -> res3a_branch2a
I1013 17:05:32.391176  8042 net.cpp:124] Setting up res3a_branch2a
I1013 17:05:32.391207  8042 net.cpp:131] Top shape: 4 128 48 64 (1572864)
I1013 17:05:32.391211  8042 net.cpp:139] Memory required for data: 1859158672
I1013 17:05:32.391219  8042 layer_factory.hpp:77] Creating layer bn3a_branch2a
I1013 17:05:32.391230  8042 net.cpp:86] Creating Layer bn3a_branch2a
I1013 17:05:32.391235  8042 net.cpp:408] bn3a_branch2a <- res3a_branch2a
I1013 17:05:32.391243  8042 net.cpp:369] bn3a_branch2a -> res3a_branch2a (in-place)
I1013 17:05:32.391465  8042 net.cpp:124] Setting up bn3a_branch2a
I1013 17:05:32.391474  8042 net.cpp:131] Top shape: 4 128 48 64 (1572864)
I1013 17:05:32.391477  8042 net.cpp:139] Memory required for data: 1865450128
I1013 17:05:32.391484  8042 layer_factory.hpp:77] Creating layer scale3a_branch2a
I1013 17:05:32.391491  8042 net.cpp:86] Creating Layer scale3a_branch2a
I1013 17:05:32.391495  8042 net.cpp:408] scale3a_branch2a <- res3a_branch2a
I1013 17:05:32.391502  8042 net.cpp:369] scale3a_branch2a -> res3a_branch2a (in-place)
I1013 17:05:32.391549  8042 layer_factory.hpp:77] Creating layer scale3a_branch2a
I1013 17:05:32.391671  8042 net.cpp:124] Setting up scale3a_branch2a
I1013 17:05:32.391683  8042 net.cpp:131] Top shape: 4 128 48 64 (1572864)
I1013 17:05:32.391686  8042 net.cpp:139] Memory required for data: 1871741584
I1013 17:05:32.391692  8042 layer_factory.hpp:77] Creating layer res3a_branch2a_relu
I1013 17:05:32.391714  8042 net.cpp:86] Creating Layer res3a_branch2a_relu
I1013 17:05:32.391719  8042 net.cpp:408] res3a_branch2a_relu <- res3a_branch2a
I1013 17:05:32.391724  8042 net.cpp:369] res3a_branch2a_relu -> res3a_branch2a (in-place)
I1013 17:05:32.391954  8042 net.cpp:124] Setting up res3a_branch2a_relu
I1013 17:05:32.391964  8042 net.cpp:131] Top shape: 4 128 48 64 (1572864)
I1013 17:05:32.391968  8042 net.cpp:139] Memory required for data: 1878033040
I1013 17:05:32.391971  8042 layer_factory.hpp:77] Creating layer res3a_branch2b
I1013 17:05:32.391984  8042 net.cpp:86] Creating Layer res3a_branch2b
I1013 17:05:32.391988  8042 net.cpp:408] res3a_branch2b <- res3a_branch2a
I1013 17:05:32.391995  8042 net.cpp:382] res3a_branch2b -> res3a_branch2b
I1013 17:05:32.393723  8042 net.cpp:124] Setting up res3a_branch2b
I1013 17:05:32.393754  8042 net.cpp:131] Top shape: 4 128 48 64 (1572864)
I1013 17:05:32.393759  8042 net.cpp:139] Memory required for data: 1884324496
I1013 17:05:32.393764  8042 layer_factory.hpp:77] Creating layer bn3a_branch2b
I1013 17:05:32.393774  8042 net.cpp:86] Creating Layer bn3a_branch2b
I1013 17:05:32.393779  8042 net.cpp:408] bn3a_branch2b <- res3a_branch2b
I1013 17:05:32.393784  8042 net.cpp:369] bn3a_branch2b -> res3a_branch2b (in-place)
I1013 17:05:32.394014  8042 net.cpp:124] Setting up bn3a_branch2b
I1013 17:05:32.394023  8042 net.cpp:131] Top shape: 4 128 48 64 (1572864)
I1013 17:05:32.394027  8042 net.cpp:139] Memory required for data: 1890615952
I1013 17:05:32.394034  8042 layer_factory.hpp:77] Creating layer scale3a_branch2b
I1013 17:05:32.394049  8042 net.cpp:86] Creating Layer scale3a_branch2b
I1013 17:05:32.394058  8042 net.cpp:408] scale3a_branch2b <- res3a_branch2b
I1013 17:05:32.394064  8042 net.cpp:369] scale3a_branch2b -> res3a_branch2b (in-place)
I1013 17:05:32.394114  8042 layer_factory.hpp:77] Creating layer scale3a_branch2b
I1013 17:05:32.394240  8042 net.cpp:124] Setting up scale3a_branch2b
I1013 17:05:32.394249  8042 net.cpp:131] Top shape: 4 128 48 64 (1572864)
I1013 17:05:32.394253  8042 net.cpp:139] Memory required for data: 1896907408
I1013 17:05:32.394259  8042 layer_factory.hpp:77] Creating layer res3a_branch2b_relu
I1013 17:05:32.394290  8042 net.cpp:86] Creating Layer res3a_branch2b_relu
I1013 17:05:32.394295  8042 net.cpp:408] res3a_branch2b_relu <- res3a_branch2b
I1013 17:05:32.394302  8042 net.cpp:369] res3a_branch2b_relu -> res3a_branch2b (in-place)
I1013 17:05:32.394534  8042 net.cpp:124] Setting up res3a_branch2b_relu
I1013 17:05:32.394546  8042 net.cpp:131] Top shape: 4 128 48 64 (1572864)
I1013 17:05:32.394549  8042 net.cpp:139] Memory required for data: 1903198864
I1013 17:05:32.394553  8042 layer_factory.hpp:77] Creating layer res3a_branch2c
I1013 17:05:32.394567  8042 net.cpp:86] Creating Layer res3a_branch2c
I1013 17:05:32.394572  8042 net.cpp:408] res3a_branch2c <- res3a_branch2b
I1013 17:05:32.394578  8042 net.cpp:382] res3a_branch2c -> res3a_branch2c
I1013 17:05:32.396203  8042 net.cpp:124] Setting up res3a_branch2c
I1013 17:05:32.396231  8042 net.cpp:131] Top shape: 4 512 48 64 (6291456)
I1013 17:05:32.396236  8042 net.cpp:139] Memory required for data: 1928364688
I1013 17:05:32.396242  8042 layer_factory.hpp:77] Creating layer bn3a_branch2c
I1013 17:05:32.396265  8042 net.cpp:86] Creating Layer bn3a_branch2c
I1013 17:05:32.396271  8042 net.cpp:408] bn3a_branch2c <- res3a_branch2c
I1013 17:05:32.396281  8042 net.cpp:369] bn3a_branch2c -> res3a_branch2c (in-place)
I1013 17:05:32.396548  8042 net.cpp:124] Setting up bn3a_branch2c
I1013 17:05:32.396558  8042 net.cpp:131] Top shape: 4 512 48 64 (6291456)
I1013 17:05:32.396561  8042 net.cpp:139] Memory required for data: 1953530512
I1013 17:05:32.396585  8042 layer_factory.hpp:77] Creating layer scale3a_branch2c
I1013 17:05:32.396592  8042 net.cpp:86] Creating Layer scale3a_branch2c
I1013 17:05:32.396597  8042 net.cpp:408] scale3a_branch2c <- res3a_branch2c
I1013 17:05:32.396603  8042 net.cpp:369] scale3a_branch2c -> res3a_branch2c (in-place)
I1013 17:05:32.396661  8042 layer_factory.hpp:77] Creating layer scale3a_branch2c
I1013 17:05:32.396808  8042 net.cpp:124] Setting up scale3a_branch2c
I1013 17:05:32.396818  8042 net.cpp:131] Top shape: 4 512 48 64 (6291456)
I1013 17:05:32.396822  8042 net.cpp:139] Memory required for data: 1978696336
I1013 17:05:32.396827  8042 layer_factory.hpp:77] Creating layer res3a
I1013 17:05:32.396833  8042 net.cpp:86] Creating Layer res3a
I1013 17:05:32.396839  8042 net.cpp:408] res3a <- res3a_branch1
I1013 17:05:32.396844  8042 net.cpp:408] res3a <- res3a_branch2c
I1013 17:05:32.396849  8042 net.cpp:382] res3a -> res3a
I1013 17:05:32.396878  8042 net.cpp:124] Setting up res3a
I1013 17:05:32.396886  8042 net.cpp:131] Top shape: 4 512 48 64 (6291456)
I1013 17:05:32.396889  8042 net.cpp:139] Memory required for data: 2003862160
I1013 17:05:32.396894  8042 layer_factory.hpp:77] Creating layer res3a_relu
I1013 17:05:32.396903  8042 net.cpp:86] Creating Layer res3a_relu
I1013 17:05:32.396908  8042 net.cpp:408] res3a_relu <- res3a
I1013 17:05:32.396912  8042 net.cpp:369] res3a_relu -> res3a (in-place)
I1013 17:05:32.397558  8042 net.cpp:124] Setting up res3a_relu
I1013 17:05:32.397572  8042 net.cpp:131] Top shape: 4 512 48 64 (6291456)
I1013 17:05:32.397588  8042 net.cpp:139] Memory required for data: 2029027984
I1013 17:05:32.397591  8042 layer_factory.hpp:77] Creating layer res3a_res3a_relu_0_split
I1013 17:05:32.397598  8042 net.cpp:86] Creating Layer res3a_res3a_relu_0_split
I1013 17:05:32.397619  8042 net.cpp:408] res3a_res3a_relu_0_split <- res3a
I1013 17:05:32.397629  8042 net.cpp:382] res3a_res3a_relu_0_split -> res3a_res3a_relu_0_split_0
I1013 17:05:32.397639  8042 net.cpp:382] res3a_res3a_relu_0_split -> res3a_res3a_relu_0_split_1
I1013 17:05:32.397691  8042 net.cpp:124] Setting up res3a_res3a_relu_0_split
I1013 17:05:32.397699  8042 net.cpp:131] Top shape: 4 512 48 64 (6291456)
I1013 17:05:32.397704  8042 net.cpp:131] Top shape: 4 512 48 64 (6291456)
I1013 17:05:32.397708  8042 net.cpp:139] Memory required for data: 2079359632
I1013 17:05:32.397711  8042 layer_factory.hpp:77] Creating layer res3b1_branch2a
I1013 17:05:32.397723  8042 net.cpp:86] Creating Layer res3b1_branch2a
I1013 17:05:32.397732  8042 net.cpp:408] res3b1_branch2a <- res3a_res3a_relu_0_split_0
I1013 17:05:32.397737  8042 net.cpp:382] res3b1_branch2a -> res3b1_branch2a
I1013 17:05:32.399067  8042 net.cpp:124] Setting up res3b1_branch2a
I1013 17:05:32.399096  8042 net.cpp:131] Top shape: 4 128 48 64 (1572864)
I1013 17:05:32.399101  8042 net.cpp:139] Memory required for data: 2085651088
I1013 17:05:32.399107  8042 layer_factory.hpp:77] Creating layer bn3b1_branch2a
I1013 17:05:32.399116  8042 net.cpp:86] Creating Layer bn3b1_branch2a
I1013 17:05:32.399119  8042 net.cpp:408] bn3b1_branch2a <- res3b1_branch2a
I1013 17:05:32.399128  8042 net.cpp:369] bn3b1_branch2a -> res3b1_branch2a (in-place)
I1013 17:05:32.399361  8042 net.cpp:124] Setting up bn3b1_branch2a
I1013 17:05:32.399371  8042 net.cpp:131] Top shape: 4 128 48 64 (1572864)
I1013 17:05:32.399374  8042 net.cpp:139] Memory required for data: 2091942544
I1013 17:05:32.399381  8042 layer_factory.hpp:77] Creating layer scale3b1_branch2a
I1013 17:05:32.399389  8042 net.cpp:86] Creating Layer scale3b1_branch2a
I1013 17:05:32.399392  8042 net.cpp:408] scale3b1_branch2a <- res3b1_branch2a
I1013 17:05:32.399397  8042 net.cpp:369] scale3b1_branch2a -> res3b1_branch2a (in-place)
I1013 17:05:32.399446  8042 layer_factory.hpp:77] Creating layer scale3b1_branch2a
I1013 17:05:32.399572  8042 net.cpp:124] Setting up scale3b1_branch2a
I1013 17:05:32.399581  8042 net.cpp:131] Top shape: 4 128 48 64 (1572864)
I1013 17:05:32.399585  8042 net.cpp:139] Memory required for data: 2098234000
I1013 17:05:32.399590  8042 layer_factory.hpp:77] Creating layer res3b1_branch2a_relu
I1013 17:05:32.399596  8042 net.cpp:86] Creating Layer res3b1_branch2a_relu
I1013 17:05:32.399600  8042 net.cpp:408] res3b1_branch2a_relu <- res3b1_branch2a
I1013 17:05:32.399607  8042 net.cpp:369] res3b1_branch2a_relu -> res3b1_branch2a (in-place)
I1013 17:05:32.399848  8042 net.cpp:124] Setting up res3b1_branch2a_relu
I1013 17:05:32.399871  8042 net.cpp:131] Top shape: 4 128 48 64 (1572864)
I1013 17:05:32.399875  8042 net.cpp:139] Memory required for data: 2104525456
I1013 17:05:32.399878  8042 layer_factory.hpp:77] Creating layer res3b1_branch2b
I1013 17:05:32.399893  8042 net.cpp:86] Creating Layer res3b1_branch2b
I1013 17:05:32.399896  8042 net.cpp:408] res3b1_branch2b <- res3b1_branch2a
I1013 17:05:32.399904  8042 net.cpp:382] res3b1_branch2b -> res3b1_branch2b
I1013 17:05:32.401675  8042 net.cpp:124] Setting up res3b1_branch2b
I1013 17:05:32.401691  8042 net.cpp:131] Top shape: 4 128 48 64 (1572864)
I1013 17:05:32.401710  8042 net.cpp:139] Memory required for data: 2110816912
I1013 17:05:32.401716  8042 layer_factory.hpp:77] Creating layer bn3b1_branch2b
I1013 17:05:32.401726  8042 net.cpp:86] Creating Layer bn3b1_branch2b
I1013 17:05:32.401731  8042 net.cpp:408] bn3b1_branch2b <- res3b1_branch2b
I1013 17:05:32.401738  8042 net.cpp:369] bn3b1_branch2b -> res3b1_branch2b (in-place)
I1013 17:05:32.401984  8042 net.cpp:124] Setting up bn3b1_branch2b
I1013 17:05:32.401994  8042 net.cpp:131] Top shape: 4 128 48 64 (1572864)
I1013 17:05:32.401998  8042 net.cpp:139] Memory required for data: 2117108368
I1013 17:05:32.402005  8042 layer_factory.hpp:77] Creating layer scale3b1_branch2b
I1013 17:05:32.402012  8042 net.cpp:86] Creating Layer scale3b1_branch2b
I1013 17:05:32.402016  8042 net.cpp:408] scale3b1_branch2b <- res3b1_branch2b
I1013 17:05:32.402022  8042 net.cpp:369] scale3b1_branch2b -> res3b1_branch2b (in-place)
I1013 17:05:32.402076  8042 layer_factory.hpp:77] Creating layer scale3b1_branch2b
I1013 17:05:32.402205  8042 net.cpp:124] Setting up scale3b1_branch2b
I1013 17:05:32.402215  8042 net.cpp:131] Top shape: 4 128 48 64 (1572864)
I1013 17:05:32.402218  8042 net.cpp:139] Memory required for data: 2123399824
I1013 17:05:32.402223  8042 layer_factory.hpp:77] Creating layer res3b1_branch2b_relu
I1013 17:05:32.402231  8042 net.cpp:86] Creating Layer res3b1_branch2b_relu
I1013 17:05:32.402235  8042 net.cpp:408] res3b1_branch2b_relu <- res3b1_branch2b
I1013 17:05:32.402241  8042 net.cpp:369] res3b1_branch2b_relu -> res3b1_branch2b (in-place)
I1013 17:05:32.402477  8042 net.cpp:124] Setting up res3b1_branch2b_relu
I1013 17:05:32.402489  8042 net.cpp:131] Top shape: 4 128 48 64 (1572864)
I1013 17:05:32.402493  8042 net.cpp:139] Memory required for data: 2129691280
I1013 17:05:32.402498  8042 layer_factory.hpp:77] Creating layer res3b1_branch2c
I1013 17:05:32.402509  8042 net.cpp:86] Creating Layer res3b1_branch2c
I1013 17:05:32.402513  8042 net.cpp:408] res3b1_branch2c <- res3b1_branch2b
I1013 17:05:32.402523  8042 net.cpp:382] res3b1_branch2c -> res3b1_branch2c
I1013 17:05:32.403880  8042 net.cpp:124] Setting up res3b1_branch2c
I1013 17:05:32.403897  8042 net.cpp:131] Top shape: 4 512 48 64 (6291456)
I1013 17:05:32.403914  8042 net.cpp:139] Memory required for data: 2154857104
I1013 17:05:32.403919  8042 layer_factory.hpp:77] Creating layer bn3b1_branch2c
I1013 17:05:32.403930  8042 net.cpp:86] Creating Layer bn3b1_branch2c
I1013 17:05:32.403934  8042 net.cpp:408] bn3b1_branch2c <- res3b1_branch2c
I1013 17:05:32.403942  8042 net.cpp:369] bn3b1_branch2c -> res3b1_branch2c (in-place)
I1013 17:05:32.404187  8042 net.cpp:124] Setting up bn3b1_branch2c
I1013 17:05:32.404197  8042 net.cpp:131] Top shape: 4 512 48 64 (6291456)
I1013 17:05:32.404201  8042 net.cpp:139] Memory required for data: 2180022928
I1013 17:05:32.404207  8042 layer_factory.hpp:77] Creating layer scale3b1_branch2c
I1013 17:05:32.404214  8042 net.cpp:86] Creating Layer scale3b1_branch2c
I1013 17:05:32.404219  8042 net.cpp:408] scale3b1_branch2c <- res3b1_branch2c
I1013 17:05:32.404224  8042 net.cpp:369] scale3b1_branch2c -> res3b1_branch2c (in-place)
I1013 17:05:32.404268  8042 layer_factory.hpp:77] Creating layer scale3b1_branch2c
I1013 17:05:32.404402  8042 net.cpp:124] Setting up scale3b1_branch2c
I1013 17:05:32.404412  8042 net.cpp:131] Top shape: 4 512 48 64 (6291456)
I1013 17:05:32.404414  8042 net.cpp:139] Memory required for data: 2205188752
I1013 17:05:32.404433  8042 layer_factory.hpp:77] Creating layer res3b1
I1013 17:05:32.404441  8042 net.cpp:86] Creating Layer res3b1
I1013 17:05:32.404446  8042 net.cpp:408] res3b1 <- res3a_res3a_relu_0_split_1
I1013 17:05:32.404453  8042 net.cpp:408] res3b1 <- res3b1_branch2c
I1013 17:05:32.404458  8042 net.cpp:382] res3b1 -> res3b1
I1013 17:05:32.404489  8042 net.cpp:124] Setting up res3b1
I1013 17:05:32.404497  8042 net.cpp:131] Top shape: 4 512 48 64 (6291456)
I1013 17:05:32.404501  8042 net.cpp:139] Memory required for data: 2230354576
I1013 17:05:32.404506  8042 layer_factory.hpp:77] Creating layer res3b1_relu
I1013 17:05:32.404512  8042 net.cpp:86] Creating Layer res3b1_relu
I1013 17:05:32.404516  8042 net.cpp:408] res3b1_relu <- res3b1
I1013 17:05:32.404525  8042 net.cpp:369] res3b1_relu -> res3b1 (in-place)
I1013 17:05:32.405146  8042 net.cpp:124] Setting up res3b1_relu
I1013 17:05:32.405177  8042 net.cpp:131] Top shape: 4 512 48 64 (6291456)
I1013 17:05:32.405182  8042 net.cpp:139] Memory required for data: 2255520400
I1013 17:05:32.405186  8042 layer_factory.hpp:77] Creating layer res3b1_res3b1_relu_0_split
I1013 17:05:32.405192  8042 net.cpp:86] Creating Layer res3b1_res3b1_relu_0_split
I1013 17:05:32.405197  8042 net.cpp:408] res3b1_res3b1_relu_0_split <- res3b1
I1013 17:05:32.405205  8042 net.cpp:382] res3b1_res3b1_relu_0_split -> res3b1_res3b1_relu_0_split_0
I1013 17:05:32.405215  8042 net.cpp:382] res3b1_res3b1_relu_0_split -> res3b1_res3b1_relu_0_split_1
I1013 17:05:32.405272  8042 net.cpp:124] Setting up res3b1_res3b1_relu_0_split
I1013 17:05:32.405279  8042 net.cpp:131] Top shape: 4 512 48 64 (6291456)
I1013 17:05:32.405284  8042 net.cpp:131] Top shape: 4 512 48 64 (6291456)
I1013 17:05:32.405288  8042 net.cpp:139] Memory required for data: 2305852048
I1013 17:05:32.405292  8042 layer_factory.hpp:77] Creating layer res3b2_branch2a
I1013 17:05:32.405303  8042 net.cpp:86] Creating Layer res3b2_branch2a
I1013 17:05:32.405308  8042 net.cpp:408] res3b2_branch2a <- res3b1_res3b1_relu_0_split_0
I1013 17:05:32.405315  8042 net.cpp:382] res3b2_branch2a -> res3b2_branch2a
I1013 17:05:32.407918  8042 net.cpp:124] Setting up res3b2_branch2a
I1013 17:05:32.407951  8042 net.cpp:131] Top shape: 4 128 48 64 (1572864)
I1013 17:05:32.407956  8042 net.cpp:139] Memory required for data: 2312143504
I1013 17:05:32.407964  8042 layer_factory.hpp:77] Creating layer bn3b2_branch2a
I1013 17:05:32.407972  8042 net.cpp:86] Creating Layer bn3b2_branch2a
I1013 17:05:32.407977  8042 net.cpp:408] bn3b2_branch2a <- res3b2_branch2a
I1013 17:05:32.407986  8042 net.cpp:369] bn3b2_branch2a -> res3b2_branch2a (in-place)
I1013 17:05:32.408226  8042 net.cpp:124] Setting up bn3b2_branch2a
I1013 17:05:32.408236  8042 net.cpp:131] Top shape: 4 128 48 64 (1572864)
I1013 17:05:32.408239  8042 net.cpp:139] Memory required for data: 2318434960
I1013 17:05:32.408247  8042 layer_factory.hpp:77] Creating layer scale3b2_branch2a
I1013 17:05:32.408257  8042 net.cpp:86] Creating Layer scale3b2_branch2a
I1013 17:05:32.408262  8042 net.cpp:408] scale3b2_branch2a <- res3b2_branch2a
I1013 17:05:32.408267  8042 net.cpp:369] scale3b2_branch2a -> res3b2_branch2a (in-place)
I1013 17:05:32.408318  8042 layer_factory.hpp:77] Creating layer scale3b2_branch2a
I1013 17:05:32.408466  8042 net.cpp:124] Setting up scale3b2_branch2a
I1013 17:05:32.408476  8042 net.cpp:131] Top shape: 4 128 48 64 (1572864)
I1013 17:05:32.408479  8042 net.cpp:139] Memory required for data: 2324726416
I1013 17:05:32.408486  8042 layer_factory.hpp:77] Creating layer res3b2_branch2a_relu
I1013 17:05:32.408491  8042 net.cpp:86] Creating Layer res3b2_branch2a_relu
I1013 17:05:32.408495  8042 net.cpp:408] res3b2_branch2a_relu <- res3b2_branch2a
I1013 17:05:32.408501  8042 net.cpp:369] res3b2_branch2a_relu -> res3b2_branch2a (in-place)
I1013 17:05:32.408737  8042 net.cpp:124] Setting up res3b2_branch2a_relu
I1013 17:05:32.408748  8042 net.cpp:131] Top shape: 4 128 48 64 (1572864)
I1013 17:05:32.408751  8042 net.cpp:139] Memory required for data: 2331017872
I1013 17:05:32.408756  8042 layer_factory.hpp:77] Creating layer res3b2_branch2b
I1013 17:05:32.408783  8042 net.cpp:86] Creating Layer res3b2_branch2b
I1013 17:05:32.408788  8042 net.cpp:408] res3b2_branch2b <- res3b2_branch2a
I1013 17:05:32.408797  8042 net.cpp:382] res3b2_branch2b -> res3b2_branch2b
I1013 17:05:32.411821  8042 net.cpp:124] Setting up res3b2_branch2b
I1013 17:05:32.411851  8042 net.cpp:131] Top shape: 4 128 48 64 (1572864)
I1013 17:05:32.411855  8042 net.cpp:139] Memory required for data: 2337309328
I1013 17:05:32.411861  8042 layer_factory.hpp:77] Creating layer bn3b2_branch2b
I1013 17:05:32.411869  8042 net.cpp:86] Creating Layer bn3b2_branch2b
I1013 17:05:32.411875  8042 net.cpp:408] bn3b2_branch2b <- res3b2_branch2b
I1013 17:05:32.411883  8042 net.cpp:369] bn3b2_branch2b -> res3b2_branch2b (in-place)
I1013 17:05:32.412153  8042 net.cpp:124] Setting up bn3b2_branch2b
I1013 17:05:32.412163  8042 net.cpp:131] Top shape: 4 128 48 64 (1572864)
I1013 17:05:32.412168  8042 net.cpp:139] Memory required for data: 2343600784
I1013 17:05:32.412174  8042 layer_factory.hpp:77] Creating layer scale3b2_branch2b
I1013 17:05:32.412181  8042 net.cpp:86] Creating Layer scale3b2_branch2b
I1013 17:05:32.412185  8042 net.cpp:408] scale3b2_branch2b <- res3b2_branch2b
I1013 17:05:32.412191  8042 net.cpp:369] scale3b2_branch2b -> res3b2_branch2b (in-place)
I1013 17:05:32.412261  8042 layer_factory.hpp:77] Creating layer scale3b2_branch2b
I1013 17:05:32.412392  8042 net.cpp:124] Setting up scale3b2_branch2b
I1013 17:05:32.412401  8042 net.cpp:131] Top shape: 4 128 48 64 (1572864)
I1013 17:05:32.412405  8042 net.cpp:139] Memory required for data: 2349892240
I1013 17:05:32.412410  8042 layer_factory.hpp:77] Creating layer res3b2_branch2b_relu
I1013 17:05:32.412418  8042 net.cpp:86] Creating Layer res3b2_branch2b_relu
I1013 17:05:32.412422  8042 net.cpp:408] res3b2_branch2b_relu <- res3b2_branch2b
I1013 17:05:32.412428  8042 net.cpp:369] res3b2_branch2b_relu -> res3b2_branch2b (in-place)
I1013 17:05:32.412680  8042 net.cpp:124] Setting up res3b2_branch2b_relu
I1013 17:05:32.412691  8042 net.cpp:131] Top shape: 4 128 48 64 (1572864)
I1013 17:05:32.412695  8042 net.cpp:139] Memory required for data: 2356183696
I1013 17:05:32.412701  8042 layer_factory.hpp:77] Creating layer res3b2_branch2c
I1013 17:05:32.412712  8042 net.cpp:86] Creating Layer res3b2_branch2c
I1013 17:05:32.412716  8042 net.cpp:408] res3b2_branch2c <- res3b2_branch2b
I1013 17:05:32.412724  8042 net.cpp:382] res3b2_branch2c -> res3b2_branch2c
I1013 17:05:32.414080  8042 net.cpp:124] Setting up res3b2_branch2c
I1013 17:05:32.414095  8042 net.cpp:131] Top shape: 4 512 48 64 (6291456)
I1013 17:05:32.414110  8042 net.cpp:139] Memory required for data: 2381349520
I1013 17:05:32.414116  8042 layer_factory.hpp:77] Creating layer bn3b2_branch2c
I1013 17:05:32.414140  8042 net.cpp:86] Creating Layer bn3b2_branch2c
I1013 17:05:32.414145  8042 net.cpp:408] bn3b2_branch2c <- res3b2_branch2c
I1013 17:05:32.414153  8042 net.cpp:369] bn3b2_branch2c -> res3b2_branch2c (in-place)
I1013 17:05:32.414417  8042 net.cpp:124] Setting up bn3b2_branch2c
I1013 17:05:32.414427  8042 net.cpp:131] Top shape: 4 512 48 64 (6291456)
I1013 17:05:32.414430  8042 net.cpp:139] Memory required for data: 2406515344
I1013 17:05:32.414438  8042 layer_factory.hpp:77] Creating layer scale3b2_branch2c
I1013 17:05:32.414469  8042 net.cpp:86] Creating Layer scale3b2_branch2c
I1013 17:05:32.414474  8042 net.cpp:408] scale3b2_branch2c <- res3b2_branch2c
I1013 17:05:32.414499  8042 net.cpp:369] scale3b2_branch2c -> res3b2_branch2c (in-place)
I1013 17:05:32.414544  8042 layer_factory.hpp:77] Creating layer scale3b2_branch2c
I1013 17:05:32.414680  8042 net.cpp:124] Setting up scale3b2_branch2c
I1013 17:05:32.414690  8042 net.cpp:131] Top shape: 4 512 48 64 (6291456)
I1013 17:05:32.414693  8042 net.cpp:139] Memory required for data: 2431681168
I1013 17:05:32.414700  8042 layer_factory.hpp:77] Creating layer res3b2
I1013 17:05:32.414707  8042 net.cpp:86] Creating Layer res3b2
I1013 17:05:32.414712  8042 net.cpp:408] res3b2 <- res3b1_res3b1_relu_0_split_1
I1013 17:05:32.414731  8042 net.cpp:408] res3b2 <- res3b2_branch2c
I1013 17:05:32.414738  8042 net.cpp:382] res3b2 -> res3b2
I1013 17:05:32.414769  8042 net.cpp:124] Setting up res3b2
I1013 17:05:32.414777  8042 net.cpp:131] Top shape: 4 512 48 64 (6291456)
I1013 17:05:32.414782  8042 net.cpp:139] Memory required for data: 2456846992
I1013 17:05:32.414784  8042 layer_factory.hpp:77] Creating layer res3b2_relu
I1013 17:05:32.414793  8042 net.cpp:86] Creating Layer res3b2_relu
I1013 17:05:32.414798  8042 net.cpp:408] res3b2_relu <- res3b2
I1013 17:05:32.414803  8042 net.cpp:369] res3b2_relu -> res3b2 (in-place)
I1013 17:05:32.415040  8042 net.cpp:124] Setting up res3b2_relu
I1013 17:05:32.415050  8042 net.cpp:131] Top shape: 4 512 48 64 (6291456)
I1013 17:05:32.415053  8042 net.cpp:139] Memory required for data: 2482012816
I1013 17:05:32.415056  8042 layer_factory.hpp:77] Creating layer res3b2_res3b2_relu_0_split
I1013 17:05:32.415062  8042 net.cpp:86] Creating Layer res3b2_res3b2_relu_0_split
I1013 17:05:32.415066  8042 net.cpp:408] res3b2_res3b2_relu_0_split <- res3b2
I1013 17:05:32.415076  8042 net.cpp:382] res3b2_res3b2_relu_0_split -> res3b2_res3b2_relu_0_split_0
I1013 17:05:32.415083  8042 net.cpp:382] res3b2_res3b2_relu_0_split -> res3b2_res3b2_relu_0_split_1
I1013 17:05:32.415136  8042 net.cpp:124] Setting up res3b2_res3b2_relu_0_split
I1013 17:05:32.415143  8042 net.cpp:131] Top shape: 4 512 48 64 (6291456)
I1013 17:05:32.415148  8042 net.cpp:131] Top shape: 4 512 48 64 (6291456)
I1013 17:05:32.415151  8042 net.cpp:139] Memory required for data: 2532344464
I1013 17:05:32.415155  8042 layer_factory.hpp:77] Creating layer res3b3_branch2a
I1013 17:05:32.415165  8042 net.cpp:86] Creating Layer res3b3_branch2a
I1013 17:05:32.415170  8042 net.cpp:408] res3b3_branch2a <- res3b2_res3b2_relu_0_split_0
I1013 17:05:32.415176  8042 net.cpp:382] res3b3_branch2a -> res3b3_branch2a
I1013 17:05:32.416527  8042 net.cpp:124] Setting up res3b3_branch2a
I1013 17:05:32.416561  8042 net.cpp:131] Top shape: 4 128 48 64 (1572864)
I1013 17:05:32.416566  8042 net.cpp:139] Memory required for data: 2538635920
I1013 17:05:32.416574  8042 layer_factory.hpp:77] Creating layer bn3b3_branch2a
I1013 17:05:32.416581  8042 net.cpp:86] Creating Layer bn3b3_branch2a
I1013 17:05:32.416589  8042 net.cpp:408] bn3b3_branch2a <- res3b3_branch2a
I1013 17:05:32.416595  8042 net.cpp:369] bn3b3_branch2a -> res3b3_branch2a (in-place)
I1013 17:05:32.416832  8042 net.cpp:124] Setting up bn3b3_branch2a
I1013 17:05:32.416841  8042 net.cpp:131] Top shape: 4 128 48 64 (1572864)
I1013 17:05:32.416846  8042 net.cpp:139] Memory required for data: 2544927376
I1013 17:05:32.416867  8042 layer_factory.hpp:77] Creating layer scale3b3_branch2a
I1013 17:05:32.416879  8042 net.cpp:86] Creating Layer scale3b3_branch2a
I1013 17:05:32.416883  8042 net.cpp:408] scale3b3_branch2a <- res3b3_branch2a
I1013 17:05:32.416889  8042 net.cpp:369] scale3b3_branch2a -> res3b3_branch2a (in-place)
I1013 17:05:32.416941  8042 layer_factory.hpp:77] Creating layer scale3b3_branch2a
I1013 17:05:32.417073  8042 net.cpp:124] Setting up scale3b3_branch2a
I1013 17:05:32.417083  8042 net.cpp:131] Top shape: 4 128 48 64 (1572864)
I1013 17:05:32.417085  8042 net.cpp:139] Memory required for data: 2551218832
I1013 17:05:32.417091  8042 layer_factory.hpp:77] Creating layer res3b3_branch2a_relu
I1013 17:05:32.417098  8042 net.cpp:86] Creating Layer res3b3_branch2a_relu
I1013 17:05:32.417101  8042 net.cpp:408] res3b3_branch2a_relu <- res3b3_branch2a
I1013 17:05:32.417109  8042 net.cpp:369] res3b3_branch2a_relu -> res3b3_branch2a (in-place)
I1013 17:05:32.417732  8042 net.cpp:124] Setting up res3b3_branch2a_relu
I1013 17:05:32.417747  8042 net.cpp:131] Top shape: 4 128 48 64 (1572864)
I1013 17:05:32.417762  8042 net.cpp:139] Memory required for data: 2557510288
I1013 17:05:32.417764  8042 layer_factory.hpp:77] Creating layer res3b3_branch2b
I1013 17:05:32.417791  8042 net.cpp:86] Creating Layer res3b3_branch2b
I1013 17:05:32.417796  8042 net.cpp:408] res3b3_branch2b <- res3b3_branch2a
I1013 17:05:32.417819  8042 net.cpp:382] res3b3_branch2b -> res3b3_branch2b
I1013 17:05:32.419584  8042 net.cpp:124] Setting up res3b3_branch2b
I1013 17:05:32.419611  8042 net.cpp:131] Top shape: 4 128 48 64 (1572864)
I1013 17:05:32.419615  8042 net.cpp:139] Memory required for data: 2563801744
I1013 17:05:32.419623  8042 layer_factory.hpp:77] Creating layer bn3b3_branch2b
I1013 17:05:32.419648  8042 net.cpp:86] Creating Layer bn3b3_branch2b
I1013 17:05:32.419656  8042 net.cpp:408] bn3b3_branch2b <- res3b3_branch2b
I1013 17:05:32.419664  8042 net.cpp:369] bn3b3_branch2b -> res3b3_branch2b (in-place)
I1013 17:05:32.419914  8042 net.cpp:124] Setting up bn3b3_branch2b
I1013 17:05:32.419922  8042 net.cpp:131] Top shape: 4 128 48 64 (1572864)
I1013 17:05:32.419926  8042 net.cpp:139] Memory required for data: 2570093200
I1013 17:05:32.419934  8042 layer_factory.hpp:77] Creating layer scale3b3_branch2b
I1013 17:05:32.419939  8042 net.cpp:86] Creating Layer scale3b3_branch2b
I1013 17:05:32.419963  8042 net.cpp:408] scale3b3_branch2b <- res3b3_branch2b
I1013 17:05:32.419971  8042 net.cpp:369] scale3b3_branch2b -> res3b3_branch2b (in-place)
I1013 17:05:32.420037  8042 layer_factory.hpp:77] Creating layer scale3b3_branch2b
I1013 17:05:32.420173  8042 net.cpp:124] Setting up scale3b3_branch2b
I1013 17:05:32.420184  8042 net.cpp:131] Top shape: 4 128 48 64 (1572864)
I1013 17:05:32.420188  8042 net.cpp:139] Memory required for data: 2576384656
I1013 17:05:32.420193  8042 layer_factory.hpp:77] Creating layer res3b3_branch2b_relu
I1013 17:05:32.420199  8042 net.cpp:86] Creating Layer res3b3_branch2b_relu
I1013 17:05:32.420204  8042 net.cpp:408] res3b3_branch2b_relu <- res3b3_branch2b
I1013 17:05:32.420210  8042 net.cpp:369] res3b3_branch2b_relu -> res3b3_branch2b (in-place)
I1013 17:05:32.420454  8042 net.cpp:124] Setting up res3b3_branch2b_relu
I1013 17:05:32.420466  8042 net.cpp:131] Top shape: 4 128 48 64 (1572864)
I1013 17:05:32.420469  8042 net.cpp:139] Memory required for data: 2582676112
I1013 17:05:32.420475  8042 layer_factory.hpp:77] Creating layer res3b3_branch2c
I1013 17:05:32.420485  8042 net.cpp:86] Creating Layer res3b3_branch2c
I1013 17:05:32.420488  8042 net.cpp:408] res3b3_branch2c <- res3b3_branch2b
I1013 17:05:32.420514  8042 net.cpp:382] res3b3_branch2c -> res3b3_branch2c
I1013 17:05:32.421871  8042 net.cpp:124] Setting up res3b3_branch2c
I1013 17:05:32.421888  8042 net.cpp:131] Top shape: 4 512 48 64 (6291456)
I1013 17:05:32.421905  8042 net.cpp:139] Memory required for data: 2607841936
I1013 17:05:32.421910  8042 layer_factory.hpp:77] Creating layer bn3b3_branch2c
I1013 17:05:32.421917  8042 net.cpp:86] Creating Layer bn3b3_branch2c
I1013 17:05:32.421922  8042 net.cpp:408] bn3b3_branch2c <- res3b3_branch2c
I1013 17:05:32.421931  8042 net.cpp:369] bn3b3_branch2c -> res3b3_branch2c (in-place)
I1013 17:05:32.422163  8042 net.cpp:124] Setting up bn3b3_branch2c
I1013 17:05:32.422171  8042 net.cpp:131] Top shape: 4 512 48 64 (6291456)
I1013 17:05:32.422175  8042 net.cpp:139] Memory required for data: 2633007760
I1013 17:05:32.422181  8042 layer_factory.hpp:77] Creating layer scale3b3_branch2c
I1013 17:05:32.422190  8042 net.cpp:86] Creating Layer scale3b3_branch2c
I1013 17:05:32.422197  8042 net.cpp:408] scale3b3_branch2c <- res3b3_branch2c
I1013 17:05:32.422202  8042 net.cpp:369] scale3b3_branch2c -> res3b3_branch2c (in-place)
I1013 17:05:32.422247  8042 layer_factory.hpp:77] Creating layer scale3b3_branch2c
I1013 17:05:32.422420  8042 net.cpp:124] Setting up scale3b3_branch2c
I1013 17:05:32.422431  8042 net.cpp:131] Top shape: 4 512 48 64 (6291456)
I1013 17:05:32.422435  8042 net.cpp:139] Memory required for data: 2658173584
I1013 17:05:32.422439  8042 layer_factory.hpp:77] Creating layer res3b3
I1013 17:05:32.422448  8042 net.cpp:86] Creating Layer res3b3
I1013 17:05:32.422453  8042 net.cpp:408] res3b3 <- res3b2_res3b2_relu_0_split_1
I1013 17:05:32.422458  8042 net.cpp:408] res3b3 <- res3b3_branch2c
I1013 17:05:32.422463  8042 net.cpp:382] res3b3 -> res3b3
I1013 17:05:32.422494  8042 net.cpp:124] Setting up res3b3
I1013 17:05:32.422516  8042 net.cpp:131] Top shape: 4 512 48 64 (6291456)
I1013 17:05:32.422519  8042 net.cpp:139] Memory required for data: 2683339408
I1013 17:05:32.422523  8042 layer_factory.hpp:77] Creating layer res3b3_relu
I1013 17:05:32.422531  8042 net.cpp:86] Creating Layer res3b3_relu
I1013 17:05:32.422536  8042 net.cpp:408] res3b3_relu <- res3b3
I1013 17:05:32.422541  8042 net.cpp:369] res3b3_relu -> res3b3 (in-place)
I1013 17:05:32.422785  8042 net.cpp:124] Setting up res3b3_relu
I1013 17:05:32.422796  8042 net.cpp:131] Top shape: 4 512 48 64 (6291456)
I1013 17:05:32.422799  8042 net.cpp:139] Memory required for data: 2708505232
I1013 17:05:32.422803  8042 layer_factory.hpp:77] Creating layer res3b3_res3b3_relu_0_split
I1013 17:05:32.422809  8042 net.cpp:86] Creating Layer res3b3_res3b3_relu_0_split
I1013 17:05:32.422813  8042 net.cpp:408] res3b3_res3b3_relu_0_split <- res3b3
I1013 17:05:32.422821  8042 net.cpp:382] res3b3_res3b3_relu_0_split -> res3b3_res3b3_relu_0_split_0
I1013 17:05:32.422829  8042 net.cpp:382] res3b3_res3b3_relu_0_split -> res3b3_res3b3_relu_0_split_1
I1013 17:05:32.422879  8042 net.cpp:124] Setting up res3b3_res3b3_relu_0_split
I1013 17:05:32.422888  8042 net.cpp:131] Top shape: 4 512 48 64 (6291456)
I1013 17:05:32.422893  8042 net.cpp:131] Top shape: 4 512 48 64 (6291456)
I1013 17:05:32.422895  8042 net.cpp:139] Memory required for data: 2758836880
I1013 17:05:32.422899  8042 layer_factory.hpp:77] Creating layer res4a_branch1
I1013 17:05:32.422912  8042 net.cpp:86] Creating Layer res4a_branch1
I1013 17:05:32.422916  8042 net.cpp:408] res4a_branch1 <- res3b3_res3b3_relu_0_split_0
I1013 17:05:32.422922  8042 net.cpp:382] res4a_branch1 -> res4a_branch1
I1013 17:05:32.426147  8042 net.cpp:124] Setting up res4a_branch1
I1013 17:05:32.426174  8042 net.cpp:131] Top shape: 4 1024 24 32 (3145728)
I1013 17:05:32.426179  8042 net.cpp:139] Memory required for data: 2771419792
I1013 17:05:32.426187  8042 layer_factory.hpp:77] Creating layer bn4a_branch1
I1013 17:05:32.426194  8042 net.cpp:86] Creating Layer bn4a_branch1
I1013 17:05:32.426199  8042 net.cpp:408] bn4a_branch1 <- res4a_branch1
I1013 17:05:32.426208  8042 net.cpp:369] bn4a_branch1 -> res4a_branch1 (in-place)
I1013 17:05:32.426460  8042 net.cpp:124] Setting up bn4a_branch1
I1013 17:05:32.426470  8042 net.cpp:131] Top shape: 4 1024 24 32 (3145728)
I1013 17:05:32.426473  8042 net.cpp:139] Memory required for data: 2784002704
I1013 17:05:32.426481  8042 layer_factory.hpp:77] Creating layer scale4a_branch1
I1013 17:05:32.426486  8042 net.cpp:86] Creating Layer scale4a_branch1
I1013 17:05:32.426491  8042 net.cpp:408] scale4a_branch1 <- res4a_branch1
I1013 17:05:32.426496  8042 net.cpp:369] scale4a_branch1 -> res4a_branch1 (in-place)
I1013 17:05:32.426542  8042 layer_factory.hpp:77] Creating layer scale4a_branch1
I1013 17:05:32.426672  8042 net.cpp:124] Setting up scale4a_branch1
I1013 17:05:32.426682  8042 net.cpp:131] Top shape: 4 1024 24 32 (3145728)
I1013 17:05:32.426686  8042 net.cpp:139] Memory required for data: 2796585616
I1013 17:05:32.426692  8042 layer_factory.hpp:77] Creating layer res4a_branch2a
I1013 17:05:32.426702  8042 net.cpp:86] Creating Layer res4a_branch2a
I1013 17:05:32.426705  8042 net.cpp:408] res4a_branch2a <- res3b3_res3b3_relu_0_split_1
I1013 17:05:32.426712  8042 net.cpp:382] res4a_branch2a -> res4a_branch2a
I1013 17:05:32.428088  8042 net.cpp:124] Setting up res4a_branch2a
I1013 17:05:32.428103  8042 net.cpp:131] Top shape: 4 256 24 32 (786432)
I1013 17:05:32.428118  8042 net.cpp:139] Memory required for data: 2799731344
I1013 17:05:32.428126  8042 layer_factory.hpp:77] Creating layer bn4a_branch2a
I1013 17:05:32.428136  8042 net.cpp:86] Creating Layer bn4a_branch2a
I1013 17:05:32.428141  8042 net.cpp:408] bn4a_branch2a <- res4a_branch2a
I1013 17:05:32.428148  8042 net.cpp:369] bn4a_branch2a -> res4a_branch2a (in-place)
I1013 17:05:32.428383  8042 net.cpp:124] Setting up bn4a_branch2a
I1013 17:05:32.428392  8042 net.cpp:131] Top shape: 4 256 24 32 (786432)
I1013 17:05:32.428396  8042 net.cpp:139] Memory required for data: 2802877072
I1013 17:05:32.428416  8042 layer_factory.hpp:77] Creating layer scale4a_branch2a
I1013 17:05:32.428422  8042 net.cpp:86] Creating Layer scale4a_branch2a
I1013 17:05:32.428427  8042 net.cpp:408] scale4a_branch2a <- res4a_branch2a
I1013 17:05:32.428434  8042 net.cpp:369] scale4a_branch2a -> res4a_branch2a (in-place)
I1013 17:05:32.428484  8042 layer_factory.hpp:77] Creating layer scale4a_branch2a
I1013 17:05:32.428611  8042 net.cpp:124] Setting up scale4a_branch2a
I1013 17:05:32.428620  8042 net.cpp:131] Top shape: 4 256 24 32 (786432)
I1013 17:05:32.428623  8042 net.cpp:139] Memory required for data: 2806022800
I1013 17:05:32.428628  8042 layer_factory.hpp:77] Creating layer res4a_branch2a_relu
I1013 17:05:32.428634  8042 net.cpp:86] Creating Layer res4a_branch2a_relu
I1013 17:05:32.428638  8042 net.cpp:408] res4a_branch2a_relu <- res4a_branch2a
I1013 17:05:32.428647  8042 net.cpp:369] res4a_branch2a_relu -> res4a_branch2a (in-place)
I1013 17:05:32.429263  8042 net.cpp:124] Setting up res4a_branch2a_relu
I1013 17:05:32.429277  8042 net.cpp:131] Top shape: 4 256 24 32 (786432)
I1013 17:05:32.429292  8042 net.cpp:139] Memory required for data: 2809168528
I1013 17:05:32.429297  8042 layer_factory.hpp:77] Creating layer res4a_branch2b
I1013 17:05:32.429307  8042 net.cpp:86] Creating Layer res4a_branch2b
I1013 17:05:32.429312  8042 net.cpp:408] res4a_branch2b <- res4a_branch2a
I1013 17:05:32.429322  8042 net.cpp:382] res4a_branch2b -> res4a_branch2b
I1013 17:05:32.432770  8042 net.cpp:124] Setting up res4a_branch2b
I1013 17:05:32.432797  8042 net.cpp:131] Top shape: 4 256 24 32 (786432)
I1013 17:05:32.432801  8042 net.cpp:139] Memory required for data: 2812314256
I1013 17:05:32.432811  8042 layer_factory.hpp:77] Creating layer bn4a_branch2b
I1013 17:05:32.432817  8042 net.cpp:86] Creating Layer bn4a_branch2b
I1013 17:05:32.432822  8042 net.cpp:408] bn4a_branch2b <- res4a_branch2b
I1013 17:05:32.432828  8042 net.cpp:369] bn4a_branch2b -> res4a_branch2b (in-place)
I1013 17:05:32.433073  8042 net.cpp:124] Setting up bn4a_branch2b
I1013 17:05:32.433084  8042 net.cpp:131] Top shape: 4 256 24 32 (786432)
I1013 17:05:32.433086  8042 net.cpp:139] Memory required for data: 2815459984
I1013 17:05:32.433094  8042 layer_factory.hpp:77] Creating layer scale4a_branch2b
I1013 17:05:32.433102  8042 net.cpp:86] Creating Layer scale4a_branch2b
I1013 17:05:32.433109  8042 net.cpp:408] scale4a_branch2b <- res4a_branch2b
I1013 17:05:32.433115  8042 net.cpp:369] scale4a_branch2b -> res4a_branch2b (in-place)
I1013 17:05:32.433168  8042 layer_factory.hpp:77] Creating layer scale4a_branch2b
I1013 17:05:32.433296  8042 net.cpp:124] Setting up scale4a_branch2b
I1013 17:05:32.433305  8042 net.cpp:131] Top shape: 4 256 24 32 (786432)
I1013 17:05:32.433308  8042 net.cpp:139] Memory required for data: 2818605712
I1013 17:05:32.433313  8042 layer_factory.hpp:77] Creating layer res4a_branch2b_relu
I1013 17:05:32.433321  8042 net.cpp:86] Creating Layer res4a_branch2b_relu
I1013 17:05:32.433326  8042 net.cpp:408] res4a_branch2b_relu <- res4a_branch2b
I1013 17:05:32.433331  8042 net.cpp:369] res4a_branch2b_relu -> res4a_branch2b (in-place)
I1013 17:05:32.433568  8042 net.cpp:124] Setting up res4a_branch2b_relu
I1013 17:05:32.433578  8042 net.cpp:131] Top shape: 4 256 24 32 (786432)
I1013 17:05:32.433583  8042 net.cpp:139] Memory required for data: 2821751440
I1013 17:05:32.433585  8042 layer_factory.hpp:77] Creating layer res4a_branch2c
I1013 17:05:32.433600  8042 net.cpp:86] Creating Layer res4a_branch2c
I1013 17:05:32.433605  8042 net.cpp:408] res4a_branch2c <- res4a_branch2b
I1013 17:05:32.433612  8042 net.cpp:382] res4a_branch2c -> res4a_branch2c
I1013 17:05:32.436465  8042 net.cpp:124] Setting up res4a_branch2c
I1013 17:05:32.436501  8042 net.cpp:131] Top shape: 4 1024 24 32 (3145728)
I1013 17:05:32.436506  8042 net.cpp:139] Memory required for data: 2834334352
I1013 17:05:32.436511  8042 layer_factory.hpp:77] Creating layer bn4a_branch2c
I1013 17:05:32.436518  8042 net.cpp:86] Creating Layer bn4a_branch2c
I1013 17:05:32.436524  8042 net.cpp:408] bn4a_branch2c <- res4a_branch2c
I1013 17:05:32.436545  8042 net.cpp:369] bn4a_branch2c -> res4a_branch2c (in-place)
I1013 17:05:32.436784  8042 net.cpp:124] Setting up bn4a_branch2c
I1013 17:05:32.436792  8042 net.cpp:131] Top shape: 4 1024 24 32 (3145728)
I1013 17:05:32.436795  8042 net.cpp:139] Memory required for data: 2846917264
I1013 17:05:32.436803  8042 layer_factory.hpp:77] Creating layer scale4a_branch2c
I1013 17:05:32.436811  8042 net.cpp:86] Creating Layer scale4a_branch2c
I1013 17:05:32.436815  8042 net.cpp:408] scale4a_branch2c <- res4a_branch2c
I1013 17:05:32.436821  8042 net.cpp:369] scale4a_branch2c -> res4a_branch2c (in-place)
I1013 17:05:32.436884  8042 layer_factory.hpp:77] Creating layer scale4a_branch2c
I1013 17:05:32.437021  8042 net.cpp:124] Setting up scale4a_branch2c
I1013 17:05:32.437029  8042 net.cpp:131] Top shape: 4 1024 24 32 (3145728)
I1013 17:05:32.437032  8042 net.cpp:139] Memory required for data: 2859500176
I1013 17:05:32.437038  8042 layer_factory.hpp:77] Creating layer res4a
I1013 17:05:32.437059  8042 net.cpp:86] Creating Layer res4a
I1013 17:05:32.437065  8042 net.cpp:408] res4a <- res4a_branch1
I1013 17:05:32.437074  8042 net.cpp:408] res4a <- res4a_branch2c
I1013 17:05:32.437080  8042 net.cpp:382] res4a -> res4a
I1013 17:05:32.437110  8042 net.cpp:124] Setting up res4a
I1013 17:05:32.437119  8042 net.cpp:131] Top shape: 4 1024 24 32 (3145728)
I1013 17:05:32.437122  8042 net.cpp:139] Memory required for data: 2872083088
I1013 17:05:32.437129  8042 layer_factory.hpp:77] Creating layer res4a_relu
I1013 17:05:32.437135  8042 net.cpp:86] Creating Layer res4a_relu
I1013 17:05:32.437139  8042 net.cpp:408] res4a_relu <- res4a
I1013 17:05:32.437144  8042 net.cpp:369] res4a_relu -> res4a (in-place)
I1013 17:05:32.437777  8042 net.cpp:124] Setting up res4a_relu
I1013 17:05:32.437791  8042 net.cpp:131] Top shape: 4 1024 24 32 (3145728)
I1013 17:05:32.437809  8042 net.cpp:139] Memory required for data: 2884666000
I1013 17:05:32.437813  8042 layer_factory.hpp:77] Creating layer res4a_res4a_relu_0_split
I1013 17:05:32.437820  8042 net.cpp:86] Creating Layer res4a_res4a_relu_0_split
I1013 17:05:32.437825  8042 net.cpp:408] res4a_res4a_relu_0_split <- res4a
I1013 17:05:32.437834  8042 net.cpp:382] res4a_res4a_relu_0_split -> res4a_res4a_relu_0_split_0
I1013 17:05:32.437842  8042 net.cpp:382] res4a_res4a_relu_0_split -> res4a_res4a_relu_0_split_1
I1013 17:05:32.437902  8042 net.cpp:124] Setting up res4a_res4a_relu_0_split
I1013 17:05:32.437911  8042 net.cpp:131] Top shape: 4 1024 24 32 (3145728)
I1013 17:05:32.437914  8042 net.cpp:131] Top shape: 4 1024 24 32 (3145728)
I1013 17:05:32.437917  8042 net.cpp:139] Memory required for data: 2909831824
I1013 17:05:32.437922  8042 layer_factory.hpp:77] Creating layer res4b1_branch2a
I1013 17:05:32.437932  8042 net.cpp:86] Creating Layer res4b1_branch2a
I1013 17:05:32.437938  8042 net.cpp:408] res4b1_branch2a <- res4a_res4a_relu_0_split_0
I1013 17:05:32.437943  8042 net.cpp:382] res4b1_branch2a -> res4b1_branch2a
I1013 17:05:32.439466  8042 net.cpp:124] Setting up res4b1_branch2a
I1013 17:05:32.439494  8042 net.cpp:131] Top shape: 4 256 24 32 (786432)
I1013 17:05:32.439499  8042 net.cpp:139] Memory required for data: 2912977552
I1013 17:05:32.439507  8042 layer_factory.hpp:77] Creating layer bn4b1_branch2a
I1013 17:05:32.439530  8042 net.cpp:86] Creating Layer bn4b1_branch2a
I1013 17:05:32.439535  8042 net.cpp:408] bn4b1_branch2a <- res4b1_branch2a
I1013 17:05:32.439544  8042 net.cpp:369] bn4b1_branch2a -> res4b1_branch2a (in-place)
I1013 17:05:32.439797  8042 net.cpp:124] Setting up bn4b1_branch2a
I1013 17:05:32.439808  8042 net.cpp:131] Top shape: 4 256 24 32 (786432)
I1013 17:05:32.439815  8042 net.cpp:139] Memory required for data: 2916123280
I1013 17:05:32.439837  8042 layer_factory.hpp:77] Creating layer scale4b1_branch2a
I1013 17:05:32.439843  8042 net.cpp:86] Creating Layer scale4b1_branch2a
I1013 17:05:32.439848  8042 net.cpp:408] scale4b1_branch2a <- res4b1_branch2a
I1013 17:05:32.439855  8042 net.cpp:369] scale4b1_branch2a -> res4b1_branch2a (in-place)
I1013 17:05:32.439939  8042 layer_factory.hpp:77] Creating layer scale4b1_branch2a
I1013 17:05:32.440073  8042 net.cpp:124] Setting up scale4b1_branch2a
I1013 17:05:32.440083  8042 net.cpp:131] Top shape: 4 256 24 32 (786432)
I1013 17:05:32.440086  8042 net.cpp:139] Memory required for data: 2919269008
I1013 17:05:32.440093  8042 layer_factory.hpp:77] Creating layer res4b1_branch2a_relu
I1013 17:05:32.440100  8042 net.cpp:86] Creating Layer res4b1_branch2a_relu
I1013 17:05:32.440105  8042 net.cpp:408] res4b1_branch2a_relu <- res4b1_branch2a
I1013 17:05:32.440112  8042 net.cpp:369] res4b1_branch2a_relu -> res4b1_branch2a (in-place)
I1013 17:05:32.440765  8042 net.cpp:124] Setting up res4b1_branch2a_relu
I1013 17:05:32.440779  8042 net.cpp:131] Top shape: 4 256 24 32 (786432)
I1013 17:05:32.440794  8042 net.cpp:139] Memory required for data: 2922414736
I1013 17:05:32.440798  8042 layer_factory.hpp:77] Creating layer res4b1_branch2b
I1013 17:05:32.440809  8042 net.cpp:86] Creating Layer res4b1_branch2b
I1013 17:05:32.440827  8042 net.cpp:408] res4b1_branch2b <- res4b1_branch2a
I1013 17:05:32.440835  8042 net.cpp:382] res4b1_branch2b -> res4b1_branch2b
I1013 17:05:32.444166  8042 net.cpp:124] Setting up res4b1_branch2b
I1013 17:05:32.444192  8042 net.cpp:131] Top shape: 4 256 24 32 (786432)
I1013 17:05:32.444196  8042 net.cpp:139] Memory required for data: 2925560464
I1013 17:05:32.444205  8042 layer_factory.hpp:77] Creating layer bn4b1_branch2b
I1013 17:05:32.444229  8042 net.cpp:86] Creating Layer bn4b1_branch2b
I1013 17:05:32.444236  8042 net.cpp:408] bn4b1_branch2b <- res4b1_branch2b
I1013 17:05:32.444242  8042 net.cpp:369] bn4b1_branch2b -> res4b1_branch2b (in-place)
I1013 17:05:32.444522  8042 net.cpp:124] Setting up bn4b1_branch2b
I1013 17:05:32.444532  8042 net.cpp:131] Top shape: 4 256 24 32 (786432)
I1013 17:05:32.444535  8042 net.cpp:139] Memory required for data: 2928706192
I1013 17:05:32.444561  8042 layer_factory.hpp:77] Creating layer scale4b1_branch2b
I1013 17:05:32.444583  8042 net.cpp:86] Creating Layer scale4b1_branch2b
I1013 17:05:32.444605  8042 net.cpp:408] scale4b1_branch2b <- res4b1_branch2b
I1013 17:05:32.444612  8042 net.cpp:369] scale4b1_branch2b -> res4b1_branch2b (in-place)
I1013 17:05:32.444681  8042 layer_factory.hpp:77] Creating layer scale4b1_branch2b
I1013 17:05:32.444818  8042 net.cpp:124] Setting up scale4b1_branch2b
I1013 17:05:32.444828  8042 net.cpp:131] Top shape: 4 256 24 32 (786432)
I1013 17:05:32.444831  8042 net.cpp:139] Memory required for data: 2931851920
I1013 17:05:32.444836  8042 layer_factory.hpp:77] Creating layer res4b1_branch2b_relu
I1013 17:05:32.444847  8042 net.cpp:86] Creating Layer res4b1_branch2b_relu
I1013 17:05:32.444851  8042 net.cpp:408] res4b1_branch2b_relu <- res4b1_branch2b
I1013 17:05:32.444857  8042 net.cpp:369] res4b1_branch2b_relu -> res4b1_branch2b (in-place)
I1013 17:05:32.445106  8042 net.cpp:124] Setting up res4b1_branch2b_relu
I1013 17:05:32.445116  8042 net.cpp:131] Top shape: 4 256 24 32 (786432)
I1013 17:05:32.445119  8042 net.cpp:139] Memory required for data: 2934997648
I1013 17:05:32.445123  8042 layer_factory.hpp:77] Creating layer res4b1_branch2c
I1013 17:05:32.445135  8042 net.cpp:86] Creating Layer res4b1_branch2c
I1013 17:05:32.445140  8042 net.cpp:408] res4b1_branch2c <- res4b1_branch2b
I1013 17:05:32.445148  8042 net.cpp:382] res4b1_branch2c -> res4b1_branch2c
I1013 17:05:32.447932  8042 net.cpp:124] Setting up res4b1_branch2c
I1013 17:05:32.447958  8042 net.cpp:131] Top shape: 4 1024 24 32 (3145728)
I1013 17:05:32.447963  8042 net.cpp:139] Memory required for data: 2947580560
I1013 17:05:32.447968  8042 layer_factory.hpp:77] Creating layer bn4b1_branch2c
I1013 17:05:32.447978  8042 net.cpp:86] Creating Layer bn4b1_branch2c
I1013 17:05:32.447983  8042 net.cpp:408] bn4b1_branch2c <- res4b1_branch2c
I1013 17:05:32.447991  8042 net.cpp:369] bn4b1_branch2c -> res4b1_branch2c (in-place)
I1013 17:05:32.448235  8042 net.cpp:124] Setting up bn4b1_branch2c
I1013 17:05:32.448245  8042 net.cpp:131] Top shape: 4 1024 24 32 (3145728)
I1013 17:05:32.448261  8042 net.cpp:139] Memory required for data: 2960163472
I1013 17:05:32.448269  8042 layer_factory.hpp:77] Creating layer scale4b1_branch2c
I1013 17:05:32.448278  8042 net.cpp:86] Creating Layer scale4b1_branch2c
I1013 17:05:32.448283  8042 net.cpp:408] scale4b1_branch2c <- res4b1_branch2c
I1013 17:05:32.448288  8042 net.cpp:369] scale4b1_branch2c -> res4b1_branch2c (in-place)
I1013 17:05:32.448351  8042 layer_factory.hpp:77] Creating layer scale4b1_branch2c
I1013 17:05:32.448490  8042 net.cpp:124] Setting up scale4b1_branch2c
I1013 17:05:32.448501  8042 net.cpp:131] Top shape: 4 1024 24 32 (3145728)
I1013 17:05:32.448505  8042 net.cpp:139] Memory required for data: 2972746384
I1013 17:05:32.448511  8042 layer_factory.hpp:77] Creating layer res4b1
I1013 17:05:32.448518  8042 net.cpp:86] Creating Layer res4b1
I1013 17:05:32.448523  8042 net.cpp:408] res4b1 <- res4a_res4a_relu_0_split_1
I1013 17:05:32.448527  8042 net.cpp:408] res4b1 <- res4b1_branch2c
I1013 17:05:32.448534  8042 net.cpp:382] res4b1 -> res4b1
I1013 17:05:32.448575  8042 net.cpp:124] Setting up res4b1
I1013 17:05:32.448585  8042 net.cpp:131] Top shape: 4 1024 24 32 (3145728)
I1013 17:05:32.448587  8042 net.cpp:139] Memory required for data: 2985329296
I1013 17:05:32.448593  8042 layer_factory.hpp:77] Creating layer res4b1_relu
I1013 17:05:32.448599  8042 net.cpp:86] Creating Layer res4b1_relu
I1013 17:05:32.448603  8042 net.cpp:408] res4b1_relu <- res4b1
I1013 17:05:32.448608  8042 net.cpp:369] res4b1_relu -> res4b1 (in-place)
I1013 17:05:32.448844  8042 net.cpp:124] Setting up res4b1_relu
I1013 17:05:32.448855  8042 net.cpp:131] Top shape: 4 1024 24 32 (3145728)
I1013 17:05:32.448859  8042 net.cpp:139] Memory required for data: 2997912208
I1013 17:05:32.448863  8042 layer_factory.hpp:77] Creating layer res4b1_res4b1_relu_0_split
I1013 17:05:32.448873  8042 net.cpp:86] Creating Layer res4b1_res4b1_relu_0_split
I1013 17:05:32.448876  8042 net.cpp:408] res4b1_res4b1_relu_0_split <- res4b1
I1013 17:05:32.448882  8042 net.cpp:382] res4b1_res4b1_relu_0_split -> res4b1_res4b1_relu_0_split_0
I1013 17:05:32.448890  8042 net.cpp:382] res4b1_res4b1_relu_0_split -> res4b1_res4b1_relu_0_split_1
I1013 17:05:32.448946  8042 net.cpp:124] Setting up res4b1_res4b1_relu_0_split
I1013 17:05:32.448954  8042 net.cpp:131] Top shape: 4 1024 24 32 (3145728)
I1013 17:05:32.448958  8042 net.cpp:131] Top shape: 4 1024 24 32 (3145728)
I1013 17:05:32.448961  8042 net.cpp:139] Memory required for data: 3023078032
I1013 17:05:32.448966  8042 layer_factory.hpp:77] Creating layer res4b2_branch2a
I1013 17:05:32.448977  8042 net.cpp:86] Creating Layer res4b2_branch2a
I1013 17:05:32.448982  8042 net.cpp:408] res4b2_branch2a <- res4b1_res4b1_relu_0_split_0
I1013 17:05:32.448989  8042 net.cpp:382] res4b2_branch2a -> res4b2_branch2a
I1013 17:05:32.450559  8042 net.cpp:124] Setting up res4b2_branch2a
I1013 17:05:32.450577  8042 net.cpp:131] Top shape: 4 256 24 32 (786432)
I1013 17:05:32.450582  8042 net.cpp:139] Memory required for data: 3026223760
I1013 17:05:32.450587  8042 layer_factory.hpp:77] Creating layer bn4b2_branch2a
I1013 17:05:32.450600  8042 net.cpp:86] Creating Layer bn4b2_branch2a
I1013 17:05:32.450605  8042 net.cpp:408] bn4b2_branch2a <- res4b2_branch2a
I1013 17:05:32.450611  8042 net.cpp:369] bn4b2_branch2a -> res4b2_branch2a (in-place)
I1013 17:05:32.450863  8042 net.cpp:124] Setting up bn4b2_branch2a
I1013 17:05:32.450875  8042 net.cpp:131] Top shape: 4 256 24 32 (786432)
I1013 17:05:32.450878  8042 net.cpp:139] Memory required for data: 3029369488
I1013 17:05:32.450886  8042 layer_factory.hpp:77] Creating layer scale4b2_branch2a
I1013 17:05:32.450894  8042 net.cpp:86] Creating Layer scale4b2_branch2a
I1013 17:05:32.450899  8042 net.cpp:408] scale4b2_branch2a <- res4b2_branch2a
I1013 17:05:32.450904  8042 net.cpp:369] scale4b2_branch2a -> res4b2_branch2a (in-place)
I1013 17:05:32.450960  8042 layer_factory.hpp:77] Creating layer scale4b2_branch2a
I1013 17:05:32.451100  8042 net.cpp:124] Setting up scale4b2_branch2a
I1013 17:05:32.451109  8042 net.cpp:131] Top shape: 4 256 24 32 (786432)
I1013 17:05:32.451125  8042 net.cpp:139] Memory required for data: 3032515216
I1013 17:05:32.451131  8042 layer_factory.hpp:77] Creating layer res4b2_branch2a_relu
I1013 17:05:32.451138  8042 net.cpp:86] Creating Layer res4b2_branch2a_relu
I1013 17:05:32.451143  8042 net.cpp:408] res4b2_branch2a_relu <- res4b2_branch2a
I1013 17:05:32.451151  8042 net.cpp:369] res4b2_branch2a_relu -> res4b2_branch2a (in-place)
I1013 17:05:32.451383  8042 net.cpp:124] Setting up res4b2_branch2a_relu
I1013 17:05:32.451395  8042 net.cpp:131] Top shape: 4 256 24 32 (786432)
I1013 17:05:32.451398  8042 net.cpp:139] Memory required for data: 3035660944
I1013 17:05:32.451402  8042 layer_factory.hpp:77] Creating layer res4b2_branch2b
I1013 17:05:32.451412  8042 net.cpp:86] Creating Layer res4b2_branch2b
I1013 17:05:32.451417  8042 net.cpp:408] res4b2_branch2b <- res4b2_branch2a
I1013 17:05:32.451426  8042 net.cpp:382] res4b2_branch2b -> res4b2_branch2b
I1013 17:05:32.455021  8042 net.cpp:124] Setting up res4b2_branch2b
I1013 17:05:32.455054  8042 net.cpp:131] Top shape: 4 256 24 32 (786432)
I1013 17:05:32.455057  8042 net.cpp:139] Memory required for data: 3038806672
I1013 17:05:32.455066  8042 layer_factory.hpp:77] Creating layer bn4b2_branch2b
I1013 17:05:32.455075  8042 net.cpp:86] Creating Layer bn4b2_branch2b
I1013 17:05:32.455080  8042 net.cpp:408] bn4b2_branch2b <- res4b2_branch2b
I1013 17:05:32.455087  8042 net.cpp:369] bn4b2_branch2b -> res4b2_branch2b (in-place)
I1013 17:05:32.455353  8042 net.cpp:124] Setting up bn4b2_branch2b
I1013 17:05:32.455363  8042 net.cpp:131] Top shape: 4 256 24 32 (786432)
I1013 17:05:32.455384  8042 net.cpp:139] Memory required for data: 3041952400
I1013 17:05:32.455406  8042 layer_factory.hpp:77] Creating layer scale4b2_branch2b
I1013 17:05:32.455413  8042 net.cpp:86] Creating Layer scale4b2_branch2b
I1013 17:05:32.455417  8042 net.cpp:408] scale4b2_branch2b <- res4b2_branch2b
I1013 17:05:32.455423  8042 net.cpp:369] scale4b2_branch2b -> res4b2_branch2b (in-place)
I1013 17:05:32.455476  8042 layer_factory.hpp:77] Creating layer scale4b2_branch2b
I1013 17:05:32.455613  8042 net.cpp:124] Setting up scale4b2_branch2b
I1013 17:05:32.455623  8042 net.cpp:131] Top shape: 4 256 24 32 (786432)
I1013 17:05:32.455626  8042 net.cpp:139] Memory required for data: 3045098128
I1013 17:05:32.455631  8042 layer_factory.hpp:77] Creating layer res4b2_branch2b_relu
I1013 17:05:32.455641  8042 net.cpp:86] Creating Layer res4b2_branch2b_relu
I1013 17:05:32.455644  8042 net.cpp:408] res4b2_branch2b_relu <- res4b2_branch2b
I1013 17:05:32.455651  8042 net.cpp:369] res4b2_branch2b_relu -> res4b2_branch2b (in-place)
I1013 17:05:32.456307  8042 net.cpp:124] Setting up res4b2_branch2b_relu
I1013 17:05:32.456336  8042 net.cpp:131] Top shape: 4 256 24 32 (786432)
I1013 17:05:32.456339  8042 net.cpp:139] Memory required for data: 3048243856
I1013 17:05:32.456346  8042 layer_factory.hpp:77] Creating layer res4b2_branch2c
I1013 17:05:32.456353  8042 net.cpp:86] Creating Layer res4b2_branch2c
I1013 17:05:32.456358  8042 net.cpp:408] res4b2_branch2c <- res4b2_branch2b
I1013 17:05:32.456367  8042 net.cpp:382] res4b2_branch2c -> res4b2_branch2c
I1013 17:05:32.459267  8042 net.cpp:124] Setting up res4b2_branch2c
I1013 17:05:32.459300  8042 net.cpp:131] Top shape: 4 1024 24 32 (3145728)
I1013 17:05:32.459305  8042 net.cpp:139] Memory required for data: 3060826768
I1013 17:05:32.459311  8042 layer_factory.hpp:77] Creating layer bn4b2_branch2c
I1013 17:05:32.459317  8042 net.cpp:86] Creating Layer bn4b2_branch2c
I1013 17:05:32.459322  8042 net.cpp:408] bn4b2_branch2c <- res4b2_branch2c
I1013 17:05:32.459331  8042 net.cpp:369] bn4b2_branch2c -> res4b2_branch2c (in-place)
I1013 17:05:32.459578  8042 net.cpp:124] Setting up bn4b2_branch2c
I1013 17:05:32.459587  8042 net.cpp:131] Top shape: 4 1024 24 32 (3145728)
I1013 17:05:32.459590  8042 net.cpp:139] Memory required for data: 3073409680
I1013 17:05:32.459599  8042 layer_factory.hpp:77] Creating layer scale4b2_branch2c
I1013 17:05:32.459604  8042 net.cpp:86] Creating Layer scale4b2_branch2c
I1013 17:05:32.459622  8042 net.cpp:408] scale4b2_branch2c <- res4b2_branch2c
I1013 17:05:32.459631  8042 net.cpp:369] scale4b2_branch2c -> res4b2_branch2c (in-place)
I1013 17:05:32.459678  8042 layer_factory.hpp:77] Creating layer scale4b2_branch2c
I1013 17:05:32.459815  8042 net.cpp:124] Setting up scale4b2_branch2c
I1013 17:05:32.459823  8042 net.cpp:131] Top shape: 4 1024 24 32 (3145728)
I1013 17:05:32.459826  8042 net.cpp:139] Memory required for data: 3085992592
I1013 17:05:32.459833  8042 layer_factory.hpp:77] Creating layer res4b2
I1013 17:05:32.459838  8042 net.cpp:86] Creating Layer res4b2
I1013 17:05:32.459842  8042 net.cpp:408] res4b2 <- res4b1_res4b1_relu_0_split_1
I1013 17:05:32.459847  8042 net.cpp:408] res4b2 <- res4b2_branch2c
I1013 17:05:32.459856  8042 net.cpp:382] res4b2 -> res4b2
I1013 17:05:32.459884  8042 net.cpp:124] Setting up res4b2
I1013 17:05:32.459892  8042 net.cpp:131] Top shape: 4 1024 24 32 (3145728)
I1013 17:05:32.459895  8042 net.cpp:139] Memory required for data: 3098575504
I1013 17:05:32.459902  8042 layer_factory.hpp:77] Creating layer res4b2_relu
I1013 17:05:32.459909  8042 net.cpp:86] Creating Layer res4b2_relu
I1013 17:05:32.459913  8042 net.cpp:408] res4b2_relu <- res4b2
I1013 17:05:32.459918  8042 net.cpp:369] res4b2_relu -> res4b2 (in-place)
I1013 17:05:32.460148  8042 net.cpp:124] Setting up res4b2_relu
I1013 17:05:32.460158  8042 net.cpp:131] Top shape: 4 1024 24 32 (3145728)
I1013 17:05:32.460161  8042 net.cpp:139] Memory required for data: 3111158416
I1013 17:05:32.460165  8042 layer_factory.hpp:77] Creating layer res4b2_res4b2_relu_0_split
I1013 17:05:32.460172  8042 net.cpp:86] Creating Layer res4b2_res4b2_relu_0_split
I1013 17:05:32.460176  8042 net.cpp:408] res4b2_res4b2_relu_0_split <- res4b2
I1013 17:05:32.460184  8042 net.cpp:382] res4b2_res4b2_relu_0_split -> res4b2_res4b2_relu_0_split_0
I1013 17:05:32.460191  8042 net.cpp:382] res4b2_res4b2_relu_0_split -> res4b2_res4b2_relu_0_split_1
I1013 17:05:32.460245  8042 net.cpp:124] Setting up res4b2_res4b2_relu_0_split
I1013 17:05:32.460253  8042 net.cpp:131] Top shape: 4 1024 24 32 (3145728)
I1013 17:05:32.460258  8042 net.cpp:131] Top shape: 4 1024 24 32 (3145728)
I1013 17:05:32.460260  8042 net.cpp:139] Memory required for data: 3136324240
I1013 17:05:32.460264  8042 layer_factory.hpp:77] Creating layer res4b3_branch2a
I1013 17:05:32.460275  8042 net.cpp:86] Creating Layer res4b3_branch2a
I1013 17:05:32.460279  8042 net.cpp:408] res4b3_branch2a <- res4b2_res4b2_relu_0_split_0
I1013 17:05:32.460284  8042 net.cpp:382] res4b3_branch2a -> res4b3_branch2a
I1013 17:05:32.461819  8042 net.cpp:124] Setting up res4b3_branch2a
I1013 17:05:32.461834  8042 net.cpp:131] Top shape: 4 256 24 32 (786432)
I1013 17:05:32.461849  8042 net.cpp:139] Memory required for data: 3139469968
I1013 17:05:32.461854  8042 layer_factory.hpp:77] Creating layer bn4b3_branch2a
I1013 17:05:32.461890  8042 net.cpp:86] Creating Layer bn4b3_branch2a
I1013 17:05:32.461895  8042 net.cpp:408] bn4b3_branch2a <- res4b3_branch2a
I1013 17:05:32.461904  8042 net.cpp:369] bn4b3_branch2a -> res4b3_branch2a (in-place)
I1013 17:05:32.462163  8042 net.cpp:124] Setting up bn4b3_branch2a
I1013 17:05:32.462173  8042 net.cpp:131] Top shape: 4 256 24 32 (786432)
I1013 17:05:32.462177  8042 net.cpp:139] Memory required for data: 3142615696
I1013 17:05:32.462183  8042 layer_factory.hpp:77] Creating layer scale4b3_branch2a
I1013 17:05:32.462226  8042 net.cpp:86] Creating Layer scale4b3_branch2a
I1013 17:05:32.462234  8042 net.cpp:408] scale4b3_branch2a <- res4b3_branch2a
I1013 17:05:32.462239  8042 net.cpp:369] scale4b3_branch2a -> res4b3_branch2a (in-place)
I1013 17:05:32.462303  8042 layer_factory.hpp:77] Creating layer scale4b3_branch2a
I1013 17:05:32.462447  8042 net.cpp:124] Setting up scale4b3_branch2a
I1013 17:05:32.462457  8042 net.cpp:131] Top shape: 4 256 24 32 (786432)
I1013 17:05:32.462460  8042 net.cpp:139] Memory required for data: 3145761424
I1013 17:05:32.462466  8042 layer_factory.hpp:77] Creating layer res4b3_branch2a_relu
I1013 17:05:32.462472  8042 net.cpp:86] Creating Layer res4b3_branch2a_relu
I1013 17:05:32.462489  8042 net.cpp:408] res4b3_branch2a_relu <- res4b3_branch2a
I1013 17:05:32.462496  8042 net.cpp:369] res4b3_branch2a_relu -> res4b3_branch2a (in-place)
I1013 17:05:32.462738  8042 net.cpp:124] Setting up res4b3_branch2a_relu
I1013 17:05:32.462747  8042 net.cpp:131] Top shape: 4 256 24 32 (786432)
I1013 17:05:32.462752  8042 net.cpp:139] Memory required for data: 3148907152
I1013 17:05:32.462755  8042 layer_factory.hpp:77] Creating layer res4b3_branch2b
I1013 17:05:32.462783  8042 net.cpp:86] Creating Layer res4b3_branch2b
I1013 17:05:32.462790  8042 net.cpp:408] res4b3_branch2b <- res4b3_branch2a
I1013 17:05:32.462798  8042 net.cpp:382] res4b3_branch2b -> res4b3_branch2b
I1013 17:05:32.466343  8042 net.cpp:124] Setting up res4b3_branch2b
I1013 17:05:32.466359  8042 net.cpp:131] Top shape: 4 256 24 32 (786432)
I1013 17:05:32.466377  8042 net.cpp:139] Memory required for data: 3152052880
I1013 17:05:32.466387  8042 layer_factory.hpp:77] Creating layer bn4b3_branch2b
I1013 17:05:32.466397  8042 net.cpp:86] Creating Layer bn4b3_branch2b
I1013 17:05:32.466401  8042 net.cpp:408] bn4b3_branch2b <- res4b3_branch2b
I1013 17:05:32.466409  8042 net.cpp:369] bn4b3_branch2b -> res4b3_branch2b (in-place)
I1013 17:05:32.466718  8042 net.cpp:124] Setting up bn4b3_branch2b
I1013 17:05:32.466742  8042 net.cpp:131] Top shape: 4 256 24 32 (786432)
I1013 17:05:32.466745  8042 net.cpp:139] Memory required for data: 3155198608
I1013 17:05:32.466768  8042 layer_factory.hpp:77] Creating layer scale4b3_branch2b
I1013 17:05:32.466775  8042 net.cpp:86] Creating Layer scale4b3_branch2b
I1013 17:05:32.466779  8042 net.cpp:408] scale4b3_branch2b <- res4b3_branch2b
I1013 17:05:32.466784  8042 net.cpp:369] scale4b3_branch2b -> res4b3_branch2b (in-place)
I1013 17:05:32.466859  8042 layer_factory.hpp:77] Creating layer scale4b3_branch2b
I1013 17:05:32.467000  8042 net.cpp:124] Setting up scale4b3_branch2b
I1013 17:05:32.467010  8042 net.cpp:131] Top shape: 4 256 24 32 (786432)
I1013 17:05:32.467013  8042 net.cpp:139] Memory required for data: 3158344336
I1013 17:05:32.467018  8042 layer_factory.hpp:77] Creating layer res4b3_branch2b_relu
I1013 17:05:32.467027  8042 net.cpp:86] Creating Layer res4b3_branch2b_relu
I1013 17:05:32.467031  8042 net.cpp:408] res4b3_branch2b_relu <- res4b3_branch2b
I1013 17:05:32.467036  8042 net.cpp:369] res4b3_branch2b_relu -> res4b3_branch2b (in-place)
I1013 17:05:32.467710  8042 net.cpp:124] Setting up res4b3_branch2b_relu
I1013 17:05:32.467741  8042 net.cpp:131] Top shape: 4 256 24 32 (786432)
I1013 17:05:32.467744  8042 net.cpp:139] Memory required for data: 3161490064
I1013 17:05:32.467749  8042 layer_factory.hpp:77] Creating layer res4b3_branch2c
I1013 17:05:32.467761  8042 net.cpp:86] Creating Layer res4b3_branch2c
I1013 17:05:32.467766  8042 net.cpp:408] res4b3_branch2c <- res4b3_branch2b
I1013 17:05:32.467789  8042 net.cpp:382] res4b3_branch2c -> res4b3_branch2c
I1013 17:05:32.470683  8042 net.cpp:124] Setting up res4b3_branch2c
I1013 17:05:32.470719  8042 net.cpp:131] Top shape: 4 1024 24 32 (3145728)
I1013 17:05:32.470724  8042 net.cpp:139] Memory required for data: 3174072976
I1013 17:05:32.470731  8042 layer_factory.hpp:77] Creating layer bn4b3_branch2c
I1013 17:05:32.470754  8042 net.cpp:86] Creating Layer bn4b3_branch2c
I1013 17:05:32.470775  8042 net.cpp:408] bn4b3_branch2c <- res4b3_branch2c
I1013 17:05:32.470784  8042 net.cpp:369] bn4b3_branch2c -> res4b3_branch2c (in-place)
I1013 17:05:32.471055  8042 net.cpp:124] Setting up bn4b3_branch2c
I1013 17:05:32.471063  8042 net.cpp:131] Top shape: 4 1024 24 32 (3145728)
I1013 17:05:32.471066  8042 net.cpp:139] Memory required for data: 3186655888
I1013 17:05:32.471092  8042 layer_factory.hpp:77] Creating layer scale4b3_branch2c
I1013 17:05:32.471098  8042 net.cpp:86] Creating Layer scale4b3_branch2c
I1013 17:05:32.471118  8042 net.cpp:408] scale4b3_branch2c <- res4b3_branch2c
I1013 17:05:32.471127  8042 net.cpp:369] scale4b3_branch2c -> res4b3_branch2c (in-place)
I1013 17:05:32.471177  8042 layer_factory.hpp:77] Creating layer scale4b3_branch2c
I1013 17:05:32.471341  8042 net.cpp:124] Setting up scale4b3_branch2c
I1013 17:05:32.471351  8042 net.cpp:131] Top shape: 4 1024 24 32 (3145728)
I1013 17:05:32.471354  8042 net.cpp:139] Memory required for data: 3199238800
I1013 17:05:32.471361  8042 layer_factory.hpp:77] Creating layer res4b3
I1013 17:05:32.471371  8042 net.cpp:86] Creating Layer res4b3
I1013 17:05:32.471376  8042 net.cpp:408] res4b3 <- res4b2_res4b2_relu_0_split_1
I1013 17:05:32.471382  8042 net.cpp:408] res4b3 <- res4b3_branch2c
I1013 17:05:32.471390  8042 net.cpp:382] res4b3 -> res4b3
I1013 17:05:32.471439  8042 net.cpp:124] Setting up res4b3
I1013 17:05:32.471447  8042 net.cpp:131] Top shape: 4 1024 24 32 (3145728)
I1013 17:05:32.471451  8042 net.cpp:139] Memory required for data: 3211821712
I1013 17:05:32.471454  8042 layer_factory.hpp:77] Creating layer res4b3_relu
I1013 17:05:32.471464  8042 net.cpp:86] Creating Layer res4b3_relu
I1013 17:05:32.471468  8042 net.cpp:408] res4b3_relu <- res4b3
I1013 17:05:32.471473  8042 net.cpp:369] res4b3_relu -> res4b3 (in-place)
I1013 17:05:32.471702  8042 net.cpp:124] Setting up res4b3_relu
I1013 17:05:32.471712  8042 net.cpp:131] Top shape: 4 1024 24 32 (3145728)
I1013 17:05:32.471715  8042 net.cpp:139] Memory required for data: 3224404624
I1013 17:05:32.471719  8042 layer_factory.hpp:77] Creating layer res4b3_res4b3_relu_0_split
I1013 17:05:32.471727  8042 net.cpp:86] Creating Layer res4b3_res4b3_relu_0_split
I1013 17:05:32.471731  8042 net.cpp:408] res4b3_res4b3_relu_0_split <- res4b3
I1013 17:05:32.471740  8042 net.cpp:382] res4b3_res4b3_relu_0_split -> res4b3_res4b3_relu_0_split_0
I1013 17:05:32.471747  8042 net.cpp:382] res4b3_res4b3_relu_0_split -> res4b3_res4b3_relu_0_split_1
I1013 17:05:32.471801  8042 net.cpp:124] Setting up res4b3_res4b3_relu_0_split
I1013 17:05:32.471810  8042 net.cpp:131] Top shape: 4 1024 24 32 (3145728)
I1013 17:05:32.471814  8042 net.cpp:131] Top shape: 4 1024 24 32 (3145728)
I1013 17:05:32.471817  8042 net.cpp:139] Memory required for data: 3249570448
I1013 17:05:32.471822  8042 layer_factory.hpp:77] Creating layer res4b4_branch2a
I1013 17:05:32.471829  8042 net.cpp:86] Creating Layer res4b4_branch2a
I1013 17:05:32.471833  8042 net.cpp:408] res4b4_branch2a <- res4b3_res4b3_relu_0_split_0
I1013 17:05:32.471843  8042 net.cpp:382] res4b4_branch2a -> res4b4_branch2a
I1013 17:05:32.473348  8042 net.cpp:124] Setting up res4b4_branch2a
I1013 17:05:32.473362  8042 net.cpp:131] Top shape: 4 256 24 32 (786432)
I1013 17:05:32.473378  8042 net.cpp:139] Memory required for data: 3252716176
I1013 17:05:32.473383  8042 layer_factory.hpp:77] Creating layer bn4b4_branch2a
I1013 17:05:32.473397  8042 net.cpp:86] Creating Layer bn4b4_branch2a
I1013 17:05:32.473402  8042 net.cpp:408] bn4b4_branch2a <- res4b4_branch2a
I1013 17:05:32.473409  8042 net.cpp:369] bn4b4_branch2a -> res4b4_branch2a (in-place)
I1013 17:05:32.473665  8042 net.cpp:124] Setting up bn4b4_branch2a
I1013 17:05:32.473675  8042 net.cpp:131] Top shape: 4 256 24 32 (786432)
I1013 17:05:32.473677  8042 net.cpp:139] Memory required for data: 3255861904
I1013 17:05:32.473685  8042 layer_factory.hpp:77] Creating layer scale4b4_branch2a
I1013 17:05:32.473691  8042 net.cpp:86] Creating Layer scale4b4_branch2a
I1013 17:05:32.473695  8042 net.cpp:408] scale4b4_branch2a <- res4b4_branch2a
I1013 17:05:32.473703  8042 net.cpp:369] scale4b4_branch2a -> res4b4_branch2a (in-place)
I1013 17:05:32.473762  8042 layer_factory.hpp:77] Creating layer scale4b4_branch2a
I1013 17:05:32.473898  8042 net.cpp:124] Setting up scale4b4_branch2a
I1013 17:05:32.473912  8042 net.cpp:131] Top shape: 4 256 24 32 (786432)
I1013 17:05:32.473915  8042 net.cpp:139] Memory required for data: 3259007632
I1013 17:05:32.473920  8042 layer_factory.hpp:77] Creating layer res4b4_branch2a_relu
I1013 17:05:32.473927  8042 net.cpp:86] Creating Layer res4b4_branch2a_relu
I1013 17:05:32.473932  8042 net.cpp:408] res4b4_branch2a_relu <- res4b4_branch2a
I1013 17:05:32.473937  8042 net.cpp:369] res4b4_branch2a_relu -> res4b4_branch2a (in-place)
I1013 17:05:32.474205  8042 net.cpp:124] Setting up res4b4_branch2a_relu
I1013 17:05:32.474215  8042 net.cpp:131] Top shape: 4 256 24 32 (786432)
I1013 17:05:32.474220  8042 net.cpp:139] Memory required for data: 3262153360
I1013 17:05:32.474223  8042 layer_factory.hpp:77] Creating layer res4b4_branch2b
I1013 17:05:32.474233  8042 net.cpp:86] Creating Layer res4b4_branch2b
I1013 17:05:32.474238  8042 net.cpp:408] res4b4_branch2b <- res4b4_branch2a
I1013 17:05:32.474246  8042 net.cpp:382] res4b4_branch2b -> res4b4_branch2b
I1013 17:05:32.477797  8042 net.cpp:124] Setting up res4b4_branch2b
I1013 17:05:32.477813  8042 net.cpp:131] Top shape: 4 256 24 32 (786432)
I1013 17:05:32.477833  8042 net.cpp:139] Memory required for data: 3265299088
I1013 17:05:32.477841  8042 layer_factory.hpp:77] Creating layer bn4b4_branch2b
I1013 17:05:32.477851  8042 net.cpp:86] Creating Layer bn4b4_branch2b
I1013 17:05:32.477855  8042 net.cpp:408] bn4b4_branch2b <- res4b4_branch2b
I1013 17:05:32.477877  8042 net.cpp:369] bn4b4_branch2b -> res4b4_branch2b (in-place)
I1013 17:05:32.478154  8042 net.cpp:124] Setting up bn4b4_branch2b
I1013 17:05:32.478181  8042 net.cpp:131] Top shape: 4 256 24 32 (786432)
I1013 17:05:32.478185  8042 net.cpp:139] Memory required for data: 3268444816
I1013 17:05:32.478191  8042 layer_factory.hpp:77] Creating layer scale4b4_branch2b
I1013 17:05:32.478201  8042 net.cpp:86] Creating Layer scale4b4_branch2b
I1013 17:05:32.478205  8042 net.cpp:408] scale4b4_branch2b <- res4b4_branch2b
I1013 17:05:32.478210  8042 net.cpp:369] scale4b4_branch2b -> res4b4_branch2b (in-place)
I1013 17:05:32.478291  8042 layer_factory.hpp:77] Creating layer scale4b4_branch2b
I1013 17:05:32.478440  8042 net.cpp:124] Setting up scale4b4_branch2b
I1013 17:05:32.478449  8042 net.cpp:131] Top shape: 4 256 24 32 (786432)
I1013 17:05:32.478452  8042 net.cpp:139] Memory required for data: 3271590544
I1013 17:05:32.478458  8042 layer_factory.hpp:77] Creating layer res4b4_branch2b_relu
I1013 17:05:32.478464  8042 net.cpp:86] Creating Layer res4b4_branch2b_relu
I1013 17:05:32.478468  8042 net.cpp:408] res4b4_branch2b_relu <- res4b4_branch2b
I1013 17:05:32.478476  8042 net.cpp:369] res4b4_branch2b_relu -> res4b4_branch2b (in-place)
I1013 17:05:32.479151  8042 net.cpp:124] Setting up res4b4_branch2b_relu
I1013 17:05:32.479166  8042 net.cpp:131] Top shape: 4 256 24 32 (786432)
I1013 17:05:32.479185  8042 net.cpp:139] Memory required for data: 3274736272
I1013 17:05:32.479189  8042 layer_factory.hpp:77] Creating layer res4b4_branch2c
I1013 17:05:32.479202  8042 net.cpp:86] Creating Layer res4b4_branch2c
I1013 17:05:32.479207  8042 net.cpp:408] res4b4_branch2c <- res4b4_branch2b
I1013 17:05:32.479230  8042 net.cpp:382] res4b4_branch2c -> res4b4_branch2c
I1013 17:05:32.482084  8042 net.cpp:124] Setting up res4b4_branch2c
I1013 17:05:32.482115  8042 net.cpp:131] Top shape: 4 1024 24 32 (3145728)
I1013 17:05:32.482120  8042 net.cpp:139] Memory required for data: 3287319184
I1013 17:05:32.482125  8042 layer_factory.hpp:77] Creating layer bn4b4_branch2c
I1013 17:05:32.482137  8042 net.cpp:86] Creating Layer bn4b4_branch2c
I1013 17:05:32.482142  8042 net.cpp:408] bn4b4_branch2c <- res4b4_branch2c
I1013 17:05:32.482167  8042 net.cpp:369] bn4b4_branch2c -> res4b4_branch2c (in-place)
I1013 17:05:32.482455  8042 net.cpp:124] Setting up bn4b4_branch2c
I1013 17:05:32.482482  8042 net.cpp:131] Top shape: 4 1024 24 32 (3145728)
I1013 17:05:32.482501  8042 net.cpp:139] Memory required for data: 3299902096
I1013 17:05:32.482527  8042 layer_factory.hpp:77] Creating layer scale4b4_branch2c
I1013 17:05:32.482533  8042 net.cpp:86] Creating Layer scale4b4_branch2c
I1013 17:05:32.482537  8042 net.cpp:408] scale4b4_branch2c <- res4b4_branch2c
I1013 17:05:32.482543  8042 net.cpp:369] scale4b4_branch2c -> res4b4_branch2c (in-place)
I1013 17:05:32.482611  8042 layer_factory.hpp:77] Creating layer scale4b4_branch2c
I1013 17:05:32.482761  8042 net.cpp:124] Setting up scale4b4_branch2c
I1013 17:05:32.482770  8042 net.cpp:131] Top shape: 4 1024 24 32 (3145728)
I1013 17:05:32.482789  8042 net.cpp:139] Memory required for data: 3312485008
I1013 17:05:32.482795  8042 layer_factory.hpp:77] Creating layer res4b4
I1013 17:05:32.482803  8042 net.cpp:86] Creating Layer res4b4
I1013 17:05:32.482808  8042 net.cpp:408] res4b4 <- res4b3_res4b3_relu_0_split_1
I1013 17:05:32.482813  8042 net.cpp:408] res4b4 <- res4b4_branch2c
I1013 17:05:32.482820  8042 net.cpp:382] res4b4 -> res4b4
I1013 17:05:32.482856  8042 net.cpp:124] Setting up res4b4
I1013 17:05:32.482864  8042 net.cpp:131] Top shape: 4 1024 24 32 (3145728)
I1013 17:05:32.482867  8042 net.cpp:139] Memory required for data: 3325067920
I1013 17:05:32.482873  8042 layer_factory.hpp:77] Creating layer res4b4_relu
I1013 17:05:32.482879  8042 net.cpp:86] Creating Layer res4b4_relu
I1013 17:05:32.482883  8042 net.cpp:408] res4b4_relu <- res4b4
I1013 17:05:32.482890  8042 net.cpp:369] res4b4_relu -> res4b4 (in-place)
I1013 17:05:32.483130  8042 net.cpp:124] Setting up res4b4_relu
I1013 17:05:32.483141  8042 net.cpp:131] Top shape: 4 1024 24 32 (3145728)
I1013 17:05:32.483144  8042 net.cpp:139] Memory required for data: 3337650832
I1013 17:05:32.483148  8042 layer_factory.hpp:77] Creating layer res4b4_res4b4_relu_0_split
I1013 17:05:32.483157  8042 net.cpp:86] Creating Layer res4b4_res4b4_relu_0_split
I1013 17:05:32.483161  8042 net.cpp:408] res4b4_res4b4_relu_0_split <- res4b4
I1013 17:05:32.483167  8042 net.cpp:382] res4b4_res4b4_relu_0_split -> res4b4_res4b4_relu_0_split_0
I1013 17:05:32.483177  8042 net.cpp:382] res4b4_res4b4_relu_0_split -> res4b4_res4b4_relu_0_split_1
I1013 17:05:32.483233  8042 net.cpp:124] Setting up res4b4_res4b4_relu_0_split
I1013 17:05:32.483242  8042 net.cpp:131] Top shape: 4 1024 24 32 (3145728)
I1013 17:05:32.483247  8042 net.cpp:131] Top shape: 4 1024 24 32 (3145728)
I1013 17:05:32.483249  8042 net.cpp:139] Memory required for data: 3362816656
I1013 17:05:32.483253  8042 layer_factory.hpp:77] Creating layer res4b5_branch2a
I1013 17:05:32.483263  8042 net.cpp:86] Creating Layer res4b5_branch2a
I1013 17:05:32.483268  8042 net.cpp:408] res4b5_branch2a <- res4b4_res4b4_relu_0_split_0
I1013 17:05:32.483276  8042 net.cpp:382] res4b5_branch2a -> res4b5_branch2a
I1013 17:05:32.484851  8042 net.cpp:124] Setting up res4b5_branch2a
I1013 17:05:32.484867  8042 net.cpp:131] Top shape: 4 256 24 32 (786432)
I1013 17:05:32.484886  8042 net.cpp:139] Memory required for data: 3365962384
I1013 17:05:32.484894  8042 layer_factory.hpp:77] Creating layer bn4b5_branch2a
I1013 17:05:32.484905  8042 net.cpp:86] Creating Layer bn4b5_branch2a
I1013 17:05:32.484910  8042 net.cpp:408] bn4b5_branch2a <- res4b5_branch2a
I1013 17:05:32.484916  8042 net.cpp:369] bn4b5_branch2a -> res4b5_branch2a (in-place)
I1013 17:05:32.485190  8042 net.cpp:124] Setting up bn4b5_branch2a
I1013 17:05:32.485200  8042 net.cpp:131] Top shape: 4 256 24 32 (786432)
I1013 17:05:32.485204  8042 net.cpp:139] Memory required for data: 3369108112
I1013 17:05:32.485211  8042 layer_factory.hpp:77] Creating layer scale4b5_branch2a
I1013 17:05:32.485218  8042 net.cpp:86] Creating Layer scale4b5_branch2a
I1013 17:05:32.485222  8042 net.cpp:408] scale4b5_branch2a <- res4b5_branch2a
I1013 17:05:32.485230  8042 net.cpp:369] scale4b5_branch2a -> res4b5_branch2a (in-place)
I1013 17:05:32.485283  8042 layer_factory.hpp:77] Creating layer scale4b5_branch2a
I1013 17:05:32.485427  8042 net.cpp:124] Setting up scale4b5_branch2a
I1013 17:05:32.485437  8042 net.cpp:131] Top shape: 4 256 24 32 (786432)
I1013 17:05:32.485441  8042 net.cpp:139] Memory required for data: 3372253840
I1013 17:05:32.485448  8042 layer_factory.hpp:77] Creating layer res4b5_branch2a_relu
I1013 17:05:32.485455  8042 net.cpp:86] Creating Layer res4b5_branch2a_relu
I1013 17:05:32.485460  8042 net.cpp:408] res4b5_branch2a_relu <- res4b5_branch2a
I1013 17:05:32.485466  8042 net.cpp:369] res4b5_branch2a_relu -> res4b5_branch2a (in-place)
I1013 17:05:32.485707  8042 net.cpp:124] Setting up res4b5_branch2a_relu
I1013 17:05:32.485720  8042 net.cpp:131] Top shape: 4 256 24 32 (786432)
I1013 17:05:32.485724  8042 net.cpp:139] Memory required for data: 3375399568
I1013 17:05:32.485739  8042 layer_factory.hpp:77] Creating layer res4b5_branch2b
I1013 17:05:32.485759  8042 net.cpp:86] Creating Layer res4b5_branch2b
I1013 17:05:32.485764  8042 net.cpp:408] res4b5_branch2b <- res4b5_branch2a
I1013 17:05:32.485774  8042 net.cpp:382] res4b5_branch2b -> res4b5_branch2b
I1013 17:05:32.489493  8042 net.cpp:124] Setting up res4b5_branch2b
I1013 17:05:32.489512  8042 net.cpp:131] Top shape: 4 256 24 32 (786432)
I1013 17:05:32.489516  8042 net.cpp:139] Memory required for data: 3378545296
I1013 17:05:32.489522  8042 layer_factory.hpp:77] Creating layer bn4b5_branch2b
I1013 17:05:32.489531  8042 net.cpp:86] Creating Layer bn4b5_branch2b
I1013 17:05:32.489534  8042 net.cpp:408] bn4b5_branch2b <- res4b5_branch2b
I1013 17:05:32.489543  8042 net.cpp:369] bn4b5_branch2b -> res4b5_branch2b (in-place)
I1013 17:05:32.489822  8042 net.cpp:124] Setting up bn4b5_branch2b
I1013 17:05:32.489832  8042 net.cpp:131] Top shape: 4 256 24 32 (786432)
I1013 17:05:32.489835  8042 net.cpp:139] Memory required for data: 3381691024
I1013 17:05:32.489843  8042 layer_factory.hpp:77] Creating layer scale4b5_branch2b
I1013 17:05:32.489852  8042 net.cpp:86] Creating Layer scale4b5_branch2b
I1013 17:05:32.489856  8042 net.cpp:408] scale4b5_branch2b <- res4b5_branch2b
I1013 17:05:32.489862  8042 net.cpp:369] scale4b5_branch2b -> res4b5_branch2b (in-place)
I1013 17:05:32.489918  8042 layer_factory.hpp:77] Creating layer scale4b5_branch2b
I1013 17:05:32.490067  8042 net.cpp:124] Setting up scale4b5_branch2b
I1013 17:05:32.490077  8042 net.cpp:131] Top shape: 4 256 24 32 (786432)
I1013 17:05:32.490080  8042 net.cpp:139] Memory required for data: 3384836752
I1013 17:05:32.490087  8042 layer_factory.hpp:77] Creating layer res4b5_branch2b_relu
I1013 17:05:32.490092  8042 net.cpp:86] Creating Layer res4b5_branch2b_relu
I1013 17:05:32.490097  8042 net.cpp:408] res4b5_branch2b_relu <- res4b5_branch2b
I1013 17:05:32.490104  8042 net.cpp:369] res4b5_branch2b_relu -> res4b5_branch2b (in-place)
I1013 17:05:32.490357  8042 net.cpp:124] Setting up res4b5_branch2b_relu
I1013 17:05:32.490370  8042 net.cpp:131] Top shape: 4 256 24 32 (786432)
I1013 17:05:32.490373  8042 net.cpp:139] Memory required for data: 3387982480
I1013 17:05:32.490380  8042 layer_factory.hpp:77] Creating layer res4b5_branch2c
I1013 17:05:32.490391  8042 net.cpp:86] Creating Layer res4b5_branch2c
I1013 17:05:32.490396  8042 net.cpp:408] res4b5_branch2c <- res4b5_branch2b
I1013 17:05:32.490404  8042 net.cpp:382] res4b5_branch2c -> res4b5_branch2c
I1013 17:05:32.493724  8042 net.cpp:124] Setting up res4b5_branch2c
I1013 17:05:32.493741  8042 net.cpp:131] Top shape: 4 1024 24 32 (3145728)
I1013 17:05:32.493762  8042 net.cpp:139] Memory required for data: 3400565392
I1013 17:05:32.493767  8042 layer_factory.hpp:77] Creating layer bn4b5_branch2c
I1013 17:05:32.493777  8042 net.cpp:86] Creating Layer bn4b5_branch2c
I1013 17:05:32.493782  8042 net.cpp:408] bn4b5_branch2c <- res4b5_branch2c
I1013 17:05:32.493788  8042 net.cpp:369] bn4b5_branch2c -> res4b5_branch2c (in-place)
I1013 17:05:32.494065  8042 net.cpp:124] Setting up bn4b5_branch2c
I1013 17:05:32.494074  8042 net.cpp:131] Top shape: 4 1024 24 32 (3145728)
I1013 17:05:32.494096  8042 net.cpp:139] Memory required for data: 3413148304
I1013 17:05:32.494119  8042 layer_factory.hpp:77] Creating layer scale4b5_branch2c
I1013 17:05:32.494128  8042 net.cpp:86] Creating Layer scale4b5_branch2c
I1013 17:05:32.494132  8042 net.cpp:408] scale4b5_branch2c <- res4b5_branch2c
I1013 17:05:32.494138  8042 net.cpp:369] scale4b5_branch2c -> res4b5_branch2c (in-place)
I1013 17:05:32.494191  8042 layer_factory.hpp:77] Creating layer scale4b5_branch2c
I1013 17:05:32.494364  8042 net.cpp:124] Setting up scale4b5_branch2c
I1013 17:05:32.494375  8042 net.cpp:131] Top shape: 4 1024 24 32 (3145728)
I1013 17:05:32.494379  8042 net.cpp:139] Memory required for data: 3425731216
I1013 17:05:32.494426  8042 layer_factory.hpp:77] Creating layer res4b5
I1013 17:05:32.494434  8042 net.cpp:86] Creating Layer res4b5
I1013 17:05:32.494451  8042 net.cpp:408] res4b5 <- res4b4_res4b4_relu_0_split_1
I1013 17:05:32.494457  8042 net.cpp:408] res4b5 <- res4b5_branch2c
I1013 17:05:32.494464  8042 net.cpp:382] res4b5 -> res4b5
I1013 17:05:32.494501  8042 net.cpp:124] Setting up res4b5
I1013 17:05:32.494509  8042 net.cpp:131] Top shape: 4 1024 24 32 (3145728)
I1013 17:05:32.494513  8042 net.cpp:139] Memory required for data: 3438314128
I1013 17:05:32.494519  8042 layer_factory.hpp:77] Creating layer res4b5_relu
I1013 17:05:32.494525  8042 net.cpp:86] Creating Layer res4b5_relu
I1013 17:05:32.494530  8042 net.cpp:408] res4b5_relu <- res4b5
I1013 17:05:32.494537  8042 net.cpp:369] res4b5_relu -> res4b5 (in-place)
I1013 17:05:32.495236  8042 net.cpp:124] Setting up res4b5_relu
I1013 17:05:32.495251  8042 net.cpp:131] Top shape: 4 1024 24 32 (3145728)
I1013 17:05:32.495270  8042 net.cpp:139] Memory required for data: 3450897040
I1013 17:05:32.495275  8042 layer_factory.hpp:77] Creating layer res4b5_res4b5_relu_0_split
I1013 17:05:32.495285  8042 net.cpp:86] Creating Layer res4b5_res4b5_relu_0_split
I1013 17:05:32.495290  8042 net.cpp:408] res4b5_res4b5_relu_0_split <- res4b5
I1013 17:05:32.495296  8042 net.cpp:382] res4b5_res4b5_relu_0_split -> res4b5_res4b5_relu_0_split_0
I1013 17:05:32.495304  8042 net.cpp:382] res4b5_res4b5_relu_0_split -> res4b5_res4b5_relu_0_split_1
I1013 17:05:32.495368  8042 net.cpp:124] Setting up res4b5_res4b5_relu_0_split
I1013 17:05:32.495376  8042 net.cpp:131] Top shape: 4 1024 24 32 (3145728)
I1013 17:05:32.495381  8042 net.cpp:131] Top shape: 4 1024 24 32 (3145728)
I1013 17:05:32.495384  8042 net.cpp:139] Memory required for data: 3476062864
I1013 17:05:32.495388  8042 layer_factory.hpp:77] Creating layer res4b6_branch2a
I1013 17:05:32.495398  8042 net.cpp:86] Creating Layer res4b6_branch2a
I1013 17:05:32.495402  8042 net.cpp:408] res4b6_branch2a <- res4b5_res4b5_relu_0_split_0
I1013 17:05:32.495410  8042 net.cpp:382] res4b6_branch2a -> res4b6_branch2a
I1013 17:05:32.497025  8042 net.cpp:124] Setting up res4b6_branch2a
I1013 17:05:32.497040  8042 net.cpp:131] Top shape: 4 256 24 32 (786432)
I1013 17:05:32.497061  8042 net.cpp:139] Memory required for data: 3479208592
I1013 17:05:32.497068  8042 layer_factory.hpp:77] Creating layer bn4b6_branch2a
I1013 17:05:32.497079  8042 net.cpp:86] Creating Layer bn4b6_branch2a
I1013 17:05:32.497084  8042 net.cpp:408] bn4b6_branch2a <- res4b6_branch2a
I1013 17:05:32.497090  8042 net.cpp:369] bn4b6_branch2a -> res4b6_branch2a (in-place)
I1013 17:05:32.497364  8042 net.cpp:124] Setting up bn4b6_branch2a
I1013 17:05:32.497373  8042 net.cpp:131] Top shape: 4 256 24 32 (786432)
I1013 17:05:32.497395  8042 net.cpp:139] Memory required for data: 3482354320
I1013 17:05:32.497401  8042 layer_factory.hpp:77] Creating layer scale4b6_branch2a
I1013 17:05:32.497427  8042 net.cpp:86] Creating Layer scale4b6_branch2a
I1013 17:05:32.497434  8042 net.cpp:408] scale4b6_branch2a <- res4b6_branch2a
I1013 17:05:32.497439  8042 net.cpp:369] scale4b6_branch2a -> res4b6_branch2a (in-place)
I1013 17:05:32.497498  8042 layer_factory.hpp:77] Creating layer scale4b6_branch2a
I1013 17:05:32.497648  8042 net.cpp:124] Setting up scale4b6_branch2a
I1013 17:05:32.497658  8042 net.cpp:131] Top shape: 4 256 24 32 (786432)
I1013 17:05:32.497661  8042 net.cpp:139] Memory required for data: 3485500048
I1013 17:05:32.497668  8042 layer_factory.hpp:77] Creating layer res4b6_branch2a_relu
I1013 17:05:32.497673  8042 net.cpp:86] Creating Layer res4b6_branch2a_relu
I1013 17:05:32.497678  8042 net.cpp:408] res4b6_branch2a_relu <- res4b6_branch2a
I1013 17:05:32.497684  8042 net.cpp:369] res4b6_branch2a_relu -> res4b6_branch2a (in-place)
I1013 17:05:32.497922  8042 net.cpp:124] Setting up res4b6_branch2a_relu
I1013 17:05:32.497933  8042 net.cpp:131] Top shape: 4 256 24 32 (786432)
I1013 17:05:32.497937  8042 net.cpp:139] Memory required for data: 3488645776
I1013 17:05:32.497941  8042 layer_factory.hpp:77] Creating layer res4b6_branch2b
I1013 17:05:32.497952  8042 net.cpp:86] Creating Layer res4b6_branch2b
I1013 17:05:32.497957  8042 net.cpp:408] res4b6_branch2b <- res4b6_branch2a
I1013 17:05:32.497978  8042 net.cpp:382] res4b6_branch2b -> res4b6_branch2b
I1013 17:05:32.501648  8042 net.cpp:124] Setting up res4b6_branch2b
I1013 17:05:32.501683  8042 net.cpp:131] Top shape: 4 256 24 32 (786432)
I1013 17:05:32.501688  8042 net.cpp:139] Memory required for data: 3491791504
I1013 17:05:32.501694  8042 layer_factory.hpp:77] Creating layer bn4b6_branch2b
I1013 17:05:32.501701  8042 net.cpp:86] Creating Layer bn4b6_branch2b
I1013 17:05:32.501705  8042 net.cpp:408] bn4b6_branch2b <- res4b6_branch2b
I1013 17:05:32.501714  8042 net.cpp:369] bn4b6_branch2b -> res4b6_branch2b (in-place)
I1013 17:05:32.502002  8042 net.cpp:124] Setting up bn4b6_branch2b
I1013 17:05:32.502012  8042 net.cpp:131] Top shape: 4 256 24 32 (786432)
I1013 17:05:32.502015  8042 net.cpp:139] Memory required for data: 3494937232
I1013 17:05:32.502022  8042 layer_factory.hpp:77] Creating layer scale4b6_branch2b
I1013 17:05:32.502029  8042 net.cpp:86] Creating Layer scale4b6_branch2b
I1013 17:05:32.502033  8042 net.cpp:408] scale4b6_branch2b <- res4b6_branch2b
I1013 17:05:32.502039  8042 net.cpp:369] scale4b6_branch2b -> res4b6_branch2b (in-place)
I1013 17:05:32.502096  8042 layer_factory.hpp:77] Creating layer scale4b6_branch2b
I1013 17:05:32.502249  8042 net.cpp:124] Setting up scale4b6_branch2b
I1013 17:05:32.502259  8042 net.cpp:131] Top shape: 4 256 24 32 (786432)
I1013 17:05:32.502262  8042 net.cpp:139] Memory required for data: 3498082960
I1013 17:05:32.502275  8042 layer_factory.hpp:77] Creating layer res4b6_branch2b_relu
I1013 17:05:32.502282  8042 net.cpp:86] Creating Layer res4b6_branch2b_relu
I1013 17:05:32.502286  8042 net.cpp:408] res4b6_branch2b_relu <- res4b6_branch2b
I1013 17:05:32.502295  8042 net.cpp:369] res4b6_branch2b_relu -> res4b6_branch2b (in-place)
I1013 17:05:32.502540  8042 net.cpp:124] Setting up res4b6_branch2b_relu
I1013 17:05:32.502552  8042 net.cpp:131] Top shape: 4 256 24 32 (786432)
I1013 17:05:32.502555  8042 net.cpp:139] Memory required for data: 3501228688
I1013 17:05:32.502562  8042 layer_factory.hpp:77] Creating layer res4b6_branch2c
I1013 17:05:32.502573  8042 net.cpp:86] Creating Layer res4b6_branch2c
I1013 17:05:32.502578  8042 net.cpp:408] res4b6_branch2c <- res4b6_branch2b
I1013 17:05:32.502583  8042 net.cpp:382] res4b6_branch2c -> res4b6_branch2c
I1013 17:05:32.505542  8042 net.cpp:124] Setting up res4b6_branch2c
I1013 17:05:32.505558  8042 net.cpp:131] Top shape: 4 1024 24 32 (3145728)
I1013 17:05:32.505563  8042 net.cpp:139] Memory required for data: 3513811600
I1013 17:05:32.505568  8042 layer_factory.hpp:77] Creating layer bn4b6_branch2c
I1013 17:05:32.505578  8042 net.cpp:86] Creating Layer bn4b6_branch2c
I1013 17:05:32.505583  8042 net.cpp:408] bn4b6_branch2c <- res4b6_branch2c
I1013 17:05:32.505589  8042 net.cpp:369] bn4b6_branch2c -> res4b6_branch2c (in-place)
I1013 17:05:32.505865  8042 net.cpp:124] Setting up bn4b6_branch2c
I1013 17:05:32.505875  8042 net.cpp:131] Top shape: 4 1024 24 32 (3145728)
I1013 17:05:32.505878  8042 net.cpp:139] Memory required for data: 3526394512
I1013 17:05:32.505887  8042 layer_factory.hpp:77] Creating layer scale4b6_branch2c
I1013 17:05:32.505895  8042 net.cpp:86] Creating Layer scale4b6_branch2c
I1013 17:05:32.505899  8042 net.cpp:408] scale4b6_branch2c <- res4b6_branch2c
I1013 17:05:32.505905  8042 net.cpp:369] scale4b6_branch2c -> res4b6_branch2c (in-place)
I1013 17:05:32.505957  8042 layer_factory.hpp:77] Creating layer scale4b6_branch2c
I1013 17:05:32.506112  8042 net.cpp:124] Setting up scale4b6_branch2c
I1013 17:05:32.506121  8042 net.cpp:131] Top shape: 4 1024 24 32 (3145728)
I1013 17:05:32.506124  8042 net.cpp:139] Memory required for data: 3538977424
I1013 17:05:32.506130  8042 layer_factory.hpp:77] Creating layer res4b6
…
I1013 17:05:32.679687  8042 net.cpp:408] res4b20_branch2b_relu <- res4b20_branch2b
I1013 17:05:32.679708  8042 net.cpp:369] res4b20_branch2b_relu -> res4b20_branch2b (in-place)
I1013 17:05:32.679966  8042 net.cpp:124] Setting up res4b20_branch2b_relu
I1013 17:05:32.679978  8042 net.cpp:131] Top shape: 4 256 24 32 (786432)
I1013 17:05:32.679981  8042 net.cpp:139] Memory required for data: 5086675600
I1013 17:05:32.679986  8042 layer_factory.hpp:77] Creating layer res4b20_branch2c
I1013 17:05:32.679997  8042 net.cpp:86] Creating Layer res4b20_branch2c
I1013 17:05:32.680002  8042 net.cpp:408] res4b20_branch2c <- res4b20_branch2b
I1013 17:05:32.680011  8042 net.cpp:382] res4b20_branch2c -> res4b20_branch2c
I1013 17:05:32.683375  8042 net.cpp:124] Setting up res4b20_branch2c
I1013 17:05:32.683406  8042 net.cpp:131] Top shape: 4 1024 24 32 (3145728)
I1013 17:05:32.683411  8042 net.cpp:139] Memory required for data: 5099258512
I1013 17:05:32.683416  8042 layer_factory.hpp:77] Creating layer bn4b20_branch2c
I1013 17:05:32.683428  8042 net.cpp:86] Creating Layer bn4b20_branch2c
I1013 17:05:32.683432  8042 net.cpp:408] bn4b20_branch2c <- res4b20_branch2c
I1013 17:05:32.683442  8042 net.cpp:369] bn4b20_branch2c -> res4b20_branch2c (in-place)
I1013 17:05:32.683800  8042 net.cpp:124] Setting up bn4b20_branch2c
I1013 17:05:32.683810  8042 net.cpp:131] Top shape: 4 1024 24 32 (3145728)
I1013 17:05:32.683830  8042 net.cpp:139] Memory required for data: 5111841424
I1013 17:05:32.683836  8042 layer_factory.hpp:77] Creating layer scale4b20_branch2c
I1013 17:05:32.683843  8042 net.cpp:86] Creating Layer scale4b20_branch2c
I1013 17:05:32.683847  8042 net.cpp:408] scale4b20_branch2c <- res4b20_branch2c
I1013 17:05:32.683878  8042 net.cpp:369] scale4b20_branch2c -> res4b20_branch2c (in-place)
I1013 17:05:32.683957  8042 layer_factory.hpp:77] Creating layer scale4b20_branch2c
I1013 17:05:32.684155  8042 net.cpp:124] Setting up scale4b20_branch2c
I1013 17:05:32.684168  8042 net.cpp:131] Top shape: 4 1024 24 32 (3145728)
I1013 17:05:32.684172  8042 net.cpp:139] Memory required for data: 5124424336
I1013 17:05:32.684178  8042 layer_factory.hpp:77] Creating layer res4b20
I1013 17:05:32.684185  8042 net.cpp:86] Creating Layer res4b20
I1013 17:05:32.684190  8042 net.cpp:408] res4b20 <- res4b19_res4b19_relu_0_split_1
I1013 17:05:32.684197  8042 net.cpp:408] res4b20 <- res4b20_branch2c
I1013 17:05:32.684204  8042 net.cpp:382] res4b20 -> res4b20
I1013 17:05:32.684245  8042 net.cpp:124] Setting up res4b20
I1013 17:05:32.684253  8042 net.cpp:131] Top shape: 4 1024 24 32 (3145728)
I1013 17:05:32.684257  8042 net.cpp:139] Memory required for data: 5137007248
I1013 17:05:32.684262  8042 layer_factory.hpp:77] Creating layer res4b20_relu
I1013 17:05:32.684270  8042 net.cpp:86] Creating Layer res4b20_relu
I1013 17:05:32.684274  8042 net.cpp:408] res4b20_relu <- res4b20
I1013 17:05:32.684280  8042 net.cpp:369] res4b20_relu -> res4b20 (in-place)
I1013 17:05:32.684545  8042 net.cpp:124] Setting up res4b20_relu
I1013 17:05:32.684558  8042 net.cpp:131] Top shape: 4 1024 24 32 (3145728)
I1013 17:05:32.684562  8042 net.cpp:139] Memory required for data: 5149590160
I1013 17:05:32.684566  8042 layer_factory.hpp:77] Creating layer res4b20_res4b20_relu_0_split
I1013 17:05:32.684572  8042 net.cpp:86] Creating Layer res4b20_res4b20_relu_0_split
I1013 17:05:32.684577  8042 net.cpp:408] res4b20_res4b20_relu_0_split <- res4b20
I1013 17:05:32.684583  8042 net.cpp:382] res4b20_res4b20_relu_0_split -> res4b20_res4b20_relu_0_split_0
I1013 17:05:32.684593  8042 net.cpp:382] res4b20_res4b20_relu_0_split -> res4b20_res4b20_relu_0_split_1
I1013 17:05:32.684666  8042 net.cpp:124] Setting up res4b20_res4b20_relu_0_split
I1013 17:05:32.684674  8042 net.cpp:131] Top shape: 4 1024 24 32 (3145728)
I1013 17:05:32.684679  8042 net.cpp:131] Top shape: 4 1024 24 32 (3145728)
I1013 17:05:32.684681  8042 net.cpp:139] Memory required for data: 5174755984
I1013 17:05:32.684685  8042 layer_factory.hpp:77] Creating layer res4b21_branch2a
I1013 17:05:32.684696  8042 net.cpp:86] Creating Layer res4b21_branch2a
I1013 17:05:32.684700  8042 net.cpp:408] res4b21_branch2a <- res4b20_res4b20_relu_0_split_0
I1013 17:05:32.684725  8042 net.cpp:382] res4b21_branch2a -> res4b21_branch2a
I1013 17:05:32.686595  8042 net.cpp:124] Setting up res4b21_branch2a
I1013 17:05:32.686626  8042 net.cpp:131] Top shape: 4 256 24 32 (786432)
I1013 17:05:32.686631  8042 net.cpp:139] Memory required for data: 5177901712
I1013 17:05:32.686640  8042 layer_factory.hpp:77] Creating layer bn4b21_branch2a
I1013 17:05:32.686650  8042 net.cpp:86] Creating Layer bn4b21_branch2a
I1013 17:05:32.686655  8042 net.cpp:408] bn4b21_branch2a <- res4b21_branch2a
I1013 17:05:32.686664  8042 net.cpp:369] bn4b21_branch2a -> res4b21_branch2a (in-place)
I1013 17:05:32.687048  8042 net.cpp:124] Setting up bn4b21_branch2a
I1013 17:05:32.687057  8042 net.cpp:131] Top shape: 4 256 24 32 (786432)
I1013 17:05:32.687077  8042 net.cpp:139] Memory required for data: 5181047440
I1013 17:05:32.687084  8042 layer_factory.hpp:77] Creating layer scale4b21_branch2a
I1013 17:05:32.687091  8042 net.cpp:86] Creating Layer scale4b21_branch2a
I1013 17:05:32.687096  8042 net.cpp:408] scale4b21_branch2a <- res4b21_branch2a
I1013 17:05:32.687103  8042 net.cpp:369] scale4b21_branch2a -> res4b21_branch2a (in-place)
I1013 17:05:32.687175  8042 layer_factory.hpp:77] Creating layer scale4b21_branch2a
I1013 17:05:32.687369  8042 net.cpp:124] Setting up scale4b21_branch2a
I1013 17:05:32.687379  8042 net.cpp:131] Top shape: 4 256 24 32 (786432)
I1013 17:05:32.687382  8042 net.cpp:139] Memory required for data: 5184193168
I1013 17:05:32.687388  8042 layer_factory.hpp:77] Creating layer res4b21_branch2a_relu
I1013 17:05:32.687397  8042 net.cpp:86] Creating Layer res4b21_branch2a_relu
I1013 17:05:32.687402  8042 net.cpp:408] res4b21_branch2a_relu <- res4b21_branch2a
I1013 17:05:32.687407  8042 net.cpp:369] res4b21_branch2a_relu -> res4b21_branch2a (in-place)
I1013 17:05:32.688231  8042 net.cpp:124] Setting up res4b21_branch2a_relu
I1013 17:05:32.688247  8042 net.cpp:131] Top shape: 4 256 24 32 (786432)
I1013 17:05:32.688267  8042 net.cpp:139] Memory required for data: 5187338896
I1013 17:05:32.688271  8042 layer_factory.hpp:77] Creating layer res4b21_branch2b
I1013 17:05:32.688284  8042 net.cpp:86] Creating Layer res4b21_branch2b
I1013 17:05:32.688289  8042 net.cpp:408] res4b21_branch2b <- res4b21_branch2a
I1013 17:05:32.688299  8042 net.cpp:382] res4b21_branch2b -> res4b21_branch2b
I1013 17:05:32.692536  8042 net.cpp:124] Setting up res4b21_branch2b
I1013 17:05:32.692553  8042 net.cpp:131] Top shape: 4 256 24 32 (786432)
I1013 17:05:32.692571  8042 net.cpp:139] Memory required for data: 5190484624
I1013 17:05:32.692579  8042 layer_factory.hpp:77] Creating layer bn4b21_branch2b
I1013 17:05:32.692589  8042 net.cpp:86] Creating Layer bn4b21_branch2b
I1013 17:05:32.692593  8042 net.cpp:408] bn4b21_branch2b <- res4b21_branch2b
I1013 17:05:32.692617  8042 net.cpp:369] bn4b21_branch2b -> res4b21_branch2b (in-place)
I1013 17:05:32.693027  8042 net.cpp:124] Setting up bn4b21_branch2b
I1013 17:05:32.693037  8042 net.cpp:131] Top shape: 4 256 24 32 (786432)
I1013 17:05:32.693055  8042 net.cpp:139] Memory required for data: 5193630352
I1013 17:05:32.693063  8042 layer_factory.hpp:77] Creating layer scale4b21_branch2b
I1013 17:05:32.693069  8042 net.cpp:86] Creating Layer scale4b21_branch2b
I1013 17:05:32.693074  8042 net.cpp:408] scale4b21_branch2b <- res4b21_branch2b
I1013 17:05:32.693079  8042 net.cpp:369] scale4b21_branch2b -> res4b21_branch2b (in-place)
I1013 17:05:32.693166  8042 layer_factory.hpp:77] Creating layer scale4b21_branch2b
I1013 17:05:32.693365  8042 net.cpp:124] Setting up scale4b21_branch2b
I1013 17:05:32.693375  8042 net.cpp:131] Top shape: 4 256 24 32 (786432)
I1013 17:05:32.693378  8042 net.cpp:139] Memory required for data: 5196776080
I1013 17:05:32.693383  8042 layer_factory.hpp:77] Creating layer res4b21_branch2b_relu
I1013 17:05:32.693392  8042 net.cpp:86] Creating Layer res4b21_branch2b_relu
I1013 17:05:32.693397  8042 net.cpp:408] res4b21_branch2b_relu <- res4b21_branch2b
I1013 17:05:32.693403  8042 net.cpp:369] res4b21_branch2b_relu -> res4b21_branch2b (in-place)
I1013 17:05:32.693687  8042 net.cpp:124] Setting up res4b21_branch2b_relu
I1013 17:05:32.693701  8042 net.cpp:131] Top shape: 4 256 24 32 (786432)
I1013 17:05:32.693703  8042 net.cpp:139] Memory required for data: 5199921808
I1013 17:05:32.693727  8042 layer_factory.hpp:77] Creating layer res4b21_branch2c
I1013 17:05:32.693754  8042 net.cpp:86] Creating Layer res4b21_branch2c
I1013 17:05:32.693775  8042 net.cpp:408] res4b21_branch2c <- res4b21_branch2b
I1013 17:05:32.693783  8042 net.cpp:382] res4b21_branch2c -> res4b21_branch2c
I1013 17:05:32.697067  8042 net.cpp:124] Setting up res4b21_branch2c
I1013 17:05:32.697100  8042 net.cpp:131] Top shape: 4 1024 24 32 (3145728)
I1013 17:05:32.697104  8042 net.cpp:139] Memory required for data: 5212504720
I1013 17:05:32.697110  8042 layer_factory.hpp:77] Creating layer bn4b21_branch2c
I1013 17:05:32.697120  8042 net.cpp:86] Creating Layer bn4b21_branch2c
I1013 17:05:32.697124  8042 net.cpp:408] bn4b21_branch2c <- res4b21_branch2c
I1013 17:05:32.697147  8042 net.cpp:369] bn4b21_branch2c -> res4b21_branch2c (in-place)
I1013 17:05:32.697525  8042 net.cpp:124] Setting up bn4b21_branch2c
I1013 17:05:32.697533  8042 net.cpp:131] Top shape: 4 1024 24 32 (3145728)
I1013 17:05:32.697551  8042 net.cpp:139] Memory required for data: 5225087632
I1013 17:05:32.697559  8042 layer_factory.hpp:77] Creating layer scale4b21_branch2c
I1013 17:05:32.697568  8042 net.cpp:86] Creating Layer scale4b21_branch2c
I1013 17:05:32.697572  8042 net.cpp:408] scale4b21_branch2c <- res4b21_branch2c
I1013 17:05:32.697577  8042 net.cpp:369] scale4b21_branch2c -> res4b21_branch2c (in-place)
I1013 17:05:32.697662  8042 layer_factory.hpp:77] Creating layer scale4b21_branch2c
I1013 17:05:32.697860  8042 net.cpp:124] Setting up scale4b21_branch2c
I1013 17:05:32.697868  8042 net.cpp:131] Top shape: 4 1024 24 32 (3145728)
I1013 17:05:32.697871  8042 net.cpp:139] Memory required for data: 5237670544
I1013 17:05:32.697877  8042 layer_factory.hpp:77] Creating layer res4b21
I1013 17:05:32.697883  8042 net.cpp:86] Creating Layer res4b21
I1013 17:05:32.697887  8042 net.cpp:408] res4b21 <- res4b20_res4b20_relu_0_split_1
I1013 17:05:32.697892  8042 net.cpp:408] res4b21 <- res4b21_branch2c
I1013 17:05:32.697901  8042 net.cpp:382] res4b21 -> res4b21
I1013 17:05:32.697943  8042 net.cpp:124] Setting up res4b21
I1013 17:05:32.697952  8042 net.cpp:131] Top shape: 4 1024 24 32 (3145728)
I1013 17:05:32.697954  8042 net.cpp:139] Memory required for data: 5250253456
I1013 17:05:32.697960  8042 layer_factory.hpp:77] Creating layer res4b21_relu
I1013 17:05:32.697966  8042 net.cpp:86] Creating Layer res4b21_relu
I1013 17:05:32.697970  8042 net.cpp:408] res4b21_relu <- res4b21
I1013 17:05:32.697975  8042 net.cpp:369] res4b21_relu -> res4b21 (in-place)
I1013 17:05:32.698228  8042 net.cpp:124] Setting up res4b21_relu
I1013 17:05:32.698240  8042 net.cpp:131] Top shape: 4 1024 24 32 (3145728)
I1013 17:05:32.698242  8042 net.cpp:139] Memory required for data: 5262836368
I1013 17:05:32.698246  8042 layer_factory.hpp:77] Creating layer res4b21_res4b21_relu_0_split
I1013 17:05:32.698253  8042 net.cpp:86] Creating Layer res4b21_res4b21_relu_0_split
I1013 17:05:32.698257  8042 net.cpp:408] res4b21_res4b21_relu_0_split <- res4b21
I1013 17:05:32.698272  8042 net.cpp:382] res4b21_res4b21_relu_0_split -> res4b21_res4b21_relu_0_split_0
I1013 17:05:32.698297  8042 net.cpp:382] res4b21_res4b21_relu_0_split -> res4b21_res4b21_relu_0_split_1
I1013 17:05:32.698375  8042 net.cpp:124] Setting up res4b21_res4b21_relu_0_split
I1013 17:05:32.698385  8042 net.cpp:131] Top shape: 4 1024 24 32 (3145728)
I1013 17:05:32.698390  8042 net.cpp:131] Top shape: 4 1024 24 32 (3145728)
I1013 17:05:32.698392  8042 net.cpp:139] Memory required for data: 5288002192
I1013 17:05:32.698396  8042 layer_factory.hpp:77] Creating layer res4b22_branch2a
I1013 17:05:32.698407  8042 net.cpp:86] Creating Layer res4b22_branch2a
I1013 17:05:32.698411  8042 net.cpp:408] res4b22_branch2a <- res4b21_res4b21_relu_0_split_0
I1013 17:05:32.698421  8042 net.cpp:382] res4b22_branch2a -> res4b22_branch2a
I1013 17:05:32.700266  8042 net.cpp:124] Setting up res4b22_branch2a
I1013 17:05:32.700281  8042 net.cpp:131] Top shape: 4 256 24 32 (786432)
I1013 17:05:32.700301  8042 net.cpp:139] Memory required for data: 5291147920
I1013 17:05:32.700309  8042 layer_factory.hpp:77] Creating layer bn4b22_branch2a
I1013 17:05:32.700318  8042 net.cpp:86] Creating Layer bn4b22_branch2a
I1013 17:05:32.700322  8042 net.cpp:408] bn4b22_branch2a <- res4b22_branch2a
I1013 17:05:32.700347  8042 net.cpp:369] bn4b22_branch2a -> res4b22_branch2a (in-place)
I1013 17:05:32.700750  8042 net.cpp:124] Setting up bn4b22_branch2a
I1013 17:05:32.700759  8042 net.cpp:131] Top shape: 4 256 24 32 (786432)
I1013 17:05:32.700778  8042 net.cpp:139] Memory required for data: 5294293648
I1013 17:05:32.700785  8042 layer_factory.hpp:77] Creating layer scale4b22_branch2a
I1013 17:05:32.700793  8042 net.cpp:86] Creating Layer scale4b22_branch2a
I1013 17:05:32.700798  8042 net.cpp:408] scale4b22_branch2a <- res4b22_branch2a
I1013 17:05:32.700804  8042 net.cpp:369] scale4b22_branch2a -> res4b22_branch2a (in-place)
I1013 17:05:32.700889  8042 layer_factory.hpp:77] Creating layer scale4b22_branch2a
I1013 17:05:32.701087  8042 net.cpp:124] Setting up scale4b22_branch2a
I1013 17:05:32.701097  8042 net.cpp:131] Top shape: 4 256 24 32 (786432)
I1013 17:05:32.701100  8042 net.cpp:139] Memory required for data: 5297439376
I1013 17:05:32.701107  8042 layer_factory.hpp:77] Creating layer res4b22_branch2a_relu
I1013 17:05:32.701112  8042 net.cpp:86] Creating Layer res4b22_branch2a_relu
I1013 17:05:32.701117  8042 net.cpp:408] res4b22_branch2a_relu <- res4b22_branch2a
I1013 17:05:32.701124  8042 net.cpp:369] res4b22_branch2a_relu -> res4b22_branch2a (in-place)
I1013 17:05:32.701401  8042 net.cpp:124] Setting up res4b22_branch2a_relu
I1013 17:05:32.701431  8042 net.cpp:131] Top shape: 4 256 24 32 (786432)
I1013 17:05:32.701448  8042 net.cpp:139] Memory required for data: 5300585104
I1013 17:05:32.701452  8042 layer_factory.hpp:77] Creating layer res4b22_branch2b
I1013 17:05:32.701479  8042 net.cpp:86] Creating Layer res4b22_branch2b
I1013 17:05:32.701484  8042 net.cpp:408] res4b22_branch2b <- res4b22_branch2a
I1013 17:05:32.701493  8042 net.cpp:382] res4b22_branch2b -> res4b22_branch2b
I1013 17:05:32.705715  8042 net.cpp:124] Setting up res4b22_branch2b
I1013 17:05:32.705749  8042 net.cpp:131] Top shape: 4 256 24 32 (786432)
I1013 17:05:32.705752  8042 net.cpp:139] Memory required for data: 5303730832
I1013 17:05:32.705760  8042 layer_factory.hpp:77] Creating layer bn4b22_branch2b
I1013 17:05:32.705770  8042 net.cpp:86] Creating Layer bn4b22_branch2b
I1013 17:05:32.705775  8042 net.cpp:408] bn4b22_branch2b <- res4b22_branch2b
I1013 17:05:32.705797  8042 net.cpp:369] bn4b22_branch2b -> res4b22_branch2b (in-place)
I1013 17:05:32.706207  8042 net.cpp:124] Setting up bn4b22_branch2b
I1013 17:05:32.706216  8042 net.cpp:131] Top shape: 4 256 24 32 (786432)
I1013 17:05:32.706235  8042 net.cpp:139] Memory required for data: 5306876560
I1013 17:05:32.706243  8042 layer_factory.hpp:77] Creating layer scale4b22_branch2b
I1013 17:05:32.706252  8042 net.cpp:86] Creating Layer scale4b22_branch2b
I1013 17:05:32.706257  8042 net.cpp:408] scale4b22_branch2b <- res4b22_branch2b
I1013 17:05:32.706262  8042 net.cpp:369] scale4b22_branch2b -> res4b22_branch2b (in-place)
I1013 17:05:32.706375  8042 layer_factory.hpp:77] Creating layer scale4b22_branch2b
I1013 17:05:32.706579  8042 net.cpp:124] Setting up scale4b22_branch2b
I1013 17:05:32.706589  8042 net.cpp:131] Top shape: 4 256 24 32 (786432)
I1013 17:05:32.706593  8042 net.cpp:139] Memory required for data: 5310022288
I1013 17:05:32.706598  8042 layer_factory.hpp:77] Creating layer res4b22_branch2b_relu
I1013 17:05:32.706605  8042 net.cpp:86] Creating Layer res4b22_branch2b_relu
I1013 17:05:32.706609  8042 net.cpp:408] res4b22_branch2b_relu <- res4b22_branch2b
I1013 17:05:32.706617  8042 net.cpp:369] res4b22_branch2b_relu -> res4b22_branch2b (in-place)
I1013 17:05:32.707446  8042 net.cpp:124] Setting up res4b22_branch2b_relu
I1013 17:05:32.707474  8042 net.cpp:131] Top shape: 4 256 24 32 (786432)
I1013 17:05:32.707494  8042 net.cpp:139] Memory required for data: 5313168016
I1013 17:05:32.707501  8042 layer_factory.hpp:77] Creating layer res4b22_branch2c
I1013 17:05:32.707512  8042 net.cpp:86] Creating Layer res4b22_branch2c
I1013 17:05:32.707518  8042 net.cpp:408] res4b22_branch2c <- res4b22_branch2b
I1013 17:05:32.707527  8042 net.cpp:382] res4b22_branch2c -> res4b22_branch2c
I1013 17:05:32.711051  8042 net.cpp:124] Setting up res4b22_branch2c
I1013 17:05:32.711067  8042 net.cpp:131] Top shape: 4 1024 24 32 (3145728)
I1013 17:05:32.711088  8042 net.cpp:139] Memory required for data: 5325750928
I1013 17:05:32.711094  8042 layer_factory.hpp:77] Creating layer bn4b22_branch2c
I1013 17:05:32.711105  8042 net.cpp:86] Creating Layer bn4b22_branch2c
I1013 17:05:32.711110  8042 net.cpp:408] bn4b22_branch2c <- res4b22_branch2c
I1013 17:05:32.711120  8042 net.cpp:369] bn4b22_branch2c -> res4b22_branch2c (in-place)
I1013 17:05:32.711504  8042 net.cpp:124] Setting up bn4b22_branch2c
I1013 17:05:32.711513  8042 net.cpp:131] Top shape: 4 1024 24 32 (3145728)
I1013 17:05:32.711532  8042 net.cpp:139] Memory required for data: 5338333840
I1013 17:05:32.711540  8042 layer_factory.hpp:77] Creating layer scale4b22_branch2c
I1013 17:05:32.711549  8042 net.cpp:86] Creating Layer scale4b22_branch2c
I1013 17:05:32.711552  8042 net.cpp:408] scale4b22_branch2c <- res4b22_branch2c
I1013 17:05:32.711558  8042 net.cpp:369] scale4b22_branch2c -> res4b22_branch2c (in-place)
I1013 17:05:32.711624  8042 layer_factory.hpp:77] Creating layer scale4b22_branch2c
I1013 17:05:32.711827  8042 net.cpp:124] Setting up scale4b22_branch2c
I1013 17:05:32.711854  8042 net.cpp:131] Top shape: 4 1024 24 32 (3145728)
I1013 17:05:32.711858  8042 net.cpp:139] Memory required for data: 5350916752
I1013 17:05:32.711863  8042 layer_factory.hpp:77] Creating layer res4b22
I1013 17:05:32.711872  8042 net.cpp:86] Creating Layer res4b22
I1013 17:05:32.711876  8042 net.cpp:408] res4b22 <- res4b21_res4b21_relu_0_split_1
I1013 17:05:32.711881  8042 net.cpp:408] res4b22 <- res4b22_branch2c
I1013 17:05:32.711905  8042 net.cpp:382] res4b22 -> res4b22
I1013 17:05:32.711946  8042 net.cpp:124] Setting up res4b22
I1013 17:05:32.711954  8042 net.cpp:131] Top shape: 4 1024 24 32 (3145728)
I1013 17:05:32.711957  8042 net.cpp:139] Memory required for data: 5363499664
I1013 17:05:32.711964  8042 layer_factory.hpp:77] Creating layer res4b22_relu
I1013 17:05:32.711971  8042 net.cpp:86] Creating Layer res4b22_relu
I1013 17:05:32.711974  8042 net.cpp:408] res4b22_relu <- res4b22
I1013 17:05:32.711982  8042 net.cpp:369] res4b22_relu -> res4b22 (in-place)
I1013 17:05:32.712242  8042 net.cpp:124] Setting up res4b22_relu
I1013 17:05:32.712254  8042 net.cpp:131] Top shape: 4 1024 24 32 (3145728)
I1013 17:05:32.712257  8042 net.cpp:139] Memory required for data: 5376082576
I1013 17:05:32.712261  8042 layer_factory.hpp:77] Creating layer res4b22_res4b22_relu_0_split
I1013 17:05:32.712270  8042 net.cpp:86] Creating Layer res4b22_res4b22_relu_0_split
I1013 17:05:32.712275  8042 net.cpp:408] res4b22_res4b22_relu_0_split <- res4b22
I1013 17:05:32.712283  8042 net.cpp:382] res4b22_res4b22_relu_0_split -> res4b22_res4b22_relu_0_split_0
I1013 17:05:32.712291  8042 net.cpp:382] res4b22_res4b22_relu_0_split -> res4b22_res4b22_relu_0_split_1
I1013 17:05:32.712371  8042 net.cpp:124] Setting up res4b22_res4b22_relu_0_split
I1013 17:05:32.712381  8042 net.cpp:131] Top shape: 4 1024 24 32 (3145728)
I1013 17:05:32.712386  8042 net.cpp:131] Top shape: 4 1024 24 32 (3145728)
I1013 17:05:32.712389  8042 net.cpp:139] Memory required for data: 5401248400
I1013 17:05:32.712393  8042 layer_factory.hpp:77] Creating layer res5a_branch1
I1013 17:05:32.712401  8042 net.cpp:86] Creating Layer res5a_branch1
I1013 17:05:32.712405  8042 net.cpp:408] res5a_branch1 <- res4b22_res4b22_relu_0_split_0
I1013 17:05:32.712415  8042 net.cpp:382] res5a_branch1 -> res5a_branch1
I1013 17:05:32.719959  8042 net.cpp:124] Setting up res5a_branch1
I1013 17:05:32.719995  8042 net.cpp:131] Top shape: 4 2048 12 16 (1572864)
I1013 17:05:32.720011  8042 net.cpp:139] Memory required for data: 5407539856
I1013 17:05:32.720019  8042 layer_factory.hpp:77] Creating layer bn5a_branch1
I1013 17:05:32.720028  8042 net.cpp:86] Creating Layer bn5a_branch1
I1013 17:05:32.720033  8042 net.cpp:408] bn5a_branch1 <- res5a_branch1
I1013 17:05:32.720041  8042 net.cpp:369] bn5a_branch1 -> res5a_branch1 (in-place)
I1013 17:05:32.720438  8042 net.cpp:124] Setting up bn5a_branch1
I1013 17:05:32.720448  8042 net.cpp:131] Top shape: 4 2048 12 16 (1572864)
I1013 17:05:32.720468  8042 net.cpp:139] Memory required for data: 5413831312
I1013 17:05:32.720474  8042 layer_factory.hpp:77] Creating layer scale5a_branch1
I1013 17:05:32.720490  8042 net.cpp:86] Creating Layer scale5a_branch1
I1013 17:05:32.720495  8042 net.cpp:408] scale5a_branch1 <- res5a_branch1
I1013 17:05:32.720502  8042 net.cpp:369] scale5a_branch1 -> res5a_branch1 (in-place)
I1013 17:05:32.720584  8042 layer_factory.hpp:77] Creating layer scale5a_branch1
I1013 17:05:32.720803  8042 net.cpp:124] Setting up scale5a_branch1
I1013 17:05:32.720815  8042 net.cpp:131] Top shape: 4 2048 12 16 (1572864)
I1013 17:05:32.720818  8042 net.cpp:139] Memory required for data: 5420122768
I1013 17:05:32.720824  8042 layer_factory.hpp:77] Creating layer res5a_branch2a
I1013 17:05:32.720832  8042 net.cpp:86] Creating Layer res5a_branch2a
I1013 17:05:32.720839  8042 net.cpp:408] res5a_branch2a <- res4b22_res4b22_relu_0_split_1
I1013 17:05:32.720846  8042 net.cpp:382] res5a_branch2a -> res5a_branch2a
I1013 17:05:32.724290  8042 net.cpp:124] Setting up res5a_branch2a
I1013 17:05:32.724309  8042 net.cpp:131] Top shape: 4 512 12 16 (393216)
I1013 17:05:32.724329  8042 net.cpp:139] Memory required for data: 5421695632
I1013 17:05:32.724335  8042 layer_factory.hpp:77] Creating layer bn5a_branch2a
I1013 17:05:32.724344  8042 net.cpp:86] Creating Layer bn5a_branch2a
I1013 17:05:32.724349  8042 net.cpp:408] bn5a_branch2a <- res5a_branch2a
I1013 17:05:32.724373  8042 net.cpp:369] bn5a_branch2a -> res5a_branch2a (in-place)
I1013 17:05:32.724762  8042 net.cpp:124] Setting up bn5a_branch2a
I1013 17:05:32.724771  8042 net.cpp:131] Top shape: 4 512 12 16 (393216)
I1013 17:05:32.724789  8042 net.cpp:139] Memory required for data: 5423268496
I1013 17:05:32.724797  8042 layer_factory.hpp:77] Creating layer scale5a_branch2a
I1013 17:05:32.724803  8042 net.cpp:86] Creating Layer scale5a_branch2a
I1013 17:05:32.724807  8042 net.cpp:408] scale5a_branch2a <- res5a_branch2a
I1013 17:05:32.724814  8042 net.cpp:369] scale5a_branch2a -> res5a_branch2a (in-place)
I1013 17:05:32.724894  8042 layer_factory.hpp:77] Creating layer scale5a_branch2a
I1013 17:05:32.725106  8042 net.cpp:124] Setting up scale5a_branch2a
I1013 17:05:32.725116  8042 net.cpp:131] Top shape: 4 512 12 16 (393216)
I1013 17:05:32.725119  8042 net.cpp:139] Memory required for data: 5424841360
I1013 17:05:32.725126  8042 layer_factory.hpp:77] Creating layer res5a_branch2a_relu
I1013 17:05:32.725131  8042 net.cpp:86] Creating Layer res5a_branch2a_relu
I1013 17:05:32.725136  8042 net.cpp:408] res5a_branch2a_relu <- res5a_branch2a
I1013 17:05:32.725141  8042 net.cpp:369] res5a_branch2a_relu -> res5a_branch2a (in-place)
I1013 17:05:32.725447  8042 net.cpp:124] Setting up res5a_branch2a_relu
I1013 17:05:32.725457  8042 net.cpp:131] Top shape: 4 512 12 16 (393216)
I1013 17:05:32.725461  8042 net.cpp:139] Memory required for data: 5426414224
I1013 17:05:32.725464  8042 layer_factory.hpp:77] Creating layer res5a_branch2b
I1013 17:05:32.725492  8042 net.cpp:86] Creating Layer res5a_branch2b
I1013 17:05:32.725513  8042 net.cpp:408] res5a_branch2b <- res5a_branch2a
I1013 17:05:32.725520  8042 net.cpp:382] res5a_branch2b -> res5a_branch2b
I1013 17:05:32.733530  8042 net.cpp:124] Setting up res5a_branch2b
I1013 17:05:32.733546  8042 net.cpp:131] Top shape: 4 512 12 16 (393216)
I1013 17:05:32.733566  8042 net.cpp:139] Memory required for data: 5427987088
I1013 17:05:32.733573  8042 layer_factory.hpp:77] Creating layer bn5a_branch2b
I1013 17:05:32.733583  8042 net.cpp:86] Creating Layer bn5a_branch2b
I1013 17:05:32.733618  8042 net.cpp:408] bn5a_branch2b <- res5a_branch2b
I1013 17:05:32.733628  8042 net.cpp:369] bn5a_branch2b -> res5a_branch2b (in-place)
I1013 17:05:32.734025  8042 net.cpp:124] Setting up bn5a_branch2b
I1013 17:05:32.734033  8042 net.cpp:131] Top shape: 4 512 12 16 (393216)
I1013 17:05:32.734052  8042 net.cpp:139] Memory required for data: 5429559952
I1013 17:05:32.734060  8042 layer_factory.hpp:77] Creating layer scale5a_branch2b
I1013 17:05:32.734068  8042 net.cpp:86] Creating Layer scale5a_branch2b
I1013 17:05:32.734072  8042 net.cpp:408] scale5a_branch2b <- res5a_branch2b
I1013 17:05:32.734078  8042 net.cpp:369] scale5a_branch2b -> res5a_branch2b (in-place)
I1013 17:05:32.734158  8042 layer_factory.hpp:77] Creating layer scale5a_branch2b
I1013 17:05:32.734386  8042 net.cpp:124] Setting up scale5a_branch2b
I1013 17:05:32.734397  8042 net.cpp:131] Top shape: 4 512 12 16 (393216)
I1013 17:05:32.734401  8042 net.cpp:139] Memory required for data: 5431132816
I1013 17:05:32.734406  8042 layer_factory.hpp:77] Creating layer res5a_branch2b_relu
I1013 17:05:32.734412  8042 net.cpp:86] Creating Layer res5a_branch2b_relu
I1013 17:05:32.734416  8042 net.cpp:408] res5a_branch2b_relu <- res5a_branch2b
I1013 17:05:32.734426  8042 net.cpp:369] res5a_branch2b_relu -> res5a_branch2b (in-place)
I1013 17:05:32.735225  8042 net.cpp:124] Setting up res5a_branch2b_relu
I1013 17:05:32.735239  8042 net.cpp:131] Top shape: 4 512 12 16 (393216)
I1013 17:05:32.735258  8042 net.cpp:139] Memory required for data: 5432705680
I1013 17:05:32.735262  8042 layer_factory.hpp:77] Creating layer res5a_branch2c
I1013 17:05:32.735273  8042 net.cpp:86] Creating Layer res5a_branch2c
I1013 17:05:32.735278  8042 net.cpp:408] res5a_branch2c <- res5a_branch2b
I1013 17:05:32.735302  8042 net.cpp:382] res5a_branch2c -> res5a_branch2c
I1013 17:05:32.740114  8042 net.cpp:124] Setting up res5a_branch2c
I1013 17:05:32.740145  8042 net.cpp:131] Top shape: 4 2048 12 16 (1572864)
I1013 17:05:32.740149  8042 net.cpp:139] Memory required for data: 5438997136
I1013 17:05:32.740156  8042 layer_factory.hpp:77] Creating layer bn5a_branch2c
I1013 17:05:32.740167  8042 net.cpp:86] Creating Layer bn5a_branch2c
I1013 17:05:32.740172  8042 net.cpp:408] bn5a_branch2c <- res5a_branch2c
I1013 17:05:32.740196  8042 net.cpp:369] bn5a_branch2c -> res5a_branch2c (in-place)
I1013 17:05:32.740592  8042 net.cpp:124] Setting up bn5a_branch2c
I1013 17:05:32.740602  8042 net.cpp:131] Top shape: 4 2048 12 16 (1572864)
I1013 17:05:32.740620  8042 net.cpp:139] Memory required for data: 5445288592
I1013 17:05:32.740626  8042 layer_factory.hpp:77] Creating layer scale5a_branch2c
I1013 17:05:32.740633  8042 net.cpp:86] Creating Layer scale5a_branch2c
I1013 17:05:32.740638  8042 net.cpp:408] scale5a_branch2c <- res5a_branch2c
I1013 17:05:32.740643  8042 net.cpp:369] scale5a_branch2c -> res5a_branch2c (in-place)
I1013 17:05:32.740726  8042 layer_factory.hpp:77] Creating layer scale5a_branch2c
I1013 17:05:32.740938  8042 net.cpp:124] Setting up scale5a_branch2c
I1013 17:05:32.740952  8042 net.cpp:131] Top shape: 4 2048 12 16 (1572864)
I1013 17:05:32.740954  8042 net.cpp:139] Memory required for data: 5451580048
I1013 17:05:32.740959  8042 layer_factory.hpp:77] Creating layer res5a
I1013 17:05:32.740965  8042 net.cpp:86] Creating Layer res5a
I1013 17:05:32.740970  8042 net.cpp:408] res5a <- res5a_branch1
I1013 17:05:32.740975  8042 net.cpp:408] res5a <- res5a_branch2c
I1013 17:05:32.740980  8042 net.cpp:382] res5a -> res5a
I1013 17:05:32.741024  8042 net.cpp:124] Setting up res5a
I1013 17:05:32.741032  8042 net.cpp:131] Top shape: 4 2048 12 16 (1572864)
I1013 17:05:32.741035  8042 net.cpp:139] Memory required for data: 5457871504
I1013 17:05:32.741040  8042 layer_factory.hpp:77] Creating layer res5a_relu
I1013 17:05:32.741046  8042 net.cpp:86] Creating Layer res5a_relu
I1013 17:05:32.741050  8042 net.cpp:408] res5a_relu <- res5a
I1013 17:05:32.741058  8042 net.cpp:369] res5a_relu -> res5a (in-place)
I1013 17:05:32.741305  8042 net.cpp:124] Setting up res5a_relu
I1013 17:05:32.741328  8042 net.cpp:131] Top shape: 4 2048 12 16 (1572864)
I1013 17:05:32.741333  8042 net.cpp:139] Memory required for data: 5464162960
I1013 17:05:32.741336  8042 layer_factory.hpp:77] Creating layer res5a_res5a_relu_0_split
I1013 17:05:32.741345  8042 net.cpp:86] Creating Layer res5a_res5a_relu_0_split
I1013 17:05:32.741349  8042 net.cpp:408] res5a_res5a_relu_0_split <- res5a
I1013 17:05:32.741356  8042 net.cpp:382] res5a_res5a_relu_0_split -> res5a_res5a_relu_0_split_0
I1013 17:05:32.741364  8042 net.cpp:382] res5a_res5a_relu_0_split -> res5a_res5a_relu_0_split_1
I1013 17:05:32.741439  8042 net.cpp:124] Setting up res5a_res5a_relu_0_split
I1013 17:05:32.741447  8042 net.cpp:131] Top shape: 4 2048 12 16 (1572864)
I1013 17:05:32.741452  8042 net.cpp:131] Top shape: 4 2048 12 16 (1572864)
I1013 17:05:32.741456  8042 net.cpp:139] Memory required for data: 5476745872
I1013 17:05:32.741459  8042 layer_factory.hpp:77] Creating layer res5b_branch2a
I1013 17:05:32.741469  8042 net.cpp:86] Creating Layer res5b_branch2a
I1013 17:05:32.741474  8042 net.cpp:408] res5b_branch2a <- res5a_res5a_relu_0_split_0
I1013 17:05:32.741482  8042 net.cpp:382] res5b_branch2a -> res5b_branch2a
I1013 17:05:32.746431  8042 net.cpp:124] Setting up res5b_branch2a
I1013 17:05:32.746464  8042 net.cpp:131] Top shape: 4 512 12 16 (393216)
I1013 17:05:32.746469  8042 net.cpp:139] Memory required for data: 5478318736
I1013 17:05:32.746474  8042 layer_factory.hpp:77] Creating layer bn5b_branch2a
I1013 17:05:32.746485  8042 net.cpp:86] Creating Layer bn5b_branch2a
I1013 17:05:32.746490  8042 net.cpp:408] bn5b_branch2a <- res5b_branch2a
I1013 17:05:32.746500  8042 net.cpp:369] bn5b_branch2a -> res5b_branch2a (in-place)
I1013 17:05:32.746901  8042 net.cpp:124] Setting up bn5b_branch2a
I1013 17:05:32.746911  8042 net.cpp:131] Top shape: 4 512 12 16 (393216)
I1013 17:05:32.746929  8042 net.cpp:139] Memory required for data: 5479891600
I1013 17:05:32.746937  8042 layer_factory.hpp:77] Creating layer scale5b_branch2a
I1013 17:05:32.746946  8042 net.cpp:86] Creating Layer scale5b_branch2a
I1013 17:05:32.746950  8042 net.cpp:408] scale5b_branch2a <- res5b_branch2a
I1013 17:05:32.746955  8042 net.cpp:369] scale5b_branch2a -> res5b_branch2a (in-place)
I1013 17:05:32.747022  8042 layer_factory.hpp:77] Creating layer scale5b_branch2a
I1013 17:05:32.747234  8042 net.cpp:124] Setting up scale5b_branch2a
I1013 17:05:32.747244  8042 net.cpp:131] Top shape: 4 512 12 16 (393216)
I1013 17:05:32.747247  8042 net.cpp:139] Memory required for data: 5481464464
I1013 17:05:32.747257  8042 layer_factory.hpp:77] Creating layer res5b_branch2a_relu
I1013 17:05:32.747264  8042 net.cpp:86] Creating Layer res5b_branch2a_relu
I1013 17:05:32.747269  8042 net.cpp:408] res5b_branch2a_relu <- res5b_branch2a
I1013 17:05:32.747277  8042 net.cpp:369] res5b_branch2a_relu -> res5b_branch2a (in-place)
I1013 17:05:32.747527  8042 net.cpp:124] Setting up res5b_branch2a_relu
I1013 17:05:32.747539  8042 net.cpp:131] Top shape: 4 512 12 16 (393216)
I1013 17:05:32.747541  8042 net.cpp:139] Memory required for data: 5483037328
I1013 17:05:32.747545  8042 layer_factory.hpp:77] Creating layer res5b_branch2b
I1013 17:05:32.747556  8042 net.cpp:86] Creating Layer res5b_branch2b
I1013 17:05:32.747561  8042 net.cpp:408] res5b_branch2b <- res5b_branch2a
I1013 17:05:32.747570  8042 net.cpp:382] res5b_branch2b -> res5b_branch2b
I1013 17:05:32.755898  8042 net.cpp:124] Setting up res5b_branch2b
I1013 17:05:32.755935  8042 net.cpp:131] Top shape: 4 512 12 16 (393216)
I1013 17:05:32.755939  8042 net.cpp:139] Memory required for data: 5484610192
I1013 17:05:32.755945  8042 layer_factory.hpp:77] Creating layer bn5b_branch2b
I1013 17:05:32.755952  8042 net.cpp:86] Creating Layer bn5b_branch2b
I1013 17:05:32.755960  8042 net.cpp:408] bn5b_branch2b <- res5b_branch2b
I1013 17:05:32.755966  8042 net.cpp:369] bn5b_branch2b -> res5b_branch2b (in-place)
I1013 17:05:32.756345  8042 net.cpp:124] Setting up bn5b_branch2b
I1013 17:05:32.756355  8042 net.cpp:131] Top shape: 4 512 12 16 (393216)
I1013 17:05:32.756387  8042 net.cpp:139] Memory required for data: 5486183056
I1013 17:05:32.756397  8042 layer_factory.hpp:77] Creating layer scale5b_branch2b
I1013 17:05:32.756407  8042 net.cpp:86] Creating Layer scale5b_branch2b
I1013 17:05:32.756412  8042 net.cpp:408] scale5b_branch2b <- res5b_branch2b
I1013 17:05:32.756417  8042 net.cpp:369] scale5b_branch2b -> res5b_branch2b (in-place)
I1013 17:05:32.756502  8042 layer_factory.hpp:77] Creating layer scale5b_branch2b
I1013 17:05:32.756743  8042 net.cpp:124] Setting up scale5b_branch2b
I1013 17:05:32.756752  8042 net.cpp:131] Top shape: 4 512 12 16 (393216)
I1013 17:05:32.756757  8042 net.cpp:139] Memory required for data: 5487755920
I1013 17:05:32.756762  8042 layer_factory.hpp:77] Creating layer res5b_branch2b_relu
I1013 17:05:32.756768  8042 net.cpp:86] Creating Layer res5b_branch2b_relu
I1013 17:05:32.756772  8042 net.cpp:408] res5b_branch2b_relu <- res5b_branch2b
I1013 17:05:32.756780  8042 net.cpp:369] res5b_branch2b_relu -> res5b_branch2b (in-place)
I1013 17:05:32.757616  8042 net.cpp:124] Setting up res5b_branch2b_relu
I1013 17:05:32.757629  8042 net.cpp:131] Top shape: 4 512 12 16 (393216)
I1013 17:05:32.757649  8042 net.cpp:139] Memory required for data: 5489328784
I1013 17:05:32.757653  8042 layer_factory.hpp:77] Creating layer res5b_branch2c
I1013 17:05:32.757666  8042 net.cpp:86] Creating Layer res5b_branch2c
I1013 17:05:32.757671  8042 net.cpp:408] res5b_branch2c <- res5b_branch2b
I1013 17:05:32.757678  8042 net.cpp:382] res5b_branch2c -> res5b_branch2c
I1013 17:05:32.763131  8042 net.cpp:124] Setting up res5b_branch2c
I1013 17:05:32.763146  8042 net.cpp:131] Top shape: 4 2048 12 16 (1572864)
I1013 17:05:32.763166  8042 net.cpp:139] Memory required for data: 5495620240
I1013 17:05:32.763171  8042 layer_factory.hpp:77] Creating layer bn5b_branch2c
I1013 17:05:32.763181  8042 net.cpp:86] Creating Layer bn5b_branch2c
I1013 17:05:32.763186  8042 net.cpp:408] bn5b_branch2c <- res5b_branch2c
I1013 17:05:32.763207  8042 net.cpp:369] bn5b_branch2c -> res5b_branch2c (in-place)
I1013 17:05:32.763655  8042 net.cpp:124] Setting up bn5b_branch2c
I1013 17:05:32.763665  8042 net.cpp:131] Top shape: 4 2048 12 16 (1572864)
I1013 17:05:32.763684  8042 net.cpp:139] Memory required for data: 5501911696
I1013 17:05:32.763690  8042 layer_factory.hpp:77] Creating layer scale5b_branch2c
I1013 17:05:32.763696  8042 net.cpp:86] Creating Layer scale5b_branch2c
I1013 17:05:32.763702  8042 net.cpp:408] scale5b_branch2c <- res5b_branch2c
I1013 17:05:32.763707  8042 net.cpp:369] scale5b_branch2c -> res5b_branch2c (in-place)
I1013 17:05:32.763793  8042 layer_factory.hpp:77] Creating layer scale5b_branch2c
I1013 17:05:32.764009  8042 net.cpp:124] Setting up scale5b_branch2c
I1013 17:05:32.764019  8042 net.cpp:131] Top shape: 4 2048 12 16 (1572864)
I1013 17:05:32.764022  8042 net.cpp:139] Memory required for data: 5508203152
I1013 17:05:32.764029  8042 layer_factory.hpp:77] Creating layer res5b
I1013 17:05:32.764037  8042 net.cpp:86] Creating Layer res5b
I1013 17:05:32.764042  8042 net.cpp:408] res5b <- res5a_res5a_relu_0_split_1
I1013 17:05:32.764047  8042 net.cpp:408] res5b <- res5b_branch2c
I1013 17:05:32.764052  8042 net.cpp:382] res5b -> res5b
I1013 17:05:32.764113  8042 net.cpp:124] Setting up res5b
I1013 17:05:32.764122  8042 net.cpp:131] Top shape: 4 2048 12 16 (1572864)
I1013 17:05:32.764125  8042 net.cpp:139] Memory required for data: 5514494608
I1013 17:05:32.764129  8042 layer_factory.hpp:77] Creating layer res5b_relu
I1013 17:05:32.764134  8042 net.cpp:86] Creating Layer res5b_relu
I1013 17:05:32.764139  8042 net.cpp:408] res5b_relu <- res5b
I1013 17:05:32.764147  8042 net.cpp:369] res5b_relu -> res5b (in-place)
I1013 17:05:32.764417  8042 net.cpp:124] Setting up res5b_relu
I1013 17:05:32.764446  8042 net.cpp:131] Top shape: 4 2048 12 16 (1572864)
I1013 17:05:32.764451  8042 net.cpp:139] Memory required for data: 5520786064
I1013 17:05:32.764454  8042 layer_factory.hpp:77] Creating layer res5b_res5b_relu_0_split
I1013 17:05:32.764475  8042 net.cpp:86] Creating Layer res5b_res5b_relu_0_split
I1013 17:05:32.764493  8042 net.cpp:408] res5b_res5b_relu_0_split <- res5b
I1013 17:05:32.764504  8042 net.cpp:382] res5b_res5b_relu_0_split -> res5b_res5b_relu_0_split_0
I1013 17:05:32.764513  8042 net.cpp:382] res5b_res5b_relu_0_split -> res5b_res5b_relu_0_split_1
I1013 17:05:32.764590  8042 net.cpp:124] Setting up res5b_res5b_relu_0_split
I1013 17:05:32.764598  8042 net.cpp:131] Top shape: 4 2048 12 16 (1572864)
I1013 17:05:32.764605  8042 net.cpp:131] Top shape: 4 2048 12 16 (1572864)
I1013 17:05:32.764607  8042 net.cpp:139] Memory required for data: 5533368976
I1013 17:05:32.764611  8042 layer_factory.hpp:77] Creating layer res5c_branch2a
I1013 17:05:32.764624  8042 net.cpp:86] Creating Layer res5c_branch2a
I1013 17:05:32.764629  8042 net.cpp:408] res5c_branch2a <- res5b_res5b_relu_0_split_0
I1013 17:05:32.764636  8042 net.cpp:382] res5c_branch2a -> res5c_branch2a
I1013 17:05:32.769702  8042 net.cpp:124] Setting up res5c_branch2a
I1013 17:05:32.769718  8042 net.cpp:131] Top shape: 4 512 12 16 (393216)
I1013 17:05:32.769739  8042 net.cpp:139] Memory required for data: 5534941840
I1013 17:05:32.769745  8042 layer_factory.hpp:77] Creating layer bn5c_branch2a
I1013 17:05:32.769757  8042 net.cpp:86] Creating Layer bn5c_branch2a
I1013 17:05:32.769762  8042 net.cpp:408] bn5c_branch2a <- res5c_branch2a
I1013 17:05:32.769768  8042 net.cpp:369] bn5c_branch2a -> res5c_branch2a (in-place)
I1013 17:05:32.770180  8042 net.cpp:124] Setting up bn5c_branch2a
I1013 17:05:32.770190  8042 net.cpp:131] Top shape: 4 512 12 16 (393216)
I1013 17:05:32.770210  8042 net.cpp:139] Memory required for data: 5536514704
I1013 17:05:32.770217  8042 layer_factory.hpp:77] Creating layer scale5c_branch2a
I1013 17:05:32.770225  8042 net.cpp:86] Creating Layer scale5c_branch2a
I1013 17:05:32.770228  8042 net.cpp:408] scale5c_branch2a <- res5c_branch2a
I1013 17:05:32.770236  8042 net.cpp:369] scale5c_branch2a -> res5c_branch2a (in-place)
I1013 17:05:32.770313  8042 layer_factory.hpp:77] Creating layer scale5c_branch2a
I1013 17:05:32.770543  8042 net.cpp:124] Setting up scale5c_branch2a
I1013 17:05:32.770552  8042 net.cpp:131] Top shape: 4 512 12 16 (393216)
I1013 17:05:32.770555  8042 net.cpp:139] Memory required for data: 5538087568
I1013 17:05:32.770565  8042 layer_factory.hpp:77] Creating layer res5c_branch2a_relu
I1013 17:05:32.770570  8042 net.cpp:86] Creating Layer res5c_branch2a_relu
I1013 17:05:32.770575  8042 net.cpp:408] res5c_branch2a_relu <- res5c_branch2a
I1013 17:05:32.770584  8042 net.cpp:369] res5c_branch2a_relu -> res5c_branch2a (in-place)
I1013 17:05:32.770861  8042 net.cpp:124] Setting up res5c_branch2a_relu
I1013 17:05:32.770886  8042 net.cpp:131] Top shape: 4 512 12 16 (393216)
I1013 17:05:32.770889  8042 net.cpp:139] Memory required for data: 5539660432
I1013 17:05:32.770892  8042 layer_factory.hpp:77] Creating layer res5c_branch2b
I1013 17:05:32.770921  8042 net.cpp:86] Creating Layer res5c_branch2b
I1013 17:05:32.770926  8042 net.cpp:408] res5c_branch2b <- res5c_branch2a
I1013 17:05:32.770936  8042 net.cpp:382] res5c_branch2b -> res5c_branch2b
I1013 17:05:32.779440  8042 net.cpp:124] Setting up res5c_branch2b
I1013 17:05:32.779474  8042 net.cpp:131] Top shape: 4 512 12 16 (393216)
I1013 17:05:32.779477  8042 net.cpp:139] Memory required for data: 5541233296
I1013 17:05:32.779484  8042 layer_factory.hpp:77] Creating layer bn5c_branch2b
I1013 17:05:32.779495  8042 net.cpp:86] Creating Layer bn5c_branch2b
I1013 17:05:32.779500  8042 net.cpp:408] bn5c_branch2b <- res5c_branch2b
I1013 17:05:32.779525  8042 net.cpp:369] bn5c_branch2b -> res5c_branch2b (in-place)
I1013 17:05:32.779935  8042 net.cpp:124] Setting up bn5c_branch2b
I1013 17:05:32.779944  8042 net.cpp:131] Top shape: 4 512 12 16 (393216)
I1013 17:05:32.779964  8042 net.cpp:139] Memory required for data: 5542806160
I1013 17:05:32.779970  8042 layer_factory.hpp:77] Creating layer scale5c_branch2b
I1013 17:05:32.779979  8042 net.cpp:86] Creating Layer scale5c_branch2b
I1013 17:05:32.779984  8042 net.cpp:408] scale5c_branch2b <- res5c_branch2b
I1013 17:05:32.780019  8042 net.cpp:369] scale5c_branch2b -> res5c_branch2b (in-place)
I1013 17:05:32.780089  8042 layer_factory.hpp:77] Creating layer scale5c_branch2b
I1013 17:05:32.780313  8042 net.cpp:124] Setting up scale5c_branch2b
I1013 17:05:32.780323  8042 net.cpp:131] Top shape: 4 512 12 16 (393216)
I1013 17:05:32.780326  8042 net.cpp:139] Memory required for data: 5544379024
I1013 17:05:32.780331  8042 layer_factory.hpp:77] Creating layer res5c_branch2b_relu
I1013 17:05:32.780339  8042 net.cpp:86] Creating Layer res5c_branch2b_relu
I1013 17:05:32.780344  8042 net.cpp:408] res5c_branch2b_relu <- res5c_branch2b
I1013 17:05:32.780349  8042 net.cpp:369] res5c_branch2b_relu -> res5c_branch2b (in-place)
I1013 17:05:32.780598  8042 net.cpp:124] Setting up res5c_branch2b_relu
I1013 17:05:32.780609  8042 net.cpp:131] Top shape: 4 512 12 16 (393216)
I1013 17:05:32.780612  8042 net.cpp:139] Memory required for data: 5545951888
I1013 17:05:32.780618  8042 layer_factory.hpp:77] Creating layer res5c_branch2c
I1013 17:05:32.780632  8042 net.cpp:86] Creating Layer res5c_branch2c
I1013 17:05:32.780652  8042 net.cpp:408] res5c_branch2c <- res5c_branch2b
I1013 17:05:32.780660  8042 net.cpp:382] res5c_branch2c -> res5c_branch2c
I1013 17:05:32.785672  8042 net.cpp:124] Setting up res5c_branch2c
I1013 17:05:32.785706  8042 net.cpp:131] Top shape: 4 2048 12 16 (1572864)
I1013 17:05:32.785710  8042 net.cpp:139] Memory required for data: 5552243344
I1013 17:05:32.785717  8042 layer_factory.hpp:77] Creating layer bn5c_branch2c
I1013 17:05:32.785724  8042 net.cpp:86] Creating Layer bn5c_branch2c
I1013 17:05:32.785728  8042 net.cpp:408] bn5c_branch2c <- res5c_branch2c
I1013 17:05:32.785753  8042 net.cpp:369] bn5c_branch2c -> res5c_branch2c (in-place)
I1013 17:05:32.786180  8042 net.cpp:124] Setting up bn5c_branch2c
I1013 17:05:32.786188  8042 net.cpp:131] Top shape: 4 2048 12 16 (1572864)
I1013 17:05:32.786207  8042 net.cpp:139] Memory required for data: 5558534800
I1013 17:05:32.786216  8042 layer_factory.hpp:77] Creating layer scale5c_branch2c
I1013 17:05:32.786223  8042 net.cpp:86] Creating Layer scale5c_branch2c
I1013 17:05:32.786229  8042 net.cpp:408] scale5c_branch2c <- res5c_branch2c
I1013 17:05:32.786234  8042 net.cpp:369] scale5c_branch2c -> res5c_branch2c (in-place)
I1013 17:05:32.786334  8042 layer_factory.hpp:77] Creating layer scale5c_branch2c
I1013 17:05:32.786566  8042 net.cpp:124] Setting up scale5c_branch2c
I1013 17:05:32.786577  8042 net.cpp:131] Top shape: 4 2048 12 16 (1572864)
I1013 17:05:32.786581  8042 net.cpp:139] Memory required for data: 5564826256
I1013 17:05:32.786586  8042 layer_factory.hpp:77] Creating layer res5c
I1013 17:05:32.786597  8042 net.cpp:86] Creating Layer res5c
I1013 17:05:32.786603  8042 net.cpp:408] res5c <- res5b_res5b_relu_0_split_1
I1013 17:05:32.786608  8042 net.cpp:408] res5c <- res5c_branch2c
I1013 17:05:32.786615  8042 net.cpp:382] res5c -> res5c
I1013 17:05:32.786659  8042 net.cpp:124] Setting up res5c
I1013 17:05:32.786669  8042 net.cpp:131] Top shape: 4 2048 12 16 (1572864)
I1013 17:05:32.786672  8042 net.cpp:139] Memory required for data: 5571117712
I1013 17:05:32.786675  8042 layer_factory.hpp:77] Creating layer res5c_relu
I1013 17:05:32.786690  8042 net.cpp:86] Creating Layer res5c_relu
I1013 17:05:32.786695  8042 net.cpp:408] res5c_relu <- res5c
I1013 17:05:32.786700  8042 net.cpp:369] res5c_relu -> res5c (in-place)
I1013 17:05:32.787571  8042 net.cpp:124] Setting up res5c_relu
I1013 17:05:32.787586  8042 net.cpp:131] Top shape: 4 2048 12 16 (1572864)
I1013 17:05:32.787606  8042 net.cpp:139] Memory required for data: 5577409168
I1013 17:05:32.787611  8042 layer_factory.hpp:77] Creating layer pooled_rois
I1013 17:05:32.787621  8042 net.cpp:86] Creating Layer pooled_rois
I1013 17:05:32.787626  8042 net.cpp:408] pooled_rois <- res5c
I1013 17:05:32.787631  8042 net.cpp:408] pooled_rois <- rois
I1013 17:05:32.787637  8042 net.cpp:382] pooled_rois -> pooled_rois
I1013 17:05:32.787650  8042 roi_pooling_layer.cpp:30] Spatial scale: 0.03125
I1013 17:05:32.787767  8042 net.cpp:124] Setting up pooled_rois
I1013 17:05:32.787791  8042 net.cpp:131] Top shape: 32 2048 1 1 (65536)
I1013 17:05:32.787794  8042 net.cpp:139] Memory required for data: 5577671312
I1013 17:05:32.787798  8042 layer_factory.hpp:77] Creating layer pooled_rois/normalized
I1013 17:05:32.787806  8042 net.cpp:86] Creating Layer pooled_rois/normalized
I1013 17:05:32.787811  8042 net.cpp:408] pooled_rois/normalized <- pooled_rois
I1013 17:05:32.787819  8042 net.cpp:382] pooled_rois/normalized -> pooled_rois/normalized
I1013 17:05:32.787921  8042 net.cpp:124] Setting up pooled_rois/normalized
I1013 17:05:32.787930  8042 net.cpp:131] Top shape: 32 2048 1 1 (65536)
I1013 17:05:32.787935  8042 net.cpp:139] Memory required for data: 5577933456
I1013 17:05:32.787937  8042 layer_factory.hpp:77] Creating layer pooled_rois/normalized_flat
I1013 17:05:32.787948  8042 net.cpp:86] Creating Layer pooled_rois/normalized_flat
I1013 17:05:32.787952  8042 net.cpp:408] pooled_rois/normalized_flat <- pooled_rois/normalized
I1013 17:05:32.787961  8042 net.cpp:382] pooled_rois/normalized_flat -> pooled_rois/normalized_flat
I1013 17:05:32.788017  8042 net.cpp:124] Setting up pooled_rois/normalized_flat
I1013 17:05:32.788027  8042 net.cpp:131] Top shape: 32 2048 1 1 (65536)
I1013 17:05:32.788029  8042 net.cpp:139] Memory required for data: 5578195600
I1013 17:05:32.788033  8042 layer_factory.hpp:77] Creating layer pooled_rois/centered
I1013 17:05:32.788043  8042 net.cpp:86] Creating Layer pooled_rois/centered
I1013 17:05:32.788046  8042 net.cpp:408] pooled_rois/centered <- pooled_rois/normalized_flat
I1013 17:05:32.788058  8042 net.cpp:382] pooled_rois/centered -> pooled_rois/centered
I1013 17:05:32.788153  8042 layer_factory.hpp:77] Creating layer pooled_rois/centered
I1013 17:05:32.788379  8042 net.cpp:124] Setting up pooled_rois/centered
I1013 17:05:32.788388  8042 net.cpp:131] Top shape: 32 2048 1 1 (65536)
I1013 17:05:32.788391  8042 net.cpp:139] Memory required for data: 5578457744
I1013 17:05:32.788398  8042 layer_factory.hpp:77] Creating layer pooled_rois/pca
I1013 17:05:32.788409  8042 net.cpp:86] Creating Layer pooled_rois/pca
I1013 17:05:32.788414  8042 net.cpp:408] pooled_rois/pca <- pooled_rois/centered
I1013 17:05:32.788419  8042 net.cpp:382] pooled_rois/pca -> pooled_rois/pca
I1013 17:05:32.819694  8042 net.cpp:124] Setting up pooled_rois/pca
I1013 17:05:32.819710  8042 net.cpp:131] Top shape: 32 2048 (65536)
I1013 17:05:32.819730  8042 net.cpp:139] Memory required for data: 5578719888
I1013 17:05:32.819739  8042 layer_factory.hpp:77] Creating layer pooled_rois/pca/reshaped
I1013 17:05:32.819749  8042 net.cpp:86] Creating Layer pooled_rois/pca/reshaped
I1013 17:05:32.819754  8042 net.cpp:408] pooled_rois/pca/reshaped <- pooled_rois/pca
I1013 17:05:32.819773  8042 net.cpp:382] pooled_rois/pca/reshaped -> pooled_rois/pca/reshaped
I1013 17:05:32.819828  8042 net.cpp:124] Setting up pooled_rois/pca/reshaped
I1013 17:05:32.819838  8042 net.cpp:131] Top shape: 32 2048 1 1 (65536)
I1013 17:05:32.819841  8042 net.cpp:139] Memory required for data: 5578982032
I1013 17:05:32.819844  8042 layer_factory.hpp:77] Creating layer pooled_rois/pca/normalized
I1013 17:05:32.819850  8042 net.cpp:86] Creating Layer pooled_rois/pca/normalized
I1013 17:05:32.819855  8042 net.cpp:408] pooled_rois/pca/normalized <- pooled_rois/pca/reshaped
I1013 17:05:32.819861  8042 net.cpp:382] pooled_rois/pca/normalized -> pooled_rois/pca/normalized
I1013 17:05:32.819959  8042 net.cpp:124] Setting up pooled_rois/pca/normalized
I1013 17:05:32.819967  8042 net.cpp:131] Top shape: 32 2048 1 1 (65536)
I1013 17:05:32.819972  8042 net.cpp:139] Memory required for data: 5579244176
I1013 17:05:32.819974  8042 layer_factory.hpp:77] Creating layer rmac
I1013 17:05:32.820044  8042 net.cpp:86] Creating Layer rmac
I1013 17:05:32.820052  8042 net.cpp:408] rmac <- pooled_rois/pca/normalized
I1013 17:05:32.820060  8042 net.cpp:382] rmac -> rmac
I1013 17:05:32.820725  8042 net.cpp:124] Setting up rmac
I1013 17:05:32.820739  8042 net.cpp:131] Top shape: 4 2048 1 1 (8192)
I1013 17:05:32.820760  8042 net.cpp:139] Memory required for data: 5579276944
I1013 17:05:32.820777  8042 layer_factory.hpp:77] Creating layer rmac/normalized
I1013 17:05:32.820785  8042 net.cpp:86] Creating Layer rmac/normalized
I1013 17:05:32.820788  8042 net.cpp:408] rmac/normalized <- rmac
I1013 17:05:32.820796  8042 net.cpp:382] rmac/normalized -> rmac/normalized
I1013 17:05:32.820909  8042 net.cpp:124] Setting up rmac/normalized
I1013 17:05:32.820917  8042 net.cpp:131] Top shape: 4 2048 1 1 (8192)
I1013 17:05:32.820920  8042 net.cpp:139] Memory required for data: 5579309712
I1013 17:05:32.820924  8042 layer_factory.hpp:77] Creating layer loss
I1013 17:05:32.820931  8042 net.cpp:86] Creating Layer loss
I1013 17:05:32.820935  8042 net.cpp:408] loss <- features
I1013 17:05:32.820941  8042 net.cpp:408] loss <- rmac/normalized
I1013 17:05:32.820948  8042 net.cpp:382] loss -> loss
…
