…
I0925 23:26:50.232072  1161 upgrade_proto.cpp:82] Successfully upgraded batch norm layers using deprecated params.
I0925 23:26:50.234622  1161 net.cpp:296] The NetState phase (0) differed from the phase (1) specified by a rule in layer data
I0925 23:26:50.245813  1161 net.cpp:53] Initializing net from parameters: 
name: "ResNet-101"
state {
  phase: TRAIN
  level: 0
  stage: ""
}
layer {
  name: "data"
  type: "Data"
  top: "data"
  top: "label"
  include {
    phase: TRAIN
  }
  transform_param {
    mirror: true
  }
  data_param {
    source: "/home/processyuan/NetworkOptimization/cover/training/img_train_lmdb"
    batch_size: 1
    backend: LMDB
  }
}
layer {
  name: "l_resize"
  type: "Python"
  bottom: "data"
  top: "l_resize"
  python_param {
    module: "custom_layers"
    layer: "ResizeLayer"
    param_str: "{\'s\': 246, \'mean\': [117.80904, 130.27611, 134.65074]}"
  }
}
layer {
  name: "m_resize"
  type: "Python"
  bottom: "data"
  top: "m_resize"
  python_param {
    module: "custom_layers"
    layer: "ResizeLayer"
    param_str: "{\'s\': 496, \'mean\': [117.80904, 130.27611, 134.65074]}"
  }
}
layer {
  name: "h_resize"
  type: "Python"
  bottom: "data"
  top: "h_resize"
  python_param {
    module: "custom_layers"
    layer: "ResizeLayer"
    param_str: "{\'s\': 746, \'mean\': [117.80904, 130.27611, 134.65074]}"
  }
}
layer {
  name: "l_rois"
  type: "Python"
  bottom: "l_resize"
  top: "l_rois"
  python_param {
    module: "custom_layers"
    layer: "RigidGridLayer"
    param_str: "{}"
  }
}
layer {
  name: "m_rois"
  type: "Python"
  bottom: "m_resize"
  top: "m_rois"
  python_param {
    module: "custom_layers"
    layer: "RigidGridLayer"
    param_str: "{}"
  }
}
layer {
  name: "h_rois"
  type: "Python"
  bottom: "h_resize"
  top: "h_rois"
  python_param {
    module: "custom_layers"
    layer: "RigidGridLayer"
    param_str: "{}"
  }
}
layer {
  name: "l_conv1"
  type: "Convolution"
  bottom: "l_resize"
  top: "l_conv1"
  param {
    name: "conv1_w"
    lr_mult: 0
    decay_mult: 0
  }
  convolution_param {
    num_output: 64
    bias_term: false
    pad: 3
    kernel_size: 7
    stride: 2
  }
}
layer {
  name: "l_bn_conv1"
  type: "BatchNorm"
  bottom: "l_conv1"
  top: "l_conv1"
  param {
    name: "bn_conv1_1"
    lr_mult: 0
    decay_mult: 0
  }
  param {
    name: "bn_conv1_2"
    lr_mult: 0
    decay_mult: 0
  }
  param {
    name: "bn_conv1_3"
    lr_mult: 0
    decay_mult: 0
  }
  batch_norm_param {
    use_global_stats: true
  }
}
layer {
  name: "l_scale_conv1"
  type: "Scale"
  bottom: "l_conv1"
  top: "l_conv1"
  param {
    name: "scale_conv1_1"
    lr_mult: 0
    decay_mult: 0
  }
  param {
    name: "scale_conv1_2"
    lr_mult: 0
    decay_mult: 0
  }
  scale_param {
    bias_term: true
  }
}
layer {
  name: "l_conv1_relu"
  type: "ReLU"
  bottom: "l_conv1"
  top: "l_conv1"
}
layer {
  name: "l_pool1"
  type: "Pooling"
  bottom: "l_conv1"
  top: "l_pool1"
  pooling_param {
    pool: MAX
    kernel_size: 3
    stride: 2
  }
}
layer {
  name: "l_res2a_branch1"
  type: "Convolution"
  bottom: "l_pool1"
  top: "l_res2a_branch1"
  param {
    name: "res2a_branch1_w"
    lr_mult: 0
    decay_mult: 0
  }
  convolution_param {
    num_output: 256
    bias_term: false
    pad: 0
    kernel_size: 1
    stride: 1
  }
}
layer {
  name: "l_bn2a_branch1"
  type: "BatchNorm"
  bottom: "l_res2a_branch1"
  top: "l_res2a_branch1"
  param {
    name: "bn2a_branch1_1"
    lr_mult: 0
    decay_mult: 0
  }
  param {
    name: "bn2a_branch1_2"
    lr_mult: 0
    decay_mult: 0
  }
  param {
    name: "bn2a_branch1_3"
    lr_mult: 0
    decay_mult: 0
  }
  batch_norm_param {
    use_global_stats: true
  }
}
layer {
  name: "l_scale2a_branch1"
  type: "Scale"
  bottom: "l_res2a_branch1"
  top: "l_res2a_branch1"
  param {
    name: "scale2a_branch1_1"
    lr_mult: 0
    decay_mult: 0
  }
  param {
    name: "scale2a_branch1_2"
    lr_mult: 0
    decay_mult: 0
  }
  scale_param {
    bias_term: true
  }
}
layer {
  name: "l_res2a_branch2a"
  type: "Convolution"
  bottom: "l_pool1"
  top: "l_res2a_branch2a"
  param {
    name: "res2a_branch2a_w"
    lr_mult: 0
    decay_mult: 0
  }
  convolution_param {
    num_output: 64
    bias_term: false
    pad: 0
    kernel_size: 1
    stride: 1
  }
}
layer {
  name: "l_bn2a_branch2a"
  type: "BatchNorm"
  bottom: "l_res2a_branch2a"
  top: "l_res2a_branch2a"
  param {
    name: "bn2a_branch2a_1"
    lr_mult: 0
    decay_mult: 0
  }
  param {
    name: "bn2a_branch2a_2"
    lr_mult: 0
    decay_mult: 0
  }
  param {
    name: "bn2a_branch2a_3"
    lr_mult: 0
    decay_mult: 0
  }
  batch_norm_param {
    use_global_stats: true
  }
}
layer {
  name: "l_scale2a_branch2a"
  type: "Scale"
  bottom: "l_res2a_branch2a"
  top: "l_res2a_branch2a"
  param {
    name: "scale2a_branch2a_1"
    lr_mult: 0
    decay_mult: 0
  }
  param {
    name: "scale2a_branch2a_2"
    lr_mult: 0
    decay_mult: 0
  }
  scale_param {
    bias_term: true
  }
}
layer {
  name: "l_res2a_branch2a_relu"
  type: "ReLU"
  bottom: "l_res2a_branch2a"
  top: "l_res2a_branch2a"
}
layer {
  name: "l_res2a_branch2b"
  type: "Convolution"
  bottom: "l_res2a_branch2a"
  top: "l_res2a_branch2b"
  param {
    name: "res2a_branch2b_w"
    lr_mult: 0
    decay_mult: 0
  }
  convolution_param {
    num_output: 64
    bias_term: false
    pad: 1
    kernel_size: 3
    stride: 1
  }
}
layer {
  name: "l_bn2a_branch2b"
  type: "BatchNorm"
  bottom: "l_res2a_branch2b"
  top: "l_res2a_branch2b"
  param {
    name: "bn2a_branch2b_1"
    lr_mult: 0
    decay_mult: 0
  }
  param {
    name: "bn2a_branch2b_2"
    lr_mult: 0
    decay_mult: 0
  }
  param {
    name: "bn2a_branch2b_3"
    lr_mult: 0
    decay_mult: 0
  }
  batch_norm_param {
    use_global_stats: true
  }
}
layer {
  name: "l_scale2a_branch2b"
  type: "Scale"
  bottom: "l_res2a_branch2b"
  top: "l_res2a_branch2b"
  param {
    name: "scale2a_branch2b_1"
    lr_mult: 0
    decay_mult: 0
  }
  param {
    name: "scale2a_branch2b_2"
    lr_mult: 0
    decay_mult: 0
  }
  scale_param {
    bias_term: true
  }
}
layer {
  name: "l_res2a_branch2b_relu"
  type: "ReLU"
  bottom: "l_res2a_branch2b"
  top: "l_res2a_branch2b"
}
layer {
  name: "l_res2a_branch2c"
  type: "Convolution"
  bottom: "l_res2a_branch2b"
  top: "l_res2a_branch2c"
  param {
    name: "res2a_branch2c_w"
    lr_mult: 0
    decay_mult: 0
  }
  convolution_param {
    num_output: 256
    bias_term: false
    pad: 0
    kernel_size: 1
    stride: 1
  }
}
layer {
  name: "l_bn2a_branch2c"
  type: "BatchNorm"
  bottom: "l_res2a_branch2c"
  top: "l_res2a_branch2c"
  param {
    name: "bn2a_branch2c_1"
    lr_mult: 0
    decay_mult: 0
  }
  param {
    name: "bn2a_branch2c_2"
    lr_mult: 0
    decay_mult: 0
  }
  param {
    name: "bn2a_branch2c_3"
    lr_mult: 0
    decay_mult: 0
  }
  batch_norm_param {
    use_global_stats: true
  }
}
layer {
  name: "l_scale2a_branch2c"
  type: "Scale"
  bottom: "l_res2a_branch2c"
  top: "l_res2a_branch2c"
  param {
    name: "scale2a_branch2c_1"
    lr_mult: 0
    decay_mult: 0
  }
  param {
    name: "scale2a_branch2c_2"
    lr_mult: 0
    decay_mult: 0
  }
  scale_param {
    bias_term: true
  }
}
layer {
  name: "l_res2a"
  type: "Eltwise"
  bottom: "l_res2a_branch1"
  bottom: "l_res2a_branch2c"
  top: "l_res2a"
}
layer {
  name: "l_res2a_relu"
  type: "ReLU"
  bottom: "l_res2a"
  top: "l_res2a"
}
layer {
  name: "l_res2b_branch2a"
  type: "Convolution"
  bottom: "l_res2a"
  top: "l_res2b_branch2a"
  param {
    name: "res2b_branch2a_w"
    lr_mult: 0
    decay_mult: 0
  }
  convolution_param {
    num_output: 64
    bias_term: false
    pad: 0
    kernel_size: 1
    stride: 1
  }
}
layer {
  name: "l_bn2b_branch2a"
  type: "BatchNorm"
  bottom: "l_res2b_branch2a"
  top: "l_res2b_branch2a"
  param {
    name: "bn2b_branch2a_1"
    lr_mult: 0
    decay_mult: 0
  }
  param {
    name: "bn2b_branch2a_2"
    lr_mult: 0
    decay_mult: 0
  }
  param {
    name: "bn2b_branch2a_3"
    lr_mult: 0
    decay_mult: 0
  }
  batch_norm_param {
    use_global_stats: true
  }
}
layer {
  name: "l_scale2b_branch2a"
  type: "Scale"
  bottom: "l_res2b_branch2a"
  top: "l_res2b_branch2a"
  param {
    name: "scale2b_branch2a_1"
    lr_mult: 0
    decay_mult: 0
  }
  param {
    name: "scale2b_branch2a_2"
    lr_mult: 0
    decay_mult: 0
  }
  scale_param {
    bias_term: true
  }
}
layer {
  name: "l_res2b_branch2a_relu"
  type: "ReLU"
  bottom: "l_res2b_branch2a"
  top: "l_res2b_branch2a"
}
layer {
  name: "l_res2b_branch2b"
  type: "Convolution"
  bottom: "l_res2b_branch2a"
  top: "l_res2b_branch2b"
  param {
    name: "res2b_branch2b_w"
    lr_mult: 0
    decay_mult: 0
  }
  convolution_param {
    num_output: 64
    bias_term: false
    pad: 1
    kernel_size: 3
    stride: 1
  }
}
layer {
  name: "l_bn2b_branch2b"
  type: "BatchNorm"
  bottom: "l_res2b_branch2b"
  top: "l_res2b_branch2b"
  param {
    name: "bn2b_branch2b_1"
    lr_mult: 0
    decay_mult: 0
  }
  param {
    name: "bn2b_branch2b_2"
    lr_mult: 0
    decay_mult: 0
  }
  param {
    name: "bn2b_branch2b_3"
    lr_mult: 0
    decay_mult: 0
  }
  batch_norm_param {
    use_global_stats: true
  }
}
layer {
  name: "l_scale2b_branch2b"
  type: "Scale"
  bottom: "l_res2b_branch2b"
  top: "l_res2b_branch2b"
  param {
    name: "scale2b_branch2b_1"
    lr_mult: 0
    decay_mult: 0
  }
  param {
    name: "scale2b_branch2b_2"
    lr_mult: 0
    decay_mult: 0
  }
  scale_param {
    bias_term: true
  }
}
layer {
  name: "l_res2b_branch2b_relu"
  type: "ReLU"
  bottom: "l_res2b_branch2b"
  top: "l_res2b_branch2b"
}
layer {
  name: "l_res2b_branch2c"
  type: "Convolution"
  bottom: "l_res2b_branch2b"
  top: "l_res2b_branch2c"
  param {
    name: "res2b_branch2c_w"
    lr_mult: 0
    decay_mult: 0
  }
  convolution_param {
    num_output: 256
    bias_term: false
    pad: 0
    kernel_size: 1
    stride: 1
  }
}
layer {
  name: "l_bn2b_branch2c"
  type: "BatchNorm"
  bottom: "l_res2b_branch2c"
  top: "l_res2b_branch2c"
  param {
    name: "bn2b_branch2c_1"
    lr_mult: 0
    decay_mult: 0
  }
  param {
    name: "bn2b_branch2c_2"
    lr_mult: 0
    decay_mult: 0
  }
  param {
    name: "bn2b_branch2c_3"
    lr_mult: 0
    decay_mult: 0
  }
  batch_norm_param {
    use_global_stats: true
  }
}
layer {
  name: "l_scale2b_branch2c"
  type: "Scale"
  bottom: "l_res2b_branch2c"
  top: "l_res2b_branch2c"
  param {
    name: "scale2b_branch2c_1"
    lr_mult: 0
    decay_mult: 0
  }
  param {
    name: "scale2b_branch2c_2"
    lr_mult: 0
    decay_mult: 0
  }
  scale_param {
    bias_term: true
  }
}
layer {
  name: "l_res2b"
  type: "Eltwise"
  bottom: "l_res2a"
  bottom: "l_res2b_branch2c"
  top: "l_res2b"
}
layer {
  name: "l_res2b_relu"
  type: "ReLU"
  bottom: "l_res2b"
  top: "l_res2b"
}
layer {
  name: "l_res2c_branch2a"
  type: "Convolution"
  bottom: "l_res2b"
  top: "l_res2c_branch2a"
  param {
    name: "res2c_branch2a_w"
    lr_mult: 0
    decay_mult: 0
  }
  convolution_param {
    num_output: 64
    bias_term: false
    pad: 0
    kernel_size: 1
    stride: 1
  }
}
layer {
  name: "l_bn2c_branch2a"
  type: "BatchNorm"
  bottom: "l_res2c_branch2a"
  top: "l_res2c_branch2a"
  param {
    name: "bn2c_branch2a_1"
    lr_mult: 0
    decay_mult: 0
  }
  param {
    name: "bn2c_branch2a_2"
    lr_mult: 0
    decay_mult: 0
  }
  param {
    name: "bn2c_branch2a_3"
    lr_mult: 0
    decay_mult: 0
  }
  batch_norm_param {
    use_global_stats: true
  }
}
layer {
  name: "l_scale2c_branch2a"
  type: "Scale"
  bottom: "l_res2c_branch2a"
  top: "l_res2c_branch2a"
  param {
    name: "scale2c_branch2a_1"
    lr_mult: 0
    decay_mult: 0
  }
  param {
    name: "scale2c_branch2a_2"
    lr_mult: 0
    decay_mult: 0
  }
  scale_param {
    bias_term: true
  }
}
layer {
  name: "l_res2c_branch2a_relu"
  type: "ReLU"
  bottom: "l_res2c_branch2a"
  top: "l_res2c_branch2a"
}
layer {
  name: "l_res2c_branch2b"
  type: "Convolution"
  bottom: "l_res2c_branch2a"
  top: "l_res2c_branch2b"
  param {
    name: "res2c_branch2b_w"
    lr_mult: 0
    decay_mult: 0
  }
  convolution_param {
    num_output: 64
    bias_term: false
    pad: 1
    kernel_size: 3
    stride: 1
  }
}
layer {
  name: "l_bn2c_branch2b"
  type: "BatchNorm"
  bottom: "l_res2c_branch2b"
  top: "l_res2c_branch2b"
  param {
    name: "bn2c_branch2b_1"
    lr_mult: 0
    decay_mult: 0
  }
  param {
    name: "bn2c_branch2b_2"
    lr_mult: 0
    decay_mult: 0
  }
  param {
    name: "bn2c_branch2b_3"
    lr_mult: 0
    decay_mult: 0
  }
  batch_norm_param {
    use_global_stats: true
  }
}
layer {
  name: "l_scale2c_branch2b"
  type: "Scale"
  bottom: "l_res2c_branch2b"
  top: "l_res2c_branch2b"
  param {
    name: "scale2c_branch2b_1"
    lr_mult: 0
    decay_mult: 0
  }
  param {
    name: "scale2c_branch2b_2"
    lr_mult: 0
    decay_mult: 0
  }
  scale_param {
    bias_term: true
  }
}
layer {
  name: "l_res2c_branch2b_relu"
  type: "ReLU"
  bottom: "l_res2c_branch2b"
  top: "l_res2c_branch2b"
}
layer {
  name: "l_res2c_branch2c"
  type: "Convolution"
  bottom: "l_res2c_branch2b"
  top: "l_res2c_branch2c"
  param {
    name: "res2c_branch2c_w"
    lr_mult: 0
    decay_mult: 0
  }
  convolution_param {
    num_output: 256
    bias_term: false
    pad: 0
    kernel_size: 1
    stride: 1
  }
}
layer {
  name: "l_bn2c_branch2c"
  type: "BatchNorm"
  bottom: "l_res2c_branch2c"
  top: "l_res2c_branch2c"
  param {
    name: "bn2c_branch2c_1"
    lr_mult: 0
    decay_mult: 0
  }
  param {
    name: "bn2c_branch2c_2"
    lr_mult: 0
    decay_mult: 0
  }
  param {
    name: "bn2c_branch2c_3"
    lr_mult: 0
    decay_mult: 0
  }
  batch_norm_param {
    use_global_stats: true
  }
}
layer {
  name: "l_scale2c_branch2c"
  type: "Scale"
  bottom: "l_res2c_branch2c"
  top: "l_res2c_branch2c"
  param {
    name: "scale2c_branch2c_1"
    lr_mult: 0
    decay_mult: 0
  }
  param {
    name: "scale2c_branch2c_2"
    lr_mult: 0
    decay_mult: 0
  }
  scale_param {
    bias_term: true
  }
}
layer {
  name: "l_res2c"
  type: "Eltwise"
  bottom: "l_res2b"
  bottom: "l_res2c_branch2c"
  top: "l_res2c"
}
layer {
  name: "l_res2c_relu"
  type: "ReLU"
  bottom: "l_res2c"
  top: "l_res2c"
}
layer {
  name: "l_res3a_branch1"
  type: "Convolution"
  bottom: "l_res2c"
  top: "l_res3a_branch1"
  param {
    name: "res3a_branch1_w"
    lr_mult: 0
    decay_mult: 0
  }
  convolution_param {
    num_output: 512
    bias_term: false
    pad: 0
    kernel_size: 1
    stride: 2
  }
}
layer {
  name: "l_bn3a_branch1"
  type: "BatchNorm"
  bottom: "l_res3a_branch1"
  top: "l_res3a_branch1"
  param {
    name: "bn3a_branch1_1"
    lr_mult: 0
    decay_mult: 0
  }
  param {
    name: "bn3a_branch1_2"
    lr_mult: 0
    decay_mult: 0
  }
  param {
    name: "bn3a_branch1_3"
    lr_mult: 0
    decay_mult: 0
  }
  batch_norm_param {
    use_global_stats: true
  }
}
layer {
  name: "l_scale3a_branch1"
  type: "Scale"
  bottom: "l_res3a_branch1"
  top: "l_res3a_branch1"
  param {
    name: "scale3a_branch1_1"
    lr_mult: 0
    decay_mult: 0
  }
  param {
    name: "scale3a_branch1_2"
    lr_mult: 0
    decay_mult: 0
  }
  scale_param {
    bias_term: true
  }
}
layer {
  name: "l_res3a_branch2a"
  type: "Convolution"
  bottom: "l_res2c"
  top: "l_res3a_branch2a"
  param {
    name: "res3a_branch2a_w"
    lr_mult: 0
    decay_mult: 0
  }
  convolution_param {
    num_output: 128
    bias_term: false
    pad: 0
    kernel_size: 1
    stride: 2
  }
}
layer {
  name: "l_bn3a_branch2a"
  type: "BatchNorm"
  bottom: "l_res3a_branch2a"
  top: "l_res3a_branch2a"
  param {
    name: "bn3a_branch2a_1"
    lr_mult: 0
    decay_mult: 0
  }
  param {
    name: "bn3a_branch2a_2"
    lr_mult: 0
    decay_mult: 0
  }
  param {
    name: "bn3a_branch2a_3"
    lr_mult: 0
    decay_mult: 0
  }
  batch_norm_param {
    use_global_stats: true
  }
}
layer {
  name: "l_scale3a_branch2a"
  type: "Scale"
  bottom: "l_res3a_branch2a"
  top: "l_res3a_branch2a"
  param {
    name: "scale3a_branch2a_1"
    lr_mult: 0
    decay_mult: 0
  }
  param {
    name: "scale3a_branch2a_2"
    lr_mult: 0
    decay_mult: 0
  }
  scale_param {
    bias_term: true
  }
}
layer {
  name: "l_res3a_branch2a_relu"
  type: "ReLU"
  bottom: "l_res3a_branch2a"
  top: "l_res3a_branch2a"
}
layer {
  name: "l_res3a_branch2b"
  type: "Convolution"
  bottom: "l_res3a_branch2a"
  top: "l_res3a_branch2b"
  param {
    name: "res3a_branch2b_w"
    lr_mult: 0
    decay_mult: 0
  }
  convolution_param {
    num_output: 128
    bias_term: false
    pad: 1
    kernel_size: 3
    stride: 1
  }
}
layer {
  name: "l_bn3a_branch2b"
  type: "BatchNorm"
  bottom: "l_res3a_branch2b"
  top: "l_res3a_branch2b"
  param {
    name: "bn3a_branch2b_1"
    lr_mult: 0
    decay_mult: 0
  }
  param {
    name: "bn3a_branch2b_2"
    lr_mult: 0
    decay_mult: 0
  }
  param {
    name: "bn3a_branch2b_3"
    lr_mult: 0
    decay_mult: 0
  }
  batch_norm_param {
    use_global_stats: true
  }
}
layer {
  name: "l_scale3a_branch2b"
  type: "Scale"
  bottom: "l_res3a_branch2b"
  top: "l_res3a_branch2b"
  param {
    name: "scale3a_branch2b_1"
    lr_mult: 0
    decay_mult: 0
  }
  param {
    name: "scale3a_branch2b_2"
    lr_mult: 0
    decay_mult: 0
  }
  scale_param {
    bias_term: true
  }
}
layer {
  name: "l_res3a_branch2b_relu"
  type: "ReLU"
  bottom: "l_res3a_branch2b"
  top: "l_res3a_branch2b"
}
layer {
  name: "l_res3a_branch2c"
  type: "Convolution"
  bottom: "l_res3a_branch2b"
  top: "l_res3a_branch2c"
  param {
    name: "res3a_branch2c_w"
    lr_mult: 0
    decay_mult: 0
  }
  convolution_param {
    num_output: 512
    bias_term: false
    pad: 0
    kernel_size: 1
    stride: 1
  }
}
layer {
  name: "l_bn3a_branch2c"
  type: "BatchNorm"
  bottom: "l_res3a_branch2c"
  top: "l_res3a_branch2c"
  param {
    name: "bn3a_branch2c_1"
    lr_mult: 0
    decay_mult: 0
  }
  param {
    name: "bn3a_branch2c_2"
    lr_mult: 0
    decay_mult: 0
  }
  param {
    name: "bn3a_branch2c_3"
    lr_mult: 0
    decay_mult: 0
  }
  batch_norm_param {
    use_global_stats: true
  }
}
layer {
  name: "l_scale3a_branch2c"
  type: "Scale"
  bottom: "l_res3a_branch2c"
  top: "l_res3a_branch2c"
  param {
    name: "scale3a_branch2c_1"
    lr_mult: 0
    decay_mult: 0
  }
  param {
    name: "scale3a_branch2c_2"
    lr_mult: 0
    decay_mult: 0
  }
  scale_param {
    bias_term: true
  }
}
layer {
  name: "l_res3a"
  type: "Eltwise"
  bottom: "l_res3a_branch1"
  bottom: "l_res3a_branch2c"
  top: "l_res3a"
}
layer {
  name: "l_res3a_relu"
  type: "ReLU"
  bottom: "l_res3a"
  top: "l_res3a"
}
layer {
  name: "l_res3b1_branch2a"
  type: "Convolution"
  bottom: "l_res3a"
  top: "l_res3b1_branch2a"
  param {
    name: "res3b1_branch2a_w"
    lr_mult: 0
    decay_mult: 0
  }
  convolution_param {
    num_output: 128
    bias_term: false
    pad: 0
    kernel_size: 1
    stride: 1
  }
}
layer {
  name: "l_bn3b1_branch2a"
  type: "BatchNorm"
  bottom: "l_res3b1_branch2a"
  top: "l_res3b1_branch2a"
  param {
    name: "bn3b1_branch2a_1"
    lr_mult: 0
    decay_mult: 0
  }
  param {
    name: "bn3b1_branch2a_2"
    lr_mult: 0
    decay_mult: 0
  }
  param {
    name: "bn3b1_branch2a_3"
    lr_mult: 0
    decay_mult: 0
  }
  batch_norm_param {
    use_global_stats: true
  }
}
layer {
  name: "l_scale3b1_branch2a"
  type: "Scale"
  bottom: "l_res3b1_branch2a"
  top: "l_res3b1_branch2a"
  param {
    name: "scale3b1_branch2a_1"
    lr_mult: 0
    decay_mult: 0
  }
  param {
    name: "scale3b1_branch2a_2"
    lr_mult: 0
    decay_mult: 0
  }
  scale_param {
    bias_term: true
  }
}
layer {
  name: "l_res3b1_branch2a_relu"
  type: "ReLU"
  bottom: "l_res3b1_branch2a"
  top: "l_res3b1_branch2a"
}
layer {
  name: "l_res3b1_branch2b"
  type: "Convolution"
  bottom: "l_res3b1_branch2a"
  top: "l_res3b1_branch2b"
  param {
    name: "res3b1_branch2b_w"
    lr_mult: 0
    decay_mult: 0
  }
  convolution_param {
    num_output: 128
    bias_term: false
    pad: 1
    kernel_size: 3
    stride: 1
  }
}
layer {
  name: "l_bn3b1_branch2b"
  type: "BatchNorm"
  bottom: "l_res3b1_branch2b"
  top: "l_res3b1_branch2b"
  param {
    name: "bn3b1_branch2b_1"
    lr_mult: 0
    decay_mult: 0
  }
  param {
    name: "bn3b1_branch2b_2"
    lr_mult: 0
    decay_mult: 0
  }
  param {
    name: "bn3b1_branch2b_3"
    lr_mult: 0
    decay_mult: 0
  }
  batch_norm_param {
    use_global_stats: true
  }
}
layer {
  name: "l_scale3b1_branch2b"
  type: "Scale"
  bottom: "l_res3b1_branch2b"
  top: "l_res3b1_branch2b"
  param {
    name: "scale3b1_branch2b_1"
    lr_mult: 0
    decay_mult: 0
  }
  param {
    name: "scale3b1_branch2b_2"
    lr_mult: 0
    decay_mult: 0
  }
  scale_param {
    bias_term: true
  }
}
layer {
  name: "l_res3b1_branch2b_relu"
  type: "ReLU"
  bottom: "l_res3b1_branch2b"
  top: "l_res3b1_branch2b"
}
layer {
  name: "l_res3b1_branch2c"
  type: "Convolution"
  bottom: "l_res3b1_branch2b"
  top: "l_res3b1_branch2c"
  param {
    name: "res3b1_branch2c_w"
    lr_mult: 0
    decay_mult: 0
  }
  convolution_param {
    num_output: 512
    bias_term: false
    pad: 0
    kernel_size: 1
    stride: 1
  }
}
layer {
  name: "l_bn3b1_branch2c"
  type: "BatchNorm"
  bottom: "l_res3b1_branch2c"
  top: "l_res3b1_branch2c"
  param {
    name: "bn3b1_branch2c_1"
    lr_mult: 0
    decay_mult: 0
  }
  param {
    name: "bn3b1_branch2c_2"
    lr_mult: 0
    decay_mult: 0
  }
  param {
    name: "bn3b1_branch2c_3"
    lr_mult: 0
    decay_mult: 0
  }
  batch_norm_param {
    use_global_stats: true
  }
}
layer {
  name: "l_scale3b1_branch2c"
  type: "Scale"
  bottom: "l_res3b1_branch2c"
  top: "l_res3b1_branch2c"
  param {
    name: "scale3b1_branch2c_1"
    lr_mult: 0
    decay_mult: 0
  }
  param {
    name: "scale3b1_branch2c_2"
    lr_mult: 0
    decay_mult: 0
  }
  scale_param {
    bias_term: true
  }
}
layer {
  name: "l_res3b1"
  type: "Eltwise"
  bottom: "l_res3a"
  bottom: "l_res3b1_branch2c"
  top: "l_res3b1"
}
layer {
  name: "l_res3b1_relu"
  type: "ReLU"
  bottom: "l_res3b1"
  top: "l_res3b1"
}
layer {
  name: "l_res3b2_branch2a"
  type: "Convolution"
  bottom: "l_res3b1"
  top: "l_res3b2_branch2a"
  param {
    name: "res3b2_branch2a_w"
    lr_mult: 0
    decay_mult: 0
  }
  convolution_param {
    num_output: 128
    bias_term: false
    pad: 0
    kernel_size: 1
    stride: 1
  }
}
layer {
  name: "l_bn3b2_branch2a"
  type: "BatchNorm"
  bottom: "l_res3b2_branch2a"
  top: "l_res3b2_branch2a"
  param {
    name: "bn3b2_branch2a_1"
    lr_mult: 0
    decay_mult: 0
  }
  param {
    name: "bn3b2_branch2a_2"
    lr_mult: 0
    decay_mult: 0
  }
  param {
    name: "bn3b2_branch2a_3"
    lr_mult: 0
    decay_mult: 0
  }
  batch_norm_param {
    use_global_stats: true
  }
}
layer {
  name: "l_scale3b2_branch2a"
  type: "Scale"
  bottom: "l_res3b2_branch2a"
  top: "l_res3b2_branch2a"
  param {
    name: "scale3b2_branch2a_1"
    lr_mult: 0
    decay_mult: 0
  }
  param {
    name: "scale3b2_branch2a_2"
    lr_mult: 0
    decay_mult: 0
  }
  scale_param {
    bias_term: true
  }
}
layer {
  name: "l_res3b2_branch2a_relu"
  type: "ReLU"
  bottom: "l_res3b2_branch2a"
  top: "l_res3b2_branch2a"
}
layer {
  name: "l_res3b2_branch2b"
  type: "Convolution"
  bottom: "l_res3b2_branch2a"
  top: "l_res3b2_branch2b"
  param {
    name: "res3b2_branch2b_w"
    lr_mult: 0
    decay_mult: 0
  }
  convolution_param {
    num_output: 128
    bias_term: false
    pad: 1
    kernel_size: 3
    stride: 1
  }
}
layer {
  name: "l_bn3b2_branch2b"
  type: "BatchNorm"
  bottom: "l_res3b2_branch2b"
  top: "l_res3b2_branch2b"
  param {
    name: "bn3b2_branch2b_1"
    lr_mult: 0
    decay_mult: 0
  }
  param {
    name: "bn3b2_branch2b_2"
    lr_mult: 0
    decay_mult: 0
  }
  param {
    name: "bn3b2_branch2b_3"
    lr_mult: 0
    decay_mult: 0
  }
  batch_norm_param {
    use_global_stats: true
  }
}
layer {
  name: "l_scale3b2_branch2b"
  type: "Scale"
  bottom: "l_res3b2_branch2b"
  top: "l_res3b2_branch2b"
  param {
    name: "scale3b2_branch2b_1"
    lr_mult: 0
    decay_mult: 0
  }
  param {
    name: "scale3b2_branch2b_2"
    lr_mult: 0
    decay_mult: 0
  }
  scale_param {
    bias_term: true
  }
}
layer {
  name: "l_res3b2_branch2b_relu"
  type: "ReLU"
  bottom: "l_res3b2_branch2b"
  top: "l_res3b2_branch2b"
}
layer {
  name: "l_res3b2_branch2c"
  type: "Convolution"
  bottom: "l_res3b2_branch2b"
  top: "l_res3b2_branch2c"
  param {
    name: "res3b2_branch2c_w"
    lr_mult: 0
    decay_mult: 0
  }
  convolution_param {
    num_output: 512
    bias_term: false
    pad: 0
    kernel_size: 1
    stride: 1
  }
}
layer {
  name: "l_bn3b2_branch2c"
  type: "BatchNorm"
  bottom: "l_res3b2_branch2c"
  top: "l_res3b2_branch2c"
  param {
    name: "bn3b2_branch2c_1"
    lr_mult: 0
    decay_mult: 0
  }
  param {
    name: "bn3b2_branch2c_2"
    lr_mult: 0
    decay_mult: 0
  }
  param {
    name: "bn3b2_branch2c_3"
    lr_mult: 0
    decay_mult: 0
  }
  batch_norm_param {
    use_global_stats: true
  }
}
layer {
  name: "l_scale3b2_branch2c"
  type: "Scale"
  bottom: "l_res3b2_branch2c"
  top: "l_res3b2_branch2c"
  param {
    name: "scale3b2_branch2c_1"
    lr_mult: 0
    decay_mult: 0
  }
  param {
    name: "scale3b2_branch2c_2"
    lr_mult: 0
    decay_mult: 0
  }
  scale_param {
    bias_term: true
  }
}
layer {
  name: "l_res3b2"
  type: "Eltwise"
  bottom: "l_res3b1"
  bottom: "l_res3b2_branch2c"
  top: "l_res3b2"
}
layer {
  name: "l_res3b2_relu"
  type: "ReLU"
  bottom: "l_res3b2"
  top: "l_res3b2"
}
layer {
  name: "l_res3b3_branch2a"
  type: "Convolution"
  bottom: "l_res3b2"
  top: "l_res3b3_branch2a"
  param {
    name: "res3b3_branch2a_w"
    lr_mult: 0
    decay_mult: 0
  }
  convolution_param {
    num_output: 128
    bias_term: false
    pad: 0
    kernel_size: 1
    stride: 1
  }
}
layer {
  name: "l_bn3b3_branch2a"
  type: "BatchNorm"
  bottom: "l_res3b3_branch2a"
  top: "l_res3b3_branch2a"
  param {
    name: "bn3b3_branch2a_1"
    lr_mult: 0
    decay_mult: 0
  }
  param {
    name: "bn3b3_branch2a_2"
    lr_mult: 0
    decay_mult: 0
  }
  param {
    name: "bn3b3_branch2a_3"
    lr_mult: 0
    decay_mult: 0
  }
  batch_norm_param {
    use_global_stats: true
  }
}
layer {
  name: "l_scale3b3_branch2a"
  type: "Scale"
  bottom: "l_res3b3_branch2a"
  top: "l_res3b3_branch2a"
  param {
    name: "scale3b3_branch2a_1"
    lr_mult: 0
    decay_mult: 0
  }
  param {
    name: "scale3b3_branch2a_2"
    lr_mult: 0
    decay_mult: 0
  }
  scale_param {
    bias_term: true
  }
}
layer {
  name: "l_res3b3_branch2a_relu"
  type: "ReLU"
  bottom: "l_res3b3_branch2a"
  top: "l_res3b3_branch2a"
}
layer {
  name: "l_res3b3_branch2b"
  type: "Convolution"
  bottom: "l_res3b3_branch2a"
  top: "l_res3b3_branch2b"
  param {
    name: "res3b3_branch2b_w"
    lr_mult: 0
    decay_mult: 0
  }
  convolution_param {
    num_output: 128
    bias_term: false
    pad: 1
    kernel_size: 3
    stride: 1
  }
}
layer {
  name: "l_bn3b3_branch2b"
  type: "BatchNorm"
  bottom: "l_res3b3_branch2b"
  top: "l_res3b3_branch2b"
  param {
    name: "bn3b3_branch2b_1"
    lr_mult: 0
    decay_mult: 0
  }
  param {
    name: "bn3b3_branch2b_2"
    lr_mult: 0
    decay_mult: 0
  }
  param {
    name: "bn3b3_branch2b_3"
    lr_mult: 0
    decay_mult: 0
  }
  batch_norm_param {
    use_global_stats: true
  }
}
layer {
  name: "l_scale3b3_branch2b"
  type: "Scale"
  bottom: "l_res3b3_branch2b"
  top: "l_res3b3_branch2b"
  param {
    name: "scale3b3_branch2b_1"
    lr_mult: 0
    decay_mult: 0
  }
  param {
    name: "scale3b3_branch2b_2"
    lr_mult: 0
    decay_mult: 0
  }
  scale_param {
    bias_term: true
  }
}
layer {
  name: "l_res3b3_branch2b_relu"
  type: "ReLU"
  bottom: "l_res3b3_branch2b"
  top: "l_res3b3_branch2b"
}
layer {
  name: "l_res3b3_branch2c"
  type: "Convolution"
  bottom: "l_res3b3_branch2b"
  top: "l_res3b3_branch2c"
  param {
    name: "res3b3_branch2c_w"
    lr_mult: 0
    decay_mult: 0
  }
  convolution_param {
    num_output: 512
    bias_term: false
    pad: 0
    kernel_size: 1
    stride: 1
  }
}
layer {
  name: "l_bn3b3_branch2c"
  type: "BatchNorm"
  bottom: "l_res3b3_branch2c"
  top: "l_res3b3_branch2c"
  param {
    name: "bn3b3_branch2c_1"
    lr_mult: 0
    decay_mult: 0
  }
  param {
    name: "bn3b3_branch2c_2"
    lr_mult: 0
    decay_mult: 0
  }
  param {
    name: "bn3b3_branch2c_3"
    lr_mult: 0
    decay_mult: 0
  }
  batch_norm_param {
    use_global_stats: true
  }
}
layer {
  name: "l_scale3b3_branch2c"
  type: "Scale"
  bottom: "l_res3b3_branch2c"
  top: "l_res3b3_branch2c"
  param {
    name: "scale3b3_branch2c_1"
    lr_mult: 0
    decay_mult: 0
  }
  param {
    name: "scale3b3_branch2c_2"
    lr_mult: 0
    decay_mult: 0
  }
  scale_param {
    bias_term: true
  }
}
layer {
  name: "l_res3b3"
  type: "Eltwise"
  bottom: "l_res3b2"
  bottom: "l_res3b3_branch2c"
  top: "l_res3b3"
}
layer {
  name: "l_res3b3_relu"
  type: "ReLU"
  bottom: "l_res3b3"
  top: "l_res3b3"
}
layer {
  name: "l_res4a_branch1"
  type: "Convolution"
  bottom: "l_res3b3"
  top: "l_res4a_branch1"
  param {
    name: "res4a_branch1_w"
    lr_mult: 0
    decay_mult: 0
  }
  convolution_param {
    num_output: 1024
    bias_term: false
    pad: 0
    kernel_size: 1
    stride: 2
  }
}
layer {
  name: "l_bn4a_branch1"
  type: "BatchNorm"
  bottom: "l_res4a_branch1"
  top: "l_res4a_branch1"
  param {
    name: "bn4a_branch1_1"
    lr_mult: 0
    decay_mult: 0
  }
  param {
    name: "bn4a_branch1_2"
    lr_mult: 0
    decay_mult: 0
  }
  param {
    name: "bn4a_branch1_3"
    lr_mult: 0
    decay_mult: 0
  }
  batch_norm_param {
    use_global_stats: true
  }
}
layer {
  name: "l_scale4a_branch1"
  type: "Scale"
  bottom: "l_res4a_branch1"
  top: "l_res4a_branch1"
  param {
    name: "scale4a_branch1_1"
    lr_mult: 0
    decay_mult: 0
  }
  param {
    name: "scale4a_branch1_2"
    lr_mult: 0
    decay_mult: 0
  }
  scale_param {
    bias_term: true
  }
}
layer {
  name: "l_res4a_branch2a"
  type: "Convolution"
  bottom: "l_res3b3"
  top: "l_res4a_branch2a"
  param {
    name: "res4a_branch2a_w"
    lr_mult: 0
    decay_mult: 0
  }
  convolution_param {
    num_output: 256
    bias_term: false
    pad: 0
    kernel_size: 1
    stride: 2
  }
}
layer {
  name: "l_bn4a_branch2a"
  type: "BatchNorm"
 
I0925 23:26:50.253355  1161 layer_factory.hpp:77] Creating layer data
I0925 23:26:50.253506  1161 db_lmdb.cpp:35] Opened lmdb /home/processyuan/NetworkOptimization/cover/training/img_train_lmdb
I0925 23:26:50.253546  1161 net.cpp:86] Creating Layer data
I0925 23:26:50.253558  1161 net.cpp:382] data -> data
I0925 23:26:50.253587  1161 net.cpp:382] data -> label
I0925 23:26:50.255508  1161 data_layer.cpp:45] output data size: 1,3,280,496
I0925 23:26:50.262660  1161 net.cpp:124] Setting up data
I0925 23:26:50.262681  1161 net.cpp:131] Top shape: 1 3 280 496 (416640)
I0925 23:26:50.262686  1161 net.cpp:131] Top shape: 1 (1)
I0925 23:26:50.262691  1161 net.cpp:139] Memory required for data: 1666564
I0925 23:26:50.262701  1161 layer_factory.hpp:77] Creating layer data_data_0_split
I0925 23:26:50.262712  1161 net.cpp:86] Creating Layer data_data_0_split
I0925 23:26:50.262722  1161 net.cpp:408] data_data_0_split <- data
I0925 23:26:50.262737  1161 net.cpp:382] data_data_0_split -> data_data_0_split_0
I0925 23:26:50.262748  1161 net.cpp:382] data_data_0_split -> data_data_0_split_1
I0925 23:26:50.262758  1161 net.cpp:382] data_data_0_split -> data_data_0_split_2
I0925 23:26:50.262815  1161 net.cpp:124] Setting up data_data_0_split
I0925 23:26:50.262826  1161 net.cpp:131] Top shape: 1 3 280 496 (416640)
I0925 23:26:50.262832  1161 net.cpp:131] Top shape: 1 3 280 496 (416640)
I0925 23:26:50.262845  1161 net.cpp:131] Top shape: 1 3 280 496 (416640)
I0925 23:26:50.262856  1161 net.cpp:139] Memory required for data: 6666244
I0925 23:26:50.262862  1161 layer_factory.hpp:77] Creating layer l_resize
I0925 23:26:50.861380  1161 net.cpp:86] Creating Layer l_resize
I0925 23:26:50.861434  1161 net.cpp:408] l_resize <- data_data_0_split_0
I0925 23:26:50.861450  1161 net.cpp:382] l_resize -> l_resize
I0925 23:26:51.243770  1161 net.cpp:124] Setting up l_resize
I0925 23:26:51.243825  1161 net.cpp:131] Top shape: 1 3 139 246 (102582)
I0925 23:26:51.243834  1161 net.cpp:139] Memory required for data: 7076572
I0925 23:26:51.243842  1161 layer_factory.hpp:77] Creating layer l_resize_l_resize_0_split
I0925 23:26:51.243860  1161 net.cpp:86] Creating Layer l_resize_l_resize_0_split
I0925 23:26:51.243867  1161 net.cpp:408] l_resize_l_resize_0_split <- l_resize
I0925 23:26:51.243880  1161 net.cpp:382] l_resize_l_resize_0_split -> l_resize_l_resize_0_split_0
I0925 23:26:51.243894  1161 net.cpp:382] l_resize_l_resize_0_split -> l_resize_l_resize_0_split_1
I0925 23:26:51.243934  1161 net.cpp:124] Setting up l_resize_l_resize_0_split
I0925 23:26:51.243943  1161 net.cpp:131] Top shape: 1 3 139 246 (102582)
I0925 23:26:51.243949  1161 net.cpp:131] Top shape: 1 3 139 246 (102582)
I0925 23:26:51.243953  1161 net.cpp:139] Memory required for data: 7897228
I0925 23:26:51.243959  1161 layer_factory.hpp:77] Creating layer m_resize
I0925 23:26:51.244004  1161 net.cpp:86] Creating Layer m_resize
I0925 23:26:51.244011  1161 net.cpp:408] m_resize <- data_data_0_split_1
I0925 23:26:51.244019  1161 net.cpp:382] m_resize -> m_resize
I0925 23:26:51.246173  1161 net.cpp:124] Setting up m_resize
I0925 23:26:51.246192  1161 net.cpp:131] Top shape: 1 3 280 496 (416640)
I0925 23:26:51.246198  1161 net.cpp:139] Memory required for data: 9563788
I0925 23:26:51.246203  1161 layer_factory.hpp:77] Creating layer m_resize_m_resize_0_split
I0925 23:26:51.246212  1161 net.cpp:86] Creating Layer m_resize_m_resize_0_split
I0925 23:26:51.246218  1161 net.cpp:408] m_resize_m_resize_0_split <- m_resize
I0925 23:26:51.246227  1161 net.cpp:382] m_resize_m_resize_0_split -> m_resize_m_resize_0_split_0
I0925 23:26:51.246237  1161 net.cpp:382] m_resize_m_resize_0_split -> m_resize_m_resize_0_split_1
I0925 23:26:51.246245  1161 net.cpp:382] m_resize_m_resize_0_split -> m_resize_m_resize_0_split_2
I0925 23:26:51.246291  1161 net.cpp:124] Setting up m_resize_m_resize_0_split
I0925 23:26:51.246299  1161 net.cpp:131] Top shape: 1 3 280 496 (416640)
I0925 23:26:51.246305  1161 net.cpp:131] Top shape: 1 3 280 496 (416640)
I0925 23:26:51.246311  1161 net.cpp:131] Top shape: 1 3 280 496 (416640)
I0925 23:26:51.246316  1161 net.cpp:139] Memory required for data: 14563468
I0925 23:26:51.246321  1161 layer_factory.hpp:77] Creating layer h_resize
I0925 23:26:51.246345  1161 net.cpp:86] Creating Layer h_resize
I0925 23:26:51.246353  1161 net.cpp:408] h_resize <- data_data_0_split_2
I0925 23:26:51.246361  1161 net.cpp:382] h_resize -> h_resize
I0925 23:26:51.248351  1161 net.cpp:124] Setting up h_resize
I0925 23:26:51.248371  1161 net.cpp:131] Top shape: 1 3 421 746 (942198)
I0925 23:26:51.248378  1161 net.cpp:139] Memory required for data: 18332260
I0925 23:26:51.248383  1161 layer_factory.hpp:77] Creating layer h_resize_h_resize_0_split
I0925 23:26:51.248394  1161 net.cpp:86] Creating Layer h_resize_h_resize_0_split
I0925 23:26:51.248400  1161 net.cpp:408] h_resize_h_resize_0_split <- h_resize
I0925 23:26:51.248409  1161 net.cpp:382] h_resize_h_resize_0_split -> h_resize_h_resize_0_split_0
I0925 23:26:51.248419  1161 net.cpp:382] h_resize_h_resize_0_split -> h_resize_h_resize_0_split_1
I0925 23:26:51.248457  1161 net.cpp:124] Setting up h_resize_h_resize_0_split
I0925 23:26:51.248466  1161 net.cpp:131] Top shape: 1 3 421 746 (942198)
I0925 23:26:51.248472  1161 net.cpp:131] Top shape: 1 3 421 746 (942198)
I0925 23:26:51.248477  1161 net.cpp:139] Memory required for data: 25869844
I0925 23:26:51.248482  1161 layer_factory.hpp:77] Creating layer l_rois
I0925 23:26:51.248522  1161 net.cpp:86] Creating Layer l_rois
I0925 23:26:51.248543  1161 net.cpp:408] l_rois <- l_resize_l_resize_0_split_0
I0925 23:26:51.248551  1161 net.cpp:382] l_rois -> l_rois
I0925 23:26:51.248638  1161 net.cpp:124] Setting up l_rois
I0925 23:26:51.248649  1161 net.cpp:131] Top shape: 8 5 (40)
I0925 23:26:51.248654  1161 net.cpp:139] Memory required for data: 25870004
I0925 23:26:51.248659  1161 layer_factory.hpp:77] Creating layer m_rois
I0925 23:26:51.248682  1161 net.cpp:86] Creating Layer m_rois
I0925 23:26:51.248688  1161 net.cpp:408] m_rois <- m_resize_m_resize_0_split_0
I0925 23:26:51.248699  1161 net.cpp:382] m_rois -> m_rois
I0925 23:26:51.250051  1161 net.cpp:124] Setting up m_rois
I0925 23:26:51.250067  1161 net.cpp:131] Top shape: 8 5 (40)
I0925 23:26:51.250072  1161 net.cpp:139] Memory required for data: 25870164
I0925 23:26:51.250078  1161 layer_factory.hpp:77] Creating layer m_rois_m_rois_0_split
I0925 23:26:51.250089  1161 net.cpp:86] Creating Layer m_rois_m_rois_0_split
I0925 23:26:51.250095  1161 net.cpp:408] m_rois_m_rois_0_split <- m_rois
I0925 23:26:51.250102  1161 net.cpp:382] m_rois_m_rois_0_split -> m_rois_m_rois_0_split_0
I0925 23:26:51.250113  1161 net.cpp:382] m_rois_m_rois_0_split -> m_rois_m_rois_0_split_1
I0925 23:26:51.250152  1161 net.cpp:124] Setting up m_rois_m_rois_0_split
I0925 23:26:51.250161  1161 net.cpp:131] Top shape: 8 5 (40)
I0925 23:26:51.250166  1161 net.cpp:131] Top shape: 8 5 (40)
I0925 23:26:51.250171  1161 net.cpp:139] Memory required for data: 25870484
I0925 23:26:51.250175  1161 layer_factory.hpp:77] Creating layer h_rois
I0925 23:26:51.250200  1161 net.cpp:86] Creating Layer h_rois
I0925 23:26:51.250206  1161 net.cpp:408] h_rois <- h_resize_h_resize_0_split_0
I0925 23:26:51.250216  1161 net.cpp:382] h_rois -> h_rois
I0925 23:26:51.252377  1161 net.cpp:124] Setting up h_rois
I0925 23:26:51.252393  1161 net.cpp:131] Top shape: 8 5 (40)
I0925 23:26:51.252398  1161 net.cpp:139] Memory required for data: 25870644
I0925 23:26:51.252403  1161 layer_factory.hpp:77] Creating layer l_conv1
I0925 23:26:51.252424  1161 net.cpp:86] Creating Layer l_conv1
I0925 23:26:51.252429  1161 net.cpp:408] l_conv1 <- l_resize_l_resize_0_split_1
I0925 23:26:51.252440  1161 net.cpp:382] l_conv1 -> l_conv1
I0925 23:26:51.810098  1161 net.cpp:124] Setting up l_conv1
I0925 23:26:51.810153  1161 net.cpp:131] Top shape: 1 64 70 123 (551040)
I0925 23:26:51.810159  1161 net.cpp:139] Memory required for data: 28074804
I0925 23:26:51.810185  1161 layer_factory.hpp:77] Creating layer l_bn_conv1
I0925 23:26:51.810211  1161 net.cpp:86] Creating Layer l_bn_conv1
I0925 23:26:51.810219  1161 net.cpp:408] l_bn_conv1 <- l_conv1
I0925 23:26:51.810230  1161 net.cpp:369] l_bn_conv1 -> l_conv1 (in-place)
I0925 23:26:51.810521  1161 net.cpp:124] Setting up l_bn_conv1
I0925 23:26:51.810536  1161 net.cpp:131] Top shape: 1 64 70 123 (551040)
I0925 23:26:51.810541  1161 net.cpp:139] Memory required for data: 30278964
I0925 23:26:51.810554  1161 layer_factory.hpp:77] Creating layer l_scale_conv1
I0925 23:26:51.810569  1161 net.cpp:86] Creating Layer l_scale_conv1
I0925 23:26:51.810575  1161 net.cpp:408] l_scale_conv1 <- l_conv1
I0925 23:26:51.810585  1161 net.cpp:369] l_scale_conv1 -> l_conv1 (in-place)
I0925 23:26:51.810662  1161 layer_factory.hpp:77] Creating layer l_scale_conv1
I0925 23:26:51.810845  1161 net.cpp:124] Setting up l_scale_conv1
I0925 23:26:51.810856  1161 net.cpp:131] Top shape: 1 64 70 123 (551040)
I0925 23:26:51.810861  1161 net.cpp:139] Memory required for data: 32483124
I0925 23:26:51.810870  1161 layer_factory.hpp:77] Creating layer l_conv1_relu
I0925 23:26:51.810881  1161 net.cpp:86] Creating Layer l_conv1_relu
I0925 23:26:51.810887  1161 net.cpp:408] l_conv1_relu <- l_conv1
I0925 23:26:51.810895  1161 net.cpp:369] l_conv1_relu -> l_conv1 (in-place)
I0925 23:26:51.811102  1161 net.cpp:124] Setting up l_conv1_relu
I0925 23:26:51.811115  1161 net.cpp:131] Top shape: 1 64 70 123 (551040)
I0925 23:26:51.811120  1161 net.cpp:139] Memory required for data: 34687284
I0925 23:26:51.811136  1161 layer_factory.hpp:77] Creating layer l_pool1
I0925 23:26:51.811170  1161 net.cpp:86] Creating Layer l_pool1
I0925 23:26:51.811177  1161 net.cpp:408] l_pool1 <- l_conv1
I0925 23:26:51.811184  1161 net.cpp:382] l_pool1 -> l_pool1
I0925 23:26:51.811247  1161 net.cpp:124] Setting up l_pool1
I0925 23:26:51.811256  1161 net.cpp:131] Top shape: 1 64 35 61 (136640)
I0925 23:26:51.811260  1161 net.cpp:139] Memory required for data: 35233844
I0925 23:26:51.811266  1161 layer_factory.hpp:77] Creating layer l_pool1_l_pool1_0_split
I0925 23:26:51.811275  1161 net.cpp:86] Creating Layer l_pool1_l_pool1_0_split
I0925 23:26:51.811278  1161 net.cpp:408] l_pool1_l_pool1_0_split <- l_pool1
I0925 23:26:51.811288  1161 net.cpp:382] l_pool1_l_pool1_0_split -> l_pool1_l_pool1_0_split_0
I0925 23:26:51.811298  1161 net.cpp:382] l_pool1_l_pool1_0_split -> l_pool1_l_pool1_0_split_1
I0925 23:26:51.811342  1161 net.cpp:124] Setting up l_pool1_l_pool1_0_split
I0925 23:26:51.811349  1161 net.cpp:131] Top shape: 1 64 35 61 (136640)
I0925 23:26:51.811355  1161 net.cpp:131] Top shape: 1 64 35 61 (136640)
I0925 23:26:51.811359  1161 net.cpp:139] Memory required for data: 36326964
I0925 23:26:51.811364  1161 layer_factory.hpp:77] Creating layer l_res2a_branch1
I0925 23:26:51.811379  1161 net.cpp:86] Creating Layer l_res2a_branch1
I0925 23:26:51.811384  1161 net.cpp:408] l_res2a_branch1 <- l_pool1_l_pool1_0_split_0
I0925 23:26:51.811393  1161 net.cpp:382] l_res2a_branch1 -> l_res2a_branch1
I0925 23:26:51.812584  1161 net.cpp:124] Setting up l_res2a_branch1
I0925 23:26:51.812602  1161 net.cpp:131] Top shape: 1 256 35 61 (546560)
I0925 23:26:51.812606  1161 net.cpp:139] Memory required for data: 38513204
I0925 23:26:51.812615  1161 layer_factory.hpp:77] Creating layer l_bn2a_branch1
I0925 23:26:51.812626  1161 net.cpp:86] Creating Layer l_bn2a_branch1
I0925 23:26:51.812633  1161 net.cpp:408] l_bn2a_branch1 <- l_res2a_branch1
I0925 23:26:51.812642  1161 net.cpp:369] l_bn2a_branch1 -> l_res2a_branch1 (in-place)
I0925 23:26:51.814106  1161 net.cpp:124] Setting up l_bn2a_branch1
I0925 23:26:51.814122  1161 net.cpp:131] Top shape: 1 256 35 61 (546560)
I0925 23:26:51.814127  1161 net.cpp:139] Memory required for data: 40699444
I0925 23:26:51.814138  1161 layer_factory.hpp:77] Creating layer l_scale2a_branch1
I0925 23:26:51.814152  1161 net.cpp:86] Creating Layer l_scale2a_branch1
I0925 23:26:51.814157  1161 net.cpp:408] l_scale2a_branch1 <- l_res2a_branch1
I0925 23:26:51.814163  1161 net.cpp:369] l_scale2a_branch1 -> l_res2a_branch1 (in-place)
I0925 23:26:51.814211  1161 layer_factory.hpp:77] Creating layer l_scale2a_branch1
I0925 23:26:51.814339  1161 net.cpp:124] Setting up l_scale2a_branch1
I0925 23:26:51.814350  1161 net.cpp:131] Top shape: 1 256 35 61 (546560)
I0925 23:26:51.814354  1161 net.cpp:139] Memory required for data: 42885684
I0925 23:26:51.814362  1161 layer_factory.hpp:77] Creating layer l_res2a_branch2a
I0925 23:26:51.814375  1161 net.cpp:86] Creating Layer l_res2a_branch2a
I0925 23:26:51.814381  1161 net.cpp:408] l_res2a_branch2a <- l_pool1_l_pool1_0_split_1
I0925 23:26:51.814399  1161 net.cpp:382] l_res2a_branch2a -> l_res2a_branch2a
I0925 23:26:51.815620  1161 net.cpp:124] Setting up l_res2a_branch2a
I0925 23:26:51.815639  1161 net.cpp:131] Top shape: 1 64 35 61 (136640)
I0925 23:26:51.815644  1161 net.cpp:139] Memory required for data: 43432244
I0925 23:26:51.815650  1161 layer_factory.hpp:77] Creating layer l_bn2a_branch2a
I0925 23:26:51.815661  1161 net.cpp:86] Creating Layer l_bn2a_branch2a
I0925 23:26:51.815668  1161 net.cpp:408] l_bn2a_branch2a <- l_res2a_branch2a
I0925 23:26:51.815680  1161 net.cpp:369] l_bn2a_branch2a -> l_res2a_branch2a (in-place)
I0925 23:26:51.815883  1161 net.cpp:124] Setting up l_bn2a_branch2a
I0925 23:26:51.815893  1161 net.cpp:131] Top shape: 1 64 35 61 (136640)
I0925 23:26:51.815898  1161 net.cpp:139] Memory required for data: 43978804
I0925 23:26:51.815906  1161 layer_factory.hpp:77] Creating layer l_scale2a_branch2a
I0925 23:26:51.815913  1161 net.cpp:86] Creating Layer l_scale2a_branch2a
I0925 23:26:51.815923  1161 net.cpp:408] l_scale2a_branch2a <- l_res2a_branch2a
I0925 23:26:51.815937  1161 net.cpp:369] l_scale2a_branch2a -> l_res2a_branch2a (in-place)
I0925 23:26:51.815985  1161 layer_factory.hpp:77] Creating layer l_scale2a_branch2a
I0925 23:26:51.816115  1161 net.cpp:124] Setting up l_scale2a_branch2a
I0925 23:26:51.816124  1161 net.cpp:131] Top shape: 1 64 35 61 (136640)
I0925 23:26:51.816145  1161 net.cpp:139] Memory required for data: 44525364
I0925 23:26:51.816159  1161 layer_factory.hpp:77] Creating layer l_res2a_branch2a_relu
I0925 23:26:51.816169  1161 net.cpp:86] Creating Layer l_res2a_branch2a_relu
I0925 23:26:51.816175  1161 net.cpp:408] l_res2a_branch2a_relu <- l_res2a_branch2a
I0925 23:26:51.816182  1161 net.cpp:369] l_res2a_branch2a_relu -> l_res2a_branch2a (in-place)
I0925 23:26:51.816392  1161 net.cpp:124] Setting up l_res2a_branch2a_relu
I0925 23:26:51.816404  1161 net.cpp:131] Top shape: 1 64 35 61 (136640)
I0925 23:26:51.816409  1161 net.cpp:139] Memory required for data: 45071924
I0925 23:26:51.816414  1161 layer_factory.hpp:77] Creating layer l_res2a_branch2b
I0925 23:26:51.816426  1161 net.cpp:86] Creating Layer l_res2a_branch2b
I0925 23:26:51.816432  1161 net.cpp:408] l_res2a_branch2b <- l_res2a_branch2a
I0925 23:26:51.816443  1161 net.cpp:382] l_res2a_branch2b -> l_res2a_branch2b
I0925 23:26:51.819308  1161 net.cpp:124] Setting up l_res2a_branch2b
I0925 23:26:51.819327  1161 net.cpp:131] Top shape: 1 64 35 61 (136640)
I0925 23:26:51.819332  1161 net.cpp:139] Memory required for data: 45618484
I0925 23:26:51.819339  1161 layer_factory.hpp:77] Creating layer l_bn2a_branch2b
I0925 23:26:51.819351  1161 net.cpp:86] Creating Layer l_bn2a_branch2b
I0925 23:26:51.819356  1161 net.cpp:408] l_bn2a_branch2b <- l_res2a_branch2b
I0925 23:26:51.819365  1161 net.cpp:369] l_bn2a_branch2b -> l_res2a_branch2b (in-place)
I0925 23:26:51.819600  1161 net.cpp:124] Setting up l_bn2a_branch2b
I0925 23:26:51.819612  1161 net.cpp:131] Top shape: 1 64 35 61 (136640)
I0925 23:26:51.819617  1161 net.cpp:139] Memory required for data: 46165044
I0925 23:26:51.819624  1161 layer_factory.hpp:77] Creating layer l_scale2a_branch2b
I0925 23:26:51.819633  1161 net.cpp:86] Creating Layer l_scale2a_branch2b
I0925 23:26:51.819639  1161 net.cpp:408] l_scale2a_branch2b <- l_res2a_branch2b
I0925 23:26:51.819650  1161 net.cpp:369] l_scale2a_branch2b -> l_res2a_branch2b (in-place)
I0925 23:26:51.819699  1161 layer_factory.hpp:77] Creating layer l_scale2a_branch2b
I0925 23:26:51.819844  1161 net.cpp:124] Setting up l_scale2a_branch2b
I0925 23:26:51.819854  1161 net.cpp:131] Top shape: 1 64 35 61 (136640)
I0925 23:26:51.819859  1161 net.cpp:139] Memory required for data: 46711604
I0925 23:26:51.819867  1161 layer_factory.hpp:77] Creating layer l_res2a_branch2b_relu
I0925 23:26:51.819876  1161 net.cpp:86] Creating Layer l_res2a_branch2b_relu
I0925 23:26:51.819882  1161 net.cpp:408] l_res2a_branch2b_relu <- l_res2a_branch2b
I0925 23:26:51.819888  1161 net.cpp:369] l_res2a_branch2b_relu -> l_res2a_branch2b (in-place)
I0925 23:26:51.820431  1161 net.cpp:124] Setting up l_res2a_branch2b_relu
I0925 23:26:51.820448  1161 net.cpp:131] Top shape: 1 64 35 61 (136640)
I0925 23:26:51.820454  1161 net.cpp:139] Memory required for data: 47258164
I0925 23:26:51.820459  1161 layer_factory.hpp:77] Creating layer l_res2a_branch2c
I0925 23:26:51.820472  1161 net.cpp:86] Creating Layer l_res2a_branch2c
I0925 23:26:51.820477  1161 net.cpp:408] l_res2a_branch2c <- l_res2a_branch2b
I0925 23:26:51.820487  1161 net.cpp:382] l_res2a_branch2c -> l_res2a_branch2c
I0925 23:26:51.821655  1161 net.cpp:124] Setting up l_res2a_branch2c
I0925 23:26:51.821673  1161 net.cpp:131] Top shape: 1 256 35 61 (546560)
I0925 23:26:51.821678  1161 net.cpp:139] Memory required for data: 49444404
I0925 23:26:51.821686  1161 layer_factory.hpp:77] Creating layer l_bn2a_branch2c
I0925 23:26:51.821697  1161 net.cpp:86] Creating Layer l_bn2a_branch2c
I0925 23:26:51.821703  1161 net.cpp:408] l_bn2a_branch2c <- l_res2a_branch2c
I0925 23:26:51.821710  1161 net.cpp:369] l_bn2a_branch2c -> l_res2a_branch2c (in-place)
I0925 23:26:51.821926  1161 net.cpp:124] Setting up l_bn2a_branch2c
I0925 23:26:51.821936  1161 net.cpp:131] Top shape: 1 256 35 61 (546560)
I0925 23:26:51.821940  1161 net.cpp:139] Memory required for data: 51630644
I0925 23:26:51.821951  1161 layer_factory.hpp:77] Creating layer l_scale2a_branch2c
I0925 23:26:51.821961  1161 net.cpp:86] Creating Layer l_scale2a_branch2c
I0925 23:26:51.821966  1161 net.cpp:408] l_scale2a_branch2c <- l_res2a_branch2c
I0925 23:26:51.821974  1161 net.cpp:369] l_scale2a_branch2c -> l_res2a_branch2c (in-place)
I0925 23:26:51.822019  1161 layer_factory.hpp:77] Creating layer l_scale2a_branch2c
I0925 23:26:51.822194  1161 net.cpp:124] Setting up l_scale2a_branch2c
I0925 23:26:51.822207  1161 net.cpp:131] Top shape: 1 256 35 61 (546560)
I0925 23:26:51.822213  1161 net.cpp:139] Memory required for data: 53816884
I0925 23:26:51.822221  1161 layer_factory.hpp:77] Creating layer l_res2a
I0925 23:26:51.822238  1161 net.cpp:86] Creating Layer l_res2a
I0925 23:26:51.822245  1161 net.cpp:408] l_res2a <- l_res2a_branch1
I0925 23:26:51.822252  1161 net.cpp:408] l_res2a <- l_res2a_branch2c
I0925 23:26:51.822259  1161 net.cpp:382] l_res2a -> l_res2a
I0925 23:26:51.822294  1161 net.cpp:124] Setting up l_res2a
I0925 23:26:51.822304  1161 net.cpp:131] Top shape: 1 256 35 61 (546560)
I0925 23:26:51.822309  1161 net.cpp:139] Memory required for data: 56003124
I0925 23:26:51.822314  1161 layer_factory.hpp:77] Creating layer l_res2a_relu
I0925 23:26:51.822321  1161 net.cpp:86] Creating Layer l_res2a_relu
I0925 23:26:51.822327  1161 net.cpp:408] l_res2a_relu <- l_res2a
I0925 23:26:51.822338  1161 net.cpp:369] l_res2a_relu -> l_res2a (in-place)
I0925 23:26:51.822630  1161 net.cpp:124] Setting up l_res2a_relu
I0925 23:26:51.822644  1161 net.cpp:131] Top shape: 1 256 35 61 (546560)
I0925 23:26:51.822649  1161 net.cpp:139] Memory required for data: 58189364
I0925 23:26:51.822656  1161 layer_factory.hpp:77] Creating layer l_res2a_l_res2a_relu_0_split
I0925 23:26:51.822664  1161 net.cpp:86] Creating Layer l_res2a_l_res2a_relu_0_split
I0925 23:26:51.822670  1161 net.cpp:408] l_res2a_l_res2a_relu_0_split <- l_res2a
I0925 23:26:51.822682  1161 net.cpp:382] l_res2a_l_res2a_relu_0_split -> l_res2a_l_res2a_relu_0_split_0
I0925 23:26:51.822693  1161 net.cpp:382] l_res2a_l_res2a_relu_0_split -> l_res2a_l_res2a_relu_0_split_1
I0925 23:26:51.822743  1161 net.cpp:124] Setting up l_res2a_l_res2a_relu_0_split
I0925 23:26:51.822753  1161 net.cpp:131] Top shape: 1 256 35 61 (546560)
I0925 23:26:51.822759  1161 net.cpp:131] Top shape: 1 256 35 61 (546560)
I0925 23:26:51.822763  1161 net.cpp:139] Memory required for data: 62561844
I0925 23:26:51.822768  1161 layer_factory.hpp:77] Creating layer l_res2b_branch2a
I0925 23:26:51.822782  1161 net.cpp:86] Creating Layer l_res2b_branch2a
I0925 23:26:51.822788  1161 net.cpp:408] l_res2b_branch2a <- l_res2a_l_res2a_relu_0_split_0
I0925 23:26:51.822798  1161 net.cpp:382] l_res2b_branch2a -> l_res2b_branch2a
I0925 23:26:51.823984  1161 net.cpp:124] Setting up l_res2b_branch2a
I0925 23:26:51.824002  1161 net.cpp:131] Top shape: 1 64 35 61 (136640)
I0925 23:26:51.824005  1161 net.cpp:139] Memory required for data: 63108404
I0925 23:26:51.824012  1161 layer_factory.hpp:77] Creating layer l_bn2b_branch2a
I0925 23:26:51.824023  1161 net.cpp:86] Creating Layer l_bn2b_branch2a
I0925 23:26:51.824030  1161 net.cpp:408] l_bn2b_branch2a <- l_res2b_branch2a
I0925 23:26:51.824039  1161 net.cpp:369] l_bn2b_branch2a -> l_res2b_branch2a (in-place)
I0925 23:26:51.824251  1161 net.cpp:124] Setting up l_bn2b_branch2a
I0925 23:26:51.824261  1161 net.cpp:131] Top shape: 1 64 35 61 (136640)
I0925 23:26:51.824265  1161 net.cpp:139] Memory required for data: 63654964
I0925 23:26:51.824280  1161 layer_factory.hpp:77] Creating layer l_scale2b_branch2a
I0925 23:26:51.824292  1161 net.cpp:86] Creating Layer l_scale2b_branch2a
I0925 23:26:51.824297  1161 net.cpp:408] l_scale2b_branch2a <- l_res2b_branch2a
I0925 23:26:51.824307  1161 net.cpp:369] l_scale2b_branch2a -> l_res2b_branch2a (in-place)
I0925 23:26:51.824360  1161 layer_factory.hpp:77] Creating layer l_scale2b_branch2a
I0925 23:26:51.824499  1161 net.cpp:124] Setting up l_scale2b_branch2a
I0925 23:26:51.824508  1161 net.cpp:131] Top shape: 1 64 35 61 (136640)
I0925 23:26:51.824513  1161 net.cpp:139] Memory required for data: 64201524
I0925 23:26:51.824522  1161 layer_factory.hpp:77] Creating layer l_res2b_branch2a_relu
I0925 23:26:51.824528  1161 net.cpp:86] Creating Layer l_res2b_branch2a_relu
I0925 23:26:51.824533  1161 net.cpp:408] l_res2b_branch2a_relu <- l_res2b_branch2a
I0925 23:26:51.824540  1161 net.cpp:369] l_res2b_branch2a_relu -> l_res2b_branch2a (in-place)
I0925 23:26:51.824743  1161 net.cpp:124] Setting up l_res2b_branch2a_relu
I0925 23:26:51.824754  1161 net.cpp:131] Top shape: 1 64 35 61 (136640)
I0925 23:26:51.824759  1161 net.cpp:139] Memory required for data: 64748084
I0925 23:26:51.824764  1161 layer_factory.hpp:77] Creating layer l_res2b_branch2b
I0925 23:26:51.824781  1161 net.cpp:86] Creating Layer l_res2b_branch2b
I0925 23:26:51.824789  1161 net.cpp:408] l_res2b_branch2b <- l_res2b_branch2a
I0925 23:26:51.824798  1161 net.cpp:382] l_res2b_branch2b -> l_res2b_branch2b
I0925 23:26:51.826086  1161 net.cpp:124] Setting up l_res2b_branch2b
I0925 23:26:51.826103  1161 net.cpp:131] Top shape: 1 64 35 61 (136640)
I0925 23:26:51.826109  1161 net.cpp:139] Memory required for data: 65294644
I0925 23:26:51.826118  1161 layer_factory.hpp:77] Creating layer l_bn2b_branch2b
I0925 23:26:51.826130  1161 net.cpp:86] Creating Layer l_bn2b_branch2b
I0925 23:26:51.826136  1161 net.cpp:408] l_bn2b_branch2b <- l_res2b_branch2b
I0925 23:26:51.826143  1161 net.cpp:369] l_bn2b_branch2b -> l_res2b_branch2b (in-place)
I0925 23:26:51.826382  1161 net.cpp:124] Setting up l_bn2b_branch2b
I0925 23:26:51.826393  1161 net.cpp:131] Top shape: 1 64 35 61 (136640)
I0925 23:26:51.826397  1161 net.cpp:139] Memory required for data: 65841204
I0925 23:26:51.826406  1161 layer_factory.hpp:77] Creating layer l_scale2b_branch2b
I0925 23:26:51.826416  1161 net.cpp:86] Creating Layer l_scale2b_branch2b
I0925 23:26:51.826423  1161 net.cpp:408] l_scale2b_branch2b <- l_res2b_branch2b
I0925 23:26:51.826432  1161 net.cpp:369] l_scale2b_branch2b -> l_res2b_branch2b (in-place)
I0925 23:26:51.826509  1161 layer_factory.hpp:77] Creating layer l_scale2b_branch2b
I0925 23:26:51.826668  1161 net.cpp:124] Setting up l_scale2b_branch2b
I0925 23:26:51.826681  1161 net.cpp:131] Top shape: 1 64 35 61 (136640)
I0925 23:26:51.826686  1161 net.cpp:139] Memory required for data: 66387764
I0925 23:26:51.826694  1161 layer_factory.hpp:77] Creating layer l_res2b_branch2b_relu
I0925 23:26:51.826702  1161 net.cpp:86] Creating Layer l_res2b_branch2b_relu
I0925 23:26:51.826709  1161 net.cpp:408] l_res2b_branch2b_relu <- l_res2b_branch2b
I0925 23:26:51.826714  1161 net.cpp:369] l_res2b_branch2b_relu -> l_res2b_branch2b (in-place)
I0925 23:26:51.827258  1161 net.cpp:124] Setting up l_res2b_branch2b_relu
I0925 23:26:51.827276  1161 net.cpp:131] Top shape: 1 64 35 61 (136640)
I0925 23:26:51.827282  1161 net.cpp:139] Memory required for data: 66934324
I0925 23:26:51.827288  1161 layer_factory.hpp:77] Creating layer l_res2b_branch2c
I0925 23:26:51.827301  1161 net.cpp:86] Creating Layer l_res2b_branch2c
I0925 23:26:51.827307  1161 net.cpp:408] l_res2b_branch2c <- l_res2b_branch2b
I0925 23:26:51.827317  1161 net.cpp:382] l_res2b_branch2c -> l_res2b_branch2c
I0925 23:26:51.828521  1161 net.cpp:124] Setting up l_res2b_branch2c
I0925 23:26:51.828536  1161 net.cpp:131] Top shape: 1 256 35 61 (546560)
I0925 23:26:51.828541  1161 net.cpp:139] Memory required for data: 69120564
I0925 23:26:51.828549  1161 layer_factory.hpp:77] Creating layer l_bn2b_branch2c
I0925 23:26:51.828560  1161 net.cpp:86] Creating Layer l_bn2b_branch2c
I0925 23:26:51.828567  1161 net.cpp:408] l_bn2b_branch2c <- l_res2b_branch2c
I0925 23:26:51.828573  1161 net.cpp:369] l_bn2b_branch2c -> l_res2b_branch2c (in-place)
I0925 23:26:51.828781  1161 net.cpp:124] Setting up l_bn2b_branch2c
I0925 23:26:51.828791  1161 net.cpp:131] Top shape: 1 256 35 61 (546560)
I0925 23:26:51.828800  1161 net.cpp:139] Memory required for data: 71306804
I0925 23:26:51.828815  1161 layer_factory.hpp:77] Creating layer l_scale2b_branch2c
I0925 23:26:51.828826  1161 net.cpp:86] Creating Layer l_scale2b_branch2c
I0925 23:26:51.828832  1161 net.cpp:408] l_scale2b_branch2c <- l_res2b_branch2c
I0925 23:26:51.828840  1161 net.cpp:369] l_scale2b_branch2c -> l_res2b_branch2c (in-place)
I0925 23:26:51.828888  1161 layer_factory.hpp:77] Creating layer l_scale2b_branch2c
I0925 23:26:51.829015  1161 net.cpp:124] Setting up l_scale2b_branch2c
I0925 23:26:51.829025  1161 net.cpp:131] Top shape: 1 256 35 61 (546560)
I0925 23:26:51.829028  1161 net.cpp:139] Memory required for data: 73493044
I0925 23:26:51.829038  1161 layer_factory.hpp:77] Creating layer l_res2b
I0925 23:26:51.829049  1161 net.cpp:86] Creating Layer l_res2b
I0925 23:26:51.829054  1161 net.cpp:408] l_res2b <- l_res2a_l_res2a_relu_0_split_1
I0925 23:26:51.829061  1161 net.cpp:408] l_res2b <- l_res2b_branch2c
I0925 23:26:51.829067  1161 net.cpp:382] l_res2b -> l_res2b
I0925 23:26:51.829097  1161 net.cpp:124] Setting up l_res2b
I0925 23:26:51.829105  1161 net.cpp:131] Top shape: 1 256 35 61 (546560)
I0925 23:26:51.829109  1161 net.cpp:139] Memory required for data: 75679284
I0925 23:26:51.829113  1161 layer_factory.hpp:77] Creating layer l_res2b_relu
I0925 23:26:51.829120  1161 net.cpp:86] Creating Layer l_res2b_relu
I0925 23:26:51.829125  1161 net.cpp:408] l_res2b_relu <- l_res2b
I0925 23:26:51.829134  1161 net.cpp:369] l_res2b_relu -> l_res2b (in-place)
I0925 23:26:51.829329  1161 net.cpp:124] Setting up l_res2b_relu
I0925 23:26:51.829341  1161 net.cpp:131] Top shape: 1 256 35 61 (546560)
I0925 23:26:51.829346  1161 net.cpp:139] Memory required for data: 77865524
I0925 23:26:51.829350  1161 layer_factory.hpp:77] Creating layer l_res2b_l_res2b_relu_0_split
I0925 23:26:51.829360  1161 net.cpp:86] Creating Layer l_res2b_l_res2b_relu_0_split
I0925 23:26:51.829365  1161 net.cpp:408] l_res2b_l_res2b_relu_0_split <- l_res2b
I0925 23:26:51.829375  1161 net.cpp:382] l_res2b_l_res2b_relu_0_split -> l_res2b_l_res2b_relu_0_split_0
I0925 23:26:51.829383  1161 net.cpp:382] l_res2b_l_res2b_relu_0_split -> l_res2b_l_res2b_relu_0_split_1
I0925 23:26:51.829428  1161 net.cpp:124] Setting up l_res2b_l_res2b_relu_0_split
I0925 23:26:51.829439  1161 net.cpp:131] Top shape: 1 256 35 61 (546560)
I0925 23:26:51.829445  1161 net.cpp:131] Top shape: 1 256 35 61 (546560)
I0925 23:26:51.829449  1161 net.cpp:139] Memory required for data: 82238004
I0925 23:26:51.829454  1161 layer_factory.hpp:77] Creating layer l_res2c_branch2a
I0925 23:26:51.829464  1161 net.cpp:86] Creating Layer l_res2c_branch2a
I0925 23:26:51.829469  1161 net.cpp:408] l_res2c_branch2a <- l_res2b_l_res2b_relu_0_split_0
I0925 23:26:51.829478  1161 net.cpp:382] l_res2c_branch2a -> l_res2c_branch2a
I0925 23:26:51.830688  1161 net.cpp:124] Setting up l_res2c_branch2a
I0925 23:26:51.830708  1161 net.cpp:131] Top shape: 1 64 35 61 (136640)
I0925 23:26:51.830713  1161 net.cpp:139] Memory required for data: 82784564
I0925 23:26:51.830720  1161 layer_factory.hpp:77] Creating layer l_bn2c_branch2a
I0925 23:26:51.830731  1161 net.cpp:86] Creating Layer l_bn2c_branch2a
I0925 23:26:51.830739  1161 net.cpp:408] l_bn2c_branch2a <- l_res2c_branch2a
I0925 23:26:51.830749  1161 net.cpp:369] l_bn2c_branch2a -> l_res2c_branch2a (in-place)
I0925 23:26:51.830996  1161 net.cpp:124] Setting up l_bn2c_branch2a
I0925 23:26:51.831005  1161 net.cpp:131] Top shape: 1 64 35 61 (136640)
I0925 23:26:51.831010  1161 net.cpp:139] Memory required for data: 83331124
I0925 23:26:51.831018  1161 layer_factory.hpp:77] Creating layer l_scale2c_branch2a
I0925 23:26:51.831028  1161 net.cpp:86] Creating Layer l_scale2c_branch2a
I0925 23:26:51.831033  1161 net.cpp:408] l_scale2c_branch2a <- l_res2c_branch2a
I0925 23:26:51.831043  1161 net.cpp:369] l_scale2c_branch2a -> l_res2c_branch2a (in-place)
I0925 23:26:51.831090  1161 layer_factory.hpp:77] Creating layer l_scale2c_branch2a
I0925 23:26:51.831221  1161 net.cpp:124] Setting up l_scale2c_branch2a
I0925 23:26:51.831236  1161 net.cpp:131] Top shape: 1 64 35 61 (136640)
I0925 23:26:51.831246  1161 net.cpp:139] Memory required for data: 83877684
I0925 23:26:51.831254  1161 layer_factory.hpp:77] Creating layer l_res2c_branch2a_relu
I0925 23:26:51.831264  1161 net.cpp:86] Creating Layer l_res2c_branch2a_relu
I0925 23:26:51.831269  1161 net.cpp:408] l_res2c_branch2a_relu <- l_res2c_branch2a
I0925 23:26:51.831276  1161 net.cpp:369] l_res2c_branch2a_relu -> l_res2c_branch2a (in-place)
I0925 23:26:51.831478  1161 net.cpp:124] Setting up l_res2c_branch2a_relu
I0925 23:26:51.831490  1161 net.cpp:131] Top shape: 1 64 35 61 (136640)
I0925 23:26:51.831493  1161 net.cpp:139] Memory required for data: 84424244
I0925 23:26:51.831498  1161 layer_factory.hpp:77] Creating layer l_res2c_branch2b
I0925 23:26:51.831511  1161 net.cpp:86] Creating Layer l_res2c_branch2b
I0925 23:26:51.831516  1161 net.cpp:408] l_res2c_branch2b <- l_res2c_branch2a
I0925 23:26:51.831526  1161 net.cpp:382] l_res2c_branch2b -> l_res2c_branch2b
I0925 23:26:51.833065  1161 net.cpp:124] Setting up l_res2c_branch2b
I0925 23:26:51.833082  1161 net.cpp:131] Top shape: 1 64 35 61 (136640)
I0925 23:26:51.833087  1161 net.cpp:139] Memory required for data: 84970804
I0925 23:26:51.833096  1161 layer_factory.hpp:77] Creating layer l_bn2c_branch2b
I0925 23:26:51.833108  1161 net.cpp:86] Creating Layer l_bn2c_branch2b
I0925 23:26:51.833115  1161 net.cpp:408] l_bn2c_branch2b <- l_res2c_branch2b
I0925 23:26:51.833124  1161 net.cpp:369] l_bn2c_branch2b -> l_res2c_branch2b (in-place)
I0925 23:26:51.833369  1161 net.cpp:124] Setting up l_bn2c_branch2b
I0925 23:26:51.833379  1161 net.cpp:131] Top shape: 1 64 35 61 (136640)
I0925 23:26:51.833384  1161 net.cpp:139] Memory required for data: 85517364
I0925 23:26:51.833395  1161 layer_factory.hpp:77] Creating layer l_scale2c_branch2b
I0925 23:26:51.833405  1161 net.cpp:86] Creating Layer l_scale2c_branch2b
I0925 23:26:51.833410  1161 net.cpp:408] l_scale2c_branch2b <- l_res2c_branch2b
I0925 23:26:51.833420  1161 net.cpp:369] l_scale2c_branch2b -> l_res2c_branch2b (in-place)
I0925 23:26:51.833472  1161 layer_factory.hpp:77] Creating layer l_scale2c_branch2b
I0925 23:26:51.833638  1161 net.cpp:124] Setting up l_scale2c_branch2b
I0925 23:26:51.833649  1161 net.cpp:131] Top shape: 1 64 35 61 (136640)
I0925 23:26:51.833653  1161 net.cpp:139] Memory required for data: 86063924
I0925 23:26:51.833662  1161 layer_factory.hpp:77] Creating layer l_res2c_branch2b_relu
I0925 23:26:51.833668  1161 net.cpp:86] Creating Layer l_res2c_branch2b_relu
I0925 23:26:51.833673  1161 net.cpp:408] l_res2c_branch2b_relu <- l_res2c_branch2b
I0925 23:26:51.833681  1161 net.cpp:369] l_res2c_branch2b_relu -> l_res2c_branch2b (in-place)
I0925 23:26:51.833884  1161 net.cpp:124] Setting up l_res2c_branch2b_relu
I0925 23:26:51.833895  1161 net.cpp:131] Top shape: 1 64 35 61 (136640)
I0925 23:26:51.833900  1161 net.cpp:139] Memory required for data: 86610484
I0925 23:26:51.833905  1161 layer_factory.hpp:77] Creating layer l_res2c_branch2c
I0925 23:26:51.833916  1161 net.cpp:86] Creating Layer l_res2c_branch2c
I0925 23:26:51.833922  1161 net.cpp:408] l_res2c_branch2c <- l_res2c_branch2b
I0925 23:26:51.833933  1161 net.cpp:382] l_res2c_branch2c -> l_res2c_branch2c
I0925 23:26:51.835255  1161 net.cpp:124] Setting up l_res2c_branch2c
I0925 23:26:51.835273  1161 net.cpp:131] Top shape: 1 256 35 61 (546560)
I0925 23:26:51.835278  1161 net.cpp:139] Memory required for data: 88796724
I0925 23:26:51.835288  1161 layer_factory.hpp:77] Creating layer l_bn2c_branch2c
I0925 23:26:51.835299  1161 net.cpp:86] Creating Layer l_bn2c_branch2c
I0925 23:26:51.835304  1161 net.cpp:408] l_bn2c_branch2c <- l_res2c_branch2c
I0925 23:26:51.835328  1161 net.cpp:369] l_bn2c_branch2c -> l_res2c_branch2c (in-place)
I0925 23:26:51.835577  1161 net.cpp:124] Setting up l_bn2c_branch2c
I0925 23:26:51.835587  1161 net.cpp:131] Top shape: 1 256 35 61 (546560)
I0925 23:26:51.835592  1161 net.cpp:139] Memory required for data: 90982964
I0925 23:26:51.835602  1161 layer_factory.hpp:77] Creating layer l_scale2c_branch2c
I0925 23:26:51.835624  1161 net.cpp:86] Creating Layer l_scale2c_branch2c
I0925 23:26:51.835631  1161 net.cpp:408] l_scale2c_branch2c <- l_res2c_branch2c
I0925 23:26:51.835640  1161 net.cpp:369] l_scale2c_branch2c -> l_res2c_branch2c (in-place)
I0925 23:26:51.835705  1161 layer_factory.hpp:77] Creating layer l_scale2c_branch2c
I0925 23:26:51.835849  1161 net.cpp:124] Setting up l_scale2c_branch2c
I0925 23:26:51.835858  1161 net.cpp:131] Top shape: 1 256 35 61 (546560)
I0925 23:26:51.835862  1161 net.cpp:139] Memory required for data: 93169204
I0925 23:26:51.835883  1161 layer_factory.hpp:77] Creating layer l_res2c
I0925 23:26:51.835892  1161 net.cpp:86] Creating Layer l_res2c
I0925 23:26:51.835897  1161 net.cpp:408] l_res2c <- l_res2b_l_res2b_relu_0_split_1
I0925 23:26:51.835903  1161 net.cpp:408] l_res2c <- l_res2c_branch2c
I0925 23:26:51.835911  1161 net.cpp:382] l_res2c -> l_res2c
I0925 23:26:51.835942  1161 net.cpp:124] Setting up l_res2c
I0925 23:26:51.835950  1161 net.cpp:131] Top shape: 1 256 35 61 (546560)
I0925 23:26:51.835954  1161 net.cpp:139] Memory required for data: 95355444
I0925 23:26:51.835960  1161 layer_factory.hpp:77] Creating layer l_res2c_relu
I0925 23:26:51.835968  1161 net.cpp:86] Creating Layer l_res2c_relu
I0925 23:26:51.835973  1161 net.cpp:408] l_res2c_relu <- l_res2c
I0925 23:26:51.835979  1161 net.cpp:369] l_res2c_relu -> l_res2c (in-place)
I0925 23:26:51.836525  1161 net.cpp:124] Setting up l_res2c_relu
I0925 23:26:51.836541  1161 net.cpp:131] Top shape: 1 256 35 61 (546560)
I0925 23:26:51.836545  1161 net.cpp:139] Memory required for data: 97541684
I0925 23:26:51.836550  1161 layer_factory.hpp:77] Creating layer l_res2c_l_res2c_relu_0_split
I0925 23:26:51.836560  1161 net.cpp:86] Creating Layer l_res2c_l_res2c_relu_0_split
I0925 23:26:51.836566  1161 net.cpp:408] l_res2c_l_res2c_relu_0_split <- l_res2c
I0925 23:26:51.836575  1161 net.cpp:382] l_res2c_l_res2c_relu_0_split -> l_res2c_l_res2c_relu_0_split_0
I0925 23:26:51.836585  1161 net.cpp:382] l_res2c_l_res2c_relu_0_split -> l_res2c_l_res2c_relu_0_split_1
I0925 23:26:51.836633  1161 net.cpp:124] Setting up l_res2c_l_res2c_relu_0_split
I0925 23:26:51.836643  1161 net.cpp:131] Top shape: 1 256 35 61 (546560)
I0925 23:26:51.836648  1161 net.cpp:131] Top shape: 1 256 35 61 (546560)
I0925 23:26:51.836652  1161 net.cpp:139] Memory required for data: 101914164
I0925 23:26:51.836657  1161 layer_factory.hpp:77] Creating layer l_res3a_branch1
I0925 23:26:51.836670  1161 net.cpp:86] Creating Layer l_res3a_branch1
I0925 23:26:51.836676  1161 net.cpp:408] l_res3a_branch1 <- l_res2c_l_res2c_relu_0_split_0
I0925 23:26:51.836688  1161 net.cpp:382] l_res3a_branch1 -> l_res3a_branch1
I0925 23:26:51.839658  1161 net.cpp:124] Setting up l_res3a_branch1
I0925 23:26:51.839678  1161 net.cpp:131] Top shape: 1 512 18 31 (285696)
I0925 23:26:51.839684  1161 net.cpp:139] Memory required for data: 103056948
I0925 23:26:51.839690  1161 layer_factory.hpp:77] Creating layer l_bn3a_branch1
I0925 23:26:51.839712  1161 net.cpp:86] Creating Layer l_bn3a_branch1
I0925 23:26:51.839720  1161 net.cpp:408] l_bn3a_branch1 <- l_res3a_branch1
I0925 23:26:51.839726  1161 net.cpp:369] l_bn3a_branch1 -> l_res3a_branch1 (in-place)
I0925 23:26:51.841171  1161 net.cpp:124] Setting up l_bn3a_branch1
I0925 23:26:51.841187  1161 net.cpp:131] Top shape: 1 512 18 31 (285696)
I0925 23:26:51.841193  1161 net.cpp:139] Memory required for data: 104199732
I0925 23:26:51.841203  1161 layer_factory.hpp:77] Creating layer l_scale3a_branch1
I0925 23:26:51.841213  1161 net.cpp:86] Creating Layer l_scale3a_branch1
I0925 23:26:51.841219  1161 net.cpp:408] l_scale3a_branch1 <- l_res3a_branch1
I0925 23:26:51.841229  1161 net.cpp:369] l_scale3a_branch1 -> l_res3a_branch1 (in-place)
I0925 23:26:51.841280  1161 layer_factory.hpp:77] Creating layer l_scale3a_branch1
I0925 23:26:51.841442  1161 net.cpp:124] Setting up l_scale3a_branch1
I0925 23:26:51.841454  1161 net.cpp:131] Top shape: 1 512 18 31 (285696)
I0925 23:26:51.841459  1161 net.cpp:139] Memory required for data: 105342516
I0925 23:26:51.841473  1161 layer_factory.hpp:77] Creating layer l_res3a_branch2a
I0925 23:26:51.841496  1161 net.cpp:86] Creating Layer l_res3a_branch2a
I0925 23:26:51.841502  1161 net.cpp:408] l_res3a_branch2a <- l_res2c_l_res2c_relu_0_split_1
I0925 23:26:51.841514  1161 net.cpp:382] l_res3a_branch2a -> l_res3a_branch2a
I0925 23:26:51.842909  1161 net.cpp:124] Setting up l_res3a_branch2a
I0925 23:26:51.842926  1161 net.cpp:131] Top shape: 1 128 18 31 (71424)
I0925 23:26:51.842931  1161 net.cpp:139] Memory required for data: 105628212
I0925 23:26:51.842941  1161 layer_factory.hpp:77] Creating layer l_bn3a_branch2a
I0925 23:26:51.842950  1161 net.cpp:86] Creating Layer l_bn3a_branch2a
I0925 23:26:51.842957  1161 net.cpp:408] l_bn3a_branch2a <- l_res3a_branch2a
I0925 23:26:51.842967  1161 net.cpp:369] l_bn3a_branch2a -> l_res3a_branch2a (in-place)
I0925 23:26:51.843181  1161 net.cpp:124] Setting up l_bn3a_branch2a
I0925 23:26:51.843191  1161 net.cpp:131] Top shape: 1 128 18 31 (71424)
I0925 23:26:51.843195  1161 net.cpp:139] Memory required for data: 105913908
I0925 23:26:51.843204  1161 layer_factory.hpp:77] Creating layer l_scale3a_branch2a
I0925 23:26:51.843212  1161 net.cpp:86] Creating Layer l_scale3a_branch2a
I0925 23:26:51.843217  1161 net.cpp:408] l_scale3a_branch2a <- l_res3a_branch2a
I0925 23:26:51.843225  1161 net.cpp:369] l_scale3a_branch2a -> l_res3a_branch2a (in-place)
I0925 23:26:51.843268  1161 layer_factory.hpp:77] Creating layer l_scale3a_branch2a
I0925 23:26:51.843394  1161 net.cpp:124] Setting up l_scale3a_branch2a
I0925 23:26:51.843402  1161 net.cpp:131] Top shape: 1 128 18 31 (71424)
I0925 23:26:51.843406  1161 net.cpp:139] Memory required for data: 106199604
I0925 23:26:51.843415  1161 layer_factory.hpp:77] Creating layer l_res3a_branch2a_relu
I0925 23:26:51.843422  1161 net.cpp:86] Creating Layer l_res3a_branch2a_relu
I0925 23:26:51.843426  1161 net.cpp:408] l_res3a_branch2a_relu <- l_res3a_branch2a
I0925 23:26:51.843436  1161 net.cpp:369] l_res3a_branch2a_relu -> l_res3a_branch2a (in-place)
I0925 23:26:51.843639  1161 net.cpp:124] Setting up l_res3a_branch2a_relu
I0925 23:26:51.843652  1161 net.cpp:131] Top shape: 1 128 18 31 (71424)
I0925 23:26:51.843655  1161 net.cpp:139] Memory required for data: 106485300
I0925 23:26:51.843662  1161 layer_factory.hpp:77] Creating layer l_res3a_branch2b
I0925 23:26:51.843672  1161 net.cpp:86] Creating Layer l_res3a_branch2b
I0925 23:26:51.843679  1161 net.cpp:408] l_res3a_branch2b <- l_res3a_branch2a
I0925 23:26:51.843688  1161 net.cpp:382] l_res3a_branch2b -> l_res3a_branch2b
I0925 23:26:51.845607  1161 net.cpp:124] Setting up l_res3a_branch2b
I0925 23:26:51.845625  1161 net.cpp:131] Top shape: 1 128 18 31 (71424)
I0925 23:26:51.845631  1161 net.cpp:139] Memory required for data: 106770996
I0925 23:26:51.845639  1161 layer_factory.hpp:77] Creating layer l_bn3a_branch2b
I0925 23:26:51.845647  1161 net.cpp:86] Creating Layer l_bn3a_branch2b
I0925 23:26:51.845654  1161 net.cpp:408] l_bn3a_branch2b <- l_res3a_branch2b
I0925 23:26:51.845665  1161 net.cpp:369] l_bn3a_branch2b -> l_res3a_branch2b (in-place)
I0925 23:26:51.845888  1161 net.cpp:124] Setting up l_bn3a_branch2b
I0925 23:26:51.845898  1161 net.cpp:131] Top shape: 1 128 18 31 (71424)
I0925 23:26:51.845902  1161 net.cpp:139] Memory required for data: 107056692
I0925 23:26:51.845911  1161 layer_factory.hpp:77] Creating layer l_scale3a_branch2b
I0925 23:26:51.845921  1161 net.cpp:86] Creating Layer l_scale3a_branch2b
I0925 23:26:51.845927  1161 net.cpp:408] l_scale3a_branch2b <- l_res3a_branch2b
I0925 23:26:51.845934  1161 net.cpp:369] l_scale3a_branch2b -> l_res3a_branch2b (in-place)
I0925 23:26:51.845983  1161 layer_factory.hpp:77] Creating layer l_scale3a_branch2b
I0925 23:26:51.846108  1161 net.cpp:124] Setting up l_scale3a_branch2b
I0925 23:26:51.846118  1161 net.cpp:131] Top shape: 1 128 18 31 (71424)
I0925 23:26:51.846122  1161 net.cpp:139] Memory required for data: 107342388
I0925 23:26:51.846130  1161 layer_factory.hpp:77] Creating layer l_res3a_branch2b_relu
I0925 23:26:51.846138  1161 net.cpp:86] Creating Layer l_res3a_branch2b_relu
I0925 23:26:51.846154  1161 net.cpp:408] l_res3a_branch2b_relu <- l_res3a_branch2b
I0925 23:26:51.846165  1161 net.cpp:369] l_res3a_branch2b_relu -> l_res3a_branch2b (in-place)
I0925 23:26:51.846369  1161 net.cpp:124] Setting up l_res3a_branch2b_relu
I0925 23:26:51.846381  1161 net.cpp:131] Top shape: 1 128 18 31 (71424)
I0925 23:26:51.846386  1161 net.cpp:139] Memory required for data: 107628084
I0925 23:26:51.846390  1161 layer_factory.hpp:77] Creating layer l_res3a_branch2c
I0925 23:26:51.846402  1161 net.cpp:86] Creating Layer l_res3a_branch2c
I0925 23:26:51.846408  1161 net.cpp:408] l_res3a_branch2c <- l_res3a_branch2b
I0925 23:26:51.846417  1161 net.cpp:382] l_res3a_branch2c -> l_res3a_branch2c
I0925 23:26:51.847692  1161 net.cpp:124] Setting up l_res3a_branch2c
I0925 23:26:51.847713  1161 net.cpp:131] Top shape: 1 512 18 31 (285696)
I0925 23:26:51.847718  1161 net.cpp:139] Memory required for data: 108770868
I0925 23:26:51.847726  1161 layer_factory.hpp:77] Creating layer l_bn3a_branch2c
I0925 23:26:51.847738  1161 net.cpp:86] Creating Layer l_bn3a_branch2c
I0925 23:26:51.847743  1161 net.cpp:408] l_bn3a_branch2c <- l_res3a_branch2c
I0925 23:26:51.847754  1161 net.cpp:369] l_bn3a_branch2c -> l_res3a_branch2c (in-place)
I0925 23:26:51.847965  1161 net.cpp:124] Setting up l_bn3a_branch2c
I0925 23:26:51.847975  1161 net.cpp:131] Top shape: 1 512 18 31 (285696)
I0925 23:26:51.847980  1161 net.cpp:139] Memory required for data: 109913652
I0925 23:26:51.847988  1161 layer_factory.hpp:77] Creating layer l_scale3a_branch2c
I0925 23:26:51.847996  1161 net.cpp:86] Creating Layer l_scale3a_branch2c
I0925 23:26:51.848001  1161 net.cpp:408] l_scale3a_branch2c <- l_res3a_branch2c
I0925 23:26:51.848011  1161 net.cpp:369] l_scale3a_branch2c -> l_res3a_branch2c (in-place)
I0925 23:26:51.848058  1161 layer_factory.hpp:77] Creating layer l_scale3a_branch2c
I0925 23:26:51.848181  1161 net.cpp:124] Setting up l_scale3a_branch2c
I0925 23:26:51.848189  1161 net.cpp:131] Top shape: 1 512 18 31 (285696)
I0925 23:26:51.848194  1161 net.cpp:139] Memory required for data: 111056436
I0925 23:26:51.848202  1161 layer_factory.hpp:77] Creating layer l_res3a
I0925 23:26:51.848210  1161 net.cpp:86] Creating Layer l_res3a
I0925 23:26:51.848215  1161 net.cpp:408] l_res3a <- l_res3a_branch1
I0925 23:26:51.848223  1161 net.cpp:408] l_res3a <- l_res3a_branch2c
I0925 23:26:51.848232  1161 net.cpp:382] l_res3a -> l_res3a
I0925 23:26:51.848263  1161 net.cpp:124] Setting up l_res3a
I0925 23:26:51.848273  1161 net.cpp:131] Top shape: 1 512 18 31 (285696)
I0925 23:26:51.848276  1161 net.cpp:139] Memory required for data: 112199220
I0925 23:26:51.848280  1161 layer_factory.hpp:77] Creating layer l_res3a_relu
I0925 23:26:51.848289  1161 net.cpp:86] Creating Layer l_res3a_relu
I0925 23:26:51.848294  1161 net.cpp:408] l_res3a_relu <- l_res3a
I0925 23:26:51.848302  1161 net.cpp:369] l_res3a_relu -> l_res3a (in-place)
I0925 23:26:51.848839  1161 net.cpp:124] Setting up l_res3a_relu
I0925 23:26:51.848855  1161 net.cpp:131] Top shape: 1 512 18 31 (285696)
I0925 23:26:51.848860  1161 net.cpp:139] Memory required for data: 113342004
I0925 23:26:51.848865  1161 layer_factory.hpp:77] Creating layer l_res3a_l_res3a_relu_0_split
I0925 23:26:51.848875  1161 net.cpp:86] Creating Layer l_res3a_l_res3a_relu_0_split
I0925 23:26:51.848881  1161 net.cpp:408] l_res3a_l_res3a_relu_0_split <- l_res3a
I0925 23:26:51.848887  1161 net.cpp:382] l_res3a_l_res3a_relu_0_split -> l_res3a_l_res3a_relu_0_split_0
I0925 23:26:51.848897  1161 net.cpp:382] l_res3a_l_res3a_relu_0_split -> l_res3a_l_res3a_relu_0_split_1
I0925 23:26:51.848968  1161 net.cpp:124] Setting up l_res3a_l_res3a_relu_0_split
I0925 23:26:51.848976  1161 net.cpp:131] Top shape: 1 512 18 31 (285696)
I0925 23:26:51.848983  1161 net.cpp:131] Top shape: 1 512 18 31 (285696)
I0925 23:26:51.848987  1161 net.cpp:139] Memory required for data: 115627572
I0925 23:26:51.848991  1161 layer_factory.hpp:77] Creating layer l_res3b1_branch2a
I0925 23:26:51.849004  1161 net.cpp:86] Creating Layer l_res3b1_branch2a
I0925 23:26:51.849014  1161 net.cpp:408] l_res3b1_branch2a <- l_res3a_l_res3a_relu_0_split_0
I0925 23:26:51.849052  1161 net.cpp:382] l_res3b1_branch2a -> l_res3b1_branch2a
I0925 23:26:51.850495  1161 net.cpp:124] Setting up l_res3b1_branch2a
I0925 23:26:51.850514  1161 net.cpp:131] Top shape: 1 128 18 31 (71424)
I0925 23:26:51.850519  1161 net.cpp:139] Memory required for data: 115913268
I0925 23:26:51.850531  1161 layer_factory.hpp:77] Creating layer l_bn3b1_branch2a
I0925 23:26:51.850543  1161 net.cpp:86] Creating Layer l_bn3b1_branch2a
I0925 23:26:51.850550  1161 net.cpp:408] l_bn3b1_branch2a <- l_res3b1_branch2a
I0925 23:26:51.850563  1161 net.cpp:369] l_bn3b1_branch2a -> l_res3b1_branch2a (in-place)
I0925 23:26:51.850832  1161 net.cpp:124] Setting up l_bn3b1_branch2a
I0925 23:26:51.850842  1161 net.cpp:131] Top shape: 1 128 18 31 (71424)
I0925 23:26:51.850847  1161 net.cpp:139] Memory required for data: 116198964
I0925 23:26:51.850855  1161 layer_factory.hpp:77] Creating layer l_scale3b1_branch2a
I0925 23:26:51.850864  1161 net.cpp:86] Creating Layer l_scale3b1_branch2a
I0925 23:26:51.850869  1161 net.cpp:408] l_scale3b1_branch2a <- l_res3b1_branch2a
I0925 23:26:51.850878  1161 net.cpp:369] l_scale3b1_branch2a -> l_res3b1_branch2a (in-place)
I0925 23:26:51.850925  1161 layer_factory.hpp:77] Creating layer l_scale3b1_branch2a
I0925 23:26:51.851074  1161 net.cpp:124] Setting up l_scale3b1_branch2a
I0925 23:26:51.851084  1161 net.cpp:131] Top shape: 1 128 18 31 (71424)
I0925 23:26:51.851089  1161 net.cpp:139] Memory required for data: 116484660
I0925 23:26:51.851097  1161 layer_factory.hpp:77] Creating layer l_res3b1_branch2a_relu
I0925 23:26:51.851105  1161 net.cpp:86] Creating Layer l_res3b1_branch2a_relu
I0925 23:26:51.851110  1161 net.cpp:408] l_res3b1_branch2a_relu <- l_res3b1_branch2a
I0925 23:26:51.851120  1161 net.cpp:369] l_res3b1_branch2a_relu -> l_res3b1_branch2a (in-place)
I0925 23:26:51.851336  1161 net.cpp:124] Setting up l_res3b1_branch2a_relu
I0925 23:26:51.851348  1161 net.cpp:131] Top shape: 1 128 18 31 (71424)
I0925 23:26:51.851352  1161 net.cpp:139] Memory required for data: 116770356
I0925 23:26:51.851357  1161 layer_factory.hpp:77] Creating layer l_res3b1_branch2b
I0925 23:26:51.851372  1161 net.cpp:86] Creating Layer l_res3b1_branch2b
I0925 23:26:51.851393  1161 net.cpp:408] l_res3b1_branch2b <- l_res3b1_branch2a
I0925 23:26:51.851402  1161 net.cpp:382] l_res3b1_branch2b -> l_res3b1_branch2b
I0925 23:26:51.853037  1161 net.cpp:124] Setting up l_res3b1_branch2b
I0925 23:26:51.853055  1161 net.cpp:131] Top shape: 1 128 18 31 (71424)
I0925 23:26:51.853061  1161 net.cpp:139] Memory required for data: 117056052
I0925 23:26:51.853070  1161 layer_factory.hpp:77] Creating layer l_bn3b1_branch2b
I0925 23:26:51.853080  1161 net.cpp:86] Creating Layer l_bn3b1_branch2b
I0925 23:26:51.853085  1161 net.cpp:408] l_bn3b1_branch2b <- l_res3b1_branch2b
I0925 23:26:51.853097  1161 net.cpp:369] l_bn3b1_branch2b -> l_res3b1_branch2b (in-place)
I0925 23:26:51.853327  1161 net.cpp:124] Setting up l_bn3b1_branch2b
I0925 23:26:51.853337  1161 net.cpp:131] Top shape: 1 128 18 31 (71424)
I0925 23:26:51.853340  1161 net.cpp:139] Memory required for data: 117341748
I0925 23:26:51.853350  1161 layer_factory.hpp:77] Creating layer l_scale3b1_branch2b
I0925 23:26:51.853358  1161 net.cpp:86] Creating Layer l_scale3b1_branch2b
I0925 23:26:51.853363  1161 net.cpp:408] l_scale3b1_branch2b <- l_res3b1_branch2b
I0925 23:26:51.853372  1161 net.cpp:369] l_scale3b1_branch2b -> l_res3b1_branch2b (in-place)
I0925 23:26:51.853417  1161 layer_factory.hpp:77] Creating layer l_scale3b1_branch2b
I0925 23:26:51.853545  1161 net.cpp:124] Setting up l_scale3b1_branch2b
I0925 23:26:51.853555  1161 net.cpp:131] Top shape: 1 128 18 31 (71424)
I0925 23:26:51.853559  1161 net.cpp:139] Memory required for data: 117627444
I0925 23:26:51.853569  1161 layer_factory.hpp:77] Creating layer l_res3b1_branch2b_relu
I0925 23:26:51.853576  1161 net.cpp:86] Creating Layer l_res3b1_branch2b_relu
I0925 23:26:51.853581  1161 net.cpp:408] l_res3b1_branch2b_relu <- l_res3b1_branch2b
I0925 23:26:51.853605  1161 net.cpp:369] l_res3b1_branch2b_relu -> l_res3b1_branch2b (in-place)
I0925 23:26:51.853814  1161 net.cpp:124] Setting up l_res3b1_branch2b_relu
I0925 23:26:51.853826  1161 net.cpp:131] Top shape: 1 128 18 31 (71424)
I0925 23:26:51.853830  1161 net.cpp:139] Memory required for data: 117913140
I0925 23:26:51.853834  1161 layer_factory.hpp:77] Creating layer l_res3b1_branch2c
I0925 23:26:51.853848  1161 net.cpp:86] Creating Layer l_res3b1_branch2c
I0925 23:26:51.853854  1161 net.cpp:408] l_res3b1_branch2c <- l_res3b1_branch2b
I0925 23:26:51.853865  1161 net.cpp:382] l_res3b1_branch2c -> l_res3b1_branch2c
I0925 23:26:51.855201  1161 net.cpp:124] Setting up l_res3b1_branch2c
I0925 23:26:51.855218  1161 net.cpp:131] Top shape: 1 512 18 31 (285696)
I0925 23:26:51.855223  1161 net.cpp:139] Memory required for data: 119055924
I0925 23:26:51.855231  1161 layer_factory.hpp:77] Creating layer l_bn3b1_branch2c
I0925 23:26:51.855242  1161 net.cpp:86] Creating Layer l_bn3b1_branch2c
I0925 23:26:51.855248  1161 net.cpp:408] l_bn3b1_branch2c <- l_res3b1_branch2c
I0925 23:26:51.855259  1161 net.cpp:369] l_bn3b1_branch2c -> l_res3b1_branch2c (in-place)
I0925 23:26:51.855540  1161 net.cpp:124] Setting up l_bn3b1_branch2c
I0925 23:26:51.855551  1161 net.cpp:131] Top shape: 1 512 18 31 (285696)
I0925 23:26:51.855556  1161 net.cpp:139] Memory required for data: 120198708
I0925 23:26:51.855568  1161 layer_factory.hpp:77] Creating layer l_scale3b1_branch2c
I0925 23:26:51.855577  1161 net.cpp:86] Creating Layer l_scale3b1_branch2c
I0925 23:26:51.855583  1161 net.cpp:408] l_scale3b1_branch2c <- l_res3b1_branch2c
I0925 23:26:51.855594  1161 net.cpp:369] l_scale3b1_branch2c -> l_res3b1_branch2c (in-place)
I0925 23:26:51.855646  1161 layer_factory.hpp:77] Creating layer l_scale3b1_branch2c
I0925 23:26:51.855826  1161 net.cpp:124] Setting up l_scale3b1_branch2c
I0925 23:26:51.855836  1161 net.cpp:131] Top shape: 1 512 18 31 (285696)
I0925 23:26:51.855841  1161 net.cpp:139] Memory required for data: 121341492
I0925 23:26:51.855849  1161 layer_factory.hpp:77] Creating layer l_res3b1
I0925 23:26:51.855856  1161 net.cpp:86] Creating Layer l_res3b1
I0925 23:26:51.855861  1161 net.cpp:408] l_res3b1 <- l_res3a_l_res3a_relu_0_split_1
I0925 23:26:51.855870  1161 net.cpp:408] l_res3b1 <- l_res3b1_branch2c
I0925 23:26:51.855877  1161 net.cpp:382] l_res3b1 -> l_res3b1
I0925 23:26:51.855908  1161 net.cpp:124] Setting up l_res3b1
I0925 23:26:51.855918  1161 net.cpp:131] Top shape: 1 512 18 31 (285696)
I0925 23:26:51.855923  1161 net.cpp:139] Memory required for data: 122484276
I0925 23:26:51.855927  1161 layer_factory.hpp:77] Creating layer l_res3b1_relu
I0925 23:26:51.855934  1161 net.cpp:86] Creating Layer l_res3b1_relu
I0925 23:26:51.855939  1161 net.cpp:408] l_res3b1_relu <- l_res3b1
I0925 23:26:51.855945  1161 net.cpp:369] l_res3b1_relu -> l_res3b1 (in-place)
I0925 23:26:51.856490  1161 net.cpp:124] Setting up l_res3b1_relu
I0925 23:26:51.856509  1161 net.cpp:131] Top shape: 1 512 18 31 (285696)
I0925 23:26:51.856514  1161 net.cpp:139] Memory required for data: 123627060
I0925 23:26:51.856521  1161 layer_factory.hpp:77] Creating layer l_res3b1_l_res3b1_relu_0_split
I0925 23:26:51.856529  1161 net.cpp:86] Creating Layer l_res3b1_l_res3b1_relu_0_split
I0925 23:26:51.856535  1161 net.cpp:408] l_res3b1_l_res3b1_relu_0_split <- l_res3b1
I0925 23:26:51.856545  1161 net.cpp:382] l_res3b1_l_res3b1_relu_0_split -> l_res3b1_l_res3b1_relu_0_split_0
I0925 23:26:51.856556  1161 net.cpp:382] l_res3b1_l_res3b1_relu_0_split -> l_res3b1_l_res3b1_relu_0_split_1
I0925 23:26:51.856608  1161 net.cpp:124] Setting up l_res3b1_l_res3b1_relu_0_split
I0925 23:26:51.856617  1161 net.cpp:131] Top shape: 1 512 18 31 (285696)
I0925 23:26:51.856622  1161 net.cpp:131] Top shape: 1 512 18 31 (285696)
I0925 23:26:51.856627  1161 net.cpp:139] Memory required for data: 125912628
I0925 23:26:51.856631  1161 layer_factory.hpp:77] Creating layer l_res3b2_branch2a
I0925 23:26:51.856642  1161 net.cpp:86] Creating Layer l_res3b2_branch2a
I0925 23:26:51.856653  1161 net.cpp:408] l_res3b2_branch2a <- l_res3b1_l_res3b1_relu_0_split_0
I0925 23:26:51.856669  1161 net.cpp:382] l_res3b2_branch2a -> l_res3b2_branch2a
I0925 23:26:51.857982  1161 net.cpp:124] Setting up l_res3b2_branch2a
I0925 23:26:51.857998  1161 net.cpp:131] Top shape: 1 128 18 31 (71424)
I0925 23:26:51.858003  1161 net.cpp:139] Memory required for data: 126198324
I0925 23:26:51.858011  1161 layer_factory.hpp:77] Creating layer l_bn3b2_branch2a
I0925 23:26:51.858023  1161 net.cpp:86] Creating Layer l_bn3b2_branch2a
I0925 23:26:51.858029  1161 net.cpp:408] l_bn3b2_branch2a <- l_res3b2_branch2a
I0925 23:26:51.858041  1161 net.cpp:369] l_bn3b2_branch2a -> l_res3b2_branch2a (in-place)
I0925 23:26:51.858294  1161 net.cpp:124] Setting up l_bn3b2_branch2a
I0925 23:26:51.858304  1161 net.cpp:131] Top shape: 1 128 18 31 (71424)
I0925 23:26:51.858309  1161 net.cpp:139] Memory required for data: 126484020
I0925 23:26:51.858319  1161 layer_factory.hpp:77] Creating layer l_scale3b2_branch2a
I0925 23:26:51.858330  1161 net.cpp:86] Creating Layer l_scale3b2_branch2a
I0925 23:26:51.858335  1161 net.cpp:408] l_scale3b2_branch2a <- l_res3b2_branch2a
I0925 23:26:51.858343  1161 net.cpp:369] l_scale3b2_branch2a -> l_res3b2_branch2a (in-place)
I0925 23:26:51.858393  1161 layer_factory.hpp:77] Creating layer l_scale3b2_branch2a
I0925 23:26:51.858551  1161 net.cpp:124] Setting up l_scale3b2_branch2a
I0925 23:26:51.858563  1161 net.cpp:131] Top shape: 1 128 18 31 (71424)
I0925 23:26:51.858567  1161 net.cpp:139] Memory required for data: 126769716
I0925 23:26:51.858575  1161 layer_factory.hpp:77] Creating layer l_res3b2_branch2a_relu
I0925 23:26:51.858583  1161 net.cpp:86] Creating Layer l_res3b2_branch2a_relu
I0925 23:26:51.858588  1161 net.cpp:408] l_res3b2_branch2a_relu <- l_res3b2_branch2a
I0925 23:26:51.858598  1161 net.cpp:369] l_res3b2_branch2a_relu -> l_res3b2_branch2a (in-place)
I0925 23:26:51.858805  1161 net.cpp:124] Setting up l_res3b2_branch2a_relu
I0925 23:26:51.858817  1161 net.cpp:131] Top shape: 1 128 18 31 (71424)
I0925 23:26:51.858822  1161 net.cpp:139] Memory required for data: 127055412
I0925 23:26:51.858826  1161 layer_factory.hpp:77] Creating layer l_res3b2_branch2b
I0925 23:26:51.858839  1161 net.cpp:86] Creating Layer l_res3b2_branch2b
I0925 23:26:51.858844  1161 net.cpp:408] l_res3b2_branch2b <- l_res3b2_branch2a
I0925 23:26:51.858853  1161 net.cpp:382] l_res3b2_branch2b -> l_res3b2_branch2b
I0925 23:26:51.861685  1161 net.cpp:124] Setting up l_res3b2_branch2b
I0925 23:26:51.861704  1161 net.cpp:131] Top shape: 1 128 18 31 (71424)
I0925 23:26:51.861709  1161 net.cpp:139] Memory required for data: 127341108
I0925 23:26:51.861721  1161 layer_factory.hpp:77] Creating layer l_bn3b2_branch2b
I0925 23:26:51.861734  1161 net.cpp:86] Creating Layer l_bn3b2_branch2b
I0925 23:26:51.861740  1161 net.cpp:408] l_bn3b2_branch2b <- l_res3b2_branch2b
I0925 23:26:51.861752  1161 net.cpp:369] l_bn3b2_branch2b -> l_res3b2_branch2b (in-place)
I0925 23:26:51.861980  1161 net.cpp:124] Setting up l_bn3b2_branch2b
I0925 23:26:51.861990  1161 net.cpp:131] Top shape: 1 128 18 31 (71424)
I0925 23:26:51.861995  1161 net.cpp:139] Memory required for data: 127626804
I0925 23:26:51.862004  1161 layer_factory.hpp:77] Creating layer l_scale3b2_branch2b
I0925 23:26:51.862015  1161 net.cpp:86] Creating Layer l_scale3b2_branch2b
I0925 23:26:51.862020  1161 net.cpp:408] l_scale3b2_branch2b <- l_res3b2_branch2b
I0925 23:26:51.862027  1161 net.cpp:369] l_scale3b2_branch2b -> l_res3b2_branch2b (in-place)
I0925 23:26:51.862076  1161 layer_factory.hpp:77] Creating layer l_scale3b2_branch2b
I0925 23:26:51.862206  1161 net.cpp:124] Setting up l_scale3b2_branch2b
I0925 23:26:51.862216  1161 net.cpp:131] Top shape: 1 128 18 31 (71424)
I0925 23:26:51.862221  1161 net.cpp:139] Memory required for data: 127912500
I0925 23:26:51.862229  1161 layer_factory.hpp:77] Creating layer l_res3b2_branch2b_relu
I0925 23:26:51.862241  1161 net.cpp:86] Creating Layer l_res3b2_branch2b_relu
I0925 23:26:51.862246  1161 net.cpp:408] l_res3b2_branch2b_relu <- l_res3b2_branch2b
I0925 23:26:51.862259  1161 net.cpp:369] l_res3b2_branch2b_relu -> l_res3b2_branch2b (in-place)
I0925 23:26:51.862501  1161 net.cpp:124] Setting up l_res3b2_branch2b_relu
I0925 23:26:51.862515  1161 net.cpp:131] Top shape: 1 128 18 31 (71424)
I0925 23:26:51.862520  1161 net.cpp:139] Memory required for data: 128198196
I0925 23:26:51.862525  1161 layer_factory.hpp:77] Creating layer l_res3b2_branch2c
I0925 23:26:51.862538  1161 net.cpp:86] Creating Layer l_res3b2_branch2c
I0925 23:26:51.862545  1161 net.cpp:408] l_res3b2_branch2c <- l_res3b2_branch2b
I0925 23:26:51.862555  1161 net.cpp:382] l_res3b2_branch2c -> l_res3b2_branch2c
I0925 23:26:51.863821  1161 net.cpp:124] Setting up l_res3b2_branch2c
I0925 23:26:51.863838  1161 net.cpp:131] Top shape: 1 512 18 31 (285696)
I0925 23:26:51.863843  1161 net.cpp:139] Memory required for data: 129340980
I0925 23:26:51.863852  1161 layer_factory.hpp:77] Creating layer l_bn3b2_branch2c
I0925 23:26:51.863862  1161 net.cpp:86] Creating Layer l_bn3b2_branch2c
I0925 23:26:51.863868  1161 net.cpp:408] l_bn3b2_branch2c <- l_res3b2_branch2c
I0925 23:26:51.863878  1161 net.cpp:369] l_bn3b2_branch2c -> l_res3b2_branch2c (in-place)
I0925 23:26:51.864096  1161 net.cpp:124] Setting up l_bn3b2_branch2c
I0925 23:26:51.864105  1161 net.cpp:131] Top shape: 1 512 18 31 (285696)
I0925 23:26:51.864110  1161 net.cpp:139] Memory required for data: 130483764
I0925 23:26:51.864120  1161 layer_factory.hpp:77] Creating layer l_scale3b2_branch2c
I0925 23:26:51.864130  1161 net.cpp:86] Creating Layer l_scale3b2_branch2c
I0925 23:26:51.864135  1161 net.cpp:408] l_scale3b2_branch2c <- l_res3b2_branch2c
I0925 23:26:51.864142  1161 net.cpp:369] l_scale3b2_branch2c -> l_res3b2_branch2c (in-place)
I0925 23:26:51.864190  1161 layer_factory.hpp:77] Creating layer l_scale3b2_branch2c
I0925 23:26:51.864317  1161 net.cpp:124] Setting up l_scale3b2_branch2c
I0925 23:26:51.864326  1161 net.cpp:131] Top shape: 1 512 18 31 (285696)
I0925 23:26:51.864331  1161 net.cpp:139] Memory required for data: 131626548
I0925 23:26:51.864341  1161 layer_factory.hpp:77] Creating layer l_res3b2
I0925 23:26:51.864349  1161 net.cpp:86] Creating Layer l_res3b2
I0925 23:26:51.864354  1161 net.cpp:408] l_res3b2 <- l_res3b1_l_res3b1_relu_0_split_1
I0925 23:26:51.864362  1161 net.cpp:408] l_res3b2 <- l_res3b2_branch2c
I0925 23:26:51.864372  1161 net.cpp:382] l_res3b2 -> l_res3b2
I0925 23:26:51.864403  1161 net.cpp:124] Setting up l_res3b2
I0925 23:26:51.864410  1161 net.cpp:131] Top shape: 1 512 18 31 (285696)
I0925 23:26:51.864414  1161 net.cpp:139] Memory required for data: 132769332
I0925 23:26:51.864418  1161 layer_factory.hpp:77] Creating layer l_res3b2_relu
I0925 23:26:51.864428  1161 net.cpp:86] Creating Layer l_res3b2_relu
I0925 23:26:51.864434  1161 net.cpp:408] l_res3b2_relu <- l_res3b2
I0925 23:26:51.864439  1161 net.cpp:369] l_res3b2_relu -> l_res3b2 (in-place)
I0925 23:26:51.864652  1161 net.cpp:124] Setting up l_res3b2_relu
I0925 23:26:51.864665  1161 net.cpp:131] Top shape: 1 512 18 31 (285696)
I0925 23:26:51.864668  1161 net.cpp:139] Memory required for data: 133912116
I0925 23:26:51.864673  1161 layer_factory.hpp:77] Creating layer l_res3b2_l_res3b2_relu_0_split
I0925 23:26:51.864682  1161 net.cpp:86] Creating Layer l_res3b2_l_res3b2_relu_0_split
I0925 23:26:51.864687  1161 net.cpp:408] l_res3b2_l_res3b2_relu_0_split <- l_res3b2
I0925 23:26:51.864697  1161 net.cpp:382] l_res3b2_l_res3b2_relu_0_split -> l_res3b2_l_res3b2_relu_0_split_0
I0925 23:26:51.864707  1161 net.cpp:382] l_res3b2_l_res3b2_relu_0_split -> l_res3b2_l_res3b2_relu_0_split_1
I0925 23:26:51.864758  1161 net.cpp:124] Setting up l_res3b2_l_res3b2_relu_0_split
I0925 23:26:51.864766  1161 net.cpp:131] Top shape: 1 512 18 31 (285696)
I0925 23:26:51.864771  1161 net.cpp:131] Top shape: 1 512 18 31 (285696)
I0925 23:26:51.864775  1161 net.cpp:139] Memory required for data: 136197684
I0925 23:26:51.864780  1161 layer_factory.hpp:77] Creating layer l_res3b3_branch2a
I0925 23:26:51.864791  1161 net.cpp:86] Creating Layer l_res3b3_branch2a
I0925 23:26:51.864801  1161 net.cpp:408] l_res3b3_branch2a <- l_res3b2_l_res3b2_relu_0_split_0
I0925 23:26:51.864820  1161 net.cpp:382] l_res3b3_branch2a -> l_res3b3_branch2a
I0925 23:26:51.867461  1161 net.cpp:124] Setting up l_res3b3_branch2a
I0925 23:26:51.867480  1161 net.cpp:131] Top shape: 1 128 18 31 (71424)
I0925 23:26:51.867485  1161 net.cpp:139] Memory required for data: 136483380
I0925 23:26:51.867493  1161 layer_factory.hpp:77] Creating layer l_bn3b3_branch2a
I0925 23:26:51.867519  1161 net.cpp:86] Creating Layer l_bn3b3_branch2a
I0925 23:26:51.867527  1161 net.cpp:408] l_bn3b3_branch2a <- l_res3b3_branch2a
I0925 23:26:51.867539  1161 net.cpp:369] l_bn3b3_branch2a -> l_res3b3_branch2a (in-place)
I0925 23:26:51.867763  1161 net.cpp:124] Setting up l_bn3b3_branch2a
I0925 23:26:51.867774  1161 net.cpp:131] Top shape: 1 128 18 31 (71424)
I0925 23:26:51.867777  1161 net.cpp:139] Memory required for data: 136769076
I0925 23:26:51.867810  1161 layer_factory.hpp:77] Creating layer l_scale3b3_branch2a
I0925 23:26:51.867823  1161 net.cpp:86] Creating Layer l_scale3b3_branch2a
I0925 23:26:51.867828  1161 net.cpp:408] l_scale3b3_branch2a <- l_res3b3_branch2a
I0925 23:26:51.867835  1161 net.cpp:369] l_scale3b3_branch2a -> l_res3b3_branch2a (in-place)
I0925 23:26:51.867885  1161 layer_factory.hpp:77] Creating layer l_scale3b3_branch2a
I0925 23:26:51.868016  1161 net.cpp:124] Setting up l_scale3b3_branch2a
I0925 23:26:51.868026  1161 net.cpp:131] Top shape: 1 128 18 31 (71424)
I0925 23:26:51.868029  1161 net.cpp:139] Memory required for data: 137054772
I0925 23:26:51.868038  1161 layer_factory.hpp:77] Creating layer l_res3b3_branch2a_relu
I0925 23:26:51.868047  1161 net.cpp:86] Creating Layer l_res3b3_branch2a_relu
I0925 23:26:51.868052  1161 net.cpp:408] l_res3b3_branch2a_relu <- l_res3b3_branch2a
I0925 23:26:51.868060  1161 net.cpp:369] l_res3b3_branch2a_relu -> l_res3b3_branch2a (in-place)
I0925 23:26:51.868609  1161 net.cpp:124] Setting up l_res3b3_branch2a_relu
I0925 23:26:51.868628  1161 net.cpp:131] Top shape: 1 128 18 31 (71424)
I0925 23:26:51.868633  1161 net.cpp:139] Memory required for data: 137340468
I0925 23:26:51.868638  1161 layer_factory.hpp:77] Creating layer l_res3b3_branch2b
I0925 23:26:51.868647  1161 net.cpp:86] Creating Layer l_res3b3_branch2b
I0925 23:26:51.868654  1161 net.cpp:408] l_res3b3_branch2b <- l_res3b3_branch2a
I0925 23:26:51.868664  1161 net.cpp:382] l_res3b3_branch2b -> l_res3b3_branch2b
I0925 23:26:51.870277  1161 net.cpp:124] Setting up l_res3b3_branch2b
I0925 23:26:51.870293  1161 net.cpp:131] Top shape: 1 128 18 31 (71424)
I0925 23:26:51.870298  1161 net.cpp:139] Memory required for data: 137626164
I0925 23:26:51.870306  1161 layer_factory.hpp:77] Creating layer l_bn3b3_branch2b
I0925 23:26:51.870319  1161 net.cpp:86] Creating Layer l_bn3b3_branch2b
I0925 23:26:51.870326  1161 net.cpp:408] l_bn3b3_branch2b <- l_res3b3_branch2b
I0925 23:26:51.870337  1161 net.cpp:369] l_bn3b3_branch2b -> l_res3b3_branch2b (in-place)
I0925 23:26:51.870582  1161 net.cpp:124] Setting up l_bn3b3_branch2b
I0925 23:26:51.870594  1161 net.cpp:131] Top shape: 1 128 18 31 (71424)
I0925 23:26:51.870597  1161 net.cpp:139] Memory required for data: 137911860
I0925 23:26:51.870607  1161 layer_factory.hpp:77] Creating layer l_scale3b3_branch2b
I0925 23:26:51.870617  1161 net.cpp:86] Creating Layer l_scale3b3_branch2b
I0925 23:26:51.870623  1161 net.cpp:408] l_scale3b3_branch2b <- l_res3b3_branch2b
I0925 23:26:51.870630  1161 net.cpp:369] l_scale3b3_branch2b -> l_res3b3_branch2b (in-place)
I0925 23:26:51.870678  1161 layer_factory.hpp:77] Creating layer l_scale3b3_branch2b
I0925 23:26:51.870810  1161 net.cpp:124] Setting up l_scale3b3_branch2b
I0925 23:26:51.870820  1161 net.cpp:131] Top shape: 1 128 18 31 (71424)
I0925 23:26:51.870823  1161 net.cpp:139] Memory required for data: 138197556
I0925 23:26:51.870832  1161 layer_factory.hpp:77] Creating layer l_res3b3_branch2b_relu
I0925 23:26:51.870841  1161 net.cpp:86] Creating Layer l_res3b3_branch2b_relu
I0925 23:26:51.870846  1161 net.cpp:408] l_res3b3_branch2b_relu <- l_res3b3_branch2b
I0925 23:26:51.870862  1161 net.cpp:369] l_res3b3_branch2b_relu -> l_res3b3_branch2b (in-place)
I0925 23:26:51.871083  1161 net.cpp:124] Setting up l_res3b3_branch2b_relu
I0925 23:26:51.871094  1161 net.cpp:131] Top shape: 1 128 18 31 (71424)
I0925 23:26:51.871099  1161 net.cpp:139] Memory required for data: 138483252
I0925 23:26:51.871104  1161 layer_factory.hpp:77] Creating layer l_res3b3_branch2c
I0925 23:26:51.871117  1161 net.cpp:86] Creating Layer l_res3b3_branch2c
I0925 23:26:51.871124  1161 net.cpp:408] l_res3b3_branch2c <- l_res3b3_branch2b
I0925 23:26:51.871132  1161 net.cpp:382] l_res3b3_branch2c -> l_res3b3_branch2c
I0925 23:26:51.872406  1161 net.cpp:124] Setting up l_res3b3_branch2c
I0925 23:26:51.872426  1161 net.cpp:131] Top shape: 1 512 18 31 (285696)
I0925 23:26:51.872431  1161 net.cpp:139] Memory required for data: 139626036
I0925 23:26:51.872438  1161 layer_factory.hpp:77] Creating layer l_bn3b3_branch2c
I0925 23:26:51.872449  1161 net.cpp:86] Creating Layer l_bn3b3_branch2c
I0925 23:26:51.872457  1161 net.cpp:408] l_bn3b3_branch2c <- l_res3b3_branch2c
I0925 23:26:51.872483  1161 net.cpp:369] l_bn3b3_branch2c -> l_res3b3_branch2c (in-place)
I0925 23:26:51.872776  1161 net.cpp:124] Setting up l_bn3b3_branch2c
I0925 23:26:51.872787  1161 net.cpp:131] Top shape: 1 512 18 31 (285696)
I0925 23:26:51.872793  1161 net.cpp:139] Memory required for data: 140768820
I0925 23:26:51.872803  1161 layer_factory.hpp:77] Creating layer l_scale3b3_branch2c
I0925 23:26:51.872814  1161 net.cpp:86] Creating Layer l_scale3b3_branch2c
I0925 23:26:51.872822  1161 net.cpp:408] l_scale3b3_branch2c <- l_res3b3_branch2c
I0925 23:26:51.872829  1161 net.cpp:369] l_scale3b3_branch2c -> l_res3b3_branch2c (in-place)
I0925 23:26:51.872941  1161 layer_factory.hpp:77] Creating layer l_scale3b3_branch2c
I0925 23:26:51.873096  1161 net.cpp:124] Setting up l_scale3b3_branch2c
I0925 23:26:51.873107  1161 net.cpp:131] Top shape: 1 512 18 31 (285696)
I0925 23:26:51.873112  1161 net.cpp:139] Memory required for data: 141911604
I0925 23:26:51.873121  1161 layer_factory.hpp:77] Creating layer l_res3b3
I0925 23:26:51.873132  1161 net.cpp:86] Creating Layer l_res3b3
I0925 23:26:51.873138  1161 net.cpp:408] l_res3b3 <- l_res3b2_l_res3b2_relu_0_split_1
I0925 23:26:51.873145  1161 net.cpp:408] l_res3b3 <- l_res3b3_branch2c
I0925 23:26:51.873153  1161 net.cpp:382] l_res3b3 -> l_res3b3
I0925 23:26:51.873188  1161 net.cpp:124] Setting up l_res3b3
I0925 23:26:51.873198  1161 net.cpp:131] Top shape: 1 512 18 31 (285696)
I0925 23:26:51.873203  1161 net.cpp:139] Memory required for data: 143054388
I0925 23:26:51.873208  1161 layer_factory.hpp:77] Creating layer l_res3b3_relu
I0925 23:26:51.873214  1161 net.cpp:86] Creating Layer l_res3b3_relu
I0925 23:26:51.873219  1161 net.cpp:408] l_res3b3_relu <- l_res3b3
I0925 23:26:51.873229  1161 net.cpp:369] l_res3b3_relu -> l_res3b3 (in-place)
I0925 23:26:51.873473  1161 net.cpp:124] Setting up l_res3b3_relu
I0925 23:26:51.873484  1161 net.cpp:131] Top shape: 1 512 18 31 (285696)
I0925 23:26:51.873489  1161 net.cpp:139] Memory required for data: 144197172
I0925 23:26:51.873494  1161 layer_factory.hpp:77] Creating layer l_res3b3_l_res3b3_relu_0_split
I0925 23:26:51.873503  1161 net.cpp:86] Creating Layer l_res3b3_l_res3b3_relu_0_split
I0925 23:26:51.873508  1161 net.cpp:408] l_res3b3_l_res3b3_relu_0_split <- l_res3b3
I0925 23:26:51.873519  1161 net.cpp:382] l_res3b3_l_res3b3_relu_0_split -> l_res3b3_l_res3b3_relu_0_split_0
I0925 23:26:51.873529  1161 net.cpp:382] l_res3b3_l_res3b3_relu_0_split -> l_res3b3_l_res3b3_relu_0_split_1
I0925 23:26:51.873577  1161 net.cpp:124] Setting up l_res3b3_l_res3b3_relu_0_split
I0925 23:26:51.873589  1161 net.cpp:131] Top shape: 1 512 18 31 (285696)
I0925 23:26:51.873594  1161 net.cpp:131] Top shape: 1 512 18 31 (285696)
I0925 23:26:51.873598  1161 net.cpp:139] Memory required for data: 146482740
I0925 23:26:51.873602  1161 layer_factory.hpp:77] Creating layer l_res4a_branch1
I0925 23:26:51.873612  1161 net.cpp:86] Creating Layer l_res4a_branch1
I0925 23:26:51.873617  1161 net.cpp:408] l_res4a_branch1 <- l_res3b3_l_res3b3_relu_0_split_0
I0925 23:26:51.873638  1161 net.cpp:382] l_res4a_branch1 -> l_res4a_branch1
I0925 23:26:51.876461  1161 net.cpp:124] Setting up l_res4a_branch1
I0925 23:26:51.876480  1161 net.cpp:131] Top shape: 1 1024 9 16 (147456)
I0925 23:26:51.876485  1161 net.cpp:139] Memory required for data: 147072564
I0925 23:26:51.876493  1161 layer_factory.hpp:77] Creating layer l_bn4a_branch1
I0925 23:26:51.876502  1161 net.cpp:86] Creating Layer l_bn4a_branch1
I0925 23:26:51.876507  1161 net.cpp:408] l_bn4a_branch1 <- l_res4a_branch1
I0925 23:26:51.876519  1161 net.cpp:369] l_bn4a_branch1 -> l_res4a_branch1 (in-place)
I0925 23:26:51.876756  1161 net.cpp:124] Setting up l_bn4a_branch1
I0925 23:26:51.876766  1161 net.cpp:131] Top shape: 1 1024 9 16 (147456)
I0925 23:26:51.876770  1161 net.cpp:139] Memory required for data: 147662388
I0925 23:26:51.876778  1161 layer_factory.hpp:77] Creating layer l_scale4a_branch1
I0925 23:26:51.876790  1161 net.cpp:86] Creating Layer l_scale4a_branch1
I0925 23:26:51.876796  1161 net.cpp:408] l_scale4a_branch1 <- l_res4a_branch1
I0925 23:26:51.876801  1161 net.cpp:369] l_scale4a_branch1 -> l_res4a_branch1 (in-place)
I0925 23:26:51.876845  1161 layer_factory.hpp:77] Creating layer l_scale4a_branch1
I0925 23:26:51.876987  1161 net.cpp:124] Setting up l_scale4a_branch1
I0925 23:26:51.876996  1161 net.cpp:131] Top shape: 1 1024 9 16 (147456)
I0925 23:26:51.877001  1161 net.cpp:139] Memory required for data: 148252212
I0925 23:26:51.877008  1161 layer_factory.hpp:77] Creating layer l_res4a_branch2a
I0925 23:26:51.877023  1161 net.cpp:86] Creating Layer l_res4a_branch2a
I0925 23:26:51.877029  1161 net.cpp:408] l_res4a_branch2a <- l_res3b3_l_res3b3_relu_0_split_1
I0925 23:26:51.877038  1161 net.cpp:382] l_res4a_branch2a -> l_res4a_branch2a
I0925 23:26:51.878319  1161 net.cpp:124] Setting up l_res4a_branch2a
I0925 23:26:51.878336  1161 net.cpp:131] Top shape: 1 256 9 16 (36864)
I0925 23:26:51.878341  1161 net.cpp:139] Memory required for data: 148399668
I0925 23:26:51.878350  1161 layer_factory.hpp:77] Creating layer l_bn4a_branch2a
I0925 23:26:51.878360  1161 net.cpp:86] Creating Layer l_bn4a_branch2a
I0925 23:26:51.878366  1161 net.cpp:408] l_bn4a_branch2a <- l_res4a_branch2a
I0925 23:26:51.878373  1161 net.cpp:369] l_bn4a_branch2a -> l_res4a_branch2a (in-place)
I0925 23:26:51.878640  1161 net.cpp:124] Setting up l_bn4a_branch2a
I0925 23:26:51.878651  1161 net.cpp:131] Top shape: 1 256 9 16 (36864)
I0925 23:26:51.878657  1161 net.cpp:139] Memory required for data: 148547124
I0925 23:26:51.878666  1161 layer_factory.hpp:77] Creating layer l_scale4a_branch2a
I0925 23:26:51.878677  1161 net.cpp:86] Creating Layer l_scale4a_branch2a
I0925 23:26:51.878682  1161 net.cpp:408] l_scale4a_branch2a <- l_res4a_branch2a
I0925 23:26:51.878693  1161 net.cpp:369] l_scale4a_branch2a -> l_res4a_branch2a (in-place)
I0925 23:26:51.878746  1161 layer_factory.hpp:77] Creating layer l_scale4a_branch2a
I0925 23:26:51.878895  1161 net.cpp:124] Setting up l_scale4a_branch2a
I0925 23:26:51.878906  1161 net.cpp:131] Top shape: 1 256 9 16 (36864)
I0925 23:26:51.878911  1161 net.cpp:139] Memory required for data: 148694580
I0925 23:26:51.878918  1161 layer_factory.hpp:77] Creating layer l_res4a_branch2a_relu
I0925 23:26:51.878943  1161 net.cpp:86] Creating Layer l_res4a_branch2a_relu
I0925 23:26:51.878949  1161 net.cpp:408] l_res4a_branch2a_relu <- l_res4a_branch2a
I0925 23:26:51.878957  1161 net.cpp:369] l_res4a_branch2a_relu -> l_res4a_branch2a (in-place)
I0925 23:26:51.879511  1161 net.cpp:124] Setting up l_res4a_branch2a_relu
I0925 23:26:51.879528  1161 net.cpp:131] Top shape: 1 256 9 16 (36864)
I0925 23:26:51.879531  1161 net.cpp:139] Memory required for data: 148842036
I0925 23:26:51.879537  1161 layer_factory.hpp:77] Creating layer l_res4a_branch2b
I0925 23:26:51.879550  1161 net.cpp:86] Creating Layer l_res4a_branch2b
I0925 23:26:51.879556  1161 net.cpp:408] l_res4a_branch2b <- l_res4a_branch2a
I0925 23:26:51.879566  1161 net.cpp:382] l_res4a_branch2b -> l_res4a_branch2b
I0925 23:26:51.883091  1161 net.cpp:124] Setting up l_res4a_branch2b
I0925 23:26:51.883119  1161 net.cpp:131] Top shape: 1 256 9 16 (36864)
I0925 23:26:51.883126  1161 net.cpp:139] Memory required for data: 148989492
I0925 23:26:51.883133  1161 layer_factory.hpp:77] Creating layer l_bn4a_branch2b
I0925 23:26:51.883143  1161 net.cpp:86] Creating Layer l_bn4a_branch2b
I0925 23:26:51.883149  1161 net.cpp:408] l_bn4a_branch2b <- l_res4a_branch2b
I0925 23:26:51.883157  1161 net.cpp:369] l_bn4a_branch2b -> l_res4a_branch2b (in-place)
I0925 23:26:51.883437  1161 net.cpp:124] Setting up l_bn4a_branch2b
I0925 23:26:51.883450  1161 net.cpp:131] Top shape: 1 256 9 16 (36864)
I0925 23:26:51.883455  1161 net.cpp:139] Memory required for data: 149136948
I0925 23:26:51.883466  1161 layer_factory.hpp:77] Creating layer l_scale4a_branch2b
I0925 23:26:51.883478  1161 net.cpp:86] Creating Layer l_scale4a_branch2b
I0925 23:26:51.883486  1161 net.cpp:408] l_scale4a_branch2b <- l_res4a_branch2b
I0925 23:26:51.883496  1161 net.cpp:369] l_scale4a_branch2b -> l_res4a_branch2b (in-place)
I0925 23:26:51.883565  1161 layer_factory.hpp:77] Creating layer l_scale4a_branch2b
I0925 23:26:51.883709  1161 net.cpp:124] Setting up l_scale4a_branch2b
I0925 23:26:51.883720  1161 net.cpp:131] Top shape: 1 256 9 16 (36864)
I0925 23:26:51.883724  1161 net.cpp:139] Memory required for data: 149284404
I0925 23:26:51.883733  1161 layer_factory.hpp:77] Creating layer l_res4a_branch2b_relu
I0925 23:26:51.883740  1161 net.cpp:86] Creating Layer l_res4a_branch2b_relu
I0925 23:26:51.883746  1161 net.cpp:408] l_res4a_branch2b_relu <- l_res4a_branch2b
I0925 23:26:51.883755  1161 net.cpp:369] l_res4a_branch2b_relu -> l_res4a_branch2b (in-place)
I0925 23:26:51.883980  1161 net.cpp:124] Setting up l_res4a_branch2b_relu
I0925 23:26:51.883992  1161 net.cpp:131] Top shape: 1 256 9 16 (36864)
I0925 23:26:51.883997  1161 net.cpp:139] Memory required for data: 149431860
I0925 23:26:51.884002  1161 layer_factory.hpp:77] Creating layer l_res4a_branch2c
I0925 23:26:51.884016  1161 net.cpp:86] Creating Layer l_res4a_branch2c
I0925 23:26:51.884022  1161 net.cpp:408] l_res4a_branch2c <- l_res4a_branch2b
I0925 23:26:51.884035  1161 net.cpp:382] l_res4a_branch2c -> l_res4a_branch2c
I0925 23:26:51.886881  1161 net.cpp:124] Setting up l_res4a_branch2c
I0925 23:26:51.886900  1161 net.cpp:131] Top shape: 1 1024 9 16 (147456)
I0925 23:26:51.886905  1161 net.cpp:139] Memory required for data: 150021684
I0925 23:26:51.886916  1161 layer_factory.hpp:77] Creating layer l_bn4a_branch2c
I0925 23:26:51.886930  1161 net.cpp:86] Creating Layer l_bn4a_branch2c
I0925 23:26:51.886936  1161 net.cpp:408] l_bn4a_branch2c <- l_res4a_branch2c
I0925 23:26:51.886946  1161 net.cpp:369] l_bn4a_branch2c -> l_res4a_branch2c (in-place)
I0925 23:26:51.887197  1161 net.cpp:124] Setting up l_bn4a_branch2c
I0925 23:26:51.887207  1161 net.cpp:131] Top shape: 1 1024 9 16 (147456)
I0925 23:26:51.887212  1161 net.cpp:139] Memory required for data: 150611508
I0925 23:26:51.887221  1161 layer_factory.hpp:77] Creating layer l_scale4a_branch2c
I0925 23:26:51.887230  1161 net.cpp:86] Creating Layer l_scale4a_branch2c
I0925 23:26:51.887236  1161 net.cpp:408] l_scale4a_branch2c <- l_res4a_branch2c
I0925 23:26:51.887245  1161 net.cpp:369] l_scale4a_branch2c -> l_res4a_branch2c (in-place)
I0925 23:26:51.887291  1161 layer_factory.hpp:77] Creating layer l_scale4a_branch2c
I0925 23:26:51.887439  1161 net.cpp:124] Setting up l_scale4a_branch2c
I0925 23:26:51.887450  1161 net.cpp:131] Top shape: 1 1024 9 16 (147456)
I0925 23:26:51.887454  1161 net.cpp:139] Memory required for data: 151201332
I0925 23:26:51.887462  1161 layer_factory.hpp:77] Creating layer l_res4a
I0925 23:26:51.887470  1161 net.cpp:86] Creating Layer l_res4a
I0925 23:26:51.887476  1161 net.cpp:408] l_res4a <- l_res4a_branch1
I0925 23:26:51.887482  1161 net.cpp:408] l_res4a <- l_res4a_branch2c
I0925 23:26:51.887491  1161 net.cpp:382] l_res4a -> l_res4a
I0925 23:26:51.887524  1161 net.cpp:124] Setting up l_res4a
I0925 23:26:51.887536  1161 net.cpp:131] Top shape: 1 1024 9 16 (147456)
I0925 23:26:51.887545  1161 net.cpp:139] Memory required for data: 151791156
I0925 23:26:51.887559  1161 layer_factory.hpp:77] Creating layer l_res4a_relu
I0925 23:26:51.887567  1161 net.cpp:86] Creating Layer l_res4a_relu
I0925 23:26:51.887573  1161 net.cpp:408] l_res4a_relu <- l_res4a
I0925 23:26:51.887580  1161 net.cpp:369] l_res4a_relu -> l_res4a (in-place)
I0925 23:26:51.887799  1161 net.cpp:124] Setting up l_res4a_relu
I0925 23:26:51.887814  1161 net.cpp:131] Top shape: 1 1024 9 16 (147456)
I0925 23:26:51.887818  1161 net.cpp:139] Memory required for data: 152380980
I0925 23:26:51.887823  1161 layer_factory.hpp:77] Creating layer l_res4a_l_res4a_relu_0_split
I0925 23:26:51.887831  1161 net.cpp:86] Creating Layer l_res4a_l_res4a_relu_0_split
I0925 23:26:51.887837  1161 net.cpp:408] l_res4a_l_res4a_relu_0_split <- l_res4a
I0925 23:26:51.887846  1161 net.cpp:382] l_res4a_l_res4a_relu_0_split -> l_res4a_l_res4a_relu_0_split_0
I0925 23:26:51.887856  1161 net.cpp:382] l_res4a_l_res4a_relu_0_split -> l_res4a_l_res4a_relu_0_split_1
I0925 23:26:51.887912  1161 net.cpp:124] Setting up l_res4a_l_res4a_relu_0_split
I0925 23:26:51.887922  1161 net.cpp:131] Top shape: 1 1024 9 16 (147456)
I0925 23:26:51.887926  1161 net.cpp:131] Top shape: 1 1024 9 16 (147456)
I0925 23:26:51.887930  1161 net.cpp:139] Memory required for data: 153560628
I0925 23:26:51.887935  1161 layer_factory.hpp:77] Creating layer l_res4b1_branch2a
I0925 23:26:51.887949  1161 net.cpp:86] Creating Layer l_res4b1_branch2a
I0925 23:26:51.887955  1161 net.cpp:408] l_res4b1_branch2a <- l_res4a_l_res4a_relu_0_split_0
I0925 23:26:51.887964  1161 net.cpp:382] l_res4b1_branch2a -> l_res4b1_branch2a
I0925 23:26:51.889905  1161 net.cpp:124] Setting up l_res4b1_branch2a
I0925 23:26:51.889925  1161 net.cpp:131] Top shape: 1 256 9 16 (36864)
I0925 23:26:51.889931  1161 net.cpp:139] Memory required for data: 153708084
I0925 23:26:51.889941  1161 layer_factory.hpp:77] Creating layer l_bn4b1_branch2a
I0925 23:26:51.889955  1161 net.cpp:86] Creating Layer l_bn4b1_branch2a
I0925 23:26:51.889961  1161 net.cpp:408] l_bn4b1_branch2a <- l_res4b1_branch2a
I0925 23:26:51.889969  1161 net.cpp:369] l_bn4b1_branch2a -> l_res4b1_branch2a (in-place)
I0925 23:26:51.890244  1161 net.cpp:124] Setting up l_bn4b1_branch2a
I0925 23:26:51.890255  1161 net.cpp:131] Top shape: 1 256 9 16 (36864)
I0925 23:26:51.890260  1161 net.cpp:139] Memory required for data: 153855540
I0925 23:26:51.890272  1161 layer_factory.hpp:77] Creating layer l_scale4b1_branch2a
I0925 23:26:51.890282  1161 net.cpp:86] Creating Layer l_scale4b1_branch2a
I0925 23:26:51.890287  1161 net.cpp:408] l_scale4b1_branch2a <- l_res4b1_branch2a
I0925 23:26:51.890297  1161 net.cpp:369] l_scale4b1_branch2a -> l_res4b1_branch2a (in-place)
I0925 23:26:51.890354  1161 layer_factory.hpp:77] Creating layer l_scale4b1_branch2a
I0925 23:26:51.890542  1161 net.cpp:124] Setting up l_scale4b1_branch2a
I0925 23:26:51.890556  1161 net.cpp:131] Top shape: 1 256 9 16 (36864)
I0925 23:26:51.890563  1161 net.cpp:139] Memory required for data: 154002996
I0925 23:26:51.890571  1161 layer_factory.hpp:77] Creating layer l_res4b1_branch2a_relu
I0925 23:26:51.890579  1161 net.cpp:86] Creating Layer l_res4b1_branch2a_relu
I0925 23:26:51.890584  1161 net.cpp:408] l_res4b1_branch2a_relu <- l_res4b1_branch2a
I0925 23:26:51.890592  1161 net.cpp:369] l_res4b1_branch2a_relu -> l_res4b1_branch2a (in-place)
I0925 23:26:51.891615  1161 net.cpp:124] Setting up l_res4b1_branch2a_relu
I0925 23:26:51.891631  1161 net.cpp:131] Top shape: 1 256 9 16 (36864)
I0925 23:26:51.891636  1161 net.cpp:139] Memory required for data: 154150452
I0925 23:26:51.891644  1161 layer_factory.hpp:77] Creating layer l_res4b1_branch2b
I0925 23:26:51.891656  1161 net.cpp:86] Creating Layer l_res4b1_branch2b
I0925 23:26:51.891664  1161 net.cpp:408] l_res4b1_branch2b <- l_res4b1_branch2a
I0925 23:26:51.891674  1161 net.cpp:382] l_res4b1_branch2b -> l_res4b1_branch2b
I0925 23:26:51.895031  1161 net.cpp:124] Setting up l_res4b1_branch2b
I0925 23:26:51.895048  1161 net.cpp:131] Top shape: 1 256 9 16 (36864)
I0925 23:26:51.895058  1161 net.cpp:139] Memory required for data: 154297908
I0925 23:26:51.895073  1161 layer_factory.hpp:77] Creating layer l_bn4b1_branch2b
I0925 23:26:51.895085  1161 net.cpp:86] Creating Layer l_bn4b1_branch2b
I0925 23:26:51.895092  1161 net.cpp:408] l_bn4b1_branch2b <- l_res4b1_branch2b
I0925 23:26:51.895100  1161 net.cpp:369] l_bn4b1_branch2b -> l_res4b1_branch2b (in-place)
I0925 23:26:51.895373  1161 net.cpp:124] Setting up l_bn4b1_branch2b
I0925 23:26:51.895385  1161 net.cpp:131] Top shape: 1 256 9 16 (36864)
I0925 23:26:51.895390  1161 net.cpp:139] Memory required for data: 154445364
I0925 23:26:51.895400  1161 layer_factory.hpp:77] Creating layer l_scale4b1_branch2b
I0925 23:26:51.895408  1161 net.cpp:86] Creating Layer l_scale4b1_branch2b
I0925 23:26:51.895414  1161 net.cpp:408] l_scale4b1_branch2b <- l_res4b1_branch2b
I0925 23:26:51.895426  1161 net.cpp:369] l_scale4b1_branch2b -> l_res4b1_branch2b (in-place)
I0925 23:26:51.895480  1161 layer_factory.hpp:77] Creating layer l_scale4b1_branch2b
I0925 23:26:51.895632  1161 net.cpp:124] Setting up l_scale4b1_branch2b
I0925 23:26:51.895643  1161 net.cpp:131] Top shape: 1 256 9 16 (36864)
I0925 23:26:51.895648  1161 net.cpp:139] Memory required for data: 154592820
I0925 23:26:51.895658  1161 layer_factory.hpp:77] Creating layer l_res4b1_branch2b_relu
I0925 23:26:51.895664  1161 net.cpp:86] Creating Layer l_res4b1_branch2b_relu
I0925 23:26:51.895670  1161 net.cpp:408] l_res4b1_branch2b_relu <- l_res4b1_branch2b
I0925 23:26:51.895678  1161 net.cpp:369] l_res4b1_branch2b_relu -> l_res4b1_branch2b (in-place)
I0925 23:26:51.895885  1161 net.cpp:124] Setting up l_res4b1_branch2b_relu
I0925 23:26:51.895897  1161 net.cpp:131] Top shape: 1 256 9 16 (36864)
I0925 23:26:51.895902  1161 net.cpp:139] Memory required for data: 154740276
I0925 23:26:51.895907  1161 layer_factory.hpp:77] Creating layer l_res4b1_branch2c
I0925 23:26:51.895920  1161 net.cpp:86] Creating Layer l_res4b1_branch2c
I0925 23:26:51.895925  1161 net.cpp:408] l_res4b1_branch2c <- l_res4b1_branch2b
I0925 23:26:51.895936  1161 net.cpp:382] l_res4b1_branch2c -> l_res4b1_branch2c
I0925 23:26:51.898758  1161 net.cpp:124] Setting up l_res4b1_branch2c
I0925 23:26:51.898779  1161 net.cpp:131] Top shape: 1 1024 9 16 (147456)
I0925 23:26:51.898785  1161 net.cpp:139] Memory required for data: 155330100
I0925 23:26:51.898809  1161 layer_factory.hpp:77] Creating layer l_bn4b1_branch2c
I0925 23:26:51.898823  1161 net.cpp:86] Creating Layer l_bn4b1_branch2c
I0925 23:26:51.898830  1161 net.cpp:408] l_bn4b1_branch2c <- l_res4b1_branch2c
I0925 23:26:51.898838  1161 net.cpp:369] l_bn4b1_branch2c -> l_res4b1_branch2c (in-place)
I0925 23:26:51.899087  1161 net.cpp:124] Setting up l_bn4b1_branch2c
I0925 23:26:51.899097  1161 net.cpp:131] Top shape: 1 1024 9 16 (147456)
I0925 23:26:51.899102  1161 net.cpp:139] Memory required for data: 155919924
I0925 23:26:51.899114  1161 layer_factory.hpp:77] Creating layer l_scale4b1_branch2c
I0925 23:26:51.899124  1161 net.cpp:86] Creating Layer l_scale4b1_branch2c
I0925 23:26:51.899129  1161 net.cpp:408] l_scale4b1_branch2c <- l_res4b1_branch2c
I0925 23:26:51.899138  1161 net.cpp:369] l_scale4b1_branch2c -> l_res4b1_branch2c (in-place)
I0925 23:26:51.899190  1161 layer_factory.hpp:77] Creating layer l_scale4b1_branch2c
I0925 23:26:51.899363  1161 net.cpp:124] Setting up l_scale4b1_branch2c
I0925 23:26:51.899376  1161 net.cpp:131] Top shape: 1 1024 9 16 (147456)
I0925 23:26:51.899381  1161 net.cpp:139] Memory required for data: 156509748
I0925 23:26:51.899390  1161 layer_factory.hpp:77] Creating layer l_res4b1
I0925 23:26:51.899399  1161 net.cpp:86] Creating Layer l_res4b1
I0925 23:26:51.899405  1161 net.cpp:408] l_res4b1 <- l_res4a_l_res4a_relu_0_split_1
I0925 23:26:51.899411  1161 net.cpp:408] l_res4b1 <- l_res4b1_branch2c
I0925 23:26:51.899418  1161 net.cpp:382] l_res4b1 -> l_res4b1
I0925 23:26:51.899461  1161 net.cpp:124] Setting up l_res4b1
I0925 23:26:51.899471  1161 net.cpp:131] Top shape: 1 1024 9 16 (147456)
I0925 23:26:51.899475  1161 net.cpp:139] Memory required for data: 157099572
I0925 23:26:51.899485  1161 layer_factory.hpp:77] Creating layer l_res4b1_relu
I0925 23:26:51.899499  1161 net.cpp:86] Creating Layer l_res4b1_relu
I0925 23:26:51.899505  1161 net.cpp:408] l_res4b1_relu <- l_res4b1
I0925 23:26:51.899513  1161 net.cpp:369] l_res4b1_relu -> l_res4b1 (in-place)
I0925 23:26:51.899740  1161 net.cpp:124] Setting up l_res4b1_relu
I0925 23:26:51.899754  1161 net.cpp:131] Top shape: 1 1024 9 16 (147456)
I0925 23:26:51.899758  1161 net.cpp:139] Memory required for data: 157689396
I0925 23:26:51.899765  1161 layer_factory.hpp:77] Creating layer l_res4b1_l_res4b1_relu_0_split
I0925 23:26:51.899777  1161 net.cpp:86] Creating Layer l_res4b1_l_res4b1_relu_0_split
I0925 23:26:51.899783  1161 net.cpp:408] l_res4b1_l_res4b1_relu_0_split <- l_res4b1
I0925 23:26:51.899791  1161 net.cpp:382] l_res4b1_l_res4b1_relu_0_split -> l_res4b1_l_res4b1_relu_0_split_0
I0925 23:26:51.899801  1161 net.cpp:382] l_res4b1_l_res4b1_relu_0_split -> l_res4b1_l_res4b1_relu_0_split_1
I0925 23:26:51.899858  1161 net.cpp:124] Setting up l_res4b1_l_res4b1_relu_0_split
I0925 23:26:51.899868  1161 net.cpp:131] Top shape: 1 1024 9 16 (147456)
I0925 23:26:51.899873  1161 net.cpp:131] Top shape: 1 1024 9 16 (147456)
I0925 23:26:51.899878  1161 net.cpp:139] Memory required for data: 158869044
I0925 23:26:51.899883  1161 layer_factory.hpp:77] Creating layer l_res4b2_branch2a
I0925 23:26:51.899894  1161 net.cpp:86] Creating Layer l_res4b2_branch2a
I0925 23:26:51.899900  1161 net.cpp:408] l_res4b2_branch2a <- l_res4b1_l_res4b1_relu_0_split_0
I0925 23:26:51.899912  1161 net.cpp:382] l_res4b2_branch2a -> l_res4b2_branch2a
I0925 23:26:51.901667  1161 net.cpp:124] Setting up l_res4b2_branch2a
I0925 23:26:51.901684  1161 net.cpp:131] Top shape: 1 256 9 16 (36864)
I0925 23:26:51.901688  1161 net.cpp:139] Memory required for data: 159016500
I0925 23:26:51.901696  1161 layer_factory.hpp:77] Creating layer l_bn4b2_branch2a
I0925 23:26:51.901710  1161 net.cpp:86] Creating Layer l_bn4b2_branch2a
I0925 23:26:51.901716  1161 net.cpp:408] l_bn4b2_branch2a <- l_res4b2_branch2a
I0925 23:26:51.901726  1161 net.cpp:369] l_bn4b2_branch2a -> l_res4b2_branch2a (in-place)
I0925 23:26:51.902046  1161 net.cpp:124] Setting up l_bn4b2_branch2a
I0925 23:26:51.902057  1161 net.cpp:131] Top shape: 1 256 9 16 (36864)
I0925 23:26:51.902063  1161 net.cpp:139] Memory required for data: 159163956
I0925 23:26:51.902073  1161 layer_factory.hpp:77] Creating layer l_scale4b2_branch2a
I0925 23:26:51.902086  1161 net.cpp:86] Creating Layer l_scale4b2_branch2a
I0925 23:26:51.902091  1161 net.cpp:408] l_scale4b2_branch2a <- l_res4b2_branch2a
I0925 23:26:51.902101  1161 net.cpp:369] l_scale4b2_branch2a -> l_res4b2_branch2a (in-place)
I0925 23:26:51.902163  1161 layer_factory.hpp:77] Creating layer l_scale4b2_branch2a
I0925 23:26:51.902346  1161 net.cpp:124] Setting up l_scale4b2_branch2a
I0925 23:26:51.902356  1161 net.cpp:131] Top shape: 1 256 9 16 (36864)
I0925 23:26:51.902361  1161 net.cpp:139] Memory required for data: 159311412
I0925 23:26:51.902370  1161 layer_factory.hpp:77] Creating layer l_res4b2_branch2a_relu
I0925 23:26:51.902379  1161 net.cpp:86] Creating Layer l_res4b2_branch2a_relu
I0925 23:26:51.902385  1161 net.cpp:408] l_res4b2_branch2a_relu <- l_res4b2_branch2a
I0925 23:26:51.902393  1161 net.cpp:369] l_res4b2_branch2a_relu -> l_res4b2_branch2a (in-place)
I0925 23:26:51.902660  1161 net.cpp:124] Setting up l_res4b2_branch2a_relu
I0925 23:26:51.902674  1161 net.cpp:131] Top shape: 1 256 9 16 (36864)
I0925 23:26:51.902679  1161 net.cpp:139] Memory required for data: 159458868
I0925 23:26:51.902685  1161 layer_factory.hpp:77] Creating layer l_res4b2_branch2b
I0925 23:26:51.902699  1161 net.cpp:86] Creating Layer l_res4b2_branch2b
I0925 23:26:51.902705  1161 net.cpp:408] l_res4b2_branch2b <- l_res4b2_branch2a
I0925 23:26:51.902717  1161 net.cpp:382] l_res4b2_branch2b -> l_res4b2_branch2b
I0925 23:26:51.906246  1161 net.cpp:124] Setting up l_res4b2_branch2b
I0925 23:26:51.906266  1161 net.cpp:131] Top shape: 1 256 9 16 (36864)
I0925 23:26:51.906280  1161 net.cpp:139] Memory required for data: 159606324
I0925 23:26:51.906296  1161 layer_factory.hpp:77] Creating layer l_bn4b2_branch2b
I0925 23:26:51.906308  1161 net.cpp:86] Creating Layer l_bn4b2_branch2b
I0925 23:26:51.906316  1161 net.cpp:408] l_bn4b2_branch2b <- l_res4b2_branch2b
I0925 23:26:51.906323  1161 net.cpp:369] l_bn4b2_branch2b -> l_res4b2_branch2b (in-place)
I0925 23:26:51.906656  1161 net.cpp:124] Setting up l_bn4b2_branch2b
I0925 23:26:51.906669  1161 net.cpp:131] Top shape: 1 256 9 16 (36864)
I0925 23:26:51.906674  1161 net.cpp:139] Memory required for data: 159753780
I0925 23:26:51.906685  1161 layer_factory.hpp:77] Creating layer l_scale4b2_branch2b
I0925 23:26:51.906694  1161 net.cpp:86] Creating Layer l_scale4b2_branch2b
I0925 23:26:51.906702  1161 net.cpp:408] l_scale4b2_branch2b <- l_res4b2_branch2b
I0925 23:26:51.906713  1161 net.cpp:369] l_scale4b2_branch2b -> l_res4b2_branch2b (in-place)
I0925 23:26:51.906774  1161 layer_factory.hpp:77] Creating layer l_scale4b2_branch2b
I0925 23:26:51.906931  1161 net.cpp:124] Setting up l_scale4b2_branch2b
I0925 23:26:51.906957  1161 net.cpp:131] Top shape: 1 256 9 16 (36864)
I0925 23:26:51.906962  1161 net.cpp:139] Memory required for data: 159901236
I0925 23:26:51.906985  1161 layer_factory.hpp:77] Creating layer l_res4b2_branch2b_relu
I0925 23:26:51.906996  1161 net.cpp:86] Creating Layer l_res4b2_branch2b_relu
I0925 23:26:51.907001  1161 net.cpp:408] l_res4b2_branch2b_relu <- l_res4b2_branch2b
I0925 23:26:51.907007  1161 net.cpp:369] l_res4b2_branch2b_relu -> l_res4b2_branch2b (in-place)
I0925 23:26:51.907615  1161 net.cpp:124] Setting up l_res4b2_branch2b_relu
I0925 23:26:51.907634  1161 net.cpp:131] Top shape: 1 256 9 16 (36864)
I0925 23:26:51.907640  1161 net.cpp:139] Memory required for data: 160048692
I0925 23:26:51.907645  1161 layer_factory.hpp:77] Creating layer l_res4b2_branch2c
I0925 23:26:51.907657  1161 net.cpp:86] Creating Layer l_res4b2_branch2c
I0925 23:26:51.907665  1161 net.cpp:408] l_res4b2_branch2c <- l_res4b2_branch2b
I0925 23:26:51.907673  1161 net.cpp:382] l_res4b2_branch2c -> l_res4b2_branch2c
I0925 23:26:51.910356  1161 net.cpp:124] Setting up l_res4b2_branch2c
I0925 23:26:51.910372  1161 net.cpp:131] Top shape: 1 1024 9 16 (147456)
I0925 23:26:51.910377  1161 net.cpp:139] Memory required for data: 160638516
I0925 23:26:51.910387  1161 layer_factory.hpp:77] Creating layer l_bn4b2_branch2c
I0925 23:26:51.910398  1161 net.cpp:86] Creating Layer l_bn4b2_branch2c
I0925 23:26:51.910403  1161 net.cpp:408] l_bn4b2_branch2c <- l_res4b2_branch2c
I0925 23:26:51.910413  1161 net.cpp:369] l_bn4b2_branch2c -> l_res4b2_branch2c (in-place)
I0925 23:26:51.910692  1161 net.cpp:124] Setting up l_bn4b2_branch2c
I0925 23:26:51.910704  1161 net.cpp:131] Top shape: 1 1024 9 16 (147456)
I0925 23:26:51.910708  1161 net.cpp:139] Memory required for data: 161228340
I0925 23:26:51.910722  1161 layer_factory.hpp:77] Creating layer l_scale4b2_branch2c
I0925 23:26:51.910732  1161 net.cpp:86] Creating Layer l_scale4b2_branch2c
I0925 23:26:51.910737  1161 net.cpp:408] l_scale4b2_branch2c <- l_res4b2_branch2c
I0925 23:26:51.910748  1161 net.cpp:369] l_scale4b2_branch2c -> l_res4b2_branch2c (in-place)
I0925 23:26:51.910796  1161 layer_factory.hpp:77] Creating layer l_scale4b2_branch2c
I0925 23:26:51.910960  1161 net.cpp:124] Setting up l_scale4b2_branch2c
I0925 23:26:51.910970  1161 net.cpp:131] Top shape: 1 1024 9 16 (147456)
I0925 23:26:51.910975  1161 net.cpp:139] Memory required for data: 161818164
I0925 23:26:51.910984  1161 layer_factory.hpp:77] Creating layer l_res4b2
I0925 23:26:51.910991  1161 net.cpp:86] Creating Layer l_res4b2
I0925 23:26:51.910996  1161 net.cpp:408] l_res4b2 <- l_res4b1_l_res4b1_relu_0_split_1
I0925 23:26:51.911002  1161 net.cpp:408] l_res4b2 <- l_res4b2_branch2c
I0925 23:26:51.911010  1161 net.cpp:382] l_res4b2 -> l_res4b2
I0925 23:26:51.911043  1161 net.cpp:124] Setting up l_res4b2
I0925 23:26:51.911054  1161 net.cpp:131] Top shape: 1 1024 9 16 (147456)
I0925 23:26:51.911058  1161 net.cpp:139] Memory required for data: 162407988
I0925 23:26:51.911067  1161 layer_factory.hpp:77] Creating layer l_res4b2_relu
I0925 23:26:51.911082  1161 net.cpp:86] Creating Layer l_res4b2_relu
I0925 23:26:51.911087  1161 net.cpp:408] l_res4b2_relu <- l_res4b2
I0925 23:26:51.911094  1161 net.cpp:369] l_res4b2_relu -> l_res4b2 (in-place)
I0925 23:26:51.911299  1161 net.cpp:124] Setting up l_res4b2_relu
I0925 23:26:51.911314  1161 net.cpp:131] Top shape: 1 1024 9 16 (147456)
I0925 23:26:51.911319  1161 net.cpp:139] Memory required for data: 162997812
I0925 23:26:51.911325  1161 layer_factory.hpp:77] Creating layer l_res4b2_l_res4b2_relu_0_split
I0925 23:26:51.911332  1161 net.cpp:86] Creating Layer l_res4b2_l_res4b2_relu_0_split
I0925 23:26:51.911339  1161 net.cpp:408] l_res4b2_l_res4b2_relu_0_split <- l_res4b2
I0925 23:26:51.911347  1161 net.cpp:382] l_res4b2_l_res4b2_relu_0_split -> l_res4b2_l_res4b2_relu_0_split_0
I0925 23:26:51.911356  1161 net.cpp:382] l_res4b2_l_res4b2_relu_0_split -> l_res4b2_l_res4b2_relu_0_split_1
I0925 23:26:51.911412  1161 net.cpp:124] Setting up l_res4b2_l_res4b2_relu_0_split
I0925 23:26:51.911422  1161 net.cpp:131] Top shape: 1 1024 9 16 (147456)
I0925 23:26:51.911427  1161 net.cpp:131] Top shape: 1 1024 9 16 (147456)
I0925 23:26:51.911430  1161 net.cpp:139] Memory required for data: 164177460
I0925 23:26:51.911434  1161 layer_factory.hpp:77] Creating layer l_res4b3_branch2a
I0925 23:26:51.911448  1161 net.cpp:86] Creating Layer l_res4b3_branch2a
I0925 23:26:51.911454  1161 net.cpp:408] l_res4b3_branch2a <- l_res4b2_l_res4b2_relu_0_split_0
I0925 23:26:51.911463  1161 net.cpp:382] l_res4b3_branch2a -> l_res4b3_branch2a
I0925 23:26:51.913265  1161 net.cpp:124] Setting up l_res4b3_branch2a
I0925 23:26:51.913285  1161 net.cpp:131] Top shape: 1 256 9 16 (36864)
I0925 23:26:51.913291  1161 net.cpp:139] Memory required for data: 164324916
I0925 23:26:51.913300  1161 layer_factory.hpp:77] Creating layer l_bn4b3_branch2a
I0925 23:26:51.913312  1161 net.cpp:86] Creating Layer l_bn4b3_branch2a
I0925 23:26:51.913334  1161 net.cpp:408] l_bn4b3_branch2a <- l_res4b3_branch2a
I0925 23:26:51.913342  1161 net.cpp:369] l_bn4b3_branch2a -> l_res4b3_branch2a (in-place)
I0925 23:26:51.913602  1161 net.cpp:124] Setting up l_bn4b3_branch2a
I0925 23:26:51.913612  1161 net.cpp:131] Top shape: 1 256 9 16 (36864)
I0925 23:26:51.913617  1161 net.cpp:139] Memory required for data: 164472372
I0925 23:26:51.913635  1161 layer_factory.hpp:77] Creating layer l_scale4b3_branch2a
I0925 23:26:51.913643  1161 net.cpp:86] Creating Layer l_scale4b3_branch2a
I0925 23:26:51.913648  1161 net.cpp:408] l_scale4b3_branch2a <- l_res4b3_branch2a
I0925 23:26:51.913657  1161 net.cpp:369] l_scale4b3_branch2a -> l_res4b3_branch2a (in-place)
I0925 23:26:51.913714  1161 layer_factory.hpp:77] Creating layer l_scale4b3_branch2a
I0925 23:26:51.913859  1161 net.cpp:124] Setting up l_scale4b3_branch2a
I0925 23:26:51.913872  1161 net.cpp:131] Top shape: 1 256 9 16 (36864)
I0925 23:26:51.913877  1161 net.cpp:139] Memory required for data: 164619828
I0925 23:26:51.913887  1161 layer_factory.hpp:77] Creating layer l_res4b3_branch2a_relu
I0925 23:26:51.913893  1161 net.cpp:86] Creating Layer l_res4b3_branch2a_relu
I0925 23:26:51.913898  1161 net.cpp:408] l_res4b3_branch2a_relu <- l_res4b3_branch2a
I0925 23:26:51.913905  1161 net.cpp:369] l_res4b3_branch2a_relu -> l_res4b3_branch2a (in-place)
I0925 23:26:51.914152  1161 net.cpp:124] Setting up l_res4b3_branch2a_relu
I0925 23:26:51.914165  1161 net.cpp:131] Top shape: 1 256 9 16 (36864)
I0925 23:26:51.914170  1161 net.cpp:139] Memory required for data: 164767284
I0925 23:26:51.914175  1161 layer_factory.hpp:77] Creating layer l_res4b3_branch2b
I0925 23:26:51.914187  1161 net.cpp:86] Creating Layer l_res4b3_branch2b
I0925 23:26:51.914193  1161 net.cpp:408] l_res4b3_branch2b <- l_res4b3_branch2a
I0925 23:26:51.914203  1161 net.cpp:382] l_res4b3_branch2b -> l_res4b3_branch2b
I0925 23:26:51.917693  1161 net.cpp:124] Setting up l_res4b3_branch2b
I0925 23:26:51.917711  1161 net.cpp:131] Top shape: 1 256 9 16 (36864)
I0925 23:26:51.917716  1161 net.cpp:139] Memory required for data: 164914740
I0925 23:26:51.917738  1161 layer_factory.hpp:77] Creating layer l_bn4b3_branch2b
I0925 23:26:51.917752  1161 net.cpp:86] Creating Layer l_bn4b3_branch2b
I0925 23:26:51.917758  1161 net.cpp:408] l_bn4b3_branch2b <- l_res4b3_branch2b
I0925 23:26:51.917768  1161 net.cpp:369] l_bn4b3_branch2b -> l_res4b3_branch2b (in-place)
I0925 23:26:51.918017  1161 net.cpp:124] Setting up l_bn4b3_branch2b
I0925 23:26:51.918028  1161 net.cpp:131] Top shape: 1 256 9 16 (36864)
I0925 23:26:51.918032  1161 net.cpp:139] Memory required for data: 165062196
I0925 23:26:51.918042  1161 layer_factory.hpp:77] Creating layer l_scale4b3_branch2b
I0925 23:26:51.918051  1161 net.cpp:86] Creating Layer l_scale4b3_branch2b
I0925 23:26:51.918056  1161 net.cpp:408] l_scale4b3_branch2b <- l_res4b3_branch2b
I0925 23:26:51.918066  1161 net.cpp:369] l_scale4b3_branch2b -> l_res4b3_branch2b (in-place)
I0925 23:26:51.918118  1161 layer_factory.hpp:77] Creating layer l_scale4b3_branch2b
I0925 23:26:51.918259  1161 net.cpp:124] Setting up l_scale4b3_branch2b
I0925 23:26:51.918269  1161 net.cpp:131] Top shape: 1 256 9 16 (36864)
I0925 23:26:51.918273  1161 net.cpp:139] Memory required for data: 165209652
I0925 23:26:51.918282  1161 layer_factory.hpp:77] Creating layer l_res4b3_branch2b_relu
I0925 23:26:51.918290  1161 net.cpp:86] Creating Layer l_res4b3_branch2b_relu
I0925 23:26:51.918295  1161 net.cpp:408] l_res4b3_branch2b_relu <- l_res4b3_branch2b
I0925 23:26:51.918303  1161 net.cpp:369] l_res4b3_branch2b_relu -> l_res4b3_branch2b (in-place)
I0925 23:26:51.918975  1161 net.cpp:124] Setting up l_res4b3_branch2b_relu
I0925 23:26:51.918993  1161 net.cpp:131] Top shape: 1 256 9 16 (36864)
I0925 23:26:51.918999  1161 net.cpp:139] Memory required for data: 165357108
I0925 23:26:51.919004  1161 layer_factory.hpp:77] Creating layer l_res4b3_branch2c
I0925 23:26:51.919016  1161 net.cpp:86] Creating Layer l_res4b3_branch2c
I0925 23:26:51.919023  1161 net.cpp:408] l_res4b3_branch2c <- l_res4b3_branch2b
I0925 23:26:51.919037  1161 net.cpp:382] l_res4b3_branch2c -> l_res4b3_branch2c
I0925 23:26:51.921947  1161 net.cpp:124] Setting up l_res4b3_branch2c
I0925 23:26:51.921981  1161 net.cpp:131] Top shape: 1 1024 9 16 (147456)
I0925 23:26:51.921988  1161 net.cpp:139] Memory required for data: 165946932
I0925 23:26:51.921998  1161 layer_factory.hpp:77] Creating layer l_bn4b3_branch2c
I0925 23:26:51.922009  1161 net.cpp:86] Creating Layer l_bn4b3_branch2c
I0925 23:26:51.922016  1161 net.cpp:408] l_bn4b3_branch2c <- l_res4b3_branch2c
I0925 23:26:51.922029  1161 net.cpp:369] l_bn4b3_branch2c -> l_res4b3_branch2c (in-place)
I0925 23:26:51.922324  1161 net.cpp:124] Setting up l_bn4b3_branch2c
I0925 23:26:51.922334  1161 net.cpp:131] Top shape: 1 1024 9 16 (147456)
I0925 23:26:51.922339  1161 net.cpp:139] Memory required for data: 166536756
I0925 23:26:51.922350  1161 layer_factory.hpp:77] Creating layer l_scale4b3_branch2c
I0925 23:26:51.922359  1161 net.cpp:86] Creating Layer l_scale4b3_branch2c
I0925 23:26:51.922365  1161 net.cpp:408] l_scale4b3_branch2c <- l_res4b3_branch2c
I0925 23:26:51.922376  1161 net.cpp:369] l_scale4b3_branch2c -> l_res4b3_branch2c (in-place)
I0925 23:26:51.922444  1161 layer_factory.hpp:77] Creating layer l_scale4b3_branch2c
I0925 23:26:51.922638  1161 net.cpp:124] Setting up l_scale4b3_branch2c
I0925 23:26:51.922652  1161 net.cpp:131] Top shape: 1 1024 9 16 (147456)
I0925 23:26:51.922657  1161 net.cpp:139] Memory required for data: 167126580
I0925 23:26:51.922667  1161 layer_factory.hpp:77] Creating layer l_res4b3
I0925 23:26:51.922679  1161 net.cpp:86] Creating Layer l_res4b3
I0925 23:26:51.922686  1161 net.cpp:408] l_res4b3 <- l_res4b2_l_res4b2_relu_0_split_1
I0925 23:26:51.922693  1161 net.cpp:408] l_res4b3 <- l_res4b3_branch2c
I0925 23:26:51.922700  1161 net.cpp:382] l_res4b3 -> l_res4b3
I0925 23:26:51.922739  1161 net.cpp:124] Setting up l_res4b3
I0925 23:26:51.922749  1161 net.cpp:131] Top shape: 1 1024 9 16 (147456)
I0925 23:26:51.922755  1161 net.cpp:139] Memory required for data: 167716404
I0925 23:26:51.922760  1161 layer_factory.hpp:77] Creating layer l_res4b3_relu
I0925 23:26:51.922778  1161 net.cpp:86] Creating Layer l_res4b3_relu
I0925 23:26:51.922799  1161 net.cpp:408] l_res4b3_relu <- l_res4b3
I0925 23:26:51.922823  1161 net.cpp:369] l_res4b3_relu -> l_res4b3 (in-place)
I0925 23:26:51.923041  1161 net.cpp:124] Setting up l_res4b3_relu
I0925 23:26:51.923054  1161 net.cpp:131] Top shape: 1 1024 9 16 (147456)
I0925 23:26:51.923059  1161 net.cpp:139] Memory required for data: 168306228
I0925 23:26:51.923064  1161 layer_factory.hpp:77] Creating layer l_res4b3_l_res4b3_relu_0_split
I0925 23:26:51.923071  1161 net.cpp:86] Creating Layer l_res4b3_l_res4b3_relu_0_split
I0925 23:26:51.923077  1161 net.cpp:408] l_res4b3_l_res4b3_relu_0_split <- l_res4b3
I0925 23:26:51.923087  1161 net.cpp:382] l_res4b3_l_res4b3_relu_0_split -> l_res4b3_l_res4b3_relu_0_split_0
I0925 23:26:51.923096  1161 net.cpp:382] l_res4b3_l_res4b3_relu_0_split -> l_res4b3_l_res4b3_relu_0_split_1
I0925 23:26:51.923153  1161 net.cpp:124] Setting up l_res4b3_l_res4b3_relu_0_split
I0925 23:26:51.923163  1161 net.cpp:131] Top shape: 1 1024 9 16 (147456)
I0925 23:26:51.923169  1161 net.cpp:131] Top shape: 1 1024 9 16 (147456)
I0925 23:26:51.923173  1161 net.cpp:139] Memory required for data: 169485876
I0925 23:26:51.923179  1161 layer_factory.hpp:77] Creating layer l_res4b4_branch2a
I0925 23:26:51.923209  1161 net.cpp:86] Creating Layer l_res4b4_branch2a
I0925 23:26:51.923215  1161 net.cpp:408] l_res4b4_branch2a <- l_res4b3_l_res4b3_relu_0_split_0
I0925 23:26:51.923228  1161 net.cpp:382] l_res4b4_branch2a -> l_res4b4_branch2a
I0925 23:26:51.925225  1161 net.cpp:124] Setting up l_res4b4_branch2a
I0925 23:26:51.925241  1161 net.cpp:131] Top shape: 1 256 9 16 (36864)
I0925 23:26:51.925246  1161 net.cpp:139] Memory required for data: 169633332
I0925 23:26:51.925254  1161 layer_factory.hpp:77] Creating layer l_bn4b4_branch2a
I0925 23:26:51.925266  1161 net.cpp:86] Creating Layer l_bn4b4_branch2a
I0925 23:26:51.925273  1161 net.cpp:408] l_bn4b4_branch2a <- l_res4b4_branch2a
I0925 23:26:51.925283  1161 net.cpp:369] l_bn4b4_branch2a -> l_res4b4_branch2a (in-place)
I0925 23:26:51.925552  1161 net.cpp:124] Setting up l_bn4b4_branch2a
I0925 23:26:51.925562  1161 net.cpp:131] Top shape: 1 256 9 16 (36864)
I0925 23:26:51.925567  1161 net.cpp:139] Memory required for data: 169780788
I0925 23:26:51.925577  1161 layer_factory.hpp:77] Creating layer l_scale4b4_branch2a
I0925 23:26:51.925588  1161 net.cpp:86] Creating Layer l_scale4b4_branch2a
I0925 23:26:51.925595  1161 net.cpp:408] l_scale4b4_branch2a <- l_res4b4_branch2a
I0925 23:26:51.925606  1161 net.cpp:369] l_scale4b4_branch2a -> l_res4b4_branch2a (in-place)
I0925 23:26:51.925659  1161 layer_factory.hpp:77] Creating layer l_scale4b4_branch2a
I0925 23:26:51.925810  1161 net.cpp:124] Setting up l_scale4b4_branch2a
I0925 23:26:51.925820  1161 net.cpp:131] Top shape: 1 256 9 16 (36864)
I0925 23:26:51.925825  1161 net.cpp:139] Memory required for data: 169928244
I0925 23:26:51.925834  1161 layer_factory.hpp:77] Creating layer l_res4b4_branch2a_relu
I0925 23:26:51.925842  1161 net.cpp:86] Creating Layer l_res4b4_branch2a_relu
I0925 23:26:51.925846  1161 net.cpp:408] l_res4b4_branch2a_relu <- l_res4b4_branch2a
I0925 23:26:51.925856  1161 net.cpp:369] l_res4b4_branch2a_relu -> l_res4b4_branch2a (in-place)
I0925 23:26:51.926085  1161 net.cpp:124] Setting up l_res4b4_branch2a_relu
I0925 23:26:51.926097  1161 net.cpp:131] Top shape: 1 256 9 16 (36864)
I0925 23:26:51.926102  1161 net.cpp:139] Memory required for data: 170075700
I0925 23:26:51.926107  1161 layer_factory.hpp:77] Creating layer l_res4b4_branch2b
I0925 23:26:51.926120  1161 net.cpp:86] Creating Layer l_res4b4_branch2b
I0925 23:26:51.926126  1161 net.cpp:408] l_res4b4_branch2b <- l_res4b4_branch2a
I0925 23:26:51.926137  1161 net.cpp:382] l_res4b4_branch2b -> l_res4b4_branch2b
I0925 23:26:51.929702  1161 net.cpp:124] Setting up l_res4b4_branch2b
I0925 23:26:51.929723  1161 net.cpp:131] Top shape: 1 256 9 16 (36864)
I0925 23:26:51.929728  1161 net.cpp:139] Memory required for data: 170223156
I0925 23:26:51.929741  1161 layer_factory.hpp:77] Creating layer l_bn4b4_branch2b
I0925 23:26:51.929761  1161 net.cpp:86] Creating Layer l_bn4b4_branch2b
I0925 23:26:51.929767  1161 net.cpp:408] l_bn4b4_branch2b <- l_res4b4_branch2b
I0925 23:26:51.929777  1161 net.cpp:369] l_bn4b4_branch2b -> l_res4b4_branch2b (in-place)
I0925 23:26:51.930052  1161 net.cpp:124] Setting up l_bn4b4_branch2b
I0925 23:26:51.930063  1161 net.cpp:131] Top shape: 1 256 9 16 (36864)
I0925 23:26:51.930068  1161 net.cpp:139] Memory required for data: 170370612
I0925 23:26:51.930078  1161 layer_factory.hpp:77] Creating layer l_scale4b4_branch2b
I0925 23:26:51.930088  1161 net.cpp:86] Creating Layer l_scale4b4_branch2b
I0925 23:26:51.930094  1161 net.cpp:408] l_scale4b4_branch2b <- l_res4b4_branch2b
I0925 23:26:51.930104  1161 net.cpp:369] l_scale4b4_branch2b -> l_res4b4_branch2b (in-place)
I0925 23:26:51.930160  1161 layer_factory.hpp:77] Creating layer l_scale4b4_branch2b
I0925 23:26:51.930315  1161 net.cpp:124] Setting up l_scale4b4_branch2b
I0925 23:26:51.930325  1161 net.cpp:131] Top shape: 1 256 9 16 (36864)
I0925 23:26:51.930330  1161 net.cpp:139] Memory required for data: 170518068
I0925 23:26:51.930341  1161 layer_factory.hpp:77] Creating layer l_res4b4_branch2b_relu
I0925 23:26:51.930351  1161 net.cpp:86] Creating Layer l_res4b4_branch2b_relu
I0925 23:26:51.930357  1161 net.cpp:408] l_res4b4_branch2b_relu <- l_res4b4_branch2b
I0925 23:26:51.930363  1161 net.cpp:369] l_res4b4_branch2b_relu -> l_res4b4_branch2b (in-place)
I0925 23:26:51.931064  1161 net.cpp:124] Setting up l_res4b4_branch2b_relu
I0925 23:26:51.931082  1161 net.cpp:131] Top shape: 1 256 9 16 (36864)
I0925 23:26:51.931089  1161 net.cpp:139] Memory required for data: 170665524
I0925 23:26:51.931095  1161 layer_factory.hpp:77] Creating layer l_res4b4_branch2c
I0925 23:26:51.931107  1161 net.cpp:86] Creating Layer l_res4b4_branch2c
I0925 23:26:51.931114  1161 net.cpp:408] l_res4b4_branch2c <- l_res4b4_branch2b
I0925 23:26:51.931126  1161 net.cpp:382] l_res4b4_branch2c -> l_res4b4_branch2c
I0925 23:26:51.933825  1161 net.cpp:124] Setting up l_res4b4_branch2c
I0925 23:26:51.933841  1161 net.cpp:131] Top shape: 1 1024 9 16 (147456)
I0925 23:26:51.933846  1161 net.cpp:139] Memory required for data: 171255348
I0925 23:26:51.933856  1161 layer_factory.hpp:77] Creating layer l_bn4b4_branch2c
I0925 23:26:51.933866  1161 net.cpp:86] Creating Layer l_bn4b4_branch2c
I0925 23:26:51.933872  1161 net.cpp:408] l_bn4b4_branch2c <- l_res4b4_branch2c
I0925 23:26:51.933881  1161 net.cpp:369] l_bn4b4_branch2c -> l_res4b4_branch2c (in-place)
I0925 23:26:51.934126  1161 net.cpp:124] Setting up l_bn4b4_branch2c
I0925 23:26:51.934136  1161 net.cpp:131] Top shape: 1 1024 9 16 (147456)
I0925 23:26:51.934140  1161 net.cpp:139] Memory required for data: 171845172
I0925 23:26:51.934150  1161 layer_factory.hpp:77] Creating layer l_scale4b4_branch2c
I0925 23:26:51.934160  1161 net.cpp:86] Creating Layer l_scale4b4_branch2c
I0925 23:26:51.934166  1161 net.cpp:408] l_scale4b4_branch2c <- l_res4b4_branch2c
I0925 23:26:51.934175  1161 net.cpp:369] l_scale4b4_branch2c -> l_res4b4_branch2c (in-place)
I0925 23:26:51.934224  1161 layer_factory.hpp:77] Creating layer l_scale4b4_branch2c
I0925 23:26:51.934375  1161 net.cpp:124] Setting up l_scale4b4_branch2c
I0925 23:26:51.934384  1161 net.cpp:131] Top shape: 1 1024 9 16 (147456)
I0925 23:26:51.934388  1161 net.cpp:139] Memory required for data: 172434996
I0925 23:26:51.934396  1161 layer_factory.hpp:77] Creating layer l_res4b4
I0925 23:26:51.934408  1161 net.cpp:86] Creating Layer l_res4b4
I0925 23:26:51.934413  1161 net.cpp:408] l_res4b4 <- l_res4b3_l_res4b3_relu_0_split_1
I0925 23:26:51.934419  1161 net.cpp:408] l_res4b4 <- l_res4b4_branch2c
I0925 23:26:51.934428  1161 net.cpp:382] l_res4b4 -> l_res4b4
I0925 23:26:51.934461  1161 net.cpp:124] Setting up l_res4b4
I0925 23:26:51.934469  1161 net.cpp:131] Top shape: 1 1024 9 16 (147456)
I0925 23:26:51.934473  1161 net.cpp:139] Memory required for data: 173024820
I0925 23:26:51.934509  1161 layer_factory.hpp:77] Creating layer l_res4b4_relu
I0925 23:26:51.934543  1161 net.cpp:86] Creating Layer l_res4b4_relu
I0925 23:26:51.934557  1161 net.cpp:408] l_res4b4_relu <- l_res4b4
I0925 23:26:51.934566  1161 net.cpp:369] l_res4b4_relu -> l_res4b4 (in-place)
I0925 23:26:51.934845  1161 net.cpp:124] Setting up l_res4b4_relu
I0925 23:26:51.934859  1161 net.cpp:131] Top shape: 1 1024 9 16 (147456)
I0925 23:26:51.934862  1161 net.cpp:139] Memory required for data: 173614644
I0925 23:26:51.934867  1161 layer_factory.hpp:77] Creating layer l_res4b4_l_res4b4_relu_0_split
I0925 23:26:51.934876  1161 net.cpp:86] Creating Layer l_res4b4_l_res4b4_relu_0_split
I0925 23:26:51.934882  1161 net.cpp:408] l_res4b4_l_res4b4_relu_0_split <- l_res4b4
I0925 23:26:51.934893  1161 net.cpp:382] l_res4b4_l_res4b4_relu_0_split -> l_res4b4_l_res4b4_relu_0_split_0
I0925 23:26:51.934902  1161 net.cpp:382] l_res4b4_l_res4b4_relu_0_split -> l_res4b4_l_res4b4_relu_0_split_1
I0925 23:26:51.934957  1161 net.cpp:124] Setting up l_res4b4_l_res4b4_relu_0_split
I0925 23:26:51.934968  1161 net.cpp:131] Top shape: 1 1024 9 16 (147456)
I0925 23:26:51.934974  1161 net.cpp:131] Top shape: 1 1024 9 16 (147456)
I0925 23:26:51.934978  1161 net.cpp:139] Memory required for data: 174794292
I0925 23:26:51.934983  1161 layer_factory.hpp:77] Creating layer l_res4b5_branch2a
I0925 23:26:51.934993  1161 net.cpp:86] Creating Layer l_res4b5_branch2a
I0925 23:26:51.934998  1161 net.cpp:408] l_res4b5_branch2a <- l_res4b4_l_res4b4_relu_0_split_0
I0925 23:26:51.935009  1161 net.cpp:382] l_res4b5_branch2a -> l_res4b5_branch2a
I0925 23:26:51.937019  1161 net.cpp:124] Setting up l_res4b5_branch2a
I0925 23:26:51.937038  1161 net.cpp:131] Top shape: 1 256 9 16 (36864)
I0925 23:26:51.937043  1161 net.cpp:139] Memory required for data: 174941748
I0925 23:26:51.937052  1161 layer_factory.hpp:77] Creating layer l_bn4b5_branch2a
I0925 23:26:51.937064  1161 net.cpp:86] Creating Layer l_bn4b5_branch2a
I0925 23:26:51.937072  1161 net.cpp:408] l_bn4b5_branch2a <- l_res4b5_branch2a
I0925 23:26:51.937081  1161 net.cpp:369] l_bn4b5_branch2a -> l_res4b5_branch2a (in-place)
I0925 23:26:51.937376  1161 net.cpp:124] Setting up l_bn4b5_branch2a
I0925 23:26:51.937386  1161 net.cpp:131] Top shape: 1 256 9 16 (36864)
I0925 23:26:51.937391  1161 net.cpp:139] Memory required for data: 175089204
I0925 23:26:51.937402  1161 layer_factory.hpp:77] Creating layer l_scale4b5_branch2a
I0925 23:26:51.937410  1161 net.cpp:86] Creating Layer l_scale4b5_branch2a
I0925 23:26:51.937415  1161 net.cpp:408] l_scale4b5_branch2a <- l_res4b5_branch2a
I0925 23:26:51.937427  1161 net.cpp:369] l_scale4b5_branch2a -> l_res4b5_branch2a (in-place)
I0925 23:26:51.937485  1161 layer_factory.hpp:77] Creating layer l_scale4b5_branch2a
I0925 23:26:51.937638  1161 net.cpp:124] Setting up l_scale4b5_branch2a
I0925 23:26:51.937649  1161 net.cpp:131] Top shape: 1 256 9 16 (36864)
I0925 23:26:51.937654  1161 net.cpp:139] Memory required for data: 175236660
I0925 23:26:51.937664  1161 layer_factory.hpp:77] Creating layer l_res4b5_branch2a_relu
I0925 23:26:51.937675  1161 net.cpp:86] Creating Layer l_res4b5_branch2a_relu
I0925 23:26:51.937681  1161 net.cpp:408] l_res4b5_branch2a_relu <- l_res4b5_branch2a
I0925 23:26:51.937688  1161 net.cpp:369] l_res4b5_branch2a_relu -> l_res4b5_branch2a (in-place)
I0925 23:26:51.937917  1161 net.cpp:124] Setting up l_res4b5_branch2a_relu
I0925 23:26:51.937930  1161 net.cpp:131] Top shape: 1 256 9 16 (36864)
I0925 23:26:51.937934  1161 net.cpp:139] Memory required for data: 175384116
I0925 23:26:51.937940  1161 layer_factory.hpp:77] Creating layer l_res4b5_branch2b
I0925 23:26:51.937953  1161 net.cpp:86] Creating Layer l_res4b5_branch2b
I0925 23:26:51.937960  1161 net.cpp:408] l_res4b5_branch2b <- l_res4b5_branch2a
I0925 23:26:51.937969  1161 net.cpp:382] l_res4b5_branch2b -> l_res4b5_branch2b
I0925 23:26:51.941704  1161 net.cpp:124] Setting up l_res4b5_branch2b
I0925 23:26:51.941720  1161 net.cpp:131] Top shape: 1 256 9 16 (36864)
I0925 23:26:51.941725  1161 net.cpp:139] Memory required for data: 175531572
I0925 23:26:51.941738  1161 layer_factory.hpp:77] Creating layer l_bn4b5_branch2b
I0925 23:26:51.941757  1161 net.cpp:86] Creating Layer l_bn4b5_branch2b
I0925 23:26:51.941763  1161 net.cpp:408] l_bn4b5_branch2b <- l_res4b5_branch2b
I0925 23:26:51.941772  1161 net.cpp:369] l_bn4b5_branch2b -> l_res4b5_branch2b (in-place)
I0925 23:26:51.942029  1161 net.cpp:124] Setting up l_bn4b5_branch2b
I0925 23:26:51.942040  1161 net.cpp:131] Top shape: 1 256 9 16 (36864)
I0925 23:26:51.942044  1161 net.cpp:139] Memory required for data: 175679028
I0925 23:26:51.942056  1161 layer_factory.hpp:77] Creating layer l_scale4b5_branch2b
I0925 23:26:51.942067  1161 net.cpp:86] Creating Layer l_scale4b5_branch2b
I0925 23:26:51.942073  1161 net.cpp:408] l_scale4b5_branch2b <- l_res4b5_branch2b
I0925 23:26:51.942081  1161 net.cpp:369] l_scale4b5_branch2b -> l_res4b5_branch2b (in-place)
I0925 23:26:51.942153  1161 layer_factory.hpp:77] Creating layer l_scale4b5_branch2b
I0925 23:26:51.942311  1161 net.cpp:124] Setting up l_scale4b5_branch2b
I0925 23:26:51.942322  1161 net.cpp:131] Top shape: 1 256 9 16 (36864)
I0925 23:26:51.942327  1161 net.cpp:139] Memory required for data: 175826484
I0925 23:26:51.942334  1161 layer_factory.hpp:77] Creating layer l_res4b5_branch2b_relu
I0925 23:26:51.942342  1161 net.cpp:86] Creating Layer l_res4b5_branch2b_relu
I0925 23:26:51.942348  1161 net.cpp:408] l_res4b5_branch2b_relu <- l_res4b5_branch2b
I0925 23:26:51.942358  1161 net.cpp:369] l_res4b5_branch2b_relu -> l_res4b5_branch2b (in-place)
I0925 23:26:51.942620  1161 net.cpp:124] Setting up l_res4b5_branch2b_relu
I0925 23:26:51.942634  1161 net.cpp:131] Top shape: 1 256 9 16 (36864)
I0925 23:26:51.942641  1161 net.cpp:139] Memory required for data: 175973940
I0925 23:26:51.942646  1161 layer_factory.hpp:77] Creating layer l_res4b5_branch2c
I0925 23:26:51.942659  1161 net.cpp:86] Creating Layer l_res4b5_branch2c
I0925 23:26:51.942665  1161 net.cpp:408] l_res4b5_branch2c <- l_res4b5_branch2b
I0925 23:26:51.942678  1161 net.cpp:382] l_res4b5_branch2c -> l_res4b5_branch2c
I0925 23:26:51.945435  1161 net.cpp:124] Setting up l_res4b5_branch2c
I0925 23:26:51.945451  1161 net.cpp:131] Top shape: 1 1024 9 16 (147456)
I0925 23:26:51.945456  1161 net.cpp:139] Memory required for data: 176563764
I0925 23:26:51.945467  1161 layer_factory.hpp:77] Creating layer l_bn4b5_branch2c
I0925 23:26:51.945478  1161 net.cpp:86] Creating Layer l_bn4b5_branch2c
I0925 23:26:51.945484  1161 net.cpp:408] l_bn4b5_branch2c <- l_res4b5_branch2c
I0925 23:26:51.945494  1161 net.cpp:369] l_bn4b5_branch2c -> l_res4b5_branch2c (in-place)
I0925 23:26:51.945744  1161 net.cpp:124] Setting up l_bn4b5_branch2c
I0925 23:26:51.945755  1161 net.cpp:131] Top shape: 1 1024 9 16 (147456)
I0925 23:26:51.945758  1161 net.cpp:139] Memory required for data: 177153588
I0925 23:26:51.945768  1161 layer_factory.hpp:77] Creating layer l_scale4b5_branch2c
I0925 23:26:51.945777  1161 net.cpp:86] Creating Layer l_scale4b5_branch2c
I0925 23:26:51.945782  1161 net.cpp:408] l_scale4b5_branch2c <- l_res4b5_branch2c
I0925 23:26:51.945794  1161 net.cpp:369] l_scale4b5_branch2c -> l_res4b5_branch2c (in-place)
I0925 23:26:51.945842  1161 layer_factory.hpp:77] Creating layer l_scale4b5_branch2c
I0925 23:26:51.945994  1161 net.cpp:124] Setting up l_scale4b5_branch2c
I0925 23:26:51.946003  1161 net.cpp:131] Top shape: 1 1024 9 16 (147456)
I0925 23:26:51.946008  1161 net.cpp:139] Memory required for data: 177743412
I0925 23:26:51.946070  1161 layer_factory.hpp:77] Creating layer l_res4b5
I0925 23:26:51.946081  1161 net.cpp:86] Creating Layer l_res4b5
I0925 23:26:51.946086  1161 net.cpp:408] l_res4b5 <- l_res4b4_l_res4b4_relu_0_split_1
…
I0925 23:26:53.877357  1161 net.cpp:369] bn4b20_branch2c -> res4b20_branch2c (in-place)
I0925 23:26:53.877641  1161 net.cpp:124] Setting up bn4b20_branch2c
I0925 23:26:53.877652  1161 net.cpp:131] Top shape: 1 1024 18 31 (571392)
I0925 23:26:53.877657  1161 net.cpp:139] Memory required for data: 4443584564
I0925 23:26:53.877665  1161 layer_factory.hpp:77] Creating layer scale4b20_branch2c
I0925 23:26:53.877676  1161 net.cpp:86] Creating Layer scale4b20_branch2c
I0925 23:26:53.877681  1161 net.cpp:408] scale4b20_branch2c <- res4b20_branch2c
I0925 23:26:53.877688  1161 net.cpp:369] scale4b20_branch2c -> res4b20_branch2c (in-place)
I0925 23:26:53.877749  1161 layer_factory.hpp:77] Creating layer scale4b20_branch2c
I0925 23:26:53.877916  1161 net.cpp:124] Setting up scale4b20_branch2c
I0925 23:26:53.877926  1161 net.cpp:131] Top shape: 1 1024 18 31 (571392)
I0925 23:26:53.877931  1161 net.cpp:139] Memory required for data: 4445870132
I0925 23:26:53.877938  1161 layer_factory.hpp:77] Creating layer res4b20
I0925 23:26:53.877949  1161 net.cpp:86] Creating Layer res4b20
I0925 23:26:53.877955  1161 net.cpp:408] res4b20 <- res4b19_res4b19_relu_0_split_1
I0925 23:26:53.877962  1161 net.cpp:408] res4b20 <- res4b20_branch2c
I0925 23:26:53.877969  1161 net.cpp:382] res4b20 -> res4b20
I0925 23:26:53.878005  1161 net.cpp:124] Setting up res4b20
I0925 23:26:53.878015  1161 net.cpp:131] Top shape: 1 1024 18 31 (571392)
I0925 23:26:53.878020  1161 net.cpp:139] Memory required for data: 4448155700
I0925 23:26:53.878023  1161 layer_factory.hpp:77] Creating layer res4b20_relu
I0925 23:26:53.878029  1161 net.cpp:86] Creating Layer res4b20_relu
I0925 23:26:53.878034  1161 net.cpp:408] res4b20_relu <- res4b20
I0925 23:26:53.878043  1161 net.cpp:369] res4b20_relu -> res4b20 (in-place)
I0925 23:26:53.878269  1161 net.cpp:124] Setting up res4b20_relu
I0925 23:26:53.878280  1161 net.cpp:131] Top shape: 1 1024 18 31 (571392)
I0925 23:26:53.878285  1161 net.cpp:139] Memory required for data: 4450441268
I0925 23:26:53.878290  1161 layer_factory.hpp:77] Creating layer res4b20_res4b20_relu_0_split
I0925 23:26:53.878298  1161 net.cpp:86] Creating Layer res4b20_res4b20_relu_0_split
I0925 23:26:53.878302  1161 net.cpp:408] res4b20_res4b20_relu_0_split <- res4b20
I0925 23:26:53.878312  1161 net.cpp:382] res4b20_res4b20_relu_0_split -> res4b20_res4b20_relu_0_split_0
I0925 23:26:53.878322  1161 net.cpp:382] res4b20_res4b20_relu_0_split -> res4b20_res4b20_relu_0_split_1
I0925 23:26:53.878381  1161 net.cpp:124] Setting up res4b20_res4b20_relu_0_split
I0925 23:26:53.878391  1161 net.cpp:131] Top shape: 1 1024 18 31 (571392)
I0925 23:26:53.878396  1161 net.cpp:131] Top shape: 1 1024 18 31 (571392)
I0925 23:26:53.878401  1161 net.cpp:139] Memory required for data: 4455012404
I0925 23:26:53.878404  1161 layer_factory.hpp:77] Creating layer res4b21_branch2a
I0925 23:26:53.878423  1161 net.cpp:86] Creating Layer res4b21_branch2a
I0925 23:26:53.878430  1161 net.cpp:408] res4b21_branch2a <- res4b20_res4b20_relu_0_split_0
I0925 23:26:53.878440  1161 net.cpp:382] res4b21_branch2a -> res4b21_branch2a
I0925 23:26:53.880702  1161 net.cpp:124] Setting up res4b21_branch2a
I0925 23:26:53.880718  1161 net.cpp:131] Top shape: 1 256 18 31 (142848)
I0925 23:26:53.880723  1161 net.cpp:139] Memory required for data: 4455583796
I0925 23:26:53.880730  1161 layer_factory.hpp:77] Creating layer bn4b21_branch2a
I0925 23:26:53.880741  1161 net.cpp:86] Creating Layer bn4b21_branch2a
I0925 23:26:53.880756  1161 net.cpp:408] bn4b21_branch2a <- res4b21_branch2a
I0925 23:26:53.880764  1161 net.cpp:369] bn4b21_branch2a -> res4b21_branch2a (in-place)
I0925 23:26:53.881062  1161 net.cpp:124] Setting up bn4b21_branch2a
I0925 23:26:53.881073  1161 net.cpp:131] Top shape: 1 256 18 31 (142848)
I0925 23:26:53.881078  1161 net.cpp:139] Memory required for data: 4456155188
I0925 23:26:53.881086  1161 layer_factory.hpp:77] Creating layer scale4b21_branch2a
I0925 23:26:53.881095  1161 net.cpp:86] Creating Layer scale4b21_branch2a
I0925 23:26:53.881100  1161 net.cpp:408] scale4b21_branch2a <- res4b21_branch2a
I0925 23:26:53.881109  1161 net.cpp:369] scale4b21_branch2a -> res4b21_branch2a (in-place)
I0925 23:26:53.881168  1161 layer_factory.hpp:77] Creating layer scale4b21_branch2a
I0925 23:26:53.881357  1161 net.cpp:124] Setting up scale4b21_branch2a
I0925 23:26:53.881367  1161 net.cpp:131] Top shape: 1 256 18 31 (142848)
I0925 23:26:53.881371  1161 net.cpp:139] Memory required for data: 4456726580
I0925 23:26:53.881378  1161 layer_factory.hpp:77] Creating layer res4b21_branch2a_relu
I0925 23:26:53.881386  1161 net.cpp:86] Creating Layer res4b21_branch2a_relu
I0925 23:26:53.881391  1161 net.cpp:408] res4b21_branch2a_relu <- res4b21_branch2a
I0925 23:26:53.881399  1161 net.cpp:369] res4b21_branch2a_relu -> res4b21_branch2a (in-place)
I0925 23:26:53.883891  1161 net.cpp:124] Setting up res4b21_branch2a_relu
I0925 23:26:53.883908  1161 net.cpp:131] Top shape: 1 256 18 31 (142848)
I0925 23:26:53.883913  1161 net.cpp:139] Memory required for data: 4457297972
I0925 23:26:53.883920  1161 layer_factory.hpp:77] Creating layer res4b21_branch2b
I0925 23:26:53.883934  1161 net.cpp:86] Creating Layer res4b21_branch2b
I0925 23:26:53.883940  1161 net.cpp:408] res4b21_branch2b <- res4b21_branch2a
I0925 23:26:53.883950  1161 net.cpp:382] res4b21_branch2b -> res4b21_branch2b
I0925 23:26:53.889849  1161 net.cpp:124] Setting up res4b21_branch2b
I0925 23:26:53.889866  1161 net.cpp:131] Top shape: 1 256 18 31 (142848)
I0925 23:26:53.889873  1161 net.cpp:139] Memory required for data: 4457869364
I0925 23:26:53.889879  1161 layer_factory.hpp:77] Creating layer bn4b21_branch2b
I0925 23:26:53.889888  1161 net.cpp:86] Creating Layer bn4b21_branch2b
I0925 23:26:53.889894  1161 net.cpp:408] bn4b21_branch2b <- res4b21_branch2b
I0925 23:26:53.889904  1161 net.cpp:369] bn4b21_branch2b -> res4b21_branch2b (in-place)
I0925 23:26:53.890218  1161 net.cpp:124] Setting up bn4b21_branch2b
I0925 23:26:53.890229  1161 net.cpp:131] Top shape: 1 256 18 31 (142848)
I0925 23:26:53.890233  1161 net.cpp:139] Memory required for data: 4458440756
I0925 23:26:53.890244  1161 layer_factory.hpp:77] Creating layer scale4b21_branch2b
I0925 23:26:53.890251  1161 net.cpp:86] Creating Layer scale4b21_branch2b
I0925 23:26:53.890257  1161 net.cpp:408] scale4b21_branch2b <- res4b21_branch2b
I0925 23:26:53.890267  1161 net.cpp:369] scale4b21_branch2b -> res4b21_branch2b (in-place)
I0925 23:26:53.890329  1161 layer_factory.hpp:77] Creating layer scale4b21_branch2b
I0925 23:26:53.890575  1161 net.cpp:124] Setting up scale4b21_branch2b
I0925 23:26:53.890588  1161 net.cpp:131] Top shape: 1 256 18 31 (142848)
I0925 23:26:53.890594  1161 net.cpp:139] Memory required for data: 4459012148
I0925 23:26:53.890604  1161 layer_factory.hpp:77] Creating layer res4b21_branch2b_relu
I0925 23:26:53.890612  1161 net.cpp:86] Creating Layer res4b21_branch2b_relu
I0925 23:26:53.890625  1161 net.cpp:408] res4b21_branch2b_relu <- res4b21_branch2b
I0925 23:26:53.890633  1161 net.cpp:369] res4b21_branch2b_relu -> res4b21_branch2b (in-place)
I0925 23:26:53.890913  1161 net.cpp:124] Setting up res4b21_branch2b_relu
I0925 23:26:53.890925  1161 net.cpp:131] Top shape: 1 256 18 31 (142848)
I0925 23:26:53.890929  1161 net.cpp:139] Memory required for data: 4459583540
I0925 23:26:53.890934  1161 layer_factory.hpp:77] Creating layer res4b21_branch2c
I0925 23:26:53.890946  1161 net.cpp:86] Creating Layer res4b21_branch2c
I0925 23:26:53.890952  1161 net.cpp:408] res4b21_branch2c <- res4b21_branch2b
I0925 23:26:53.890970  1161 net.cpp:382] res4b21_branch2c -> res4b21_branch2c
I0925 23:26:53.895109  1161 net.cpp:124] Setting up res4b21_branch2c
I0925 23:26:53.895128  1161 net.cpp:131] Top shape: 1 1024 18 31 (571392)
I0925 23:26:53.895133  1161 net.cpp:139] Memory required for data: 4461869108
I0925 23:26:53.895139  1161 layer_factory.hpp:77] Creating layer bn4b21_branch2c
I0925 23:26:53.895149  1161 net.cpp:86] Creating Layer bn4b21_branch2c
I0925 23:26:53.895157  1161 net.cpp:408] bn4b21_branch2c <- res4b21_branch2c
I0925 23:26:53.895166  1161 net.cpp:369] bn4b21_branch2c -> res4b21_branch2c (in-place)
I0925 23:26:53.895452  1161 net.cpp:124] Setting up bn4b21_branch2c
I0925 23:26:53.895462  1161 net.cpp:131] Top shape: 1 1024 18 31 (571392)
I0925 23:26:53.895467  1161 net.cpp:139] Memory required for data: 4464154676
I0925 23:26:53.895474  1161 layer_factory.hpp:77] Creating layer scale4b21_branch2c
I0925 23:26:53.895485  1161 net.cpp:86] Creating Layer scale4b21_branch2c
I0925 23:26:53.895490  1161 net.cpp:408] scale4b21_branch2c <- res4b21_branch2c
I0925 23:26:53.895498  1161 net.cpp:369] scale4b21_branch2c -> res4b21_branch2c (in-place)
I0925 23:26:53.895560  1161 layer_factory.hpp:77] Creating layer scale4b21_branch2c
I0925 23:26:53.895730  1161 net.cpp:124] Setting up scale4b21_branch2c
I0925 23:26:53.895740  1161 net.cpp:131] Top shape: 1 1024 18 31 (571392)
I0925 23:26:53.895745  1161 net.cpp:139] Memory required for data: 4466440244
I0925 23:26:53.895751  1161 layer_factory.hpp:77] Creating layer res4b21
I0925 23:26:53.895761  1161 net.cpp:86] Creating Layer res4b21
I0925 23:26:53.895767  1161 net.cpp:408] res4b21 <- res4b20_res4b20_relu_0_split_1
I0925 23:26:53.895774  1161 net.cpp:408] res4b21 <- res4b21_branch2c
I0925 23:26:53.895781  1161 net.cpp:382] res4b21 -> res4b21
I0925 23:26:53.895817  1161 net.cpp:124] Setting up res4b21
I0925 23:26:53.895826  1161 net.cpp:131] Top shape: 1 1024 18 31 (571392)
I0925 23:26:53.895831  1161 net.cpp:139] Memory required for data: 4468725812
I0925 23:26:53.895835  1161 layer_factory.hpp:77] Creating layer res4b21_relu
I0925 23:26:53.895841  1161 net.cpp:86] Creating Layer res4b21_relu
I0925 23:26:53.895846  1161 net.cpp:408] res4b21_relu <- res4b21
I0925 23:26:53.895855  1161 net.cpp:369] res4b21_relu -> res4b21 (in-place)
I0925 23:26:53.896080  1161 net.cpp:124] Setting up res4b21_relu
I0925 23:26:53.896091  1161 net.cpp:131] Top shape: 1 1024 18 31 (571392)
I0925 23:26:53.896095  1161 net.cpp:139] Memory required for data: 4471011380
I0925 23:26:53.896100  1161 layer_factory.hpp:77] Creating layer res4b21_res4b21_relu_0_split
I0925 23:26:53.896111  1161 net.cpp:86] Creating Layer res4b21_res4b21_relu_0_split
I0925 23:26:53.896116  1161 net.cpp:408] res4b21_res4b21_relu_0_split <- res4b21
I0925 23:26:53.896123  1161 net.cpp:382] res4b21_res4b21_relu_0_split -> res4b21_res4b21_relu_0_split_0
I0925 23:26:53.896134  1161 net.cpp:382] res4b21_res4b21_relu_0_split -> res4b21_res4b21_relu_0_split_1
I0925 23:26:53.896194  1161 net.cpp:124] Setting up res4b21_res4b21_relu_0_split
I0925 23:26:53.896203  1161 net.cpp:131] Top shape: 1 1024 18 31 (571392)
I0925 23:26:53.896209  1161 net.cpp:131] Top shape: 1 1024 18 31 (571392)
I0925 23:26:53.896214  1161 net.cpp:139] Memory required for data: 4475582516
I0925 23:26:53.896217  1161 layer_factory.hpp:77] Creating layer res4b22_branch2a
I0925 23:26:53.896229  1161 net.cpp:86] Creating Layer res4b22_branch2a
I0925 23:26:53.896240  1161 net.cpp:408] res4b22_branch2a <- res4b21_res4b21_relu_0_split_0
I0925 23:26:53.896250  1161 net.cpp:382] res4b22_branch2a -> res4b22_branch2a
I0925 23:26:53.898511  1161 net.cpp:124] Setting up res4b22_branch2a
I0925 23:26:53.898530  1161 net.cpp:131] Top shape: 1 256 18 31 (142848)
I0925 23:26:53.898535  1161 net.cpp:139] Memory required for data: 4476153908
I0925 23:26:53.898541  1161 layer_factory.hpp:77] Creating layer bn4b22_branch2a
I0925 23:26:53.898552  1161 net.cpp:86] Creating Layer bn4b22_branch2a
I0925 23:26:53.898558  1161 net.cpp:408] bn4b22_branch2a <- res4b22_branch2a
I0925 23:26:53.898574  1161 net.cpp:369] bn4b22_branch2a -> res4b22_branch2a (in-place)
I0925 23:26:53.898861  1161 net.cpp:124] Setting up bn4b22_branch2a
I0925 23:26:53.898871  1161 net.cpp:131] Top shape: 1 256 18 31 (142848)
I0925 23:26:53.898876  1161 net.cpp:139] Memory required for data: 4476725300
I0925 23:26:53.898885  1161 layer_factory.hpp:77] Creating layer scale4b22_branch2a
I0925 23:26:53.898895  1161 net.cpp:86] Creating Layer scale4b22_branch2a
I0925 23:26:53.898900  1161 net.cpp:408] scale4b22_branch2a <- res4b22_branch2a
I0925 23:26:53.898908  1161 net.cpp:369] scale4b22_branch2a -> res4b22_branch2a (in-place)
I0925 23:26:53.898965  1161 layer_factory.hpp:77] Creating layer scale4b22_branch2a
I0925 23:26:53.899133  1161 net.cpp:124] Setting up scale4b22_branch2a
I0925 23:26:53.899144  1161 net.cpp:131] Top shape: 1 256 18 31 (142848)
I0925 23:26:53.899148  1161 net.cpp:139] Memory required for data: 4477296692
I0925 23:26:53.899158  1161 layer_factory.hpp:77] Creating layer res4b22_branch2a_relu
I0925 23:26:53.899166  1161 net.cpp:86] Creating Layer res4b22_branch2a_relu
I0925 23:26:53.899171  1161 net.cpp:408] res4b22_branch2a_relu <- res4b22_branch2a
I0925 23:26:53.899179  1161 net.cpp:369] res4b22_branch2a_relu -> res4b22_branch2a (in-place)
I0925 23:26:53.899451  1161 net.cpp:124] Setting up res4b22_branch2a_relu
I0925 23:26:53.899464  1161 net.cpp:131] Top shape: 1 256 18 31 (142848)
I0925 23:26:53.899469  1161 net.cpp:139] Memory required for data: 4477868084
I0925 23:26:53.899474  1161 layer_factory.hpp:77] Creating layer res4b22_branch2b
I0925 23:26:53.899488  1161 net.cpp:86] Creating Layer res4b22_branch2b
I0925 23:26:53.899495  1161 net.cpp:408] res4b22_branch2b <- res4b22_branch2a
I0925 23:26:53.899503  1161 net.cpp:382] res4b22_branch2b -> res4b22_branch2b
I0925 23:26:53.905586  1161 net.cpp:124] Setting up res4b22_branch2b
I0925 23:26:53.905606  1161 net.cpp:131] Top shape: 1 256 18 31 (142848)
I0925 23:26:53.905611  1161 net.cpp:139] Memory required for data: 4478439476
I0925 23:26:53.905619  1161 layer_factory.hpp:77] Creating layer bn4b22_branch2b
I0925 23:26:53.905632  1161 net.cpp:86] Creating Layer bn4b22_branch2b
I0925 23:26:53.905638  1161 net.cpp:408] bn4b22_branch2b <- res4b22_branch2b
I0925 23:26:53.905647  1161 net.cpp:369] bn4b22_branch2b -> res4b22_branch2b (in-place)
I0925 23:26:53.906008  1161 net.cpp:124] Setting up bn4b22_branch2b
I0925 23:26:53.906018  1161 net.cpp:131] Top shape: 1 256 18 31 (142848)
I0925 23:26:53.906023  1161 net.cpp:139] Memory required for data: 4479010868
I0925 23:26:53.906033  1161 layer_factory.hpp:77] Creating layer scale4b22_branch2b
I0925 23:26:53.906042  1161 net.cpp:86] Creating Layer scale4b22_branch2b
I0925 23:26:53.906047  1161 net.cpp:408] scale4b22_branch2b <- res4b22_branch2b
I0925 23:26:53.906055  1161 net.cpp:369] scale4b22_branch2b -> res4b22_branch2b (in-place)
I0925 23:26:53.906131  1161 layer_factory.hpp:77] Creating layer scale4b22_branch2b
I0925 23:26:53.906311  1161 net.cpp:124] Setting up scale4b22_branch2b
I0925 23:26:53.906322  1161 net.cpp:131] Top shape: 1 256 18 31 (142848)
I0925 23:26:53.906327  1161 net.cpp:139] Memory required for data: 4479582260
I0925 23:26:53.906334  1161 layer_factory.hpp:77] Creating layer res4b22_branch2b_relu
I0925 23:26:53.906342  1161 net.cpp:86] Creating Layer res4b22_branch2b_relu
I0925 23:26:53.906347  1161 net.cpp:408] res4b22_branch2b_relu <- res4b22_branch2b
I0925 23:26:53.906361  1161 net.cpp:369] res4b22_branch2b_relu -> res4b22_branch2b (in-place)
I0925 23:26:53.907896  1161 net.cpp:124] Setting up res4b22_branch2b_relu
I0925 23:26:53.907913  1161 net.cpp:131] Top shape: 1 256 18 31 (142848)
I0925 23:26:53.907917  1161 net.cpp:139] Memory required for data: 4480153652
I0925 23:26:53.907922  1161 layer_factory.hpp:77] Creating layer res4b22_branch2c
I0925 23:26:53.907935  1161 net.cpp:86] Creating Layer res4b22_branch2c
I0925 23:26:53.907941  1161 net.cpp:408] res4b22_branch2c <- res4b22_branch2b
I0925 23:26:53.907951  1161 net.cpp:382] res4b22_branch2c -> res4b22_branch2c
I0925 23:26:53.912276  1161 net.cpp:124] Setting up res4b22_branch2c
I0925 23:26:53.912307  1161 net.cpp:131] Top shape: 1 1024 18 31 (571392)
I0925 23:26:53.912312  1161 net.cpp:139] Memory required for data: 4482439220
I0925 23:26:53.912319  1161 layer_factory.hpp:77] Creating layer bn4b22_branch2c
I0925 23:26:53.912333  1161 net.cpp:86] Creating Layer bn4b22_branch2c
I0925 23:26:53.912340  1161 net.cpp:408] bn4b22_branch2c <- res4b22_branch2c
I0925 23:26:53.912349  1161 net.cpp:369] bn4b22_branch2c -> res4b22_branch2c (in-place)
I0925 23:26:53.912667  1161 net.cpp:124] Setting up bn4b22_branch2c
I0925 23:26:53.912678  1161 net.cpp:131] Top shape: 1 1024 18 31 (571392)
I0925 23:26:53.912683  1161 net.cpp:139] Memory required for data: 4484724788
I0925 23:26:53.912690  1161 layer_factory.hpp:77] Creating layer scale4b22_branch2c
I0925 23:26:53.912698  1161 net.cpp:86] Creating Layer scale4b22_branch2c
I0925 23:26:53.912703  1161 net.cpp:408] scale4b22_branch2c <- res4b22_branch2c
I0925 23:26:53.912710  1161 net.cpp:369] scale4b22_branch2c -> res4b22_branch2c (in-place)
I0925 23:26:53.912773  1161 layer_factory.hpp:77] Creating layer scale4b22_branch2c
I0925 23:26:53.912963  1161 net.cpp:124] Setting up scale4b22_branch2c
I0925 23:26:53.912977  1161 net.cpp:131] Top shape: 1 1024 18 31 (571392)
I0925 23:26:53.912983  1161 net.cpp:139] Memory required for data: 4487010356
I0925 23:26:53.912991  1161 layer_factory.hpp:77] Creating layer res4b22
I0925 23:26:53.912998  1161 net.cpp:86] Creating Layer res4b22
I0925 23:26:53.913004  1161 net.cpp:408] res4b22 <- res4b21_res4b21_relu_0_split_1
I0925 23:26:53.913012  1161 net.cpp:408] res4b22 <- res4b22_branch2c
I0925 23:26:53.913018  1161 net.cpp:382] res4b22 -> res4b22
I0925 23:26:53.913058  1161 net.cpp:124] Setting up res4b22
I0925 23:26:53.913067  1161 net.cpp:131] Top shape: 1 1024 18 31 (571392)
I0925 23:26:53.913072  1161 net.cpp:139] Memory required for data: 4489295924
I0925 23:26:53.913076  1161 layer_factory.hpp:77] Creating layer res4b22_relu
I0925 23:26:53.913084  1161 net.cpp:86] Creating Layer res4b22_relu
I0925 23:26:53.913089  1161 net.cpp:408] res4b22_relu <- res4b22
I0925 23:26:53.913097  1161 net.cpp:369] res4b22_relu -> res4b22 (in-place)
I0925 23:26:53.913336  1161 net.cpp:124] Setting up res4b22_relu
I0925 23:26:53.913363  1161 net.cpp:131] Top shape: 1 1024 18 31 (571392)
I0925 23:26:53.913367  1161 net.cpp:139] Memory required for data: 4491581492
I0925 23:26:53.913372  1161 layer_factory.hpp:77] Creating layer res4b22_res4b22_relu_0_split
I0925 23:26:53.913381  1161 net.cpp:86] Creating Layer res4b22_res4b22_relu_0_split
I0925 23:26:53.913388  1161 net.cpp:408] res4b22_res4b22_relu_0_split <- res4b22
I0925 23:26:53.913398  1161 net.cpp:382] res4b22_res4b22_relu_0_split -> res4b22_res4b22_relu_0_split_0
I0925 23:26:53.913410  1161 net.cpp:382] res4b22_res4b22_relu_0_split -> res4b22_res4b22_relu_0_split_1
I0925 23:26:53.913471  1161 net.cpp:124] Setting up res4b22_res4b22_relu_0_split
I0925 23:26:53.913480  1161 net.cpp:131] Top shape: 1 1024 18 31 (571392)
I0925 23:26:53.913486  1161 net.cpp:131] Top shape: 1 1024 18 31 (571392)
I0925 23:26:53.913491  1161 net.cpp:139] Memory required for data: 4496152628
I0925 23:26:53.913494  1161 layer_factory.hpp:77] Creating layer res5a_branch1
I0925 23:26:53.913506  1161 net.cpp:86] Creating Layer res5a_branch1
I0925 23:26:53.913511  1161 net.cpp:408] res5a_branch1 <- res4b22_res4b22_relu_0_split_0
I0925 23:26:53.913527  1161 net.cpp:382] res5a_branch1 -> res5a_branch1
I0925 23:26:53.921800  1161 net.cpp:124] Setting up res5a_branch1
I0925 23:26:53.921819  1161 net.cpp:131] Top shape: 1 2048 9 16 (294912)
I0925 23:26:53.921824  1161 net.cpp:139] Memory required for data: 4497332276
I0925 23:26:53.921831  1161 layer_factory.hpp:77] Creating layer bn5a_branch1
I0925 23:26:53.921842  1161 net.cpp:86] Creating Layer bn5a_branch1
I0925 23:26:53.921849  1161 net.cpp:408] bn5a_branch1 <- res5a_branch1
I0925 23:26:53.921859  1161 net.cpp:369] bn5a_branch1 -> res5a_branch1 (in-place)
I0925 23:26:53.922199  1161 net.cpp:124] Setting up bn5a_branch1
I0925 23:26:53.922219  1161 net.cpp:131] Top shape: 1 2048 9 16 (294912)
I0925 23:26:53.922224  1161 net.cpp:139] Memory required for data: 4498511924
I0925 23:26:53.922235  1161 layer_factory.hpp:77] Creating layer scale5a_branch1
I0925 23:26:53.922247  1161 net.cpp:86] Creating Layer scale5a_branch1
I0925 23:26:53.922253  1161 net.cpp:408] scale5a_branch1 <- res5a_branch1
I0925 23:26:53.922261  1161 net.cpp:369] scale5a_branch1 -> res5a_branch1 (in-place)
I0925 23:26:53.922324  1161 layer_factory.hpp:77] Creating layer scale5a_branch1
I0925 23:26:53.922565  1161 net.cpp:124] Setting up scale5a_branch1
I0925 23:26:53.922577  1161 net.cpp:131] Top shape: 1 2048 9 16 (294912)
I0925 23:26:53.922582  1161 net.cpp:139] Memory required for data: 4499691572
I0925 23:26:53.922590  1161 layer_factory.hpp:77] Creating layer res5a_branch2a
I0925 23:26:53.922619  1161 net.cpp:86] Creating Layer res5a_branch2a
I0925 23:26:53.922627  1161 net.cpp:408] res5a_branch2a <- res4b22_res4b22_relu_0_split_1
I0925 23:26:53.922636  1161 net.cpp:382] res5a_branch2a -> res5a_branch2a
I0925 23:26:53.927270  1161 net.cpp:124] Setting up res5a_branch2a
I0925 23:26:53.927292  1161 net.cpp:131] Top shape: 1 512 9 16 (73728)
I0925 23:26:53.927297  1161 net.cpp:139] Memory required for data: 4499986484
I0925 23:26:53.927304  1161 layer_factory.hpp:77] Creating layer bn5a_branch2a
I0925 23:26:53.927314  1161 net.cpp:86] Creating Layer bn5a_branch2a
I0925 23:26:53.927321  1161 net.cpp:408] bn5a_branch2a <- res5a_branch2a
I0925 23:26:53.927328  1161 net.cpp:369] bn5a_branch2a -> res5a_branch2a (in-place)
I0925 23:26:53.927629  1161 net.cpp:124] Setting up bn5a_branch2a
I0925 23:26:53.927640  1161 net.cpp:131] Top shape: 1 512 9 16 (73728)
I0925 23:26:53.927645  1161 net.cpp:139] Memory required for data: 4500281396
I0925 23:26:53.927655  1161 layer_factory.hpp:77] Creating layer scale5a_branch2a
I0925 23:26:53.927664  1161 net.cpp:86] Creating Layer scale5a_branch2a
I0925 23:26:53.927670  1161 net.cpp:408] scale5a_branch2a <- res5a_branch2a
I0925 23:26:53.927676  1161 net.cpp:369] scale5a_branch2a -> res5a_branch2a (in-place)
I0925 23:26:53.927736  1161 layer_factory.hpp:77] Creating layer scale5a_branch2a
I0925 23:26:53.927908  1161 net.cpp:124] Setting up scale5a_branch2a
I0925 23:26:53.927918  1161 net.cpp:131] Top shape: 1 512 9 16 (73728)
I0925 23:26:53.927923  1161 net.cpp:139] Memory required for data: 4500576308
I0925 23:26:53.927929  1161 layer_factory.hpp:77] Creating layer res5a_branch2a_relu
I0925 23:26:53.927937  1161 net.cpp:86] Creating Layer res5a_branch2a_relu
I0925 23:26:53.927942  1161 net.cpp:408] res5a_branch2a_relu <- res5a_branch2a
I0925 23:26:53.927950  1161 net.cpp:369] res5a_branch2a_relu -> res5a_branch2a (in-place)
I0925 23:26:53.928172  1161 net.cpp:124] Setting up res5a_branch2a_relu
I0925 23:26:53.928184  1161 net.cpp:131] Top shape: 1 512 9 16 (73728)
I0925 23:26:53.928189  1161 net.cpp:139] Memory required for data: 4500871220
I0925 23:26:53.928194  1161 layer_factory.hpp:77] Creating layer res5a_branch2b
I0925 23:26:53.928205  1161 net.cpp:86] Creating Layer res5a_branch2b
I0925 23:26:53.928210  1161 net.cpp:408] res5a_branch2b <- res5a_branch2a
I0925 23:26:53.928220  1161 net.cpp:382] res5a_branch2b -> res5a_branch2b
I0925 23:26:53.937345  1161 net.cpp:124] Setting up res5a_branch2b
I0925 23:26:53.937366  1161 net.cpp:131] Top shape: 1 512 9 16 (73728)
I0925 23:26:53.937371  1161 net.cpp:139] Memory required for data: 4501166132
I0925 23:26:53.937383  1161 layer_factory.hpp:77] Creating layer bn5a_branch2b
I0925 23:26:53.937396  1161 net.cpp:86] Creating Layer bn5a_branch2b
I0925 23:26:53.937402  1161 net.cpp:408] bn5a_branch2b <- res5a_branch2b
I0925 23:26:53.937408  1161 net.cpp:369] bn5a_branch2b -> res5a_branch2b (in-place)
I0925 23:26:53.937703  1161 net.cpp:124] Setting up bn5a_branch2b
I0925 23:26:53.937717  1161 net.cpp:131] Top shape: 1 512 9 16 (73728)
I0925 23:26:53.937721  1161 net.cpp:139] Memory required for data: 4501461044
I0925 23:26:53.937729  1161 layer_factory.hpp:77] Creating layer scale5a_branch2b
I0925 23:26:53.937747  1161 net.cpp:86] Creating Layer scale5a_branch2b
I0925 23:26:53.937752  1161 net.cpp:408] scale5a_branch2b <- res5a_branch2b
I0925 23:26:53.937762  1161 net.cpp:369] scale5a_branch2b -> res5a_branch2b (in-place)
I0925 23:26:53.937822  1161 layer_factory.hpp:77] Creating layer scale5a_branch2b
I0925 23:26:53.937999  1161 net.cpp:124] Setting up scale5a_branch2b
I0925 23:26:53.938011  1161 net.cpp:131] Top shape: 1 512 9 16 (73728)
I0925 23:26:53.938015  1161 net.cpp:139] Memory required for data: 4501755956
I0925 23:26:53.938022  1161 layer_factory.hpp:77] Creating layer res5a_branch2b_relu
I0925 23:26:53.938030  1161 net.cpp:86] Creating Layer res5a_branch2b_relu
I0925 23:26:53.938035  1161 net.cpp:408] res5a_branch2b_relu <- res5a_branch2b
I0925 23:26:53.938041  1161 net.cpp:369] res5a_branch2b_relu -> res5a_branch2b (in-place)
I0925 23:26:53.939625  1161 net.cpp:124] Setting up res5a_branch2b_relu
I0925 23:26:53.939644  1161 net.cpp:131] Top shape: 1 512 9 16 (73728)
I0925 23:26:53.939651  1161 net.cpp:139] Memory required for data: 4502050868
I0925 23:26:53.939656  1161 layer_factory.hpp:77] Creating layer res5a_branch2c
I0925 23:26:53.939667  1161 net.cpp:86] Creating Layer res5a_branch2c
I0925 23:26:53.939674  1161 net.cpp:408] res5a_branch2c <- res5a_branch2b
I0925 23:26:53.939683  1161 net.cpp:382] res5a_branch2c -> res5a_branch2c
I0925 23:26:53.945391  1161 net.cpp:124] Setting up res5a_branch2c
I0925 23:26:53.945411  1161 net.cpp:131] Top shape: 1 2048 9 16 (294912)
I0925 23:26:53.945417  1161 net.cpp:139] Memory required for data: 4503230516
I0925 23:26:53.945426  1161 layer_factory.hpp:77] Creating layer bn5a_branch2c
I0925 23:26:53.945436  1161 net.cpp:86] Creating Layer bn5a_branch2c
I0925 23:26:53.945443  1161 net.cpp:408] bn5a_branch2c <- res5a_branch2c
I0925 23:26:53.945451  1161 net.cpp:369] bn5a_branch2c -> res5a_branch2c (in-place)
I0925 23:26:53.945753  1161 net.cpp:124] Setting up bn5a_branch2c
I0925 23:26:53.945765  1161 net.cpp:131] Top shape: 1 2048 9 16 (294912)
I0925 23:26:53.945768  1161 net.cpp:139] Memory required for data: 4504410164
I0925 23:26:53.945776  1161 layer_factory.hpp:77] Creating layer scale5a_branch2c
I0925 23:26:53.945787  1161 net.cpp:86] Creating Layer scale5a_branch2c
I0925 23:26:53.945793  1161 net.cpp:408] scale5a_branch2c <- res5a_branch2c
I0925 23:26:53.945799  1161 net.cpp:369] scale5a_branch2c -> res5a_branch2c (in-place)
I0925 23:26:53.945859  1161 layer_factory.hpp:77] Creating layer scale5a_branch2c
I0925 23:26:53.946039  1161 net.cpp:124] Setting up scale5a_branch2c
I0925 23:26:53.946049  1161 net.cpp:131] Top shape: 1 2048 9 16 (294912)
I0925 23:26:53.946054  1161 net.cpp:139] Memory required for data: 4505589812
I0925 23:26:53.946060  1161 layer_factory.hpp:77] Creating layer res5a
I0925 23:26:53.946069  1161 net.cpp:86] Creating Layer res5a
I0925 23:26:53.946074  1161 net.cpp:408] res5a <- res5a_branch1
I0925 23:26:53.946080  1161 net.cpp:408] res5a <- res5a_branch2c
I0925 23:26:53.946089  1161 net.cpp:382] res5a -> res5a
I0925 23:26:53.946128  1161 net.cpp:124] Setting up res5a
I0925 23:26:53.946136  1161 net.cpp:131] Top shape: 1 2048 9 16 (294912)
I0925 23:26:53.946141  1161 net.cpp:139] Memory required for data: 4506769460
I0925 23:26:53.946144  1161 layer_factory.hpp:77] Creating layer res5a_relu
I0925 23:26:53.946154  1161 net.cpp:86] Creating Layer res5a_relu
I0925 23:26:53.946159  1161 net.cpp:408] res5a_relu <- res5a
I0925 23:26:53.946171  1161 net.cpp:369] res5a_relu -> res5a (in-place)
I0925 23:26:53.946391  1161 net.cpp:124] Setting up res5a_relu
I0925 23:26:53.946403  1161 net.cpp:131] Top shape: 1 2048 9 16 (294912)
I0925 23:26:53.946408  1161 net.cpp:139] Memory required for data: 4507949108
I0925 23:26:53.946413  1161 layer_factory.hpp:77] Creating layer res5a_res5a_relu_0_split
I0925 23:26:53.946422  1161 net.cpp:86] Creating Layer res5a_res5a_relu_0_split
I0925 23:26:53.946429  1161 net.cpp:408] res5a_res5a_relu_0_split <- res5a
I0925 23:26:53.946439  1161 net.cpp:382] res5a_res5a_relu_0_split -> res5a_res5a_relu_0_split_0
I0925 23:26:53.946455  1161 net.cpp:382] res5a_res5a_relu_0_split -> res5a_res5a_relu_0_split_1
I0925 23:26:53.946524  1161 net.cpp:124] Setting up res5a_res5a_relu_0_split
I0925 23:26:53.946537  1161 net.cpp:131] Top shape: 1 2048 9 16 (294912)
I0925 23:26:53.946543  1161 net.cpp:131] Top shape: 1 2048 9 16 (294912)
I0925 23:26:53.946547  1161 net.cpp:139] Memory required for data: 4510308404
I0925 23:26:53.946552  1161 layer_factory.hpp:77] Creating layer res5b_branch2a
I0925 23:26:53.946561  1161 net.cpp:86] Creating Layer res5b_branch2a
I0925 23:26:53.946566  1161 net.cpp:408] res5b_branch2a <- res5a_res5a_relu_0_split_0
I0925 23:26:53.946575  1161 net.cpp:382] res5b_branch2a -> res5b_branch2a
I0925 23:26:53.952385  1161 net.cpp:124] Setting up res5b_branch2a
I0925 23:26:53.952407  1161 net.cpp:131] Top shape: 1 512 9 16 (73728)
I0925 23:26:53.952412  1161 net.cpp:139] Memory required for data: 4510603316
I0925 23:26:53.952419  1161 layer_factory.hpp:77] Creating layer bn5b_branch2a
I0925 23:26:53.952427  1161 net.cpp:86] Creating Layer bn5b_branch2a
I0925 23:26:53.952433  1161 net.cpp:408] bn5b_branch2a <- res5b_branch2a
I0925 23:26:53.952442  1161 net.cpp:369] bn5b_branch2a -> res5b_branch2a (in-place)
I0925 23:26:53.952745  1161 net.cpp:124] Setting up bn5b_branch2a
I0925 23:26:53.952756  1161 net.cpp:131] Top shape: 1 512 9 16 (73728)
I0925 23:26:53.952760  1161 net.cpp:139] Memory required for data: 4510898228
I0925 23:26:53.952771  1161 layer_factory.hpp:77] Creating layer scale5b_branch2a
I0925 23:26:53.952780  1161 net.cpp:86] Creating Layer scale5b_branch2a
I0925 23:26:53.952785  1161 net.cpp:408] scale5b_branch2a <- res5b_branch2a
I0925 23:26:53.952795  1161 net.cpp:369] scale5b_branch2a -> res5b_branch2a (in-place)
I0925 23:26:53.952852  1161 layer_factory.hpp:77] Creating layer scale5b_branch2a
I0925 23:26:53.953049  1161 net.cpp:124] Setting up scale5b_branch2a
I0925 23:26:53.953061  1161 net.cpp:131] Top shape: 1 512 9 16 (73728)
I0925 23:26:53.953068  1161 net.cpp:139] Memory required for data: 4511193140
I0925 23:26:53.953074  1161 layer_factory.hpp:77] Creating layer res5b_branch2a_relu
I0925 23:26:53.953083  1161 net.cpp:86] Creating Layer res5b_branch2a_relu
I0925 23:26:53.953088  1161 net.cpp:408] res5b_branch2a_relu <- res5b_branch2a
I0925 23:26:53.953094  1161 net.cpp:369] res5b_branch2a_relu -> res5b_branch2a (in-place)
I0925 23:26:53.953349  1161 net.cpp:124] Setting up res5b_branch2a_relu
I0925 23:26:53.953361  1161 net.cpp:131] Top shape: 1 512 9 16 (73728)
I0925 23:26:53.953366  1161 net.cpp:139] Memory required for data: 4511488052
I0925 23:26:53.953371  1161 layer_factory.hpp:77] Creating layer res5b_branch2b
I0925 23:26:53.953382  1161 net.cpp:86] Creating Layer res5b_branch2b
I0925 23:26:53.953387  1161 net.cpp:408] res5b_branch2b <- res5b_branch2a
I0925 23:26:53.953394  1161 net.cpp:382] res5b_branch2b -> res5b_branch2b
I0925 23:26:53.962034  1161 net.cpp:124] Setting up res5b_branch2b
I0925 23:26:53.962054  1161 net.cpp:131] Top shape: 1 512 9 16 (73728)
I0925 23:26:53.962059  1161 net.cpp:139] Memory required for data: 4511782964
I0925 23:26:53.962065  1161 layer_factory.hpp:77] Creating layer bn5b_branch2b
I0925 23:26:53.962080  1161 net.cpp:86] Creating Layer bn5b_branch2b
I0925 23:26:53.962102  1161 net.cpp:408] bn5b_branch2b <- res5b_branch2b
I0925 23:26:53.962110  1161 net.cpp:369] bn5b_branch2b -> res5b_branch2b (in-place)
I0925 23:26:53.962484  1161 net.cpp:124] Setting up bn5b_branch2b
I0925 23:26:53.962498  1161 net.cpp:131] Top shape: 1 512 9 16 (73728)
I0925 23:26:53.962503  1161 net.cpp:139] Memory required for data: 4512077876
I0925 23:26:53.962512  1161 layer_factory.hpp:77] Creating layer scale5b_branch2b
I0925 23:26:53.962522  1161 net.cpp:86] Creating Layer scale5b_branch2b
I0925 23:26:53.962527  1161 net.cpp:408] scale5b_branch2b <- res5b_branch2b
I0925 23:26:53.962538  1161 net.cpp:369] scale5b_branch2b -> res5b_branch2b (in-place)
I0925 23:26:53.962600  1161 layer_factory.hpp:77] Creating layer scale5b_branch2b
I0925 23:26:53.962801  1161 net.cpp:124] Setting up scale5b_branch2b
I0925 23:26:53.962821  1161 net.cpp:131] Top shape: 1 512 9 16 (73728)
I0925 23:26:53.962826  1161 net.cpp:139] Memory required for data: 4512372788
I0925 23:26:53.962833  1161 layer_factory.hpp:77] Creating layer res5b_branch2b_relu
I0925 23:26:53.962841  1161 net.cpp:86] Creating Layer res5b_branch2b_relu
I0925 23:26:53.962846  1161 net.cpp:408] res5b_branch2b_relu <- res5b_branch2b
I0925 23:26:53.962855  1161 net.cpp:369] res5b_branch2b_relu -> res5b_branch2b (in-place)
I0925 23:26:53.964273  1161 net.cpp:124] Setting up res5b_branch2b_relu
I0925 23:26:53.964289  1161 net.cpp:131] Top shape: 1 512 9 16 (73728)
I0925 23:26:53.964293  1161 net.cpp:139] Memory required for data: 4512667700
I0925 23:26:53.964299  1161 layer_factory.hpp:77] Creating layer res5b_branch2c
I0925 23:26:53.964311  1161 net.cpp:86] Creating Layer res5b_branch2c
I0925 23:26:53.964318  1161 net.cpp:408] res5b_branch2c <- res5b_branch2b
I0925 23:26:53.964327  1161 net.cpp:382] res5b_branch2c -> res5b_branch2c
I0925 23:26:53.970012  1161 net.cpp:124] Setting up res5b_branch2c
I0925 23:26:53.970031  1161 net.cpp:131] Top shape: 1 2048 9 16 (294912)
I0925 23:26:53.970036  1161 net.cpp:139] Memory required for data: 4513847348
I0925 23:26:53.970042  1161 layer_factory.hpp:77] Creating layer bn5b_branch2c
I0925 23:26:53.970053  1161 net.cpp:86] Creating Layer bn5b_branch2c
I0925 23:26:53.970060  1161 net.cpp:408] bn5b_branch2c <- res5b_branch2c
I0925 23:26:53.970067  1161 net.cpp:369] bn5b_branch2c -> res5b_branch2c (in-place)
I0925 23:26:53.970404  1161 net.cpp:124] Setting up bn5b_branch2c
I0925 23:26:53.970432  1161 net.cpp:131] Top shape: 1 2048 9 16 (294912)
I0925 23:26:53.970435  1161 net.cpp:139] Memory required for data: 4515026996
I0925 23:26:53.970443  1161 layer_factory.hpp:77] Creating layer scale5b_branch2c
I0925 23:26:53.970453  1161 net.cpp:86] Creating Layer scale5b_branch2c
I0925 23:26:53.970460  1161 net.cpp:408] scale5b_branch2c <- res5b_branch2c
I0925 23:26:53.970466  1161 net.cpp:369] scale5b_branch2c -> res5b_branch2c (in-place)
I0925 23:26:53.970540  1161 layer_factory.hpp:77] Creating layer scale5b_branch2c
I0925 23:26:53.970718  1161 net.cpp:124] Setting up scale5b_branch2c
I0925 23:26:53.970729  1161 net.cpp:131] Top shape: 1 2048 9 16 (294912)
I0925 23:26:53.970733  1161 net.cpp:139] Memory required for data: 4516206644
I0925 23:26:53.970741  1161 layer_factory.hpp:77] Creating layer res5b
I0925 23:26:53.970751  1161 net.cpp:86] Creating Layer res5b
I0925 23:26:53.970757  1161 net.cpp:408] res5b <- res5a_res5a_relu_0_split_1
I0925 23:26:53.970763  1161 net.cpp:408] res5b <- res5b_branch2c
I0925 23:26:53.970769  1161 net.cpp:382] res5b -> res5b
I0925 23:26:53.970810  1161 net.cpp:124] Setting up res5b
I0925 23:26:53.970819  1161 net.cpp:131] Top shape: 1 2048 9 16 (294912)
I0925 23:26:53.970824  1161 net.cpp:139] Memory required for data: 4517386292
I0925 23:26:53.970829  1161 layer_factory.hpp:77] Creating layer res5b_relu
I0925 23:26:53.970834  1161 net.cpp:86] Creating Layer res5b_relu
I0925 23:26:53.970840  1161 net.cpp:408] res5b_relu <- res5b
I0925 23:26:53.970845  1161 net.cpp:369] res5b_relu -> res5b (in-place)
I0925 23:26:53.971071  1161 net.cpp:124] Setting up res5b_relu
I0925 23:26:53.971081  1161 net.cpp:131] Top shape: 1 2048 9 16 (294912)
I0925 23:26:53.971087  1161 net.cpp:139] Memory required for data: 4518565940
I0925 23:26:53.971091  1161 layer_factory.hpp:77] Creating layer res5b_res5b_relu_0_split
I0925 23:26:53.971103  1161 net.cpp:86] Creating Layer res5b_res5b_relu_0_split
I0925 23:26:53.971109  1161 net.cpp:408] res5b_res5b_relu_0_split <- res5b
I0925 23:26:53.971118  1161 net.cpp:382] res5b_res5b_relu_0_split -> res5b_res5b_relu_0_split_0
I0925 23:26:53.971128  1161 net.cpp:382] res5b_res5b_relu_0_split -> res5b_res5b_relu_0_split_1
I0925 23:26:53.971191  1161 net.cpp:124] Setting up res5b_res5b_relu_0_split
I0925 23:26:53.971200  1161 net.cpp:131] Top shape: 1 2048 9 16 (294912)
I0925 23:26:53.971222  1161 net.cpp:131] Top shape: 1 2048 9 16 (294912)
I0925 23:26:53.971235  1161 net.cpp:139] Memory required for data: 4520925236
I0925 23:26:53.971240  1161 layer_factory.hpp:77] Creating layer res5c_branch2a
I0925 23:26:53.971251  1161 net.cpp:86] Creating Layer res5c_branch2a
I0925 23:26:53.971259  1161 net.cpp:408] res5c_branch2a <- res5b_res5b_relu_0_split_0
I0925 23:26:53.971268  1161 net.cpp:382] res5c_branch2a -> res5c_branch2a
I0925 23:26:53.977135  1161 net.cpp:124] Setting up res5c_branch2a
I0925 23:26:53.977155  1161 net.cpp:131] Top shape: 1 512 9 16 (73728)
I0925 23:26:53.977161  1161 net.cpp:139] Memory required for data: 4521220148
I0925 23:26:53.977169  1161 layer_factory.hpp:77] Creating layer bn5c_branch2a
I0925 23:26:53.977180  1161 net.cpp:86] Creating Layer bn5c_branch2a
I0925 23:26:53.977186  1161 net.cpp:408] bn5c_branch2a <- res5c_branch2a
I0925 23:26:53.977195  1161 net.cpp:369] bn5c_branch2a -> res5c_branch2a (in-place)
I0925 23:26:53.977522  1161 net.cpp:124] Setting up bn5c_branch2a
I0925 23:26:53.977533  1161 net.cpp:131] Top shape: 1 512 9 16 (73728)
I0925 23:26:53.977537  1161 net.cpp:139] Memory required for data: 4521515060
I0925 23:26:53.977548  1161 layer_factory.hpp:77] Creating layer scale5c_branch2a
I0925 23:26:53.977556  1161 net.cpp:86] Creating Layer scale5c_branch2a
I0925 23:26:53.977561  1161 net.cpp:408] scale5c_branch2a <- res5c_branch2a
I0925 23:26:53.977571  1161 net.cpp:369] scale5c_branch2a -> res5c_branch2a (in-place)
I0925 23:26:53.977629  1161 layer_factory.hpp:77] Creating layer scale5c_branch2a
I0925 23:26:53.977809  1161 net.cpp:124] Setting up scale5c_branch2a
I0925 23:26:53.977819  1161 net.cpp:131] Top shape: 1 512 9 16 (73728)
I0925 23:26:53.977823  1161 net.cpp:139] Memory required for data: 4521809972
I0925 23:26:53.977830  1161 layer_factory.hpp:77] Creating layer res5c_branch2a_relu
I0925 23:26:53.977838  1161 net.cpp:86] Creating Layer res5c_branch2a_relu
I0925 23:26:53.977843  1161 net.cpp:408] res5c_branch2a_relu <- res5c_branch2a
I0925 23:26:53.977850  1161 net.cpp:369] res5c_branch2a_relu -> res5c_branch2a (in-place)
I0925 23:26:53.978080  1161 net.cpp:124] Setting up res5c_branch2a_relu
I0925 23:26:53.978091  1161 net.cpp:131] Top shape: 1 512 9 16 (73728)
I0925 23:26:53.978096  1161 net.cpp:139] Memory required for data: 4522104884
I0925 23:26:53.978101  1161 layer_factory.hpp:77] Creating layer res5c_branch2b
I0925 23:26:53.978111  1161 net.cpp:86] Creating Layer res5c_branch2b
I0925 23:26:53.978117  1161 net.cpp:408] res5c_branch2b <- res5c_branch2a
I0925 23:26:53.978127  1161 net.cpp:382] res5c_branch2b -> res5c_branch2b
I0925 23:26:53.986837  1161 net.cpp:124] Setting up res5c_branch2b
I0925 23:26:53.986861  1161 net.cpp:131] Top shape: 1 512 9 16 (73728)
I0925 23:26:53.986867  1161 net.cpp:139] Memory required for data: 4522399796
I0925 23:26:53.986874  1161 layer_factory.hpp:77] Creating layer bn5c_branch2b
I0925 23:26:53.986884  1161 net.cpp:86] Creating Layer bn5c_branch2b
I0925 23:26:53.986891  1161 net.cpp:408] bn5c_branch2b <- res5c_branch2b
I0925 23:26:53.986901  1161 net.cpp:369] bn5c_branch2b -> res5c_branch2b (in-place)
I0925 23:26:53.987205  1161 net.cpp:124] Setting up bn5c_branch2b
I0925 23:26:53.987231  1161 net.cpp:131] Top shape: 1 512 9 16 (73728)
I0925 23:26:53.987236  1161 net.cpp:139] Memory required for data: 4522694708
I0925 23:26:53.987246  1161 layer_factory.hpp:77] Creating layer scale5c_branch2b
I0925 23:26:53.987257  1161 net.cpp:86] Creating Layer scale5c_branch2b
I0925 23:26:53.987267  1161 net.cpp:408] scale5c_branch2b <- res5c_branch2b
I0925 23:26:53.987275  1161 net.cpp:369] scale5c_branch2b -> res5c_branch2b (in-place)
I0925 23:26:53.987339  1161 layer_factory.hpp:77] Creating layer scale5c_branch2b
I0925 23:26:53.987543  1161 net.cpp:124] Setting up scale5c_branch2b
I0925 23:26:53.987555  1161 net.cpp:131] Top shape: 1 512 9 16 (73728)
I0925 23:26:53.987558  1161 net.cpp:139] Memory required for data: 4522989620
I0925 23:26:53.987565  1161 layer_factory.hpp:77] Creating layer res5c_branch2b_relu
I0925 23:26:53.987574  1161 net.cpp:86] Creating Layer res5c_branch2b_relu
I0925 23:26:53.987589  1161 net.cpp:408] res5c_branch2b_relu <- res5c_branch2b
I0925 23:26:53.987596  1161 net.cpp:369] res5c_branch2b_relu -> res5c_branch2b (in-place)
I0925 23:26:53.987818  1161 net.cpp:124] Setting up res5c_branch2b_relu
I0925 23:26:53.987830  1161 net.cpp:131] Top shape: 1 512 9 16 (73728)
I0925 23:26:53.987835  1161 net.cpp:139] Memory required for data: 4523284532
I0925 23:26:53.987840  1161 layer_factory.hpp:77] Creating layer res5c_branch2c
I0925 23:26:53.987854  1161 net.cpp:86] Creating Layer res5c_branch2c
I0925 23:26:53.987859  1161 net.cpp:408] res5c_branch2c <- res5c_branch2b
I0925 23:26:53.987866  1161 net.cpp:382] res5c_branch2c -> res5c_branch2c
I0925 23:26:53.993577  1161 net.cpp:124] Setting up res5c_branch2c
I0925 23:26:53.993594  1161 net.cpp:131] Top shape: 1 2048 9 16 (294912)
I0925 23:26:53.993599  1161 net.cpp:139] Memory required for data: 4524464180
I0925 23:26:53.993608  1161 layer_factory.hpp:77] Creating layer bn5c_branch2c
I0925 23:26:53.993620  1161 net.cpp:86] Creating Layer bn5c_branch2c
I0925 23:26:53.993626  1161 net.cpp:408] bn5c_branch2c <- res5c_branch2c
I0925 23:26:53.993633  1161 net.cpp:369] bn5c_branch2c -> res5c_branch2c (in-place)
I0925 23:26:53.993944  1161 net.cpp:124] Setting up bn5c_branch2c
I0925 23:26:53.993955  1161 net.cpp:131] Top shape: 1 2048 9 16 (294912)
I0925 23:26:53.993959  1161 net.cpp:139] Memory required for data: 4525643828
I0925 23:26:53.993968  1161 layer_factory.hpp:77] Creating layer scale5c_branch2c
I0925 23:26:53.993978  1161 net.cpp:86] Creating Layer scale5c_branch2c
I0925 23:26:53.993983  1161 net.cpp:408] scale5c_branch2c <- res5c_branch2c
I0925 23:26:53.993990  1161 net.cpp:369] scale5c_branch2c -> res5c_branch2c (in-place)
I0925 23:26:53.994053  1161 layer_factory.hpp:77] Creating layer scale5c_branch2c
I0925 23:26:53.994235  1161 net.cpp:124] Setting up scale5c_branch2c
I0925 23:26:53.994246  1161 net.cpp:131] Top shape: 1 2048 9 16 (294912)
I0925 23:26:53.994249  1161 net.cpp:139] Memory required for data: 4526823476
I0925 23:26:53.994256  1161 layer_factory.hpp:77] Creating layer res5c
I0925 23:26:53.994263  1161 net.cpp:86] Creating Layer res5c
I0925 23:26:53.994269  1161 net.cpp:408] res5c <- res5b_res5b_relu_0_split_1
I0925 23:26:53.994276  1161 net.cpp:408] res5c <- res5c_branch2c
I0925 23:26:53.994284  1161 net.cpp:382] res5c -> res5c
I0925 23:26:53.994323  1161 net.cpp:124] Setting up res5c
I0925 23:26:53.994331  1161 net.cpp:131] Top shape: 1 2048 9 16 (294912)
I0925 23:26:53.994335  1161 net.cpp:139] Memory required for data: 4528003124
I0925 23:26:53.994341  1161 layer_factory.hpp:77] Creating layer res5c_relu
I0925 23:26:53.994350  1161 net.cpp:86] Creating Layer res5c_relu
I0925 23:26:53.994357  1161 net.cpp:408] res5c_relu <- res5c
I0925 23:26:53.994364  1161 net.cpp:369] res5c_relu -> res5c (in-place)
I0925 23:26:53.995726  1161 net.cpp:124] Setting up res5c_relu
I0925 23:26:53.995745  1161 net.cpp:131] Top shape: 1 2048 9 16 (294912)
I0925 23:26:53.995751  1161 net.cpp:139] Memory required for data: 4529182772
I0925 23:26:53.995756  1161 layer_factory.hpp:77] Creating layer pooled_rois
I0925 23:26:53.995764  1161 net.cpp:86] Creating Layer pooled_rois
I0925 23:26:53.995770  1161 net.cpp:408] pooled_rois <- res5c
I0925 23:26:53.995779  1161 net.cpp:408] pooled_rois <- m_rois_m_rois_0_split_1
I0925 23:26:53.995785  1161 net.cpp:382] pooled_rois -> pooled_rois
I0925 23:26:53.995797  1161 roi_pooling_layer.cpp:30] Spatial scale: 0.03125
I0925 23:26:53.995882  1161 net.cpp:124] Setting up pooled_rois
I0925 23:26:53.995893  1161 net.cpp:131] Top shape: 8 2048 1 1 (16384)
I0925 23:26:53.995896  1161 net.cpp:139] Memory required for data: 4529248308
I0925 23:26:53.995901  1161 layer_factory.hpp:77] Creating layer pooled_rois/normalized
I0925 23:26:53.995911  1161 net.cpp:86] Creating Layer pooled_rois/normalized
I0925 23:26:53.995918  1161 net.cpp:408] pooled_rois/normalized <- pooled_rois
I0925 23:26:53.995924  1161 net.cpp:382] pooled_rois/normalized -> pooled_rois/normalized
I0925 23:26:53.996003  1161 net.cpp:124] Setting up pooled_rois/normalized
I0925 23:26:53.996021  1161 net.cpp:131] Top shape: 8 2048 1 1 (16384)
I0925 23:26:53.996026  1161 net.cpp:139] Memory required for data: 4529313844
I0925 23:26:53.996029  1161 layer_factory.hpp:77] Creating layer pooled_rois/normalized_flat
I0925 23:26:53.996038  1161 net.cpp:86] Creating Layer pooled_rois/normalized_flat
I0925 23:26:53.996043  1161 net.cpp:408] pooled_rois/normalized_flat <- pooled_rois/normalized
I0925 23:26:53.996053  1161 net.cpp:382] pooled_rois/normalized_flat -> pooled_rois/normalized_flat
I0925 23:26:53.996098  1161 net.cpp:124] Setting up pooled_rois/normalized_flat
I0925 23:26:53.996106  1161 net.cpp:131] Top shape: 8 2048 1 1 (16384)
I0925 23:26:53.996110  1161 net.cpp:139] Memory required for data: 4529379380
I0925 23:26:53.996117  1161 layer_factory.hpp:77] Creating layer pooled_rois/centered
I0925 23:26:53.996126  1161 net.cpp:86] Creating Layer pooled_rois/centered
I0925 23:26:53.996131  1161 net.cpp:408] pooled_rois/centered <- pooled_rois/normalized_flat
I0925 23:26:53.996141  1161 net.cpp:382] pooled_rois/centered -> pooled_rois/centered
I0925 23:26:53.996210  1161 layer_factory.hpp:77] Creating layer pooled_rois/centered
I0925 23:26:53.996394  1161 net.cpp:124] Setting up pooled_rois/centered
I0925 23:26:53.996404  1161 net.cpp:131] Top shape: 8 2048 1 1 (16384)
I0925 23:26:53.996408  1161 net.cpp:139] Memory required for data: 4529444916
I0925 23:26:53.996417  1161 layer_factory.hpp:77] Creating layer pooled_rois/pca
I0925 23:26:53.996428  1161 net.cpp:86] Creating Layer pooled_rois/pca
I0925 23:26:53.996433  1161 net.cpp:408] pooled_rois/pca <- pooled_rois/centered
I0925 23:26:53.996440  1161 net.cpp:382] pooled_rois/pca -> pooled_rois/pca
I0925 23:26:54.027781  1161 net.cpp:124] Setting up pooled_rois/pca
I0925 23:26:54.027808  1161 net.cpp:131] Top shape: 8 2048 (16384)
I0925 23:26:54.027813  1161 net.cpp:139] Memory required for data: 4529510452
I0925 23:26:54.027822  1161 layer_factory.hpp:77] Creating layer pooled_rois/pca/reshaped
I0925 23:26:54.027837  1161 net.cpp:86] Creating Layer pooled_rois/pca/reshaped
I0925 23:26:54.027843  1161 net.cpp:408] pooled_rois/pca/reshaped <- pooled_rois/pca
I0925 23:26:54.027853  1161 net.cpp:382] pooled_rois/pca/reshaped -> pooled_rois/pca/reshaped
I0925 23:26:54.027901  1161 net.cpp:124] Setting up pooled_rois/pca/reshaped
I0925 23:26:54.027911  1161 net.cpp:131] Top shape: 8 2048 1 1 (16384)
I0925 23:26:54.027916  1161 net.cpp:139] Memory required for data: 4529575988
I0925 23:26:54.027923  1161 layer_factory.hpp:77] Creating layer pooled_rois/pca/normalized
I0925 23:26:54.027931  1161 net.cpp:86] Creating Layer pooled_rois/pca/normalized
I0925 23:26:54.027937  1161 net.cpp:408] pooled_rois/pca/normalized <- pooled_rois/pca/reshaped
I0925 23:26:54.027946  1161 net.cpp:382] pooled_rois/pca/normalized -> pooled_rois/pca/normalized
I0925 23:26:54.028031  1161 net.cpp:124] Setting up pooled_rois/pca/normalized
I0925 23:26:54.028041  1161 net.cpp:131] Top shape: 8 2048 1 1 (16384)
I0925 23:26:54.028046  1161 net.cpp:139] Memory required for data: 4529641524
I0925 23:26:54.028050  1161 layer_factory.hpp:77] Creating layer rmac
I0925 23:26:54.028120  1161 net.cpp:86] Creating Layer rmac
I0925 23:26:54.028129  1161 net.cpp:408] rmac <- pooled_rois/pca/normalized
I0925 23:26:54.028137  1161 net.cpp:382] rmac -> rmac
I0925 23:26:54.028292  1161 net.cpp:124] Setting up rmac
I0925 23:26:54.028304  1161 net.cpp:131] Top shape: 1 2048 1 1 (2048)
I0925 23:26:54.028316  1161 net.cpp:139] Memory required for data: 4529649716
I0925 23:26:54.028321  1161 layer_factory.hpp:77] Creating layer rmac/normalized
I0925 23:26:54.028331  1161 net.cpp:86] Creating Layer rmac/normalized
I0925 23:26:54.028337  1161 net.cpp:408] rmac/normalized <- rmac
I0925 23:26:54.028344  1161 net.cpp:382] rmac/normalized -> rmac/normalized
I0925 23:26:54.028425  1161 net.cpp:124] Setting up rmac/normalized
I0925 23:26:54.028434  1161 net.cpp:131] Top shape: 1 2048 1 1 (2048)
I0925 23:26:54.028439  1161 net.cpp:139] Memory required for data: 4529657908
I0925 23:26:54.028452  1161 layer_factory.hpp:77] Creating layer rmac/eltwise
I0925 23:26:54.028461  1161 net.cpp:86] Creating Layer rmac/eltwise
I0925 23:26:54.028468  1161 net.cpp:408] rmac/eltwise <- l_rmac/normalized
I0925 23:26:54.028475  1161 net.cpp:408] rmac/eltwise <- m_rmac/normalized
I0925 23:26:54.028482  1161 net.cpp:408] rmac/eltwise <- h_rmac/normalized
I0925 23:26:54.028492  1161 net.cpp:382] rmac/eltwise -> rmac/eltwise
I0925 23:26:54.028530  1161 net.cpp:124] Setting up rmac/eltwise
I0925 23:26:54.028539  1161 net.cpp:131] Top shape: 1 2048 1 1 (2048)
I0925 23:26:54.028543  1161 net.cpp:139] Memory required for data: 4529666100
I0925 23:26:54.028548  1161 layer_factory.hpp:77] Creating layer rmac/eltwise/normalized
I0925 23:26:54.028554  1161 net.cpp:86] Creating Layer rmac/eltwise/normalized
I0925 23:26:54.028559  1161 net.cpp:408] rmac/eltwise/normalized <- rmac/eltwise
I0925 23:26:54.028569  1161 net.cpp:382] rmac/eltwise/normalized -> rmac/eltwise/normalized
I0925 23:26:54.028642  1161 net.cpp:124] Setting up rmac/eltwise/normalized
I0925 23:26:54.028651  1161 net.cpp:131] Top shape: 1 2048 1 1 (2048)
I0925 23:26:54.028656  1161 net.cpp:139] Memory required for data: 4529674292
I0925 23:26:54.028661  1161 layer_factory.hpp:77] Creating layer loss
I0925 23:26:54.028667  1161 net.cpp:86] Creating Layer loss
I0925 23:26:54.028672  1161 net.cpp:408] loss <- rmac/eltwise/normalized
I0925 23:26:54.028678  1161 net.cpp:408] loss <- rmac/normalized
I0925 23:26:54.028686  1161 net.cpp:382] loss -> loss
…
