name: "ResNet-101"
	input: "data"
	input_shape{
	dim: 1
	dim: 3
	dim: 384
	dim: 512
}

# my Python layer: ResizeLayer
layer {
	bottom: "data"
	top: "l_resize"
	name: "l_resize"
	type: "Python"
	python_param {
		module: 'custom_layers'
		layer: 'ResizeLayer'
		param_str: "{'h': 192, 'w': 256, 'mean': [103.93900299, 116.77899933, 123.68000031]}"  # original
		# param_str: "{'h': 140, 'w': 248, 'mean': [117.80904, 130.27611, 134.65074]}"  # cover
		# param_str: "{'h': 192, 'w': 256, 'mean': [99.74151, 108.75074, 113.17747]}"  # Oxford
		# param_str: "{'h': 192, 'w': 256, 'mean': [107.464, 111.302, 114.55]}"  # Paris		
	}
}

layer {
	bottom: "data"
	top: "m_resize"
	name: "m_resize"
	type: "Python"
	python_param {
		module: 'custom_layers'
		layer: 'ResizeLayer'
		param_str: "{'h': 384, 'w': 512, 'mean': [103.93900299, 116.77899933, 123.68000031]}"  # original
		# param_str: "{'h': 280, 'w': 496, 'mean': [117.80904, 130.27611, 134.65074]}"  # cover
		# param_str: "{'h': 384, 'w': 512, 'mean': [99.74151, 108.75074, 113.17747]}"  # Oxford
		# param_str: "{'h': 384, 'w': 512, 'mean': [107.464, 111.302, 114.55]}"  # Paris	
	}
}

layer {
	bottom: "data"
	top: "h_resize"
	name: "h_resize"
	type: "Python"
	python_param {
		module: 'custom_layers'
		layer: 'ResizeLayer'
		param_str: "{'h': 576, 'w': 768, 'mean': [103.93900299, 116.77899933, 123.68000031]}"  # original
		# param_str: "{'h': 420, 'w': 744, 'mean': [117.80904, 130.27611, 134.65074]}"  # cover
		# param_str: "{'h': 576, 'w': 768, 'mean': [99.74151, 108.75074, 113.17747]}"  # Oxford
		# param_str: "{'h': 576, 'w': 768, 'mean': [107.464, 111.302, 114.55]}"  # Paris	
	}
}

# my Python layer: RigidGridLayer
layer {
	bottom: "l_resize"
	top: "l_rois"
	name: "l_rois"
	type: "Python"
	python_param {
		module: 'custom_layers'
		layer: 'RigidGridLayer'
		param_str: "{'dataset': 'other'}"
	}
}

layer {
	bottom: "m_resize"
	top: "m_rois"
	name: "m_rois"
	type: "Python"
	python_param {
		module: 'custom_layers'
		layer: 'RigidGridLayer'
		param_str: "{'dataset': 'other'}"
	}
}

layer {
	bottom: "h_resize"
	top: "h_rois"
	name: "h_rois"
	type: "Python"
	python_param {
		module: 'custom_layers'
		layer: 'RigidGridLayer'
		param_str: "{'dataset': 'other'}"
	}
}

# Teacher network
layer {
	bottom: "l_resize"
	top: "l_conv1"
	name: "l_conv1"
	type: "Convolution"
	param {
		name: "conv1_w"
		lr_mult: 0.0
		decay_mult: 0.0
	}
	convolution_param {
		num_output: 64
		kernel_size: 7
		pad: 3
		stride: 2
		bias_term: false
	}
}

layer {
	bottom: "l_conv1"
	top: "l_conv1"
	name: "l_bn_conv1"
	type: "BatchNorm"
	param {
		name: "bn_conv1_1"
		lr_mult: 0.0
		decay_mult: 0.0
	}
	param {
		name: "bn_conv1_2"
		lr_mult: 0.0
		decay_mult: 0.0
	}
	param {
		name: "bn_conv1_3"
		lr_mult: 0.0
		decay_mult: 0.0
	}
	batch_norm_param {
		use_global_stats: true
	}
}

layer {
	bottom: "l_conv1"
	top: "l_conv1"
	name: "l_scale_conv1"
	type: "Scale"
	param {
		name: "scale_conv1_1"
		lr_mult: 0.0
		decay_mult: 0.0
	}
	param {
		name: "scale_conv1_2"
		lr_mult: 0.0
		decay_mult: 0.0
	}
	scale_param {
		bias_term: true
	}
}

layer {
	top: "l_conv1"
	bottom: "l_conv1"
	name: "l_conv1_relu"
	type: "ReLU"
}

layer {
	bottom: "l_conv1"
	top: "l_pool1"
	name: "l_pool1"
	type: "Pooling"
	pooling_param {
		kernel_size: 3
		stride: 2
		pool: MAX
	}
}

layer {
	bottom: "l_pool1"
	top: "l_res2a_branch1"
	name: "l_res2a_branch1"
	type: "Convolution"
	param {
		name: "res2a_branch1_w"
		lr_mult: 0.0
		decay_mult: 0.0
	}
	convolution_param {
		num_output: 256
		kernel_size: 1
		pad: 0
		stride: 1
		bias_term: false
	}
}

layer {
	bottom: "l_res2a_branch1"
	top: "l_res2a_branch1"
	name: "l_bn2a_branch1"
	type: "BatchNorm"
	param {
		name: "bn2a_branch1_1"
		lr_mult: 0.0
		decay_mult: 0.0
	}
	param {
		name: "bn2a_branch1_2"
		lr_mult: 0.0
		decay_mult: 0.0
	}
	param {
		name: "bn2a_branch1_3"
		lr_mult: 0.0
		decay_mult: 0.0
	}
	batch_norm_param {
		use_global_stats: true
	}
}

layer {
	bottom: "l_res2a_branch1"
	top: "l_res2a_branch1"
	name: "l_scale2a_branch1"
	type: "Scale"
	param {
		name: "scale2a_branch1_1"
		lr_mult: 0.0
		decay_mult: 0.0
	}
	param {
		name: "scale2a_branch1_2"
		lr_mult: 0.0
		decay_mult: 0.0
	}
	scale_param {
		bias_term: true
	}
}

layer {
	bottom: "l_pool1"
	top: "l_res2a_branch2a"
	name: "l_res2a_branch2a"
	type: "Convolution"
	param {
		name: "res2a_branch2a_w"
		lr_mult: 0.0
		decay_mult: 0.0
	}
	convolution_param {
		num_output: 64
		kernel_size: 1
		pad: 0
		stride: 1
		bias_term: false
	}
}

layer {
	bottom: "l_res2a_branch2a"
	top: "l_res2a_branch2a"
	name: "l_bn2a_branch2a"
	type: "BatchNorm"
	param {
		name: "bn2a_branch2a_1"
		lr_mult: 0.0
		decay_mult: 0.0
	}
	param {
		name: "bn2a_branch2a_2"
		lr_mult: 0.0
		decay_mult: 0.0
	}
	param {
		name: "bn2a_branch2a_3"
		lr_mult: 0.0
		decay_mult: 0.0
	}
	batch_norm_param {
		use_global_stats: true
	}
}

layer {
	bottom: "l_res2a_branch2a"
	top: "l_res2a_branch2a"
	name: "l_scale2a_branch2a"
	type: "Scale"
	param {
		name: "scale2a_branch2a_1"
		lr_mult: 0.0
		decay_mult: 0.0
	}
	param {
		name: "scale2a_branch2a_2"
		lr_mult: 0.0
		decay_mult: 0.0
	}
	scale_param {
		bias_term: true
	}
}

layer {
	top: "l_res2a_branch2a"
	bottom: "l_res2a_branch2a"
	name: "l_res2a_branch2a_relu"
	type: "ReLU"
}

layer {
	bottom: "l_res2a_branch2a"
	top: "l_res2a_branch2b"
	name: "l_res2a_branch2b"
	type: "Convolution"
	param {
		name: "res2a_branch2b_w"
		lr_mult: 0.0
		decay_mult: 0.0
	}
	convolution_param {
		num_output: 64
		kernel_size: 3
		pad: 1
		stride: 1
		bias_term: false
	}
}

layer {
	bottom: "l_res2a_branch2b"
	top: "l_res2a_branch2b"
	name: "l_bn2a_branch2b"
	type: "BatchNorm"
	param {
		name: "bn2a_branch2b_1"
		lr_mult: 0.0
		decay_mult: 0.0
	}
	param {
		name: "bn2a_branch2b_2"
		lr_mult: 0.0
		decay_mult: 0.0
	}
	param {
		name: "bn2a_branch2b_3"
		lr_mult: 0.0
		decay_mult: 0.0
	}
	batch_norm_param {
		use_global_stats: true
	}
}

layer {
	bottom: "l_res2a_branch2b"
	top: "l_res2a_branch2b"
	name: "l_scale2a_branch2b"
	type: "Scale"
	param {
		name: "scale2a_branch2b_1"
		lr_mult: 0.0
		decay_mult: 0.0
	}
	param {
		name: "scale2a_branch2b_2"
		lr_mult: 0.0
		decay_mult: 0.0
	}
	scale_param {
		bias_term: true
	}
}

layer {
	top: "l_res2a_branch2b"
	bottom: "l_res2a_branch2b"
	name: "l_res2a_branch2b_relu"
	type: "ReLU"
}

layer {
	bottom: "l_res2a_branch2b"
	top: "l_res2a_branch2c"
	name: "l_res2a_branch2c"
	type: "Convolution"
	param {
		name: "res2a_branch2c_w"
		lr_mult: 0.0
		decay_mult: 0.0
	}
	convolution_param {
		num_output: 256
		kernel_size: 1
		pad: 0
		stride: 1
		bias_term: false
	}
}

layer {
	bottom: "l_res2a_branch2c"
	top: "l_res2a_branch2c"
	name: "l_bn2a_branch2c"
	type: "BatchNorm"
	param {
		name: "bn2a_branch2c_1"
		lr_mult: 0.0
		decay_mult: 0.0
	}
	param {
		name: "bn2a_branch2c_2"
		lr_mult: 0.0
		decay_mult: 0.0
	}
	param {
		name: "bn2a_branch2c_3"
		lr_mult: 0.0
		decay_mult: 0.0
	}
	batch_norm_param {
		use_global_stats: true
	}
}

layer {
	bottom: "l_res2a_branch2c"
	top: "l_res2a_branch2c"
	name: "l_scale2a_branch2c"
	type: "Scale"
	param {
		name: "scale2a_branch2c_1"
		lr_mult: 0.0
		decay_mult: 0.0
	}
	param {
		name: "scale2a_branch2c_2"
		lr_mult: 0.0
		decay_mult: 0.0
	}
	scale_param {
		bias_term: true
	}
}

layer {
	bottom: "l_res2a_branch1"
	bottom: "l_res2a_branch2c"
	top: "l_res2a"
	name: "l_res2a"
	type: "Eltwise"
}

layer {
	bottom: "l_res2a"
	top: "l_res2a"
	name: "l_res2a_relu"
	type: "ReLU"
}

layer {
	bottom: "l_res2a"
	top: "l_res2b_branch2a"
	name: "l_res2b_branch2a"
	type: "Convolution"
	param {
		name: "res2b_branch2a_w"
		lr_mult: 0.0
		decay_mult: 0.0
	}
	convolution_param {
		num_output: 64
		kernel_size: 1
		pad: 0
		stride: 1
		bias_term: false
	}
}

layer {
	bottom: "l_res2b_branch2a"
	top: "l_res2b_branch2a"
	name: "l_bn2b_branch2a"
	type: "BatchNorm"
	param {
		name: "bn2b_branch2a_1"
		lr_mult: 0.0
		decay_mult: 0.0
	}
	param {
		name: "bn2b_branch2a_2"
		lr_mult: 0.0
		decay_mult: 0.0
	}
	param {
		name: "bn2b_branch2a_3"
		lr_mult: 0.0
		decay_mult: 0.0
	}
	batch_norm_param {
		use_global_stats: true
	}
}

layer {
	bottom: "l_res2b_branch2a"
	top: "l_res2b_branch2a"
	name: "l_scale2b_branch2a"
	type: "Scale"
	param {
		name: "scale2b_branch2a_1"
		lr_mult: 0.0
		decay_mult: 0.0
	}
	param {
		name: "scale2b_branch2a_2"
		lr_mult: 0.0
		decay_mult: 0.0
	}
	scale_param {
		bias_term: true
	}
}

layer {
	top: "l_res2b_branch2a"
	bottom: "l_res2b_branch2a"
	name: "l_res2b_branch2a_relu"
	type: "ReLU"
}

layer {
	bottom: "l_res2b_branch2a"
	top: "l_res2b_branch2b"
	name: "l_res2b_branch2b"
	type: "Convolution"
	param {
		name: "res2b_branch2b_w"
		lr_mult: 0.0
		decay_mult: 0.0
	}
	convolution_param {
		num_output: 64
		kernel_size: 3
		pad: 1
		stride: 1
		bias_term: false
	}
}

layer {
	bottom: "l_res2b_branch2b"
	top: "l_res2b_branch2b"
	name: "l_bn2b_branch2b"
	type: "BatchNorm"
	param {
		name: "bn2b_branch2b_1"
		lr_mult: 0.0
		decay_mult: 0.0
	}
	param {
		name: "bn2b_branch2b_2"
		lr_mult: 0.0
		decay_mult: 0.0
	}
	param {
		name: "bn2b_branch2b_3"
		lr_mult: 0.0
		decay_mult: 0.0
	}
	batch_norm_param {
		use_global_stats: true
	}
}

layer {
	bottom: "l_res2b_branch2b"
	top: "l_res2b_branch2b"
	name: "l_scale2b_branch2b"
	type: "Scale"
	param {
		name: "scale2b_branch2b_1"
		lr_mult: 0.0
		decay_mult: 0.0
	}
	param {
		name: "scale2b_branch2b_2"
		lr_mult: 0.0
		decay_mult: 0.0
	}
	scale_param {
		bias_term: true
	}
}

layer {
	top: "l_res2b_branch2b"
	bottom: "l_res2b_branch2b"
	name: "l_res2b_branch2b_relu"
	type: "ReLU"
}

layer {
	bottom: "l_res2b_branch2b"
	top: "l_res2b_branch2c"
	name: "l_res2b_branch2c"
	type: "Convolution"
	param {
		name: "res2b_branch2c_w"
		lr_mult: 0.0
		decay_mult: 0.0
	}
	convolution_param {
		num_output: 256
		kernel_size: 1
		pad: 0
		stride: 1
		bias_term: false
	}
}

layer {
	bottom: "l_res2b_branch2c"
	top: "l_res2b_branch2c"
	name: "l_bn2b_branch2c"
	type: "BatchNorm"
	param {
		name: "bn2b_branch2c_1"
		lr_mult: 0.0
		decay_mult: 0.0
	}
	param {
		name: "bn2b_branch2c_2"
		lr_mult: 0.0
		decay_mult: 0.0
	}
	param {
		name: "bn2b_branch2c_3"
		lr_mult: 0.0
		decay_mult: 0.0
	}
	batch_norm_param {
		use_global_stats: true
	}
}

layer {
	bottom: "l_res2b_branch2c"
	top: "l_res2b_branch2c"
	name: "l_scale2b_branch2c"
	type: "Scale"
	param {
		name: "scale2b_branch2c_1"
		lr_mult: 0.0
		decay_mult: 0.0
	}
	param {
		name: "scale2b_branch2c_2"
		lr_mult: 0.0
		decay_mult: 0.0
	}
	scale_param {
		bias_term: true
	}
}

layer {
	bottom: "l_res2a"
	bottom: "l_res2b_branch2c"
	top: "l_res2b"
	name: "l_res2b"
	type: "Eltwise"
}

layer {
	bottom: "l_res2b"
	top: "l_res2b"
	name: "l_res2b_relu"
	type: "ReLU"
}

layer {
	bottom: "l_res2b"
	top: "l_res2c_branch2a"
	name: "l_res2c_branch2a"
	type: "Convolution"
	param {
		name: "res2c_branch2a_w"
		lr_mult: 0.0
		decay_mult: 0.0
	}
	convolution_param {
		num_output: 64
		kernel_size: 1
		pad: 0
		stride: 1
		bias_term: false
	}
}

layer {
	bottom: "l_res2c_branch2a"
	top: "l_res2c_branch2a"
	name: "l_bn2c_branch2a"
	type: "BatchNorm"
	param {
		name: "bn2c_branch2a_1"
		lr_mult: 0.0
		decay_mult: 0.0
	}
	param {
		name: "bn2c_branch2a_2"
		lr_mult: 0.0
		decay_mult: 0.0
	}
	param {
		name: "bn2c_branch2a_3"
		lr_mult: 0.0
		decay_mult: 0.0
	}
	batch_norm_param {
		use_global_stats: true
	}
}

layer {
	bottom: "l_res2c_branch2a"
	top: "l_res2c_branch2a"
	name: "l_scale2c_branch2a"
	type: "Scale"
	param {
		name: "scale2c_branch2a_1"
		lr_mult: 0.0
		decay_mult: 0.0
	}
	param {
		name: "scale2c_branch2a_2"
		lr_mult: 0.0
		decay_mult: 0.0
	}
	scale_param {
		bias_term: true
	}
}

layer {
	top: "l_res2c_branch2a"
	bottom: "l_res2c_branch2a"
	name: "l_res2c_branch2a_relu"
	type: "ReLU"
}

layer {
	bottom: "l_res2c_branch2a"
	top: "l_res2c_branch2b"
	name: "l_res2c_branch2b"
	type: "Convolution"
	param {
		name: "res2c_branch2b_w"
		lr_mult: 0.0
		decay_mult: 0.0
	}
	convolution_param {
		num_output: 64
		kernel_size: 3
		pad: 1
		stride: 1
		bias_term: false
	}
}

layer {
	bottom: "l_res2c_branch2b"
	top: "l_res2c_branch2b"
	name: "l_bn2c_branch2b"
	type: "BatchNorm"
	param {
		name: "bn2c_branch2b_1"
		lr_mult: 0.0
		decay_mult: 0.0
	}
	param {
		name: "bn2c_branch2b_2"
		lr_mult: 0.0
		decay_mult: 0.0
	}
	param {
		name: "bn2c_branch2b_3"
		lr_mult: 0.0
		decay_mult: 0.0
	}
	batch_norm_param {
		use_global_stats: true
	}
}

layer {
	bottom: "l_res2c_branch2b"
	top: "l_res2c_branch2b"
	name: "l_scale2c_branch2b"
	type: "Scale"
	param {
		name: "scale2c_branch2b_1"
		lr_mult: 0.0
		decay_mult: 0.0
	}
	param {
		name: "scale2c_branch2b_2"
		lr_mult: 0.0
		decay_mult: 0.0
	}
	scale_param {
		bias_term: true
	}
}

layer {
	top: "l_res2c_branch2b"
	bottom: "l_res2c_branch2b"
	name: "l_res2c_branch2b_relu"
	type: "ReLU"
}

layer {
	bottom: "l_res2c_branch2b"
	top: "l_res2c_branch2c"
	name: "l_res2c_branch2c"
	type: "Convolution"
	param {
		name: "res2c_branch2c_w"
		lr_mult: 0.0
		decay_mult: 0.0
	}
	convolution_param {
		num_output: 256
		kernel_size: 1
		pad: 0
		stride: 1
		bias_term: false
	}
}

layer {
	bottom: "l_res2c_branch2c"
	top: "l_res2c_branch2c"
	name: "l_bn2c_branch2c"
	type: "BatchNorm"
	param {
		name: "bn2c_branch2c_1"
		lr_mult: 0.0
		decay_mult: 0.0
	}
	param {
		name: "bn2c_branch2c_2"
		lr_mult: 0.0
		decay_mult: 0.0
	}
	param {
		name: "bn2c_branch2c_3"
		lr_mult: 0.0
		decay_mult: 0.0
	}
	batch_norm_param {
		use_global_stats: true
	}
}

layer {
	bottom: "l_res2c_branch2c"
	top: "l_res2c_branch2c"
	name: "l_scale2c_branch2c"
	type: "Scale"
	param {
		name: "scale2c_branch2c_1"
		lr_mult: 0.0
		decay_mult: 0.0
	}
	param {
		name: "scale2c_branch2c_2"
		lr_mult: 0.0
		decay_mult: 0.0
	}
	scale_param {
		bias_term: true
	}
}

layer {
	bottom: "l_res2b"
	bottom: "l_res2c_branch2c"
	top: "l_res2c"
	name: "l_res2c"
	type: "Eltwise"
}

layer {
	bottom: "l_res2c"
	top: "l_res2c"
	name: "l_res2c_relu"
	type: "ReLU"
}

layer {
	bottom: "l_res2c"
	top: "l_res3a_branch1"
	name: "l_res3a_branch1"
	type: "Convolution"
	param {
		name: "res3a_branch1_w"
		lr_mult: 0.0
		decay_mult: 0.0
	}
	convolution_param {
		num_output: 512
		kernel_size: 1
		pad: 0
		stride: 2
		bias_term: false
	}
}

layer {
	bottom: "l_res3a_branch1"
	top: "l_res3a_branch1"
	name: "l_bn3a_branch1"
	type: "BatchNorm"
	param {
		name: "bn3a_branch1_1"
		lr_mult: 0.0
		decay_mult: 0.0
	}
	param {
		name: "bn3a_branch1_2"
		lr_mult: 0.0
		decay_mult: 0.0
	}
	param {
		name: "bn3a_branch1_3"
		lr_mult: 0.0
		decay_mult: 0.0
	}
	batch_norm_param {
		use_global_stats: true
	}
}

layer {
	bottom: "l_res3a_branch1"
	top: "l_res3a_branch1"
	name: "l_scale3a_branch1"
	type: "Scale"
	param {
		name: "scale3a_branch1_1"
		lr_mult: 0.0
		decay_mult: 0.0
	}
	param {
		name: "scale3a_branch1_2"
		lr_mult: 0.0
		decay_mult: 0.0
	}
	scale_param {
		bias_term: true
	}
}

layer {
	bottom: "l_res2c"
	top: "l_res3a_branch2a"
	name: "l_res3a_branch2a"
	type: "Convolution"
	param {
		name: "res3a_branch2a_w"
		lr_mult: 0.0
		decay_mult: 0.0
	}
	convolution_param {
		num_output: 128
		kernel_size: 1
		pad: 0
		stride: 2
		bias_term: false
	}
}

layer {
	bottom: "l_res3a_branch2a"
	top: "l_res3a_branch2a"
	name: "l_bn3a_branch2a"
	type: "BatchNorm"
	param {
		name: "bn3a_branch2a_1"
		lr_mult: 0.0
		decay_mult: 0.0
	}
	param {
		name: "bn3a_branch2a_2"
		lr_mult: 0.0
		decay_mult: 0.0
	}
	param {
		name: "bn3a_branch2a_3"
		lr_mult: 0.0
		decay_mult: 0.0
	}
	batch_norm_param {
		use_global_stats: true
	}
}

layer {
	bottom: "l_res3a_branch2a"
	top: "l_res3a_branch2a"
	name: "l_scale3a_branch2a"
	type: "Scale"
	param {
		name: "scale3a_branch2a_1"
		lr_mult: 0.0
		decay_mult: 0.0
	}
	param {
		name: "scale3a_branch2a_2"
		lr_mult: 0.0
		decay_mult: 0.0
	}
	scale_param {
		bias_term: true
	}
}

layer {
	top: "l_res3a_branch2a"
	bottom: "l_res3a_branch2a"
	name: "l_res3a_branch2a_relu"
	type: "ReLU"
}

layer {
	bottom: "l_res3a_branch2a"
	top: "l_res3a_branch2b"
	name: "l_res3a_branch2b"
	type: "Convolution"
	param {
		name: "res3a_branch2b_w"
		lr_mult: 0.0
		decay_mult: 0.0
	}
	convolution_param {
		num_output: 128
		kernel_size: 3
		pad: 1
		stride: 1
		bias_term: false
	}
}

layer {
	bottom: "l_res3a_branch2b"
	top: "l_res3a_branch2b"
	name: "l_bn3a_branch2b"
	type: "BatchNorm"
	param {
		name: "bn3a_branch2b_1"
		lr_mult: 0.0
		decay_mult: 0.0
	}
	param {
		name: "bn3a_branch2b_2"
		lr_mult: 0.0
		decay_mult: 0.0
	}
	param {
		name: "bn3a_branch2b_3"
		lr_mult: 0.0
		decay_mult: 0.0
	}
	batch_norm_param {
		use_global_stats: true
	}
}

layer {
	bottom: "l_res3a_branch2b"
	top: "l_res3a_branch2b"
	name: "l_scale3a_branch2b"
	type: "Scale"
	param {
		name: "scale3a_branch2b_1"
		lr_mult: 0.0
		decay_mult: 0.0
	}
	param {
		name: "scale3a_branch2b_2"
		lr_mult: 0.0
		decay_mult: 0.0
	}
	scale_param {
		bias_term: true
	}
}

layer {
	top: "l_res3a_branch2b"
	bottom: "l_res3a_branch2b"
	name: "l_res3a_branch2b_relu"
	type: "ReLU"
}

layer {
	bottom: "l_res3a_branch2b"
	top: "l_res3a_branch2c"
	name: "l_res3a_branch2c"
	type: "Convolution"
	param {
		name: "res3a_branch2c_w"
		lr_mult: 0.0
		decay_mult: 0.0
	}
	convolution_param {
		num_output: 512
		kernel_size: 1
		pad: 0
		stride: 1
		bias_term: false
	}
}

layer {
	bottom: "l_res3a_branch2c"
	top: "l_res3a_branch2c"
	name: "l_bn3a_branch2c"
	type: "BatchNorm"
	param {
		name: "bn3a_branch2c_1"
		lr_mult: 0.0
		decay_mult: 0.0
	}
	param {
		name: "bn3a_branch2c_2"
		lr_mult: 0.0
		decay_mult: 0.0
	}
	param {
		name: "bn3a_branch2c_3"
		lr_mult: 0.0
		decay_mult: 0.0
	}
	batch_norm_param {
		use_global_stats: true
	}
}

layer {
	bottom: "l_res3a_branch2c"
	top: "l_res3a_branch2c"
	name: "l_scale3a_branch2c"
	type: "Scale"
	param {
		name: "scale3a_branch2c_1"
		lr_mult: 0.0
		decay_mult: 0.0
	}
	param {
		name: "scale3a_branch2c_2"
		lr_mult: 0.0
		decay_mult: 0.0
	}
	scale_param {
		bias_term: true
	}
}

layer {
	bottom: "l_res3a_branch1"
	bottom: "l_res3a_branch2c"
	top: "l_res3a"
	name: "l_res3a"
	type: "Eltwise"
}

layer {
	bottom: "l_res3a"
	top: "l_res3a"
	name: "l_res3a_relu"
	type: "ReLU"
}

layer {
	bottom: "l_res3a"
	top: "l_res3b1_branch2a"
	name: "l_res3b1_branch2a"
	type: "Convolution"
	param {
		name: "res3b1_branch2a_w"
		lr_mult: 0.0
		decay_mult: 0.0
	}
	convolution_param {
		num_output: 128
		kernel_size: 1
		pad: 0
		stride: 1
		bias_term: false
	}
}

layer {
	bottom: "l_res3b1_branch2a"
	top: "l_res3b1_branch2a"
	name: "l_bn3b1_branch2a"
	type: "BatchNorm"
	param {
		name: "bn3b1_branch2a_1"
		lr_mult: 0.0
		decay_mult: 0.0
	}
	param {
		name: "bn3b1_branch2a_2"
		lr_mult: 0.0
		decay_mult: 0.0
	}
	param {
		name: "bn3b1_branch2a_3"
		lr_mult: 0.0
		decay_mult: 0.0
	}
	batch_norm_param {
		use_global_stats: true
	}
}

layer {
	bottom: "l_res3b1_branch2a"
	top: "l_res3b1_branch2a"
	name: "l_scale3b1_branch2a"
	type: "Scale"
	param {
		name: "scale3b1_branch2a_1"
		lr_mult: 0.0
		decay_mult: 0.0
	}
	param {
		name: "scale3b1_branch2a_2"
		lr_mult: 0.0
		decay_mult: 0.0
	}
	scale_param {
		bias_term: true
	}
}

layer {
	top: "l_res3b1_branch2a"
	bottom: "l_res3b1_branch2a"
	name: "l_res3b1_branch2a_relu"
	type: "ReLU"
}

layer {
	bottom: "l_res3b1_branch2a"
	top: "l_res3b1_branch2b"
	name: "l_res3b1_branch2b"
	type: "Convolution"
	param {
		name: "res3b1_branch2b_w"
		lr_mult: 0.0
		decay_mult: 0.0
	}
	convolution_param {
		num_output: 128
		kernel_size: 3
		pad: 1
		stride: 1
		bias_term: false
	}
}

layer {
	bottom: "l_res3b1_branch2b"
	top: "l_res3b1_branch2b"
	name: "l_bn3b1_branch2b"
	type: "BatchNorm"
	param {
		name: "bn3b1_branch2b_1"
		lr_mult: 0.0
		decay_mult: 0.0
	}
	param {
		name: "bn3b1_branch2b_2"
		lr_mult: 0.0
		decay_mult: 0.0
	}
	param {
		name: "bn3b1_branch2b_3"
		lr_mult: 0.0
		decay_mult: 0.0
	}
	batch_norm_param {
		use_global_stats: true
	}
}

layer {
	bottom: "l_res3b1_branch2b"
	top: "l_res3b1_branch2b"
	name: "l_scale3b1_branch2b"
	type: "Scale"
	param {
		name: "scale3b1_branch2b_1"
		lr_mult: 0.0
		decay_mult: 0.0
	}
	param {
		name: "scale3b1_branch2b_2"
		lr_mult: 0.0
		decay_mult: 0.0
	}
	scale_param {
		bias_term: true
	}
}

layer {
	top: "l_res3b1_branch2b"
	bottom: "l_res3b1_branch2b"
	name: "l_res3b1_branch2b_relu"
	type: "ReLU"
}

layer {
	bottom: "l_res3b1_branch2b"
	top: "l_res3b1_branch2c"
	name: "l_res3b1_branch2c"
	type: "Convolution"
	param {
		name: "res3b1_branch2c_w"
		lr_mult: 0.0
		decay_mult: 0.0
	}
	convolution_param {
		num_output: 512
		kernel_size: 1
		pad: 0
		stride: 1
		bias_term: false
	}
}

layer {
	bottom: "l_res3b1_branch2c"
	top: "l_res3b1_branch2c"
	name: "l_bn3b1_branch2c"
	type: "BatchNorm"
	param {
		name: "bn3b1_branch2c_1"
		lr_mult: 0.0
		decay_mult: 0.0
	}
	param {
		name: "bn3b1_branch2c_2"
		lr_mult: 0.0
		decay_mult: 0.0
	}
	param {
		name: "bn3b1_branch2c_3"
		lr_mult: 0.0
		decay_mult: 0.0
	}
	batch_norm_param {
		use_global_stats: true
	}
}

layer {
	bottom: "l_res3b1_branch2c"
	top: "l_res3b1_branch2c"
	name: "l_scale3b1_branch2c"
	type: "Scale"
	param {
		name: "scale3b1_branch2c_1"
		lr_mult: 0.0
		decay_mult: 0.0
	}
	param {
		name: "scale3b1_branch2c_2"
		lr_mult: 0.0
		decay_mult: 0.0
	}
	scale_param {
		bias_term: true
	}
}

layer {
	bottom: "l_res3a"
	bottom: "l_res3b1_branch2c"
	top: "l_res3b1"
	name: "l_res3b1"
	type: "Eltwise"
}

layer {
	bottom: "l_res3b1"
	top: "l_res3b1"
	name: "l_res3b1_relu"
	type: "ReLU"
}

layer {
	bottom: "l_res3b1"
	top: "l_res3b2_branch2a"
	name: "l_res3b2_branch2a"
	type: "Convolution"
	param {
		name: "res3b2_branch2a_w"
		lr_mult: 0.0
		decay_mult: 0.0
	}
	convolution_param {
		num_output: 128
		kernel_size: 1
		pad: 0
		stride: 1
		bias_term: false
	}
}

layer {
	bottom: "l_res3b2_branch2a"
	top: "l_res3b2_branch2a"
	name: "l_bn3b2_branch2a"
	type: "BatchNorm"
	param {
		name: "bn3b2_branch2a_1"
		lr_mult: 0.0
		decay_mult: 0.0
	}
	param {
		name: "bn3b2_branch2a_2"
		lr_mult: 0.0
		decay_mult: 0.0
	}
	param {
		name: "bn3b2_branch2a_3"
		lr_mult: 0.0
		decay_mult: 0.0
	}
	batch_norm_param {
		use_global_stats: true
	}
}

layer {
	bottom: "l_res3b2_branch2a"
	top: "l_res3b2_branch2a"
	name: "l_scale3b2_branch2a"
	type: "Scale"
	param {
		name: "scale3b2_branch2a_1"
		lr_mult: 0.0
		decay_mult: 0.0
	}
	param {
		name: "scale3b2_branch2a_2"
		lr_mult: 0.0
		decay_mult: 0.0
	}
	scale_param {
		bias_term: true
	}
}

layer {
	top: "l_res3b2_branch2a"
	bottom: "l_res3b2_branch2a"
	name: "l_res3b2_branch2a_relu"
	type: "ReLU"
}

layer {
	bottom: "l_res3b2_branch2a"
	top: "l_res3b2_branch2b"
	name: "l_res3b2_branch2b"
	type: "Convolution"
	param {
		name: "res3b2_branch2b_w"
		lr_mult: 0.0
		decay_mult: 0.0
	}
	convolution_param {
		num_output: 128
		kernel_size: 3
		pad: 1
		stride: 1
		bias_term: false
	}
}

layer {
	bottom: "l_res3b2_branch2b"
	top: "l_res3b2_branch2b"
	name: "l_bn3b2_branch2b"
	type: "BatchNorm"
	param {
		name: "bn3b2_branch2b_1"
		lr_mult: 0.0
		decay_mult: 0.0
	}
	param {
		name: "bn3b2_branch2b_2"
		lr_mult: 0.0
		decay_mult: 0.0
	}
	param {
		name: "bn3b2_branch2b_3"
		lr_mult: 0.0
		decay_mult: 0.0
	}
	batch_norm_param {
		use_global_stats: true
	}
}

layer {
	bottom: "l_res3b2_branch2b"
	top: "l_res3b2_branch2b"
	name: "l_scale3b2_branch2b"
	type: "Scale"
	param {
		name: "scale3b2_branch2b_1"
		lr_mult: 0.0
		decay_mult: 0.0
	}
	param {
		name: "scale3b2_branch2b_2"
		lr_mult: 0.0
		decay_mult: 0.0
	}
	scale_param {
		bias_term: true
	}
}

layer {
	top: "l_res3b2_branch2b"
	bottom: "l_res3b2_branch2b"
	name: "l_res3b2_branch2b_relu"
	type: "ReLU"
}

layer {
	bottom: "l_res3b2_branch2b"
	top: "l_res3b2_branch2c"
	name: "l_res3b2_branch2c"
	type: "Convolution"
	param {
		name: "res3b2_branch2c_w"
		lr_mult: 0.0
		decay_mult: 0.0
	}
	convolution_param {
		num_output: 512
		kernel_size: 1
		pad: 0
		stride: 1
		bias_term: false
	}
}

layer {
	bottom: "l_res3b2_branch2c"
	top: "l_res3b2_branch2c"
	name: "l_bn3b2_branch2c"
	type: "BatchNorm"
	param {
		name: "bn3b2_branch2c_1"
		lr_mult: 0.0
		decay_mult: 0.0
	}
	param {
		name: "bn3b2_branch2c_2"
		lr_mult: 0.0
		decay_mult: 0.0
	}
	param {
		name: "bn3b2_branch2c_3"
		lr_mult: 0.0
		decay_mult: 0.0
	}
	batch_norm_param {
		use_global_stats: true
	}
}

layer {
	bottom: "l_res3b2_branch2c"
	top: "l_res3b2_branch2c"
	name: "l_scale3b2_branch2c"
	type: "Scale"
	param {
		name: "scale3b2_branch2c_1"
		lr_mult: 0.0
		decay_mult: 0.0
	}
	param {
		name: "scale3b2_branch2c_2"
		lr_mult: 0.0
		decay_mult: 0.0
	}
	scale_param {
		bias_term: true
	}
}

layer {
	bottom: "l_res3b1"
	bottom: "l_res3b2_branch2c"
	top: "l_res3b2"
	name: "l_res3b2"
	type: "Eltwise"
}

layer {
	bottom: "l_res3b2"
	top: "l_res3b2"
	name: "l_res3b2_relu"
	type: "ReLU"
}

layer {
	bottom: "l_res3b2"
	top: "l_res3b3_branch2a"
	name: "l_res3b3_branch2a"
	type: "Convolution"
	param {
		name: "res3b3_branch2a_w"
		lr_mult: 0.0
		decay_mult: 0.0
	}
	convolution_param {
		num_output: 128
		kernel_size: 1
		pad: 0
		stride: 1
		bias_term: false
	}
}

layer {
	bottom: "l_res3b3_branch2a"
	top: "l_res3b3_branch2a"
	name: "l_bn3b3_branch2a"
	type: "BatchNorm"
	param {
		name: "bn3b3_branch2a_1"
		lr_mult: 0.0
		decay_mult: 0.0
	}
	param {
		name: "bn3b3_branch2a_2"
		lr_mult: 0.0
		decay_mult: 0.0
	}
	param {
		name: "bn3b3_branch2a_3"
		lr_mult: 0.0
		decay_mult: 0.0
	}
	batch_norm_param {
		use_global_stats: true
	}
}

layer {
	bottom: "l_res3b3_branch2a"
	top: "l_res3b3_branch2a"
	name: "l_scale3b3_branch2a"
	type: "Scale"
	param {
		name: "scale3b3_branch2a_1"
		lr_mult: 0.0
		decay_mult: 0.0
	}
	param {
		name: "scale3b3_branch2a_2"
		lr_mult: 0.0
		decay_mult: 0.0
	}
	scale_param {
		bias_term: true
	}
}

layer {
	top: "l_res3b3_branch2a"
	bottom: "l_res3b3_branch2a"
	name: "l_res3b3_branch2a_relu"
	type: "ReLU"
}

layer {
	bottom: "l_res3b3_branch2a"
	top: "l_res3b3_branch2b"
	name: "l_res3b3_branch2b"
	type: "Convolution"
	param {
		name: "res3b3_branch2b_w"
		lr_mult: 0.0
		decay_mult: 0.0
	}
	convolution_param {
		num_output: 128
		kernel_size: 3
		pad: 1
		stride: 1
		bias_term: false
	}
}

layer {
	bottom: "l_res3b3_branch2b"
	top: "l_res3b3_branch2b"
	name: "l_bn3b3_branch2b"
	type: "BatchNorm"
	param {
		name: "bn3b3_branch2b_1"
		lr_mult: 0.0
		decay_mult: 0.0
	}
	param {
		name: "bn3b3_branch2b_2"
		lr_mult: 0.0
		decay_mult: 0.0
	}
	param {
		name: "bn3b3_branch2b_3"
		lr_mult: 0.0
		decay_mult: 0.0
	}
	batch_norm_param {
		use_global_stats: true
	}
}

layer {
	bottom: "l_res3b3_branch2b"
	top: "l_res3b3_branch2b"
	name: "l_scale3b3_branch2b"
	type: "Scale"
	param {
		name: "scale3b3_branch2b_1"
		lr_mult: 0.0
		decay_mult: 0.0
	}
	param {
		name: "scale3b3_branch2b_2"
		lr_mult: 0.0
		decay_mult: 0.0
	}
	scale_param {
		bias_term: true
	}
}

layer {
	top: "l_res3b3_branch2b"
	bottom: "l_res3b3_branch2b"
	name: "l_res3b3_branch2b_relu"
	type: "ReLU"
}

layer {
	bottom: "l_res3b3_branch2b"
	top: "l_res3b3_branch2c"
	name: "l_res3b3_branch2c"
	type: "Convolution"
	param {
		name: "res3b3_branch2c_w"
		lr_mult: 0.0
		decay_mult: 0.0
	}
	convolution_param {
		num_output: 512
		kernel_size: 1
		pad: 0
		stride: 1
		bias_term: false
	}
}

layer {
	bottom: "l_res3b3_branch2c"
	top: "l_res3b3_branch2c"
	name: "l_bn3b3_branch2c"
	type: "BatchNorm"
	param {
		name: "bn3b3_branch2c_1"
		lr_mult: 0.0
		decay_mult: 0.0
	}
	param {
		name: "bn3b3_branch2c_2"
		lr_mult: 0.0
		decay_mult: 0.0
	}
	param {
		name: "bn3b3_branch2c_3"
		lr_mult: 0.0
		decay_mult: 0.0
	}
	batch_norm_param {
		use_global_stats: true
	}
}

layer {
	bottom: "l_res3b3_branch2c"
	top: "l_res3b3_branch2c"
	name: "l_scale3b3_branch2c"
	type: "Scale"
	param {
		name: "scale3b3_branch2c_1"
		lr_mult: 0.0
		decay_mult: 0.0
	}
	param {
		name: "scale3b3_branch2c_2"
		lr_mult: 0.0
		decay_mult: 0.0
	}
	scale_param {
		bias_term: true
	}
}

layer {
	bottom: "l_res3b2"
	bottom: "l_res3b3_branch2c"
	top: "l_res3b3"
	name: "l_res3b3"
	type: "Eltwise"
}

layer {
	bottom: "l_res3b3"
	top: "l_res3b3"
	name: "l_res3b3_relu"
	type: "ReLU"
}

layer {
	bottom: "l_res3b3"
	top: "l_res4a_branch1"
	name: "l_res4a_branch1"
	type: "Convolution"
	param {
		name: "res4a_branch1_w"
		lr_mult: 0.0
		decay_mult: 0.0
	}
	convolution_param {
		num_output: 1024
		kernel_size: 1
		pad: 0
		stride: 2
		bias_term: false
	}
}

layer {
	bottom: "l_res4a_branch1"
	top: "l_res4a_branch1"
	name: "l_bn4a_branch1"
	type: "BatchNorm"
	param {
		name: "bn4a_branch1_1"
		lr_mult: 0.0
		decay_mult: 0.0
	}
	param {
		name: "bn4a_branch1_2"
		lr_mult: 0.0
		decay_mult: 0.0
	}
	param {
		name: "bn4a_branch1_3"
		lr_mult: 0.0
		decay_mult: 0.0
	}
	batch_norm_param {
		use_global_stats: true
	}
}

layer {
	bottom: "l_res4a_branch1"
	top: "l_res4a_branch1"
	name: "l_scale4a_branch1"
	type: "Scale"
	param {
		name: "scale4a_branch1_1"
		lr_mult: 0.0
		decay_mult: 0.0
	}
	param {
		name: "scale4a_branch1_2"
		lr_mult: 0.0
		decay_mult: 0.0
	}
	scale_param {
		bias_term: true
	}
}

layer {
	bottom: "l_res3b3"
	top: "l_res4a_branch2a"
	name: "l_res4a_branch2a"
	type: "Convolution"
	param {
		name: "res4a_branch2a_w"
		lr_mult: 0.0
		decay_mult: 0.0
	}
	convolution_param {
		num_output: 256
		kernel_size: 1
		pad: 0
		stride: 2
		bias_term: false
	}
}

layer {
	bottom: "l_res4a_branch2a"
	top: "l_res4a_branch2a"
	name: "l_bn4a_branch2a"
	type: "BatchNorm"
	param {
		name: "bn4a_branch2a_1"
		lr_mult: 0.0
		decay_mult: 0.0
	}
	param {
		name: "bn4a_branch2a_2"
		lr_mult: 0.0
		decay_mult: 0.0
	}
	param {
		name: "bn4a_branch2a_3"
		lr_mult: 0.0
		decay_mult: 0.0
	}
	batch_norm_param {
		use_global_stats: true
	}
}

layer {
	bottom: "l_res4a_branch2a"
	top: "l_res4a_branch2a"
	name: "l_scale4a_branch2a"
	type: "Scale"
	param {
		name: "scale4a_branch2a_1"
		lr_mult: 0.0
		decay_mult: 0.0
	}
	param {
		name: "scale4a_branch2a_2"
		lr_mult: 0.0
		decay_mult: 0.0
	}
	scale_param {
		bias_term: true
	}
}

layer {
	top: "l_res4a_branch2a"
	bottom: "l_res4a_branch2a"
	name: "l_res4a_branch2a_relu"
	type: "ReLU"
}

layer {
	bottom: "l_res4a_branch2a"
	top: "l_res4a_branch2b"
	name: "l_res4a_branch2b"
	type: "Convolution"
	param {
		name: "res4a_branch2b_w"
		lr_mult: 0.0
		decay_mult: 0.0
	}
	convolution_param {
		num_output: 256
		kernel_size: 3
		pad: 1
		stride: 1
		bias_term: false
	}
}

layer {
	bottom: "l_res4a_branch2b"
	top: "l_res4a_branch2b"
	name: "l_bn4a_branch2b"
	type: "BatchNorm"
	param {
		name: "bn4a_branch2b_1"
		lr_mult: 0.0
		decay_mult: 0.0
	}
	param {
		name: "bn4a_branch2b_2"
		lr_mult: 0.0
		decay_mult: 0.0
	}
	param {
		name: "bn4a_branch2b_3"
		lr_mult: 0.0
		decay_mult: 0.0
	}
	batch_norm_param {
		use_global_stats: true
	}
}

layer {
	bottom: "l_res4a_branch2b"
	top: "l_res4a_branch2b"
	name: "l_scale4a_branch2b"
	type: "Scale"
	param {
		name: "scale4a_branch2b_1"
		lr_mult: 0.0
		decay_mult: 0.0
	}
	param {
		name: "scale4a_branch2b_2"
		lr_mult: 0.0
		decay_mult: 0.0
	}
	scale_param {
		bias_term: true
	}
}

layer {
	top: "l_res4a_branch2b"
	bottom: "l_res4a_branch2b"
	name: "l_res4a_branch2b_relu"
	type: "ReLU"
}

layer {
	bottom: "l_res4a_branch2b"
	top: "l_res4a_branch2c"
	name: "l_res4a_branch2c"
	type: "Convolution"
	param {
		name: "res4a_branch2c_w"
		lr_mult: 0.0
		decay_mult: 0.0
	}
	convolution_param {
		num_output: 1024
		kernel_size: 1
		pad: 0
		stride: 1
		bias_term: false
	}
}

layer {
	bottom: "l_res4a_branch2c"
	top: "l_res4a_branch2c"
	name: "l_bn4a_branch2c"
	type: "BatchNorm"
	param {
		name: "bn4a_branch2c_1"
		lr_mult: 0.0
		decay_mult: 0.0
	}
	param {
		name: "bn4a_branch2c_2"
		lr_mult: 0.0
		decay_mult: 0.0
	}
	param {
		name: "bn4a_branch2c_3"
		lr_mult: 0.0
		decay_mult: 0.0
	}
	batch_norm_param {
		use_global_stats: true
	}
}

layer {
	bottom: "l_res4a_branch2c"
	top: "l_res4a_branch2c"
	name: "l_scale4a_branch2c"
	type: "Scale"
	param {
		name: "scale4a_branch2c_1"
		lr_mult: 0.0
		decay_mult: 0.0
	}
	param {
		name: "scale4a_branch2c_2"
		lr_mult: 0.0
		decay_mult: 0.0
	}
	scale_param {
		bias_term: true
	}
}

layer {
	bottom: "l_res4a_branch1"
	bottom: "l_res4a_branch2c"
	top: "l_res4a"
	name: "l_res4a"
	type: "Eltwise"
}

layer {
	bottom: "l_res4a"
	top: "l_res4a"
	name: "l_res4a_relu"
	type: "ReLU"
}

layer {
	bottom: "l_res4a"
	top: "l_res4b1_branch2a"
	name: "l_res4b1_branch2a"
	type: "Convolution"
	param {
		name: "res4b1_branch2a_w"
		lr_mult: 0.0
		decay_mult: 0.0
	}
	convolution_param {
		num_output: 256
		kernel_size: 1
		pad: 0
		stride: 1
		bias_term: false
	}
}

layer {
	bottom: "l_res4b1_branch2a"
	top: "l_res4b1_branch2a"
	name: "l_bn4b1_branch2a"
	type: "BatchNorm"
	param {
		name: "bn4b1_branch2a_1"
		lr_mult: 0.0
		decay_mult: 0.0
	}
	param {
		name: "bn4b1_branch2a_2"
		lr_mult: 0.0
		decay_mult: 0.0
	}
	param {
		name: "bn4b1_branch2a_3"
		lr_mult: 0.0
		decay_mult: 0.0
	}
	batch_norm_param {
		use_global_stats: true
	}
}

layer {
	bottom: "l_res4b1_branch2a"
	top: "l_res4b1_branch2a"
	name: "l_scale4b1_branch2a"
	type: "Scale"
	param {
		name: "scale4b1_branch2a_1"
		lr_mult: 0.0
		decay_mult: 0.0
	}
	param {
		name: "scale4b1_branch2a_2"
		lr_mult: 0.0
		decay_mult: 0.0
	}
	scale_param {
		bias_term: true
	}
}

layer {
	top: "l_res4b1_branch2a"
	bottom: "l_res4b1_branch2a"
	name: "l_res4b1_branch2a_relu"
	type: "ReLU"
}

layer {
	bottom: "l_res4b1_branch2a"
	top: "l_res4b1_branch2b"
	name: "l_res4b1_branch2b"
	type: "Convolution"
	param {
		name: "res4b1_branch2b_w"
		lr_mult: 0.0
		decay_mult: 0.0
	}
	convolution_param {
		num_output: 256
		kernel_size: 3
		pad: 1
		stride: 1
		bias_term: false
	}
}

layer {
	bottom: "l_res4b1_branch2b"
	top: "l_res4b1_branch2b"
	name: "l_bn4b1_branch2b"
	type: "BatchNorm"
	param {
		name: "bn4b1_branch2b_1"
		lr_mult: 0.0
		decay_mult: 0.0
	}
	param {
		name: "bn4b1_branch2b_2"
		lr_mult: 0.0
		decay_mult: 0.0
	}
	param {
		name: "bn4b1_branch2b_3"
		lr_mult: 0.0
		decay_mult: 0.0
	}
	batch_norm_param {
		use_global_stats: true
	}
}

layer {
	bottom: "l_res4b1_branch2b"
	top: "l_res4b1_branch2b"
	name: "l_scale4b1_branch2b"
	type: "Scale"
	param {
		name: "scale4b1_branch2b_1"
		lr_mult: 0.0
		decay_mult: 0.0
	}
	param {
		name: "scale4b1_branch2b_2"
		lr_mult: 0.0
		decay_mult: 0.0
	}
	scale_param {
		bias_term: true
	}
}

layer {
	top: "l_res4b1_branch2b"
	bottom: "l_res4b1_branch2b"
	name: "l_res4b1_branch2b_relu"
	type: "ReLU"
}

layer {
	bottom: "l_res4b1_branch2b"
	top: "l_res4b1_branch2c"
	name: "l_res4b1_branch2c"
	type: "Convolution"
	param {
		name: "res4b1_branch2c_w"
		lr_mult: 0.0
		decay_mult: 0.0
	}
	convolution_param {
		num_output: 1024
		kernel_size: 1
		pad: 0
		stride: 1
		bias_term: false
	}
}

layer {
	bottom: "l_res4b1_branch2c"
	top: "l_res4b1_branch2c"
	name: "l_bn4b1_branch2c"
	type: "BatchNorm"
	param {
		name: "bn4b1_branch2c_1"
		lr_mult: 0.0
		decay_mult: 0.0
	}
	param {
		name: "bn4b1_branch2c_2"
		lr_mult: 0.0
		decay_mult: 0.0
	}
	param {
		name: "bn4b1_branch2c_3"
		lr_mult: 0.0
		decay_mult: 0.0
	}
	batch_norm_param {
		use_global_stats: true
	}
}

layer {
	bottom: "l_res4b1_branch2c"
	top: "l_res4b1_branch2c"
	name: "l_scale4b1_branch2c"
	type: "Scale"
	param {
		name: "scale4b1_branch2c_1"
		lr_mult: 0.0
		decay_mult: 0.0
	}
	param {
		name: "scale4b1_branch2c_2"
		lr_mult: 0.0
		decay_mult: 0.0
	}
	scale_param {
		bias_term: true
	}
}

layer {
	bottom: "l_res4a"
	bottom: "l_res4b1_branch2c"
	top: "l_res4b1"
	name: "l_res4b1"
	type: "Eltwise"
}

layer {
	bottom: "l_res4b1"
	top: "l_res4b1"
	name: "l_res4b1_relu"
	type: "ReLU"
}

layer {
	bottom: "l_res4b1"
	top: "l_res4b2_branch2a"
	name: "l_res4b2_branch2a"
	type: "Convolution"
	param {
		name: "res4b2_branch2a_w"
		lr_mult: 0.0
		decay_mult: 0.0
	}
	convolution_param {
		num_output: 256
		kernel_size: 1
		pad: 0
		stride: 1
		bias_term: false
	}
}

layer {
	bottom: "l_res4b2_branch2a"
	top: "l_res4b2_branch2a"
	name: "l_bn4b2_branch2a"
	type: "BatchNorm"
	param {
		name: "bn4b2_branch2a_1"
		lr_mult: 0.0
		decay_mult: 0.0
	}
	param {
		name: "bn4b2_branch2a_2"
		lr_mult: 0.0
		decay_mult: 0.0
	}
	param {
		name: "bn4b2_branch2a_3"
		lr_mult: 0.0
		decay_mult: 0.0
	}
	batch_norm_param {
		use_global_stats: true
	}
}

layer {
	bottom: "l_res4b2_branch2a"
	top: "l_res4b2_branch2a"
	name: "l_scale4b2_branch2a"
	type: "Scale"
	param {
		name: "scale4b2_branch2a_1"
		lr_mult: 0.0
		decay_mult: 0.0
	}
	param {
		name: "scale4b2_branch2a_2"
		lr_mult: 0.0
		decay_mult: 0.0
	}
	scale_param {
		bias_term: true
	}
}

layer {
	top: "l_res4b2_branch2a"
	bottom: "l_res4b2_branch2a"
	name: "l_res4b2_branch2a_relu"
	type: "ReLU"
}

layer {
	bottom: "l_res4b2_branch2a"
	top: "l_res4b2_branch2b"
	name: "l_res4b2_branch2b"
	type: "Convolution"
	param {
		name: "res4b2_branch2b_w"
		lr_mult: 0.0
		decay_mult: 0.0
	}
	convolution_param {
		num_output: 256
		kernel_size: 3
		pad: 1
		stride: 1
		bias_term: false
	}
}

layer {
	bottom: "l_res4b2_branch2b"
	top: "l_res4b2_branch2b"
	name: "l_bn4b2_branch2b"
	type: "BatchNorm"
	param {
		name: "bn4b2_branch2b_1"
		lr_mult: 0.0
		decay_mult: 0.0
	}
	param {
		name: "bn4b2_branch2b_2"
		lr_mult: 0.0
		decay_mult: 0.0
	}
	param {
		name: "bn4b2_branch2b_3"
		lr_mult: 0.0
		decay_mult: 0.0
	}
	batch_norm_param {
		use_global_stats: true
	}
}

layer {
	bottom: "l_res4b2_branch2b"
	top: "l_res4b2_branch2b"
	name: "l_scale4b2_branch2b"
	type: "Scale"
	param {
		name: "scale4b2_branch2b_1"
		lr_mult: 0.0
		decay_mult: 0.0
	}
	param {
		name: "scale4b2_branch2b_2"
		lr_mult: 0.0
		decay_mult: 0.0
	}
	scale_param {
		bias_term: true
	}
}

layer {
	top: "l_res4b2_branch2b"
	bottom: "l_res4b2_branch2b"
	name: "l_res4b2_branch2b_relu"
	type: "ReLU"
}

layer {
	bottom: "l_res4b2_branch2b"
	top: "l_res4b2_branch2c"
	name: "l_res4b2_branch2c"
	type: "Convolution"
	param {
		name: "res4b2_branch2c_w"
		lr_mult: 0.0
		decay_mult: 0.0
	}
	convolution_param {
		num_output: 1024
		kernel_size: 1
		pad: 0
		stride: 1
		bias_term: false
	}
}

layer {
	bottom: "l_res4b2_branch2c"
	top: "l_res4b2_branch2c"
	name: "l_bn4b2_branch2c"
	type: "BatchNorm"
	param {
		name: "bn4b2_branch2c_1"
		lr_mult: 0.0
		decay_mult: 0.0
	}
	param {
		name: "bn4b2_branch2c_2"
		lr_mult: 0.0
		decay_mult: 0.0
	}
	param {
		name: "bn4b2_branch2c_3"
		lr_mult: 0.0
		decay_mult: 0.0
	}
	batch_norm_param {
		use_global_stats: true
	}
}

layer {
	bottom: "l_res4b2_branch2c"
	top: "l_res4b2_branch2c"
	name: "l_scale4b2_branch2c"
	type: "Scale"
	param {
		name: "scale4b2_branch2c_1"
		lr_mult: 0.0
		decay_mult: 0.0
	}
	param {
		name: "scale4b2_branch2c_2"
		lr_mult: 0.0
		decay_mult: 0.0
	}
	scale_param {
		bias_term: true
	}
}

layer {
	bottom: "l_res4b1"
	bottom: "l_res4b2_branch2c"
	top: "l_res4b2"
	name: "l_res4b2"
	type: "Eltwise"
}

layer {
	bottom: "l_res4b2"
	top: "l_res4b2"
	name: "l_res4b2_relu"
	type: "ReLU"
}

layer {
	bottom: "l_res4b2"
	top: "l_res4b3_branch2a"
	name: "l_res4b3_branch2a"
	type: "Convolution"
	param {
		name: "res4b3_branch2a_w"
		lr_mult: 0.0
		decay_mult: 0.0
	}
	convolution_param {
		num_output: 256
		kernel_size: 1
		pad: 0
		stride: 1
		bias_term: false
	}
}

layer {
	bottom: "l_res4b3_branch2a"
	top: "l_res4b3_branch2a"
	name: "l_bn4b3_branch2a"
	type: "BatchNorm"
	param {
		name: "bn4b3_branch2a_1"
		lr_mult: 0.0
		decay_mult: 0.0
	}
	param {
		name: "bn4b3_branch2a_2"
		lr_mult: 0.0
		decay_mult: 0.0
	}
	param {
		name: "bn4b3_branch2a_3"
		lr_mult: 0.0
		decay_mult: 0.0
	}
	batch_norm_param {
		use_global_stats: true
	}
}

layer {
	bottom: "l_res4b3_branch2a"
	top: "l_res4b3_branch2a"
	name: "l_scale4b3_branch2a"
	type: "Scale"
	param {
		name: "scale4b3_branch2a_1"
		lr_mult: 0.0
		decay_mult: 0.0
	}
	param {
		name: "scale4b3_branch2a_2"
		lr_mult: 0.0
		decay_mult: 0.0
	}
	scale_param {
		bias_term: true
	}
}

layer {
	top: "l_res4b3_branch2a"
	bottom: "l_res4b3_branch2a"
	name: "l_res4b3_branch2a_relu"
	type: "ReLU"
}

layer {
	bottom: "l_res4b3_branch2a"
	top: "l_res4b3_branch2b"
	name: "l_res4b3_branch2b"
	type: "Convolution"
	param {
		name: "res4b3_branch2b_w"
		lr_mult: 0.0
		decay_mult: 0.0
	}
	convolution_param {
		num_output: 256
		kernel_size: 3
		pad: 1
		stride: 1
		bias_term: false
	}
}

layer {
	bottom: "l_res4b3_branch2b"
	top: "l_res4b3_branch2b"
	name: "l_bn4b3_branch2b"
	type: "BatchNorm"
	param {
		name: "bn4b3_branch2b_1"
		lr_mult: 0.0
		decay_mult: 0.0
	}
	param {
		name: "bn4b3_branch2b_2"
		lr_mult: 0.0
		decay_mult: 0.0
	}
	param {
		name: "bn4b3_branch2b_3"
		lr_mult: 0.0
		decay_mult: 0.0
	}
	batch_norm_param {
		use_global_stats: true
	}
}

layer {
	bottom: "l_res4b3_branch2b"
	top: "l_res4b3_branch2b"
	name: "l_scale4b3_branch2b"
	type: "Scale"
	param {
		name: "scale4b3_branch2b_1"
		lr_mult: 0.0
		decay_mult: 0.0
	}
	param {
		name: "scale4b3_branch2b_2"
		lr_mult: 0.0
		decay_mult: 0.0
	}
	scale_param {
		bias_term: true
	}
}

layer {
	top: "l_res4b3_branch2b"
	bottom: "l_res4b3_branch2b"
	name: "l_res4b3_branch2b_relu"
	type: "ReLU"
}

layer {
	bottom: "l_res4b3_branch2b"
	top: "l_res4b3_branch2c"
	name: "l_res4b3_branch2c"
	type: "Convolution"
	param {
		name: "res4b3_branch2c_w"
		lr_mult: 0.0
		decay_mult: 0.0
	}
	convolution_param {
		num_output: 1024
		kernel_size: 1
		pad: 0
		stride: 1
		bias_term: false
	}
}

layer {
	bottom: "l_res4b3_branch2c"
	top: "l_res4b3_branch2c"
	name: "l_bn4b3_branch2c"
	type: "BatchNorm"
	param {
		name: "bn4b3_branch2c_1"
		lr_mult: 0.0
		decay_mult: 0.0
	}
	param {
		name: "bn4b3_branch2c_2"
		lr_mult: 0.0
		decay_mult: 0.0
	}
	param {
		name: "bn4b3_branch2c_3"
		lr_mult: 0.0
		decay_mult: 0.0
	}
	batch_norm_param {
		use_global_stats: true
	}
}

layer {
	bottom: "l_res4b3_branch2c"
	top: "l_res4b3_branch2c"
	name: "l_scale4b3_branch2c"
	type: "Scale"
	param {
		name: "scale4b3_branch2c_1"
		lr_mult: 0.0
		decay_mult: 0.0
	}
	param {
		name: "scale4b3_branch2c_2"
		lr_mult: 0.0
		decay_mult: 0.0
	}
	scale_param {
		bias_term: true
	}
}

layer {
	bottom: "l_res4b2"
	bottom: "l_res4b3_branch2c"
	top: "l_res4b3"
	name: "l_res4b3"
	type: "Eltwise"
}

layer {
	bottom: "l_res4b3"
	top: "l_res4b3"
	name: "l_res4b3_relu"
	type: "ReLU"
}

layer {
	bottom: "l_res4b3"
	top: "l_res4b4_branch2a"
	name: "l_res4b4_branch2a"
	type: "Convolution"
	param {
		name: "res4b4_branch2a_w"
		lr_mult: 0.0
		decay_mult: 0.0
	}
	convolution_param {
		num_output: 256
		kernel_size: 1
		pad: 0
		stride: 1
		bias_term: false
	}
}

layer {
	bottom: "l_res4b4_branch2a"
	top: "l_res4b4_branch2a"
	name: "l_bn4b4_branch2a"
	type: "BatchNorm"
	param {
		name: "bn4b4_branch2a_1"
		lr_mult: 0.0
		decay_mult: 0.0
	}
	param {
		name: "bn4b4_branch2a_2"
		lr_mult: 0.0
		decay_mult: 0.0
	}
	param {
		name: "bn4b4_branch2a_3"
		lr_mult: 0.0
		decay_mult: 0.0
	}
	batch_norm_param {
		use_global_stats: true
	}
}

layer {
	bottom: "l_res4b4_branch2a"
	top: "l_res4b4_branch2a"
	name: "l_scale4b4_branch2a"
	type: "Scale"
	param {
		name: "scale4b4_branch2a_1"
		lr_mult: 0.0
		decay_mult: 0.0
	}
	param {
		name: "scale4b4_branch2a_2"
		lr_mult: 0.0
		decay_mult: 0.0
	}
	scale_param {
		bias_term: true
	}
}

layer {
	top: "l_res4b4_branch2a"
	bottom: "l_res4b4_branch2a"
	name: "l_res4b4_branch2a_relu"
	type: "ReLU"
}

layer {
	bottom: "l_res4b4_branch2a"
	top: "l_res4b4_branch2b"
	name: "l_res4b4_branch2b"
	type: "Convolution"
	param {
		name: "res4b4_branch2b_w"
		lr_mult: 0.0
		decay_mult: 0.0
	}
	convolution_param {
		num_output: 256
		kernel_size: 3
		pad: 1
		stride: 1
		bias_term: false
	}
}

layer {
	bottom: "l_res4b4_branch2b"
	top: "l_res4b4_branch2b"
	name: "l_bn4b4_branch2b"
	type: "BatchNorm"
	param {
		name: "bn4b4_branch2b_1"
		lr_mult: 0.0
		decay_mult: 0.0
	}
	param {
		name: "bn4b4_branch2b_2"
		lr_mult: 0.0
		decay_mult: 0.0
	}
	param {
		name: "bn4b4_branch2b_3"
		lr_mult: 0.0
		decay_mult: 0.0
	}
	batch_norm_param {
		use_global_stats: true
	}
}

layer {
	bottom: "l_res4b4_branch2b"
	top: "l_res4b4_branch2b"
	name: "l_scale4b4_branch2b"
	type: "Scale"
	param {
		name: "scale4b4_branch2b_1"
		lr_mult: 0.0
		decay_mult: 0.0
	}
	param {
		name: "scale4b4_branch2b_2"
		lr_mult: 0.0
		decay_mult: 0.0
	}
	scale_param {
		bias_term: true
	}
}

layer {
	top: "l_res4b4_branch2b"
	bottom: "l_res4b4_branch2b"
	name: "l_res4b4_branch2b_relu"
	type: "ReLU"
}

layer {
	bottom: "l_res4b4_branch2b"
	top: "l_res4b4_branch2c"
	name: "l_res4b4_branch2c"
	type: "Convolution"
	param {
		name: "res4b4_branch2c_w"
		lr_mult: 0.0
		decay_mult: 0.0
	}
	convolution_param {
		num_output: 1024
		kernel_size: 1
		pad: 0
		stride: 1
		bias_term: false
	}
}

layer {
	bottom: "l_res4b4_branch2c"
	top: "l_res4b4_branch2c"
	name: "l_bn4b4_branch2c"
	type: "BatchNorm"
	param {
		name: "bn4b4_branch2c_1"
		lr_mult: 0.0
		decay_mult: 0.0
	}
	param {
		name: "bn4b4_branch2c_2"
		lr_mult: 0.0
		decay_mult: 0.0
	}
	param {
		name: "bn4b4_branch2c_3"
		lr_mult: 0.0
		decay_mult: 0.0
	}
	batch_norm_param {
		use_global_stats: true
	}
}

layer {
	bottom: "l_res4b4_branch2c"
	top: "l_res4b4_branch2c"
	name: "l_scale4b4_branch2c"
	type: "Scale"
	param {
		name: "scale4b4_branch2c_1"
		lr_mult: 0.0
		decay_mult: 0.0
	}
	param {
		name: "scale4b4_branch2c_2"
		lr_mult: 0.0
		decay_mult: 0.0
	}
	scale_param {
		bias_term: true
	}
}

layer {
	bottom: "l_res4b3"
	bottom: "l_res4b4_branch2c"
	top: "l_res4b4"
	name: "l_res4b4"
	type: "Eltwise"
}

layer {
	bottom: "l_res4b4"
	top: "l_res4b4"
	name: "l_res4b4_relu"
	type: "ReLU"
}

layer {
	bottom: "l_res4b4"
	top: "l_res4b5_branch2a"
	name: "l_res4b5_branch2a"
	type: "Convolution"
	param {
		name: "res4b5_branch2a_w"
		lr_mult: 0.0
		decay_mult: 0.0
	}
	convolution_param {
		num_output: 256
		kernel_size: 1
		pad: 0
		stride: 1
		bias_term: false
	}
}

layer {
	bottom: "l_res4b5_branch2a"
	top: "l_res4b5_branch2a"
	name: "l_bn4b5_branch2a"
	type: "BatchNorm"
	param {
		name: "bn4b5_branch2a_1"
		lr_mult: 0.0
		decay_mult: 0.0
	}
	param {
		name: "bn4b5_branch2a_2"
		lr_mult: 0.0
		decay_mult: 0.0
	}
	param {
		name: "bn4b5_branch2a_3"
		lr_mult: 0.0
		decay_mult: 0.0
	}
	batch_norm_param {
		use_global_stats: true
	}
}

layer {
	bottom: "l_res4b5_branch2a"
	top: "l_res4b5_branch2a"
	name: "l_scale4b5_branch2a"
	type: "Scale"
	param {
		name: "scale4b5_branch2a_1"
		lr_mult: 0.0
		decay_mult: 0.0
	}
	param {
		name: "scale4b5_branch2a_2"
		lr_mult: 0.0
		decay_mult: 0.0
	}
	scale_param {
		bias_term: true
	}
}

layer {
	top: "l_res4b5_branch2a"
	bottom: "l_res4b5_branch2a"
	name: "l_res4b5_branch2a_relu"
	type: "ReLU"
}

layer {
	bottom: "l_res4b5_branch2a"
	top: "l_res4b5_branch2b"
	name: "l_res4b5_branch2b"
	type: "Convolution"
	param {
		name: "res4b5_branch2b_w"
		lr_mult: 0.0
		decay_mult: 0.0
	}
	convolution_param {
		num_output: 256
		kernel_size: 3
		pad: 1
		stride: 1
		bias_term: false
	}
}

layer {
	bottom: "l_res4b5_branch2b"
	top: "l_res4b5_branch2b"
	name: "l_bn4b5_branch2b"
	type: "BatchNorm"
	param {
		name: "bn4b5_branch2b_1"
		lr_mult: 0.0
		decay_mult: 0.0
	}
	param {
		name: "bn4b5_branch2b_2"
		lr_mult: 0.0
		decay_mult: 0.0
	}
	param {
		name: "bn4b5_branch2b_3"
		lr_mult: 0.0
		decay_mult: 0.0
	}
	batch_norm_param {
		use_global_stats: true
	}
}

layer {
	bottom: "l_res4b5_branch2b"
	top: "l_res4b5_branch2b"
	name: "l_scale4b5_branch2b"
	type: "Scale"
	param {
		name: "scale4b5_branch2b_1"
		lr_mult: 0.0
		decay_mult: 0.0
	}
	param {
		name: "scale4b5_branch2b_2"
		lr_mult: 0.0
		decay_mult: 0.0
	}
	scale_param {
		bias_term: true
	}
}

layer {
	top: "l_res4b5_branch2b"
	bottom: "l_res4b5_branch2b"
	name: "l_res4b5_branch2b_relu"
	type: "ReLU"
}

layer {
	bottom: "l_res4b5_branch2b"
	top: "l_res4b5_branch2c"
	name: "l_res4b5_branch2c"
	type: "Convolution"
	param {
		name: "res4b5_branch2c_w"
		lr_mult: 0.0
		decay_mult: 0.0
	}
	convolution_param {
		num_output: 1024
		kernel_size: 1
		pad: 0
		stride: 1
		bias_term: false
	}
}

layer {
	bottom: "l_res4b5_branch2c"
	top: "l_res4b5_branch2c"
	name: "l_bn4b5_branch2c"
	type: "BatchNorm"
	param {
		name: "bn4b5_branch2c_1"
		lr_mult: 0.0
		decay_mult: 0.0
	}
	param {
		name: "bn4b5_branch2c_2"
		lr_mult: 0.0
		decay_mult: 0.0
	}
	param {
		name: "bn4b5_branch2c_3"
		lr_mult: 0.0
		decay_mult: 0.0
	}
	batch_norm_param {
		use_global_stats: true
	}
}

layer {
	bottom: "l_res4b5_branch2c"
	top: "l_res4b5_branch2c"
	name: "l_scale4b5_branch2c"
	type: "Scale"
	param {
		name: "scale4b5_branch2c_1"
		lr_mult: 0.0
		decay_mult: 0.0
	}
	param {
		name: "scale4b5_branch2c_2"
		lr_mult: 0.0
		decay_mult: 0.0
	}
	scale_param {
		bias_term: true
	}
}

layer {
	bottom: "l_res4b4"
	bottom: "l_res4b5_branch2c"
	top: "l_res4b5"
	name: "l_res4b5"
	type: "Eltwise"
}

layer {
	bottom: "l_res4b5"
	top: "l_res4b5"
	name: "l_res4b5_relu"
	type: "ReLU"
}

layer {
	bottom: "l_res4b5"
	top: "l_res4b6_branch2a"
	name: "l_res4b6_branch2a"
	type: "Convolution"
	param {
		name: "res4b6_branch2a_w"
		lr_mult: 0.0
		decay_mult: 0.0
	}
	convolution_param {
		num_output: 256
		kernel_size: 1
		pad: 0
		stride: 1
		bias_term: false
	}
}

layer {
	bottom: "l_res4b6_branch2a"
	top: "l_res4b6_branch2a"
	name: "l_bn4b6_branch2a"
	type: "BatchNorm"
	param {
		name: "bn4b6_branch2a_1"
		lr_mult: 0.0
		decay_mult: 0.0
	}
	param {
		name: "bn4b6_branch2a_2"
		lr_mult: 0.0
		decay_mult: 0.0
	}
	param {
		name: "bn4b6_branch2a_3"
		lr_mult: 0.0
		decay_mult: 0.0
	}
	batch_norm_param {
		use_global_stats: true
	}
}

layer {
	bottom: "l_res4b6_branch2a"
	top: "l_res4b6_branch2a"
	name: "l_scale4b6_branch2a"
	type: "Scale"
	param {
		name: "scale4b6_branch2a_1"
		lr_mult: 0.0
		decay_mult: 0.0
	}
	param {
		name: "scale4b6_branch2a_2"
		lr_mult: 0.0
		decay_mult: 0.0
	}
	scale_param {
		bias_term: true
	}
}

layer {
	top: "l_res4b6_branch2a"
	bottom: "l_res4b6_branch2a"
	name: "l_res4b6_branch2a_relu"
	type: "ReLU"
}

layer {
	bottom: "l_res4b6_branch2a"
	top: "l_res4b6_branch2b"
	name: "l_res4b6_branch2b"
	type: "Convolution"
	param {
		name: "res4b6_branch2b_w"
		lr_mult: 0.0
		decay_mult: 0.0
	}
	convolution_param {
		num_output: 256
		kernel_size: 3
		pad: 1
		stride: 1
		bias_term: false
	}
}

layer {
	bottom: "l_res4b6_branch2b"
	top: "l_res4b6_branch2b"
	name: "l_bn4b6_branch2b"
	type: "BatchNorm"
	param {
		name: "bn4b6_branch2b_1"
		lr_mult: 0.0
		decay_mult: 0.0
	}
	param {
		name: "bn4b6_branch2b_2"
		lr_mult: 0.0
		decay_mult: 0.0
	}
	param {
		name: "bn4b6_branch2b_3"
		lr_mult: 0.0
		decay_mult: 0.0
	}
	batch_norm_param {
		use_global_stats: true
	}
}

layer {
	bottom: "l_res4b6_branch2b"
	top: "l_res4b6_branch2b"
	name: "l_scale4b6_branch2b"
	type: "Scale"
	param {
		name: "scale4b6_branch2b_1"
		lr_mult: 0.0
		decay_mult: 0.0
	}
	param {
		name: "scale4b6_branch2b_2"
		lr_mult: 0.0
		decay_mult: 0.0
	}
	scale_param {
		bias_term: true
	}
}

layer {
	top: "l_res4b6_branch2b"
	bottom: "l_res4b6_branch2b"
	name: "l_res4b6_branch2b_relu"
	type: "ReLU"
}

layer {
	bottom: "l_res4b6_branch2b"
	top: "l_res4b6_branch2c"
	name: "l_res4b6_branch2c"
	type: "Convolution"
	param {
		name: "res4b6_branch2c_w"
		lr_mult: 0.0
		decay_mult: 0.0
	}
	convolution_param {
		num_output: 1024
		kernel_size: 1
		pad: 0
		stride: 1
		bias_term: false
	}
}

layer {
	bottom: "l_res4b6_branch2c"
	top: "l_res4b6_branch2c"
	name: "l_bn4b6_branch2c"
	type: "BatchNorm"
	param {
		name: "bn4b6_branch2c_1"
		lr_mult: 0.0
		decay_mult: 0.0
	}
	param {
		name: "bn4b6_branch2c_2"
		lr_mult: 0.0
		decay_mult: 0.0
	}
	param {
		name: "bn4b6_branch2c_3"
		lr_mult: 0.0
		decay_mult: 0.0
	}
	batch_norm_param {
		use_global_stats: true
	}
}

layer {
	bottom: "l_res4b6_branch2c"
	top: "l_res4b6_branch2c"
	name: "l_scale4b6_branch2c"
	type: "Scale"
	param {
		name: "scale4b6_branch2c_1"
		lr_mult: 0.0
		decay_mult: 0.0
	}
	param {
		name: "scale4b6_branch2c_2"
		lr_mult: 0.0
		decay_mult: 0.0
	}
	scale_param {
		bias_term: true
	}
}

layer {
	bottom: "l_res4b5"
	bottom: "l_res4b6_branch2c"
	top: "l_res4b6"
	name: "l_res4b6"
	type: "Eltwise"
}

layer {
	bottom: "l_res4b6"
	top: "l_res4b6"
	name: "l_res4b6_relu"
	type: "ReLU"
}

layer {
	bottom: "l_res4b6"
	top: "l_res4b7_branch2a"
	name: "l_res4b7_branch2a"
	type: "Convolution"
	param {
		name: "res4b7_branch2a_w"
		lr_mult: 0.0
		decay_mult: 0.0
	}
	convolution_param {
		num_output: 256
		kernel_size: 1
		pad: 0
		stride: 1
		bias_term: false
	}
}

layer {
	bottom: "l_res4b7_branch2a"
	top: "l_res4b7_branch2a"
	name: "l_bn4b7_branch2a"
	type: "BatchNorm"
	param {
		name: "bn4b7_branch2a_1"
		lr_mult: 0.0
		decay_mult: 0.0
	}
	param {
		name: "bn4b7_branch2a_2"
		lr_mult: 0.0
		decay_mult: 0.0
	}
	param {
		name: "bn4b7_branch2a_3"
		lr_mult: 0.0
		decay_mult: 0.0
	}
	batch_norm_param {
		use_global_stats: true
	}
}

layer {
	bottom: "l_res4b7_branch2a"
	top: "l_res4b7_branch2a"
	name: "l_scale4b7_branch2a"
	type: "Scale"
	param {
		name: "scale4b7_branch2a_1"
		lr_mult: 0.0
		decay_mult: 0.0
	}
	param {
		name: "scale4b7_branch2a_2"
		lr_mult: 0.0
		decay_mult: 0.0
	}
	scale_param {
		bias_term: true
	}
}

layer {
	top: "l_res4b7_branch2a"
	bottom: "l_res4b7_branch2a"
	name: "l_res4b7_branch2a_relu"
	type: "ReLU"
}

layer {
	bottom: "l_res4b7_branch2a"
	top: "l_res4b7_branch2b"
	name: "l_res4b7_branch2b"
	type: "Convolution"
	param {
		name: "res4b7_branch2b_w"
		lr_mult: 0.0
		decay_mult: 0.0
	}
	convolution_param {
		num_output: 256
		kernel_size: 3
		pad: 1
		stride: 1
		bias_term: false
	}
}

layer {
	bottom: "l_res4b7_branch2b"
	top: "l_res4b7_branch2b"
	name: "l_bn4b7_branch2b"
	type: "BatchNorm"
	param {
		name: "bn4b7_branch2b_1"
		lr_mult: 0.0
		decay_mult: 0.0
	}
	param {
		name: "bn4b7_branch2b_2"
		lr_mult: 0.0
		decay_mult: 0.0
	}
	param {
		name: "bn4b7_branch2b_3"
		lr_mult: 0.0
		decay_mult: 0.0
	}
	batch_norm_param {
		use_global_stats: true
	}
}

layer {
	bottom: "l_res4b7_branch2b"
	top: "l_res4b7_branch2b"
	name: "l_scale4b7_branch2b"
	type: "Scale"
	param {
		name: "scale4b7_branch2b_1"
		lr_mult: 0.0
		decay_mult: 0.0
	}
	param {
		name: "scale4b7_branch2b_2"
		lr_mult: 0.0
		decay_mult: 0.0
	}
	scale_param {
		bias_term: true
	}
}

layer {
	top: "l_res4b7_branch2b"
	bottom: "l_res4b7_branch2b"
	name: "l_res4b7_branch2b_relu"
	type: "ReLU"
}

layer {
	bottom: "l_res4b7_branch2b"
	top: "l_res4b7_branch2c"
	name: "l_res4b7_branch2c"
	type: "Convolution"
	param {
		name: "res4b7_branch2c_w"
		lr_mult: 0.0
		decay_mult: 0.0
	}
	convolution_param {
		num_output: 1024
		kernel_size: 1
		pad: 0
		stride: 1
		bias_term: false
	}
}

layer {
	bottom: "l_res4b7_branch2c"
	top: "l_res4b7_branch2c"
	name: "l_bn4b7_branch2c"
	type: "BatchNorm"
	param {
		name: "bn4b7_branch2c_1"
		lr_mult: 0.0
		decay_mult: 0.0
	}
	param {
		name: "bn4b7_branch2c_2"
		lr_mult: 0.0
		decay_mult: 0.0
	}
	param {
		name: "bn4b7_branch2c_3"
		lr_mult: 0.0
		decay_mult: 0.0
	}
	batch_norm_param {
		use_global_stats: true
	}
}

layer {
	bottom: "l_res4b7_branch2c"
	top: "l_res4b7_branch2c"
	name: "l_scale4b7_branch2c"
	type: "Scale"
	param {
		name: "scale4b7_branch2c_1"
		lr_mult: 0.0
		decay_mult: 0.0
	}
	param {
		name: "scale4b7_branch2c_2"
		lr_mult: 0.0
		decay_mult: 0.0
	}
	scale_param {
		bias_term: true
	}
}

layer {
	bottom: "l_res4b6"
	bottom: "l_res4b7_branch2c"
	top: "l_res4b7"
	name: "l_res4b7"
	type: "Eltwise"
}

layer {
	bottom: "l_res4b7"
	top: "l_res4b7"
	name: "l_res4b7_relu"
	type: "ReLU"
}

layer {
	bottom: "l_res4b7"
	top: "l_res4b8_branch2a"
	name: "l_res4b8_branch2a"
	type: "Convolution"
	param {
		name: "res4b8_branch2a_w"
		lr_mult: 0.0
		decay_mult: 0.0
	}
	convolution_param {
		num_output: 256
		kernel_size: 1
		pad: 0
		stride: 1
		bias_term: false
	}
}

layer {
	bottom: "l_res4b8_branch2a"
	top: "l_res4b8_branch2a"
	name: "l_bn4b8_branch2a"
	type: "BatchNorm"
	param {
		name: "bn4b8_branch2a_1"
		lr_mult: 0.0
		decay_mult: 0.0
	}
	param {
		name: "bn4b8_branch2a_2"
		lr_mult: 0.0
		decay_mult: 0.0
	}
	param {
		name: "bn4b8_branch2a_3"
		lr_mult: 0.0
		decay_mult: 0.0
	}
	batch_norm_param {
		use_global_stats: true
	}
}

layer {
	bottom: "l_res4b8_branch2a"
	top: "l_res4b8_branch2a"
	name: "l_scale4b8_branch2a"
	type: "Scale"
	param {
		name: "scale4b8_branch2a_1"
		lr_mult: 0.0
		decay_mult: 0.0
	}
	param {
		name: "scale4b8_branch2a_2"
		lr_mult: 0.0
		decay_mult: 0.0
	}
	scale_param {
		bias_term: true
	}
}

layer {
	top: "l_res4b8_branch2a"
	bottom: "l_res4b8_branch2a"
	name: "l_res4b8_branch2a_relu"
	type: "ReLU"
}

layer {
	bottom: "l_res4b8_branch2a"
	top: "l_res4b8_branch2b"
	name: "l_res4b8_branch2b"
	type: "Convolution"
	param {
		name: "res4b8_branch2b_w"
		lr_mult: 0.0
		decay_mult: 0.0
	}
	convolution_param {
		num_output: 256
		kernel_size: 3
		pad: 1
		stride: 1
		bias_term: false
	}
}

layer {
	bottom: "l_res4b8_branch2b"
	top: "l_res4b8_branch2b"
	name: "l_bn4b8_branch2b"
	type: "BatchNorm"
	param {
		name: "bn4b8_branch2b_1"
		lr_mult: 0.0
		decay_mult: 0.0
	}
	param {
		name: "bn4b8_branch2b_2"
		lr_mult: 0.0
		decay_mult: 0.0
	}
	param {
		name: "bn4b8_branch2b_3"
		lr_mult: 0.0
		decay_mult: 0.0
	}
	batch_norm_param {
		use_global_stats: true
	}
}

layer {
	bottom: "l_res4b8_branch2b"
	top: "l_res4b8_branch2b"
	name: "l_scale4b8_branch2b"
	type: "Scale"
	param {
		name: "scale4b8_branch2b_1"
		lr_mult: 0.0
		decay_mult: 0.0
	}
	param {
		name: "scale4b8_branch2b_2"
		lr_mult: 0.0
		decay_mult: 0.0
	}
	scale_param {
		bias_term: true
	}
}

layer {
	top: "l_res4b8_branch2b"
	bottom: "l_res4b8_branch2b"
	name: "l_res4b8_branch2b_relu"
	type: "ReLU"
}

layer {
	bottom: "l_res4b8_branch2b"
	top: "l_res4b8_branch2c"
	name: "l_res4b8_branch2c"
	type: "Convolution"
	param {
		name: "res4b8_branch2c_w"
		lr_mult: 0.0
		decay_mult: 0.0
	}
	convolution_param {
		num_output: 1024
		kernel_size: 1
		pad: 0
		stride: 1
		bias_term: false
	}
}

layer {
	bottom: "l_res4b8_branch2c"
	top: "l_res4b8_branch2c"
	name: "l_bn4b8_branch2c"
	type: "BatchNorm"
	param {
		name: "bn4b8_branch2c_1"
		lr_mult: 0.0
		decay_mult: 0.0
	}
	param {
		name: "bn4b8_branch2c_2"
		lr_mult: 0.0
		decay_mult: 0.0
	}
	param {
		name: "bn4b8_branch2c_3"
		lr_mult: 0.0
		decay_mult: 0.0
	}
	batch_norm_param {
		use_global_stats: true
	}
}

layer {
	bottom: "l_res4b8_branch2c"
	top: "l_res4b8_branch2c"
	name: "l_scale4b8_branch2c"
	type: "Scale"
	param {
		name: "scale4b8_branch2c_1"
		lr_mult: 0.0
		decay_mult: 0.0
	}
	param {
		name: "scale4b8_branch2c_2"
		lr_mult: 0.0
		decay_mult: 0.0
	}
	scale_param {
		bias_term: true
	}
}

layer {
	bottom: "l_res4b7"
	bottom: "l_res4b8_branch2c"
	top: "l_res4b8"
	name: "l_res4b8"
	type: "Eltwise"
}

layer {
	bottom: "l_res4b8"
	top: "l_res4b8"
	name: "l_res4b8_relu"
	type: "ReLU"
}

layer {
	bottom: "l_res4b8"
	top: "l_res4b9_branch2a"
	name: "l_res4b9_branch2a"
	type: "Convolution"
	param {
		name: "res4b9_branch2a_w"
		lr_mult: 0.0
		decay_mult: 0.0
	}
	convolution_param {
		num_output: 256
		kernel_size: 1
		pad: 0
		stride: 1
		bias_term: false
	}
}

layer {
	bottom: "l_res4b9_branch2a"
	top: "l_res4b9_branch2a"
	name: "l_bn4b9_branch2a"
	type: "BatchNorm"
	param {
		name: "bn4b9_branch2a_1"
		lr_mult: 0.0
		decay_mult: 0.0
	}
	param {
		name: "bn4b9_branch2a_2"
		lr_mult: 0.0
		decay_mult: 0.0
	}
	param {
		name: "bn4b9_branch2a_3"
		lr_mult: 0.0
		decay_mult: 0.0
	}
	batch_norm_param {
		use_global_stats: true
	}
}

layer {
	bottom: "l_res4b9_branch2a"
	top: "l_res4b9_branch2a"
	name: "l_scale4b9_branch2a"
	type: "Scale"
	param {
		name: "scale4b9_branch2a_1"
		lr_mult: 0.0
		decay_mult: 0.0
	}
	param {
		name: "scale4b9_branch2a_2"
		lr_mult: 0.0
		decay_mult: 0.0
	}
	scale_param {
		bias_term: true
	}
}

layer {
	top: "l_res4b9_branch2a"
	bottom: "l_res4b9_branch2a"
	name: "l_res4b9_branch2a_relu"
	type: "ReLU"
}

layer {
	bottom: "l_res4b9_branch2a"
	top: "l_res4b9_branch2b"
	name: "l_res4b9_branch2b"
	type: "Convolution"
	param {
		name: "res4b9_branch2b_w"
		lr_mult: 0.0
		decay_mult: 0.0
	}
	convolution_param {
		num_output: 256
		kernel_size: 3
		pad: 1
		stride: 1
		bias_term: false
	}
}

layer {
	bottom: "l_res4b9_branch2b"
	top: "l_res4b9_branch2b"
	name: "l_bn4b9_branch2b"
	type: "BatchNorm"
	param {
		name: "bn4b9_branch2b_1"
		lr_mult: 0.0
		decay_mult: 0.0
	}
	param {
		name: "bn4b9_branch2b_2"
		lr_mult: 0.0
		decay_mult: 0.0
	}
	param {
		name: "bn4b9_branch2b_3"
		lr_mult: 0.0
		decay_mult: 0.0
	}
	batch_norm_param {
		use_global_stats: true
	}
}

layer {
	bottom: "l_res4b9_branch2b"
	top: "l_res4b9_branch2b"
	name: "l_scale4b9_branch2b"
	type: "Scale"
	param {
		name: "scale4b9_branch2b_1"
		lr_mult: 0.0
		decay_mult: 0.0
	}
	param {
		name: "scale4b9_branch2b_2"
		lr_mult: 0.0
		decay_mult: 0.0
	}
	scale_param {
		bias_term: true
	}
}

layer {
	top: "l_res4b9_branch2b"
	bottom: "l_res4b9_branch2b"
	name: "l_res4b9_branch2b_relu"
	type: "ReLU"
}

layer {
	bottom: "l_res4b9_branch2b"
	top: "l_res4b9_branch2c"
	name: "l_res4b9_branch2c"
	type: "Convolution"
	param {
		name: "res4b9_branch2c_w"
		lr_mult: 0.0
		decay_mult: 0.0
	}
	convolution_param {
		num_output: 1024
		kernel_size: 1
		pad: 0
		stride: 1
		bias_term: false
	}
}

layer {
	bottom: "l_res4b9_branch2c"
	top: "l_res4b9_branch2c"
	name: "l_bn4b9_branch2c"
	type: "BatchNorm"
	param {
		name: "bn4b9_branch2c_1"
		lr_mult: 0.0
		decay_mult: 0.0
	}
	param {
		name: "bn4b9_branch2c_2"
		lr_mult: 0.0
		decay_mult: 0.0
	}
	param {
		name: "bn4b9_branch2c_3"
		lr_mult: 0.0
		decay_mult: 0.0
	}
	batch_norm_param {
		use_global_stats: true
	}
}

layer {
	bottom: "l_res4b9_branch2c"
	top: "l_res4b9_branch2c"
	name: "l_scale4b9_branch2c"
	type: "Scale"
	param {
		name: "scale4b9_branch2c_1"
		lr_mult: 0.0
		decay_mult: 0.0
	}
	param {
		name: "scale4b9_branch2c_2"
		lr_mult: 0.0
		decay_mult: 0.0
	}
	scale_param {
		bias_term: true
	}
}

layer {
	bottom: "l_res4b8"
	bottom: "l_res4b9_branch2c"
	top: "l_res4b9"
	name: "l_res4b9"
	type: "Eltwise"
}

layer {
	bottom: "l_res4b9"
	top: "l_res4b9"
	name: "l_res4b9_relu"
	type: "ReLU"
}

layer {
	bottom: "l_res4b9"
	top: "l_res4b10_branch2a"
	name: "l_res4b10_branch2a"
	type: "Convolution"
	param {
		name: "res4b10_branch2a_w"
		lr_mult: 0.0
		decay_mult: 0.0
	}
	convolution_param {
		num_output: 256
		kernel_size: 1
		pad: 0
		stride: 1
		bias_term: false
	}
}

layer {
	bottom: "l_res4b10_branch2a"
	top: "l_res4b10_branch2a"
	name: "l_bn4b10_branch2a"
	type: "BatchNorm"
	param {
		name: "bn4b10_branch2a_1"
		lr_mult: 0.0
		decay_mult: 0.0
	}
	param {
		name: "bn4b10_branch2a_2"
		lr_mult: 0.0
		decay_mult: 0.0
	}
	param {
		name: "bn4b10_branch2a_3"
		lr_mult: 0.0
		decay_mult: 0.0
	}
	batch_norm_param {
		use_global_stats: true
	}
}

layer {
	bottom: "l_res4b10_branch2a"
	top: "l_res4b10_branch2a"
	name: "l_scale4b10_branch2a"
	type: "Scale"
	param {
		name: "scale4b10_branch2a_1"
		lr_mult: 0.0
		decay_mult: 0.0
	}
	param {
		name: "scale4b10_branch2a_2"
		lr_mult: 0.0
		decay_mult: 0.0
	}
	scale_param {
		bias_term: true
	}
}

layer {
	top: "l_res4b10_branch2a"
	bottom: "l_res4b10_branch2a"
	name: "l_res4b10_branch2a_relu"
	type: "ReLU"
}

layer {
	bottom: "l_res4b10_branch2a"
	top: "l_res4b10_branch2b"
	name: "l_res4b10_branch2b"
	type: "Convolution"
	param {
		name: "res4b10_branch2b_w"
		lr_mult: 0.0
		decay_mult: 0.0
	}
	convolution_param {
		num_output: 256
		kernel_size: 3
		pad: 1
		stride: 1
		bias_term: false
	}
}

layer {
	bottom: "l_res4b10_branch2b"
	top: "l_res4b10_branch2b"
	name: "l_bn4b10_branch2b"
	type: "BatchNorm"
	param {
		name: "bn4b10_branch2b_1"
		lr_mult: 0.0
		decay_mult: 0.0
	}
	param {
		name: "bn4b10_branch2b_2"
		lr_mult: 0.0
		decay_mult: 0.0
	}
	param {
		name: "bn4b10_branch2b_3"
		lr_mult: 0.0
		decay_mult: 0.0
	}
	batch_norm_param {
		use_global_stats: true
	}
}

layer {
	bottom: "l_res4b10_branch2b"
	top: "l_res4b10_branch2b"
	name: "l_scale4b10_branch2b"
	type: "Scale"
	param {
		name: "scale4b10_branch2b_1"
		lr_mult: 0.0
		decay_mult: 0.0
	}
	param {
		name: "scale4b10_branch2b_2"
		lr_mult: 0.0
		decay_mult: 0.0
	}
	scale_param {
		bias_term: true
	}
}

layer {
	top: "l_res4b10_branch2b"
	bottom: "l_res4b10_branch2b"
	name: "l_res4b10_branch2b_relu"
	type: "ReLU"
}

layer {
	bottom: "l_res4b10_branch2b"
	top: "l_res4b10_branch2c"
	name: "l_res4b10_branch2c"
	type: "Convolution"
	param {
		name: "res4b10_branch2c_w"
		lr_mult: 0.0
		decay_mult: 0.0
	}
	convolution_param {
		num_output: 1024
		kernel_size: 1
		pad: 0
		stride: 1
		bias_term: false
	}
}

layer {
	bottom: "l_res4b10_branch2c"
	top: "l_res4b10_branch2c"
	name: "l_bn4b10_branch2c"
	type: "BatchNorm"
	param {
		name: "bn4b10_branch2c_1"
		lr_mult: 0.0
		decay_mult: 0.0
	}
	param {
		name: "bn4b10_branch2c_2"
		lr_mult: 0.0
		decay_mult: 0.0
	}
	param {
		name: "bn4b10_branch2c_3"
		lr_mult: 0.0
		decay_mult: 0.0
	}
	batch_norm_param {
		use_global_stats: true
	}
}

layer {
	bottom: "l_res4b10_branch2c"
	top: "l_res4b10_branch2c"
	name: "l_scale4b10_branch2c"
	type: "Scale"
	param {
		name: "scale4b10_branch2c_1"
		lr_mult: 0.0
		decay_mult: 0.0
	}
	param {
		name: "scale4b10_branch2c_2"
		lr_mult: 0.0
		decay_mult: 0.0
	}
	scale_param {
		bias_term: true
	}
}

layer {
	bottom: "l_res4b9"
	bottom: "l_res4b10_branch2c"
	top: "l_res4b10"
	name: "l_res4b10"
	type: "Eltwise"
}

layer {
	bottom: "l_res4b10"
	top: "l_res4b10"
	name: "l_res4b10_relu"
	type: "ReLU"
}

layer {
	bottom: "l_res4b10"
	top: "l_res4b11_branch2a"
	name: "l_res4b11_branch2a"
	type: "Convolution"
	param {
		name: "res4b11_branch2a_w"
		lr_mult: 0.0
		decay_mult: 0.0
	}
	convolution_param {
		num_output: 256
		kernel_size: 1
		pad: 0
		stride: 1
		bias_term: false
	}
}

layer {
	bottom: "l_res4b11_branch2a"
	top: "l_res4b11_branch2a"
	name: "l_bn4b11_branch2a"
	type: "BatchNorm"
	param {
		name: "bn4b11_branch2a_1"
		lr_mult: 0.0
		decay_mult: 0.0
	}
	param {
		name: "bn4b11_branch2a_2"
		lr_mult: 0.0
		decay_mult: 0.0
	}
	param {
		name: "bn4b11_branch2a_3"
		lr_mult: 0.0
		decay_mult: 0.0
	}
	batch_norm_param {
		use_global_stats: true
	}
}

layer {
	bottom: "l_res4b11_branch2a"
	top: "l_res4b11_branch2a"
	name: "l_scale4b11_branch2a"
	type: "Scale"
	param {
		name: "scale4b11_branch2a_1"
		lr_mult: 0.0
		decay_mult: 0.0
	}
	param {
		name: "scale4b11_branch2a_2"
		lr_mult: 0.0
		decay_mult: 0.0
	}
	scale_param {
		bias_term: true
	}
}

layer {
	top: "l_res4b11_branch2a"
	bottom: "l_res4b11_branch2a"
	name: "l_res4b11_branch2a_relu"
	type: "ReLU"
}

layer {
	bottom: "l_res4b11_branch2a"
	top: "l_res4b11_branch2b"
	name: "l_res4b11_branch2b"
	type: "Convolution"
	param {
		name: "res4b11_branch2b_w"
		lr_mult: 0.0
		decay_mult: 0.0
	}
	convolution_param {
		num_output: 256
		kernel_size: 3
		pad: 1
		stride: 1
		bias_term: false
	}
}

layer {
	bottom: "l_res4b11_branch2b"
	top: "l_res4b11_branch2b"
	name: "l_bn4b11_branch2b"
	type: "BatchNorm"
	param {
		name: "bn4b11_branch2b_1"
		lr_mult: 0.0
		decay_mult: 0.0
	}
	param {
		name: "bn4b11_branch2b_2"
		lr_mult: 0.0
		decay_mult: 0.0
	}
	param {
		name: "bn4b11_branch2b_3"
		lr_mult: 0.0
		decay_mult: 0.0
	}
	batch_norm_param {
		use_global_stats: true
	}
}

layer {
	bottom: "l_res4b11_branch2b"
	top: "l_res4b11_branch2b"
	name: "l_scale4b11_branch2b"
	type: "Scale"
	param {
		name: "scale4b11_branch2b_1"
		lr_mult: 0.0
		decay_mult: 0.0
	}
	param {
		name: "scale4b11_branch2b_2"
		lr_mult: 0.0
		decay_mult: 0.0
	}
	scale_param {
		bias_term: true
	}
}

layer {
	top: "l_res4b11_branch2b"
	bottom: "l_res4b11_branch2b"
	name: "l_res4b11_branch2b_relu"
	type: "ReLU"
}

layer {
	bottom: "l_res4b11_branch2b"
	top: "l_res4b11_branch2c"
	name: "l_res4b11_branch2c"
	type: "Convolution"
	param {
		name: "res4b11_branch2c_w"
		lr_mult: 0.0
		decay_mult: 0.0
	}
	convolution_param {
		num_output: 1024
		kernel_size: 1
		pad: 0
		stride: 1
		bias_term: false
	}
}

layer {
	bottom: "l_res4b11_branch2c"
	top: "l_res4b11_branch2c"
	name: "l_bn4b11_branch2c"
	type: "BatchNorm"
	param {
		name: "bn4b11_branch2c_1"
		lr_mult: 0.0
		decay_mult: 0.0
	}
	param {
		name: "bn4b11_branch2c_2"
		lr_mult: 0.0
		decay_mult: 0.0
	}
	param {
		name: "bn4b11_branch2c_3"
		lr_mult: 0.0
		decay_mult: 0.0
	}
	batch_norm_param {
		use_global_stats: true
	}
}

layer {
	bottom: "l_res4b11_branch2c"
	top: "l_res4b11_branch2c"
	name: "l_scale4b11_branch2c"
	type: "Scale"
	param {
		name: "scale4b11_branch2c_1"
		lr_mult: 0.0
		decay_mult: 0.0
	}
	param {
		name: "scale4b11_branch2c_2"
		lr_mult: 0.0
		decay_mult: 0.0
	}
	scale_param {
		bias_term: true
	}
}

layer {
	bottom: "l_res4b10"
	bottom: "l_res4b11_branch2c"
	top: "l_res4b11"
	name: "l_res4b11"
	type: "Eltwise"
}

layer {
	bottom: "l_res4b11"
	top: "l_res4b11"
	name: "l_res4b11_relu"
	type: "ReLU"
}

layer {
	bottom: "l_res4b11"
	top: "l_res4b12_branch2a"
	name: "l_res4b12_branch2a"
	type: "Convolution"
	param {
		name: "res4b12_branch2a_w"
		lr_mult: 0.0
		decay_mult: 0.0
	}
	convolution_param {
		num_output: 256
		kernel_size: 1
		pad: 0
		stride: 1
		bias_term: false
	}
}

layer {
	bottom: "l_res4b12_branch2a"
	top: "l_res4b12_branch2a"
	name: "l_bn4b12_branch2a"
	type: "BatchNorm"
	param {
		name: "bn4b12_branch2a_1"
		lr_mult: 0.0
		decay_mult: 0.0
	}
	param {
		name: "bn4b12_branch2a_2"
		lr_mult: 0.0
		decay_mult: 0.0
	}
	param {
		name: "bn4b12_branch2a_3"
		lr_mult: 0.0
		decay_mult: 0.0
	}
	batch_norm_param {
		use_global_stats: true
	}
}

layer {
	bottom: "l_res4b12_branch2a"
	top: "l_res4b12_branch2a"
	name: "l_scale4b12_branch2a"
	type: "Scale"
	param {
		name: "scale4b12_branch2a_1"
		lr_mult: 0.0
		decay_mult: 0.0
	}
	param {
		name: "scale4b12_branch2a_2"
		lr_mult: 0.0
		decay_mult: 0.0
	}
	scale_param {
		bias_term: true
	}
}

layer {
	top: "l_res4b12_branch2a"
	bottom: "l_res4b12_branch2a"
	name: "l_res4b12_branch2a_relu"
	type: "ReLU"
}

layer {
	bottom: "l_res4b12_branch2a"
	top: "l_res4b12_branch2b"
	name: "l_res4b12_branch2b"
	type: "Convolution"
	param {
		name: "res4b12_branch2b_w"
		lr_mult: 0.0
		decay_mult: 0.0
	}
	convolution_param {
		num_output: 256
		kernel_size: 3
		pad: 1
		stride: 1
		bias_term: false
	}
}

layer {
	bottom: "l_res4b12_branch2b"
	top: "l_res4b12_branch2b"
	name: "l_bn4b12_branch2b"
	type: "BatchNorm"
	param {
		name: "bn4b12_branch2b_1"
		lr_mult: 0.0
		decay_mult: 0.0
	}
	param {
		name: "bn4b12_branch2b_2"
		lr_mult: 0.0
		decay_mult: 0.0
	}
	param {
		name: "bn4b12_branch2b_3"
		lr_mult: 0.0
		decay_mult: 0.0
	}
	batch_norm_param {
		use_global_stats: true
	}
}

layer {
	bottom: "l_res4b12_branch2b"
	top: "l_res4b12_branch2b"
	name: "l_scale4b12_branch2b"
	type: "Scale"
	param {
		name: "scale4b12_branch2b_1"
		lr_mult: 0.0
		decay_mult: 0.0
	}
	param {
		name: "scale4b12_branch2b_2"
		lr_mult: 0.0
		decay_mult: 0.0
	}
	scale_param {
		bias_term: true
	}
}

layer {
	top: "l_res4b12_branch2b"
	bottom: "l_res4b12_branch2b"
	name: "l_res4b12_branch2b_relu"
	type: "ReLU"
}

layer {
	bottom: "l_res4b12_branch2b"
	top: "l_res4b12_branch2c"
	name: "l_res4b12_branch2c"
	type: "Convolution"
	param {
		name: "res4b12_branch2c_w"
		lr_mult: 0.0
		decay_mult: 0.0
	}
	convolution_param {
		num_output: 1024
		kernel_size: 1
		pad: 0
		stride: 1
		bias_term: false
	}
}

layer {
	bottom: "l_res4b12_branch2c"
	top: "l_res4b12_branch2c"
	name: "l_bn4b12_branch2c"
	type: "BatchNorm"
	param {
		name: "bn4b12_branch2c_1"
		lr_mult: 0.0
		decay_mult: 0.0
	}
	param {
		name: "bn4b12_branch2c_2"
		lr_mult: 0.0
		decay_mult: 0.0
	}
	param {
		name: "bn4b12_branch2c_3"
		lr_mult: 0.0
		decay_mult: 0.0
	}
	batch_norm_param {
		use_global_stats: true
	}
}

layer {
	bottom: "l_res4b12_branch2c"
	top: "l_res4b12_branch2c"
	name: "l_scale4b12_branch2c"
	type: "Scale"
	param {
		name: "scale4b12_branch2c_1"
		lr_mult: 0.0
		decay_mult: 0.0
	}
	param {
		name: "scale4b12_branch2c_2"
		lr_mult: 0.0
		decay_mult: 0.0
	}
	scale_param {
		bias_term: true
	}
}

layer {
	bottom: "l_res4b11"
	bottom: "l_res4b12_branch2c"
	top: "l_res4b12"
	name: "l_res4b12"
	type: "Eltwise"
}

layer {
	bottom: "l_res4b12"
	top: "l_res4b12"
	name: "l_res4b12_relu"
	type: "ReLU"
}

layer {
	bottom: "l_res4b12"
	top: "l_res4b13_branch2a"
	name: "l_res4b13_branch2a"
	type: "Convolution"
	param {
		name: "res4b13_branch2a_w"
		lr_mult: 0.0
		decay_mult: 0.0
	}
	convolution_param {
		num_output: 256
		kernel_size: 1
		pad: 0
		stride: 1
		bias_term: false
	}
}

layer {
	bottom: "l_res4b13_branch2a"
	top: "l_res4b13_branch2a"
	name: "l_bn4b13_branch2a"
	type: "BatchNorm"
	param {
		name: "bn4b13_branch2a_1"
		lr_mult: 0.0
		decay_mult: 0.0
	}
	param {
		name: "bn4b13_branch2a_2"
		lr_mult: 0.0
		decay_mult: 0.0
	}
	param {
		name: "bn4b13_branch2a_3"
		lr_mult: 0.0
		decay_mult: 0.0
	}
	batch_norm_param {
		use_global_stats: true
	}
}

layer {
	bottom: "l_res4b13_branch2a"
	top: "l_res4b13_branch2a"
	name: "l_scale4b13_branch2a"
	type: "Scale"
	param {
		name: "scale4b13_branch2a_1"
		lr_mult: 0.0
		decay_mult: 0.0
	}
	param {
		name: "scale4b13_branch2a_2"
		lr_mult: 0.0
		decay_mult: 0.0
	}
	scale_param {
		bias_term: true
	}
}

layer {
	top: "l_res4b13_branch2a"
	bottom: "l_res4b13_branch2a"
	name: "l_res4b13_branch2a_relu"
	type: "ReLU"
}

layer {
	bottom: "l_res4b13_branch2a"
	top: "l_res4b13_branch2b"
	name: "l_res4b13_branch2b"
	type: "Convolution"
	param {
		name: "res4b13_branch2b_w"
		lr_mult: 0.0
		decay_mult: 0.0
	}
	convolution_param {
		num_output: 256
		kernel_size: 3
		pad: 1
		stride: 1
		bias_term: false
	}
}

layer {
	bottom: "l_res4b13_branch2b"
	top: "l_res4b13_branch2b"
	name: "l_bn4b13_branch2b"
	type: "BatchNorm"
	param {
		name: "bn4b13_branch2b_1"
		lr_mult: 0.0
		decay_mult: 0.0
	}
	param {
		name: "bn4b13_branch2b_2"
		lr_mult: 0.0
		decay_mult: 0.0
	}
	param {
		name: "bn4b13_branch2b_3"
		lr_mult: 0.0
		decay_mult: 0.0
	}
	batch_norm_param {
		use_global_stats: true
	}
}

layer {
	bottom: "l_res4b13_branch2b"
	top: "l_res4b13_branch2b"
	name: "l_scale4b13_branch2b"
	type: "Scale"
	param {
		name: "scale4b13_branch2b_1"
		lr_mult: 0.0
		decay_mult: 0.0
	}
	param {
		name: "scale4b13_branch2b_2"
		lr_mult: 0.0
		decay_mult: 0.0
	}
	scale_param {
		bias_term: true
	}
}

layer {
	top: "l_res4b13_branch2b"
	bottom: "l_res4b13_branch2b"
	name: "l_res4b13_branch2b_relu"
	type: "ReLU"
}

layer {
	bottom: "l_res4b13_branch2b"
	top: "l_res4b13_branch2c"
	name: "l_res4b13_branch2c"
	type: "Convolution"
	param {
		name: "res4b13_branch2c_w"
		lr_mult: 0.0
		decay_mult: 0.0
	}
	convolution_param {
		num_output: 1024
		kernel_size: 1
		pad: 0
		stride: 1
		bias_term: false
	}
}

layer {
	bottom: "l_res4b13_branch2c"
	top: "l_res4b13_branch2c"
	name: "l_bn4b13_branch2c"
	type: "BatchNorm"
	param {
		name: "bn4b13_branch2c_1"
		lr_mult: 0.0
		decay_mult: 0.0
	}
	param {
		name: "bn4b13_branch2c_2"
		lr_mult: 0.0
		decay_mult: 0.0
	}
	param {
		name: "bn4b13_branch2c_3"
		lr_mult: 0.0
		decay_mult: 0.0
	}
	batch_norm_param {
		use_global_stats: true
	}
}

layer {
	bottom: "l_res4b13_branch2c"
	top: "l_res4b13_branch2c"
	name: "l_scale4b13_branch2c"
	type: "Scale"
	param {
		name: "scale4b13_branch2c_1"
		lr_mult: 0.0
		decay_mult: 0.0
	}
	param {
		name: "scale4b13_branch2c_2"
		lr_mult: 0.0
		decay_mult: 0.0
	}
	scale_param {
		bias_term: true
	}
}

layer {
	bottom: "l_res4b12"
	bottom: "l_res4b13_branch2c"
	top: "l_res4b13"
	name: "l_res4b13"
	type: "Eltwise"
}

layer {
	bottom: "l_res4b13"
	top: "l_res4b13"
	name: "l_res4b13_relu"
	type: "ReLU"
}

layer {
	bottom: "l_res4b13"
	top: "l_res4b14_branch2a"
	name: "l_res4b14_branch2a"
	type: "Convolution"
	param {
		name: "res4b14_branch2a_w"
		lr_mult: 0.0
		decay_mult: 0.0
	}
	convolution_param {
		num_output: 256
		kernel_size: 1
		pad: 0
		stride: 1
		bias_term: false
	}
}

layer {
	bottom: "l_res4b14_branch2a"
	top: "l_res4b14_branch2a"
	name: "l_bn4b14_branch2a"
	type: "BatchNorm"
	param {
		name: "bn4b14_branch2a_1"
		lr_mult: 0.0
		decay_mult: 0.0
	}
	param {
		name: "bn4b14_branch2a_2"
		lr_mult: 0.0
		decay_mult: 0.0
	}
	param {
		name: "bn4b14_branch2a_3"
		lr_mult: 0.0
		decay_mult: 0.0
	}
	batch_norm_param {
		use_global_stats: true
	}
}

layer {
	bottom: "l_res4b14_branch2a"
	top: "l_res4b14_branch2a"
	name: "l_scale4b14_branch2a"
	type: "Scale"
	param {
		name: "scale4b14_branch2a_1"
		lr_mult: 0.0
		decay_mult: 0.0
	}
	param {
		name: "scale4b14_branch2a_2"
		lr_mult: 0.0
		decay_mult: 0.0
	}
	scale_param {
		bias_term: true
	}
}

layer {
	top: "l_res4b14_branch2a"
	bottom: "l_res4b14_branch2a"
	name: "l_res4b14_branch2a_relu"
	type: "ReLU"
}

layer {
	bottom: "l_res4b14_branch2a"
	top: "l_res4b14_branch2b"
	name: "l_res4b14_branch2b"
	type: "Convolution"
	param {
		name: "res4b14_branch2b_w"
		lr_mult: 0.0
		decay_mult: 0.0
	}
	convolution_param {
		num_output: 256
		kernel_size: 3
		pad: 1
		stride: 1
		bias_term: false
	}
}

layer {
	bottom: "l_res4b14_branch2b"
	top: "l_res4b14_branch2b"
	name: "l_bn4b14_branch2b"
	type: "BatchNorm"
	param {
		name: "bn4b14_branch2b_1"
		lr_mult: 0.0
		decay_mult: 0.0
	}
	param {
		name: "bn4b14_branch2b_2"
		lr_mult: 0.0
		decay_mult: 0.0
	}
	param {
		name: "bn4b14_branch2b_3"
		lr_mult: 0.0
		decay_mult: 0.0
	}
	batch_norm_param {
		use_global_stats: true
	}
}

layer {
	bottom: "l_res4b14_branch2b"
	top: "l_res4b14_branch2b"
	name: "l_scale4b14_branch2b"
	type: "Scale"
	param {
		name: "scale4b14_branch2b_1"
		lr_mult: 0.0
		decay_mult: 0.0
	}
	param {
		name: "scale4b14_branch2b_2"
		lr_mult: 0.0
		decay_mult: 0.0
	}
	scale_param {
		bias_term: true
	}
}

layer {
	top: "l_res4b14_branch2b"
	bottom: "l_res4b14_branch2b"
	name: "l_res4b14_branch2b_relu"
	type: "ReLU"
}

layer {
	bottom: "l_res4b14_branch2b"
	top: "l_res4b14_branch2c"
	name: "l_res4b14_branch2c"
	type: "Convolution"
	param {
		name: "res4b14_branch2c_w"
		lr_mult: 0.0
		decay_mult: 0.0
	}
	convolution_param {
		num_output: 1024
		kernel_size: 1
		pad: 0
		stride: 1
		bias_term: false
	}
}

layer {
	bottom: "l_res4b14_branch2c"
	top: "l_res4b14_branch2c"
	name: "l_bn4b14_branch2c"
	type: "BatchNorm"
	param {
		name: "bn4b14_branch2c_1"
		lr_mult: 0.0
		decay_mult: 0.0
	}
	param {
		name: "bn4b14_branch2c_2"
		lr_mult: 0.0
		decay_mult: 0.0
	}
	param {
		name: "bn4b14_branch2c_3"
		lr_mult: 0.0
		decay_mult: 0.0
	}
	batch_norm_param {
		use_global_stats: true
	}
}

layer {
	bottom: "l_res4b14_branch2c"
	top: "l_res4b14_branch2c"
	name: "l_scale4b14_branch2c"
	type: "Scale"
	param {
		name: "scale4b14_branch2c_1"
		lr_mult: 0.0
		decay_mult: 0.0
	}
	param {
		name: "scale4b14_branch2c_2"
		lr_mult: 0.0
		decay_mult: 0.0
	}
	scale_param {
		bias_term: true
	}
}

layer {
	bottom: "l_res4b13"
	bottom: "l_res4b14_branch2c"
	top: "l_res4b14"
	name: "l_res4b14"
	type: "Eltwise"
}

layer {
	bottom: "l_res4b14"
	top: "l_res4b14"
	name: "l_res4b14_relu"
	type: "ReLU"
}

layer {
	bottom: "l_res4b14"
	top: "l_res4b15_branch2a"
	name: "l_res4b15_branch2a"
	type: "Convolution"
	param {
		name: "res4b15_branch2a_w"
		lr_mult: 0.0
		decay_mult: 0.0
	}
	convolution_param {
		num_output: 256
		kernel_size: 1
		pad: 0
		stride: 1
		bias_term: false
	}
}

layer {
	bottom: "l_res4b15_branch2a"
	top: "l_res4b15_branch2a"
	name: "l_bn4b15_branch2a"
	type: "BatchNorm"
	param {
		name: "bn4b15_branch2a_1"
		lr_mult: 0.0
		decay_mult: 0.0
	}
	param {
		name: "bn4b15_branch2a_2"
		lr_mult: 0.0
		decay_mult: 0.0
	}
	param {
		name: "bn4b15_branch2a_3"
		lr_mult: 0.0
		decay_mult: 0.0
	}
	batch_norm_param {
		use_global_stats: true
	}
}

layer {
	bottom: "l_res4b15_branch2a"
	top: "l_res4b15_branch2a"
	name: "l_scale4b15_branch2a"
	type: "Scale"
	param {
		name: "scale4b15_branch2a_1"
		lr_mult: 0.0
		decay_mult: 0.0
	}
	param {
		name: "scale4b15_branch2a_2"
		lr_mult: 0.0
		decay_mult: 0.0
	}
	scale_param {
		bias_term: true
	}
}

layer {
	top: "l_res4b15_branch2a"
	bottom: "l_res4b15_branch2a"
	name: "l_res4b15_branch2a_relu"
	type: "ReLU"
}

layer {
	bottom: "l_res4b15_branch2a"
	top: "l_res4b15_branch2b"
	name: "l_res4b15_branch2b"
	type: "Convolution"
	param {
		name: "res4b15_branch2b_w"
		lr_mult: 0.0
		decay_mult: 0.0
	}
	convolution_param {
		num_output: 256
		kernel_size: 3
		pad: 1
		stride: 1
		bias_term: false
	}
}

layer {
	bottom: "l_res4b15_branch2b"
	top: "l_res4b15_branch2b"
	name: "l_bn4b15_branch2b"
	type: "BatchNorm"
	param {
		name: "bn4b15_branch2b_1"
		lr_mult: 0.0
		decay_mult: 0.0
	}
	param {
		name: "bn4b15_branch2b_2"
		lr_mult: 0.0
		decay_mult: 0.0
	}
	param {
		name: "bn4b15_branch2b_3"
		lr_mult: 0.0
		decay_mult: 0.0
	}
	batch_norm_param {
		use_global_stats: true
	}
}

layer {
	bottom: "l_res4b15_branch2b"
	top: "l_res4b15_branch2b"
	name: "l_scale4b15_branch2b"
	type: "Scale"
	param {
		name: "scale4b15_branch2b_1"
		lr_mult: 0.0
		decay_mult: 0.0
	}
	param {
		name: "scale4b15_branch2b_2"
		lr_mult: 0.0
		decay_mult: 0.0
	}
	scale_param {
		bias_term: true
	}
}

layer {
	top: "l_res4b15_branch2b"
	bottom: "l_res4b15_branch2b"
	name: "l_res4b15_branch2b_relu"
	type: "ReLU"
}

layer {
	bottom: "l_res4b15_branch2b"
	top: "l_res4b15_branch2c"
	name: "l_res4b15_branch2c"
	type: "Convolution"
	param {
		name: "res4b15_branch2c_w"
		lr_mult: 0.0
		decay_mult: 0.0
	}
	convolution_param {
		num_output: 1024
		kernel_size: 1
		pad: 0
		stride: 1
		bias_term: false
	}
}

layer {
	bottom: "l_res4b15_branch2c"
	top: "l_res4b15_branch2c"
	name: "l_bn4b15_branch2c"
	type: "BatchNorm"
	param {
		name: "bn4b15_branch2c_1"
		lr_mult: 0.0
		decay_mult: 0.0
	}
	param {
		name: "bn4b15_branch2c_2"
		lr_mult: 0.0
		decay_mult: 0.0
	}
	param {
		name: "bn4b15_branch2c_3"
		lr_mult: 0.0
		decay_mult: 0.0
	}
	batch_norm_param {
		use_global_stats: true
	}
}

layer {
	bottom: "l_res4b15_branch2c"
	top: "l_res4b15_branch2c"
	name: "l_scale4b15_branch2c"
	type: "Scale"
	param {
		name: "scale4b15_branch2c_1"
		lr_mult: 0.0
		decay_mult: 0.0
	}
	param {
		name: "scale4b15_branch2c_2"
		lr_mult: 0.0
		decay_mult: 0.0
	}
	scale_param {
		bias_term: true
	}
}

layer {
	bottom: "l_res4b14"
	bottom: "l_res4b15_branch2c"
	top: "l_res4b15"
	name: "l_res4b15"
	type: "Eltwise"
}

layer {
	bottom: "l_res4b15"
	top: "l_res4b15"
	name: "l_res4b15_relu"
	type: "ReLU"
}

layer {
	bottom: "l_res4b15"
	top: "l_res4b16_branch2a"
	name: "l_res4b16_branch2a"
	type: "Convolution"
	param {
		name: "res4b16_branch2a_w"
		lr_mult: 0.0
		decay_mult: 0.0
	}
	convolution_param {
		num_output: 256
		kernel_size: 1
		pad: 0
		stride: 1
		bias_term: false
	}
}

layer {
	bottom: "l_res4b16_branch2a"
	top: "l_res4b16_branch2a"
	name: "l_bn4b16_branch2a"
	type: "BatchNorm"
	param {
		name: "bn4b16_branch2a_1"
		lr_mult: 0.0
		decay_mult: 0.0
	}
	param {
		name: "bn4b16_branch2a_2"
		lr_mult: 0.0
		decay_mult: 0.0
	}
	param {
		name: "bn4b16_branch2a_3"
		lr_mult: 0.0
		decay_mult: 0.0
	}
	batch_norm_param {
		use_global_stats: true
	}
}

layer {
	bottom: "l_res4b16_branch2a"
	top: "l_res4b16_branch2a"
	name: "l_scale4b16_branch2a"
	type: "Scale"
	param {
		name: "scale4b16_branch2a_1"
		lr_mult: 0.0
		decay_mult: 0.0
	}
	param {
		name: "scale4b16_branch2a_2"
		lr_mult: 0.0
		decay_mult: 0.0
	}
	scale_param {
		bias_term: true
	}
}

layer {
	top: "l_res4b16_branch2a"
	bottom: "l_res4b16_branch2a"
	name: "l_res4b16_branch2a_relu"
	type: "ReLU"
}

layer {
	bottom: "l_res4b16_branch2a"
	top: "l_res4b16_branch2b"
	name: "l_res4b16_branch2b"
	type: "Convolution"
	param {
		name: "res4b16_branch2b_w"
		lr_mult: 0.0
		decay_mult: 0.0
	}
	convolution_param {
		num_output: 256
		kernel_size: 3
		pad: 1
		stride: 1
		bias_term: false
	}
}

layer {
	bottom: "l_res4b16_branch2b"
	top: "l_res4b16_branch2b"
	name: "l_bn4b16_branch2b"
	type: "BatchNorm"
	param {
		name: "bn4b16_branch2b_1"
		lr_mult: 0.0
		decay_mult: 0.0
	}
	param {
		name: "bn4b16_branch2b_2"
		lr_mult: 0.0
		decay_mult: 0.0
	}
	param {
		name: "bn4b16_branch2b_3"
		lr_mult: 0.0
		decay_mult: 0.0
	}
	batch_norm_param {
		use_global_stats: true
	}
}

layer {
	bottom: "l_res4b16_branch2b"
	top: "l_res4b16_branch2b"
	name: "l_scale4b16_branch2b"
	type: "Scale"
	param {
		name: "scale4b16_branch2b_1"
		lr_mult: 0.0
		decay_mult: 0.0
	}
	param {
		name: "scale4b16_branch2b_2"
		lr_mult: 0.0
		decay_mult: 0.0
	}
	scale_param {
		bias_term: true
	}
}

layer {
	top: "l_res4b16_branch2b"
	bottom: "l_res4b16_branch2b"
	name: "l_res4b16_branch2b_relu"
	type: "ReLU"
}

layer {
	bottom: "l_res4b16_branch2b"
	top: "l_res4b16_branch2c"
	name: "l_res4b16_branch2c"
	type: "Convolution"
	param {
		name: "res4b16_branch2c_w"
		lr_mult: 0.0
		decay_mult: 0.0
	}
	convolution_param {
		num_output: 1024
		kernel_size: 1
		pad: 0
		stride: 1
		bias_term: false
	}
}

layer {
	bottom: "l_res4b16_branch2c"
	top: "l_res4b16_branch2c"
	name: "l_bn4b16_branch2c"
	type: "BatchNorm"
	param {
		name: "bn4b16_branch2c_1"
		lr_mult: 0.0
		decay_mult: 0.0
	}
	param {
		name: "bn4b16_branch2c_2"
		lr_mult: 0.0
		decay_mult: 0.0
	}
	param {
		name: "bn4b16_branch2c_3"
		lr_mult: 0.0
		decay_mult: 0.0
	}
	batch_norm_param {
		use_global_stats: true
	}
}

layer {
	bottom: "l_res4b16_branch2c"
	top: "l_res4b16_branch2c"
	name: "l_scale4b16_branch2c"
	type: "Scale"
	param {
		name: "scale4b16_branch2c_1"
		lr_mult: 0.0
		decay_mult: 0.0
	}
	param {
		name: "scale4b16_branch2c_2"
		lr_mult: 0.0
		decay_mult: 0.0
	}
	scale_param {
		bias_term: true
	}
}

layer {
	bottom: "l_res4b15"
	bottom: "l_res4b16_branch2c"
	top: "l_res4b16"
	name: "l_res4b16"
	type: "Eltwise"
}

layer {
	bottom: "l_res4b16"
	top: "l_res4b16"
	name: "l_res4b16_relu"
	type: "ReLU"
}

layer {
	bottom: "l_res4b16"
	top: "l_res4b17_branch2a"
	name: "l_res4b17_branch2a"
	type: "Convolution"
	param {
		name: "res4b17_branch2a_w"
		lr_mult: 0.0
		decay_mult: 0.0
	}
	convolution_param {
		num_output: 256
		kernel_size: 1
		pad: 0
		stride: 1
		bias_term: false
	}
}

layer {
	bottom: "l_res4b17_branch2a"
	top: "l_res4b17_branch2a"
	name: "l_bn4b17_branch2a"
	type: "BatchNorm"
	param {
		name: "bn4b17_branch2a_1"
		lr_mult: 0.0
		decay_mult: 0.0
	}
	param {
		name: "bn4b17_branch2a_2"
		lr_mult: 0.0
		decay_mult: 0.0
	}
	param {
		name: "bn4b17_branch2a_3"
		lr_mult: 0.0
		decay_mult: 0.0
	}
	batch_norm_param {
		use_global_stats: true
	}
}

layer {
	bottom: "l_res4b17_branch2a"
	top: "l_res4b17_branch2a"
	name: "l_scale4b17_branch2a"
	type: "Scale"
	param {
		name: "scale4b17_branch2a_1"
		lr_mult: 0.0
		decay_mult: 0.0
	}
	param {
		name: "scale4b17_branch2a_2"
		lr_mult: 0.0
		decay_mult: 0.0
	}
	scale_param {
		bias_term: true
	}
}

layer {
	top: "l_res4b17_branch2a"
	bottom: "l_res4b17_branch2a"
	name: "l_res4b17_branch2a_relu"
	type: "ReLU"
}

layer {
	bottom: "l_res4b17_branch2a"
	top: "l_res4b17_branch2b"
	name: "l_res4b17_branch2b"
	type: "Convolution"
	param {
		name: "res4b17_branch2b_w"
		lr_mult: 0.0
		decay_mult: 0.0
	}
	convolution_param {
		num_output: 256
		kernel_size: 3
		pad: 1
		stride: 1
		bias_term: false
	}
}

layer {
	bottom: "l_res4b17_branch2b"
	top: "l_res4b17_branch2b"
	name: "l_bn4b17_branch2b"
	type: "BatchNorm"
	param {
		name: "bn4b17_branch2b_1"
		lr_mult: 0.0
		decay_mult: 0.0
	}
	param {
		name: "bn4b17_branch2b_2"
		lr_mult: 0.0
		decay_mult: 0.0
	}
	param {
		name: "bn4b17_branch2b_3"
		lr_mult: 0.0
		decay_mult: 0.0
	}
	batch_norm_param {
		use_global_stats: true
	}
}

layer {
	bottom: "l_res4b17_branch2b"
	top: "l_res4b17_branch2b"
	name: "l_scale4b17_branch2b"
	type: "Scale"
	param {
		name: "scale4b17_branch2b_1"
		lr_mult: 0.0
		decay_mult: 0.0
	}
	param {
		name: "scale4b17_branch2b_2"
		lr_mult: 0.0
		decay_mult: 0.0
	}
	scale_param {
		bias_term: true
	}
}

layer {
	top: "l_res4b17_branch2b"
	bottom: "l_res4b17_branch2b"
	name: "l_res4b17_branch2b_relu"
	type: "ReLU"
}

layer {
	bottom: "l_res4b17_branch2b"
	top: "l_res4b17_branch2c"
	name: "l_res4b17_branch2c"
	type: "Convolution"
	param {
		name: "res4b17_branch2c_w"
		lr_mult: 0.0
		decay_mult: 0.0
	}
	convolution_param {
		num_output: 1024
		kernel_size: 1
		pad: 0
		stride: 1
		bias_term: false
	}
}

layer {
	bottom: "l_res4b17_branch2c"
	top: "l_res4b17_branch2c"
	name: "l_bn4b17_branch2c"
	type: "BatchNorm"
	param {
		name: "bn4b17_branch2c_1"
		lr_mult: 0.0
		decay_mult: 0.0
	}
	param {
		name: "bn4b17_branch2c_2"
		lr_mult: 0.0
		decay_mult: 0.0
	}
	param {
		name: "bn4b17_branch2c_3"
		lr_mult: 0.0
		decay_mult: 0.0
	}
	batch_norm_param {
		use_global_stats: true
	}
}

layer {
	bottom: "l_res4b17_branch2c"
	top: "l_res4b17_branch2c"
	name: "l_scale4b17_branch2c"
	type: "Scale"
	param {
		name: "scale4b17_branch2c_1"
		lr_mult: 0.0
		decay_mult: 0.0
	}
	param {
		name: "scale4b17_branch2c_2"
		lr_mult: 0.0
		decay_mult: 0.0
	}
	scale_param {
		bias_term: true
	}
}

layer {
	bottom: "l_res4b16"
	bottom: "l_res4b17_branch2c"
	top: "l_res4b17"
	name: "l_res4b17"
	type: "Eltwise"
}

layer {
	bottom: "l_res4b17"
	top: "l_res4b17"
	name: "l_res4b17_relu"
	type: "ReLU"
}

layer {
	bottom: "l_res4b17"
	top: "l_res4b18_branch2a"
	name: "l_res4b18_branch2a"
	type: "Convolution"
	param {
		name: "res4b18_branch2a_w"
		lr_mult: 0.0
		decay_mult: 0.0
	}
	convolution_param {
		num_output: 256
		kernel_size: 1
		pad: 0
		stride: 1
		bias_term: false
	}
}

layer {
	bottom: "l_res4b18_branch2a"
	top: "l_res4b18_branch2a"
	name: "l_bn4b18_branch2a"
	type: "BatchNorm"
	param {
		name: "bn4b18_branch2a_1"
		lr_mult: 0.0
		decay_mult: 0.0
	}
	param {
		name: "bn4b18_branch2a_2"
		lr_mult: 0.0
		decay_mult: 0.0
	}
	param {
		name: "bn4b18_branch2a_3"
		lr_mult: 0.0
		decay_mult: 0.0
	}
	batch_norm_param {
		use_global_stats: true
	}
}

layer {
	bottom: "l_res4b18_branch2a"
	top: "l_res4b18_branch2a"
	name: "l_scale4b18_branch2a"
	type: "Scale"
	param {
		name: "scale4b18_branch2a_1"
		lr_mult: 0.0
		decay_mult: 0.0
	}
	param {
		name: "scale4b18_branch2a_2"
		lr_mult: 0.0
		decay_mult: 0.0
	}
	scale_param {
		bias_term: true
	}
}

layer {
	top: "l_res4b18_branch2a"
	bottom: "l_res4b18_branch2a"
	name: "l_res4b18_branch2a_relu"
	type: "ReLU"
}

layer {
	bottom: "l_res4b18_branch2a"
	top: "l_res4b18_branch2b"
	name: "l_res4b18_branch2b"
	type: "Convolution"
	param {
		name: "res4b18_branch2b_w"
		lr_mult: 0.0
		decay_mult: 0.0
	}
	convolution_param {
		num_output: 256
		kernel_size: 3
		pad: 1
		stride: 1
		bias_term: false
	}
}

layer {
	bottom: "l_res4b18_branch2b"
	top: "l_res4b18_branch2b"
	name: "l_bn4b18_branch2b"
	type: "BatchNorm"
	param {
		name: "bn4b18_branch2b_1"
		lr_mult: 0.0
		decay_mult: 0.0
	}
	param {
		name: "bn4b18_branch2b_2"
		lr_mult: 0.0
		decay_mult: 0.0
	}
	param {
		name: "bn4b18_branch2b_3"
		lr_mult: 0.0
		decay_mult: 0.0
	}
	batch_norm_param {
		use_global_stats: true
	}
}

layer {
	bottom: "l_res4b18_branch2b"
	top: "l_res4b18_branch2b"
	name: "l_scale4b18_branch2b"
	type: "Scale"
	param {
		name: "scale4b18_branch2b_1"
		lr_mult: 0.0
		decay_mult: 0.0
	}
	param {
		name: "scale4b18_branch2b_2"
		lr_mult: 0.0
		decay_mult: 0.0
	}
	scale_param {
		bias_term: true
	}
}

layer {
	top: "l_res4b18_branch2b"
	bottom: "l_res4b18_branch2b"
	name: "l_res4b18_branch2b_relu"
	type: "ReLU"
}

layer {
	bottom: "l_res4b18_branch2b"
	top: "l_res4b18_branch2c"
	name: "l_res4b18_branch2c"
	type: "Convolution"
	param {
		name: "res4b18_branch2c_w"
		lr_mult: 0.0
		decay_mult: 0.0
	}
	convolution_param {
		num_output: 1024
		kernel_size: 1
		pad: 0
		stride: 1
		bias_term: false
	}
}

layer {
	bottom: "l_res4b18_branch2c"
	top: "l_res4b18_branch2c"
	name: "l_bn4b18_branch2c"
	type: "BatchNorm"
	param {
		name: "bn4b18_branch2c_1"
		lr_mult: 0.0
		decay_mult: 0.0
	}
	param {
		name: "bn4b18_branch2c_2"
		lr_mult: 0.0
		decay_mult: 0.0
	}
	param {
		name: "bn4b18_branch2c_3"
		lr_mult: 0.0
		decay_mult: 0.0
	}
	batch_norm_param {
		use_global_stats: true
	}
}

layer {
	bottom: "l_res4b18_branch2c"
	top: "l_res4b18_branch2c"
	name: "l_scale4b18_branch2c"
	type: "Scale"
	param {
		name: "scale4b18_branch2c_1"
		lr_mult: 0.0
		decay_mult: 0.0
	}
	param {
		name: "scale4b18_branch2c_2"
		lr_mult: 0.0
		decay_mult: 0.0
	}
	scale_param {
		bias_term: true
	}
}

layer {
	bottom: "l_res4b17"
	bottom: "l_res4b18_branch2c"
	top: "l_res4b18"
	name: "l_res4b18"
	type: "Eltwise"
}

layer {
	bottom: "l_res4b18"
	top: "l_res4b18"
	name: "l_res4b18_relu"
	type: "ReLU"
}

layer {
	bottom: "l_res4b18"
	top: "l_res4b19_branch2a"
	name: "l_res4b19_branch2a"
	type: "Convolution"
	param {
		name: "res4b19_branch2a_w"
		lr_mult: 0.0
		decay_mult: 0.0
	}
	convolution_param {
		num_output: 256
		kernel_size: 1
		pad: 0
		stride: 1
		bias_term: false
	}
}

layer {
	bottom: "l_res4b19_branch2a"
	top: "l_res4b19_branch2a"
	name: "l_bn4b19_branch2a"
	type: "BatchNorm"
	param {
		name: "bn4b19_branch2a_1"
		lr_mult: 0.0
		decay_mult: 0.0
	}
	param {
		name: "bn4b19_branch2a_2"
		lr_mult: 0.0
		decay_mult: 0.0
	}
	param {
		name: "bn4b19_branch2a_3"
		lr_mult: 0.0
		decay_mult: 0.0
	}
	batch_norm_param {
		use_global_stats: true
	}
}

layer {
	bottom: "l_res4b19_branch2a"
	top: "l_res4b19_branch2a"
	name: "l_scale4b19_branch2a"
	type: "Scale"
	param {
		name: "scale4b19_branch2a_1"
		lr_mult: 0.0
		decay_mult: 0.0
	}
	param {
		name: "scale4b19_branch2a_2"
		lr_mult: 0.0
		decay_mult: 0.0
	}
	scale_param {
		bias_term: true
	}
}

layer {
	top: "l_res4b19_branch2a"
	bottom: "l_res4b19_branch2a"
	name: "l_res4b19_branch2a_relu"
	type: "ReLU"
}

layer {
	bottom: "l_res4b19_branch2a"
	top: "l_res4b19_branch2b"
	name: "l_res4b19_branch2b"
	type: "Convolution"
	param {
		name: "res4b19_branch2b_w"
		lr_mult: 0.0
		decay_mult: 0.0
	}
	convolution_param {
		num_output: 256
		kernel_size: 3
		pad: 1
		stride: 1
		bias_term: false
	}
}

layer {
	bottom: "l_res4b19_branch2b"
	top: "l_res4b19_branch2b"
	name: "l_bn4b19_branch2b"
	type: "BatchNorm"
	param {
		name: "bn4b19_branch2b_1"
		lr_mult: 0.0
		decay_mult: 0.0
	}
	param {
		name: "bn4b19_branch2b_2"
		lr_mult: 0.0
		decay_mult: 0.0
	}
	param {
		name: "bn4b19_branch2b_3"
		lr_mult: 0.0
		decay_mult: 0.0
	}
	batch_norm_param {
		use_global_stats: true
	}
}

layer {
	bottom: "l_res4b19_branch2b"
	top: "l_res4b19_branch2b"
	name: "l_scale4b19_branch2b"
	type: "Scale"
	param {
		name: "scale4b19_branch2b_1"
		lr_mult: 0.0
		decay_mult: 0.0
	}
	param {
		name: "scale4b19_branch2b_2"
		lr_mult: 0.0
		decay_mult: 0.0
	}
	scale_param {
		bias_term: true
	}
}

layer {
	top: "l_res4b19_branch2b"
	bottom: "l_res4b19_branch2b"
	name: "l_res4b19_branch2b_relu"
	type: "ReLU"
}

layer {
	bottom: "l_res4b19_branch2b"
	top: "l_res4b19_branch2c"
	name: "l_res4b19_branch2c"
	type: "Convolution"
	param {
		name: "res4b19_branch2c_w"
		lr_mult: 0.0
		decay_mult: 0.0
	}
	convolution_param {
		num_output: 1024
		kernel_size: 1
		pad: 0
		stride: 1
		bias_term: false
	}
}

layer {
	bottom: "l_res4b19_branch2c"
	top: "l_res4b19_branch2c"
	name: "l_bn4b19_branch2c"
	type: "BatchNorm"
	param {
		name: "bn4b19_branch2c_1"
		lr_mult: 0.0
		decay_mult: 0.0
	}
	param {
		name: "bn4b19_branch2c_2"
		lr_mult: 0.0
		decay_mult: 0.0
	}
	param {
		name: "bn4b19_branch2c_3"
		lr_mult: 0.0
		decay_mult: 0.0
	}
	batch_norm_param {
		use_global_stats: true
	}
}

layer {
	bottom: "l_res4b19_branch2c"
	top: "l_res4b19_branch2c"
	name: "l_scale4b19_branch2c"
	type: "Scale"
	param {
		name: "scale4b19_branch2c_1"
		lr_mult: 0.0
		decay_mult: 0.0
	}
	param {
		name: "scale4b19_branch2c_2"
		lr_mult: 0.0
		decay_mult: 0.0
	}
	scale_param {
		bias_term: true
	}
}

layer {
	bottom: "l_res4b18"
	bottom: "l_res4b19_branch2c"
	top: "l_res4b19"
	name: "l_res4b19"
	type: "Eltwise"
}

layer {
	bottom: "l_res4b19"
	top: "l_res4b19"
	name: "l_res4b19_relu"
	type: "ReLU"
}

layer {
	bottom: "l_res4b19"
	top: "l_res4b20_branch2a"
	name: "l_res4b20_branch2a"
	type: "Convolution"
	param {
		name: "res4b20_branch2a_w"
		lr_mult: 0.0
		decay_mult: 0.0
	}
	convolution_param {
		num_output: 256
		kernel_size: 1
		pad: 0
		stride: 1
		bias_term: false
	}
}

layer {
	bottom: "l_res4b20_branch2a"
	top: "l_res4b20_branch2a"
	name: "l_bn4b20_branch2a"
	type: "BatchNorm"
	param {
		name: "bn4b20_branch2a_1"
		lr_mult: 0.0
		decay_mult: 0.0
	}
	param {
		name: "bn4b20_branch2a_2"
		lr_mult: 0.0
		decay_mult: 0.0
	}
	param {
		name: "bn4b20_branch2a_3"
		lr_mult: 0.0
		decay_mult: 0.0
	}
	batch_norm_param {
		use_global_stats: true
	}
}

layer {
	bottom: "l_res4b20_branch2a"
	top: "l_res4b20_branch2a"
	name: "l_scale4b20_branch2a"
	type: "Scale"
	param {
		name: "scale4b20_branch2a_1"
		lr_mult: 0.0
		decay_mult: 0.0
	}
	param {
		name: "scale4b20_branch2a_2"
		lr_mult: 0.0
		decay_mult: 0.0
	}
	scale_param {
		bias_term: true
	}
}

layer {
	top: "l_res4b20_branch2a"
	bottom: "l_res4b20_branch2a"
	name: "l_res4b20_branch2a_relu"
	type: "ReLU"
}

layer {
	bottom: "l_res4b20_branch2a"
	top: "l_res4b20_branch2b"
	name: "l_res4b20_branch2b"
	type: "Convolution"
	param {
		name: "res4b20_branch2b_w"
		lr_mult: 0.0
		decay_mult: 0.0
	}
	convolution_param {
		num_output: 256
		kernel_size: 3
		pad: 1
		stride: 1
		bias_term: false
	}
}

layer {
	bottom: "l_res4b20_branch2b"
	top: "l_res4b20_branch2b"
	name: "l_bn4b20_branch2b"
	type: "BatchNorm"
	param {
		name: "bn4b20_branch2b_1"
		lr_mult: 0.0
		decay_mult: 0.0
	}
	param {
		name: "bn4b20_branch2b_2"
		lr_mult: 0.0
		decay_mult: 0.0
	}
	param {
		name: "bn4b20_branch2b_3"
		lr_mult: 0.0
		decay_mult: 0.0
	}
	batch_norm_param {
		use_global_stats: true
	}
}

layer {
	bottom: "l_res4b20_branch2b"
	top: "l_res4b20_branch2b"
	name: "l_scale4b20_branch2b"
	type: "Scale"
	param {
		name: "scale4b20_branch2b_1"
		lr_mult: 0.0
		decay_mult: 0.0
	}
	param {
		name: "scale4b20_branch2b_2"
		lr_mult: 0.0
		decay_mult: 0.0
	}
	scale_param {
		bias_term: true
	}
}

layer {
	top: "l_res4b20_branch2b"
	bottom: "l_res4b20_branch2b"
	name: "l_res4b20_branch2b_relu"
	type: "ReLU"
}

layer {
	bottom: "l_res4b20_branch2b"
	top: "l_res4b20_branch2c"
	name: "l_res4b20_branch2c"
	type: "Convolution"
	param {
		name: "res4b20_branch2c_w"
		lr_mult: 0.0
		decay_mult: 0.0
	}
	convolution_param {
		num_output: 1024
		kernel_size: 1
		pad: 0
		stride: 1
		bias_term: false
	}
}

layer {
	bottom: "l_res4b20_branch2c"
	top: "l_res4b20_branch2c"
	name: "l_bn4b20_branch2c"
	type: "BatchNorm"
	param {
		name: "bn4b20_branch2c_1"
		lr_mult: 0.0
		decay_mult: 0.0
	}
	param {
		name: "bn4b20_branch2c_2"
		lr_mult: 0.0
		decay_mult: 0.0
	}
	param {
		name: "bn4b20_branch2c_3"
		lr_mult: 0.0
		decay_mult: 0.0
	}
	batch_norm_param {
		use_global_stats: true
	}
}

layer {
	bottom: "l_res4b20_branch2c"
	top: "l_res4b20_branch2c"
	name: "l_scale4b20_branch2c"
	type: "Scale"
	param {
		name: "scale4b20_branch2c_1"
		lr_mult: 0.0
		decay_mult: 0.0
	}
	param {
		name: "scale4b20_branch2c_2"
		lr_mult: 0.0
		decay_mult: 0.0
	}
	scale_param {
		bias_term: true
	}
}

layer {
	bottom: "l_res4b19"
	bottom: "l_res4b20_branch2c"
	top: "l_res4b20"
	name: "l_res4b20"
	type: "Eltwise"
}

layer {
	bottom: "l_res4b20"
	top: "l_res4b20"
	name: "l_res4b20_relu"
	type: "ReLU"
}

layer {
	bottom: "l_res4b20"
	top: "l_res4b21_branch2a"
	name: "l_res4b21_branch2a"
	type: "Convolution"
	param {
		name: "res4b21_branch2a_w"
		lr_mult: 0.0
		decay_mult: 0.0
	}
	convolution_param {
		num_output: 256
		kernel_size: 1
		pad: 0
		stride: 1
		bias_term: false
	}
}

layer {
	bottom: "l_res4b21_branch2a"
	top: "l_res4b21_branch2a"
	name: "l_bn4b21_branch2a"
	type: "BatchNorm"
	param {
		name: "bn4b21_branch2a_1"
		lr_mult: 0.0
		decay_mult: 0.0
	}
	param {
		name: "bn4b21_branch2a_2"
		lr_mult: 0.0
		decay_mult: 0.0
	}
	param {
		name: "bn4b21_branch2a_3"
		lr_mult: 0.0
		decay_mult: 0.0
	}
	batch_norm_param {
		use_global_stats: true
	}
}

layer {
	bottom: "l_res4b21_branch2a"
	top: "l_res4b21_branch2a"
	name: "l_scale4b21_branch2a"
	type: "Scale"
	param {
		name: "scale4b21_branch2a_1"
		lr_mult: 0.0
		decay_mult: 0.0
	}
	param {
		name: "scale4b21_branch2a_2"
		lr_mult: 0.0
		decay_mult: 0.0
	}
	scale_param {
		bias_term: true
	}
}

layer {
	top: "l_res4b21_branch2a"
	bottom: "l_res4b21_branch2a"
	name: "l_res4b21_branch2a_relu"
	type: "ReLU"
}

layer {
	bottom: "l_res4b21_branch2a"
	top: "l_res4b21_branch2b"
	name: "l_res4b21_branch2b"
	type: "Convolution"
	param {
		name: "res4b21_branch2b_w"
		lr_mult: 0.0
		decay_mult: 0.0
	}
	convolution_param {
		num_output: 256
		kernel_size: 3
		pad: 1
		stride: 1
		bias_term: false
	}
}

layer {
	bottom: "l_res4b21_branch2b"
	top: "l_res4b21_branch2b"
	name: "l_bn4b21_branch2b"
	type: "BatchNorm"
	param {
		name: "bn4b21_branch2b_1"
		lr_mult: 0.0
		decay_mult: 0.0
	}
	param {
		name: "bn4b21_branch2b_2"
		lr_mult: 0.0
		decay_mult: 0.0
	}
	param {
		name: "bn4b21_branch2b_3"
		lr_mult: 0.0
		decay_mult: 0.0
	}
	batch_norm_param {
		use_global_stats: true
	}
}

layer {
	bottom: "l_res4b21_branch2b"
	top: "l_res4b21_branch2b"
	name: "l_scale4b21_branch2b"
	type: "Scale"
	param {
		name: "scale4b21_branch2b_1"
		lr_mult: 0.0
		decay_mult: 0.0
	}
	param {
		name: "scale4b21_branch2b_2"
		lr_mult: 0.0
		decay_mult: 0.0
	}
	scale_param {
		bias_term: true
	}
}

layer {
	top: "l_res4b21_branch2b"
	bottom: "l_res4b21_branch2b"
	name: "l_res4b21_branch2b_relu"
	type: "ReLU"
}

layer {
	bottom: "l_res4b21_branch2b"
	top: "l_res4b21_branch2c"
	name: "l_res4b21_branch2c"
	type: "Convolution"
	param {
		name: "res4b21_branch2c_w"
		lr_mult: 0.0
		decay_mult: 0.0
	}
	convolution_param {
		num_output: 1024
		kernel_size: 1
		pad: 0
		stride: 1
		bias_term: false
	}
}

layer {
	bottom: "l_res4b21_branch2c"
	top: "l_res4b21_branch2c"
	name: "l_bn4b21_branch2c"
	type: "BatchNorm"
	param {
		name: "bn4b21_branch2c_1"
		lr_mult: 0.0
		decay_mult: 0.0
	}
	param {
		name: "bn4b21_branch2c_2"
		lr_mult: 0.0
		decay_mult: 0.0
	}
	param {
		name: "bn4b21_branch2c_3"
		lr_mult: 0.0
		decay_mult: 0.0
	}
	batch_norm_param {
		use_global_stats: true
	}
}

layer {
	bottom: "l_res4b21_branch2c"
	top: "l_res4b21_branch2c"
	name: "l_scale4b21_branch2c"
	type: "Scale"
	param {
		name: "scale4b21_branch2c_1"
		lr_mult: 0.0
		decay_mult: 0.0
	}
	param {
		name: "scale4b21_branch2c_2"
		lr_mult: 0.0
		decay_mult: 0.0
	}
	scale_param {
		bias_term: true
	}
}

layer {
	bottom: "l_res4b20"
	bottom: "l_res4b21_branch2c"
	top: "l_res4b21"
	name: "l_res4b21"
	type: "Eltwise"
}

layer {
	bottom: "l_res4b21"
	top: "l_res4b21"
	name: "l_res4b21_relu"
	type: "ReLU"
}

layer {
	bottom: "l_res4b21"
	top: "l_res4b22_branch2a"
	name: "l_res4b22_branch2a"
	type: "Convolution"
	param {
		name: "res4b22_branch2a_w"
		lr_mult: 0.0
		decay_mult: 0.0
	}
	convolution_param {
		num_output: 256
		kernel_size: 1
		pad: 0
		stride: 1
		bias_term: false
	}
}

layer {
	bottom: "l_res4b22_branch2a"
	top: "l_res4b22_branch2a"
	name: "l_bn4b22_branch2a"
	type: "BatchNorm"
	param {
		name: "bn4b22_branch2a_1"
		lr_mult: 0.0
		decay_mult: 0.0
	}
	param {
		name: "bn4b22_branch2a_2"
		lr_mult: 0.0
		decay_mult: 0.0
	}
	param {
		name: "bn4b22_branch2a_3"
		lr_mult: 0.0
		decay_mult: 0.0
	}
	batch_norm_param {
		use_global_stats: true
	}
}

layer {
	bottom: "l_res4b22_branch2a"
	top: "l_res4b22_branch2a"
	name: "l_scale4b22_branch2a"
	type: "Scale"
	param {
		name: "scale4b22_branch2a_1"
		lr_mult: 0.0
		decay_mult: 0.0
	}
	param {
		name: "scale4b22_branch2a_2"
		lr_mult: 0.0
		decay_mult: 0.0
	}
	scale_param {
		bias_term: true
	}
}

layer {
	top: "l_res4b22_branch2a"
	bottom: "l_res4b22_branch2a"
	name: "l_res4b22_branch2a_relu"
	type: "ReLU"
}

layer {
	bottom: "l_res4b22_branch2a"
	top: "l_res4b22_branch2b"
	name: "l_res4b22_branch2b"
	type: "Convolution"
	param {
		name: "res4b22_branch2b_w"
		lr_mult: 0.0
		decay_mult: 0.0
	}
	convolution_param {
		num_output: 256
		kernel_size: 3
		pad: 1
		stride: 1
		bias_term: false
	}
}

layer {
	bottom: "l_res4b22_branch2b"
	top: "l_res4b22_branch2b"
	name: "l_bn4b22_branch2b"
	type: "BatchNorm"
	param {
		name: "bn4b22_branch2b_1"
		lr_mult: 0.0
		decay_mult: 0.0
	}
	param {
		name: "bn4b22_branch2b_2"
		lr_mult: 0.0
		decay_mult: 0.0
	}
	param {
		name: "bn4b22_branch2b_3"
		lr_mult: 0.0
		decay_mult: 0.0
	}
	batch_norm_param {
		use_global_stats: true
	}
}

layer {
	bottom: "l_res4b22_branch2b"
	top: "l_res4b22_branch2b"
	name: "l_scale4b22_branch2b"
	type: "Scale"
	param {
		name: "scale4b22_branch2b_1"
		lr_mult: 0.0
		decay_mult: 0.0
	}
	param {
		name: "scale4b22_branch2b_2"
		lr_mult: 0.0
		decay_mult: 0.0
	}
	scale_param {
		bias_term: true
	}
}

layer {
	top: "l_res4b22_branch2b"
	bottom: "l_res4b22_branch2b"
	name: "l_res4b22_branch2b_relu"
	type: "ReLU"
}

layer {
	bottom: "l_res4b22_branch2b"
	top: "l_res4b22_branch2c"
	name: "l_res4b22_branch2c"
	type: "Convolution"
	param {
		name: "res4b22_branch2c_w"
		lr_mult: 0.0
		decay_mult: 0.0
	}
	convolution_param {
		num_output: 1024
		kernel_size: 1
		pad: 0
		stride: 1
		bias_term: false
	}
}

layer {
	bottom: "l_res4b22_branch2c"
	top: "l_res4b22_branch2c"
	name: "l_bn4b22_branch2c"
	type: "BatchNorm"
	param {
		name: "bn4b22_branch2c_1"
		lr_mult: 0.0
		decay_mult: 0.0
	}
	param {
		name: "bn4b22_branch2c_2"
		lr_mult: 0.0
		decay_mult: 0.0
	}
	param {
		name: "bn4b22_branch2c_3"
		lr_mult: 0.0
		decay_mult: 0.0
	}
	batch_norm_param {
		use_global_stats: true
	}
}

layer {
	bottom: "l_res4b22_branch2c"
	top: "l_res4b22_branch2c"
	name: "l_scale4b22_branch2c"
	type: "Scale"
	param {
		name: "scale4b22_branch2c_1"
		lr_mult: 0.0
		decay_mult: 0.0
	}
	param {
		name: "scale4b22_branch2c_2"
		lr_mult: 0.0
		decay_mult: 0.0
	}
	scale_param {
		bias_term: true
	}
}

layer {
	bottom: "l_res4b21"
	bottom: "l_res4b22_branch2c"
	top: "l_res4b22"
	name: "l_res4b22"
	type: "Eltwise"
}

layer {
	bottom: "l_res4b22"
	top: "l_res4b22"
	name: "l_res4b22_relu"
	type: "ReLU"
}

layer {
	bottom: "l_res4b22"
	top: "l_res5a_branch1"
	name: "l_res5a_branch1"
	type: "Convolution"
	param {
		name: "res5a_branch1_w"
		lr_mult: 0.0
		decay_mult: 0.0
	}
	convolution_param {
		num_output: 2048
		kernel_size: 1
		pad: 0
		stride: 2
		bias_term: false
	}
}

layer {
	bottom: "l_res5a_branch1"
	top: "l_res5a_branch1"
	name: "l_bn5a_branch1"
	type: "BatchNorm"
	param {
		name: "bn5a_branch1_1"
		lr_mult: 0.0
		decay_mult: 0.0
	}
	param {
		name: "bn5a_branch1_2"
		lr_mult: 0.0
		decay_mult: 0.0
	}
	param {
		name: "bn5a_branch1_3"
		lr_mult: 0.0
		decay_mult: 0.0
	}
	batch_norm_param {
		use_global_stats: true
	}
}

layer {
	bottom: "l_res5a_branch1"
	top: "l_res5a_branch1"
	name: "l_scale5a_branch1"
	type: "Scale"
	param {
		name: "scale5a_branch1_1"
		lr_mult: 0.0
		decay_mult: 0.0
	}
	param {
		name: "scale5a_branch1_2"
		lr_mult: 0.0
		decay_mult: 0.0
	}
	scale_param {
		bias_term: true
	}
}

layer {
	bottom: "l_res4b22"
	top: "l_res5a_branch2a"
	name: "l_res5a_branch2a"
	type: "Convolution"
	param {
		name: "res5a_branch2a_w"
		lr_mult: 0.0
		decay_mult: 0.0
	}
	convolution_param {
		num_output: 512
		kernel_size: 1
		pad: 0
		stride: 2
		bias_term: false
	}
}

layer {
	bottom: "l_res5a_branch2a"
	top: "l_res5a_branch2a"
	name: "l_bn5a_branch2a"
	type: "BatchNorm"
	param {
		name: "bn5a_branch2a_1"
		lr_mult: 0.0
		decay_mult: 0.0
	}
	param {
		name: "bn5a_branch2a_2"
		lr_mult: 0.0
		decay_mult: 0.0
	}
	param {
		name: "bn5a_branch2a_3"
		lr_mult: 0.0
		decay_mult: 0.0
	}
	batch_norm_param {
		use_global_stats: true
	}
}

layer {
	bottom: "l_res5a_branch2a"
	top: "l_res5a_branch2a"
	name: "l_scale5a_branch2a"
	type: "Scale"
	param {
		name: "scale5a_branch2a_1"
		lr_mult: 0.0
		decay_mult: 0.0
	}
	param {
		name: "scale5a_branch2a_2"
		lr_mult: 0.0
		decay_mult: 0.0
	}
	scale_param {
		bias_term: true
	}
}

layer {
	top: "l_res5a_branch2a"
	bottom: "l_res5a_branch2a"
	name: "l_res5a_branch2a_relu"
	type: "ReLU"
}

layer {
	bottom: "l_res5a_branch2a"
	top: "l_res5a_branch2b"
	name: "l_res5a_branch2b"
	type: "Convolution"
	param {
		name: "res5a_branch2b_w"
		lr_mult: 0.0
		decay_mult: 0.0
	}
	convolution_param {
		num_output: 512
		kernel_size: 3
		pad: 1
		stride: 1
		bias_term: false
	}
}

layer {
	bottom: "l_res5a_branch2b"
	top: "l_res5a_branch2b"
	name: "l_bn5a_branch2b"
	type: "BatchNorm"
	param {
		name: "bn5a_branch2b_1"
		lr_mult: 0.0
		decay_mult: 0.0
	}
	param {
		name: "bn5a_branch2b_2"
		lr_mult: 0.0
		decay_mult: 0.0
	}
	param {
		name: "bn5a_branch2b_3"
		lr_mult: 0.0
		decay_mult: 0.0
	}
	batch_norm_param {
		use_global_stats: true
	}
}

layer {
	bottom: "l_res5a_branch2b"
	top: "l_res5a_branch2b"
	name: "l_scale5a_branch2b"
	type: "Scale"
	param {
		name: "scale5a_branch2b_1"
		lr_mult: 0.0
		decay_mult: 0.0
	}
	param {
		name: "scale5a_branch2b_2"
		lr_mult: 0.0
		decay_mult: 0.0
	}
	scale_param {
		bias_term: true
	}
}

layer {
	top: "l_res5a_branch2b"
	bottom: "l_res5a_branch2b"
	name: "l_res5a_branch2b_relu"
	type: "ReLU"
}

layer {
	bottom: "l_res5a_branch2b"
	top: "l_res5a_branch2c"
	name: "l_res5a_branch2c"
	type: "Convolution"
	param {
		name: "res5a_branch2c_w"
		lr_mult: 0.0
		decay_mult: 0.0
	}
	convolution_param {
		num_output: 2048
		kernel_size: 1
		pad: 0
		stride: 1
		bias_term: false
	}
}

layer {
	bottom: "l_res5a_branch2c"
	top: "l_res5a_branch2c"
	name: "l_bn5a_branch2c"
	type: "BatchNorm"
	param {
		name: "bn5a_branch2c_1"
		lr_mult: 0.0
		decay_mult: 0.0
	}
	param {
		name: "bn5a_branch2c_2"
		lr_mult: 0.0
		decay_mult: 0.0
	}
	param {
		name: "bn5a_branch2c_3"
		lr_mult: 0.0
		decay_mult: 0.0
	}
	batch_norm_param {
		use_global_stats: true
	}
}

layer {
	bottom: "l_res5a_branch2c"
	top: "l_res5a_branch2c"
	name: "l_scale5a_branch2c"
	type: "Scale"
	param {
		name: "scale5a_branch2c_1"
		lr_mult: 0.0
		decay_mult: 0.0
	}
	param {
		name: "scale5a_branch2c_2"
		lr_mult: 0.0
		decay_mult: 0.0
	}
	scale_param {
		bias_term: true
	}
}

layer {
	bottom: "l_res5a_branch1"
	bottom: "l_res5a_branch2c"
	top: "l_res5a"
	name: "l_res5a"
	type: "Eltwise"
}

layer {
	bottom: "l_res5a"
	top: "l_res5a"
	name: "l_res5a_relu"
	type: "ReLU"
}

layer {
	bottom: "l_res5a"
	top: "l_res5b_branch2a"
	name: "l_res5b_branch2a"
	type: "Convolution"
	param {
		name: "res5b_branch2a_w"
		lr_mult: 0.0
		decay_mult: 0.0
	}
	convolution_param {
		num_output: 512
		kernel_size: 1
		pad: 0
		stride: 1
		bias_term: false
	}
}

layer {
	bottom: "l_res5b_branch2a"
	top: "l_res5b_branch2a"
	name: "l_bn5b_branch2a"
	type: "BatchNorm"
	param {
		name: "bn5b_branch2a_1"
		lr_mult: 0.0
		decay_mult: 0.0
	}
	param {
		name: "bn5b_branch2a_2"
		lr_mult: 0.0
		decay_mult: 0.0
	}
	param {
		name: "bn5b_branch2a_3"
		lr_mult: 0.0
		decay_mult: 0.0
	}
	batch_norm_param {
		use_global_stats: true
	}
}

layer {
	bottom: "l_res5b_branch2a"
	top: "l_res5b_branch2a"
	name: "l_scale5b_branch2a"
	type: "Scale"
	param {
		name: "scale5b_branch2a_1"
		lr_mult: 0.0
		decay_mult: 0.0
	}
	param {
		name: "scale5b_branch2a_2"
		lr_mult: 0.0
		decay_mult: 0.0
	}
	scale_param {
		bias_term: true
	}
}

layer {
	top: "l_res5b_branch2a"
	bottom: "l_res5b_branch2a"
	name: "l_res5b_branch2a_relu"
	type: "ReLU"
}

layer {
	bottom: "l_res5b_branch2a"
	top: "l_res5b_branch2b"
	name: "l_res5b_branch2b"
	type: "Convolution"
	param {
		name: "res5b_branch2b_w"
		lr_mult: 0.0
		decay_mult: 0.0
	}
	convolution_param {
		num_output: 512
		kernel_size: 3
		pad: 1
		stride: 1
		bias_term: false
	}
}

layer {
	bottom: "l_res5b_branch2b"
	top: "l_res5b_branch2b"
	name: "l_bn5b_branch2b"
	type: "BatchNorm"
	param {
		name: "bn5b_branch2b_1"
		lr_mult: 0.0
		decay_mult: 0.0
	}
	param {
		name: "bn5b_branch2b_2"
		lr_mult: 0.0
		decay_mult: 0.0
	}
	param {
		name: "bn5b_branch2b_3"
		lr_mult: 0.0
		decay_mult: 0.0
	}
	batch_norm_param {
		use_global_stats: true
	}
}

layer {
	bottom: "l_res5b_branch2b"
	top: "l_res5b_branch2b"
	name: "l_scale5b_branch2b"
	type: "Scale"
	param {
		name: "scale5b_branch2b_1"
		lr_mult: 0.0
		decay_mult: 0.0
	}
	param {
		name: "scale5b_branch2b_2"
		lr_mult: 0.0
		decay_mult: 0.0
	}
	scale_param {
		bias_term: true
	}
}

layer {
	top: "l_res5b_branch2b"
	bottom: "l_res5b_branch2b"
	name: "l_res5b_branch2b_relu"
	type: "ReLU"
}

layer {
	bottom: "l_res5b_branch2b"
	top: "l_res5b_branch2c"
	name: "l_res5b_branch2c"
	type: "Convolution"
	param {
		name: "res5b_branch2c_w"
		lr_mult: 0.0
		decay_mult: 0.0
	}
	convolution_param {
		num_output: 2048
		kernel_size: 1
		pad: 0
		stride: 1
		bias_term: false
	}
}

layer {
	bottom: "l_res5b_branch2c"
	top: "l_res5b_branch2c"
	name: "l_bn5b_branch2c"
	type: "BatchNorm"
	param {
		name: "bn5b_branch2c_1"
		lr_mult: 0.0
		decay_mult: 0.0
	}
	param {
		name: "bn5b_branch2c_2"
		lr_mult: 0.0
		decay_mult: 0.0
	}
	param {
		name: "bn5b_branch2c_3"
		lr_mult: 0.0
		decay_mult: 0.0
	}
	batch_norm_param {
		use_global_stats: true
	}
}

layer {
	bottom: "l_res5b_branch2c"
	top: "l_res5b_branch2c"
	name: "l_scale5b_branch2c"
	type: "Scale"
	param {
		name: "scale5b_branch2c_1"
		lr_mult: 0.0
		decay_mult: 0.0
	}
	param {
		name: "scale5b_branch2c_2"
		lr_mult: 0.0
		decay_mult: 0.0
	}
	scale_param {
		bias_term: true
	}
}

layer {
	bottom: "l_res5a"
	bottom: "l_res5b_branch2c"
	top: "l_res5b"
	name: "l_res5b"
	type: "Eltwise"
}

layer {
	bottom: "l_res5b"
	top: "l_res5b"
	name: "l_res5b_relu"
	type: "ReLU"
}

layer {
	bottom: "l_res5b"
	top: "l_res5c_branch2a"
	name: "l_res5c_branch2a"
	type: "Convolution"
	param {
		name: "res5c_branch2a_w"
		lr_mult: 0.0
		decay_mult: 0.0
	}
	convolution_param {
		num_output: 512
		kernel_size: 1
		pad: 0
		stride: 1
		bias_term: false
	}
}

layer {
	bottom: "l_res5c_branch2a"
	top: "l_res5c_branch2a"
	name: "l_bn5c_branch2a"
	type: "BatchNorm"
	param {
		name: "bn5c_branch2a_1"
		lr_mult: 0.0
		decay_mult: 0.0
	}
	param {
		name: "bn5c_branch2a_2"
		lr_mult: 0.0
		decay_mult: 0.0
	}
	param {
		name: "bn5c_branch2a_3"
		lr_mult: 0.0
		decay_mult: 0.0
	}
	batch_norm_param {
		use_global_stats: true
	}
}

layer {
	bottom: "l_res5c_branch2a"
	top: "l_res5c_branch2a"
	name: "l_scale5c_branch2a"
	type: "Scale"
	param {
		name: "scale5c_branch2a_1"
		lr_mult: 0.0
		decay_mult: 0.0
	}
	param {
		name: "scale5c_branch2a_2"
		lr_mult: 0.0
		decay_mult: 0.0
	}
	scale_param {
		bias_term: true
	}
}

layer {
	top: "l_res5c_branch2a"
	bottom: "l_res5c_branch2a"
	name: "l_res5c_branch2a_relu"
	type: "ReLU"
}

layer {
	bottom: "l_res5c_branch2a"
	top: "l_res5c_branch2b"
	name: "l_res5c_branch2b"
	type: "Convolution"
	param {
		name: "res5c_branch2b_w"
		lr_mult: 0.0
		decay_mult: 0.0
	}
	convolution_param {
		num_output: 512
		kernel_size: 3
		pad: 1
		stride: 1
		bias_term: false
	}
}

layer {
	bottom: "l_res5c_branch2b"
	top: "l_res5c_branch2b"
	name: "l_bn5c_branch2b"
	type: "BatchNorm"
	param {
		name: "bn5c_branch2b_1"
		lr_mult: 0.0
		decay_mult: 0.0
	}
	param {
		name: "bn5c_branch2b_2"
		lr_mult: 0.0
		decay_mult: 0.0
	}
	param {
		name: "bn5c_branch2b_3"
		lr_mult: 0.0
		decay_mult: 0.0
	}
	batch_norm_param {
		use_global_stats: true
	}
}

layer {
	bottom: "l_res5c_branch2b"
	top: "l_res5c_branch2b"
	name: "l_scale5c_branch2b"
	type: "Scale"
	param {
		name: "scale5c_branch2b_1"
		lr_mult: 0.0
		decay_mult: 0.0
	}
	param {
		name: "scale5c_branch2b_2"
		lr_mult: 0.0
		decay_mult: 0.0
	}
	scale_param {
		bias_term: true
	}
}

layer {
	top: "l_res5c_branch2b"
	bottom: "l_res5c_branch2b"
	name: "l_res5c_branch2b_relu"
	type: "ReLU"
}

layer {
	bottom: "l_res5c_branch2b"
	top: "l_res5c_branch2c"
	name: "l_res5c_branch2c"
	type: "Convolution"
	param {
		name: "res5c_branch2c_w"
		lr_mult: 0.0
		decay_mult: 0.0
	}
	convolution_param {
		num_output: 2048
		kernel_size: 1
		pad: 0
		stride: 1
		bias_term: false
	}
}

layer {
	bottom: "l_res5c_branch2c"
	top: "l_res5c_branch2c"
	name: "l_bn5c_branch2c"
	type: "BatchNorm"
	param {
		name: "bn5c_branch2c_1"
		lr_mult: 0.0
		decay_mult: 0.0
	}
	param {
		name: "bn5c_branch2c_2"
		lr_mult: 0.0
		decay_mult: 0.0
	}
	param {
		name: "bn5c_branch2c_3"
		lr_mult: 0.0
		decay_mult: 0.0
	}
	batch_norm_param {
		use_global_stats: true
	}
}

layer {
	bottom: "l_res5c_branch2c"
	top: "l_res5c_branch2c"
	name: "l_scale5c_branch2c"
	type: "Scale"
	param {
		name: "scale5c_branch2c_1"
		lr_mult: 0.0
		decay_mult: 0.0
	}
	param {
		name: "scale5c_branch2c_2"
		lr_mult: 0.0
		decay_mult: 0.0
	}
	scale_param {
		bias_term: true
	}
}

layer {
	bottom: "l_res5b"
	bottom: "l_res5c_branch2c"
	top: "l_res5c"
	name: "l_res5c"
	type: "Eltwise"
}

layer {
	bottom: "l_res5c"
	top: "l_res5c"
	name: "l_res5c_relu"
	type: "ReLU"
}

layer {
	name: "l_pooled_rois"
	type: "ROIPooling"
	bottom: "l_res5c"
	bottom: "l_rois"
	top: "l_pooled_rois"
	roi_pooling_param {
		pooled_w: 1
		pooled_h: 1
		spatial_scale: 0.03125 
	}
 }

layer {
	name: "l_pooled_rois/normalized"
	type: "Normalize"
	bottom: "l_pooled_rois"
	top: "l_pooled_rois/normalized"
}

layer {
	name: "l_pooled_rois/normalized_flat"
	type: "Reshape"
	reshape_param{
		shape{
			dim: 0
			dim: 2048 
			dim: 1
			dim: 1
		}    
	}
	bottom: "l_pooled_rois/normalized"
	top: "l_pooled_rois/normalized_flat"
}

layer {
	name: "l_pooled_rois/centered"
	bottom: "l_pooled_rois/normalized_flat"
	top: "l_pooled_rois/centered"
	type: "Scale"
	param {
		name: "pooled_rois/centered_1"
		lr_mult: 0.0
		decay_mult: 0.0
	}
	param {
		name: "pooled_rois/centered_2"
		lr_mult: 0.0
		decay_mult: 0.0
	}
	scale_param {
		bias_term: true
		filler {
			type: "constant"
			value: 1
		}
		bias_filler {
			type: "constant"
			value: 0
	  	}
	}
}

layer {
	name: "l_pooled_rois/pca_512"
	type: "InnerProduct"
	param {
		lr_mult: 0.0
		decay_mult: 0.0
	}
	param {
		lr_mult: 0.0
		decay_mult: 0.0
	}
	inner_product_param {
		num_output: 512 
		weight_filler {
			type: "xavier"
		}
		bias_filler {
			type: "constant"
			value: 0
		}
	}
	bottom: "l_pooled_rois/centered"
	top: "l_pooled_rois/pca_512"
}

layer {
	name: "l_pooled_rois/pca/reshaped"
	type: "Reshape"
	reshape_param{
	shape{
		dim: 0 
		dim: 0
		dim: 1
		dim: 1
		}    
	}
	bottom: "l_pooled_rois/pca_512"
	top: "l_pooled_rois/pca/reshaped"
}

layer {
	name: "l_pooled_rois/pca/normalized"
	type: "Normalize"
	bottom: "l_pooled_rois/pca/reshaped"
	top: "l_pooled_rois/pca/normalized"
}

layer {
	name: "l_rmac"
	type: "Python"
	bottom: "l_pooled_rois/pca/normalized"
	top: "l_rmac"
	python_param {
		module: 'custom_layers'
		layer: 'AggregateLayer'
		param_str: "{'num_rois': 8}"
	}
}

layer {
	name: "l_rmac/normalized"
	type: "Normalize"
	bottom: "l_rmac"
	top: "l_rmac/normalized"
}
layer {
	bottom: "m_resize"
	top: "m_conv1"
	name: "m_conv1"
	type: "Convolution"
	param {
		name: "conv1_w"
		lr_mult: 0.0
		decay_mult: 0.0
	}
	convolution_param {
		num_output: 64
		kernel_size: 7
		pad: 3
		stride: 2
		bias_term: false
	}
}

layer {
	bottom: "m_conv1"
	top: "m_conv1"
	name: "m_bn_conv1"
	type: "BatchNorm"
	param {
		name: "bn_conv1_1"
		lr_mult: 0.0
		decay_mult: 0.0
	}
	param {
		name: "bn_conv1_2"
		lr_mult: 0.0
		decay_mult: 0.0
	}
	param {
		name: "bn_conv1_3"
		lr_mult: 0.0
		decay_mult: 0.0
	}
	batch_norm_param {
		use_global_stats: true
	}
}

layer {
	bottom: "m_conv1"
	top: "m_conv1"
	name: "m_scale_conv1"
	type: "Scale"
	param {
		name: "scale_conv1_1"
		lr_mult: 0.0
		decay_mult: 0.0
	}
	param {
		name: "scale_conv1_2"
		lr_mult: 0.0
		decay_mult: 0.0
	}
	scale_param {
		bias_term: true
	}
}

layer {
	top: "m_conv1"
	bottom: "m_conv1"
	name: "m_conv1_relu"
	type: "ReLU"
}

layer {
	bottom: "m_conv1"
	top: "m_pool1"
	name: "m_pool1"
	type: "Pooling"
	pooling_param {
		kernel_size: 3
		stride: 2
		pool: MAX
	}
}

layer {
	bottom: "m_pool1"
	top: "m_res2a_branch1"
	name: "m_res2a_branch1"
	type: "Convolution"
	param {
		name: "res2a_branch1_w"
		lr_mult: 0.0
		decay_mult: 0.0
	}
	convolution_param {
		num_output: 256
		kernel_size: 1
		pad: 0
		stride: 1
		bias_term: false
	}
}

layer {
	bottom: "m_res2a_branch1"
	top: "m_res2a_branch1"
	name: "m_bn2a_branch1"
	type: "BatchNorm"
	param {
		name: "bn2a_branch1_1"
		lr_mult: 0.0
		decay_mult: 0.0
	}
	param {
		name: "bn2a_branch1_2"
		lr_mult: 0.0
		decay_mult: 0.0
	}
	param {
		name: "bn2a_branch1_3"
		lr_mult: 0.0
		decay_mult: 0.0
	}
	batch_norm_param {
		use_global_stats: true
	}
}

layer {
	bottom: "m_res2a_branch1"
	top: "m_res2a_branch1"
	name: "m_scale2a_branch1"
	type: "Scale"
	param {
		name: "scale2a_branch1_1"
		lr_mult: 0.0
		decay_mult: 0.0
	}
	param {
		name: "scale2a_branch1_2"
		lr_mult: 0.0
		decay_mult: 0.0
	}
	scale_param {
		bias_term: true
	}
}

layer {
	bottom: "m_pool1"
	top: "m_res2a_branch2a"
	name: "m_res2a_branch2a"
	type: "Convolution"
	param {
		name: "res2a_branch2a_w"
		lr_mult: 0.0
		decay_mult: 0.0
	}
	convolution_param {
		num_output: 64
		kernel_size: 1
		pad: 0
		stride: 1
		bias_term: false
	}
}

layer {
	bottom: "m_res2a_branch2a"
	top: "m_res2a_branch2a"
	name: "m_bn2a_branch2a"
	type: "BatchNorm"
	param {
		name: "bn2a_branch2a_1"
		lr_mult: 0.0
		decay_mult: 0.0
	}
	param {
		name: "bn2a_branch2a_2"
		lr_mult: 0.0
		decay_mult: 0.0
	}
	param {
		name: "bn2a_branch2a_3"
		lr_mult: 0.0
		decay_mult: 0.0
	}
	batch_norm_param {
		use_global_stats: true
	}
}

layer {
	bottom: "m_res2a_branch2a"
	top: "m_res2a_branch2a"
	name: "m_scale2a_branch2a"
	type: "Scale"
	param {
		name: "scale2a_branch2a_1"
		lr_mult: 0.0
		decay_mult: 0.0
	}
	param {
		name: "scale2a_branch2a_2"
		lr_mult: 0.0
		decay_mult: 0.0
	}
	scale_param {
		bias_term: true
	}
}

layer {
	top: "m_res2a_branch2a"
	bottom: "m_res2a_branch2a"
	name: "m_res2a_branch2a_relu"
	type: "ReLU"
}

layer {
	bottom: "m_res2a_branch2a"
	top: "m_res2a_branch2b"
	name: "m_res2a_branch2b"
	type: "Convolution"
	param {
		name: "res2a_branch2b_w"
		lr_mult: 0.0
		decay_mult: 0.0
	}
	convolution_param {
		num_output: 64
		kernel_size: 3
		pad: 1
		stride: 1
		bias_term: false
	}
}

layer {
	bottom: "m_res2a_branch2b"
	top: "m_res2a_branch2b"
	name: "m_bn2a_branch2b"
	type: "BatchNorm"
	param {
		name: "bn2a_branch2b_1"
		lr_mult: 0.0
		decay_mult: 0.0
	}
	param {
		name: "bn2a_branch2b_2"
		lr_mult: 0.0
		decay_mult: 0.0
	}
	param {
		name: "bn2a_branch2b_3"
		lr_mult: 0.0
		decay_mult: 0.0
	}
	batch_norm_param {
		use_global_stats: true
	}
}

layer {
	bottom: "m_res2a_branch2b"
	top: "m_res2a_branch2b"
	name: "m_scale2a_branch2b"
	type: "Scale"
	param {
		name: "scale2a_branch2b_1"
		lr_mult: 0.0
		decay_mult: 0.0
	}
	param {
		name: "scale2a_branch2b_2"
		lr_mult: 0.0
		decay_mult: 0.0
	}
	scale_param {
		bias_term: true
	}
}

layer {
	top: "m_res2a_branch2b"
	bottom: "m_res2a_branch2b"
	name: "m_res2a_branch2b_relu"
	type: "ReLU"
}

layer {
	bottom: "m_res2a_branch2b"
	top: "m_res2a_branch2c"
	name: "m_res2a_branch2c"
	type: "Convolution"
	param {
		name: "res2a_branch2c_w"
		lr_mult: 0.0
		decay_mult: 0.0
	}
	convolution_param {
		num_output: 256
		kernel_size: 1
		pad: 0
		stride: 1
		bias_term: false
	}
}

layer {
	bottom: "m_res2a_branch2c"
	top: "m_res2a_branch2c"
	name: "m_bn2a_branch2c"
	type: "BatchNorm"
	param {
		name: "bn2a_branch2c_1"
		lr_mult: 0.0
		decay_mult: 0.0
	}
	param {
		name: "bn2a_branch2c_2"
		lr_mult: 0.0
		decay_mult: 0.0
	}
	param {
		name: "bn2a_branch2c_3"
		lr_mult: 0.0
		decay_mult: 0.0
	}
	batch_norm_param {
		use_global_stats: true
	}
}

layer {
	bottom: "m_res2a_branch2c"
	top: "m_res2a_branch2c"
	name: "m_scale2a_branch2c"
	type: "Scale"
	param {
		name: "scale2a_branch2c_1"
		lr_mult: 0.0
		decay_mult: 0.0
	}
	param {
		name: "scale2a_branch2c_2"
		lr_mult: 0.0
		decay_mult: 0.0
	}
	scale_param {
		bias_term: true
	}
}

layer {
	bottom: "m_res2a_branch1"
	bottom: "m_res2a_branch2c"
	top: "m_res2a"
	name: "m_res2a"
	type: "Eltwise"
}

layer {
	bottom: "m_res2a"
	top: "m_res2a"
	name: "m_res2a_relu"
	type: "ReLU"
}

layer {
	bottom: "m_res2a"
	top: "m_res2b_branch2a"
	name: "m_res2b_branch2a"
	type: "Convolution"
	param {
		name: "res2b_branch2a_w"
		lr_mult: 0.0
		decay_mult: 0.0
	}
	convolution_param {
		num_output: 64
		kernel_size: 1
		pad: 0
		stride: 1
		bias_term: false
	}
}

layer {
	bottom: "m_res2b_branch2a"
	top: "m_res2b_branch2a"
	name: "m_bn2b_branch2a"
	type: "BatchNorm"
	param {
		name: "bn2b_branch2a_1"
		lr_mult: 0.0
		decay_mult: 0.0
	}
	param {
		name: "bn2b_branch2a_2"
		lr_mult: 0.0
		decay_mult: 0.0
	}
	param {
		name: "bn2b_branch2a_3"
		lr_mult: 0.0
		decay_mult: 0.0
	}
	batch_norm_param {
		use_global_stats: true
	}
}

layer {
	bottom: "m_res2b_branch2a"
	top: "m_res2b_branch2a"
	name: "m_scale2b_branch2a"
	type: "Scale"
	param {
		name: "scale2b_branch2a_1"
		lr_mult: 0.0
		decay_mult: 0.0
	}
	param {
		name: "scale2b_branch2a_2"
		lr_mult: 0.0
		decay_mult: 0.0
	}
	scale_param {
		bias_term: true
	}
}

layer {
	top: "m_res2b_branch2a"
	bottom: "m_res2b_branch2a"
	name: "m_res2b_branch2a_relu"
	type: "ReLU"
}

layer {
	bottom: "m_res2b_branch2a"
	top: "m_res2b_branch2b"
	name: "m_res2b_branch2b"
	type: "Convolution"
	param {
		name: "res2b_branch2b_w"
		lr_mult: 0.0
		decay_mult: 0.0
	}
	convolution_param {
		num_output: 64
		kernel_size: 3
		pad: 1
		stride: 1
		bias_term: false
	}
}

layer {
	bottom: "m_res2b_branch2b"
	top: "m_res2b_branch2b"
	name: "m_bn2b_branch2b"
	type: "BatchNorm"
	param {
		name: "bn2b_branch2b_1"
		lr_mult: 0.0
		decay_mult: 0.0
	}
	param {
		name: "bn2b_branch2b_2"
		lr_mult: 0.0
		decay_mult: 0.0
	}
	param {
		name: "bn2b_branch2b_3"
		lr_mult: 0.0
		decay_mult: 0.0
	}
	batch_norm_param {
		use_global_stats: true
	}
}

layer {
	bottom: "m_res2b_branch2b"
	top: "m_res2b_branch2b"
	name: "m_scale2b_branch2b"
	type: "Scale"
	param {
		name: "scale2b_branch2b_1"
		lr_mult: 0.0
		decay_mult: 0.0
	}
	param {
		name: "scale2b_branch2b_2"
		lr_mult: 0.0
		decay_mult: 0.0
	}
	scale_param {
		bias_term: true
	}
}

layer {
	top: "m_res2b_branch2b"
	bottom: "m_res2b_branch2b"
	name: "m_res2b_branch2b_relu"
	type: "ReLU"
}

layer {
	bottom: "m_res2b_branch2b"
	top: "m_res2b_branch2c"
	name: "m_res2b_branch2c"
	type: "Convolution"
	param {
		name: "res2b_branch2c_w"
		lr_mult: 0.0
		decay_mult: 0.0
	}
	convolution_param {
		num_output: 256
		kernel_size: 1
		pad: 0
		stride: 1
		bias_term: false
	}
}

layer {
	bottom: "m_res2b_branch2c"
	top: "m_res2b_branch2c"
	name: "m_bn2b_branch2c"
	type: "BatchNorm"
	param {
		name: "bn2b_branch2c_1"
		lr_mult: 0.0
		decay_mult: 0.0
	}
	param {
		name: "bn2b_branch2c_2"
		lr_mult: 0.0
		decay_mult: 0.0
	}
	param {
		name: "bn2b_branch2c_3"
		lr_mult: 0.0
		decay_mult: 0.0
	}
	batch_norm_param {
		use_global_stats: true
	}
}

layer {
	bottom: "m_res2b_branch2c"
	top: "m_res2b_branch2c"
	name: "m_scale2b_branch2c"
	type: "Scale"
	param {
		name: "scale2b_branch2c_1"
		lr_mult: 0.0
		decay_mult: 0.0
	}
	param {
		name: "scale2b_branch2c_2"
		lr_mult: 0.0
		decay_mult: 0.0
	}
	scale_param {
		bias_term: true
	}
}

layer {
	bottom: "m_res2a"
	bottom: "m_res2b_branch2c"
	top: "m_res2b"
	name: "m_res2b"
	type: "Eltwise"
}

layer {
	bottom: "m_res2b"
	top: "m_res2b"
	name: "m_res2b_relu"
	type: "ReLU"
}

layer {
	bottom: "m_res2b"
	top: "m_res2c_branch2a"
	name: "m_res2c_branch2a"
	type: "Convolution"
	param {
		name: "res2c_branch2a_w"
		lr_mult: 0.0
		decay_mult: 0.0
	}
	convolution_param {
		num_output: 64
		kernel_size: 1
		pad: 0
		stride: 1
		bias_term: false
	}
}

layer {
	bottom: "m_res2c_branch2a"
	top: "m_res2c_branch2a"
	name: "m_bn2c_branch2a"
	type: "BatchNorm"
	param {
		name: "bn2c_branch2a_1"
		lr_mult: 0.0
		decay_mult: 0.0
	}
	param {
		name: "bn2c_branch2a_2"
		lr_mult: 0.0
		decay_mult: 0.0
	}
	param {
		name: "bn2c_branch2a_3"
		lr_mult: 0.0
		decay_mult: 0.0
	}
	batch_norm_param {
		use_global_stats: true
	}
}

layer {
	bottom: "m_res2c_branch2a"
	top: "m_res2c_branch2a"
	name: "m_scale2c_branch2a"
	type: "Scale"
	param {
		name: "scale2c_branch2a_1"
		lr_mult: 0.0
		decay_mult: 0.0
	}
	param {
		name: "scale2c_branch2a_2"
		lr_mult: 0.0
		decay_mult: 0.0
	}
	scale_param {
		bias_term: true
	}
}

layer {
	top: "m_res2c_branch2a"
	bottom: "m_res2c_branch2a"
	name: "m_res2c_branch2a_relu"
	type: "ReLU"
}

layer {
	bottom: "m_res2c_branch2a"
	top: "m_res2c_branch2b"
	name: "m_res2c_branch2b"
	type: "Convolution"
	param {
		name: "res2c_branch2b_w"
		lr_mult: 0.0
		decay_mult: 0.0
	}
	convolution_param {
		num_output: 64
		kernel_size: 3
		pad: 1
		stride: 1
		bias_term: false
	}
}

layer {
	bottom: "m_res2c_branch2b"
	top: "m_res2c_branch2b"
	name: "m_bn2c_branch2b"
	type: "BatchNorm"
	param {
		name: "bn2c_branch2b_1"
		lr_mult: 0.0
		decay_mult: 0.0
	}
	param {
		name: "bn2c_branch2b_2"
		lr_mult: 0.0
		decay_mult: 0.0
	}
	param {
		name: "bn2c_branch2b_3"
		lr_mult: 0.0
		decay_mult: 0.0
	}
	batch_norm_param {
		use_global_stats: true
	}
}

layer {
	bottom: "m_res2c_branch2b"
	top: "m_res2c_branch2b"
	name: "m_scale2c_branch2b"
	type: "Scale"
	param {
		name: "scale2c_branch2b_1"
		lr_mult: 0.0
		decay_mult: 0.0
	}
	param {
		name: "scale2c_branch2b_2"
		lr_mult: 0.0
		decay_mult: 0.0
	}
	scale_param {
		bias_term: true
	}
}

layer {
	top: "m_res2c_branch2b"
	bottom: "m_res2c_branch2b"
	name: "m_res2c_branch2b_relu"
	type: "ReLU"
}

layer {
	bottom: "m_res2c_branch2b"
	top: "m_res2c_branch2c"
	name: "m_res2c_branch2c"
	type: "Convolution"
	param {
		name: "res2c_branch2c_w"
		lr_mult: 0.0
		decay_mult: 0.0
	}
	convolution_param {
		num_output: 256
		kernel_size: 1
		pad: 0
		stride: 1
		bias_term: false
	}
}

layer {
	bottom: "m_res2c_branch2c"
	top: "m_res2c_branch2c"
	name: "m_bn2c_branch2c"
	type: "BatchNorm"
	param {
		name: "bn2c_branch2c_1"
		lr_mult: 0.0
		decay_mult: 0.0
	}
	param {
		name: "bn2c_branch2c_2"
		lr_mult: 0.0
		decay_mult: 0.0
	}
	param {
		name: "bn2c_branch2c_3"
		lr_mult: 0.0
		decay_mult: 0.0
	}
	batch_norm_param {
		use_global_stats: true
	}
}

layer {
	bottom: "m_res2c_branch2c"
	top: "m_res2c_branch2c"
	name: "m_scale2c_branch2c"
	type: "Scale"
	param {
		name: "scale2c_branch2c_1"
		lr_mult: 0.0
		decay_mult: 0.0
	}
	param {
		name: "scale2c_branch2c_2"
		lr_mult: 0.0
		decay_mult: 0.0
	}
	scale_param {
		bias_term: true
	}
}

layer {
	bottom: "m_res2b"
	bottom: "m_res2c_branch2c"
	top: "m_res2c"
	name: "m_res2c"
	type: "Eltwise"
}

layer {
	bottom: "m_res2c"
	top: "m_res2c"
	name: "m_res2c_relu"
	type: "ReLU"
}

layer {
	bottom: "m_res2c"
	top: "m_res3a_branch1"
	name: "m_res3a_branch1"
	type: "Convolution"
	param {
		name: "res3a_branch1_w"
		lr_mult: 0.0
		decay_mult: 0.0
	}
	convolution_param {
		num_output: 512
		kernel_size: 1
		pad: 0
		stride: 2
		bias_term: false
	}
}

layer {
	bottom: "m_res3a_branch1"
	top: "m_res3a_branch1"
	name: "m_bn3a_branch1"
	type: "BatchNorm"
	param {
		name: "bn3a_branch1_1"
		lr_mult: 0.0
		decay_mult: 0.0
	}
	param {
		name: "bn3a_branch1_2"
		lr_mult: 0.0
		decay_mult: 0.0
	}
	param {
		name: "bn3a_branch1_3"
		lr_mult: 0.0
		decay_mult: 0.0
	}
	batch_norm_param {
		use_global_stats: true
	}
}

layer {
	bottom: "m_res3a_branch1"
	top: "m_res3a_branch1"
	name: "m_scale3a_branch1"
	type: "Scale"
	param {
		name: "scale3a_branch1_1"
		lr_mult: 0.0
		decay_mult: 0.0
	}
	param {
		name: "scale3a_branch1_2"
		lr_mult: 0.0
		decay_mult: 0.0
	}
	scale_param {
		bias_term: true
	}
}

layer {
	bottom: "m_res2c"
	top: "m_res3a_branch2a"
	name: "m_res3a_branch2a"
	type: "Convolution"
	param {
		name: "res3a_branch2a_w"
		lr_mult: 0.0
		decay_mult: 0.0
	}
	convolution_param {
		num_output: 128
		kernel_size: 1
		pad: 0
		stride: 2
		bias_term: false
	}
}

layer {
	bottom: "m_res3a_branch2a"
	top: "m_res3a_branch2a"
	name: "m_bn3a_branch2a"
	type: "BatchNorm"
	param {
		name: "bn3a_branch2a_1"
		lr_mult: 0.0
		decay_mult: 0.0
	}
	param {
		name: "bn3a_branch2a_2"
		lr_mult: 0.0
		decay_mult: 0.0
	}
	param {
		name: "bn3a_branch2a_3"
		lr_mult: 0.0
		decay_mult: 0.0
	}
	batch_norm_param {
		use_global_stats: true
	}
}

layer {
	bottom: "m_res3a_branch2a"
	top: "m_res3a_branch2a"
	name: "m_scale3a_branch2a"
	type: "Scale"
	param {
		name: "scale3a_branch2a_1"
		lr_mult: 0.0
		decay_mult: 0.0
	}
	param {
		name: "scale3a_branch2a_2"
		lr_mult: 0.0
		decay_mult: 0.0
	}
	scale_param {
		bias_term: true
	}
}

layer {
	top: "m_res3a_branch2a"
	bottom: "m_res3a_branch2a"
	name: "m_res3a_branch2a_relu"
	type: "ReLU"
}

layer {
	bottom: "m_res3a_branch2a"
	top: "m_res3a_branch2b"
	name: "m_res3a_branch2b"
	type: "Convolution"
	param {
		name: "res3a_branch2b_w"
		lr_mult: 0.0
		decay_mult: 0.0
	}
	convolution_param {
		num_output: 128
		kernel_size: 3
		pad: 1
		stride: 1
		bias_term: false
	}
}

layer {
	bottom: "m_res3a_branch2b"
	top: "m_res3a_branch2b"
	name: "m_bn3a_branch2b"
	type: "BatchNorm"
	param {
		name: "bn3a_branch2b_1"
		lr_mult: 0.0
		decay_mult: 0.0
	}
	param {
		name: "bn3a_branch2b_2"
		lr_mult: 0.0
		decay_mult: 0.0
	}
	param {
		name: "bn3a_branch2b_3"
		lr_mult: 0.0
		decay_mult: 0.0
	}
	batch_norm_param {
		use_global_stats: true
	}
}

layer {
	bottom: "m_res3a_branch2b"
	top: "m_res3a_branch2b"
	name: "m_scale3a_branch2b"
	type: "Scale"
	param {
		name: "scale3a_branch2b_1"
		lr_mult: 0.0
		decay_mult: 0.0
	}
	param {
		name: "scale3a_branch2b_2"
		lr_mult: 0.0
		decay_mult: 0.0
	}
	scale_param {
		bias_term: true
	}
}

layer {
	top: "m_res3a_branch2b"
	bottom: "m_res3a_branch2b"
	name: "m_res3a_branch2b_relu"
	type: "ReLU"
}

layer {
	bottom: "m_res3a_branch2b"
	top: "m_res3a_branch2c"
	name: "m_res3a_branch2c"
	type: "Convolution"
	param {
		name: "res3a_branch2c_w"
		lr_mult: 0.0
		decay_mult: 0.0
	}
	convolution_param {
		num_output: 512
		kernel_size: 1
		pad: 0
		stride: 1
		bias_term: false
	}
}

layer {
	bottom: "m_res3a_branch2c"
	top: "m_res3a_branch2c"
	name: "m_bn3a_branch2c"
	type: "BatchNorm"
	param {
		name: "bn3a_branch2c_1"
		lr_mult: 0.0
		decay_mult: 0.0
	}
	param {
		name: "bn3a_branch2c_2"
		lr_mult: 0.0
		decay_mult: 0.0
	}
	param {
		name: "bn3a_branch2c_3"
		lr_mult: 0.0
		decay_mult: 0.0
	}
	batch_norm_param {
		use_global_stats: true
	}
}

layer {
	bottom: "m_res3a_branch2c"
	top: "m_res3a_branch2c"
	name: "m_scale3a_branch2c"
	type: "Scale"
	param {
		name: "scale3a_branch2c_1"
		lr_mult: 0.0
		decay_mult: 0.0
	}
	param {
		name: "scale3a_branch2c_2"
		lr_mult: 0.0
		decay_mult: 0.0
	}
	scale_param {
		bias_term: true
	}
}

layer {
	bottom: "m_res3a_branch1"
	bottom: "m_res3a_branch2c"
	top: "m_res3a"
	name: "m_res3a"
	type: "Eltwise"
}

layer {
	bottom: "m_res3a"
	top: "m_res3a"
	name: "m_res3a_relu"
	type: "ReLU"
}

layer {
	bottom: "m_res3a"
	top: "m_res3b1_branch2a"
	name: "m_res3b1_branch2a"
	type: "Convolution"
	param {
		name: "res3b1_branch2a_w"
		lr_mult: 0.0
		decay_mult: 0.0
	}
	convolution_param {
		num_output: 128
		kernel_size: 1
		pad: 0
		stride: 1
		bias_term: false
	}
}

layer {
	bottom: "m_res3b1_branch2a"
	top: "m_res3b1_branch2a"
	name: "m_bn3b1_branch2a"
	type: "BatchNorm"
	param {
		name: "bn3b1_branch2a_1"
		lr_mult: 0.0
		decay_mult: 0.0
	}
	param {
		name: "bn3b1_branch2a_2"
		lr_mult: 0.0
		decay_mult: 0.0
	}
	param {
		name: "bn3b1_branch2a_3"
		lr_mult: 0.0
		decay_mult: 0.0
	}
	batch_norm_param {
		use_global_stats: true
	}
}

layer {
	bottom: "m_res3b1_branch2a"
	top: "m_res3b1_branch2a"
	name: "m_scale3b1_branch2a"
	type: "Scale"
	param {
		name: "scale3b1_branch2a_1"
		lr_mult: 0.0
		decay_mult: 0.0
	}
	param {
		name: "scale3b1_branch2a_2"
		lr_mult: 0.0
		decay_mult: 0.0
	}
	scale_param {
		bias_term: true
	}
}

layer {
	top: "m_res3b1_branch2a"
	bottom: "m_res3b1_branch2a"
	name: "m_res3b1_branch2a_relu"
	type: "ReLU"
}

layer {
	bottom: "m_res3b1_branch2a"
	top: "m_res3b1_branch2b"
	name: "m_res3b1_branch2b"
	type: "Convolution"
	param {
		name: "res3b1_branch2b_w"
		lr_mult: 0.0
		decay_mult: 0.0
	}
	convolution_param {
		num_output: 128
		kernel_size: 3
		pad: 1
		stride: 1
		bias_term: false
	}
}

layer {
	bottom: "m_res3b1_branch2b"
	top: "m_res3b1_branch2b"
	name: "m_bn3b1_branch2b"
	type: "BatchNorm"
	param {
		name: "bn3b1_branch2b_1"
		lr_mult: 0.0
		decay_mult: 0.0
	}
	param {
		name: "bn3b1_branch2b_2"
		lr_mult: 0.0
		decay_mult: 0.0
	}
	param {
		name: "bn3b1_branch2b_3"
		lr_mult: 0.0
		decay_mult: 0.0
	}
	batch_norm_param {
		use_global_stats: true
	}
}

layer {
	bottom: "m_res3b1_branch2b"
	top: "m_res3b1_branch2b"
	name: "m_scale3b1_branch2b"
	type: "Scale"
	param {
		name: "scale3b1_branch2b_1"
		lr_mult: 0.0
		decay_mult: 0.0
	}
	param {
		name: "scale3b1_branch2b_2"
		lr_mult: 0.0
		decay_mult: 0.0
	}
	scale_param {
		bias_term: true
	}
}

layer {
	top: "m_res3b1_branch2b"
	bottom: "m_res3b1_branch2b"
	name: "m_res3b1_branch2b_relu"
	type: "ReLU"
}

layer {
	bottom: "m_res3b1_branch2b"
	top: "m_res3b1_branch2c"
	name: "m_res3b1_branch2c"
	type: "Convolution"
	param {
		name: "res3b1_branch2c_w"
		lr_mult: 0.0
		decay_mult: 0.0
	}
	convolution_param {
		num_output: 512
		kernel_size: 1
		pad: 0
		stride: 1
		bias_term: false
	}
}

layer {
	bottom: "m_res3b1_branch2c"
	top: "m_res3b1_branch2c"
	name: "m_bn3b1_branch2c"
	type: "BatchNorm"
	param {
		name: "bn3b1_branch2c_1"
		lr_mult: 0.0
		decay_mult: 0.0
	}
	param {
		name: "bn3b1_branch2c_2"
		lr_mult: 0.0
		decay_mult: 0.0
	}
	param {
		name: "bn3b1_branch2c_3"
		lr_mult: 0.0
		decay_mult: 0.0
	}
	batch_norm_param {
		use_global_stats: true
	}
}

layer {
	bottom: "m_res3b1_branch2c"
	top: "m_res3b1_branch2c"
	name: "m_scale3b1_branch2c"
	type: "Scale"
	param {
		name: "scale3b1_branch2c_1"
		lr_mult: 0.0
		decay_mult: 0.0
	}
	param {
		name: "scale3b1_branch2c_2"
		lr_mult: 0.0
		decay_mult: 0.0
	}
	scale_param {
		bias_term: true
	}
}

layer {
	bottom: "m_res3a"
	bottom: "m_res3b1_branch2c"
	top: "m_res3b1"
	name: "m_res3b1"
	type: "Eltwise"
}

layer {
	bottom: "m_res3b1"
	top: "m_res3b1"
	name: "m_res3b1_relu"
	type: "ReLU"
}

layer {
	bottom: "m_res3b1"
	top: "m_res3b2_branch2a"
	name: "m_res3b2_branch2a"
	type: "Convolution"
	param {
		name: "res3b2_branch2a_w"
		lr_mult: 0.0
		decay_mult: 0.0
	}
	convolution_param {
		num_output: 128
		kernel_size: 1
		pad: 0
		stride: 1
		bias_term: false
	}
}

layer {
	bottom: "m_res3b2_branch2a"
	top: "m_res3b2_branch2a"
	name: "m_bn3b2_branch2a"
	type: "BatchNorm"
	param {
		name: "bn3b2_branch2a_1"
		lr_mult: 0.0
		decay_mult: 0.0
	}
	param {
		name: "bn3b2_branch2a_2"
		lr_mult: 0.0
		decay_mult: 0.0
	}
	param {
		name: "bn3b2_branch2a_3"
		lr_mult: 0.0
		decay_mult: 0.0
	}
	batch_norm_param {
		use_global_stats: true
	}
}

layer {
	bottom: "m_res3b2_branch2a"
	top: "m_res3b2_branch2a"
	name: "m_scale3b2_branch2a"
	type: "Scale"
	param {
		name: "scale3b2_branch2a_1"
		lr_mult: 0.0
		decay_mult: 0.0
	}
	param {
		name: "scale3b2_branch2a_2"
		lr_mult: 0.0
		decay_mult: 0.0
	}
	scale_param {
		bias_term: true
	}
}

layer {
	top: "m_res3b2_branch2a"
	bottom: "m_res3b2_branch2a"
	name: "m_res3b2_branch2a_relu"
	type: "ReLU"
}

layer {
	bottom: "m_res3b2_branch2a"
	top: "m_res3b2_branch2b"
	name: "m_res3b2_branch2b"
	type: "Convolution"
	param {
		name: "res3b2_branch2b_w"
		lr_mult: 0.0
		decay_mult: 0.0
	}
	convolution_param {
		num_output: 128
		kernel_size: 3
		pad: 1
		stride: 1
		bias_term: false
	}
}

layer {
	bottom: "m_res3b2_branch2b"
	top: "m_res3b2_branch2b"
	name: "m_bn3b2_branch2b"
	type: "BatchNorm"
	param {
		name: "bn3b2_branch2b_1"
		lr_mult: 0.0
		decay_mult: 0.0
	}
	param {
		name: "bn3b2_branch2b_2"
		lr_mult: 0.0
		decay_mult: 0.0
	}
	param {
		name: "bn3b2_branch2b_3"
		lr_mult: 0.0
		decay_mult: 0.0
	}
	batch_norm_param {
		use_global_stats: true
	}
}

layer {
	bottom: "m_res3b2_branch2b"
	top: "m_res3b2_branch2b"
	name: "m_scale3b2_branch2b"
	type: "Scale"
	param {
		name: "scale3b2_branch2b_1"
		lr_mult: 0.0
		decay_mult: 0.0
	}
	param {
		name: "scale3b2_branch2b_2"
		lr_mult: 0.0
		decay_mult: 0.0
	}
	scale_param {
		bias_term: true
	}
}

layer {
	top: "m_res3b2_branch2b"
	bottom: "m_res3b2_branch2b"
	name: "m_res3b2_branch2b_relu"
	type: "ReLU"
}

layer {
	bottom: "m_res3b2_branch2b"
	top: "m_res3b2_branch2c"
	name: "m_res3b2_branch2c"
	type: "Convolution"
	param {
		name: "res3b2_branch2c_w"
		lr_mult: 0.0
		decay_mult: 0.0
	}
	convolution_param {
		num_output: 512
		kernel_size: 1
		pad: 0
		stride: 1
		bias_term: false
	}
}

layer {
	bottom: "m_res3b2_branch2c"
	top: "m_res3b2_branch2c"
	name: "m_bn3b2_branch2c"
	type: "BatchNorm"
	param {
		name: "bn3b2_branch2c_1"
		lr_mult: 0.0
		decay_mult: 0.0
	}
	param {
		name: "bn3b2_branch2c_2"
		lr_mult: 0.0
		decay_mult: 0.0
	}
	param {
		name: "bn3b2_branch2c_3"
		lr_mult: 0.0
		decay_mult: 0.0
	}
	batch_norm_param {
		use_global_stats: true
	}
}

layer {
	bottom: "m_res3b2_branch2c"
	top: "m_res3b2_branch2c"
	name: "m_scale3b2_branch2c"
	type: "Scale"
	param {
		name: "scale3b2_branch2c_1"
		lr_mult: 0.0
		decay_mult: 0.0
	}
	param {
		name: "scale3b2_branch2c_2"
		lr_mult: 0.0
		decay_mult: 0.0
	}
	scale_param {
		bias_term: true
	}
}

layer {
	bottom: "m_res3b1"
	bottom: "m_res3b2_branch2c"
	top: "m_res3b2"
	name: "m_res3b2"
	type: "Eltwise"
}

layer {
	bottom: "m_res3b2"
	top: "m_res3b2"
	name: "m_res3b2_relu"
	type: "ReLU"
}

layer {
	bottom: "m_res3b2"
	top: "m_res3b3_branch2a"
	name: "m_res3b3_branch2a"
	type: "Convolution"
	param {
		name: "res3b3_branch2a_w"
		lr_mult: 0.0
		decay_mult: 0.0
	}
	convolution_param {
		num_output: 128
		kernel_size: 1
		pad: 0
		stride: 1
		bias_term: false
	}
}

layer {
	bottom: "m_res3b3_branch2a"
	top: "m_res3b3_branch2a"
	name: "m_bn3b3_branch2a"
	type: "BatchNorm"
	param {
		name: "bn3b3_branch2a_1"
		lr_mult: 0.0
		decay_mult: 0.0
	}
	param {
		name: "bn3b3_branch2a_2"
		lr_mult: 0.0
		decay_mult: 0.0
	}
	param {
		name: "bn3b3_branch2a_3"
		lr_mult: 0.0
		decay_mult: 0.0
	}
	batch_norm_param {
		use_global_stats: true
	}
}

layer {
	bottom: "m_res3b3_branch2a"
	top: "m_res3b3_branch2a"
	name: "m_scale3b3_branch2a"
	type: "Scale"
	param {
		name: "scale3b3_branch2a_1"
		lr_mult: 0.0
		decay_mult: 0.0
	}
	param {
		name: "scale3b3_branch2a_2"
		lr_mult: 0.0
		decay_mult: 0.0
	}
	scale_param {
		bias_term: true
	}
}

layer {
	top: "m_res3b3_branch2a"
	bottom: "m_res3b3_branch2a"
	name: "m_res3b3_branch2a_relu"
	type: "ReLU"
}

layer {
	bottom: "m_res3b3_branch2a"
	top: "m_res3b3_branch2b"
	name: "m_res3b3_branch2b"
	type: "Convolution"
	param {
		name: "res3b3_branch2b_w"
		lr_mult: 0.0
		decay_mult: 0.0
	}
	convolution_param {
		num_output: 128
		kernel_size: 3
		pad: 1
		stride: 1
		bias_term: false
	}
}

layer {
	bottom: "m_res3b3_branch2b"
	top: "m_res3b3_branch2b"
	name: "m_bn3b3_branch2b"
	type: "BatchNorm"
	param {
		name: "bn3b3_branch2b_1"
		lr_mult: 0.0
		decay_mult: 0.0
	}
	param {
		name: "bn3b3_branch2b_2"
		lr_mult: 0.0
		decay_mult: 0.0
	}
	param {
		name: "bn3b3_branch2b_3"
		lr_mult: 0.0
		decay_mult: 0.0
	}
	batch_norm_param {
		use_global_stats: true
	}
}

layer {
	bottom: "m_res3b3_branch2b"
	top: "m_res3b3_branch2b"
	name: "m_scale3b3_branch2b"
	type: "Scale"
	param {
		name: "scale3b3_branch2b_1"
		lr_mult: 0.0
		decay_mult: 0.0
	}
	param {
		name: "scale3b3_branch2b_2"
		lr_mult: 0.0
		decay_mult: 0.0
	}
	scale_param {
		bias_term: true
	}
}

layer {
	top: "m_res3b3_branch2b"
	bottom: "m_res3b3_branch2b"
	name: "m_res3b3_branch2b_relu"
	type: "ReLU"
}

layer {
	bottom: "m_res3b3_branch2b"
	top: "m_res3b3_branch2c"
	name: "m_res3b3_branch2c"
	type: "Convolution"
	param {
		name: "res3b3_branch2c_w"
		lr_mult: 0.0
		decay_mult: 0.0
	}
	convolution_param {
		num_output: 512
		kernel_size: 1
		pad: 0
		stride: 1
		bias_term: false
	}
}

layer {
	bottom: "m_res3b3_branch2c"
	top: "m_res3b3_branch2c"
	name: "m_bn3b3_branch2c"
	type: "BatchNorm"
	param {
		name: "bn3b3_branch2c_1"
		lr_mult: 0.0
		decay_mult: 0.0
	}
	param {
		name: "bn3b3_branch2c_2"
		lr_mult: 0.0
		decay_mult: 0.0
	}
	param {
		name: "bn3b3_branch2c_3"
		lr_mult: 0.0
		decay_mult: 0.0
	}
	batch_norm_param {
		use_global_stats: true
	}
}

layer {
	bottom: "m_res3b3_branch2c"
	top: "m_res3b3_branch2c"
	name: "m_scale3b3_branch2c"
	type: "Scale"
	param {
		name: "scale3b3_branch2c_1"
		lr_mult: 0.0
		decay_mult: 0.0
	}
	param {
		name: "scale3b3_branch2c_2"
		lr_mult: 0.0
		decay_mult: 0.0
	}
	scale_param {
		bias_term: true
	}
}

layer {
	bottom: "m_res3b2"
	bottom: "m_res3b3_branch2c"
	top: "m_res3b3"
	name: "m_res3b3"
	type: "Eltwise"
}

layer {
	bottom: "m_res3b3"
	top: "m_res3b3"
	name: "m_res3b3_relu"
	type: "ReLU"
}

layer {
	bottom: "m_res3b3"
	top: "m_res4a_branch1"
	name: "m_res4a_branch1"
	type: "Convolution"
	param {
		name: "res4a_branch1_w"
		lr_mult: 0.0
		decay_mult: 0.0
	}
	convolution_param {
		num_output: 1024
		kernel_size: 1
		pad: 0
		stride: 2
		bias_term: false
	}
}

layer {
	bottom: "m_res4a_branch1"
	top: "m_res4a_branch1"
	name: "m_bn4a_branch1"
	type: "BatchNorm"
	param {
		name: "bn4a_branch1_1"
		lr_mult: 0.0
		decay_mult: 0.0
	}
	param {
		name: "bn4a_branch1_2"
		lr_mult: 0.0
		decay_mult: 0.0
	}
	param {
		name: "bn4a_branch1_3"
		lr_mult: 0.0
		decay_mult: 0.0
	}
	batch_norm_param {
		use_global_stats: true
	}
}

layer {
	bottom: "m_res4a_branch1"
	top: "m_res4a_branch1"
	name: "m_scale4a_branch1"
	type: "Scale"
	param {
		name: "scale4a_branch1_1"
		lr_mult: 0.0
		decay_mult: 0.0
	}
	param {
		name: "scale4a_branch1_2"
		lr_mult: 0.0
		decay_mult: 0.0
	}
	scale_param {
		bias_term: true
	}
}

layer {
	bottom: "m_res3b3"
	top: "m_res4a_branch2a"
	name: "m_res4a_branch2a"
	type: "Convolution"
	param {
		name: "res4a_branch2a_w"
		lr_mult: 0.0
		decay_mult: 0.0
	}
	convolution_param {
		num_output: 256
		kernel_size: 1
		pad: 0
		stride: 2
		bias_term: false
	}
}

layer {
	bottom: "m_res4a_branch2a"
	top: "m_res4a_branch2a"
	name: "m_bn4a_branch2a"
	type: "BatchNorm"
	param {
		name: "bn4a_branch2a_1"
		lr_mult: 0.0
		decay_mult: 0.0
	}
	param {
		name: "bn4a_branch2a_2"
		lr_mult: 0.0
		decay_mult: 0.0
	}
	param {
		name: "bn4a_branch2a_3"
		lr_mult: 0.0
		decay_mult: 0.0
	}
	batch_norm_param {
		use_global_stats: true
	}
}

layer {
	bottom: "m_res4a_branch2a"
	top: "m_res4a_branch2a"
	name: "m_scale4a_branch2a"
	type: "Scale"
	param {
		name: "scale4a_branch2a_1"
		lr_mult: 0.0
		decay_mult: 0.0
	}
	param {
		name: "scale4a_branch2a_2"
		lr_mult: 0.0
		decay_mult: 0.0
	}
	scale_param {
		bias_term: true
	}
}

layer {
	top: "m_res4a_branch2a"
	bottom: "m_res4a_branch2a"
	name: "m_res4a_branch2a_relu"
	type: "ReLU"
}

layer {
	bottom: "m_res4a_branch2a"
	top: "m_res4a_branch2b"
	name: "m_res4a_branch2b"
	type: "Convolution"
	param {
		name: "res4a_branch2b_w"
		lr_mult: 0.0
		decay_mult: 0.0
	}
	convolution_param {
		num_output: 256
		kernel_size: 3
		pad: 1
		stride: 1
		bias_term: false
	}
}

layer {
	bottom: "m_res4a_branch2b"
	top: "m_res4a_branch2b"
	name: "m_bn4a_branch2b"
	type: "BatchNorm"
	param {
		name: "bn4a_branch2b_1"
		lr_mult: 0.0
		decay_mult: 0.0
	}
	param {
		name: "bn4a_branch2b_2"
		lr_mult: 0.0
		decay_mult: 0.0
	}
	param {
		name: "bn4a_branch2b_3"
		lr_mult: 0.0
		decay_mult: 0.0
	}
	batch_norm_param {
		use_global_stats: true
	}
}

layer {
	bottom: "m_res4a_branch2b"
	top: "m_res4a_branch2b"
	name: "m_scale4a_branch2b"
	type: "Scale"
	param {
		name: "scale4a_branch2b_1"
		lr_mult: 0.0
		decay_mult: 0.0
	}
	param {
		name: "scale4a_branch2b_2"
		lr_mult: 0.0
		decay_mult: 0.0
	}
	scale_param {
		bias_term: true
	}
}

layer {
	top: "m_res4a_branch2b"
	bottom: "m_res4a_branch2b"
	name: "m_res4a_branch2b_relu"
	type: "ReLU"
}

layer {
	bottom: "m_res4a_branch2b"
	top: "m_res4a_branch2c"
	name: "m_res4a_branch2c"
	type: "Convolution"
	param {
		name: "res4a_branch2c_w"
		lr_mult: 0.0
		decay_mult: 0.0
	}
	convolution_param {
		num_output: 1024
		kernel_size: 1
		pad: 0
		stride: 1
		bias_term: false
	}
}

layer {
	bottom: "m_res4a_branch2c"
	top: "m_res4a_branch2c"
	name: "m_bn4a_branch2c"
	type: "BatchNorm"
	param {
		name: "bn4a_branch2c_1"
		lr_mult: 0.0
		decay_mult: 0.0
	}
	param {
		name: "bn4a_branch2c_2"
		lr_mult: 0.0
		decay_mult: 0.0
	}
	param {
		name: "bn4a_branch2c_3"
		lr_mult: 0.0
		decay_mult: 0.0
	}
	batch_norm_param {
		use_global_stats: true
	}
}

layer {
	bottom: "m_res4a_branch2c"
	top: "m_res4a_branch2c"
	name: "m_scale4a_branch2c"
	type: "Scale"
	param {
		name: "scale4a_branch2c_1"
		lr_mult: 0.0
		decay_mult: 0.0
	}
	param {
		name: "scale4a_branch2c_2"
		lr_mult: 0.0
		decay_mult: 0.0
	}
	scale_param {
		bias_term: true
	}
}

layer {
	bottom: "m_res4a_branch1"
	bottom: "m_res4a_branch2c"
	top: "m_res4a"
	name: "m_res4a"
	type: "Eltwise"
}

layer {
	bottom: "m_res4a"
	top: "m_res4a"
	name: "m_res4a_relu"
	type: "ReLU"
}

layer {
	bottom: "m_res4a"
	top: "m_res4b1_branch2a"
	name: "m_res4b1_branch2a"
	type: "Convolution"
	param {
		name: "res4b1_branch2a_w"
		lr_mult: 0.0
		decay_mult: 0.0
	}
	convolution_param {
		num_output: 256
		kernel_size: 1
		pad: 0
		stride: 1
		bias_term: false
	}
}

layer {
	bottom: "m_res4b1_branch2a"
	top: "m_res4b1_branch2a"
	name: "m_bn4b1_branch2a"
	type: "BatchNorm"
	param {
		name: "bn4b1_branch2a_1"
		lr_mult: 0.0
		decay_mult: 0.0
	}
	param {
		name: "bn4b1_branch2a_2"
		lr_mult: 0.0
		decay_mult: 0.0
	}
	param {
		name: "bn4b1_branch2a_3"
		lr_mult: 0.0
		decay_mult: 0.0
	}
	batch_norm_param {
		use_global_stats: true
	}
}

layer {
	bottom: "m_res4b1_branch2a"
	top: "m_res4b1_branch2a"
	name: "m_scale4b1_branch2a"
	type: "Scale"
	param {
		name: "scale4b1_branch2a_1"
		lr_mult: 0.0
		decay_mult: 0.0
	}
	param {
		name: "scale4b1_branch2a_2"
		lr_mult: 0.0
		decay_mult: 0.0
	}
	scale_param {
		bias_term: true
	}
}

layer {
	top: "m_res4b1_branch2a"
	bottom: "m_res4b1_branch2a"
	name: "m_res4b1_branch2a_relu"
	type: "ReLU"
}

layer {
	bottom: "m_res4b1_branch2a"
	top: "m_res4b1_branch2b"
	name: "m_res4b1_branch2b"
	type: "Convolution"
	param {
		name: "res4b1_branch2b_w"
		lr_mult: 0.0
		decay_mult: 0.0
	}
	convolution_param {
		num_output: 256
		kernel_size: 3
		pad: 1
		stride: 1
		bias_term: false
	}
}

layer {
	bottom: "m_res4b1_branch2b"
	top: "m_res4b1_branch2b"
	name: "m_bn4b1_branch2b"
	type: "BatchNorm"
	param {
		name: "bn4b1_branch2b_1"
		lr_mult: 0.0
		decay_mult: 0.0
	}
	param {
		name: "bn4b1_branch2b_2"
		lr_mult: 0.0
		decay_mult: 0.0
	}
	param {
		name: "bn4b1_branch2b_3"
		lr_mult: 0.0
		decay_mult: 0.0
	}
	batch_norm_param {
		use_global_stats: true
	}
}

layer {
	bottom: "m_res4b1_branch2b"
	top: "m_res4b1_branch2b"
	name: "m_scale4b1_branch2b"
	type: "Scale"
	param {
		name: "scale4b1_branch2b_1"
		lr_mult: 0.0
		decay_mult: 0.0
	}
	param {
		name: "scale4b1_branch2b_2"
		lr_mult: 0.0
		decay_mult: 0.0
	}
	scale_param {
		bias_term: true
	}
}

layer {
	top: "m_res4b1_branch2b"
	bottom: "m_res4b1_branch2b"
	name: "m_res4b1_branch2b_relu"
	type: "ReLU"
}

layer {
	bottom: "m_res4b1_branch2b"
	top: "m_res4b1_branch2c"
	name: "m_res4b1_branch2c"
	type: "Convolution"
	param {
		name: "res4b1_branch2c_w"
		lr_mult: 0.0
		decay_mult: 0.0
	}
	convolution_param {
		num_output: 1024
		kernel_size: 1
		pad: 0
		stride: 1
		bias_term: false
	}
}

layer {
	bottom: "m_res4b1_branch2c"
	top: "m_res4b1_branch2c"
	name: "m_bn4b1_branch2c"
	type: "BatchNorm"
	param {
…
		lr_mult: 0.0
		decay_mult: 0.0
	}
	param {
		name: "scale4b11_branch2c_2"
		lr_mult: 0.0
		decay_mult: 0.0
	}
	scale_param {
		bias_term: true
	}
}

layer {
	bottom: "h_res4b10"
	bottom: "h_res4b11_branch2c"
	top: "h_res4b11"
	name: "h_res4b11"
	type: "Eltwise"
}

layer {
	bottom: "h_res4b11"
	top: "h_res4b11"
	name: "h_res4b11_relu"
	type: "ReLU"
}

layer {
	bottom: "h_res4b11"
	top: "h_res4b12_branch2a"
	name: "h_res4b12_branch2a"
	type: "Convolution"
	param {
		name: "res4b12_branch2a_w"
		lr_mult: 0.0
		decay_mult: 0.0
	}
	convolution_param {
		num_output: 256
		kernel_size: 1
		pad: 0
		stride: 1
		bias_term: false
	}
}

layer {
	bottom: "h_res4b12_branch2a"
	top: "h_res4b12_branch2a"
	name: "h_bn4b12_branch2a"
	type: "BatchNorm"
	param {
		name: "bn4b12_branch2a_1"
		lr_mult: 0.0
		decay_mult: 0.0
	}
	param {
		name: "bn4b12_branch2a_2"
		lr_mult: 0.0
		decay_mult: 0.0
	}
	param {
		name: "bn4b12_branch2a_3"
		lr_mult: 0.0
		decay_mult: 0.0
	}
	batch_norm_param {
		use_global_stats: true
	}
}

layer {
	bottom: "h_res4b12_branch2a"
	top: "h_res4b12_branch2a"
	name: "h_scale4b12_branch2a"
	type: "Scale"
	param {
		name: "scale4b12_branch2a_1"
		lr_mult: 0.0
		decay_mult: 0.0
	}
	param {
		name: "scale4b12_branch2a_2"
		lr_mult: 0.0
		decay_mult: 0.0
	}
	scale_param {
		bias_term: true
	}
}

layer {
	top: "h_res4b12_branch2a"
	bottom: "h_res4b12_branch2a"
	name: "h_res4b12_branch2a_relu"
	type: "ReLU"
}

layer {
	bottom: "h_res4b12_branch2a"
	top: "h_res4b12_branch2b"
	name: "h_res4b12_branch2b"
	type: "Convolution"
	param {
		name: "res4b12_branch2b_w"
		lr_mult: 0.0
		decay_mult: 0.0
	}
	convolution_param {
		num_output: 256
		kernel_size: 3
		pad: 1
		stride: 1
		bias_term: false
	}
}

layer {
	bottom: "h_res4b12_branch2b"
	top: "h_res4b12_branch2b"
	name: "h_bn4b12_branch2b"
	type: "BatchNorm"
	param {
		name: "bn4b12_branch2b_1"
		lr_mult: 0.0
		decay_mult: 0.0
	}
	param {
		name: "bn4b12_branch2b_2"
		lr_mult: 0.0
		decay_mult: 0.0
	}
	param {
		name: "bn4b12_branch2b_3"
		lr_mult: 0.0
		decay_mult: 0.0
	}
	batch_norm_param {
		use_global_stats: true
	}
}

layer {
	bottom: "h_res4b12_branch2b"
	top: "h_res4b12_branch2b"
	name: "h_scale4b12_branch2b"
	type: "Scale"
	param {
		name: "scale4b12_branch2b_1"
		lr_mult: 0.0
		decay_mult: 0.0
	}
	param {
		name: "scale4b12_branch2b_2"
		lr_mult: 0.0
		decay_mult: 0.0
	}
	scale_param {
		bias_term: true
	}
}

layer {
	top: "h_res4b12_branch2b"
	bottom: "h_res4b12_branch2b"
	name: "h_res4b12_branch2b_relu"
	type: "ReLU"
}

layer {
	bottom: "h_res4b12_branch2b"
	top: "h_res4b12_branch2c"
	name: "h_res4b12_branch2c"
	type: "Convolution"
	param {
		name: "res4b12_branch2c_w"
		lr_mult: 0.0
		decay_mult: 0.0
	}
	convolution_param {
		num_output: 1024
		kernel_size: 1
		pad: 0
		stride: 1
		bias_term: false
	}
}

layer {
	bottom: "h_res4b12_branch2c"
	top: "h_res4b12_branch2c"
	name: "h_bn4b12_branch2c"
	type: "BatchNorm"
	param {
		name: "bn4b12_branch2c_1"
		lr_mult: 0.0
		decay_mult: 0.0
	}
	param {
		name: "bn4b12_branch2c_2"
		lr_mult: 0.0
		decay_mult: 0.0
	}
	param {
		name: "bn4b12_branch2c_3"
		lr_mult: 0.0
		decay_mult: 0.0
	}
	batch_norm_param {
		use_global_stats: true
	}
}

layer {
	bottom: "h_res4b12_branch2c"
	top: "h_res4b12_branch2c"
	name: "h_scale4b12_branch2c"
	type: "Scale"
	param {
		name: "scale4b12_branch2c_1"
		lr_mult: 0.0
		decay_mult: 0.0
	}
	param {
		name: "scale4b12_branch2c_2"
		lr_mult: 0.0
		decay_mult: 0.0
	}
	scale_param {
		bias_term: true
	}
}

layer {
	bottom: "h_res4b11"
	bottom: "h_res4b12_branch2c"
	top: "h_res4b12"
	name: "h_res4b12"
	type: "Eltwise"
}

layer {
	bottom: "h_res4b12"
	top: "h_res4b12"
	name: "h_res4b12_relu"
	type: "ReLU"
}

layer {
	bottom: "h_res4b12"
	top: "h_res4b13_branch2a"
	name: "h_res4b13_branch2a"
	type: "Convolution"
	param {
		name: "res4b13_branch2a_w"
		lr_mult: 0.0
		decay_mult: 0.0
	}
	convolution_param {
		num_output: 256
		kernel_size: 1
		pad: 0
		stride: 1
		bias_term: false
	}
}

layer {
	bottom: "h_res4b13_branch2a"
	top: "h_res4b13_branch2a"
	name: "h_bn4b13_branch2a"
	type: "BatchNorm"
	param {
		name: "bn4b13_branch2a_1"
		lr_mult: 0.0
		decay_mult: 0.0
	}
	param {
		name: "bn4b13_branch2a_2"
		lr_mult: 0.0
		decay_mult: 0.0
	}
	param {
		name: "bn4b13_branch2a_3"
		lr_mult: 0.0
		decay_mult: 0.0
	}
	batch_norm_param {
		use_global_stats: true
	}
}

layer {
	bottom: "h_res4b13_branch2a"
	top: "h_res4b13_branch2a"
	name: "h_scale4b13_branch2a"
	type: "Scale"
	param {
		name: "scale4b13_branch2a_1"
		lr_mult: 0.0
		decay_mult: 0.0
	}
	param {
		name: "scale4b13_branch2a_2"
		lr_mult: 0.0
		decay_mult: 0.0
	}
	scale_param {
		bias_term: true
	}
}

layer {
	top: "h_res4b13_branch2a"
	bottom: "h_res4b13_branch2a"
	name: "h_res4b13_branch2a_relu"
	type: "ReLU"
}

layer {
	bottom: "h_res4b13_branch2a"
	top: "h_res4b13_branch2b"
	name: "h_res4b13_branch2b"
	type: "Convolution"
	param {
		name: "res4b13_branch2b_w"
		lr_mult: 0.0
		decay_mult: 0.0
	}
	convolution_param {
		num_output: 256
		kernel_size: 3
		pad: 1
		stride: 1
		bias_term: false
	}
}

layer {
	bottom: "h_res4b13_branch2b"
	top: "h_res4b13_branch2b"
	name: "h_bn4b13_branch2b"
	type: "BatchNorm"
	param {
		name: "bn4b13_branch2b_1"
		lr_mult: 0.0
		decay_mult: 0.0
	}
	param {
		name: "bn4b13_branch2b_2"
		lr_mult: 0.0
		decay_mult: 0.0
	}
	param {
		name: "bn4b13_branch2b_3"
		lr_mult: 0.0
		decay_mult: 0.0
	}
	batch_norm_param {
		use_global_stats: true
	}
}

layer {
	bottom: "h_res4b13_branch2b"
	top: "h_res4b13_branch2b"
	name: "h_scale4b13_branch2b"
	type: "Scale"
	param {
		name: "scale4b13_branch2b_1"
		lr_mult: 0.0
		decay_mult: 0.0
	}
	param {
		name: "scale4b13_branch2b_2"
		lr_mult: 0.0
		decay_mult: 0.0
	}
	scale_param {
		bias_term: true
	}
}

layer {
	top: "h_res4b13_branch2b"
	bottom: "h_res4b13_branch2b"
	name: "h_res4b13_branch2b_relu"
	type: "ReLU"
}

layer {
	bottom: "h_res4b13_branch2b"
	top: "h_res4b13_branch2c"
	name: "h_res4b13_branch2c"
	type: "Convolution"
	param {
		name: "res4b13_branch2c_w"
		lr_mult: 0.0
		decay_mult: 0.0
	}
	convolution_param {
		num_output: 1024
		kernel_size: 1
		pad: 0
		stride: 1
		bias_term: false
	}
}

layer {
	bottom: "h_res4b13_branch2c"
	top: "h_res4b13_branch2c"
	name: "h_bn4b13_branch2c"
	type: "BatchNorm"
	param {
		name: "bn4b13_branch2c_1"
		lr_mult: 0.0
		decay_mult: 0.0
	}
	param {
		name: "bn4b13_branch2c_2"
		lr_mult: 0.0
		decay_mult: 0.0
	}
	param {
		name: "bn4b13_branch2c_3"
		lr_mult: 0.0
		decay_mult: 0.0
	}
	batch_norm_param {
		use_global_stats: true
	}
}

layer {
	bottom: "h_res4b13_branch2c"
	top: "h_res4b13_branch2c"
	name: "h_scale4b13_branch2c"
	type: "Scale"
	param {
		name: "scale4b13_branch2c_1"
		lr_mult: 0.0
		decay_mult: 0.0
	}
	param {
		name: "scale4b13_branch2c_2"
		lr_mult: 0.0
		decay_mult: 0.0
	}
	scale_param {
		bias_term: true
	}
}

layer {
	bottom: "h_res4b12"
	bottom: "h_res4b13_branch2c"
	top: "h_res4b13"
	name: "h_res4b13"
	type: "Eltwise"
}

layer {
	bottom: "h_res4b13"
	top: "h_res4b13"
	name: "h_res4b13_relu"
	type: "ReLU"
}

layer {
	bottom: "h_res4b13"
	top: "h_res4b14_branch2a"
	name: "h_res4b14_branch2a"
	type: "Convolution"
	param {
		name: "res4b14_branch2a_w"
		lr_mult: 0.0
		decay_mult: 0.0
	}
	convolution_param {
		num_output: 256
		kernel_size: 1
		pad: 0
		stride: 1
		bias_term: false
	}
}

layer {
	bottom: "h_res4b14_branch2a"
	top: "h_res4b14_branch2a"
	name: "h_bn4b14_branch2a"
	type: "BatchNorm"
	param {
		name: "bn4b14_branch2a_1"
		lr_mult: 0.0
		decay_mult: 0.0
	}
	param {
		name: "bn4b14_branch2a_2"
		lr_mult: 0.0
		decay_mult: 0.0
	}
	param {
		name: "bn4b14_branch2a_3"
		lr_mult: 0.0
		decay_mult: 0.0
	}
	batch_norm_param {
		use_global_stats: true
	}
}

layer {
	bottom: "h_res4b14_branch2a"
	top: "h_res4b14_branch2a"
	name: "h_scale4b14_branch2a"
	type: "Scale"
	param {
		name: "scale4b14_branch2a_1"
		lr_mult: 0.0
		decay_mult: 0.0
	}
	param {
		name: "scale4b14_branch2a_2"
		lr_mult: 0.0
		decay_mult: 0.0
	}
	scale_param {
		bias_term: true
	}
}

layer {
	top: "h_res4b14_branch2a"
	bottom: "h_res4b14_branch2a"
	name: "h_res4b14_branch2a_relu"
	type: "ReLU"
}

layer {
	bottom: "h_res4b14_branch2a"
	top: "h_res4b14_branch2b"
	name: "h_res4b14_branch2b"
	type: "Convolution"
	param {
		name: "res4b14_branch2b_w"
		lr_mult: 0.0
		decay_mult: 0.0
	}
	convolution_param {
		num_output: 256
		kernel_size: 3
		pad: 1
		stride: 1
		bias_term: false
	}
}

layer {
	bottom: "h_res4b14_branch2b"
	top: "h_res4b14_branch2b"
	name: "h_bn4b14_branch2b"
	type: "BatchNorm"
	param {
		name: "bn4b14_branch2b_1"
		lr_mult: 0.0
		decay_mult: 0.0
	}
	param {
		name: "bn4b14_branch2b_2"
		lr_mult: 0.0
		decay_mult: 0.0
	}
	param {
		name: "bn4b14_branch2b_3"
		lr_mult: 0.0
		decay_mult: 0.0
	}
	batch_norm_param {
		use_global_stats: true
	}
}

layer {
	bottom: "h_res4b14_branch2b"
	top: "h_res4b14_branch2b"
	name: "h_scale4b14_branch2b"
	type: "Scale"
	param {
		name: "scale4b14_branch2b_1"
		lr_mult: 0.0
		decay_mult: 0.0
	}
	param {
		name: "scale4b14_branch2b_2"
		lr_mult: 0.0
		decay_mult: 0.0
	}
	scale_param {
		bias_term: true
	}
}

layer {
	top: "h_res4b14_branch2b"
	bottom: "h_res4b14_branch2b"
	name: "h_res4b14_branch2b_relu"
	type: "ReLU"
}

layer {
	bottom: "h_res4b14_branch2b"
	top: "h_res4b14_branch2c"
	name: "h_res4b14_branch2c"
	type: "Convolution"
	param {
		name: "res4b14_branch2c_w"
		lr_mult: 0.0
		decay_mult: 0.0
	}
	convolution_param {
		num_output: 1024
		kernel_size: 1
		pad: 0
		stride: 1
		bias_term: false
	}
}

layer {
	bottom: "h_res4b14_branch2c"
	top: "h_res4b14_branch2c"
	name: "h_bn4b14_branch2c"
	type: "BatchNorm"
	param {
		name: "bn4b14_branch2c_1"
		lr_mult: 0.0
		decay_mult: 0.0
	}
	param {
		name: "bn4b14_branch2c_2"
		lr_mult: 0.0
		decay_mult: 0.0
	}
	param {
		name: "bn4b14_branch2c_3"
		lr_mult: 0.0
		decay_mult: 0.0
	}
	batch_norm_param {
		use_global_stats: true
	}
}

layer {
	bottom: "h_res4b14_branch2c"
	top: "h_res4b14_branch2c"
	name: "h_scale4b14_branch2c"
	type: "Scale"
	param {
		name: "scale4b14_branch2c_1"
		lr_mult: 0.0
		decay_mult: 0.0
	}
	param {
		name: "scale4b14_branch2c_2"
		lr_mult: 0.0
		decay_mult: 0.0
	}
	scale_param {
		bias_term: true
	}
}

layer {
	bottom: "h_res4b13"
	bottom: "h_res4b14_branch2c"
	top: "h_res4b14"
	name: "h_res4b14"
	type: "Eltwise"
}

layer {
	bottom: "h_res4b14"
	top: "h_res4b14"
	name: "h_res4b14_relu"
	type: "ReLU"
}

layer {
	bottom: "h_res4b14"
	top: "h_res4b15_branch2a"
	name: "h_res4b15_branch2a"
	type: "Convolution"
	param {
		name: "res4b15_branch2a_w"
		lr_mult: 0.0
		decay_mult: 0.0
	}
	convolution_param {
		num_output: 256
		kernel_size: 1
		pad: 0
		stride: 1
		bias_term: false
	}
}

layer {
	bottom: "h_res4b15_branch2a"
	top: "h_res4b15_branch2a"
	name: "h_bn4b15_branch2a"
	type: "BatchNorm"
	param {
		name: "bn4b15_branch2a_1"
		lr_mult: 0.0
		decay_mult: 0.0
	}
	param {
		name: "bn4b15_branch2a_2"
		lr_mult: 0.0
		decay_mult: 0.0
	}
	param {
		name: "bn4b15_branch2a_3"
		lr_mult: 0.0
		decay_mult: 0.0
	}
	batch_norm_param {
		use_global_stats: true
	}
}

layer {
	bottom: "h_res4b15_branch2a"
	top: "h_res4b15_branch2a"
	name: "h_scale4b15_branch2a"
	type: "Scale"
	param {
		name: "scale4b15_branch2a_1"
		lr_mult: 0.0
		decay_mult: 0.0
	}
	param {
		name: "scale4b15_branch2a_2"
		lr_mult: 0.0
		decay_mult: 0.0
	}
	scale_param {
		bias_term: true
	}
}

layer {
	top: "h_res4b15_branch2a"
	bottom: "h_res4b15_branch2a"
	name: "h_res4b15_branch2a_relu"
	type: "ReLU"
}

layer {
	bottom: "h_res4b15_branch2a"
	top: "h_res4b15_branch2b"
	name: "h_res4b15_branch2b"
	type: "Convolution"
	param {
		name: "res4b15_branch2b_w"
		lr_mult: 0.0
		decay_mult: 0.0
	}
	convolution_param {
		num_output: 256
		kernel_size: 3
		pad: 1
		stride: 1
		bias_term: false
	}
}

layer {
	bottom: "h_res4b15_branch2b"
	top: "h_res4b15_branch2b"
	name: "h_bn4b15_branch2b"
	type: "BatchNorm"
	param {
		name: "bn4b15_branch2b_1"
		lr_mult: 0.0
		decay_mult: 0.0
	}
	param {
		name: "bn4b15_branch2b_2"
		lr_mult: 0.0
		decay_mult: 0.0
	}
	param {
		name: "bn4b15_branch2b_3"
		lr_mult: 0.0
		decay_mult: 0.0
	}
	batch_norm_param {
		use_global_stats: true
	}
}

layer {
	bottom: "h_res4b15_branch2b"
	top: "h_res4b15_branch2b"
	name: "h_scale4b15_branch2b"
	type: "Scale"
	param {
		name: "scale4b15_branch2b_1"
		lr_mult: 0.0
		decay_mult: 0.0
	}
	param {
		name: "scale4b15_branch2b_2"
		lr_mult: 0.0
		decay_mult: 0.0
	}
	scale_param {
		bias_term: true
	}
}

layer {
	top: "h_res4b15_branch2b"
	bottom: "h_res4b15_branch2b"
	name: "h_res4b15_branch2b_relu"
	type: "ReLU"
}

layer {
	bottom: "h_res4b15_branch2b"
	top: "h_res4b15_branch2c"
	name: "h_res4b15_branch2c"
	type: "Convolution"
	param {
		name: "res4b15_branch2c_w"
		lr_mult: 0.0
		decay_mult: 0.0
	}
	convolution_param {
		num_output: 1024
		kernel_size: 1
		pad: 0
		stride: 1
		bias_term: false
	}
}

layer {
	bottom: "h_res4b15_branch2c"
	top: "h_res4b15_branch2c"
	name: "h_bn4b15_branch2c"
	type: "BatchNorm"
	param {
		name: "bn4b15_branch2c_1"
		lr_mult: 0.0
		decay_mult: 0.0
	}
	param {
		name: "bn4b15_branch2c_2"
		lr_mult: 0.0
		decay_mult: 0.0
	}
	param {
		name: "bn4b15_branch2c_3"
		lr_mult: 0.0
		decay_mult: 0.0
	}
	batch_norm_param {
		use_global_stats: true
	}
}

layer {
	bottom: "h_res4b15_branch2c"
	top: "h_res4b15_branch2c"
	name: "h_scale4b15_branch2c"
	type: "Scale"
	param {
		name: "scale4b15_branch2c_1"
		lr_mult: 0.0
		decay_mult: 0.0
	}
	param {
		name: "scale4b15_branch2c_2"
		lr_mult: 0.0
		decay_mult: 0.0
	}
	scale_param {
		bias_term: true
	}
}

layer {
	bottom: "h_res4b14"
	bottom: "h_res4b15_branch2c"
	top: "h_res4b15"
	name: "h_res4b15"
	type: "Eltwise"
}

layer {
	bottom: "h_res4b15"
	top: "h_res4b15"
	name: "h_res4b15_relu"
	type: "ReLU"
}

layer {
	bottom: "h_res4b15"
	top: "h_res4b16_branch2a"
	name: "h_res4b16_branch2a"
	type: "Convolution"
	param {
		name: "res4b16_branch2a_w"
		lr_mult: 0.0
		decay_mult: 0.0
	}
	convolution_param {
		num_output: 256
		kernel_size: 1
		pad: 0
		stride: 1
		bias_term: false
	}
}

layer {
	bottom: "h_res4b16_branch2a"
	top: "h_res4b16_branch2a"
	name: "h_bn4b16_branch2a"
	type: "BatchNorm"
	param {
		name: "bn4b16_branch2a_1"
		lr_mult: 0.0
		decay_mult: 0.0
	}
	param {
		name: "bn4b16_branch2a_2"
		lr_mult: 0.0
		decay_mult: 0.0
	}
	param {
		name: "bn4b16_branch2a_3"
		lr_mult: 0.0
		decay_mult: 0.0
	}
	batch_norm_param {
		use_global_stats: true
	}
}

layer {
	bottom: "h_res4b16_branch2a"
	top: "h_res4b16_branch2a"
	name: "h_scale4b16_branch2a"
	type: "Scale"
	param {
		name: "scale4b16_branch2a_1"
		lr_mult: 0.0
		decay_mult: 0.0
	}
	param {
		name: "scale4b16_branch2a_2"
		lr_mult: 0.0
		decay_mult: 0.0
	}
	scale_param {
		bias_term: true
	}
}

layer {
	top: "h_res4b16_branch2a"
	bottom: "h_res4b16_branch2a"
	name: "h_res4b16_branch2a_relu"
	type: "ReLU"
}

layer {
	bottom: "h_res4b16_branch2a"
	top: "h_res4b16_branch2b"
	name: "h_res4b16_branch2b"
	type: "Convolution"
	param {
		name: "res4b16_branch2b_w"
		lr_mult: 0.0
		decay_mult: 0.0
	}
	convolution_param {
		num_output: 256
		kernel_size: 3
		pad: 1
		stride: 1
		bias_term: false
	}
}

layer {
	bottom: "h_res4b16_branch2b"
	top: "h_res4b16_branch2b"
	name: "h_bn4b16_branch2b"
	type: "BatchNorm"
	param {
		name: "bn4b16_branch2b_1"
		lr_mult: 0.0
		decay_mult: 0.0
	}
	param {
		name: "bn4b16_branch2b_2"
		lr_mult: 0.0
		decay_mult: 0.0
	}
	param {
		name: "bn4b16_branch2b_3"
		lr_mult: 0.0
		decay_mult: 0.0
	}
	batch_norm_param {
		use_global_stats: true
	}
}

layer {
	bottom: "h_res4b16_branch2b"
	top: "h_res4b16_branch2b"
	name: "h_scale4b16_branch2b"
	type: "Scale"
	param {
		name: "scale4b16_branch2b_1"
		lr_mult: 0.0
		decay_mult: 0.0
	}
	param {
		name: "scale4b16_branch2b_2"
		lr_mult: 0.0
		decay_mult: 0.0
	}
	scale_param {
		bias_term: true
	}
}

layer {
	top: "h_res4b16_branch2b"
	bottom: "h_res4b16_branch2b"
	name: "h_res4b16_branch2b_relu"
	type: "ReLU"
}

layer {
	bottom: "h_res4b16_branch2b"
	top: "h_res4b16_branch2c"
	name: "h_res4b16_branch2c"
	type: "Convolution"
	param {
		name: "res4b16_branch2c_w"
		lr_mult: 0.0
		decay_mult: 0.0
	}
	convolution_param {
		num_output: 1024
		kernel_size: 1
		pad: 0
		stride: 1
		bias_term: false
	}
}

layer {
	bottom: "h_res4b16_branch2c"
	top: "h_res4b16_branch2c"
	name: "h_bn4b16_branch2c"
	type: "BatchNorm"
	param {
		name: "bn4b16_branch2c_1"
		lr_mult: 0.0
		decay_mult: 0.0
	}
	param {
		name: "bn4b16_branch2c_2"
		lr_mult: 0.0
		decay_mult: 0.0
	}
	param {
		name: "bn4b16_branch2c_3"
		lr_mult: 0.0
		decay_mult: 0.0
	}
	batch_norm_param {
		use_global_stats: true
	}
}

layer {
	bottom: "h_res4b16_branch2c"
	top: "h_res4b16_branch2c"
	name: "h_scale4b16_branch2c"
	type: "Scale"
	param {
		name: "scale4b16_branch2c_1"
		lr_mult: 0.0
		decay_mult: 0.0
	}
	param {
		name: "scale4b16_branch2c_2"
		lr_mult: 0.0
		decay_mult: 0.0
	}
	scale_param {
		bias_term: true
	}
}

layer {
	bottom: "h_res4b15"
	bottom: "h_res4b16_branch2c"
	top: "h_res4b16"
	name: "h_res4b16"
	type: "Eltwise"
}

layer {
	bottom: "h_res4b16"
	top: "h_res4b16"
	name: "h_res4b16_relu"
	type: "ReLU"
}

layer {
	bottom: "h_res4b16"
	top: "h_res4b17_branch2a"
	name: "h_res4b17_branch2a"
	type: "Convolution"
	param {
		name: "res4b17_branch2a_w"
		lr_mult: 0.0
		decay_mult: 0.0
	}
	convolution_param {
		num_output: 256
		kernel_size: 1
		pad: 0
		stride: 1
		bias_term: false
	}
}

layer {
	bottom: "h_res4b17_branch2a"
	top: "h_res4b17_branch2a"
	name: "h_bn4b17_branch2a"
	type: "BatchNorm"
	param {
		name: "bn4b17_branch2a_1"
		lr_mult: 0.0
		decay_mult: 0.0
	}
	param {
		name: "bn4b17_branch2a_2"
		lr_mult: 0.0
		decay_mult: 0.0
	}
	param {
		name: "bn4b17_branch2a_3"
		lr_mult: 0.0
		decay_mult: 0.0
	}
	batch_norm_param {
		use_global_stats: true
	}
}

layer {
	bottom: "h_res4b17_branch2a"
	top: "h_res4b17_branch2a"
	name: "h_scale4b17_branch2a"
	type: "Scale"
	param {
		name: "scale4b17_branch2a_1"
		lr_mult: 0.0
		decay_mult: 0.0
	}
	param {
		name: "scale4b17_branch2a_2"
		lr_mult: 0.0
		decay_mult: 0.0
	}
	scale_param {
		bias_term: true
	}
}

layer {
	top: "h_res4b17_branch2a"
	bottom: "h_res4b17_branch2a"
	name: "h_res4b17_branch2a_relu"
	type: "ReLU"
}

layer {
	bottom: "h_res4b17_branch2a"
	top: "h_res4b17_branch2b"
	name: "h_res4b17_branch2b"
	type: "Convolution"
	param {
		name: "res4b17_branch2b_w"
		lr_mult: 0.0
		decay_mult: 0.0
	}
	convolution_param {
		num_output: 256
		kernel_size: 3
		pad: 1
		stride: 1
		bias_term: false
	}
}

layer {
	bottom: "h_res4b17_branch2b"
	top: "h_res4b17_branch2b"
	name: "h_bn4b17_branch2b"
	type: "BatchNorm"
	param {
		name: "bn4b17_branch2b_1"
		lr_mult: 0.0
		decay_mult: 0.0
	}
	param {
		name: "bn4b17_branch2b_2"
		lr_mult: 0.0
		decay_mult: 0.0
	}
	param {
		name: "bn4b17_branch2b_3"
		lr_mult: 0.0
		decay_mult: 0.0
	}
	batch_norm_param {
		use_global_stats: true
	}
}

layer {
	bottom: "h_res4b17_branch2b"
	top: "h_res4b17_branch2b"
	name: "h_scale4b17_branch2b"
	type: "Scale"
	param {
		name: "scale4b17_branch2b_1"
		lr_mult: 0.0
		decay_mult: 0.0
	}
	param {
		name: "scale4b17_branch2b_2"
		lr_mult: 0.0
		decay_mult: 0.0
	}
	scale_param {
		bias_term: true
	}
}

layer {
	top: "h_res4b17_branch2b"
	bottom: "h_res4b17_branch2b"
	name: "h_res4b17_branch2b_relu"
	type: "ReLU"
}

layer {
	bottom: "h_res4b17_branch2b"
	top: "h_res4b17_branch2c"
	name: "h_res4b17_branch2c"
	type: "Convolution"
	param {
		name: "res4b17_branch2c_w"
		lr_mult: 0.0
		decay_mult: 0.0
	}
	convolution_param {
		num_output: 1024
		kernel_size: 1
		pad: 0
		stride: 1
		bias_term: false
	}
}

layer {
	bottom: "h_res4b17_branch2c"
	top: "h_res4b17_branch2c"
	name: "h_bn4b17_branch2c"
	type: "BatchNorm"
	param {
		name: "bn4b17_branch2c_1"
		lr_mult: 0.0
		decay_mult: 0.0
	}
	param {
		name: "bn4b17_branch2c_2"
		lr_mult: 0.0
		decay_mult: 0.0
	}
	param {
		name: "bn4b17_branch2c_3"
		lr_mult: 0.0
		decay_mult: 0.0
	}
	batch_norm_param {
		use_global_stats: true
	}
}

layer {
	bottom: "h_res4b17_branch2c"
	top: "h_res4b17_branch2c"
	name: "h_scale4b17_branch2c"
	type: "Scale"
	param {
		name: "scale4b17_branch2c_1"
		lr_mult: 0.0
		decay_mult: 0.0
	}
	param {
		name: "scale4b17_branch2c_2"
		lr_mult: 0.0
		decay_mult: 0.0
	}
	scale_param {
		bias_term: true
	}
}

layer {
	bottom: "h_res4b16"
	bottom: "h_res4b17_branch2c"
	top: "h_res4b17"
	name: "h_res4b17"
	type: "Eltwise"
}

layer {
	bottom: "h_res4b17"
	top: "h_res4b17"
	name: "h_res4b17_relu"
	type: "ReLU"
}

layer {
	bottom: "h_res4b17"
	top: "h_res4b18_branch2a"
	name: "h_res4b18_branch2a"
	type: "Convolution"
	param {
		name: "res4b18_branch2a_w"
		lr_mult: 0.0
		decay_mult: 0.0
	}
	convolution_param {
		num_output: 256
		kernel_size: 1
		pad: 0
		stride: 1
		bias_term: false
	}
}

layer {
	bottom: "h_res4b18_branch2a"
	top: "h_res4b18_branch2a"
	name: "h_bn4b18_branch2a"
	type: "BatchNorm"
	param {
		name: "bn4b18_branch2a_1"
		lr_mult: 0.0
		decay_mult: 0.0
	}
	param {
		name: "bn4b18_branch2a_2"
		lr_mult: 0.0
		decay_mult: 0.0
	}
	param {
		name: "bn4b18_branch2a_3"
		lr_mult: 0.0
		decay_mult: 0.0
	}
	batch_norm_param {
		use_global_stats: true
	}
}

layer {
	bottom: "h_res4b18_branch2a"
	top: "h_res4b18_branch2a"
	name: "h_scale4b18_branch2a"
	type: "Scale"
	param {
		name: "scale4b18_branch2a_1"
		lr_mult: 0.0
		decay_mult: 0.0
	}
	param {
		name: "scale4b18_branch2a_2"
		lr_mult: 0.0
		decay_mult: 0.0
	}
	scale_param {
		bias_term: true
	}
}

layer {
	top: "h_res4b18_branch2a"
	bottom: "h_res4b18_branch2a"
	name: "h_res4b18_branch2a_relu"
	type: "ReLU"
}

layer {
	bottom: "h_res4b18_branch2a"
	top: "h_res4b18_branch2b"
	name: "h_res4b18_branch2b"
	type: "Convolution"
	param {
		name: "res4b18_branch2b_w"
		lr_mult: 0.0
		decay_mult: 0.0
	}
	convolution_param {
		num_output: 256
		kernel_size: 3
		pad: 1
		stride: 1
		bias_term: false
	}
}

layer {
	bottom: "h_res4b18_branch2b"
	top: "h_res4b18_branch2b"
	name: "h_bn4b18_branch2b"
	type: "BatchNorm"
	param {
		name: "bn4b18_branch2b_1"
		lr_mult: 0.0
		decay_mult: 0.0
	}
	param {
		name: "bn4b18_branch2b_2"
		lr_mult: 0.0
		decay_mult: 0.0
	}
	param {
		name: "bn4b18_branch2b_3"
		lr_mult: 0.0
		decay_mult: 0.0
	}
	batch_norm_param {
		use_global_stats: true
	}
}

layer {
	bottom: "h_res4b18_branch2b"
	top: "h_res4b18_branch2b"
	name: "h_scale4b18_branch2b"
	type: "Scale"
	param {
		name: "scale4b18_branch2b_1"
		lr_mult: 0.0
		decay_mult: 0.0
	}
	param {
		name: "scale4b18_branch2b_2"
		lr_mult: 0.0
		decay_mult: 0.0
	}
	scale_param {
		bias_term: true
	}
}

layer {
	top: "h_res4b18_branch2b"
	bottom: "h_res4b18_branch2b"
	name: "h_res4b18_branch2b_relu"
	type: "ReLU"
}

layer {
	bottom: "h_res4b18_branch2b"
	top: "h_res4b18_branch2c"
	name: "h_res4b18_branch2c"
	type: "Convolution"
	param {
		name: "res4b18_branch2c_w"
		lr_mult: 0.0
		decay_mult: 0.0
	}
	convolution_param {
		num_output: 1024
		kernel_size: 1
		pad: 0
		stride: 1
		bias_term: false
	}
}

layer {
	bottom: "h_res4b18_branch2c"
	top: "h_res4b18_branch2c"
	name: "h_bn4b18_branch2c"
	type: "BatchNorm"
	param {
		name: "bn4b18_branch2c_1"
		lr_mult: 0.0
		decay_mult: 0.0
	}
	param {
		name: "bn4b18_branch2c_2"
		lr_mult: 0.0
		decay_mult: 0.0
	}
	param {
		name: "bn4b18_branch2c_3"
		lr_mult: 0.0
		decay_mult: 0.0
	}
	batch_norm_param {
		use_global_stats: true
	}
}

layer {
	bottom: "h_res4b18_branch2c"
	top: "h_res4b18_branch2c"
	name: "h_scale4b18_branch2c"
	type: "Scale"
	param {
		name: "scale4b18_branch2c_1"
		lr_mult: 0.0
		decay_mult: 0.0
	}
	param {
		name: "scale4b18_branch2c_2"
		lr_mult: 0.0
		decay_mult: 0.0
	}
	scale_param {
		bias_term: true
	}
}

layer {
	bottom: "h_res4b17"
	bottom: "h_res4b18_branch2c"
	top: "h_res4b18"
	name: "h_res4b18"
	type: "Eltwise"
}

layer {
	bottom: "h_res4b18"
	top: "h_res4b18"
	name: "h_res4b18_relu"
	type: "ReLU"
}

layer {
	bottom: "h_res4b18"
	top: "h_res4b19_branch2a"
	name: "h_res4b19_branch2a"
	type: "Convolution"
	param {
		name: "res4b19_branch2a_w"
		lr_mult: 0.0
		decay_mult: 0.0
	}
	convolution_param {
		num_output: 256
		kernel_size: 1
		pad: 0
		stride: 1
		bias_term: false
	}
}

layer {
	bottom: "h_res4b19_branch2a"
	top: "h_res4b19_branch2a"
	name: "h_bn4b19_branch2a"
	type: "BatchNorm"
	param {
		name: "bn4b19_branch2a_1"
		lr_mult: 0.0
		decay_mult: 0.0
	}
	param {
		name: "bn4b19_branch2a_2"
		lr_mult: 0.0
		decay_mult: 0.0
	}
	param {
		name: "bn4b19_branch2a_3"
		lr_mult: 0.0
		decay_mult: 0.0
	}
	batch_norm_param {
		use_global_stats: true
	}
}

layer {
	bottom: "h_res4b19_branch2a"
	top: "h_res4b19_branch2a"
	name: "h_scale4b19_branch2a"
	type: "Scale"
	param {
		name: "scale4b19_branch2a_1"
		lr_mult: 0.0
		decay_mult: 0.0
	}
	param {
		name: "scale4b19_branch2a_2"
		lr_mult: 0.0
		decay_mult: 0.0
	}
	scale_param {
		bias_term: true
	}
}

layer {
	top: "h_res4b19_branch2a"
	bottom: "h_res4b19_branch2a"
	name: "h_res4b19_branch2a_relu"
	type: "ReLU"
}

layer {
	bottom: "h_res4b19_branch2a"
	top: "h_res4b19_branch2b"
	name: "h_res4b19_branch2b"
	type: "Convolution"
	param {
		name: "res4b19_branch2b_w"
		lr_mult: 0.0
		decay_mult: 0.0
	}
	convolution_param {
		num_output: 256
		kernel_size: 3
		pad: 1
		stride: 1
		bias_term: false
	}
}

layer {
	bottom: "h_res4b19_branch2b"
	top: "h_res4b19_branch2b"
	name: "h_bn4b19_branch2b"
	type: "BatchNorm"
	param {
		name: "bn4b19_branch2b_1"
		lr_mult: 0.0
		decay_mult: 0.0
	}
	param {
		name: "bn4b19_branch2b_2"
		lr_mult: 0.0
		decay_mult: 0.0
	}
	param {
		name: "bn4b19_branch2b_3"
		lr_mult: 0.0
		decay_mult: 0.0
	}
	batch_norm_param {
		use_global_stats: true
	}
}

layer {
	bottom: "h_res4b19_branch2b"
	top: "h_res4b19_branch2b"
	name: "h_scale4b19_branch2b"
	type: "Scale"
	param {
		name: "scale4b19_branch2b_1"
		lr_mult: 0.0
		decay_mult: 0.0
	}
	param {
		name: "scale4b19_branch2b_2"
		lr_mult: 0.0
		decay_mult: 0.0
	}
	scale_param {
		bias_term: true
	}
}

layer {
	top: "h_res4b19_branch2b"
	bottom: "h_res4b19_branch2b"
	name: "h_res4b19_branch2b_relu"
	type: "ReLU"
}

layer {
	bottom: "h_res4b19_branch2b"
	top: "h_res4b19_branch2c"
	name: "h_res4b19_branch2c"
	type: "Convolution"
	param {
		name: "res4b19_branch2c_w"
		lr_mult: 0.0
		decay_mult: 0.0
	}
	convolution_param {
		num_output: 1024
		kernel_size: 1
		pad: 0
		stride: 1
		bias_term: false
	}
}

layer {
	bottom: "h_res4b19_branch2c"
	top: "h_res4b19_branch2c"
	name: "h_bn4b19_branch2c"
	type: "BatchNorm"
	param {
		name: "bn4b19_branch2c_1"
		lr_mult: 0.0
		decay_mult: 0.0
	}
	param {
		name: "bn4b19_branch2c_2"
		lr_mult: 0.0
		decay_mult: 0.0
	}
	param {
		name: "bn4b19_branch2c_3"
		lr_mult: 0.0
		decay_mult: 0.0
	}
	batch_norm_param {
		use_global_stats: true
	}
}

layer {
	bottom: "h_res4b19_branch2c"
	top: "h_res4b19_branch2c"
	name: "h_scale4b19_branch2c"
	type: "Scale"
	param {
		name: "scale4b19_branch2c_1"
		lr_mult: 0.0
		decay_mult: 0.0
	}
	param {
		name: "scale4b19_branch2c_2"
		lr_mult: 0.0
		decay_mult: 0.0
	}
	scale_param {
		bias_term: true
	}
}

layer {
	bottom: "h_res4b18"
	bottom: "h_res4b19_branch2c"
	top: "h_res4b19"
	name: "h_res4b19"
	type: "Eltwise"
}

layer {
	bottom: "h_res4b19"
	top: "h_res4b19"
	name: "h_res4b19_relu"
	type: "ReLU"
}

layer {
	bottom: "h_res4b19"
	top: "h_res4b20_branch2a"
	name: "h_res4b20_branch2a"
	type: "Convolution"
	param {
		name: "res4b20_branch2a_w"
		lr_mult: 0.0
		decay_mult: 0.0
	}
	convolution_param {
		num_output: 256
		kernel_size: 1
		pad: 0
		stride: 1
		bias_term: false
	}
}

layer {
	bottom: "h_res4b20_branch2a"
	top: "h_res4b20_branch2a"
	name: "h_bn4b20_branch2a"
	type: "BatchNorm"
	param {
		name: "bn4b20_branch2a_1"
		lr_mult: 0.0
		decay_mult: 0.0
	}
	param {
		name: "bn4b20_branch2a_2"
		lr_mult: 0.0
		decay_mult: 0.0
	}
	param {
		name: "bn4b20_branch2a_3"
		lr_mult: 0.0
		decay_mult: 0.0
	}
	batch_norm_param {
		use_global_stats: true
	}
}

layer {
	bottom: "h_res4b20_branch2a"
	top: "h_res4b20_branch2a"
	name: "h_scale4b20_branch2a"
	type: "Scale"
	param {
		name: "scale4b20_branch2a_1"
		lr_mult: 0.0
		decay_mult: 0.0
	}
	param {
		name: "scale4b20_branch2a_2"
		lr_mult: 0.0
		decay_mult: 0.0
	}
	scale_param {
		bias_term: true
	}
}

layer {
	top: "h_res4b20_branch2a"
	bottom: "h_res4b20_branch2a"
	name: "h_res4b20_branch2a_relu"
	type: "ReLU"
}

layer {
	bottom: "h_res4b20_branch2a"
	top: "h_res4b20_branch2b"
	name: "h_res4b20_branch2b"
	type: "Convolution"
	param {
		name: "res4b20_branch2b_w"
		lr_mult: 0.0
		decay_mult: 0.0
	}
	convolution_param {
		num_output: 256
		kernel_size: 3
		pad: 1
		stride: 1
		bias_term: false
	}
}

layer {
	bottom: "h_res4b20_branch2b"
	top: "h_res4b20_branch2b"
	name: "h_bn4b20_branch2b"
	type: "BatchNorm"
	param {
		name: "bn4b20_branch2b_1"
		lr_mult: 0.0
		decay_mult: 0.0
	}
	param {
		name: "bn4b20_branch2b_2"
		lr_mult: 0.0
		decay_mult: 0.0
	}
	param {
		name: "bn4b20_branch2b_3"
		lr_mult: 0.0
		decay_mult: 0.0
	}
	batch_norm_param {
		use_global_stats: true
	}
}

layer {
	bottom: "h_res4b20_branch2b"
	top: "h_res4b20_branch2b"
	name: "h_scale4b20_branch2b"
	type: "Scale"
	param {
		name: "scale4b20_branch2b_1"
		lr_mult: 0.0
		decay_mult: 0.0
	}
	param {
		name: "scale4b20_branch2b_2"
		lr_mult: 0.0
		decay_mult: 0.0
	}
	scale_param {
		bias_term: true
	}
}

layer {
	top: "h_res4b20_branch2b"
	bottom: "h_res4b20_branch2b"
	name: "h_res4b20_branch2b_relu"
	type: "ReLU"
}

layer {
	bottom: "h_res4b20_branch2b"
	top: "h_res4b20_branch2c"
	name: "h_res4b20_branch2c"
	type: "Convolution"
	param {
		name: "res4b20_branch2c_w"
		lr_mult: 0.0
		decay_mult: 0.0
	}
	convolution_param {
		num_output: 1024
		kernel_size: 1
		pad: 0
		stride: 1
		bias_term: false
	}
}

layer {
	bottom: "h_res4b20_branch2c"
	top: "h_res4b20_branch2c"
	name: "h_bn4b20_branch2c"
	type: "BatchNorm"
	param {
		name: "bn4b20_branch2c_1"
		lr_mult: 0.0
		decay_mult: 0.0
	}
	param {
		name: "bn4b20_branch2c_2"
		lr_mult: 0.0
		decay_mult: 0.0
	}
	param {
		name: "bn4b20_branch2c_3"
		lr_mult: 0.0
		decay_mult: 0.0
	}
	batch_norm_param {
		use_global_stats: true
	}
}

layer {
	bottom: "h_res4b20_branch2c"
	top: "h_res4b20_branch2c"
	name: "h_scale4b20_branch2c"
	type: "Scale"
	param {
		name: "scale4b20_branch2c_1"
		lr_mult: 0.0
		decay_mult: 0.0
	}
	param {
		name: "scale4b20_branch2c_2"
		lr_mult: 0.0
		decay_mult: 0.0
	}
	scale_param {
		bias_term: true
	}
}

layer {
	bottom: "h_res4b19"
	bottom: "h_res4b20_branch2c"
	top: "h_res4b20"
	name: "h_res4b20"
	type: "Eltwise"
}

layer {
	bottom: "h_res4b20"
	top: "h_res4b20"
	name: "h_res4b20_relu"
	type: "ReLU"
}

layer {
	bottom: "h_res4b20"
	top: "h_res4b21_branch2a"
	name: "h_res4b21_branch2a"
	type: "Convolution"
	param {
		name: "res4b21_branch2a_w"
		lr_mult: 0.0
		decay_mult: 0.0
	}
	convolution_param {
		num_output: 256
		kernel_size: 1
		pad: 0
		stride: 1
		bias_term: false
	}
}

layer {
	bottom: "h_res4b21_branch2a"
	top: "h_res4b21_branch2a"
	name: "h_bn4b21_branch2a"
	type: "BatchNorm"
	param {
		name: "bn4b21_branch2a_1"
		lr_mult: 0.0
		decay_mult: 0.0
	}
	param {
		name: "bn4b21_branch2a_2"
		lr_mult: 0.0
		decay_mult: 0.0
	}
	param {
		name: "bn4b21_branch2a_3"
		lr_mult: 0.0
		decay_mult: 0.0
	}
	batch_norm_param {
		use_global_stats: true
	}
}

layer {
	bottom: "h_res4b21_branch2a"
	top: "h_res4b21_branch2a"
	name: "h_scale4b21_branch2a"
	type: "Scale"
	param {
		name: "scale4b21_branch2a_1"
		lr_mult: 0.0
		decay_mult: 0.0
	}
	param {
		name: "scale4b21_branch2a_2"
		lr_mult: 0.0
		decay_mult: 0.0
	}
	scale_param {
		bias_term: true
	}
}

layer {
	top: "h_res4b21_branch2a"
	bottom: "h_res4b21_branch2a"
	name: "h_res4b21_branch2a_relu"
	type: "ReLU"
}

layer {
	bottom: "h_res4b21_branch2a"
	top: "h_res4b21_branch2b"
	name: "h_res4b21_branch2b"
	type: "Convolution"
	param {
		name: "res4b21_branch2b_w"
		lr_mult: 0.0
		decay_mult: 0.0
	}
	convolution_param {
		num_output: 256
		kernel_size: 3
		pad: 1
		stride: 1
		bias_term: false
	}
}

layer {
	bottom: "h_res4b21_branch2b"
	top: "h_res4b21_branch2b"
	name: "h_bn4b21_branch2b"
	type: "BatchNorm"
	param {
		name: "bn4b21_branch2b_1"
		lr_mult: 0.0
		decay_mult: 0.0
	}
	param {
		name: "bn4b21_branch2b_2"
		lr_mult: 0.0
		decay_mult: 0.0
	}
	param {
		name: "bn4b21_branch2b_3"
		lr_mult: 0.0
		decay_mult: 0.0
	}
	batch_norm_param {
		use_global_stats: true
	}
}

layer {
	bottom: "h_res4b21_branch2b"
	top: "h_res4b21_branch2b"
	name: "h_scale4b21_branch2b"
	type: "Scale"
	param {
		name: "scale4b21_branch2b_1"
		lr_mult: 0.0
		decay_mult: 0.0
	}
	param {
		name: "scale4b21_branch2b_2"
		lr_mult: 0.0
		decay_mult: 0.0
	}
	scale_param {
		bias_term: true
	}
}

layer {
	top: "h_res4b21_branch2b"
	bottom: "h_res4b21_branch2b"
	name: "h_res4b21_branch2b_relu"
	type: "ReLU"
}

layer {
	bottom: "h_res4b21_branch2b"
	top: "h_res4b21_branch2c"
	name: "h_res4b21_branch2c"
	type: "Convolution"
	param {
		name: "res4b21_branch2c_w"
		lr_mult: 0.0
		decay_mult: 0.0
	}
	convolution_param {
		num_output: 1024
		kernel_size: 1
		pad: 0
		stride: 1
		bias_term: false
	}
}

layer {
	bottom: "h_res4b21_branch2c"
	top: "h_res4b21_branch2c"
	name: "h_bn4b21_branch2c"
	type: "BatchNorm"
	param {
		name: "bn4b21_branch2c_1"
		lr_mult: 0.0
		decay_mult: 0.0
	}
	param {
		name: "bn4b21_branch2c_2"
		lr_mult: 0.0
		decay_mult: 0.0
	}
	param {
		name: "bn4b21_branch2c_3"
		lr_mult: 0.0
		decay_mult: 0.0
	}
	batch_norm_param {
		use_global_stats: true
	}
}

layer {
	bottom: "h_res4b21_branch2c"
	top: "h_res4b21_branch2c"
	name: "h_scale4b21_branch2c"
	type: "Scale"
	param {
		name: "scale4b21_branch2c_1"
		lr_mult: 0.0
		decay_mult: 0.0
	}
	param {
		name: "scale4b21_branch2c_2"
		lr_mult: 0.0
		decay_mult: 0.0
	}
	scale_param {
		bias_term: true
	}
}

layer {
	bottom: "h_res4b20"
	bottom: "h_res4b21_branch2c"
	top: "h_res4b21"
	name: "h_res4b21"
	type: "Eltwise"
}

layer {
	bottom: "h_res4b21"
	top: "h_res4b21"
	name: "h_res4b21_relu"
	type: "ReLU"
}

layer {
	bottom: "h_res4b21"
	top: "h_res4b22_branch2a"
	name: "h_res4b22_branch2a"
	type: "Convolution"
	param {
		name: "res4b22_branch2a_w"
		lr_mult: 0.0
		decay_mult: 0.0
	}
	convolution_param {
		num_output: 256
		kernel_size: 1
		pad: 0
		stride: 1
		bias_term: false
	}
}

layer {
	bottom: "h_res4b22_branch2a"
	top: "h_res4b22_branch2a"
	name: "h_bn4b22_branch2a"
	type: "BatchNorm"
	param {
		name: "bn4b22_branch2a_1"
		lr_mult: 0.0
		decay_mult: 0.0
	}
	param {
		name: "bn4b22_branch2a_2"
		lr_mult: 0.0
		decay_mult: 0.0
	}
	param {
		name: "bn4b22_branch2a_3"
		lr_mult: 0.0
		decay_mult: 0.0
	}
	batch_norm_param {
		use_global_stats: true
	}
}

layer {
	bottom: "h_res4b22_branch2a"
	top: "h_res4b22_branch2a"
	name: "h_scale4b22_branch2a"
	type: "Scale"
	param {
		name: "scale4b22_branch2a_1"
		lr_mult: 0.0
		decay_mult: 0.0
	}
	param {
		name: "scale4b22_branch2a_2"
		lr_mult: 0.0
		decay_mult: 0.0
	}
	scale_param {
		bias_term: true
	}
}

layer {
	top: "h_res4b22_branch2a"
	bottom: "h_res4b22_branch2a"
	name: "h_res4b22_branch2a_relu"
	type: "ReLU"
}

layer {
	bottom: "h_res4b22_branch2a"
	top: "h_res4b22_branch2b"
	name: "h_res4b22_branch2b"
	type: "Convolution"
	param {
		name: "res4b22_branch2b_w"
		lr_mult: 0.0
		decay_mult: 0.0
	}
	convolution_param {
		num_output: 256
		kernel_size: 3
		pad: 1
		stride: 1
		bias_term: false
	}
}

layer {
	bottom: "h_res4b22_branch2b"
	top: "h_res4b22_branch2b"
	name: "h_bn4b22_branch2b"
	type: "BatchNorm"
	param {
		name: "bn4b22_branch2b_1"
		lr_mult: 0.0
		decay_mult: 0.0
	}
	param {
		name: "bn4b22_branch2b_2"
		lr_mult: 0.0
		decay_mult: 0.0
	}
	param {
		name: "bn4b22_branch2b_3"
		lr_mult: 0.0
		decay_mult: 0.0
	}
	batch_norm_param {
		use_global_stats: true
	}
}

layer {
	bottom: "h_res4b22_branch2b"
	top: "h_res4b22_branch2b"
	name: "h_scale4b22_branch2b"
	type: "Scale"
	param {
		name: "scale4b22_branch2b_1"
		lr_mult: 0.0
		decay_mult: 0.0
	}
	param {
		name: "scale4b22_branch2b_2"
		lr_mult: 0.0
		decay_mult: 0.0
	}
	scale_param {
		bias_term: true
	}
}

layer {
	top: "h_res4b22_branch2b"
	bottom: "h_res4b22_branch2b"
	name: "h_res4b22_branch2b_relu"
	type: "ReLU"
}

layer {
	bottom: "h_res4b22_branch2b"
	top: "h_res4b22_branch2c"
	name: "h_res4b22_branch2c"
	type: "Convolution"
	param {
		name: "res4b22_branch2c_w"
		lr_mult: 0.0
		decay_mult: 0.0
	}
	convolution_param {
		num_output: 1024
		kernel_size: 1
		pad: 0
		stride: 1
		bias_term: false
	}
}

layer {
	bottom: "h_res4b22_branch2c"
	top: "h_res4b22_branch2c"
	name: "h_bn4b22_branch2c"
	type: "BatchNorm"
	param {
		name: "bn4b22_branch2c_1"
		lr_mult: 0.0
		decay_mult: 0.0
	}
	param {
		name: "bn4b22_branch2c_2"
		lr_mult: 0.0
		decay_mult: 0.0
	}
	param {
		name: "bn4b22_branch2c_3"
		lr_mult: 0.0
		decay_mult: 0.0
	}
	batch_norm_param {
		use_global_stats: true
	}
}

layer {
	bottom: "h_res4b22_branch2c"
	top: "h_res4b22_branch2c"
	name: "h_scale4b22_branch2c"
	type: "Scale"
	param {
		name: "scale4b22_branch2c_1"
		lr_mult: 0.0
		decay_mult: 0.0
	}
	param {
		name: "scale4b22_branch2c_2"
		lr_mult: 0.0
		decay_mult: 0.0
	}
	scale_param {
		bias_term: true
	}
}

layer {
	bottom: "h_res4b21"
	bottom: "h_res4b22_branch2c"
	top: "h_res4b22"
	name: "h_res4b22"
	type: "Eltwise"
}

layer {
	bottom: "h_res4b22"
	top: "h_res4b22"
	name: "h_res4b22_relu"
	type: "ReLU"
}

layer {
	bottom: "h_res4b22"
	top: "h_res5a_branch1"
	name: "h_res5a_branch1"
	type: "Convolution"
	param {
		name: "res5a_branch1_w"
		lr_mult: 0.0
		decay_mult: 0.0
	}
	convolution_param {
		num_output: 2048
		kernel_size: 1
		pad: 0
		stride: 2
		bias_term: false
	}
}

layer {
	bottom: "h_res5a_branch1"
	top: "h_res5a_branch1"
	name: "h_bn5a_branch1"
	type: "BatchNorm"
	param {
		name: "bn5a_branch1_1"
		lr_mult: 0.0
		decay_mult: 0.0
	}
	param {
		name: "bn5a_branch1_2"
		lr_mult: 0.0
		decay_mult: 0.0
	}
	param {
		name: "bn5a_branch1_3"
		lr_mult: 0.0
		decay_mult: 0.0
	}
	batch_norm_param {
		use_global_stats: true
	}
}

layer {
	bottom: "h_res5a_branch1"
	top: "h_res5a_branch1"
	name: "h_scale5a_branch1"
	type: "Scale"
	param {
		name: "scale5a_branch1_1"
		lr_mult: 0.0
		decay_mult: 0.0
	}
	param {
		name: "scale5a_branch1_2"
		lr_mult: 0.0
		decay_mult: 0.0
	}
	scale_param {
		bias_term: true
	}
}

layer {
	bottom: "h_res4b22"
	top: "h_res5a_branch2a"
	name: "h_res5a_branch2a"
	type: "Convolution"
	param {
		name: "res5a_branch2a_w"
		lr_mult: 0.0
		decay_mult: 0.0
	}
	convolution_param {
		num_output: 512
		kernel_size: 1
		pad: 0
		stride: 2
		bias_term: false
	}
}

layer {
	bottom: "h_res5a_branch2a"
	top: "h_res5a_branch2a"
	name: "h_bn5a_branch2a"
	type: "BatchNorm"
	param {
		name: "bn5a_branch2a_1"
		lr_mult: 0.0
		decay_mult: 0.0
	}
	param {
		name: "bn5a_branch2a_2"
		lr_mult: 0.0
		decay_mult: 0.0
	}
	param {
		name: "bn5a_branch2a_3"
		lr_mult: 0.0
		decay_mult: 0.0
	}
	batch_norm_param {
		use_global_stats: true
	}
}

layer {
	bottom: "h_res5a_branch2a"
	top: "h_res5a_branch2a"
	name: "h_scale5a_branch2a"
	type: "Scale"
	param {
		name: "scale5a_branch2a_1"
		lr_mult: 0.0
		decay_mult: 0.0
	}
	param {
		name: "scale5a_branch2a_2"
		lr_mult: 0.0
		decay_mult: 0.0
	}
	scale_param {
		bias_term: true
	}
}

layer {
	top: "h_res5a_branch2a"
	bottom: "h_res5a_branch2a"
	name: "h_res5a_branch2a_relu"
	type: "ReLU"
}

layer {
	bottom: "h_res5a_branch2a"
	top: "h_res5a_branch2b"
	name: "h_res5a_branch2b"
	type: "Convolution"
	param {
		name: "res5a_branch2b_w"
		lr_mult: 0.0
		decay_mult: 0.0
	}
	convolution_param {
		num_output: 512
		kernel_size: 3
		pad: 1
		stride: 1
		bias_term: false
	}
}

layer {
	bottom: "h_res5a_branch2b"
	top: "h_res5a_branch2b"
	name: "h_bn5a_branch2b"
	type: "BatchNorm"
	param {
		name: "bn5a_branch2b_1"
		lr_mult: 0.0
		decay_mult: 0.0
	}
	param {
		name: "bn5a_branch2b_2"
		lr_mult: 0.0
		decay_mult: 0.0
	}
	param {
		name: "bn5a_branch2b_3"
		lr_mult: 0.0
		decay_mult: 0.0
	}
	batch_norm_param {
		use_global_stats: true
	}
}

layer {
	bottom: "h_res5a_branch2b"
	top: "h_res5a_branch2b"
	name: "h_scale5a_branch2b"
	type: "Scale"
	param {
		name: "scale5a_branch2b_1"
		lr_mult: 0.0
		decay_mult: 0.0
	}
	param {
		name: "scale5a_branch2b_2"
		lr_mult: 0.0
		decay_mult: 0.0
	}
	scale_param {
		bias_term: true
	}
}

layer {
	top: "h_res5a_branch2b"
	bottom: "h_res5a_branch2b"
	name: "h_res5a_branch2b_relu"
	type: "ReLU"
}

layer {
	bottom: "h_res5a_branch2b"
	top: "h_res5a_branch2c"
	name: "h_res5a_branch2c"
	type: "Convolution"
	param {
		name: "res5a_branch2c_w"
		lr_mult: 0.0
		decay_mult: 0.0
	}
	convolution_param {
		num_output: 2048
		kernel_size: 1
		pad: 0
		stride: 1
		bias_term: false
	}
}

layer {
	bottom: "h_res5a_branch2c"
	top: "h_res5a_branch2c"
	name: "h_bn5a_branch2c"
	type: "BatchNorm"
	param {
		name: "bn5a_branch2c_1"
		lr_mult: 0.0
		decay_mult: 0.0
	}
	param {
		name: "bn5a_branch2c_2"
		lr_mult: 0.0
		decay_mult: 0.0
	}
	param {
		name: "bn5a_branch2c_3"
		lr_mult: 0.0
		decay_mult: 0.0
	}
	batch_norm_param {
		use_global_stats: true
	}
}

layer {
	bottom: "h_res5a_branch2c"
	top: "h_res5a_branch2c"
	name: "h_scale5a_branch2c"
	type: "Scale"
	param {
		name: "scale5a_branch2c_1"
		lr_mult: 0.0
		decay_mult: 0.0
	}
	param {
		name: "scale5a_branch2c_2"
		lr_mult: 0.0
		decay_mult: 0.0
	}
	scale_param {
		bias_term: true
	}
}

layer {
	bottom: "h_res5a_branch1"
	bottom: "h_res5a_branch2c"
	top: "h_res5a"
	name: "h_res5a"
	type: "Eltwise"
}

layer {
	bottom: "h_res5a"
	top: "h_res5a"
	name: "h_res5a_relu"
	type: "ReLU"
}

layer {
	bottom: "h_res5a"
	top: "h_res5b_branch2a"
	name: "h_res5b_branch2a"
	type: "Convolution"
	param {
		name: "res5b_branch2a_w"
		lr_mult: 0.0
		decay_mult: 0.0
	}
	convolution_param {
		num_output: 512
		kernel_size: 1
		pad: 0
		stride: 1
		bias_term: false
	}
}

layer {
	bottom: "h_res5b_branch2a"
	top: "h_res5b_branch2a"
	name: "h_bn5b_branch2a"
	type: "BatchNorm"
	param {
		name: "bn5b_branch2a_1"
		lr_mult: 0.0
		decay_mult: 0.0
	}
	param {
		name: "bn5b_branch2a_2"
		lr_mult: 0.0
		decay_mult: 0.0
	}
	param {
		name: "bn5b_branch2a_3"
		lr_mult: 0.0
		decay_mult: 0.0
	}
	batch_norm_param {
		use_global_stats: true
	}
}

layer {
	bottom: "h_res5b_branch2a"
	top: "h_res5b_branch2a"
	name: "h_scale5b_branch2a"
	type: "Scale"
	param {
		name: "scale5b_branch2a_1"
		lr_mult: 0.0
		decay_mult: 0.0
	}
	param {
		name: "scale5b_branch2a_2"
		lr_mult: 0.0
		decay_mult: 0.0
	}
	scale_param {
		bias_term: true
	}
}

layer {
	top: "h_res5b_branch2a"
	bottom: "h_res5b_branch2a"
	name: "h_res5b_branch2a_relu"
	type: "ReLU"
}

layer {
	bottom: "h_res5b_branch2a"
	top: "h_res5b_branch2b"
	name: "h_res5b_branch2b"
	type: "Convolution"
	param {
		name: "res5b_branch2b_w"
		lr_mult: 0.0
		decay_mult: 0.0
	}
	convolution_param {
		num_output: 512
		kernel_size: 3
		pad: 1
		stride: 1
		bias_term: false
	}
}

layer {
	bottom: "h_res5b_branch2b"
	top: "h_res5b_branch2b"
	name: "h_bn5b_branch2b"
	type: "BatchNorm"
	param {
		name: "bn5b_branch2b_1"
		lr_mult: 0.0
		decay_mult: 0.0
	}
	param {
		name: "bn5b_branch2b_2"
		lr_mult: 0.0
		decay_mult: 0.0
	}
	param {
		name: "bn5b_branch2b_3"
		lr_mult: 0.0
		decay_mult: 0.0
	}
	batch_norm_param {
		use_global_stats: true
	}
}

layer {
	bottom: "h_res5b_branch2b"
	top: "h_res5b_branch2b"
	name: "h_scale5b_branch2b"
	type: "Scale"
	param {
		name: "scale5b_branch2b_1"
		lr_mult: 0.0
		decay_mult: 0.0
	}
	param {
		name: "scale5b_branch2b_2"
		lr_mult: 0.0
		decay_mult: 0.0
	}
	scale_param {
		bias_term: true
	}
}

layer {
	top: "h_res5b_branch2b"
	bottom: "h_res5b_branch2b"
	name: "h_res5b_branch2b_relu"
	type: "ReLU"
}

layer {
	bottom: "h_res5b_branch2b"
	top: "h_res5b_branch2c"
	name: "h_res5b_branch2c"
	type: "Convolution"
	param {
		name: "res5b_branch2c_w"
		lr_mult: 0.0
		decay_mult: 0.0
	}
	convolution_param {
		num_output: 2048
		kernel_size: 1
		pad: 0
		stride: 1
		bias_term: false
	}
}

layer {
	bottom: "h_res5b_branch2c"
	top: "h_res5b_branch2c"
	name: "h_bn5b_branch2c"
	type: "BatchNorm"
	param {
		name: "bn5b_branch2c_1"
		lr_mult: 0.0
		decay_mult: 0.0
	}
	param {
		name: "bn5b_branch2c_2"
		lr_mult: 0.0
		decay_mult: 0.0
	}
	param {
		name: "bn5b_branch2c_3"
		lr_mult: 0.0
		decay_mult: 0.0
	}
	batch_norm_param {
		use_global_stats: true
	}
}

layer {
	bottom: "h_res5b_branch2c"
	top: "h_res5b_branch2c"
	name: "h_scale5b_branch2c"
	type: "Scale"
	param {
		name: "scale5b_branch2c_1"
		lr_mult: 0.0
		decay_mult: 0.0
	}
	param {
		name: "scale5b_branch2c_2"
		lr_mult: 0.0
		decay_mult: 0.0
	}
	scale_param {
		bias_term: true
	}
}

layer {
	bottom: "h_res5a"
	bottom: "h_res5b_branch2c"
	top: "h_res5b"
	name: "h_res5b"
	type: "Eltwise"
}

layer {
	bottom: "h_res5b"
	top: "h_res5b"
	name: "h_res5b_relu"
	type: "ReLU"
}

layer {
	bottom: "h_res5b"
	top: "h_res5c_branch2a"
	name: "h_res5c_branch2a"
	type: "Convolution"
	param {
		name: "res5c_branch2a_w"
		lr_mult: 0.0
		decay_mult: 0.0
	}
	convolution_param {
		num_output: 512
		kernel_size: 1
		pad: 0
		stride: 1
		bias_term: false
	}
}

layer {
	bottom: "h_res5c_branch2a"
	top: "h_res5c_branch2a"
	name: "h_bn5c_branch2a"
	type: "BatchNorm"
	param {
		name: "bn5c_branch2a_1"
		lr_mult: 0.0
		decay_mult: 0.0
	}
	param {
		name: "bn5c_branch2a_2"
		lr_mult: 0.0
		decay_mult: 0.0
	}
	param {
		name: "bn5c_branch2a_3"
		lr_mult: 0.0
		decay_mult: 0.0
	}
	batch_norm_param {
		use_global_stats: true
	}
}

layer {
	bottom: "h_res5c_branch2a"
	top: "h_res5c_branch2a"
	name: "h_scale5c_branch2a"
	type: "Scale"
	param {
		name: "scale5c_branch2a_1"
		lr_mult: 0.0
		decay_mult: 0.0
	}
	param {
		name: "scale5c_branch2a_2"
		lr_mult: 0.0
		decay_mult: 0.0
	}
	scale_param {
		bias_term: true
	}
}

layer {
	top: "h_res5c_branch2a"
	bottom: "h_res5c_branch2a"
	name: "h_res5c_branch2a_relu"
	type: "ReLU"
}

layer {
	bottom: "h_res5c_branch2a"
	top: "h_res5c_branch2b"
	name: "h_res5c_branch2b"
	type: "Convolution"
	param {
		name: "res5c_branch2b_w"
		lr_mult: 0.0
		decay_mult: 0.0
	}
	convolution_param {
		num_output: 512
		kernel_size: 3
		pad: 1
		stride: 1
		bias_term: false
	}
}

layer {
	bottom: "h_res5c_branch2b"
	top: "h_res5c_branch2b"
	name: "h_bn5c_branch2b"
	type: "BatchNorm"
	param {
		name: "bn5c_branch2b_1"
		lr_mult: 0.0
		decay_mult: 0.0
	}
	param {
		name: "bn5c_branch2b_2"
		lr_mult: 0.0
		decay_mult: 0.0
	}
	param {
		name: "bn5c_branch2b_3"
		lr_mult: 0.0
		decay_mult: 0.0
	}
	batch_norm_param {
		use_global_stats: true
	}
}

layer {
	bottom: "h_res5c_branch2b"
	top: "h_res5c_branch2b"
	name: "h_scale5c_branch2b"
	type: "Scale"
	param {
		name: "scale5c_branch2b_1"
		lr_mult: 0.0
		decay_mult: 0.0
	}
	param {
		name: "scale5c_branch2b_2"
		lr_mult: 0.0
		decay_mult: 0.0
	}
	scale_param {
		bias_term: true
	}
}

layer {
	top: "h_res5c_branch2b"
	bottom: "h_res5c_branch2b"
	name: "h_res5c_branch2b_relu"
	type: "ReLU"
}

layer {
	bottom: "h_res5c_branch2b"
	top: "h_res5c_branch2c"
	name: "h_res5c_branch2c"
	type: "Convolution"
	param {
		name: "res5c_branch2c_w"
		lr_mult: 0.0
		decay_mult: 0.0
	}
	convolution_param {
		num_output: 2048
		kernel_size: 1
		pad: 0
		stride: 1
		bias_term: false
	}
}

layer {
	bottom: "h_res5c_branch2c"
	top: "h_res5c_branch2c"
	name: "h_bn5c_branch2c"
	type: "BatchNorm"
	param {
		name: "bn5c_branch2c_1"
		lr_mult: 0.0
		decay_mult: 0.0
	}
	param {
		name: "bn5c_branch2c_2"
		lr_mult: 0.0
		decay_mult: 0.0
	}
	param {
		name: "bn5c_branch2c_3"
		lr_mult: 0.0
		decay_mult: 0.0
	}
	batch_norm_param {
		use_global_stats: true
	}
}

layer {
	bottom: "h_res5c_branch2c"
	top: "h_res5c_branch2c"
	name: "h_scale5c_branch2c"
	type: "Scale"
	param {
		name: "scale5c_branch2c_1"
		lr_mult: 0.0
		decay_mult: 0.0
	}
	param {
		name: "scale5c_branch2c_2"
		lr_mult: 0.0
		decay_mult: 0.0
	}
	scale_param {
		bias_term: true
	}
}

layer {
	bottom: "h_res5b"
	bottom: "h_res5c_branch2c"
	top: "h_res5c"
	name: "h_res5c"
	type: "Eltwise"
}

layer {
	bottom: "h_res5c"
	top: "h_res5c"
	name: "h_res5c_relu"
	type: "ReLU"
}

layer {
	name: "h_pooled_rois"
	type: "ROIPooling"
	bottom: "h_res5c"
	bottom: "h_rois"
	top: "h_pooled_rois"
	roi_pooling_param {
		pooled_w: 1
		pooled_h: 1
		spatial_scale: 0.03125 
	}
 }

layer {
	name: "h_pooled_rois/normalized"
	type: "Normalize"
	bottom: "h_pooled_rois"
	top: "h_pooled_rois/normalized"
}

layer {
	name: "h_pooled_rois/normalized_flat"
	type: "Reshape"
	reshape_param{
		shape{
			dim: 0
			dim: 2048 
			dim: 1
			dim: 1
		}    
	}
	bottom: "h_pooled_rois/normalized"
	top: "h_pooled_rois/normalized_flat"
}

layer {
	name: "h_pooled_rois/centered"
	bottom: "h_pooled_rois/normalized_flat"
	top: "h_pooled_rois/centered"
	type: "Scale"
	param {
		name: "pooled_rois/centered_1"
		lr_mult: 0.0
		decay_mult: 0.0
	}
	param {
		name: "pooled_rois/centered_2"
		lr_mult: 0.0
		decay_mult: 0.0
	}
	scale_param {
		bias_term: true
		filler {
			type: "constant"
			value: 1
		}
		bias_filler {
			type: "constant"
			value: 0
	  	}
	}
}

layer {
	name: "h_pooled_rois/pca_512"
	type: "InnerProduct"
	param {
		lr_mult: 0.0
		decay_mult: 0.0
	}
	param {
		lr_mult: 0.0
		decay_mult: 0.0
	}
	inner_product_param {
		num_output: 512  
		weight_filler {
			type: "xavier"
		}
		bias_filler {
			type: "constant"
			value: 0
		}
	}
	bottom: "h_pooled_rois/centered"
	top: "h_pooled_rois/pca_512"
}

layer {
	name: "h_pooled_rois/pca/reshaped"
	type: "Reshape"
	reshape_param{
	shape{
		dim: 0 
		dim: 0
		dim: 1
		dim: 1
		}    
	}
	bottom: "h_pooled_rois/pca_512"
	top: "h_pooled_rois/pca/reshaped"
}

layer {
	name: "h_pooled_rois/pca/normalized"
	type: "Normalize"
	bottom: "h_pooled_rois/pca/reshaped"
	top: "h_pooled_rois/pca/normalized"
}

layer {
	name: "h_rmac"
	type: "Python"
	bottom: "h_pooled_rois/pca/normalized"
	top: "h_rmac"
	python_param {
		module: 'custom_layers'
		layer: 'AggregateLayer'
		param_str: "{'num_rois': 8}"
	}
}

layer {
	name: "h_rmac/normalized"
	type: "Normalize"
	bottom: "h_rmac"
	top: "h_rmac/normalized"
}

# layers to calculate the loss
layer {
	name: "rmac/eltwise"
	bottom: "l_rmac/normalized"
	bottom: "m_rmac/normalized"
	bottom: "h_rmac/normalized"
	top: "rmac/eltwise"
	type: "Eltwise"
}

layer {
    name: "rmac/eltwise/normalized"
    type: "Normalize"
    bottom: "rmac/eltwise"
    top: "rmac/eltwise/normalized"
}
