…
I0926 19:11:56.094570 13862 net.cpp:296] The NetState phase (0) differed from the phase (1) specified by a rule in layer data
I0926 19:11:56.096967 13862 net.cpp:53] Initializing net from parameters: 
name: "ResNet-101"
state {
  phase: TRAIN
  level: 0
  stage: ""
}
layer {
  name: "data"
  type: "Data"
  top: "data"
  top: "label"
  include {
    phase: TRAIN
  }
  transform_param {
    mirror: true
    mean_value: 117.80904
    mean_value: 130.27611
    mean_value: 134.65074
  }
  data_param {
    source: "/home/processyuan/NetworkOptimization/cover/training/img_train_lmdb"
    batch_size: 8
    backend: LMDB
  }
}
layer {
  name: "rois"
  type: "Python"
  bottom: "data"
  top: "rois"
  python_param {
    module: "custom_layers"
    layer: "RigidGridLayer"
    param_str: "{}"
  }
}
layer {
  name: "features"
  type: "Python"
  bottom: "label"
  top: "features"
  python_param {
    module: "custom_layers"
    layer: "LabelLayer"
    param_str: "{\'dim\': 2048, \'features\': \'/home/processyuan/NetworkOptimization/cover/training/features.npy\'}"
  }
}
layer {
  name: "conv1"
  type: "Convolution"
  bottom: "data"
  top: "conv1"
  param {
    lr_mult: 0
    decay_mult: 0
  }
  convolution_param {
    num_output: 64
    bias_term: false
    pad: 3
    kernel_size: 7
    stride: 2
  }
}
layer {
  name: "bn_conv1"
  type: "BatchNorm"
  bottom: "conv1"
  top: "conv1"
  param {
    lr_mult: 0
    decay_mult: 0
  }
  param {
    lr_mult: 0
    decay_mult: 0
  }
  param {
    lr_mult: 0
    decay_mult: 0
  }
  batch_norm_param {
    use_global_stats: true
  }
}
layer {
  name: "scale_conv1"
  type: "Scale"
  bottom: "conv1"
  top: "conv1"
  param {
    lr_mult: 0
    decay_mult: 0
  }
  param {
    lr_mult: 0
    decay_mult: 0
  }
  scale_param {
    bias_term: true
  }
}
layer {
  name: "conv1_relu"
  type: "ReLU"
  bottom: "conv1"
  top: "conv1"
}
layer {
  name: "pool1"
  type: "Pooling"
  bottom: "conv1"
  top: "pool1"
  pooling_param {
    pool: MAX
    kernel_size: 3
    stride: 2
  }
}
layer {
  name: "res2a_branch1"
  type: "Convolution"
  bottom: "pool1"
  top: "res2a_branch1"
  param {
    lr_mult: 0
    decay_mult: 0
  }
  convolution_param {
    num_output: 256
    bias_term: false
    pad: 0
    kernel_size: 1
    stride: 1
  }
}
layer {
  name: "bn2a_branch1"
  type: "BatchNorm"
  bottom: "res2a_branch1"
  top: "res2a_branch1"
  param {
    lr_mult: 0
    decay_mult: 0
  }
  param {
    lr_mult: 0
    decay_mult: 0
  }
  param {
    lr_mult: 0
    decay_mult: 0
  }
  batch_norm_param {
    use_global_stats: true
  }
}
layer {
  name: "scale2a_branch1"
  type: "Scale"
  bottom: "res2a_branch1"
  top: "res2a_branch1"
  param {
    lr_mult: 0
    decay_mult: 0
  }
  param {
    lr_mult: 0
    decay_mult: 0
  }
  scale_param {
    bias_term: true
  }
}
layer {
  name: "res2a_branch2a"
  type: "Convolution"
  bottom: "pool1"
  top: "res2a_branch2a"
  param {
    lr_mult: 0
    decay_mult: 0
  }
  convolution_param {
    num_output: 64
    bias_term: false
    pad: 0
    kernel_size: 1
    stride: 1
  }
}
layer {
  name: "bn2a_branch2a"
  type: "BatchNorm"
  bottom: "res2a_branch2a"
  top: "res2a_branch2a"
  param {
    lr_mult: 0
    decay_mult: 0
  }
  param {
    lr_mult: 0
    decay_mult: 0
  }
  param {
    lr_mult: 0
    decay_mult: 0
  }
  batch_norm_param {
    use_global_stats: true
  }
}
layer {
  name: "scale2a_branch2a"
  type: "Scale"
  bottom: "res2a_branch2a"
  top: "res2a_branch2a"
  param {
    lr_mult: 0
    decay_mult: 0
  }
  param {
    lr_mult: 0
    decay_mult: 0
  }
  scale_param {
    bias_term: true
  }
}
layer {
  name: "res2a_branch2a_relu"
  type: "ReLU"
  bottom: "res2a_branch2a"
  top: "res2a_branch2a"
}
layer {
  name: "res2a_branch2b"
  type: "Convolution"
  bottom: "res2a_branch2a"
  top: "res2a_branch2b"
  param {
    lr_mult: 0
    decay_mult: 0
  }
  convolution_param {
    num_output: 64
    bias_term: false
    pad: 1
    kernel_size: 3
    stride: 1
  }
}
layer {
  name: "bn2a_branch2b"
  type: "BatchNorm"
  bottom: "res2a_branch2b"
  top: "res2a_branch2b"
  param {
    lr_mult: 0
    decay_mult: 0
  }
  param {
    lr_mult: 0
    decay_mult: 0
  }
  param {
    lr_mult: 0
    decay_mult: 0
  }
  batch_norm_param {
    use_global_stats: true
  }
}
layer {
  name: "scale2a_branch2b"
  type: "Scale"
  bottom: "res2a_branch2b"
  top: "res2a_branch2b"
  param {
    lr_mult: 0
    decay_mult: 0
  }
  param {
    lr_mult: 0
    decay_mult: 0
  }
  scale_param {
    bias_term: true
  }
}
layer {
  name: "res2a_branch2b_relu"
  type: "ReLU"
  bottom: "res2a_branch2b"
  top: "res2a_branch2b"
}
layer {
  name: "res2a_branch2c"
  type: "Convolution"
  bottom: "res2a_branch2b"
  top: "res2a_branch2c"
  param {
    lr_mult: 0
    decay_mult: 0
  }
  convolution_param {
    num_output: 256
    bias_term: false
    pad: 0
    kernel_size: 1
    stride: 1
  }
}
layer {
  name: "bn2a_branch2c"
  type: "BatchNorm"
  bottom: "res2a_branch2c"
  top: "res2a_branch2c"
  param {
    lr_mult: 0
    decay_mult: 0
  }
  param {
    lr_mult: 0
    decay_mult: 0
  }
  param {
    lr_mult: 0
    decay_mult: 0
  }
  batch_norm_param {
    use_global_stats: true
  }
}
layer {
  name: "scale2a_branch2c"
  type: "Scale"
  bottom: "res2a_branch2c"
  top: "res2a_branch2c"
  param {
    lr_mult: 0
    decay_mult: 0
  }
  param {
    lr_mult: 0
    decay_mult: 0
  }
  scale_param {
    bias_term: true
  }
}
layer {
  name: "res2a"
  type: "Eltwise"
  bottom: "res2a_branch1"
  bottom: "res2a_branch2c"
  top: "res2a"
}
layer {
  name: "res2a_relu"
  type: "ReLU"
  bottom: "res2a"
  top: "res2a"
}
layer {
  name: "res2b_branch2a"
  type: "Convolution"
  bottom: "res2a"
  top: "res2b_branch2a"
  param {
    lr_mult: 0
    decay_mult: 0
  }
  convolution_param {
    num_output: 64
    bias_term: false
    pad: 0
    kernel_size: 1
    stride: 1
  }
}
layer {
  name: "bn2b_branch2a"
  type: "BatchNorm"
  bottom: "res2b_branch2a"
  top: "res2b_branch2a"
  param {
    lr_mult: 0
    decay_mult: 0
  }
  param {
    lr_mult: 0
    decay_mult: 0
  }
  param {
    lr_mult: 0
    decay_mult: 0
  }
  batch_norm_param {
    use_global_stats: true
  }
}
layer {
  name: "scale2b_branch2a"
  type: "Scale"
  bottom: "res2b_branch2a"
  top: "res2b_branch2a"
  param {
    lr_mult: 0
    decay_mult: 0
  }
  param {
    lr_mult: 0
    decay_mult: 0
  }
  scale_param {
    bias_term: true
  }
}
layer {
  name: "res2b_branch2a_relu"
  type: "ReLU"
  bottom: "res2b_branch2a"
  top: "res2b_branch2a"
}
layer {
  name: "res2b_branch2b"
  type: "Convolution"
  bottom: "res2b_branch2a"
  top: "res2b_branch2b"
  param {
    lr_mult: 0
    decay_mult: 0
  }
  convolution_param {
    num_output: 64
    bias_term: false
    pad: 1
    kernel_size: 3
    stride: 1
  }
}
layer {
  name: "bn2b_branch2b"
  type: "BatchNorm"
  bottom: "res2b_branch2b"
  top: "res2b_branch2b"
  param {
    lr_mult: 0
    decay_mult: 0
  }
  param {
    lr_mult: 0
    decay_mult: 0
  }
  param {
    lr_mult: 0
    decay_mult: 0
  }
  batch_norm_param {
    use_global_stats: true
  }
}
layer {
  name: "scale2b_branch2b"
  type: "Scale"
  bottom: "res2b_branch2b"
  top: "res2b_branch2b"
  param {
    lr_mult: 0
    decay_mult: 0
  }
  param {
    lr_mult: 0
    decay_mult: 0
  }
  scale_param {
    bias_term: true
  }
}
layer {
  name: "res2b_branch2b_relu"
  type: "ReLU"
  bottom: "res2b_branch2b"
  top: "res2b_branch2b"
}
layer {
  name: "res2b_branch2c"
  type: "Convolution"
  bottom: "res2b_branch2b"
  top: "res2b_branch2c"
  param {
    lr_mult: 0
    decay_mult: 0
  }
  convolution_param {
    num_output: 256
    bias_term: false
    pad: 0
    kernel_size: 1
    stride: 1
  }
}
layer {
  name: "bn2b_branch2c"
  type: "BatchNorm"
  bottom: "res2b_branch2c"
  top: "res2b_branch2c"
  param {
    lr_mult: 0
    decay_mult: 0
  }
  param {
    lr_mult: 0
    decay_mult: 0
  }
  param {
    lr_mult: 0
    decay_mult: 0
  }
  batch_norm_param {
    use_global_stats: true
  }
}
layer {
  name: "scale2b_branch2c"
  type: "Scale"
  bottom: "res2b_branch2c"
  top: "res2b_branch2c"
  param {
    lr_mult: 0
    decay_mult: 0
  }
  param {
    lr_mult: 0
    decay_mult: 0
  }
  scale_param {
    bias_term: true
  }
}
layer {
  name: "res2b"
  type: "Eltwise"
  bottom: "res2a"
  bottom: "res2b_branch2c"
  top: "res2b"
}
layer {
  name: "res2b_relu"
  type: "ReLU"
  bottom: "res2b"
  top: "res2b"
}
layer {
  name: "res2c_branch2a"
  type: "Convolution"
  bottom: "res2b"
  top: "res2c_branch2a"
  param {
    lr_mult: 0
    decay_mult: 0
  }
  convolution_param {
    num_output: 64
    bias_term: false
    pad: 0
    kernel_size: 1
    stride: 1
  }
}
layer {
  name: "bn2c_branch2a"
  type: "BatchNorm"
  bottom: "res2c_branch2a"
  top: "res2c_branch2a"
  param {
    lr_mult: 0
    decay_mult: 0
  }
  param {
    lr_mult: 0
    decay_mult: 0
  }
  param {
    lr_mult: 0
    decay_mult: 0
  }
  batch_norm_param {
    use_global_stats: true
  }
}
layer {
  name: "scale2c_branch2a"
  type: "Scale"
  bottom: "res2c_branch2a"
  top: "res2c_branch2a"
  param {
    lr_mult: 0
    decay_mult: 0
  }
  param {
    lr_mult: 0
    decay_mult: 0
  }
  scale_param {
    bias_term: true
  }
}
layer {
  name: "res2c_branch2a_relu"
  type: "ReLU"
  bottom: "res2c_branch2a"
  top: "res2c_branch2a"
}
layer {
  name: "res2c_branch2b"
  type: "Convolution"
  bottom: "res2c_branch2a"
  top: "res2c_branch2b"
  param {
    lr_mult: 0
    decay_mult: 0
  }
  convolution_param {
    num_output: 64
    bias_term: false
    pad: 1
    kernel_size: 3
    stride: 1
  }
}
layer {
  name: "bn2c_branch2b"
  type: "BatchNorm"
  bottom: "res2c_branch2b"
  top: "res2c_branch2b"
  param {
    lr_mult: 0
    decay_mult: 0
  }
  param {
    lr_mult: 0
    decay_mult: 0
  }
  param {
    lr_mult: 0
    decay_mult: 0
  }
  batch_norm_param {
    use_global_stats: true
  }
}
layer {
  name: "scale2c_branch2b"
  type: "Scale"
  bottom: "res2c_branch2b"
  top: "res2c_branch2b"
  param {
    lr_mult: 0
    decay_mult: 0
  }
  param {
    lr_mult: 0
    decay_mult: 0
  }
  scale_param {
    bias_term: true
  }
}
layer {
  name: "res2c_branch2b_relu"
  type: "ReLU"
  bottom: "res2c_branch2b"
  top: "res2c_branch2b"
}
layer {
  name: "res2c_branch2c"
  type: "Convolution"
  bottom: "res2c_branch2b"
  top: "res2c_branch2c"
  param {
    lr_mult: 0
    decay_mult: 0
  }
  convolution_param {
    num_output: 256
    bias_term: false
    pad: 0
    kernel_size: 1
    stride: 1
  }
}
layer {
  name: "bn2c_branch2c"
  type: "BatchNorm"
  bottom: "res2c_branch2c"
  top: "res2c_branch2c"
  param {
    lr_mult: 0
    decay_mult: 0
  }
  param {
    lr_mult: 0
    decay_mult: 0
  }
  param {
    lr_mult: 0
    decay_mult: 0
  }
  batch_norm_param {
    use_global_stats: true
  }
}
layer {
  name: "scale2c_branch2c"
  type: "Scale"
  bottom: "res2c_branch2c"
  top: "res2c_branch2c"
  param {
    lr_mult: 0
    decay_mult: 0
  }
  param {
    lr_mult: 0
    decay_mult: 0
  }
  scale_param {
    bias_term: true
  }
}
layer {
  name: "res2c"
  type: "Eltwise"
  bottom: "res2b"
  bottom: "res2c_branch2c"
  top: "res2c"
}
layer {
  name: "res2c_relu"
  type: "ReLU"
  bottom: "res2c"
  top: "res2c"
}
layer {
  name: "res3a_branch1"
  type: "Convolution"
  bottom: "res2c"
  top: "res3a_branch1"
  param {
    lr_mult: 0
    decay_mult: 0
  }
  convolution_param {
    num_output: 512
    bias_term: false
    pad: 0
    kernel_size: 1
    stride: 2
  }
}
layer {
  name: "bn3a_branch1"
  type: "BatchNorm"
  bottom: "res3a_branch1"
  top: "res3a_branch1"
  param {
    lr_mult: 0
    decay_mult: 0
  }
  param {
    lr_mult: 0
    decay_mult: 0
  }
  param {
    lr_mult: 0
    decay_mult: 0
  }
  batch_norm_param {
    use_global_stats: true
  }
}
layer {
  name: "scale3a_branch1"
  type: "Scale"
  bottom: "res3a_branch1"
  top: "res3a_branch1"
  param {
    lr_mult: 0
    decay_mult: 0
  }
  param {
    lr_mult: 0
    decay_mult: 0
  }
  scale_param {
    bias_term: true
  }
}
layer {
  name: "res3a_branch2a"
  type: "Convolution"
  bottom: "res2c"
  top: "res3a_branch2a"
  param {
    lr_mult: 0
    decay_mult: 0
  }
  convolution_param {
    num_output: 128
    bias_term: false
    pad: 0
    kernel_size: 1
    stride: 2
  }
}
layer {
  name: "bn3a_branch2a"
  type: "BatchNorm"
  bottom: "res3a_branch2a"
  top: "res3a_branch2a"
  param {
    lr_mult: 0
    decay_mult: 0
  }
  param {
    lr_mult: 0
    decay_mult: 0
  }
  param {
    lr_mult: 0
    decay_mult: 0
  }
  batch_norm_param {
    use_global_stats: true
  }
}
layer {
  name: "scale3a_branch2a"
  type: "Scale"
  bottom: "res3a_branch2a"
  top: "res3a_branch2a"
  param {
    lr_mult: 0
    decay_mult: 0
  }
  param {
    lr_mult: 0
    decay_mult: 0
  }
  scale_param {
    bias_term: true
  }
}
layer {
  name: "res3a_branch2a_relu"
  type: "ReLU"
  bottom: "res3a_branch2a"
  top: "res3a_branch2a"
}
layer {
  name: "res3a_branch2b"
  type: "Convolution"
  bottom: "res3a_branch2a"
  top: "res3a_branch2b"
  param {
    lr_mult: 0
    decay_mult: 0
  }
  convolution_param {
    num_output: 128
    bias_term: false
    pad: 1
    kernel_size: 3
    stride: 1
  }
}
layer {
  name: "bn3a_branch2b"
  type: "BatchNorm"
  bottom: "res3a_branch2b"
  top: "res3a_branch2b"
  param {
    lr_mult: 0
    decay_mult: 0
  }
  param {
    lr_mult: 0
    decay_mult: 0
  }
  param {
    lr_mult: 0
    decay_mult: 0
  }
  batch_norm_param {
    use_global_stats: true
  }
}
layer {
  name: "scale3a_branch2b"
  type: "Scale"
  bottom: "res3a_branch2b"
  top: "res3a_branch2b"
  param {
    lr_mult: 0
    decay_mult: 0
  }
  param {
    lr_mult: 0
    decay_mult: 0
  }
  scale_param {
    bias_term: true
  }
}
layer {
  name: "res3a_branch2b_relu"
  type: "ReLU"
  bottom: "res3a_branch2b"
  top: "res3a_branch2b"
}
layer {
  name: "res3a_branch2c"
  type: "Convolution"
  bottom: "res3a_branch2b"
  top: "res3a_branch2c"
  param {
    lr_mult: 0
    decay_mult: 0
  }
  convolution_param {
    num_output: 512
    bias_term: false
    pad: 0
    kernel_size: 1
    stride: 1
  }
}
layer {
  name: "bn3a_branch2c"
  type: "BatchNorm"
  bottom: "res3a_branch2c"
  top: "res3a_branch2c"
  param {
    lr_mult: 0
    decay_mult: 0
  }
  param {
    lr_mult: 0
    decay_mult: 0
  }
  param {
    lr_mult: 0
    decay_mult: 0
  }
  batch_norm_param {
    use_global_stats: true
  }
}
layer {
  name: "scale3a_branch2c"
  type: "Scale"
  bottom: "res3a_branch2c"
  top: "res3a_branch2c"
  param {
    lr_mult: 0
    decay_mult: 0
  }
  param {
    lr_mult: 0
    decay_mult: 0
  }
  scale_param {
    bias_term: true
  }
}
layer {
  name: "res3a"
  type: "Eltwise"
  bottom: "res3a_branch1"
  bottom: "res3a_branch2c"
  top: "res3a"
}
layer {
  name: "res3a_relu"
  type: "ReLU"
  bottom: "res3a"
  top: "res3a"
}
layer {
  name: "res3b1_branch2a"
  type: "Convolution"
  bottom: "res3a"
  top: "res3b1_branch2a"
  param {
    lr_mult: 0
    decay_mult: 0
  }
  convolution_param {
    num_output: 128
    bias_term: false
    pad: 0
    kernel_size: 1
    stride: 1
  }
}
layer {
  name: "bn3b1_branch2a"
  type: "BatchNorm"
  bottom: "res3b1_branch2a"
  top: "res3b1_branch2a"
  param {
    lr_mult: 0
    decay_mult: 0
  }
  param {
    lr_mult: 0
    decay_mult: 0
  }
  param {
    lr_mult: 0
    decay_mult: 0
  }
  batch_norm_param {
    use_global_stats: true
  }
}
layer {
  name: "scale3b1_branch2a"
  type: "Scale"
  bottom: "res3b1_branch2a"
  top: "res3b1_branch2a"
  param {
    lr_mult: 0
    decay_mult: 0
  }
  param {
    lr_mult: 0
    decay_mult: 0
  }
  scale_param {
    bias_term: true
  }
}
layer {
  name: "res3b1_branch2a_relu"
  type: "ReLU"
  bottom: "res3b1_branch2a"
  top: "res3b1_branch2a"
}
layer {
  name: "res3b1_branch2b"
  type: "Convolution"
  bottom: "res3b1_branch2a"
  top: "res3b1_branch2b"
  param {
    lr_mult: 0
    decay_mult: 0
  }
  convolution_param {
    num_output: 128
    bias_term: false
    pad: 1
    kernel_size: 3
    stride: 1
  }
}
layer {
  name: "bn3b1_branch2b"
  type: "BatchNorm"
  bottom: "res3b1_branch2b"
  top: "res3b1_branch2b"
  param {
    lr_mult: 0
    decay_mult: 0
  }
  param {
    lr_mult: 0
    decay_mult: 0
  }
  param {
    lr_mult: 0
    decay_mult: 0
  }
  batch_norm_param {
    use_global_stats: true
  }
}
layer {
  name: "scale3b1_branch2b"
  type: "Scale"
  bottom: "res3b1_branch2b"
  top: "res3b1_branch2b"
  param {
    lr_mult: 0
    decay_mult: 0
  }
  param {
    lr_mult: 0
    decay_mult: 0
  }
  scale_param {
    bias_term: true
  }
}
layer {
  name: "res3b1_branch2b_relu"
  type: "ReLU"
  bottom: "res3b1_branch2b"
  top: "res3b1_branch2b"
}
layer {
  name: "res3b1_branch2c"
  type: "Convolution"
  bottom: "res3b1_branch2b"
  top: "res3b1_branch2c"
  param {
    lr_mult: 0
    decay_mult: 0
  }
  convolution_param {
    num_output: 512
    bias_term: false
    pad: 0
    kernel_size: 1
    stride: 1
  }
}
layer {
  name: "bn3b1_branch2c"
  type: "BatchNorm"
  bottom: "res3b1_branch2c"
  top: "res3b1_branch2c"
  param {
    lr_mult: 0
    decay_mult: 0
  }
  param {
    lr_mult: 0
    decay_mult: 0
  }
  param {
    lr_mult: 0
    decay_mult: 0
  }
  batch_norm_param {
    use_global_stats: true
  }
}
layer {
  name: "scale3b1_branch2c"
  type: "Scale"
  bottom: "res3b1_branch2c"
  top: "res3b1_branch2c"
  param {
    lr_mult: 0
    decay_mult: 0
  }
  param {
    lr_mult: 0
    decay_mult: 0
  }
  scale_param {
    bias_term: true
  }
}
layer {
  name: "res3b1"
  type: "Eltwise"
  bottom: "res3a"
  bottom: "res3b1_branch2c"
  top: "res3b1"
}
layer {
  name: "res3b1_relu"
  type: "ReLU"
  bottom: "res3b1"
  top: "res3b1"
}
layer {
  name: "res3b2_branch2a"
  type: "Convolution"
  bottom: "res3b1"
  top: "res3b2_branch2a"
  param {
    lr_mult: 0
    decay_mult: 0
  }
  convolution_param {
    num_output: 128
    bias_term: false
    pad: 0
    kernel_size: 1
    stride: 1
  }
}
layer {
  name: "bn3b2_branch2a"
  type: "BatchNorm"
  bottom: "res3b2_branch2a"
  top: "res3b2_branch2a"
  param {
    lr_mult: 0
    decay_mult: 0
  }
  param {
    lr_mult: 0
    decay_mult: 0
  }
  param {
    lr_mult: 0
    decay_mult: 0
  }
  batch_norm_param {
    use_global_stats: true
  }
}
layer {
  name: "scale3b2_branch2a"
  type: "Scale"
  bottom: "res3b2_branch2a"
  top: "res3b2_branch2a"
  param {
    lr_mult: 0
    decay_mult: 0
  }
  param {
    lr_mult: 0
    decay_mult: 0
  }
  scale_param {
    bias_term: true
  }
}
layer {
  name: "res3b2_branch2a_relu"
  type: "ReLU"
  bottom: "res3b2_branch2a"
  top: "res3b2_branch2a"
}
layer {
  name: "res3b2_branch2b"
  type: "Convolution"
  bottom: "res3b2_branch2a"
  top: "res3b2_branch2b"
  param {
    lr_mult: 0
    decay_mult: 0
  }
  convolution_param {
    num_output: 128
    bias_term: false
    pad: 1
    kernel_size: 3
    stride: 1
  }
}
layer {
  name: "bn3b2_branch2b"
  type: "BatchNorm"
  bottom: "res3b2_branch2b"
  top: "res3b2_branch2b"
  param {
    lr_mult: 0
    decay_mult: 0
  }
  param {
    lr_mult: 0
    decay_mult: 0
  }
  param {
    lr_mult: 0
    decay_mult: 0
  }
  batch_norm_param {
    use_global_stats: true
  }
}
layer {
  name: "scale3b2_branch2b"
  type: "Scale"
  bottom: "res3b2_branch2b"
  top: "res3b2_branch2b"
  param {
    lr_mult: 0
    decay_mult: 0
  }
  param {
    lr_mult: 0
    decay_mult: 0
  }
  scale_param {
    bias_term: true
  }
}
layer {
  name: "res3b2_branch2b_relu"
  type: "ReLU"
  bottom: "res3b2_branch2b"
  top: "res3b2_branch2b"
}
layer {
  name: "res3b2_branch2c"
  type: "Convolution"
  bottom: "res3b2_branch2b"
  top: "res3b2_branch2c"
  param {
    lr_mult: 0
    decay_mult: 0
  }
  convolution_param {
    num_output: 512
    bias_term: false
    pad: 0
    kernel_size: 1
    stride: 1
  }
}
layer {
  name: "bn3b2_branch2c"
  type: "BatchNorm"
  bottom: "res3b2_branch2c"
  top: "res3b2_branch2c"
  param {
    lr_mult: 0
    decay_mult: 0
  }
  param {
    lr_mult: 0
    decay_mult: 0
  }
  param {
    lr_mult: 0
    decay_mult: 0
  }
  batch_norm_param {
    use_global_stats: true
  }
}
layer {
  name: "scale3b2_branch2c"
  type: "Scale"
  bottom: "res3b2_branch2c"
  top: "res3b2_branch2c"
  param {
    lr_mult: 0
    decay_mult: 0
  }
  param {
    lr_mult: 0
    decay_mult: 0
  }
  scale_param {
    bias_term: true
  }
}
layer {
  name: "res3b2"
  type: "Eltwise"
  bottom: "res3b1"
  bottom: "res3b2_branch2c"
  top: "res3b2"
}
layer {
  name: "res3b2_relu"
  type: "ReLU"
  bottom: "res3b2"
  top: "res3b2"
}
layer {
  name: "res3b3_branch2a"
  type: "Convolution"
  bottom: "res3b2"
  top: "res3b3_branch2a"
  param {
    lr_mult: 0
    decay_mult: 0
  }
  convolution_param {
    num_output: 128
    bias_term: false
    pad: 0
    kernel_size: 1
    stride: 1
  }
}
layer {
  name: "bn3b3_branch2a"
  type: "BatchNorm"
  bottom: "res3b3_branch2a"
  top: "res3b3_branch2a"
  param {
    lr_mult: 0
    decay_mult: 0
  }
  param {
    lr_mult: 0
    decay_mult: 0
  }
  param {
    lr_mult: 0
    decay_mult: 0
  }
  batch_norm_param {
    use_global_stats: true
  }
}
layer {
  name: "scale3b3_branch2a"
  type: "Scale"
  bottom: "res3b3_branch2a"
  top: "res3b3_branch2a"
  param {
    lr_mult: 0
    decay_mult: 0
  }
  param {
    lr_mult: 0
    decay_mult: 0
  }
  scale_param {
    bias_term: true
  }
}
layer {
  name: "res3b3_branch2a_relu"
  type: "ReLU"
  bottom: "res3b3_branch2a"
  top: "res3b3_branch2a"
}
layer {
  name: "res3b3_branch2b"
  type: "Convolution"
  bottom: "res3b3_branch2a"
  top: "res3b3_branch2b"
  param {
    lr_mult: 0
    decay_mult: 0
  }
  convolution_param {
    num_output: 128
    bias_term: false
    pad: 1
    kernel_size: 3
    stride: 1
  }
}
layer {
  name: "bn3b3_branch2b"
  type: "BatchNorm"
  bottom: "res3b3_branch2b"
  top: "res3b3_branch2b"
  param {
    lr_mult: 0
    decay_mult: 0
  }
  param {
    lr_mult: 0
    decay_mult: 0
  }
  param {
    lr_mult: 0
    decay_mult: 0
  }
  batch_norm_param {
    use_global_stats: true
  }
}
layer {
  name: "scale3b3_branch2b"
  type: "Scale"
  bottom: "res3b3_branch2b"
  top: "res3b3_branch2b"
  param {
    lr_mult: 0
    decay_mult: 0
  }
  param {
    lr_mult: 0
    decay_mult: 0
  }
  scale_param {
    bias_term: true
  }
}
layer {
  name: "res3b3_branch2b_relu"
  type: "ReLU"
  bottom: "res3b3_branch2b"
  top: "res3b3_branch2b"
}
layer {
  name: "res3b3_branch2c"
  type: "Convolution"
  bottom: "res3b3_branch2b"
  top: "res3b3_branch2c"
  param {
    lr_mult: 0
    decay_mult: 0
  }
  convolution_param {
    num_output: 512
    bias_term: false
    pad: 0
    kernel_size: 1
    stride: 1
  }
}
layer {
  name: "bn3b3_branch2c"
  type: "BatchNorm"
  bottom: "res3b3_branch2c"
  top: "res3b3_branch2c"
  param {
    lr_mult: 0
    decay_mult: 0
  }
  param {
    lr_mult: 0
    decay_mult: 0
  }
  param {
    lr_mult: 0
    decay_mult: 0
  }
  batch_norm_param {
    use_global_stats: true
  }
}
layer {
  name: "scale3b3_branch2c"
  type: "Scale"
  bottom: "res3b3_branch2c"
  top: "res3b3_branch2c"
  param {
    lr_mult: 0
    decay_mult: 0
  }
  param {
    lr_mult: 0
    decay_mult: 0
  }
  scale_param {
    bias_term: true
  }
}
layer {
  name: "res3b3"
  type: "Eltwise"
  bottom: "res3b2"
  bottom: "res3b3_branch2c"
  top: "res3b3"
}
layer {
  name: "res3b3_relu"
  type: "ReLU"
  bottom: "res3b3"
  top: "res3b3"
}
layer {
  name: "res4a_branch1"
  type: "Convolution"
  bottom: "res3b3"
  top: "res4a_branch1"
  param {
    lr_mult: 0
    decay_mult: 0
  }
  convolution_param {
    num_output: 1024
    bias_term: false
    pad: 0
    kernel_size: 1
    stride: 2
  }
}
layer {
  name: "bn4a_branch1"
  type: "BatchNorm"
  bottom: "res4a_branch1"
  top: "res4a_branch1"
  param {
    lr_mult: 0
    decay_mult: 0
  }
  param {
    lr_mult: 0
    decay_mult: 0
  }
  param {
    lr_mult: 0
    decay_mult: 0
  }
  batch_norm_param {
    use_global_stats: true
  }
}
layer {
  name: "scale4a_branch1"
  type: "Scale"
  bottom: "res4a_branch1"
  top: "res4a_branch1"
  param {
    lr_mult: 0
    decay_mult: 0
  }
  param {
    lr_mult: 0
    decay_mult: 0
  }
  scale_param {
    bias_term: true
  }
}
layer {
  name: "res4a_branch2a"
  type: "Convolution"
  bottom: "res3b3"
  top: "res4a_branch2a"
  param {
    lr_mult: 0
    decay_mult: 0
  }
  convolution_param {
    num_output: 256
    bias_term: false
    pad: 0
    kernel_size: 1
    stride: 2
  }
}
layer {
  name: "bn4a_branch2a"
  type: "BatchNorm"
  bottom: "res4a_branch2a"
  top: "res4a_branch2a"
  param {
    lr_mult: 0
    decay_mult: 0
  }
  param {
    lr_mult: 0
    decay_mult: 0
  }
  param {
    lr_mult: 0
    decay_mult: 0
  }
  batch_norm_param {
    use_global_stats: true
  }
}
layer {
  name: "scale4a_branch2a"
  type: "Scale"
  bottom: "res4a_branch2a"
  top: "res4a_branch2a"
  param {
    lr_mult: 0
    decay_mult: 0
  }
  param {
    lr_mult: 0
    decay_mult: 0
  }
  scale_param {
    bias_term: true
  }
}
layer {
  name: "res4a_branch2a_relu"
  type: "ReLU"
  bottom: "res4a_branch2a"
  top: "res4a_branch2a"
}
layer {
  name: "res4a_branch2b"
  type: "Convolution"
  bottom: "res4a_branch2a"
  top: "res4a_branch2b"
  param {
    lr_mult: 0
    decay_mult: 0
  }
  convolution_param {
    num_output: 256
    bias_term: false
    pad: 1
    kernel_size: 3
    stride: 1
  }
}
layer {
  name: "bn4a_branch2b"
  type: "BatchNorm"
  bottom: "res4a_branch2b"
  top: "res4a_branch2b"
  param {
    lr_mult: 0
    decay_mult: 0
  }
  param {
    lr_mult: 0
    decay_mult: 0
  }
  param {
    lr_mult: 0
    decay_mult: 0
  }
  batch_norm_param {
    use_global_stats: true
  }
}
layer {
  name: "scale4a_branch2b"
  type: "Scale"
  bottom: "res4a_branch2b"
  top: "res4a_branch2b"
  param {
    lr_mult: 0
    decay_mult: 0
  }
  param {
    lr_mult: 0
    decay_mult: 0
  }
  scale_param {
    bias_term: true
  }
}
layer {
  name: "res4a_branch2b_relu"
  type: "ReLU"
  bottom: "res4a_branch2b"
  top: "res4a_branch2b"
}
layer {
  name: "res4a_branch2c"
  type: "Convolution"
  bottom: "res4a_branch2b"
  top: "res4a_branch2c"
  param {
    lr_mult: 0
    decay_mult: 0
  }
  convolution_param {
    num_output: 1024
    bias_term: false
    pad: 0
    kernel_size: 1
    stride: 1
  }
}
layer {
  name: "bn4a_branch2c"
  type: "BatchNorm"
  bottom: "res4a_branch2c"
  top: "res4a_branch2c"
  param {
    lr_mult: 0
    decay_mult: 0
  }
  param {
    lr_mult: 0
    decay_mult: 0
  }
  param {
    lr_mult: 0
    decay_mult: 0
  }
  batch_norm_param {
    use_global_stats: true
  }
}
layer {
  name: "scale4a_branch2c"
  type: "Scale"
  bottom: "res4a_branch2c"
  top: "res4a_branch2c"
  param {
    lr_mult: 0
    decay_mult: 0
  }
  param {
    lr_mult: 0
    decay_mult: 0
  }
  scale_param {
    bias_term: true
  }
}
layer {
  name: "res4a"
  type: "Eltwise"
  bottom: "res4a_branch1"
  bottom: "res4a_branch2c"
  top: "res4a"
}
layer {
  name: "res4a_relu"
  type: "ReLU"
  bottom: "res4a"
  top: "res4a"
}
layer {
  name: "res4b1_branch2a"
  type: "Convolution"
  bottom: "res4a"
  top: "res4b1_branch2a"
  param {
    lr_mult: 0
    decay_mult: 0
  }
  convolution_param {
    num_output: 256
    bias_term: false
    pad: 0
    kernel_size: 1
    stride: 1
  }
}
layer {
  name: "bn4b1_branch2a"
  type: "BatchNorm"
  bottom: "res4b1_branch2a"
  top: "res4b1_branch2a"
  param {
    lr_mult: 0
    decay_mult: 0
  }
  param {
    lr_mult: 0
    decay_mult: 0
  }
  param {
    lr_mult: 0
    decay_mult: 0
  }
  batch_norm_param {
    use_global_stats: true
  }
}
layer {
  name: "scale4b1_branch2a"
  type: "Scale"
  bottom: "res4b1_branch2a"
  top: "res4b1_branch2a"
  param {
    lr_mult: 0
    decay_mult: 0
  }
  param {
    lr_mult: 0
    decay_mult: 0
  }
  scale_param {
    bias_term: true
  }
}
layer {
  name: "res4b1_branch2a_relu"
  type: "ReLU"
  bottom: "res4b1_branch2a"
  top: "res4b1_branch2a"
}
layer {
  name: "res4b1_branch2b"
  type: "Convolution"
  bottom: "res4b1_branch2a"
  top: "res4b1_branch2b"
  param {
    lr_mult: 0
    decay_mult: 0
  }
  convolution_param {
    num_output: 256
    bias_term: false
    pad: 1
    kernel_size: 3
    stride: 1
  }
}
layer {
  name: "bn4b1_branch2b"
  type: "BatchNorm"
  bottom: "res4b1_branch2b"
  top: "res4b1_branch2b"
  param {
    lr_mult: 0
    decay_mult: 0
  }
  param {
    lr_mult: 0
    decay_mult: 0
  }
  param {
    lr_mult: 0
    decay_mult: 0
  }
  batch_norm_param {
    use_global_stats: true
  }
}
layer {
  name: "scale4b1_branch2b"
  type: "Scale"
  bottom: "res4b1_branch2b"
  top: "res4b1_branch2b"
  param {
    lr_mult: 0
    decay_mult: 0
  }
  param {
    lr_mult: 0
    decay_mult: 0
  }
  scale_param {
    bias_term: true
  }
}
layer {
  name: "res4b1_branch2b_relu"
  type: "ReLU"
  bottom: "res4b1_branch2b"
  top: "res4b1_branch2b"
}
layer {
  name: "res4b1_branch2c"
  type: "Convolution"
  bottom: "res4b1_branch2b"
  top: "res4b1_branch2c"
  param {
    lr_mult: 0
    decay_mult: 0
  }
  convolution_param {
    num_output: 1024
    bias_term: false
    pad: 0
    kernel_size: 1
    stride: 1
  }
}
layer {
  name: "bn4b1_branch2c"
  type: "BatchNorm"
  bottom: "res4b1_branch2c"
  top: "res4b1_branch2c"
  param {
    lr_mult: 0
    decay_mult: 0
  }
  param {
    lr_mult: 0
    decay_mult: 0
  }
  param {
    lr_mult: 0
    decay_mult: 0
  }
  batch_norm_param {
    use_global_stats: true
  }
}
layer {
  name: "scale4b1_branch2c"
  type: "Scale"
  bottom: "res4b1_branch2c"
  top: "res4b1_branch2c"
  param {
    lr_mult: 0
    decay_mult: 0
  }
  param {
    lr_mult: 0
    decay_mult: 0
  }
  scale_param {
    bias_term: true
  }
}
layer {
  name: "res4b1"
  type: "Eltwise"
  bottom: "res4a"
  bottom: "res4b1_branch2c"
  top: "res4b1"
}
layer {
  name: "res4b1_relu"
  type: "ReLU"
  bottom: "res4b1"
  top: "res4b1"
}
layer {
  name: "res4b2_branch2a"
  type: "Convolution"
  bottom: "res4b1"
  top: "res4b2_branch2a"
  param {
    lr_mult: 0
    decay_mult: 0
  }
  convolution_param {
    num_output: 256
    bias_term: false
    pad: 0
    kernel_size: 1
    stride: 1
  }
}
layer {
  name: "bn4b2_branch2a"
  type: "BatchNorm"
  bottom: "res4b2_branch2a"
  top: "res4b2_branch2a"
  param {
    lr_mult: 0
    decay_mult: 0
  }
  param {
    lr_mult: 0
   
I0926 19:11:56.098702 13862 layer_factory.hpp:77] Creating layer data
I0926 19:11:56.098857 13862 db_lmdb.cpp:35] Opened lmdb /home/processyuan/NetworkOptimization/cover/training/img_train_lmdb
I0926 19:11:56.098894 13862 net.cpp:86] Creating Layer data
I0926 19:11:56.098903 13862 net.cpp:382] data -> data
I0926 19:11:56.098925 13862 net.cpp:382] data -> label
I0926 19:11:56.100752 13862 data_layer.cpp:45] output data size: 8,3,280,496
I0926 19:11:56.132791 13862 net.cpp:124] Setting up data
I0926 19:11:56.132829 13862 net.cpp:131] Top shape: 8 3 280 496 (3333120)
I0926 19:11:56.132835 13862 net.cpp:131] Top shape: 8 (8)
I0926 19:11:56.132839 13862 net.cpp:139] Memory required for data: 13332512
I0926 19:11:56.132851 13862 layer_factory.hpp:77] Creating layer data_data_0_split
I0926 19:11:56.132867 13862 net.cpp:86] Creating Layer data_data_0_split
I0926 19:11:56.132874 13862 net.cpp:408] data_data_0_split <- data
I0926 19:11:56.132890 13862 net.cpp:382] data_data_0_split -> data_data_0_split_0
I0926 19:11:56.132903 13862 net.cpp:382] data_data_0_split -> data_data_0_split_1
I0926 19:11:56.133082 13862 net.cpp:124] Setting up data_data_0_split
I0926 19:11:56.133091 13862 net.cpp:131] Top shape: 8 3 280 496 (3333120)
I0926 19:11:56.133097 13862 net.cpp:131] Top shape: 8 3 280 496 (3333120)
I0926 19:11:56.133101 13862 net.cpp:139] Memory required for data: 39997472
I0926 19:11:56.133114 13862 layer_factory.hpp:77] Creating layer rois
I0926 19:11:56.715420 13862 net.cpp:86] Creating Layer rois
I0926 19:11:56.715459 13862 net.cpp:408] rois <- data_data_0_split_0
I0926 19:11:56.715471 13862 net.cpp:382] rois -> rois
I0926 19:11:57.080377 13862 net.cpp:124] Setting up rois
I0926 19:11:57.080420 13862 net.cpp:131] Top shape: 64 5 (320)
I0926 19:11:57.080425 13862 net.cpp:139] Memory required for data: 39998752
I0926 19:11:57.080432 13862 layer_factory.hpp:77] Creating layer rois_rois_0_split
I0926 19:11:57.080446 13862 net.cpp:86] Creating Layer rois_rois_0_split
I0926 19:11:57.080451 13862 net.cpp:408] rois_rois_0_split <- rois
I0926 19:11:57.080462 13862 net.cpp:382] rois_rois_0_split -> rois_rois_0_split_0
I0926 19:11:57.080473 13862 net.cpp:382] rois_rois_0_split -> rois_rois_0_split_1
I0926 19:11:57.080507 13862 net.cpp:124] Setting up rois_rois_0_split
I0926 19:11:57.080513 13862 net.cpp:131] Top shape: 64 5 (320)
I0926 19:11:57.080518 13862 net.cpp:131] Top shape: 64 5 (320)
I0926 19:11:57.080521 13862 net.cpp:139] Memory required for data: 40001312
I0926 19:11:57.080524 13862 layer_factory.hpp:77] Creating layer features
I0926 19:11:57.080567 13862 net.cpp:86] Creating Layer features
I0926 19:11:57.080574 13862 net.cpp:408] features <- label
I0926 19:11:57.080580 13862 net.cpp:382] features -> features
I0926 19:11:57.394385 13862 net.cpp:124] Setting up features
I0926 19:11:57.394434 13862 net.cpp:131] Top shape: 8 2048 1 1 (16384)
I0926 19:11:57.394440 13862 net.cpp:139] Memory required for data: 40066848
I0926 19:11:57.394449 13862 layer_factory.hpp:77] Creating layer conv1
I0926 19:11:57.394505 13862 net.cpp:86] Creating Layer conv1
I0926 19:11:57.394528 13862 net.cpp:408] conv1 <- data_data_0_split_1
I0926 19:11:57.394547 13862 net.cpp:382] conv1 -> conv1
I0926 19:11:57.937947 13862 net.cpp:124] Setting up conv1
I0926 19:11:57.937988 13862 net.cpp:131] Top shape: 8 64 140 248 (17776640)
I0926 19:11:57.937994 13862 net.cpp:139] Memory required for data: 111173408
I0926 19:11:57.938015 13862 layer_factory.hpp:77] Creating layer bn_conv1
I0926 19:11:57.938031 13862 net.cpp:86] Creating Layer bn_conv1
I0926 19:11:57.938036 13862 net.cpp:408] bn_conv1 <- conv1
I0926 19:11:57.938045 13862 net.cpp:369] bn_conv1 -> conv1 (in-place)
I0926 19:11:57.939481 13862 net.cpp:124] Setting up bn_conv1
I0926 19:11:57.939496 13862 net.cpp:131] Top shape: 8 64 140 248 (17776640)
I0926 19:11:57.939501 13862 net.cpp:139] Memory required for data: 182279968
I0926 19:11:57.939514 13862 layer_factory.hpp:77] Creating layer scale_conv1
I0926 19:11:57.939527 13862 net.cpp:86] Creating Layer scale_conv1
I0926 19:11:57.939532 13862 net.cpp:408] scale_conv1 <- conv1
I0926 19:11:57.939538 13862 net.cpp:369] scale_conv1 -> conv1 (in-place)
I0926 19:11:57.939589 13862 layer_factory.hpp:77] Creating layer scale_conv1
I0926 19:11:57.939751 13862 net.cpp:124] Setting up scale_conv1
I0926 19:11:57.939759 13862 net.cpp:131] Top shape: 8 64 140 248 (17776640)
I0926 19:11:57.939764 13862 net.cpp:139] Memory required for data: 253386528
I0926 19:11:57.939771 13862 layer_factory.hpp:77] Creating layer conv1_relu
I0926 19:11:57.939783 13862 net.cpp:86] Creating Layer conv1_relu
I0926 19:11:57.939787 13862 net.cpp:408] conv1_relu <- conv1
I0926 19:11:57.939792 13862 net.cpp:369] conv1_relu -> conv1 (in-place)
I0926 19:11:57.939990 13862 net.cpp:124] Setting up conv1_relu
I0926 19:11:57.940001 13862 net.cpp:131] Top shape: 8 64 140 248 (17776640)
I0926 19:11:57.940004 13862 net.cpp:139] Memory required for data: 324493088
I0926 19:11:57.940008 13862 layer_factory.hpp:77] Creating layer pool1
I0926 19:11:57.940018 13862 net.cpp:86] Creating Layer pool1
I0926 19:11:57.940023 13862 net.cpp:408] pool1 <- conv1
I0926 19:11:57.940030 13862 net.cpp:382] pool1 -> pool1
I0926 19:11:57.940086 13862 net.cpp:124] Setting up pool1
I0926 19:11:57.940093 13862 net.cpp:131] Top shape: 8 64 70 124 (4444160)
I0926 19:11:57.940098 13862 net.cpp:139] Memory required for data: 342269728
I0926 19:11:57.940114 13862 layer_factory.hpp:77] Creating layer pool1_pool1_0_split
I0926 19:11:57.940132 13862 net.cpp:86] Creating Layer pool1_pool1_0_split
I0926 19:11:57.940136 13862 net.cpp:408] pool1_pool1_0_split <- pool1
I0926 19:11:57.940142 13862 net.cpp:382] pool1_pool1_0_split -> pool1_pool1_0_split_0
I0926 19:11:57.940150 13862 net.cpp:382] pool1_pool1_0_split -> pool1_pool1_0_split_1
I0926 19:11:57.940186 13862 net.cpp:124] Setting up pool1_pool1_0_split
I0926 19:11:57.940191 13862 net.cpp:131] Top shape: 8 64 70 124 (4444160)
I0926 19:11:57.940197 13862 net.cpp:131] Top shape: 8 64 70 124 (4444160)
I0926 19:11:57.940201 13862 net.cpp:139] Memory required for data: 377823008
I0926 19:11:57.940204 13862 layer_factory.hpp:77] Creating layer res2a_branch1
I0926 19:11:57.940214 13862 net.cpp:86] Creating Layer res2a_branch1
I0926 19:11:57.940218 13862 net.cpp:408] res2a_branch1 <- pool1_pool1_0_split_0
I0926 19:11:57.940225 13862 net.cpp:382] res2a_branch1 -> res2a_branch1
I0926 19:11:57.941640 13862 net.cpp:124] Setting up res2a_branch1
I0926 19:11:57.941655 13862 net.cpp:131] Top shape: 8 256 70 124 (17776640)
I0926 19:11:57.941660 13862 net.cpp:139] Memory required for data: 448929568
I0926 19:11:57.941666 13862 layer_factory.hpp:77] Creating layer bn2a_branch1
I0926 19:11:57.941673 13862 net.cpp:86] Creating Layer bn2a_branch1
I0926 19:11:57.941678 13862 net.cpp:408] bn2a_branch1 <- res2a_branch1
I0926 19:11:57.941684 13862 net.cpp:369] bn2a_branch1 -> res2a_branch1 (in-place)
I0926 19:11:57.941879 13862 net.cpp:124] Setting up bn2a_branch1
I0926 19:11:57.941887 13862 net.cpp:131] Top shape: 8 256 70 124 (17776640)
I0926 19:11:57.941891 13862 net.cpp:139] Memory required for data: 520036128
I0926 19:11:57.941901 13862 layer_factory.hpp:77] Creating layer scale2a_branch1
I0926 19:11:57.941908 13862 net.cpp:86] Creating Layer scale2a_branch1
I0926 19:11:57.941912 13862 net.cpp:408] scale2a_branch1 <- res2a_branch1
I0926 19:11:57.941916 13862 net.cpp:369] scale2a_branch1 -> res2a_branch1 (in-place)
I0926 19:11:57.941973 13862 layer_factory.hpp:77] Creating layer scale2a_branch1
I0926 19:11:57.942104 13862 net.cpp:124] Setting up scale2a_branch1
I0926 19:11:57.942112 13862 net.cpp:131] Top shape: 8 256 70 124 (17776640)
I0926 19:11:57.942116 13862 net.cpp:139] Memory required for data: 591142688
I0926 19:11:57.942126 13862 layer_factory.hpp:77] Creating layer res2a_branch2a
I0926 19:11:57.942134 13862 net.cpp:86] Creating Layer res2a_branch2a
I0926 19:11:57.942138 13862 net.cpp:408] res2a_branch2a <- pool1_pool1_0_split_1
I0926 19:11:57.942144 13862 net.cpp:382] res2a_branch2a -> res2a_branch2a
I0926 19:11:57.944430 13862 net.cpp:124] Setting up res2a_branch2a
I0926 19:11:57.944447 13862 net.cpp:131] Top shape: 8 64 70 124 (4444160)
I0926 19:11:57.944450 13862 net.cpp:139] Memory required for data: 608919328
I0926 19:11:57.944456 13862 layer_factory.hpp:77] Creating layer bn2a_branch2a
I0926 19:11:57.944464 13862 net.cpp:86] Creating Layer bn2a_branch2a
I0926 19:11:57.944468 13862 net.cpp:408] bn2a_branch2a <- res2a_branch2a
I0926 19:11:57.944478 13862 net.cpp:369] bn2a_branch2a -> res2a_branch2a (in-place)
I0926 19:11:57.944681 13862 net.cpp:124] Setting up bn2a_branch2a
I0926 19:11:57.944689 13862 net.cpp:131] Top shape: 8 64 70 124 (4444160)
I0926 19:11:57.944692 13862 net.cpp:139] Memory required for data: 626695968
I0926 19:11:57.944700 13862 layer_factory.hpp:77] Creating layer scale2a_branch2a
I0926 19:11:57.944708 13862 net.cpp:86] Creating Layer scale2a_branch2a
I0926 19:11:57.944712 13862 net.cpp:408] scale2a_branch2a <- res2a_branch2a
I0926 19:11:57.944717 13862 net.cpp:369] scale2a_branch2a -> res2a_branch2a (in-place)
I0926 19:11:57.944757 13862 layer_factory.hpp:77] Creating layer scale2a_branch2a
I0926 19:11:57.944890 13862 net.cpp:124] Setting up scale2a_branch2a
I0926 19:11:57.944898 13862 net.cpp:131] Top shape: 8 64 70 124 (4444160)
I0926 19:11:57.944901 13862 net.cpp:139] Memory required for data: 644472608
I0926 19:11:57.944911 13862 layer_factory.hpp:77] Creating layer res2a_branch2a_relu
I0926 19:11:57.944923 13862 net.cpp:86] Creating Layer res2a_branch2a_relu
I0926 19:11:57.944934 13862 net.cpp:408] res2a_branch2a_relu <- res2a_branch2a
I0926 19:11:57.944941 13862 net.cpp:369] res2a_branch2a_relu -> res2a_branch2a (in-place)
I0926 19:11:57.945122 13862 net.cpp:124] Setting up res2a_branch2a_relu
I0926 19:11:57.945132 13862 net.cpp:131] Top shape: 8 64 70 124 (4444160)
I0926 19:11:57.945135 13862 net.cpp:139] Memory required for data: 662249248
I0926 19:11:57.945139 13862 layer_factory.hpp:77] Creating layer res2a_branch2b
I0926 19:11:57.945147 13862 net.cpp:86] Creating Layer res2a_branch2b
I0926 19:11:57.945152 13862 net.cpp:408] res2a_branch2b <- res2a_branch2a
I0926 19:11:57.945158 13862 net.cpp:382] res2a_branch2b -> res2a_branch2b
I0926 19:11:57.946243 13862 net.cpp:124] Setting up res2a_branch2b
I0926 19:11:57.946257 13862 net.cpp:131] Top shape: 8 64 70 124 (4444160)
I0926 19:11:57.946261 13862 net.cpp:139] Memory required for data: 680025888
I0926 19:11:57.946267 13862 layer_factory.hpp:77] Creating layer bn2a_branch2b
I0926 19:11:57.946274 13862 net.cpp:86] Creating Layer bn2a_branch2b
I0926 19:11:57.946280 13862 net.cpp:408] bn2a_branch2b <- res2a_branch2b
I0926 19:11:57.946286 13862 net.cpp:369] bn2a_branch2b -> res2a_branch2b (in-place)
I0926 19:11:57.946516 13862 net.cpp:124] Setting up bn2a_branch2b
I0926 19:11:57.946525 13862 net.cpp:131] Top shape: 8 64 70 124 (4444160)
I0926 19:11:57.946529 13862 net.cpp:139] Memory required for data: 697802528
I0926 19:11:57.946537 13862 layer_factory.hpp:77] Creating layer scale2a_branch2b
I0926 19:11:57.946544 13862 net.cpp:86] Creating Layer scale2a_branch2b
I0926 19:11:57.946548 13862 net.cpp:408] scale2a_branch2b <- res2a_branch2b
I0926 19:11:57.946554 13862 net.cpp:369] scale2a_branch2b -> res2a_branch2b (in-place)
I0926 19:11:57.946595 13862 layer_factory.hpp:77] Creating layer scale2a_branch2b
I0926 19:11:57.946729 13862 net.cpp:124] Setting up scale2a_branch2b
I0926 19:11:57.946738 13862 net.cpp:131] Top shape: 8 64 70 124 (4444160)
I0926 19:11:57.946743 13862 net.cpp:139] Memory required for data: 715579168
I0926 19:11:57.946750 13862 layer_factory.hpp:77] Creating layer res2a_branch2b_relu
I0926 19:11:57.946756 13862 net.cpp:86] Creating Layer res2a_branch2b_relu
I0926 19:11:57.946760 13862 net.cpp:408] res2a_branch2b_relu <- res2a_branch2b
I0926 19:11:57.946768 13862 net.cpp:369] res2a_branch2b_relu -> res2a_branch2b (in-place)
I0926 19:11:57.947291 13862 net.cpp:124] Setting up res2a_branch2b_relu
I0926 19:11:57.947305 13862 net.cpp:131] Top shape: 8 64 70 124 (4444160)
I0926 19:11:57.947310 13862 net.cpp:139] Memory required for data: 733355808
I0926 19:11:57.947314 13862 layer_factory.hpp:77] Creating layer res2a_branch2c
I0926 19:11:57.947322 13862 net.cpp:86] Creating Layer res2a_branch2c
I0926 19:11:57.947327 13862 net.cpp:408] res2a_branch2c <- res2a_branch2b
I0926 19:11:57.947335 13862 net.cpp:382] res2a_branch2c -> res2a_branch2c
I0926 19:11:57.948415 13862 net.cpp:124] Setting up res2a_branch2c
I0926 19:11:57.948429 13862 net.cpp:131] Top shape: 8 256 70 124 (17776640)
I0926 19:11:57.948433 13862 net.cpp:139] Memory required for data: 804462368
I0926 19:11:57.948439 13862 layer_factory.hpp:77] Creating layer bn2a_branch2c
I0926 19:11:57.948447 13862 net.cpp:86] Creating Layer bn2a_branch2c
I0926 19:11:57.948451 13862 net.cpp:408] bn2a_branch2c <- res2a_branch2c
I0926 19:11:57.948457 13862 net.cpp:369] bn2a_branch2c -> res2a_branch2c (in-place)
I0926 19:11:57.948648 13862 net.cpp:124] Setting up bn2a_branch2c
I0926 19:11:57.948655 13862 net.cpp:131] Top shape: 8 256 70 124 (17776640)
I0926 19:11:57.948659 13862 net.cpp:139] Memory required for data: 875568928
I0926 19:11:57.948665 13862 layer_factory.hpp:77] Creating layer scale2a_branch2c
I0926 19:11:57.948675 13862 net.cpp:86] Creating Layer scale2a_branch2c
I0926 19:11:57.948679 13862 net.cpp:408] scale2a_branch2c <- res2a_branch2c
I0926 19:11:57.948684 13862 net.cpp:369] scale2a_branch2c -> res2a_branch2c (in-place)
I0926 19:11:57.948724 13862 layer_factory.hpp:77] Creating layer scale2a_branch2c
I0926 19:11:57.948855 13862 net.cpp:124] Setting up scale2a_branch2c
I0926 19:11:57.948871 13862 net.cpp:131] Top shape: 8 256 70 124 (17776640)
I0926 19:11:57.948875 13862 net.cpp:139] Memory required for data: 946675488
I0926 19:11:57.948880 13862 layer_factory.hpp:77] Creating layer res2a
I0926 19:11:57.948887 13862 net.cpp:86] Creating Layer res2a
I0926 19:11:57.948891 13862 net.cpp:408] res2a <- res2a_branch1
I0926 19:11:57.948896 13862 net.cpp:408] res2a <- res2a_branch2c
I0926 19:11:57.948901 13862 net.cpp:382] res2a -> res2a
I0926 19:11:57.948933 13862 net.cpp:124] Setting up res2a
I0926 19:11:57.948940 13862 net.cpp:131] Top shape: 8 256 70 124 (17776640)
I0926 19:11:57.948945 13862 net.cpp:139] Memory required for data: 1017782048
I0926 19:11:57.948948 13862 layer_factory.hpp:77] Creating layer res2a_relu
I0926 19:11:57.948954 13862 net.cpp:86] Creating Layer res2a_relu
I0926 19:11:57.948958 13862 net.cpp:408] res2a_relu <- res2a
I0926 19:11:57.948963 13862 net.cpp:369] res2a_relu -> res2a (in-place)
I0926 19:11:57.949141 13862 net.cpp:124] Setting up res2a_relu
I0926 19:11:57.949151 13862 net.cpp:131] Top shape: 8 256 70 124 (17776640)
I0926 19:11:57.949156 13862 net.cpp:139] Memory required for data: 1088888608
I0926 19:11:57.949158 13862 layer_factory.hpp:77] Creating layer res2a_res2a_relu_0_split
I0926 19:11:57.949164 13862 net.cpp:86] Creating Layer res2a_res2a_relu_0_split
I0926 19:11:57.949169 13862 net.cpp:408] res2a_res2a_relu_0_split <- res2a
I0926 19:11:57.949177 13862 net.cpp:382] res2a_res2a_relu_0_split -> res2a_res2a_relu_0_split_0
I0926 19:11:57.949184 13862 net.cpp:382] res2a_res2a_relu_0_split -> res2a_res2a_relu_0_split_1
I0926 19:11:57.949224 13862 net.cpp:124] Setting up res2a_res2a_relu_0_split
I0926 19:11:57.949231 13862 net.cpp:131] Top shape: 8 256 70 124 (17776640)
I0926 19:11:57.949236 13862 net.cpp:131] Top shape: 8 256 70 124 (17776640)
I0926 19:11:57.949239 13862 net.cpp:139] Memory required for data: 1231101728
I0926 19:11:57.949244 13862 layer_factory.hpp:77] Creating layer res2b_branch2a
I0926 19:11:57.949252 13862 net.cpp:86] Creating Layer res2b_branch2a
I0926 19:11:57.949257 13862 net.cpp:408] res2b_branch2a <- res2a_res2a_relu_0_split_0
I0926 19:11:57.949262 13862 net.cpp:382] res2b_branch2a -> res2b_branch2a
I0926 19:11:57.950330 13862 net.cpp:124] Setting up res2b_branch2a
I0926 19:11:57.950346 13862 net.cpp:131] Top shape: 8 64 70 124 (4444160)
I0926 19:11:57.950350 13862 net.cpp:139] Memory required for data: 1248878368
I0926 19:11:57.950356 13862 layer_factory.hpp:77] Creating layer bn2b_branch2a
I0926 19:11:57.950363 13862 net.cpp:86] Creating Layer bn2b_branch2a
I0926 19:11:57.950368 13862 net.cpp:408] bn2b_branch2a <- res2b_branch2a
I0926 19:11:57.950376 13862 net.cpp:369] bn2b_branch2a -> res2b_branch2a (in-place)
I0926 19:11:57.950611 13862 net.cpp:124] Setting up bn2b_branch2a
I0926 19:11:57.950620 13862 net.cpp:131] Top shape: 8 64 70 124 (4444160)
I0926 19:11:57.950625 13862 net.cpp:139] Memory required for data: 1266655008
I0926 19:11:57.950636 13862 layer_factory.hpp:77] Creating layer scale2b_branch2a
I0926 19:11:57.950644 13862 net.cpp:86] Creating Layer scale2b_branch2a
I0926 19:11:57.950649 13862 net.cpp:408] scale2b_branch2a <- res2b_branch2a
I0926 19:11:57.950655 13862 net.cpp:369] scale2b_branch2a -> res2b_branch2a (in-place)
I0926 19:11:57.950698 13862 layer_factory.hpp:77] Creating layer scale2b_branch2a
I0926 19:11:57.950850 13862 net.cpp:124] Setting up scale2b_branch2a
I0926 19:11:57.950858 13862 net.cpp:131] Top shape: 8 64 70 124 (4444160)
I0926 19:11:57.950862 13862 net.cpp:139] Memory required for data: 1284431648
I0926 19:11:57.950867 13862 layer_factory.hpp:77] Creating layer res2b_branch2a_relu
I0926 19:11:57.950875 13862 net.cpp:86] Creating Layer res2b_branch2a_relu
I0926 19:11:57.950879 13862 net.cpp:408] res2b_branch2a_relu <- res2b_branch2a
I0926 19:11:57.950884 13862 net.cpp:369] res2b_branch2a_relu -> res2b_branch2a (in-place)
I0926 19:11:57.951066 13862 net.cpp:124] Setting up res2b_branch2a_relu
I0926 19:11:57.951077 13862 net.cpp:131] Top shape: 8 64 70 124 (4444160)
I0926 19:11:57.951086 13862 net.cpp:139] Memory required for data: 1302208288
I0926 19:11:57.951097 13862 layer_factory.hpp:77] Creating layer res2b_branch2b
I0926 19:11:57.951109 13862 net.cpp:86] Creating Layer res2b_branch2b
I0926 19:11:57.951113 13862 net.cpp:408] res2b_branch2b <- res2b_branch2a
I0926 19:11:57.951119 13862 net.cpp:382] res2b_branch2b -> res2b_branch2b
I0926 19:11:57.952275 13862 net.cpp:124] Setting up res2b_branch2b
I0926 19:11:57.952291 13862 net.cpp:131] Top shape: 8 64 70 124 (4444160)
I0926 19:11:57.952294 13862 net.cpp:139] Memory required for data: 1319984928
I0926 19:11:57.952299 13862 layer_factory.hpp:77] Creating layer bn2b_branch2b
I0926 19:11:57.952309 13862 net.cpp:86] Creating Layer bn2b_branch2b
I0926 19:11:57.952313 13862 net.cpp:408] bn2b_branch2b <- res2b_branch2b
I0926 19:11:57.952323 13862 net.cpp:369] bn2b_branch2b -> res2b_branch2b (in-place)
I0926 19:11:57.952546 13862 net.cpp:124] Setting up bn2b_branch2b
I0926 19:11:57.952554 13862 net.cpp:131] Top shape: 8 64 70 124 (4444160)
I0926 19:11:57.952558 13862 net.cpp:139] Memory required for data: 1337761568
I0926 19:11:57.952564 13862 layer_factory.hpp:77] Creating layer scale2b_branch2b
I0926 19:11:57.952574 13862 net.cpp:86] Creating Layer scale2b_branch2b
I0926 19:11:57.952579 13862 net.cpp:408] scale2b_branch2b <- res2b_branch2b
I0926 19:11:57.952584 13862 net.cpp:369] scale2b_branch2b -> res2b_branch2b (in-place)
I0926 19:11:57.952626 13862 layer_factory.hpp:77] Creating layer scale2b_branch2b
I0926 19:11:57.952774 13862 net.cpp:124] Setting up scale2b_branch2b
I0926 19:11:57.952781 13862 net.cpp:131] Top shape: 8 64 70 124 (4444160)
I0926 19:11:57.952785 13862 net.cpp:139] Memory required for data: 1355538208
I0926 19:11:57.952790 13862 layer_factory.hpp:77] Creating layer res2b_branch2b_relu
I0926 19:11:57.952798 13862 net.cpp:86] Creating Layer res2b_branch2b_relu
I0926 19:11:57.952803 13862 net.cpp:408] res2b_branch2b_relu <- res2b_branch2b
I0926 19:11:57.952807 13862 net.cpp:369] res2b_branch2b_relu -> res2b_branch2b (in-place)
I0926 19:11:57.953336 13862 net.cpp:124] Setting up res2b_branch2b_relu
I0926 19:11:57.953349 13862 net.cpp:131] Top shape: 8 64 70 124 (4444160)
I0926 19:11:57.953353 13862 net.cpp:139] Memory required for data: 1373314848
I0926 19:11:57.953357 13862 layer_factory.hpp:77] Creating layer res2b_branch2c
I0926 19:11:57.953367 13862 net.cpp:86] Creating Layer res2b_branch2c
I0926 19:11:57.953372 13862 net.cpp:408] res2b_branch2c <- res2b_branch2b
I0926 19:11:57.953380 13862 net.cpp:382] res2b_branch2c -> res2b_branch2c
I0926 19:11:57.954576 13862 net.cpp:124] Setting up res2b_branch2c
I0926 19:11:57.954592 13862 net.cpp:131] Top shape: 8 256 70 124 (17776640)
I0926 19:11:57.954596 13862 net.cpp:139] Memory required for data: 1444421408
I0926 19:11:57.954603 13862 layer_factory.hpp:77] Creating layer bn2b_branch2c
I0926 19:11:57.954610 13862 net.cpp:86] Creating Layer bn2b_branch2c
I0926 19:11:57.954615 13862 net.cpp:408] bn2b_branch2c <- res2b_branch2c
I0926 19:11:57.954625 13862 net.cpp:369] bn2b_branch2c -> res2b_branch2c (in-place)
I0926 19:11:57.954860 13862 net.cpp:124] Setting up bn2b_branch2c
I0926 19:11:57.954869 13862 net.cpp:131] Top shape: 8 256 70 124 (17776640)
I0926 19:11:57.954872 13862 net.cpp:139] Memory required for data: 1515527968
I0926 19:11:57.954879 13862 layer_factory.hpp:77] Creating layer scale2b_branch2c
I0926 19:11:57.954887 13862 net.cpp:86] Creating Layer scale2b_branch2c
I0926 19:11:57.954891 13862 net.cpp:408] scale2b_branch2c <- res2b_branch2c
I0926 19:11:57.954897 13862 net.cpp:369] scale2b_branch2c -> res2b_branch2c (in-place)
I0926 19:11:57.954938 13862 layer_factory.hpp:77] Creating layer scale2b_branch2c
I0926 19:11:57.955075 13862 net.cpp:124] Setting up scale2b_branch2c
I0926 19:11:57.955085 13862 net.cpp:131] Top shape: 8 256 70 124 (17776640)
I0926 19:11:57.955088 13862 net.cpp:139] Memory required for data: 1586634528
I0926 19:11:57.955093 13862 layer_factory.hpp:77] Creating layer res2b
I0926 19:11:57.955106 13862 net.cpp:86] Creating Layer res2b
I0926 19:11:57.955109 13862 net.cpp:408] res2b <- res2a_res2a_relu_0_split_1
I0926 19:11:57.955121 13862 net.cpp:408] res2b <- res2b_branch2c
I0926 19:11:57.955127 13862 net.cpp:382] res2b -> res2b
I0926 19:11:57.955155 13862 net.cpp:124] Setting up res2b
I0926 19:11:57.955163 13862 net.cpp:131] Top shape: 8 256 70 124 (17776640)
I0926 19:11:57.955165 13862 net.cpp:139] Memory required for data: 1657741088
I0926 19:11:57.955169 13862 layer_factory.hpp:77] Creating layer res2b_relu
I0926 19:11:57.955175 13862 net.cpp:86] Creating Layer res2b_relu
I0926 19:11:57.955180 13862 net.cpp:408] res2b_relu <- res2b
I0926 19:11:57.955185 13862 net.cpp:369] res2b_relu -> res2b (in-place)
I0926 19:11:57.955384 13862 net.cpp:124] Setting up res2b_relu
I0926 19:11:57.955395 13862 net.cpp:131] Top shape: 8 256 70 124 (17776640)
I0926 19:11:57.955399 13862 net.cpp:139] Memory required for data: 1728847648
I0926 19:11:57.955402 13862 layer_factory.hpp:77] Creating layer res2b_res2b_relu_0_split
I0926 19:11:57.955412 13862 net.cpp:86] Creating Layer res2b_res2b_relu_0_split
I0926 19:11:57.955417 13862 net.cpp:408] res2b_res2b_relu_0_split <- res2b
I0926 19:11:57.955425 13862 net.cpp:382] res2b_res2b_relu_0_split -> res2b_res2b_relu_0_split_0
I0926 19:11:57.955432 13862 net.cpp:382] res2b_res2b_relu_0_split -> res2b_res2b_relu_0_split_1
I0926 19:11:57.955477 13862 net.cpp:124] Setting up res2b_res2b_relu_0_split
I0926 19:11:57.955484 13862 net.cpp:131] Top shape: 8 256 70 124 (17776640)
I0926 19:11:57.955489 13862 net.cpp:131] Top shape: 8 256 70 124 (17776640)
I0926 19:11:57.955492 13862 net.cpp:139] Memory required for data: 1871060768
I0926 19:11:57.955497 13862 layer_factory.hpp:77] Creating layer res2c_branch2a
I0926 19:11:57.955507 13862 net.cpp:86] Creating Layer res2c_branch2a
I0926 19:11:57.955512 13862 net.cpp:408] res2c_branch2a <- res2b_res2b_relu_0_split_0
I0926 19:11:57.955519 13862 net.cpp:382] res2c_branch2a -> res2c_branch2a
I0926 19:11:57.956699 13862 net.cpp:124] Setting up res2c_branch2a
I0926 19:11:57.956717 13862 net.cpp:131] Top shape: 8 64 70 124 (4444160)
I0926 19:11:57.956722 13862 net.cpp:139] Memory required for data: 1888837408
I0926 19:11:57.956727 13862 layer_factory.hpp:77] Creating layer bn2c_branch2a
I0926 19:11:57.956733 13862 net.cpp:86] Creating Layer bn2c_branch2a
I0926 19:11:57.956738 13862 net.cpp:408] bn2c_branch2a <- res2c_branch2a
I0926 19:11:57.956746 13862 net.cpp:369] bn2c_branch2a -> res2c_branch2a (in-place)
I0926 19:11:57.956962 13862 net.cpp:124] Setting up bn2c_branch2a
I0926 19:11:57.956970 13862 net.cpp:131] Top shape: 8 64 70 124 (4444160)
I0926 19:11:57.956974 13862 net.cpp:139] Memory required for data: 1906614048
I0926 19:11:57.956980 13862 layer_factory.hpp:77] Creating layer scale2c_branch2a
I0926 19:11:57.956987 13862 net.cpp:86] Creating Layer scale2c_branch2a
I0926 19:11:57.956991 13862 net.cpp:408] scale2c_branch2a <- res2c_branch2a
I0926 19:11:57.956998 13862 net.cpp:369] scale2c_branch2a -> res2c_branch2a (in-place)
I0926 19:11:57.957041 13862 layer_factory.hpp:77] Creating layer scale2c_branch2a
I0926 19:11:57.957185 13862 net.cpp:124] Setting up scale2c_branch2a
I0926 19:11:57.957192 13862 net.cpp:131] Top shape: 8 64 70 124 (4444160)
I0926 19:11:57.957196 13862 net.cpp:139] Memory required for data: 1924390688
I0926 19:11:57.957202 13862 layer_factory.hpp:77] Creating layer res2c_branch2a_relu
I0926 19:11:57.957211 13862 net.cpp:86] Creating Layer res2c_branch2a_relu
I0926 19:11:57.957216 13862 net.cpp:408] res2c_branch2a_relu <- res2c_branch2a
I0926 19:11:57.957222 13862 net.cpp:369] res2c_branch2a_relu -> res2c_branch2a (in-place)
I0926 19:11:57.957422 13862 net.cpp:124] Setting up res2c_branch2a_relu
I0926 19:11:57.957430 13862 net.cpp:131] Top shape: 8 64 70 124 (4444160)
I0926 19:11:57.957434 13862 net.cpp:139] Memory required for data: 1942167328
I0926 19:11:57.957438 13862 layer_factory.hpp:77] Creating layer res2c_branch2b
I0926 19:11:57.957449 13862 net.cpp:86] Creating Layer res2c_branch2b
I0926 19:11:57.957454 13862 net.cpp:408] res2c_branch2b <- res2c_branch2a
I0926 19:11:57.957466 13862 net.cpp:382] res2c_branch2b -> res2c_branch2b
I0926 19:11:57.958679 13862 net.cpp:124] Setting up res2c_branch2b
I0926 19:11:57.958698 13862 net.cpp:131] Top shape: 8 64 70 124 (4444160)
I0926 19:11:57.958703 13862 net.cpp:139] Memory required for data: 1959943968
I0926 19:11:57.958709 13862 layer_factory.hpp:77] Creating layer bn2c_branch2b
I0926 19:11:57.958716 13862 net.cpp:86] Creating Layer bn2c_branch2b
I0926 19:11:57.958721 13862 net.cpp:408] bn2c_branch2b <- res2c_branch2b
I0926 19:11:57.958729 13862 net.cpp:369] bn2c_branch2b -> res2c_branch2b (in-place)
I0926 19:11:57.958971 13862 net.cpp:124] Setting up bn2c_branch2b
I0926 19:11:57.958979 13862 net.cpp:131] Top shape: 8 64 70 124 (4444160)
I0926 19:11:57.958982 13862 net.cpp:139] Memory required for data: 1977720608
I0926 19:11:57.958989 13862 layer_factory.hpp:77] Creating layer scale2c_branch2b
I0926 19:11:57.958998 13862 net.cpp:86] Creating Layer scale2c_branch2b
I0926 19:11:57.959002 13862 net.cpp:408] scale2c_branch2b <- res2c_branch2b
I0926 19:11:57.959007 13862 net.cpp:369] scale2c_branch2b -> res2c_branch2b (in-place)
I0926 19:11:57.959050 13862 layer_factory.hpp:77] Creating layer scale2c_branch2b
I0926 19:11:57.959193 13862 net.cpp:124] Setting up scale2c_branch2b
I0926 19:11:57.959201 13862 net.cpp:131] Top shape: 8 64 70 124 (4444160)
I0926 19:11:57.959204 13862 net.cpp:139] Memory required for data: 1995497248
I0926 19:11:57.959213 13862 layer_factory.hpp:77] Creating layer res2c_branch2b_relu
I0926 19:11:57.959220 13862 net.cpp:86] Creating Layer res2c_branch2b_relu
I0926 19:11:57.959224 13862 net.cpp:408] res2c_branch2b_relu <- res2c_branch2b
I0926 19:11:57.959234 13862 net.cpp:369] res2c_branch2b_relu -> res2c_branch2b (in-place)
I0926 19:11:57.959434 13862 net.cpp:124] Setting up res2c_branch2b_relu
I0926 19:11:57.959444 13862 net.cpp:131] Top shape: 8 64 70 124 (4444160)
I0926 19:11:57.959448 13862 net.cpp:139] Memory required for data: 2013273888
I0926 19:11:57.959452 13862 layer_factory.hpp:77] Creating layer res2c_branch2c
I0926 19:11:57.959462 13862 net.cpp:86] Creating Layer res2c_branch2c
I0926 19:11:57.959466 13862 net.cpp:408] res2c_branch2c <- res2c_branch2b
I0926 19:11:57.959473 13862 net.cpp:382] res2c_branch2c -> res2c_branch2c
I0926 19:11:57.960651 13862 net.cpp:124] Setting up res2c_branch2c
I0926 19:11:57.960666 13862 net.cpp:131] Top shape: 8 256 70 124 (17776640)
I0926 19:11:57.960670 13862 net.cpp:139] Memory required for data: 2084380448
I0926 19:11:57.960676 13862 layer_factory.hpp:77] Creating layer bn2c_branch2c
I0926 19:11:57.960686 13862 net.cpp:86] Creating Layer bn2c_branch2c
I0926 19:11:57.960690 13862 net.cpp:408] bn2c_branch2c <- res2c_branch2c
I0926 19:11:57.960698 13862 net.cpp:369] bn2c_branch2c -> res2c_branch2c (in-place)
I0926 19:11:57.960906 13862 net.cpp:124] Setting up bn2c_branch2c
I0926 19:11:57.960914 13862 net.cpp:131] Top shape: 8 256 70 124 (17776640)
I0926 19:11:57.960917 13862 net.cpp:139] Memory required for data: 2155487008
I0926 19:11:57.960924 13862 layer_factory.hpp:77] Creating layer scale2c_branch2c
I0926 19:11:57.960933 13862 net.cpp:86] Creating Layer scale2c_branch2c
I0926 19:11:57.960937 13862 net.cpp:408] scale2c_branch2c <- res2c_branch2c
I0926 19:11:57.960944 13862 net.cpp:369] scale2c_branch2c -> res2c_branch2c (in-place)
I0926 19:11:57.960986 13862 layer_factory.hpp:77] Creating layer scale2c_branch2c
I0926 19:11:57.961127 13862 net.cpp:124] Setting up scale2c_branch2c
I0926 19:11:57.961134 13862 net.cpp:131] Top shape: 8 256 70 124 (17776640)
I0926 19:11:57.961138 13862 net.cpp:139] Memory required for data: 2226593568
I0926 19:11:57.961153 13862 layer_factory.hpp:77] Creating layer res2c
I0926 19:11:57.961161 13862 net.cpp:86] Creating Layer res2c
I0926 19:11:57.961165 13862 net.cpp:408] res2c <- res2b_res2b_relu_0_split_1
I0926 19:11:57.961171 13862 net.cpp:408] res2c <- res2c_branch2c
I0926 19:11:57.961177 13862 net.cpp:382] res2c -> res2c
I0926 19:11:57.961205 13862 net.cpp:124] Setting up res2c
I0926 19:11:57.961218 13862 net.cpp:131] Top shape: 8 256 70 124 (17776640)
I0926 19:11:57.961230 13862 net.cpp:139] Memory required for data: 2297700128
I0926 19:11:57.961233 13862 layer_factory.hpp:77] Creating layer res2c_relu
I0926 19:11:57.961239 13862 net.cpp:86] Creating Layer res2c_relu
I0926 19:11:57.961243 13862 net.cpp:408] res2c_relu <- res2c
I0926 19:11:57.961251 13862 net.cpp:369] res2c_relu -> res2c (in-place)
I0926 19:11:57.961776 13862 net.cpp:124] Setting up res2c_relu
I0926 19:11:57.961791 13862 net.cpp:131] Top shape: 8 256 70 124 (17776640)
I0926 19:11:57.961794 13862 net.cpp:139] Memory required for data: 2368806688
I0926 19:11:57.961798 13862 layer_factory.hpp:77] Creating layer res2c_res2c_relu_0_split
I0926 19:11:57.961808 13862 net.cpp:86] Creating Layer res2c_res2c_relu_0_split
I0926 19:11:57.961813 13862 net.cpp:408] res2c_res2c_relu_0_split <- res2c
I0926 19:11:57.961819 13862 net.cpp:382] res2c_res2c_relu_0_split -> res2c_res2c_relu_0_split_0
I0926 19:11:57.961827 13862 net.cpp:382] res2c_res2c_relu_0_split -> res2c_res2c_relu_0_split_1
I0926 19:11:57.961874 13862 net.cpp:124] Setting up res2c_res2c_relu_0_split
I0926 19:11:57.961881 13862 net.cpp:131] Top shape: 8 256 70 124 (17776640)
I0926 19:11:57.961886 13862 net.cpp:131] Top shape: 8 256 70 124 (17776640)
I0926 19:11:57.961889 13862 net.cpp:139] Memory required for data: 2511019808
I0926 19:11:57.961894 13862 layer_factory.hpp:77] Creating layer res3a_branch1
I0926 19:11:57.961904 13862 net.cpp:86] Creating Layer res3a_branch1
I0926 19:11:57.961907 13862 net.cpp:408] res3a_branch1 <- res2c_res2c_relu_0_split_0
I0926 19:11:57.961915 13862 net.cpp:382] res3a_branch1 -> res3a_branch1
I0926 19:11:57.964339 13862 net.cpp:124] Setting up res3a_branch1
I0926 19:11:57.964354 13862 net.cpp:131] Top shape: 8 512 35 62 (8888320)
I0926 19:11:57.964359 13862 net.cpp:139] Memory required for data: 2546573088
I0926 19:11:57.964365 13862 layer_factory.hpp:77] Creating layer bn3a_branch1
I0926 19:11:57.964375 13862 net.cpp:86] Creating Layer bn3a_branch1
I0926 19:11:57.964380 13862 net.cpp:408] bn3a_branch1 <- res3a_branch1
I0926 19:11:57.964390 13862 net.cpp:369] bn3a_branch1 -> res3a_branch1 (in-place)
I0926 19:11:57.965761 13862 net.cpp:124] Setting up bn3a_branch1
I0926 19:11:57.965775 13862 net.cpp:131] Top shape: 8 512 35 62 (8888320)
I0926 19:11:57.965780 13862 net.cpp:139] Memory required for data: 2582126368
I0926 19:11:57.965787 13862 layer_factory.hpp:77] Creating layer scale3a_branch1
I0926 19:11:57.965795 13862 net.cpp:86] Creating Layer scale3a_branch1
I0926 19:11:57.965798 13862 net.cpp:408] scale3a_branch1 <- res3a_branch1
I0926 19:11:57.965807 13862 net.cpp:369] scale3a_branch1 -> res3a_branch1 (in-place)
I0926 19:11:57.965852 13862 layer_factory.hpp:77] Creating layer scale3a_branch1
I0926 19:11:57.965976 13862 net.cpp:124] Setting up scale3a_branch1
I0926 19:11:57.965983 13862 net.cpp:131] Top shape: 8 512 35 62 (8888320)
I0926 19:11:57.965988 13862 net.cpp:139] Memory required for data: 2617679648
I0926 19:11:57.965994 13862 layer_factory.hpp:77] Creating layer res3a_branch2a
I0926 19:11:57.966004 13862 net.cpp:86] Creating Layer res3a_branch2a
I0926 19:11:57.966009 13862 net.cpp:408] res3a_branch2a <- res2c_res2c_relu_0_split_1
I0926 19:11:57.966018 13862 net.cpp:382] res3a_branch2a -> res3a_branch2a
I0926 19:11:57.967262 13862 net.cpp:124] Setting up res3a_branch2a
I0926 19:11:57.967278 13862 net.cpp:131] Top shape: 8 128 35 62 (2222080)
I0926 19:11:57.967283 13862 net.cpp:139] Memory required for data: 2626567968
I0926 19:11:57.967288 13862 layer_factory.hpp:77] Creating layer bn3a_branch2a
I0926 19:11:57.967298 13862 net.cpp:86] Creating Layer bn3a_branch2a
I0926 19:11:57.967303 13862 net.cpp:408] bn3a_branch2a <- res3a_branch2a
I0926 19:11:57.967308 13862 net.cpp:369] bn3a_branch2a -> res3a_branch2a (in-place)
I0926 19:11:57.967516 13862 net.cpp:124] Setting up bn3a_branch2a
I0926 19:11:57.967525 13862 net.cpp:131] Top shape: 8 128 35 62 (2222080)
I0926 19:11:57.967527 13862 net.cpp:139] Memory required for data: 2635456288
I0926 19:11:57.967540 13862 layer_factory.hpp:77] Creating layer scale3a_branch2a
I0926 19:11:57.967553 13862 net.cpp:86] Creating Layer scale3a_branch2a
I0926 19:11:57.967557 13862 net.cpp:408] scale3a_branch2a <- res3a_branch2a
I0926 19:11:57.967562 13862 net.cpp:369] scale3a_branch2a -> res3a_branch2a (in-place)
I0926 19:11:57.967610 13862 layer_factory.hpp:77] Creating layer scale3a_branch2a
I0926 19:11:57.967730 13862 net.cpp:124] Setting up scale3a_branch2a
I0926 19:11:57.967737 13862 net.cpp:131] Top shape: 8 128 35 62 (2222080)
I0926 19:11:57.967741 13862 net.cpp:139] Memory required for data: 2644344608
I0926 19:11:57.967746 13862 layer_factory.hpp:77] Creating layer res3a_branch2a_relu
I0926 19:11:57.967756 13862 net.cpp:86] Creating Layer res3a_branch2a_relu
I0926 19:11:57.967761 13862 net.cpp:408] res3a_branch2a_relu <- res3a_branch2a
I0926 19:11:57.967766 13862 net.cpp:369] res3a_branch2a_relu -> res3a_branch2a (in-place)
I0926 19:11:57.967970 13862 net.cpp:124] Setting up res3a_branch2a_relu
I0926 19:11:57.967983 13862 net.cpp:131] Top shape: 8 128 35 62 (2222080)
I0926 19:11:57.967986 13862 net.cpp:139] Memory required for data: 2653232928
I0926 19:11:57.967990 13862 layer_factory.hpp:77] Creating layer res3a_branch2b
I0926 19:11:57.967998 13862 net.cpp:86] Creating Layer res3a_branch2b
I0926 19:11:57.968003 13862 net.cpp:408] res3a_branch2b <- res3a_branch2a
I0926 19:11:57.968013 13862 net.cpp:382] res3a_branch2b -> res3a_branch2b
I0926 19:11:57.969620 13862 net.cpp:124] Setting up res3a_branch2b
I0926 19:11:57.969637 13862 net.cpp:131] Top shape: 8 128 35 62 (2222080)
I0926 19:11:57.969642 13862 net.cpp:139] Memory required for data: 2662121248
I0926 19:11:57.969648 13862 layer_factory.hpp:77] Creating layer bn3a_branch2b
I0926 19:11:57.969666 13862 net.cpp:86] Creating Layer bn3a_branch2b
I0926 19:11:57.969671 13862 net.cpp:408] bn3a_branch2b <- res3a_branch2b
I0926 19:11:57.969678 13862 net.cpp:369] bn3a_branch2b -> res3a_branch2b (in-place)
I0926 19:11:57.969895 13862 net.cpp:124] Setting up bn3a_branch2b
I0926 19:11:57.969903 13862 net.cpp:131] Top shape: 8 128 35 62 (2222080)
I0926 19:11:57.969907 13862 net.cpp:139] Memory required for data: 2671009568
I0926 19:11:57.969914 13862 layer_factory.hpp:77] Creating layer scale3a_branch2b
I0926 19:11:57.969923 13862 net.cpp:86] Creating Layer scale3a_branch2b
I0926 19:11:57.969928 13862 net.cpp:408] scale3a_branch2b <- res3a_branch2b
I0926 19:11:57.969933 13862 net.cpp:369] scale3a_branch2b -> res3a_branch2b (in-place)
I0926 19:11:57.969976 13862 layer_factory.hpp:77] Creating layer scale3a_branch2b
I0926 19:11:57.970095 13862 net.cpp:124] Setting up scale3a_branch2b
I0926 19:11:57.970103 13862 net.cpp:131] Top shape: 8 128 35 62 (2222080)
I0926 19:11:57.970106 13862 net.cpp:139] Memory required for data: 2679897888
I0926 19:11:57.970113 13862 layer_factory.hpp:77] Creating layer res3a_branch2b_relu
I0926 19:11:57.970119 13862 net.cpp:86] Creating Layer res3a_branch2b_relu
I0926 19:11:57.970124 13862 net.cpp:408] res3a_branch2b_relu <- res3a_branch2b
I0926 19:11:57.970132 13862 net.cpp:369] res3a_branch2b_relu -> res3a_branch2b (in-place)
I0926 19:11:57.970346 13862 net.cpp:124] Setting up res3a_branch2b_relu
I0926 19:11:57.970355 13862 net.cpp:131] Top shape: 8 128 35 62 (2222080)
I0926 19:11:57.970360 13862 net.cpp:139] Memory required for data: 2688786208
I0926 19:11:57.970363 13862 layer_factory.hpp:77] Creating layer res3a_branch2c
I0926 19:11:57.970373 13862 net.cpp:86] Creating Layer res3a_branch2c
I0926 19:11:57.970377 13862 net.cpp:408] res3a_branch2c <- res3a_branch2b
I0926 19:11:57.970386 13862 net.cpp:382] res3a_branch2c -> res3a_branch2c
I0926 19:11:57.971638 13862 net.cpp:124] Setting up res3a_branch2c
I0926 19:11:57.971654 13862 net.cpp:131] Top shape: 8 512 35 62 (8888320)
I0926 19:11:57.971658 13862 net.cpp:139] Memory required for data: 2724339488
I0926 19:11:57.971664 13862 layer_factory.hpp:77] Creating layer bn3a_branch2c
I0926 19:11:57.971671 13862 net.cpp:86] Creating Layer bn3a_branch2c
I0926 19:11:57.971676 13862 net.cpp:408] bn3a_branch2c <- res3a_branch2c
I0926 19:11:57.971688 13862 net.cpp:369] bn3a_branch2c -> res3a_branch2c (in-place)
I0926 19:11:57.971905 13862 net.cpp:124] Setting up bn3a_branch2c
I0926 19:11:57.971913 13862 net.cpp:131] Top shape: 8 512 35 62 (8888320)
I0926 19:11:57.971917 13862 net.cpp:139] Memory required for data: 2759892768
I0926 19:11:57.971926 13862 layer_factory.hpp:77] Creating layer scale3a_branch2c
I0926 19:11:57.971935 13862 net.cpp:86] Creating Layer scale3a_branch2c
I0926 19:11:57.971940 13862 net.cpp:408] scale3a_branch2c <- res3a_branch2c
I0926 19:11:57.971946 13862 net.cpp:369] scale3a_branch2c -> res3a_branch2c (in-place)
I0926 19:11:57.971987 13862 layer_factory.hpp:77] Creating layer scale3a_branch2c
I0926 19:11:57.972108 13862 net.cpp:124] Setting up scale3a_branch2c
I0926 19:11:57.972115 13862 net.cpp:131] Top shape: 8 512 35 62 (8888320)
I0926 19:11:57.972120 13862 net.cpp:139] Memory required for data: 2795446048
I0926 19:11:57.972126 13862 layer_factory.hpp:77] Creating layer res3a
I0926 19:11:57.972132 13862 net.cpp:86] Creating Layer res3a
I0926 19:11:57.972136 13862 net.cpp:408] res3a <- res3a_branch1
I0926 19:11:57.972142 13862 net.cpp:408] res3a <- res3a_branch2c
I0926 19:11:57.972149 13862 net.cpp:382] res3a -> res3a
I0926 19:11:57.972177 13862 net.cpp:124] Setting up res3a
I0926 19:11:57.972183 13862 net.cpp:131] Top shape: 8 512 35 62 (8888320)
I0926 19:11:57.972187 13862 net.cpp:139] Memory required for data: 2830999328
I0926 19:11:57.972192 13862 layer_factory.hpp:77] Creating layer res3a_relu
I0926 19:11:57.972196 13862 net.cpp:86] Creating Layer res3a_relu
I0926 19:11:57.972200 13862 net.cpp:408] res3a_relu <- res3a
I0926 19:11:57.972208 13862 net.cpp:369] res3a_relu -> res3a (in-place)
I0926 19:11:57.972757 13862 net.cpp:124] Setting up res3a_relu
I0926 19:11:57.972771 13862 net.cpp:131] Top shape: 8 512 35 62 (8888320)
I0926 19:11:57.972775 13862 net.cpp:139] Memory required for data: 2866552608
I0926 19:11:57.972780 13862 layer_factory.hpp:77] Creating layer res3a_res3a_relu_0_split
I0926 19:11:57.972789 13862 net.cpp:86] Creating Layer res3a_res3a_relu_0_split
I0926 19:11:57.972793 13862 net.cpp:408] res3a_res3a_relu_0_split <- res3a
I0926 19:11:57.972800 13862 net.cpp:382] res3a_res3a_relu_0_split -> res3a_res3a_relu_0_split_0
I0926 19:11:57.972807 13862 net.cpp:382] res3a_res3a_relu_0_split -> res3a_res3a_relu_0_split_1
I0926 19:11:57.972856 13862 net.cpp:124] Setting up res3a_res3a_relu_0_split
I0926 19:11:57.972863 13862 net.cpp:131] Top shape: 8 512 35 62 (8888320)
I0926 19:11:57.972867 13862 net.cpp:131] Top shape: 8 512 35 62 (8888320)
I0926 19:11:57.972872 13862 net.cpp:139] Memory required for data: 2937659168
I0926 19:11:57.972877 13862 layer_factory.hpp:77] Creating layer res3b1_branch2a
I0926 19:11:57.972887 13862 net.cpp:86] Creating Layer res3b1_branch2a
I0926 19:11:57.972892 13862 net.cpp:408] res3b1_branch2a <- res3a_res3a_relu_0_split_0
I0926 19:11:57.972899 13862 net.cpp:382] res3b1_branch2a -> res3b1_branch2a
I0926 19:11:57.974481 13862 net.cpp:124] Setting up res3b1_branch2a
I0926 19:11:57.974496 13862 net.cpp:131] Top shape: 8 128 35 62 (2222080)
I0926 19:11:57.974500 13862 net.cpp:139] Memory required for data: 2946547488
I0926 19:11:57.974508 13862 layer_factory.hpp:77] Creating layer bn3b1_branch2a
I0926 19:11:57.974516 13862 net.cpp:86] Creating Layer bn3b1_branch2a
I0926 19:11:57.974521 13862 net.cpp:408] bn3b1_branch2a <- res3b1_branch2a
I0926 19:11:57.974529 13862 net.cpp:369] bn3b1_branch2a -> res3b1_branch2a (in-place)
I0926 19:11:57.974743 13862 net.cpp:124] Setting up bn3b1_branch2a
I0926 19:11:57.974750 13862 net.cpp:131] Top shape: 8 128 35 62 (2222080)
I0926 19:11:57.974755 13862 net.cpp:139] Memory required for data: 2955435808
I0926 19:11:57.974761 13862 layer_factory.hpp:77] Creating layer scale3b1_branch2a
I0926 19:11:57.974771 13862 net.cpp:86] Creating Layer scale3b1_branch2a
I0926 19:11:57.974774 13862 net.cpp:408] scale3b1_branch2a <- res3b1_branch2a
I0926 19:11:57.974779 13862 net.cpp:369] scale3b1_branch2a -> res3b1_branch2a (in-place)
I0926 19:11:57.974831 13862 layer_factory.hpp:77] Creating layer scale3b1_branch2a
I0926 19:11:57.974963 13862 net.cpp:124] Setting up scale3b1_branch2a
I0926 19:11:57.974970 13862 net.cpp:131] Top shape: 8 128 35 62 (2222080)
I0926 19:11:57.974974 13862 net.cpp:139] Memory required for data: 2964324128
I0926 19:11:57.974979 13862 layer_factory.hpp:77] Creating layer res3b1_branch2a_relu
I0926 19:11:57.974988 13862 net.cpp:86] Creating Layer res3b1_branch2a_relu
I0926 19:11:57.974992 13862 net.cpp:408] res3b1_branch2a_relu <- res3b1_branch2a
I0926 19:11:57.974999 13862 net.cpp:369] res3b1_branch2a_relu -> res3b1_branch2a (in-place)
I0926 19:11:57.975199 13862 net.cpp:124] Setting up res3b1_branch2a_relu
I0926 19:11:57.975209 13862 net.cpp:131] Top shape: 8 128 35 62 (2222080)
I0926 19:11:57.975214 13862 net.cpp:139] Memory required for data: 2973212448
I0926 19:11:57.975217 13862 layer_factory.hpp:77] Creating layer res3b1_branch2b
I0926 19:11:57.975226 13862 net.cpp:86] Creating Layer res3b1_branch2b
I0926 19:11:57.975234 13862 net.cpp:408] res3b1_branch2b <- res3b1_branch2a
I0926 19:11:57.975240 13862 net.cpp:382] res3b1_branch2b -> res3b1_branch2b
I0926 19:11:57.976827 13862 net.cpp:124] Setting up res3b1_branch2b
I0926 19:11:57.976843 13862 net.cpp:131] Top shape: 8 128 35 62 (2222080)
I0926 19:11:57.976848 13862 net.cpp:139] Memory required for data: 2982100768
I0926 19:11:57.976853 13862 layer_factory.hpp:77] Creating layer bn3b1_branch2b
I0926 19:11:57.976861 13862 net.cpp:86] Creating Layer bn3b1_branch2b
I0926 19:11:57.976866 13862 net.cpp:408] bn3b1_branch2b <- res3b1_branch2b
I0926 19:11:57.976873 13862 net.cpp:369] bn3b1_branch2b -> res3b1_branch2b (in-place)
I0926 19:11:57.977087 13862 net.cpp:124] Setting up bn3b1_branch2b
I0926 19:11:57.977095 13862 net.cpp:131] Top shape: 8 128 35 62 (2222080)
I0926 19:11:57.977099 13862 net.cpp:139] Memory required for data: 2990989088
I0926 19:11:57.977107 13862 layer_factory.hpp:77] Creating layer scale3b1_branch2b
I0926 19:11:57.977116 13862 net.cpp:86] Creating Layer scale3b1_branch2b
I0926 19:11:57.977120 13862 net.cpp:408] scale3b1_branch2b <- res3b1_branch2b
I0926 19:11:57.977125 13862 net.cpp:369] scale3b1_branch2b -> res3b1_branch2b (in-place)
I0926 19:11:57.977172 13862 layer_factory.hpp:77] Creating layer scale3b1_branch2b
I0926 19:11:57.977293 13862 net.cpp:124] Setting up scale3b1_branch2b
I0926 19:11:57.977300 13862 net.cpp:131] Top shape: 8 128 35 62 (2222080)
I0926 19:11:57.977303 13862 net.cpp:139] Memory required for data: 2999877408
I0926 19:11:57.977311 13862 layer_factory.hpp:77] Creating layer res3b1_branch2b_relu
I0926 19:11:57.977319 13862 net.cpp:86] Creating Layer res3b1_branch2b_relu
I0926 19:11:57.977324 13862 net.cpp:408] res3b1_branch2b_relu <- res3b1_branch2b
I0926 19:11:57.977327 13862 net.cpp:369] res3b1_branch2b_relu -> res3b1_branch2b (in-place)
I0926 19:11:57.977533 13862 net.cpp:124] Setting up res3b1_branch2b_relu
I0926 19:11:57.977542 13862 net.cpp:131] Top shape: 8 128 35 62 (2222080)
I0926 19:11:57.977546 13862 net.cpp:139] Memory required for data: 3008765728
I0926 19:11:57.977550 13862 layer_factory.hpp:77] Creating layer res3b1_branch2c
I0926 19:11:57.977560 13862 net.cpp:86] Creating Layer res3b1_branch2c
I0926 19:11:57.977564 13862 net.cpp:408] res3b1_branch2c <- res3b1_branch2b
I0926 19:11:57.977571 13862 net.cpp:382] res3b1_branch2c -> res3b1_branch2c
I0926 19:11:57.978794 13862 net.cpp:124] Setting up res3b1_branch2c
I0926 19:11:57.978812 13862 net.cpp:131] Top shape: 8 512 35 62 (8888320)
I0926 19:11:57.978816 13862 net.cpp:139] Memory required for data: 3044319008
I0926 19:11:57.978822 13862 layer_factory.hpp:77] Creating layer bn3b1_branch2c
I0926 19:11:57.978829 13862 net.cpp:86] Creating Layer bn3b1_branch2c
I0926 19:11:57.978834 13862 net.cpp:408] bn3b1_branch2c <- res3b1_branch2c
I0926 19:11:57.978842 13862 net.cpp:369] bn3b1_branch2c -> res3b1_branch2c (in-place)
I0926 19:11:57.979056 13862 net.cpp:124] Setting up bn3b1_branch2c
I0926 19:11:57.979064 13862 net.cpp:131] Top shape: 8 512 35 62 (8888320)
I0926 19:11:57.979068 13862 net.cpp:139] Memory required for data: 3079872288
I0926 19:11:57.979081 13862 layer_factory.hpp:77] Creating layer scale3b1_branch2c
I0926 19:11:57.979094 13862 net.cpp:86] Creating Layer scale3b1_branch2c
I0926 19:11:57.979099 13862 net.cpp:408] scale3b1_branch2c <- res3b1_branch2c
I0926 19:11:57.979106 13862 net.cpp:369] scale3b1_branch2c -> res3b1_branch2c (in-place)
I0926 19:11:57.979146 13862 layer_factory.hpp:77] Creating layer scale3b1_branch2c
I0926 19:11:57.979274 13862 net.cpp:124] Setting up scale3b1_branch2c
I0926 19:11:57.979281 13862 net.cpp:131] Top shape: 8 512 35 62 (8888320)
I0926 19:11:57.979285 13862 net.cpp:139] Memory required for data: 3115425568
I0926 19:11:57.979292 13862 layer_factory.hpp:77] Creating layer res3b1
I0926 19:11:57.979300 13862 net.cpp:86] Creating Layer res3b1
I0926 19:11:57.979303 13862 net.cpp:408] res3b1 <- res3a_res3a_relu_0_split_1
I0926 19:11:57.979308 13862 net.cpp:408] res3b1 <- res3b1_branch2c
I0926 19:11:57.979315 13862 net.cpp:382] res3b1 -> res3b1
I0926 19:11:57.979343 13862 net.cpp:124] Setting up res3b1
I0926 19:11:57.979351 13862 net.cpp:131] Top shape: 8 512 35 62 (8888320)
I0926 19:11:57.979354 13862 net.cpp:139] Memory required for data: 3150978848
I0926 19:11:57.979357 13862 layer_factory.hpp:77] Creating layer res3b1_relu
I0926 19:11:57.979365 13862 net.cpp:86] Creating Layer res3b1_relu
I0926 19:11:57.979369 13862 net.cpp:408] res3b1_relu <- res3b1
I0926 19:11:57.979374 13862 net.cpp:369] res3b1_relu -> res3b1 (in-place)
I0926 19:11:57.979923 13862 net.cpp:124] Setting up res3b1_relu
I0926 19:11:57.979940 13862 net.cpp:131] Top shape: 8 512 35 62 (8888320)
I0926 19:11:57.979944 13862 net.cpp:139] Memory required for data: 3186532128
I0926 19:11:57.979948 13862 layer_factory.hpp:77] Creating layer res3b1_res3b1_relu_0_split
I0926 19:11:57.979955 13862 net.cpp:86] Creating Layer res3b1_res3b1_relu_0_split
I0926 19:11:57.979959 13862 net.cpp:408] res3b1_res3b1_relu_0_split <- res3b1
I0926 19:11:57.979967 13862 net.cpp:382] res3b1_res3b1_relu_0_split -> res3b1_res3b1_relu_0_split_0
I0926 19:11:57.979976 13862 net.cpp:382] res3b1_res3b1_relu_0_split -> res3b1_res3b1_relu_0_split_1
I0926 19:11:57.980022 13862 net.cpp:124] Setting up res3b1_res3b1_relu_0_split
I0926 19:11:57.980031 13862 net.cpp:131] Top shape: 8 512 35 62 (8888320)
I0926 19:11:57.980036 13862 net.cpp:131] Top shape: 8 512 35 62 (8888320)
I0926 19:11:57.980039 13862 net.cpp:139] Memory required for data: 3257638688
I0926 19:11:57.980046 13862 layer_factory.hpp:77] Creating layer res3b2_branch2a
I0926 19:11:57.980053 13862 net.cpp:86] Creating Layer res3b2_branch2a
I0926 19:11:57.980057 13862 net.cpp:408] res3b2_branch2a <- res3b1_res3b1_relu_0_split_0
I0926 19:11:57.980067 13862 net.cpp:382] res3b2_branch2a -> res3b2_branch2a
I0926 19:11:57.981282 13862 net.cpp:124] Setting up res3b2_branch2a
I0926 19:11:57.981297 13862 net.cpp:131] Top shape: 8 128 35 62 (2222080)
I0926 19:11:57.981300 13862 net.cpp:139] Memory required for data: 3266527008
I0926 19:11:57.981307 13862 layer_factory.hpp:77] Creating layer bn3b2_branch2a
I0926 19:11:57.981314 13862 net.cpp:86] Creating Layer bn3b2_branch2a
I0926 19:11:57.981318 13862 net.cpp:408] bn3b2_branch2a <- res3b2_branch2a
I0926 19:11:57.981326 13862 net.cpp:369] bn3b2_branch2a -> res3b2_branch2a (in-place)
I0926 19:11:57.981541 13862 net.cpp:124] Setting up bn3b2_branch2a
I0926 19:11:57.981549 13862 net.cpp:131] Top shape: 8 128 35 62 (2222080)
I0926 19:11:57.981552 13862 net.cpp:139] Memory required for data: 3275415328
I0926 19:11:57.981559 13862 layer_factory.hpp:77] Creating layer scale3b2_branch2a
I0926 19:11:57.981568 13862 net.cpp:86] Creating Layer scale3b2_branch2a
I0926 19:11:57.981572 13862 net.cpp:408] scale3b2_branch2a <- res3b2_branch2a
I0926 19:11:57.981578 13862 net.cpp:369] scale3b2_branch2a -> res3b2_branch2a (in-place)
I0926 19:11:57.981622 13862 layer_factory.hpp:77] Creating layer scale3b2_branch2a
I0926 19:11:57.981741 13862 net.cpp:124] Setting up scale3b2_branch2a
I0926 19:11:57.981750 13862 net.cpp:131] Top shape: 8 128 35 62 (2222080)
I0926 19:11:57.981758 13862 net.cpp:139] Memory required for data: 3284303648
I0926 19:11:57.981770 13862 layer_factory.hpp:77] Creating layer res3b2_branch2a_relu
I0926 19:11:57.981781 13862 net.cpp:86] Creating Layer res3b2_branch2a_relu
I0926 19:11:57.981786 13862 net.cpp:408] res3b2_branch2a_relu <- res3b2_branch2a
I0926 19:11:57.981791 13862 net.cpp:369] res3b2_branch2a_relu -> res3b2_branch2a (in-place)
I0926 19:11:57.981992 13862 net.cpp:124] Setting up res3b2_branch2a_relu
I0926 19:11:57.982002 13862 net.cpp:131] Top shape: 8 128 35 62 (2222080)
I0926 19:11:57.982005 13862 net.cpp:139] Memory required for data: 3293191968
I0926 19:11:57.982009 13862 layer_factory.hpp:77] Creating layer res3b2_branch2b
I0926 19:11:57.982018 13862 net.cpp:86] Creating Layer res3b2_branch2b
I0926 19:11:57.982023 13862 net.cpp:408] res3b2_branch2b <- res3b2_branch2a
I0926 19:11:57.982029 13862 net.cpp:382] res3b2_branch2b -> res3b2_branch2b
I0926 19:11:57.984841 13862 net.cpp:124] Setting up res3b2_branch2b
I0926 19:11:57.984858 13862 net.cpp:131] Top shape: 8 128 35 62 (2222080)
I0926 19:11:57.984863 13862 net.cpp:139] Memory required for data: 3302080288
I0926 19:11:57.984867 13862 layer_factory.hpp:77] Creating layer bn3b2_branch2b
I0926 19:11:57.984877 13862 net.cpp:86] Creating Layer bn3b2_branch2b
I0926 19:11:57.984881 13862 net.cpp:408] bn3b2_branch2b <- res3b2_branch2b
I0926 19:11:57.984889 13862 net.cpp:369] bn3b2_branch2b -> res3b2_branch2b (in-place)
I0926 19:11:57.985110 13862 net.cpp:124] Setting up bn3b2_branch2b
I0926 19:11:57.985118 13862 net.cpp:131] Top shape: 8 128 35 62 (2222080)
I0926 19:11:57.985121 13862 net.cpp:139] Memory required for data: 3310968608
I0926 19:11:57.985129 13862 layer_factory.hpp:77] Creating layer scale3b2_branch2b
I0926 19:11:57.985137 13862 net.cpp:86] Creating Layer scale3b2_branch2b
I0926 19:11:57.985141 13862 net.cpp:408] scale3b2_branch2b <- res3b2_branch2b
I0926 19:11:57.985146 13862 net.cpp:369] scale3b2_branch2b -> res3b2_branch2b (in-place)
I0926 19:11:57.985193 13862 layer_factory.hpp:77] Creating layer scale3b2_branch2b
I0926 19:11:57.985318 13862 net.cpp:124] Setting up scale3b2_branch2b
I0926 19:11:57.985325 13862 net.cpp:131] Top shape: 8 128 35 62 (2222080)
I0926 19:11:57.985329 13862 net.cpp:139] Memory required for data: 3319856928
I0926 19:11:57.985337 13862 layer_factory.hpp:77] Creating layer res3b2_branch2b_relu
I0926 19:11:57.985343 13862 net.cpp:86] Creating Layer res3b2_branch2b_relu
I0926 19:11:57.985347 13862 net.cpp:408] res3b2_branch2b_relu <- res3b2_branch2b
I0926 19:11:57.985353 13862 net.cpp:369] res3b2_branch2b_relu -> res3b2_branch2b (in-place)
I0926 19:11:57.985563 13862 net.cpp:124] Setting up res3b2_branch2b_relu
I0926 19:11:57.985574 13862 net.cpp:131] Top shape: 8 128 35 62 (2222080)
I0926 19:11:57.985576 13862 net.cpp:139] Memory required for data: 3328745248
I0926 19:11:57.985580 13862 layer_factory.hpp:77] Creating layer res3b2_branch2c
I0926 19:11:57.985590 13862 net.cpp:86] Creating Layer res3b2_branch2c
I0926 19:11:57.985595 13862 net.cpp:408] res3b2_branch2c <- res3b2_branch2b
I0926 19:11:57.985602 13862 net.cpp:382] res3b2_branch2c -> res3b2_branch2c
I0926 19:11:57.988065 13862 net.cpp:124] Setting up res3b2_branch2c
I0926 19:11:57.988085 13862 net.cpp:131] Top shape: 8 512 35 62 (8888320)
I0926 19:11:57.988090 13862 net.cpp:139] Memory required for data: 3364298528
I0926 19:11:57.988112 13862 layer_factory.hpp:77] Creating layer bn3b2_branch2c
I0926 19:11:57.988121 13862 net.cpp:86] Creating Layer bn3b2_branch2c
I0926 19:11:57.988126 13862 net.cpp:408] bn3b2_branch2c <- res3b2_branch2c
I0926 19:11:57.988137 13862 net.cpp:369] bn3b2_branch2c -> res3b2_branch2c (in-place)
I0926 19:11:57.988381 13862 net.cpp:124] Setting up bn3b2_branch2c
I0926 19:11:57.988390 13862 net.cpp:131] Top shape: 8 512 35 62 (8888320)
I0926 19:11:57.988394 13862 net.cpp:139] Memory required for data: 3399851808
I0926 19:11:57.988402 13862 layer_factory.hpp:77] Creating layer scale3b2_branch2c
I0926 19:11:57.988415 13862 net.cpp:86] Creating Layer scale3b2_branch2c
I0926 19:11:57.988425 13862 net.cpp:408] scale3b2_branch2c <- res3b2_branch2c
I0926 19:11:57.988438 13862 net.cpp:369] scale3b2_branch2c -> res3b2_branch2c (in-place)
I0926 19:11:57.988499 13862 layer_factory.hpp:77] Creating layer scale3b2_branch2c
I0926 19:11:57.988664 13862 net.cpp:124] Setting up scale3b2_branch2c
I0926 19:11:57.988672 13862 net.cpp:131] Top shape: 8 512 35 62 (8888320)
I0926 19:11:57.988677 13862 net.cpp:139] Memory required for data: 3435405088
I0926 19:11:57.988682 13862 layer_factory.hpp:77] Creating layer res3b2
I0926 19:11:57.988689 13862 net.cpp:86] Creating Layer res3b2
I0926 19:11:57.988693 13862 net.cpp:408] res3b2 <- res3b1_res3b1_relu_0_split_1
I0926 19:11:57.988699 13862 net.cpp:408] res3b2 <- res3b2_branch2c
I0926 19:11:57.988704 13862 net.cpp:382] res3b2 -> res3b2
I0926 19:11:57.988734 13862 net.cpp:124] Setting up res3b2
I0926 19:11:57.988740 13862 net.cpp:131] Top shape: 8 512 35 62 (8888320)
I0926 19:11:57.988745 13862 net.cpp:139] Memory required for data: 3470958368
I0926 19:11:57.988749 13862 layer_factory.hpp:77] Creating layer res3b2_relu
I0926 19:11:57.988754 13862 net.cpp:86] Creating Layer res3b2_relu
I0926 19:11:57.988757 13862 net.cpp:408] res3b2_relu <- res3b2
I0926 19:11:57.988765 13862 net.cpp:369] res3b2_relu -> res3b2 (in-place)
I0926 19:11:57.988966 13862 net.cpp:124] Setting up res3b2_relu
I0926 19:11:57.988976 13862 net.cpp:131] Top shape: 8 512 35 62 (8888320)
I0926 19:11:57.988979 13862 net.cpp:139] Memory required for data: 3506511648
I0926 19:11:57.988984 13862 layer_factory.hpp:77] Creating layer res3b2_res3b2_relu_0_split
I0926 19:11:57.988991 13862 net.cpp:86] Creating Layer res3b2_res3b2_relu_0_split
I0926 19:11:57.988996 13862 net.cpp:408] res3b2_res3b2_relu_0_split <- res3b2
I0926 19:11:57.989001 13862 net.cpp:382] res3b2_res3b2_relu_0_split -> res3b2_res3b2_relu_0_split_0
I0926 19:11:57.989012 13862 net.cpp:382] res3b2_res3b2_relu_0_split -> res3b2_res3b2_relu_0_split_1
I0926 19:11:57.989058 13862 net.cpp:124] Setting up res3b2_res3b2_relu_0_split
I0926 19:11:57.989066 13862 net.cpp:131] Top shape: 8 512 35 62 (8888320)
I0926 19:11:57.989071 13862 net.cpp:131] Top shape: 8 512 35 62 (8888320)
I0926 19:11:57.989075 13862 net.cpp:139] Memory required for data: 3577618208
I0926 19:11:57.989080 13862 layer_factory.hpp:77] Creating layer res3b3_branch2a
I0926 19:11:57.989089 13862 net.cpp:86] Creating Layer res3b3_branch2a
I0926 19:11:57.989092 13862 net.cpp:408] res3b3_branch2a <- res3b2_res3b2_relu_0_split_0
I0926 19:11:57.989100 13862 net.cpp:382] res3b3_branch2a -> res3b3_branch2a
I0926 19:11:57.990329 13862 net.cpp:124] Setting up res3b3_branch2a
I0926 19:11:57.990342 13862 net.cpp:131] Top shape: 8 128 35 62 (2222080)
I0926 19:11:57.990346 13862 net.cpp:139] Memory required for data: 3586506528
I0926 19:11:57.990352 13862 layer_factory.hpp:77] Creating layer bn3b3_branch2a
I0926 19:11:57.990362 13862 net.cpp:86] Creating Layer bn3b3_branch2a
I0926 19:11:57.990366 13862 net.cpp:408] bn3b3_branch2a <- res3b3_branch2a
I0926 19:11:57.990373 13862 net.cpp:369] bn3b3_branch2a -> res3b3_branch2a (in-place)
I0926 19:11:57.990603 13862 net.cpp:124] Setting up bn3b3_branch2a
I0926 19:11:57.990612 13862 net.cpp:131] Top shape: 8 128 35 62 (2222080)
I0926 19:11:57.990615 13862 net.cpp:139] Memory required for data: 3595394848
I0926 19:11:57.990636 13862 layer_factory.hpp:77] Creating layer scale3b3_branch2a
I0926 19:11:57.990648 13862 net.cpp:86] Creating Layer scale3b3_branch2a
I0926 19:11:57.990651 13862 net.cpp:408] scale3b3_branch2a <- res3b3_branch2a
I0926 19:11:57.990656 13862 net.cpp:369] scale3b3_branch2a -> res3b3_branch2a (in-place)
I0926 19:11:57.990705 13862 layer_factory.hpp:77] Creating layer scale3b3_branch2a
I0926 19:11:57.990826 13862 net.cpp:124] Setting up scale3b3_branch2a
I0926 19:11:57.990835 13862 net.cpp:131] Top shape: 8 128 35 62 (2222080)
I0926 19:11:57.990839 13862 net.cpp:139] Memory required for data: 3604283168
I0926 19:11:57.990844 13862 layer_factory.hpp:77] Creating layer res3b3_branch2a_relu
I0926 19:11:57.990851 13862 net.cpp:86] Creating Layer res3b3_branch2a_relu
I0926 19:11:57.990859 13862 net.cpp:408] res3b3_branch2a_relu <- res3b3_branch2a
I0926 19:11:57.990872 13862 net.cpp:369] res3b3_branch2a_relu -> res3b3_branch2a (in-place)
I0926 19:11:57.991428 13862 net.cpp:124] Setting up res3b3_branch2a_relu
I0926 19:11:57.991444 13862 net.cpp:131] Top shape: 8 128 35 62 (2222080)
I0926 19:11:57.991448 13862 net.cpp:139] Memory required for data: 3613171488
I0926 19:11:57.991454 13862 layer_factory.hpp:77] Creating layer res3b3_branch2b
I0926 19:11:57.991467 13862 net.cpp:86] Creating Layer res3b3_branch2b
I0926 19:11:57.991472 13862 net.cpp:408] res3b3_branch2b <- res3b3_branch2a
I0926 19:11:57.991479 13862 net.cpp:382] res3b3_branch2b -> res3b3_branch2b
I0926 19:11:57.993089 13862 net.cpp:124] Setting up res3b3_branch2b
I0926 19:11:57.993113 13862 net.cpp:131] Top shape: 8 128 35 62 (2222080)
I0926 19:11:57.993119 13862 net.cpp:139] Memory required for data: 3622059808
I0926 19:11:57.993124 13862 layer_factory.hpp:77] Creating layer bn3b3_branch2b
I0926 19:11:57.993134 13862 net.cpp:86] Creating Layer bn3b3_branch2b
I0926 19:11:57.993139 13862 net.cpp:408] bn3b3_branch2b <- res3b3_branch2b
I0926 19:11:57.993144 13862 net.cpp:369] bn3b3_branch2b -> res3b3_branch2b (in-place)
I0926 19:11:57.993369 13862 net.cpp:124] Setting up bn3b3_branch2b
I0926 19:11:57.993377 13862 net.cpp:131] Top shape: 8 128 35 62 (2222080)
I0926 19:11:57.993381 13862 net.cpp:139] Memory required for data: 3630948128
I0926 19:11:57.993388 13862 layer_factory.hpp:77] Creating layer scale3b3_branch2b
I0926 19:11:57.993394 13862 net.cpp:86] Creating Layer scale3b3_branch2b
I0926 19:11:57.993398 13862 net.cpp:408] scale3b3_branch2b <- res3b3_branch2b
I0926 19:11:57.993404 13862 net.cpp:369] scale3b3_branch2b -> res3b3_branch2b (in-place)
I0926 19:11:57.993453 13862 layer_factory.hpp:77] Creating layer scale3b3_branch2b
I0926 19:11:57.993578 13862 net.cpp:124] Setting up scale3b3_branch2b
I0926 19:11:57.993585 13862 net.cpp:131] Top shape: 8 128 35 62 (2222080)
I0926 19:11:57.993589 13862 net.cpp:139] Memory required for data: 3639836448
I0926 19:11:57.993597 13862 layer_factory.hpp:77] Creating layer res3b3_branch2b_relu
I0926 19:11:57.993603 13862 net.cpp:86] Creating Layer res3b3_branch2b_relu
I0926 19:11:57.993607 13862 net.cpp:408] res3b3_branch2b_relu <- res3b3_branch2b
I0926 19:11:57.993613 13862 net.cpp:369] res3b3_branch2b_relu -> res3b3_branch2b (in-place)
I0926 19:11:57.993824 13862 net.cpp:124] Setting up res3b3_branch2b_relu
I0926 19:11:57.993834 13862 net.cpp:131] Top shape: 8 128 35 62 (2222080)
I0926 19:11:57.993839 13862 net.cpp:139] Memory required for data: 3648724768
I0926 19:11:57.993841 13862 layer_factory.hpp:77] Creating layer res3b3_branch2c
I0926 19:11:57.993854 13862 net.cpp:86] Creating Layer res3b3_branch2c
I0926 19:11:57.993858 13862 net.cpp:408] res3b3_branch2c <- res3b3_branch2b
I0926 19:11:57.993865 13862 net.cpp:382] res3b3_branch2c -> res3b3_branch2c
I0926 19:11:57.995138 13862 net.cpp:124] Setting up res3b3_branch2c
I0926 19:11:57.995154 13862 net.cpp:131] Top shape: 8 512 35 62 (8888320)
I0926 19:11:57.995158 13862 net.cpp:139] Memory required for data: 3684278048
I0926 19:11:57.995163 13862 layer_factory.hpp:77] Creating layer bn3b3_branch2c
I0926 19:11:57.995173 13862 net.cpp:86] Creating Layer bn3b3_branch2c
I0926 19:11:57.995178 13862 net.cpp:408] bn3b3_branch2c <- res3b3_branch2c
I0926 19:11:57.995184 13862 net.cpp:369] bn3b3_branch2c -> res3b3_branch2c (in-place)
I0926 19:11:57.995401 13862 net.cpp:124] Setting up bn3b3_branch2c
I0926 19:11:57.995409 13862 net.cpp:131] Top shape: 8 512 35 62 (8888320)
I0926 19:11:57.995414 13862 net.cpp:139] Memory required for data: 3719831328
I0926 19:11:57.995420 13862 layer_factory.hpp:77] Creating layer scale3b3_branch2c
I0926 19:11:57.995429 13862 net.cpp:86] Creating Layer scale3b3_branch2c
I0926 19:11:57.995432 13862 net.cpp:408] scale3b3_branch2c <- res3b3_branch2c
I0926 19:11:57.995440 13862 net.cpp:369] scale3b3_branch2c -> res3b3_branch2c (in-place)
I0926 19:11:57.995479 13862 layer_factory.hpp:77] Creating layer scale3b3_branch2c
I0926 19:11:57.995615 13862 net.cpp:124] Setting up scale3b3_branch2c
I0926 19:11:57.995631 13862 net.cpp:131] Top shape: 8 512 35 62 (8888320)
I0926 19:11:57.995635 13862 net.cpp:139] Memory required for data: 3755384608
I0926 19:11:57.995641 13862 layer_factory.hpp:77] Creating layer res3b3
I0926 19:11:57.995647 13862 net.cpp:86] Creating Layer res3b3
I0926 19:11:57.995651 13862 net.cpp:408] res3b3 <- res3b2_res3b2_relu_0_split_1
I0926 19:11:57.995656 13862 net.cpp:408] res3b3 <- res3b3_branch2c
I0926 19:11:57.995664 13862 net.cpp:382] res3b3 -> res3b3
I0926 19:11:57.995692 13862 net.cpp:124] Setting up res3b3
I0926 19:11:57.995700 13862 net.cpp:131] Top shape: 8 512 35 62 (8888320)
I0926 19:11:57.995705 13862 net.cpp:139] Memory required for data: 3790937888
I0926 19:11:57.995709 13862 layer_factory.hpp:77] Creating layer res3b3_relu
I0926 19:11:57.995714 13862 net.cpp:86] Creating Layer res3b3_relu
I0926 19:11:57.995718 13862 net.cpp:408] res3b3_relu <- res3b3
I0926 19:11:57.995723 13862 net.cpp:369] res3b3_relu -> res3b3 (in-place)
I0926 19:11:57.995934 13862 net.cpp:124] Setting up res3b3_relu
I0926 19:11:57.995944 13862 net.cpp:131] Top shape: 8 512 35 62 (8888320)
I0926 19:11:57.995946 13862 net.cpp:139] Memory required for data: 3826491168
I0926 19:11:57.995951 13862 layer_factory.hpp:77] Creating layer res3b3_res3b3_relu_0_split
I0926 19:11:57.995957 13862 net.cpp:86] Creating Layer res3b3_res3b3_relu_0_split
I0926 19:11:57.995960 13862 net.cpp:408] res3b3_res3b3_relu_0_split <- res3b3
I0926 19:11:57.995968 13862 net.cpp:382] res3b3_res3b3_relu_0_split -> res3b3_res3b3_relu_0_split_0
I0926 19:11:57.995976 13862 net.cpp:382] res3b3_res3b3_relu_0_split -> res3b3_res3b3_relu_0_split_1
I0926 19:11:57.996023 13862 net.cpp:124] Setting up res3b3_res3b3_relu_0_split
I0926 19:11:57.996031 13862 net.cpp:131] Top shape: 8 512 35 62 (8888320)
I0926 19:11:57.996035 13862 net.cpp:131] Top shape: 8 512 35 62 (8888320)
I0926 19:11:57.996039 13862 net.cpp:139] Memory required for data: 3897597728
I0926 19:11:57.996044 13862 layer_factory.hpp:77] Creating layer res4a_branch1
I0926 19:11:57.996054 13862 net.cpp:86] Creating Layer res4a_branch1
I0926 19:11:57.996058 13862 net.cpp:408] res4a_branch1 <- res3b3_res3b3_relu_0_split_0
I0926 19:11:57.996064 13862 net.cpp:382] res4a_branch1 -> res4a_branch1
I0926 19:11:57.999081 13862 net.cpp:124] Setting up res4a_branch1
I0926 19:11:57.999097 13862 net.cpp:131] Top shape: 8 1024 18 31 (4571136)
I0926 19:11:57.999101 13862 net.cpp:139] Memory required for data: 3915882272
I0926 19:11:57.999109 13862 layer_factory.hpp:77] Creating layer bn4a_branch1
I0926 19:11:57.999117 13862 net.cpp:86] Creating Layer bn4a_branch1
I0926 19:11:57.999122 13862 net.cpp:408] bn4a_branch1 <- res4a_branch1
I0926 19:11:57.999128 13862 net.cpp:369] bn4a_branch1 -> res4a_branch1 (in-place)
I0926 19:11:57.999347 13862 net.cpp:124] Setting up bn4a_branch1
I0926 19:11:57.999356 13862 net.cpp:131] Top shape: 8 1024 18 31 (4571136)
I0926 19:11:57.999358 13862 net.cpp:139] Memory required for data: 3934166816
I0926 19:11:57.999366 13862 layer_factory.hpp:77] Creating layer scale4a_branch1
I0926 19:11:57.999373 13862 net.cpp:86] Creating Layer scale4a_branch1
I0926 19:11:57.999377 13862 net.cpp:408] scale4a_branch1 <- res4a_branch1
I0926 19:11:57.999383 13862 net.cpp:369] scale4a_branch1 -> res4a_branch1 (in-place)
I0926 19:11:57.999428 13862 layer_factory.hpp:77] Creating layer scale4a_branch1
I0926 19:11:57.999548 13862 net.cpp:124] Setting up scale4a_branch1
I0926 19:11:57.999558 13862 net.cpp:131] Top shape: 8 1024 18 31 (4571136)
I0926 19:11:57.999562 13862 net.cpp:139] Memory required for data: 3952451360
I0926 19:11:57.999569 13862 layer_factory.hpp:77] Creating layer res4a_branch2a
I0926 19:11:57.999578 13862 net.cpp:86] Creating Layer res4a_branch2a
I0926 19:11:57.999583 13862 net.cpp:408] res4a_branch2a <- res3b3_res3b3_relu_0_split_1
I0926 19:11:57.999591 13862 net.cpp:382] res4a_branch2a -> res4a_branch2a
I0926 19:11:58.000875 13862 net.cpp:124] Setting up res4a_branch2a
I0926 19:11:58.000897 13862 net.cpp:131] Top shape: 8 256 18 31 (1142784)
I0926 19:11:58.000908 13862 net.cpp:139] Memory required for data: 3957022496
I0926 19:11:58.000914 13862 layer_factory.hpp:77] Creating layer bn4a_branch2a
I0926 19:11:58.000921 13862 net.cpp:86] Creating Layer bn4a_branch2a
I0926 19:11:58.000926 13862 net.cpp:408] bn4a_branch2a <- res4a_branch2a
I0926 19:11:58.000934 13862 net.cpp:369] bn4a_branch2a -> res4a_branch2a (in-place)
I0926 19:11:58.001155 13862 net.cpp:124] Setting up bn4a_branch2a
I0926 19:11:58.001163 13862 net.cpp:131] Top shape: 8 256 18 31 (1142784)
I0926 19:11:58.001168 13862 net.cpp:139] Memory required for data: 3961593632
I0926 19:11:58.001174 13862 layer_factory.hpp:77] Creating layer scale4a_branch2a
I0926 19:11:58.001183 13862 net.cpp:86] Creating Layer scale4a_branch2a
I0926 19:11:58.001186 13862 net.cpp:408] scale4a_branch2a <- res4a_branch2a
I0926 19:11:58.001191 13862 net.cpp:369] scale4a_branch2a -> res4a_branch2a (in-place)
I0926 19:11:58.001238 13862 layer_factory.hpp:77] Creating layer scale4a_branch2a
I0926 19:11:58.001365 13862 net.cpp:124] Setting up scale4a_branch2a
I0926 19:11:58.001374 13862 net.cpp:131] Top shape: 8 256 18 31 (1142784)
I0926 19:11:58.001377 13862 net.cpp:139] Memory required for data: 3966164768
I0926 19:11:58.001382 13862 layer_factory.hpp:77] Creating layer res4a_branch2a_relu
I0926 19:11:58.001390 13862 net.cpp:86] Creating Layer res4a_branch2a_relu
I0926 19:11:58.001395 13862 net.cpp:408] res4a_branch2a_relu <- res4a_branch2a
I0926 19:11:58.001400 13862 net.cpp:369] res4a_branch2a_relu -> res4a_branch2a (in-place)
I0926 19:11:58.001957 13862 net.cpp:124] Setting up res4a_branch2a_relu
I0926 19:11:58.001973 13862 net.cpp:131] Top shape: 8 256 18 31 (1142784)
I0926 19:11:58.001977 13862 net.cpp:139] Memory required for data: 3970735904
I0926 19:11:58.001983 13862 layer_factory.hpp:77] Creating layer res4a_branch2b
I0926 19:11:58.001994 13862 net.cpp:86] Creating Layer res4a_branch2b
I0926 19:11:58.001999 13862 net.cpp:408] res4a_branch2b <- res4a_branch2a
I0926 19:11:58.002005 13862 net.cpp:382] res4a_branch2b -> res4a_branch2b
I0926 19:11:58.005306 13862 net.cpp:124] Setting up res4a_branch2b
I0926 19:11:58.005322 13862 net.cpp:131] Top shape: 8 256 18 31 (1142784)
I0926 19:11:58.005326 13862 net.cpp:139] Memory required for data: 3975307040
I0926 19:11:58.005332 13862 layer_factory.hpp:77] Creating layer bn4a_branch2b
I0926 19:11:58.005340 13862 net.cpp:86] Creating Layer bn4a_branch2b
I0926 19:11:58.005345 13862 net.cpp:408] bn4a_branch2b <- res4a_branch2b
I0926 19:11:58.005352 13862 net.cpp:369] bn4a_branch2b -> res4a_branch2b (in-place)
I0926 19:11:58.005589 13862 net.cpp:124] Setting up bn4a_branch2b
I0926 19:11:58.005597 13862 net.cpp:131] Top shape: 8 256 18 31 (1142784)
I0926 19:11:58.005601 13862 net.cpp:139] Memory required for data: 3979878176
I0926 19:11:58.005609 13862 layer_factory.hpp:77] Creating layer scale4a_branch2b
I0926 19:11:58.005616 13862 net.cpp:86] Creating Layer scale4a_branch2b
I0926 19:11:58.005621 13862 net.cpp:408] scale4a_branch2b <- res4a_branch2b
I0926 19:11:58.005626 13862 net.cpp:369] scale4a_branch2b -> res4a_branch2b (in-place)
I0926 19:11:58.005676 13862 layer_factory.hpp:77] Creating layer scale4a_branch2b
I0926 19:11:58.005800 13862 net.cpp:124] Setting up scale4a_branch2b
I0926 19:11:58.005807 13862 net.cpp:131] Top shape: 8 256 18 31 (1142784)
I0926 19:11:58.005811 13862 net.cpp:139] Memory required for data: 3984449312
I0926 19:11:58.005817 13862 layer_factory.hpp:77] Creating layer res4a_branch2b_relu
I0926 19:11:58.005825 13862 net.cpp:86] Creating Layer res4a_branch2b_relu
I0926 19:11:58.005828 13862 net.cpp:408] res4a_branch2b_relu <- res4a_branch2b
I0926 19:11:58.005836 13862 net.cpp:369] res4a_branch2b_relu -> res4a_branch2b (in-place)
I0926 19:11:58.006052 13862 net.cpp:124] Setting up res4a_branch2b_relu
I0926 19:11:58.006062 13862 net.cpp:131] Top shape: 8 256 18 31 (1142784)
I0926 19:11:58.006065 13862 net.cpp:139] Memory required for data: 3989020448
I0926 19:11:58.006069 13862 layer_factory.hpp:77] Creating layer res4a_branch2c
I0926 19:11:58.006084 13862 net.cpp:86] Creating Layer res4a_branch2c
I0926 19:11:58.006095 13862 net.cpp:408] res4a_branch2c <- res4a_branch2b
I0926 19:11:58.006104 13862 net.cpp:382] res4a_branch2c -> res4a_branch2c
I0926 19:11:58.008689 13862 net.cpp:124] Setting up res4a_branch2c
I0926 19:11:58.008705 13862 net.cpp:131] Top shape: 8 1024 18 31 (4571136)
I0926 19:11:58.008710 13862 net.cpp:139] Memory required for data: 4007304992
I0926 19:11:58.008715 13862 layer_factory.hpp:77] Creating layer bn4a_branch2c
I0926 19:11:58.008743 13862 net.cpp:86] Creating Layer bn4a_branch2c
I0926 19:11:58.008749 13862 net.cpp:408] bn4a_branch2c <- res4a_branch2c
I0926 19:11:58.008754 13862 net.cpp:369] bn4a_branch2c -> res4a_branch2c (in-place)
I0926 19:11:58.008994 13862 net.cpp:124] Setting up bn4a_branch2c
I0926 19:11:58.009002 13862 net.cpp:131] Top shape: 8 1024 18 31 (4571136)
I0926 19:11:58.009006 13862 net.cpp:139] Memory required for data: 4025589536
I0926 19:11:58.009013 13862 layer_factory.hpp:77] Creating layer scale4a_branch2c
I0926 19:11:58.009038 13862 net.cpp:86] Creating Layer scale4a_branch2c
I0926 19:11:58.009043 13862 net.cpp:408] scale4a_branch2c <- res4a_branch2c
I0926 19:11:58.009050 13862 net.cpp:369] scale4a_branch2c -> res4a_branch2c (in-place)
I0926 19:11:58.009110 13862 layer_factory.hpp:77] Creating layer scale4a_branch2c
I0926 19:11:58.009233 13862 net.cpp:124] Setting up scale4a_branch2c
I0926 19:11:58.009241 13862 net.cpp:131] Top shape: 8 1024 18 31 (4571136)
I0926 19:11:58.009245 13862 net.cpp:139] Memory required for data: 4043874080
I0926 19:11:58.009253 13862 layer_factory.hpp:77] Creating layer res4a
I0926 19:11:58.009259 13862 net.cpp:86] Creating Layer res4a
I0926 19:11:58.009264 13862 net.cpp:408] res4a <- res4a_branch1
I0926 19:11:58.009268 13862 net.cpp:408] res4a <- res4a_branch2c
I0926 19:11:58.009275 13862 net.cpp:382] res4a -> res4a
I0926 19:11:58.009304 13862 net.cpp:124] Setting up res4a
I0926 19:11:58.009310 13862 net.cpp:131] Top shape: 8 1024 18 31 (4571136)
I0926 19:11:58.009313 13862 net.cpp:139] Memory required for data: 4062158624
I0926 19:11:58.009317 13862 layer_factory.hpp:77] Creating layer res4a_relu
I0926 19:11:58.009322 13862 net.cpp:86] Creating Layer res4a_relu
I0926 19:11:58.009327 13862 net.cpp:408] res4a_relu <- res4a
I0926 19:11:58.009335 13862 net.cpp:369] res4a_relu -> res4a (in-place)
I0926 19:11:58.009546 13862 net.cpp:124] Setting up res4a_relu
I0926 19:11:58.009557 13862 net.cpp:131] Top shape: 8 1024 18 31 (4571136)
I0926 19:11:58.009560 13862 net.cpp:139] Memory required for data: 4080443168
I0926 19:11:58.009564 13862 layer_factory.hpp:77] Creating layer res4a_res4a_relu_0_split
I0926 19:11:58.009570 13862 net.cpp:86] Creating Layer res4a_res4a_relu_0_split
I0926 19:11:58.009574 13862 net.cpp:408] res4a_res4a_relu_0_split <- res4a
I0926 19:11:58.009582 13862 net.cpp:382] res4a_res4a_relu_0_split -> res4a_res4a_relu_0_split_0
I0926 19:11:58.009590 13862 net.cpp:382] res4a_res4a_relu_0_split -> res4a_res4a_relu_0_split_1
I0926 19:11:58.009639 13862 net.cpp:124] Setting up res4a_res4a_relu_0_split
I0926 19:11:58.009646 13862 net.cpp:131] Top shape: 8 1024 18 31 (4571136)
I0926 19:11:58.009651 13862 net.cpp:131] Top shape: 8 1024 18 31 (4571136)
I0926 19:11:58.009655 13862 net.cpp:139] Memory required for data: 4117012256
I0926 19:11:58.009660 13862 layer_factory.hpp:77] Creating layer res4b1_branch2a
I0926 19:11:58.009672 13862 net.cpp:86] Creating Layer res4b1_branch2a
I0926 19:11:58.009677 13862 net.cpp:408] res4b1_branch2a <- res4a_res4a_relu_0_split_0
I0926 19:11:58.009685 13862 net.cpp:382] res4b1_branch2a -> res4b1_branch2a
I0926 19:11:58.011050 13862 net.cpp:124] Setting up res4b1_branch2a
I0926 19:11:58.011066 13862 net.cpp:131] Top shape: 8 256 18 31 (1142784)
I0926 19:11:58.011070 13862 net.cpp:139] Memory required for data: 4121583392
I0926 19:11:58.011076 13862 layer_factory.hpp:77] Creating layer bn4b1_branch2a
I0926 19:11:58.011083 13862 net.cpp:86] Creating Layer bn4b1_branch2a
I0926 19:11:58.011093 13862 net.cpp:408] bn4b1_branch2a <- res4b1_branch2a
I0926 19:11:58.011103 13862 net.cpp:369] bn4b1_branch2a -> res4b1_branch2a (in-place)
I0926 19:11:58.011337 13862 net.cpp:124] Setting up bn4b1_branch2a
I0926 19:11:58.011344 13862 net.cpp:131] Top shape: 8 256 18 31 (1142784)
I0926 19:11:58.011348 13862 net.cpp:139] Memory required for data: 4126154528
I0926 19:11:58.011355 13862 layer_factory.hpp:77] Creating layer scale4b1_branch2a
I0926 19:11:58.011361 13862 net.cpp:86] Creating Layer scale4b1_branch2a
I0926 19:11:58.011365 13862 net.cpp:408] scale4b1_branch2a <- res4b1_branch2a
I0926 19:11:58.011373 13862 net.cpp:369] scale4b1_branch2a -> res4b1_branch2a (in-place)
I0926 19:11:58.011416 13862 layer_factory.hpp:77] Creating layer scale4b1_branch2a
I0926 19:11:58.011543 13862 net.cpp:124] Setting up scale4b1_branch2a
I0926 19:11:58.011550 13862 net.cpp:131] Top shape: 8 256 18 31 (1142784)
I0926 19:11:58.011554 13862 net.cpp:139] Memory required for data: 4130725664
I0926 19:11:58.011560 13862 layer_factory.hpp:77] Creating layer res4b1_branch2a_relu
I0926 19:11:58.011566 13862 net.cpp:86] Creating Layer res4b1_branch2a_relu
I0926 19:11:58.011569 13862 net.cpp:408] res4b1_branch2a_relu <- res4b1_branch2a
I0926 19:11:58.011574 13862 net.cpp:369] res4b1_branch2a_relu -> res4b1_branch2a (in-place)
I0926 19:11:58.012468 13862 net.cpp:124] Setting up res4b1_branch2a_relu
I0926 19:11:58.012482 13862 net.cpp:131] Top shape: 8 256 18 31 (1142784)
I0926 19:11:58.012486 13862 net.cpp:139] Memory required for data: 4135296800
I0926 19:11:58.012492 13862 layer_factory.hpp:77] Creating layer res4b1_branch2b
I0926 19:11:58.012506 13862 net.cpp:86] Creating Layer res4b1_branch2b
I0926 19:11:58.012511 13862 net.cpp:408] res4b1_branch2b <- res4b1_branch2a
I0926 19:11:58.012518 13862 net.cpp:382] res4b1_branch2b -> res4b1_branch2b
I0926 19:11:58.015760 13862 net.cpp:124] Setting up res4b1_branch2b
I0926 19:11:58.015777 13862 net.cpp:131] Top shape: 8 256 18 31 (1142784)
I0926 19:11:58.015781 13862 net.cpp:139] Memory required for data: 4139867936
I0926 19:11:58.015787 13862 layer_factory.hpp:77] Creating layer bn4b1_branch2b
I0926 19:11:58.015797 13862 net.cpp:86] Creating Layer bn4b1_branch2b
I0926 19:11:58.015802 13862 net.cpp:408] bn4b1_branch2b <- res4b1_branch2b
I0926 19:11:58.015808 13862 net.cpp:369] bn4b1_branch2b -> res4b1_branch2b (in-place)
I0926 19:11:58.016047 13862 net.cpp:124] Setting up bn4b1_branch2b
I0926 19:11:58.016055 13862 net.cpp:131] Top shape: 8 256 18 31 (1142784)
I0926 19:11:58.016060 13862 net.cpp:139] Memory required for data: 4144439072
I0926 19:11:58.016067 13862 layer_factory.hpp:77] Creating layer scale4b1_branch2b
I0926 19:11:58.016073 13862 net.cpp:86] Creating Layer scale4b1_branch2b
I0926 19:11:58.016077 13862 net.cpp:408] scale4b1_branch2b <- res4b1_branch2b
I0926 19:11:58.016083 13862 net.cpp:369] scale4b1_branch2b -> res4b1_branch2b (in-place)
I0926 19:11:58.016132 13862 layer_factory.hpp:77] Creating layer scale4b1_branch2b
I0926 19:11:58.016263 13862 net.cpp:124] Setting up scale4b1_branch2b
I0926 19:11:58.016269 13862 net.cpp:131] Top shape: 8 256 18 31 (1142784)
I0926 19:11:58.016274 13862 net.cpp:139] Memory required for data: 4149010208
I0926 19:11:58.016279 13862 layer_factory.hpp:77] Creating layer res4b1_branch2b_relu
I0926 19:11:58.016288 13862 net.cpp:86] Creating Layer res4b1_branch2b_relu
I0926 19:11:58.016291 13862 net.cpp:408] res4b1_branch2b_relu <- res4b1_branch2b
I0926 19:11:58.016299 13862 net.cpp:369] res4b1_branch2b_relu -> res4b1_branch2b (in-place)
I0926 19:11:58.016505 13862 net.cpp:124] Setting up res4b1_branch2b_relu
I0926 19:11:58.016515 13862 net.cpp:131] Top shape: 8 256 18 31 (1142784)
I0926 19:11:58.016518 13862 net.cpp:139] Memory required for data: 4153581344
I0926 19:11:58.016522 13862 layer_factory.hpp:77] Creating layer res4b1_branch2c
I0926 19:11:58.016532 13862 net.cpp:86] Creating Layer res4b1_branch2c
I0926 19:11:58.016536 13862 net.cpp:408] res4b1_branch2c <- res4b1_branch2b
I0926 19:11:58.016544 13862 net.cpp:382] res4b1_branch2c -> res4b1_branch2c
I0926 19:11:58.019145 13862 net.cpp:124] Setting up res4b1_branch2c
I0926 19:11:58.019170 13862 net.cpp:131] Top shape: 8 1024 18 31 (4571136)
I0926 19:11:58.019173 13862 net.cpp:139] Memory required for data: 4171865888
I0926 19:11:58.019179 13862 layer_factory.hpp:77] Creating layer bn4b1_branch2c
I0926 19:11:58.019189 13862 net.cpp:86] Creating Layer bn4b1_branch2c
I0926 19:11:58.019194 13862 net.cpp:408] bn4b1_branch2c <- res4b1_branch2c
I0926 19:11:58.019201 13862 net.cpp:369] bn4b1_branch2c -> res4b1_branch2c (in-place)
I0926 19:11:58.019433 13862 net.cpp:124] Setting up bn4b1_branch2c
I0926 19:11:58.019441 13862 net.cpp:131] Top shape: 8 1024 18 31 (4571136)
I0926 19:11:58.019444 13862 net.cpp:139] Memory required for data: 4190150432
I0926 19:11:58.019451 13862 layer_factory.hpp:77] Creating layer scale4b1_branch2c
I0926 19:11:58.019459 13862 net.cpp:86] Creating Layer scale4b1_branch2c
I0926 19:11:58.019462 13862 net.cpp:408] scale4b1_branch2c <- res4b1_branch2c
I0926 19:11:58.019467 13862 net.cpp:369] scale4b1_branch2c -> res4b1_branch2c (in-place)
I0926 19:11:58.019517 13862 layer_factory.hpp:77] Creating layer scale4b1_branch2c
I0926 19:11:58.019656 13862 net.cpp:124] Setting up scale4b1_branch2c
I0926 19:11:58.019665 13862 net.cpp:131] Top shape: 8 1024 18 31 (4571136)
I0926 19:11:58.019670 13862 net.cpp:139] Memory required for data: 4208434976
I0926 19:11:58.019676 13862 layer_factory.hpp:77] Creating layer res4b1
I0926 19:11:58.019685 13862 net.cpp:86] Creating Layer res4b1
I0926 19:11:58.019690 13862 net.cpp:408] res4b1 <- res4a_res4a_relu_0_split_1
I0926 19:11:58.019695 13862 net.cpp:408] res4b1 <- res4b1_branch2c
I0926 19:11:58.019701 13862 net.cpp:382] res4b1 -> res4b1
I0926 19:11:58.019731 13862 net.cpp:124] Setting up res4b1
I0926 19:11:58.019737 13862 net.cpp:131] Top shape: 8 1024 18 31 (4571136)
I0926 19:11:58.019742 13862 net.cpp:139] Memory required for data: 4226719520
I0926 19:11:58.019744 13862 layer_factory.hpp:77] Creating layer res4b1_relu
I0926 19:11:58.019750 13862 net.cpp:86] Creating Layer res4b1_relu
I0926 19:11:58.019754 13862 net.cpp:408] res4b1_relu <- res4b1
I0926 19:11:58.019759 13862 net.cpp:369] res4b1_relu -> res4b1 (in-place)
I0926 19:11:58.019964 13862 net.cpp:124] Setting up res4b1_relu
I0926 19:11:58.019974 13862 net.cpp:131] Top shape: 8 1024 18 31 (4571136)
I0926 19:11:58.019979 13862 net.cpp:139] Memory required for data: 4245004064
I0926 19:11:58.019982 13862 layer_factory.hpp:77] Creating layer res4b1_res4b1_relu_0_split
I0926 19:11:58.019989 13862 net.cpp:86] Creating Layer res4b1_res4b1_relu_0_split
I0926 19:11:58.019995 13862 net.cpp:408] res4b1_res4b1_relu_0_split <- res4b1
I0926 19:11:58.020001 13862 net.cpp:382] res4b1_res4b1_relu_0_split -> res4b1_res4b1_relu_0_split_0
I0926 19:11:58.020009 13862 net.cpp:382] res4b1_res4b1_relu_0_split -> res4b1_res4b1_relu_0_split_1
I0926 19:11:58.020057 13862 net.cpp:124] Setting up res4b1_res4b1_relu_0_split
I0926 19:11:58.020064 13862 net.cpp:131] Top shape: 8 1024 18 31 (4571136)
I0926 19:11:58.020069 13862 net.cpp:131] Top shape: 8 1024 18 31 (4571136)
I0926 19:11:58.020072 13862 net.cpp:139] Memory required for data: 4281573152
I0926 19:11:58.020077 13862 layer_factory.hpp:77] Creating layer res4b2_branch2a
I0926 19:11:58.020088 13862 net.cpp:86] Creating Layer res4b2_branch2a
I0926 19:11:58.020093 13862 net.cpp:408] res4b2_branch2a <- res4b1_res4b1_relu_0_split_0
I0926 19:11:58.020102 13862 net.cpp:382] res4b2_branch2a -> res4b2_branch2a
I0926 19:11:58.021461 13862 net.cpp:124] Setting up res4b2_branch2a
I0926 19:11:58.021478 13862 net.cpp:131] Top shape: 8 256 18 31 (1142784)
I0926 19:11:58.021482 13862 net.cpp:139] Memory required for data: 4286144288
I0926 19:11:58.021488 13862 layer_factory.hpp:77] Creating layer bn4b2_branch2a
I0926 19:11:58.021495 13862 net.cpp:86] Creating Layer bn4b2_branch2a
I0926 19:11:58.021499 13862 net.cpp:408] bn4b2_branch2a <- res4b2_branch2a
I0926 19:11:58.021508 13862 net.cpp:369] bn4b2_branch2a -> res4b2_branch2a (in-place)
I0926 19:11:58.021739 13862 net.cpp:124] Setting up bn4b2_branch2a
I0926 19:11:58.021751 13862 net.cpp:131] Top shape: 8 256 18 31 (1142784)
I0926 19:11:58.021761 13862 net.cpp:139] Memory required for data: 4290715424
I0926 19:11:58.021770 13862 layer_factory.hpp:77] Creating layer scale4b2_branch2a
I0926 19:11:58.021777 13862 net.cpp:86] Creating Layer scale4b2_branch2a
I0926 19:11:58.021782 13862 net.cpp:408] scale4b2_branch2a <- res4b2_branch2a
I0926 19:11:58.021787 13862 net.cpp:369] scale4b2_branch2a -> res4b2_branch2a (in-place)
I0926 19:11:58.021836 13862 layer_factory.hpp:77] Creating layer scale4b2_branch2a
I0926 19:11:58.021971 13862 net.cpp:124] Setting up scale4b2_branch2a
I0926 19:11:58.021978 13862 net.cpp:131] Top shape: 8 256 18 31 (1142784)
I0926 19:11:58.021982 13862 net.cpp:139] Memory required for data: 4295286560
I0926 19:11:58.021988 13862 layer_factory.hpp:77] Creating layer res4b2_branch2a_relu
I0926 19:11:58.021996 13862 net.cpp:86] Creating Layer res4b2_branch2a_relu
I0926 19:11:58.022001 13862 net.cpp:408] res4b2_branch2a_relu <- res4b2_branch2a
I0926 19:11:58.022006 13862 net.cpp:369] res4b2_branch2a_relu -> res4b2_branch2a (in-place)
I0926 19:11:58.022207 13862 net.cpp:124] Setting up res4b2_branch2a_relu
I0926 19:11:58.022217 13862 net.cpp:131] Top shape: 8 256 18 31 (1142784)
I0926 19:11:58.022219 13862 net.cpp:139] Memory required for data: 4299857696
I0926 19:11:58.022225 13862 layer_factory.hpp:77] Creating layer res4b2_branch2b
I0926 19:11:58.022235 13862 net.cpp:86] Creating Layer res4b2_branch2b
I0926 19:11:58.022240 13862 net.cpp:408] res4b2_branch2b <- res4b2_branch2a
I0926 19:11:58.022245 13862 net.cpp:382] res4b2_branch2b -> res4b2_branch2b
I0926 19:11:58.025480 13862 net.cpp:124] Setting up res4b2_branch2b
I0926 19:11:58.025497 13862 net.cpp:131] Top shape: 8 256 18 31 (1142784)
I0926 19:11:58.025501 13862 net.cpp:139] Memory required for data: 4304428832
I0926 19:11:58.025507 13862 layer_factory.hpp:77] Creating layer bn4b2_branch2b
I0926 19:11:58.025516 13862 net.cpp:86] Creating Layer bn4b2_branch2b
I0926 19:11:58.025521 13862 net.cpp:408] bn4b2_branch2b <- res4b2_branch2b
I0926 19:11:58.025529 13862 net.cpp:369] bn4b2_branch2b -> res4b2_branch2b (in-place)
I0926 19:11:58.025768 13862 net.cpp:124] Setting up bn4b2_branch2b
I0926 19:11:58.025776 13862 net.cpp:131] Top shape: 8 256 18 31 (1142784)
I0926 19:11:58.025780 13862 net.cpp:139] Memory required for data: 4308999968
I0926 19:11:58.025787 13862 layer_factory.hpp:77] Creating layer scale4b2_branch2b
I0926 19:11:58.025795 13862 net.cpp:86] Creating Layer scale4b2_branch2b
I0926 19:11:58.025799 13862 net.cpp:408] scale4b2_branch2b <- res4b2_branch2b
I0926 19:11:58.025807 13862 net.cpp:369] scale4b2_branch2b -> res4b2_branch2b (in-place)
I0926 19:11:58.025856 13862 layer_factory.hpp:77] Creating layer scale4b2_branch2b
I0926 19:11:58.025986 13862 net.cpp:124] Setting up scale4b2_branch2b
I0926 19:11:58.025993 13862 net.cpp:131] Top shape: 8 256 18 31 (1142784)
I0926 19:11:58.025998 13862 net.cpp:139] Memory required for data: 4313571104
I0926 19:11:58.026005 13862 layer_factory.hpp:77] Creating layer res4b2_branch2b_relu
I0926 19:11:58.026010 13862 net.cpp:86] Creating Layer res4b2_branch2b_relu
I0926 19:11:58.026015 13862 net.cpp:408] res4b2_branch2b_relu <- res4b2_branch2b
I0926 19:11:58.026021 13862 net.cpp:369] res4b2_branch2b_relu -> res4b2_branch2b (in-place)
I0926 19:11:58.026605 13862 net.cpp:124] Setting up res4b2_branch2b_relu
I0926 19:11:58.026620 13862 net.cpp:131] Top shape: 8 256 18 31 (1142784)
I0926 19:11:58.026624 13862 net.cpp:139] Memory required for data: 4318142240
I0926 19:11:58.026628 13862 layer_factory.hpp:77] Creating layer res4b2_branch2c
I0926 19:11:58.026639 13862 net.cpp:86] Creating Layer res4b2_branch2c
I0926 19:11:58.026643 13862 net.cpp:408] res4b2_branch2c <- res4b2_branch2b
I0926 19:11:58.026652 13862 net.cpp:382] res4b2_branch2c -> res4b2_branch2c
I0926 19:11:58.029265 13862 net.cpp:124] Setting up res4b2_branch2c
I0926 19:11:58.029280 13862 net.cpp:131] Top shape: 8 1024 18 31 (4571136)
I0926 19:11:58.029284 13862 net.cpp:139] Memory required for data: 4336426784
I0926 19:11:58.029295 13862 layer_factory.hpp:77] Creating layer bn4b2_branch2c
I0926 19:11:58.029312 13862 net.cpp:86] Creating Layer bn4b2_branch2c
I0926 19:11:58.029317 13862 net.cpp:408] bn4b2_branch2c <- res4b2_branch2c
I0926 19:11:58.029325 13862 net.cpp:369] bn4b2_branch2c -> res4b2_branch2c (in-place)
I0926 19:11:58.029564 13862 net.cpp:124] Setting up bn4b2_branch2c
I0926 19:11:58.029573 13862 net.cpp:131] Top shape: 8 1024 18 31 (4571136)
I0926 19:11:58.029577 13862 net.cpp:139] Memory required for data: 4354711328
I0926 19:11:58.029583 13862 layer_factory.hpp:77] Creating layer scale4b2_branch2c
I0926 19:11:58.029592 13862 net.cpp:86] Creating Layer scale4b2_branch2c
I0926 19:11:58.029597 13862 net.cpp:408] scale4b2_branch2c <- res4b2_branch2c
I0926 19:11:58.029603 13862 net.cpp:369] scale4b2_branch2c -> res4b2_branch2c (in-place)
I0926 19:11:58.029650 13862 layer_factory.hpp:77] Creating layer scale4b2_branch2c
I0926 19:11:58.029781 13862 net.cpp:124] Setting up scale4b2_branch2c
I0926 19:11:58.029790 13862 net.cpp:131] Top shape: 8 1024 18 31 (4571136)
I0926 19:11:58.029793 13862 net.cpp:139] Memory required for data: 4372995872
I0926 19:11:58.029799 13862 layer_factory.hpp:77] Creating layer res4b2
I0926 19:11:58.029806 13862 net.cpp:86] Creating Layer res4b2
I0926 19:11:58.029811 13862 net.cpp:408] res4b2 <- res4b1_res4b1_relu_0_split_1
I0926 19:11:58.029816 13862 net.cpp:408] res4b2 <- res4b2_branch2c
I0926 19:11:58.029821 13862 net.cpp:382] res4b2 -> res4b2
I0926 19:11:58.029851 13862 net.cpp:124] Setting up res4b2
I0926 19:11:58.029860 13862 net.cpp:131] Top shape: 8 1024 18 31 (4571136)
I0926 19:11:58.029863 13862 net.cpp:139] Memory required for data: 4391280416
I0926 19:11:58.029866 13862 layer_factory.hpp:77] Creating layer res4b2_relu
I0926 19:11:58.029871 13862 net.cpp:86] Creating Layer res4b2_relu
I0926 19:11:58.029876 13862 net.cpp:408] res4b2_relu <- res4b2
I0926 19:11:58.029882 13862 net.cpp:369] res4b2_relu -> res4b2 (in-place)
I0926 19:11:58.030086 13862 net.cpp:124] Setting up res4b2_relu
I0926 19:11:58.030095 13862 net.cpp:131] Top shape: 8 1024 18 31 (4571136)
I0926 19:11:58.030099 13862 net.cpp:139] Memory required for data: 4409564960
I0926 19:11:58.030103 13862 layer_factory.hpp:77] Creating layer res4b2_res4b2_relu_0_split
I0926 19:11:58.030112 13862 net.cpp:86] Creating Layer res4b2_res4b2_relu_0_split
I0926 19:11:58.030115 13862 net.cpp:408] res4b2_res4b2_relu_0_split <- res4b2
I0926 19:11:58.030122 13862 net.cpp:382] res4b2_res4b2_relu_0_split -> res4b2_res4b2_relu_0_split_0
I0926 19:11:58.030129 13862 net.cpp:382] res4b2_res4b2_relu_0_split -> res4b2_res4b2_relu_0_split_1
I0926 19:11:58.030181 13862 net.cpp:124] Setting up res4b2_res4b2_relu_0_split
I0926 19:11:58.030189 13862 net.cpp:131] Top shape: 8 1024 18 31 (4571136)
I0926 19:11:58.030194 13862 net.cpp:131] Top shape: 8 1024 18 31 (4571136)
I0926 19:11:58.030197 13862 net.cpp:139] Memory required for data: 4446134048
I0926 19:11:58.030200 13862 layer_factory.hpp:77] Creating layer res4b3_branch2a
I0926 19:11:58.030212 13862 net.cpp:86] Creating Layer res4b3_branch2a
I0926 19:11:58.030216 13862 net.cpp:408] res4b3_branch2a <- res4b2_res4b2_relu_0_split_0
I0926 19:11:58.030225 13862 net.cpp:382] res4b3_branch2a -> res4b3_branch2a
I0926 19:11:58.031666 13862 net.cpp:124] Setting up res4b3_branch2a
I0926 19:11:58.031682 13862 net.cpp:131] Top shape: 8 256 18 31 (1142784)
I0926 19:11:58.031687 13862 net.cpp:139] Memory required for data: 4450705184
I0926 19:11:58.031692 13862 layer_factory.hpp:77] Creating layer bn4b3_branch2a
I0926 19:11:58.031702 13862 net.cpp:86] Creating Layer bn4b3_branch2a
I0926 19:11:58.031705 13862 net.cpp:408] bn4b3_branch2a <- res4b3_branch2a
I0926 19:11:58.031713 13862 net.cpp:369] bn4b3_branch2a -> res4b3_branch2a (in-place)
I0926 19:11:58.031949 13862 net.cpp:124] Setting up bn4b3_branch2a
I0926 19:11:58.031956 13862 net.cpp:131] Top shape: 8 256 18 31 (1142784)
I0926 19:11:58.031960 13862 net.cpp:139] Memory required for data: 4455276320
I0926 19:11:58.031967 13862 layer_factory.hpp:77] Creating layer scale4b3_branch2a
I0926 19:11:58.031981 13862 net.cpp:86] Creating Layer scale4b3_branch2a
I0926 19:11:58.031991 13862 net.cpp:408] scale4b3_branch2a <- res4b3_branch2a
I0926 19:11:58.031997 13862 net.cpp:369] scale4b3_branch2a -> res4b3_branch2a (in-place)
I0926 19:11:58.032049 13862 layer_factory.hpp:77] Creating layer scale4b3_branch2a
I0926 19:11:58.032186 13862 net.cpp:124] Setting up scale4b3_branch2a
I0926 19:11:58.032192 13862 net.cpp:131] Top shape: 8 256 18 31 (1142784)
I0926 19:11:58.032196 13862 net.cpp:139] Memory required for data: 4459847456
I0926 19:11:58.032202 13862 layer_factory.hpp:77] Creating layer res4b3_branch2a_relu
I0926 19:11:58.032207 13862 net.cpp:86] Creating Layer res4b3_branch2a_relu
I0926 19:11:58.032212 13862 net.cpp:408] res4b3_branch2a_relu <- res4b3_branch2a
I0926 19:11:58.032218 13862 net.cpp:369] res4b3_branch2a_relu -> res4b3_branch2a (in-place)
I0926 19:11:58.032424 13862 net.cpp:124] Setting up res4b3_branch2a_relu
I0926 19:11:58.032435 13862 net.cpp:131] Top shape: 8 256 18 31 (1142784)
I0926 19:11:58.032438 13862 net.cpp:139] Memory required for data: 4464418592
I0926 19:11:58.032444 13862 layer_factory.hpp:77] Creating layer res4b3_branch2b
I0926 19:11:58.032455 13862 net.cpp:86] Creating Layer res4b3_branch2b
I0926 19:11:58.032459 13862 net.cpp:408] res4b3_branch2b <- res4b3_branch2a
I0926 19:11:58.032467 13862 net.cpp:382] res4b3_branch2b -> res4b3_branch2b
I0926 19:11:58.035724 13862 net.cpp:124] Setting up res4b3_branch2b
I0926 19:11:58.035742 13862 net.cpp:131] Top shape: 8 256 18 31 (1142784)
I0926 19:11:58.035745 13862 net.cpp:139] Memory required for data: 4468989728
I0926 19:11:58.035751 13862 layer_factory.hpp:77] Creating layer bn4b3_branch2b
I0926 19:11:58.035760 13862 net.cpp:86] Creating Layer bn4b3_branch2b
I0926 19:11:58.035765 13862 net.cpp:408] bn4b3_branch2b <- res4b3_branch2b
I0926 19:11:58.035773 13862 net.cpp:369] bn4b3_branch2b -> res4b3_branch2b (in-place)
I0926 19:11:58.036015 13862 net.cpp:124] Setting up bn4b3_branch2b
I0926 19:11:58.036021 13862 net.cpp:131] Top shape: 8 256 18 31 (1142784)
I0926 19:11:58.036026 13862 net.cpp:139] Memory required for data: 4473560864
I0926 19:11:58.036032 13862 layer_factory.hpp:77] Creating layer scale4b3_branch2b
I0926 19:11:58.036041 13862 net.cpp:86] Creating Layer scale4b3_branch2b
I0926 19:11:58.036046 13862 net.cpp:408] scale4b3_branch2b <- res4b3_branch2b
I0926 19:11:58.036051 13862 net.cpp:369] scale4b3_branch2b -> res4b3_branch2b (in-place)
I0926 19:11:58.036098 13862 layer_factory.hpp:77] Creating layer scale4b3_branch2b
I0926 19:11:58.036231 13862 net.cpp:124] Setting up scale4b3_branch2b
I0926 19:11:58.036239 13862 net.cpp:131] Top shape: 8 256 18 31 (1142784)
I0926 19:11:58.036243 13862 net.cpp:139] Memory required for data: 4478132000
I0926 19:11:58.036250 13862 layer_factory.hpp:77] Creating layer res4b3_branch2b_relu
I0926 19:11:58.036260 13862 net.cpp:86] Creating Layer res4b3_branch2b_relu
I0926 19:11:58.036265 13862 net.cpp:408] res4b3_branch2b_relu <- res4b3_branch2b
I0926 19:11:58.036270 13862 net.cpp:369] res4b3_branch2b_relu -> res4b3_branch2b (in-place)
I0926 19:11:58.036856 13862 net.cpp:124] Setting up res4b3_branch2b_relu
I0926 19:11:58.036871 13862 net.cpp:131] Top shape: 8 256 18 31 (1142784)
I0926 19:11:58.036875 13862 net.cpp:139] Memory required for data: 4482703136
I0926 19:11:58.036880 13862 layer_factory.hpp:77] Creating layer res4b3_branch2c
I0926 19:11:58.036890 13862 net.cpp:86] Creating Layer res4b3_branch2c
I0926 19:11:58.036895 13862 net.cpp:408] res4b3_branch2c <- res4b3_branch2b
I0926 19:11:58.036902 13862 net.cpp:382] res4b3_branch2c -> res4b3_branch2c
I0926 19:11:58.039546 13862 net.cpp:124] Setting up res4b3_branch2c
I0926 19:11:58.039564 13862 net.cpp:131] Top shape: 8 1024 18 31 (4571136)
I0926 19:11:58.039568 13862 net.cpp:139] Memory required for data: 4500987680
I0926 19:11:58.039574 13862 layer_factory.hpp:77] Creating layer bn4b3_branch2c
I0926 19:11:58.039582 13862 net.cpp:86] Creating Layer bn4b3_branch2c
I0926 19:11:58.039587 13862 net.cpp:408] bn4b3_branch2c <- res4b3_branch2c
I0926 19:11:58.039599 13862 net.cpp:369] bn4b3_branch2c -> res4b3_branch2c (in-place)
I0926 19:11:58.039844 13862 net.cpp:124] Setting up bn4b3_branch2c
I0926 19:11:58.039852 13862 net.cpp:131] Top shape: 8 1024 18 31 (4571136)
I0926 19:11:58.039855 13862 net.cpp:139] Memory required for data: 4519272224
I0926 19:11:58.039862 13862 layer_factory.hpp:77] Creating layer scale4b3_branch2c
I0926 19:11:58.039871 13862 net.cpp:86] Creating Layer scale4b3_branch2c
I0926 19:11:58.039876 13862 net.cpp:408] scale4b3_branch2c <- res4b3_branch2c
I0926 19:11:58.039883 13862 net.cpp:369] scale4b3_branch2c -> res4b3_branch2c (in-place)
I0926 19:11:58.039932 13862 layer_factory.hpp:77] Creating layer scale4b3_branch2c
I0926 19:11:58.040064 13862 net.cpp:124] Setting up scale4b3_branch2c
I0926 19:11:58.040074 13862 net.cpp:131] Top shape: 8 1024 18 31 (4571136)
I0926 19:11:58.040077 13862 net.cpp:139] Memory required for data: 4537556768
I0926 19:11:58.040083 13862 layer_factory.hpp:77] Creating layer res4b3
I0926 19:11:58.040089 13862 net.cpp:86] Creating Layer res4b3
I0926 19:11:58.040094 13862 net.cpp:408] res4b3 <- res4b2_res4b2_relu_0_split_1
I0926 19:11:58.040099 13862 net.cpp:408] res4b3 <- res4b3_branch2c
I0926 19:11:58.040104 13862 net.cpp:382] res4b3 -> res4b3
I0926 19:11:58.040135 13862 net.cpp:124] Setting up res4b3
I0926 19:11:58.040143 13862 net.cpp:131] Top shape: 8 1024 18 31 (4571136)
I0926 19:11:58.040146 13862 net.cpp:139] Memory required for data: 4555841312
I0926 19:11:58.040149 13862 layer_factory.hpp:77] Creating layer res4b3_relu
I0926 19:11:58.040158 13862 net.cpp:86] Creating Layer res4b3_relu
I0926 19:11:58.040161 13862 net.cpp:408] res4b3_relu <- res4b3
I0926 19:11:58.040166 13862 net.cpp:369] res4b3_relu -> res4b3 (in-place)
I0926 19:11:58.040374 13862 net.cpp:124] Setting up res4b3_relu
I0926 19:11:58.040385 13862 net.cpp:131] Top shape: 8 1024 18 31 (4571136)
I0926 19:11:58.040390 13862 net.cpp:139] Memory required for data: 4574125856
I0926 19:11:58.040395 13862 layer_factory.hpp:77] Creating layer res4b3_res4b3_relu_0_split
I0926 19:11:58.040400 13862 net.cpp:86] Creating Layer res4b3_res4b3_relu_0_split
I0926 19:11:58.040405 13862 net.cpp:408] res4b3_res4b3_relu_0_split <- res4b3
I0926 19:11:58.040410 13862 net.cpp:382] res4b3_res4b3_relu_0_split -> res4b3_res4b3_relu_0_split_0
I0926 19:11:58.040419 13862 net.cpp:382] res4b3_res4b3_relu_0_split -> res4b3_res4b3_relu_0_split_1
I0926 19:11:58.040469 13862 net.cpp:124] Setting up res4b3_res4b3_relu_0_split
I0926 19:11:58.040477 13862 net.cpp:131] Top shape: 8 1024 18 31 (4571136)
I0926 19:11:58.040482 13862 net.cpp:131] Top shape: 8 1024 18 31 (4571136)
I0926 19:11:58.040485 13862 net.cpp:139] Memory required for data: 4610694944
I0926 19:11:58.040490 13862 layer_factory.hpp:77] Creating layer res4b4_branch2a
I0926 19:11:58.040501 13862 net.cpp:86] Creating Layer res4b4_branch2a
I0926 19:11:58.040508 13862 net.cpp:408] res4b4_branch2a <- res4b3_res4b3_relu_0_split_0
I0926 19:11:58.040513 13862 net.cpp:382] res4b4_branch2a -> res4b4_branch2a
I0926 19:11:58.041926 13862 net.cpp:124] Setting up res4b4_branch2a
I0926 19:11:58.041942 13862 net.cpp:131] Top shape: 8 256 18 31 (1142784)
I0926 19:11:58.041947 13862 net.cpp:139] Memory required for data: 4615266080
I0926 19:11:58.041954 13862 layer_factory.hpp:77] Creating layer bn4b4_branch2a
I0926 19:11:58.041963 13862 net.cpp:86] Creating Layer bn4b4_branch2a
I0926 19:11:58.041968 13862 net.cpp:408] bn4b4_branch2a <- res4b4_branch2a
I0926 19:11:58.041975 13862 net.cpp:369] bn4b4_branch2a -> res4b4_branch2a (in-place)
I0926 19:11:58.042263 13862 net.cpp:124] Setting up bn4b4_branch2a
I0926 19:11:58.042271 13862 net.cpp:131] Top shape: 8 256 18 31 (1142784)
I0926 19:11:58.042275 13862 net.cpp:139] Memory required for data: 4619837216
I0926 19:11:58.042284 13862 layer_factory.hpp:77] Creating layer scale4b4_branch2a
I0926 19:11:58.042290 13862 net.cpp:86] Creating Layer scale4b4_branch2a
I0926 19:11:58.042294 13862 net.cpp:408] scale4b4_branch2a <- res4b4_branch2a
I0926 19:11:58.042304 13862 net.cpp:369] scale4b4_branch2a -> res4b4_branch2a (in-place)
I0926 19:11:58.042367 13862 layer_factory.hpp:77] Creating layer scale4b4_branch2a
I0926 19:11:58.042538 13862 net.cpp:124] Setting up scale4b4_branch2a
I0926 19:11:58.042548 13862 net.cpp:131] Top shape: 8 256 18 31 (1142784)
I0926 19:11:58.042552 13862 net.cpp:139] Memory required for data: 4624408352
I0926 19:11:58.042559 13862 layer_factory.hpp:77] Creating layer res4b4_branch2a_relu
I0926 19:11:58.042565 13862 net.cpp:86] Creating Layer res4b4_branch2a_relu
I0926 19:11:58.042572 13862 net.cpp:408] res4b4_branch2a_relu <- res4b4_branch2a
I0926 19:11:58.042577 13862 net.cpp:369] res4b4_branch2a_relu -> res4b4_branch2a (in-place)
I0926 19:11:58.042814 13862 net.cpp:124] Setting up res4b4_branch2a_relu
I0926 19:11:58.042824 13862 net.cpp:131] Top shape: 8 256 18 31 (1142784)
I0926 19:11:58.042829 13862 net.cpp:139] Memory required for data: 4628979488
I0926 19:11:58.042834 13862 layer_factory.hpp:77] Creating layer res4b4_branch2b
I0926 19:11:58.042843 13862 net.cpp:86] Creating Layer res4b4_branch2b
I0926 19:11:58.042847 13862 net.cpp:408] res4b4_branch2b <- res4b4_branch2a
I0926 19:11:58.042855 13862 net.cpp:382] res4b4_branch2b -> res4b4_branch2b
I0926 19:11:58.046134 13862 net.cpp:124] Setting up res4b4_branch2b
I0926 19:11:58.046152 13862 net.cpp:131] Top shape: 8 256 18 31 (1142784)
I0926 19:11:58.046156 13862 net.cpp:139] Memory required for data: 4633550624
I0926 19:11:58.046162 13862 layer_factory.hpp:77] Creating layer bn4b4_branch2b
I0926 19:11:58.046169 13862 net.cpp:86] Creating Layer bn4b4_branch2b
I0926 19:11:58.046175 13862 net.cpp:408] bn4b4_branch2b <- res4b4_branch2b
I0926 19:11:58.046182 13862 net.cpp:369] bn4b4_branch2b -> res4b4_branch2b (in-place)
I0926 19:11:58.046432 13862 net.cpp:124] Setting up bn4b4_branch2b
I0926 19:11:58.046442 13862 net.cpp:131] Top shape: 8 256 18 31 (1142784)
I0926 19:11:58.046445 13862 net.cpp:139] Memory required for data: 4638121760
I0926 19:11:58.046452 13862 layer_factory.hpp:77] Creating layer scale4b4_branch2b
I0926 19:11:58.046460 13862 net.cpp:86] Creating Layer scale4b4_branch2b
I0926 19:11:58.046465 13862 net.cpp:408] scale4b4_branch2b <- res4b4_branch2b
I0926 19:11:58.046492 13862 net.cpp:369] scale4b4_branch2b -> res4b4_branch2b (in-place)
I0926 19:11:58.046550 13862 layer_factory.hpp:77] Creating layer scale4b4_branch2b
I0926 19:11:58.046696 13862 net.cpp:124] Setting up scale4b4_branch2b
I0926 19:11:58.046705 13862 net.cpp:131] Top shape: 8 256 18 31 (1142784)
I0926 19:11:58.046710 13862 net.cpp:139] Memory required for data: 4642692896
I0926 19:11:58.046716 13862 layer_factory.hpp:77] Creating layer res4b4_branch2b_relu
I0926 19:11:58.046725 13862 net.cpp:86] Creating Layer res4b4_branch2b_relu
I0926 19:11:58.046730 13862 net.cpp:408] res4b4_branch2b_relu <- res4b4_branch2b
I0926 19:11:58.046737 13862 net.cpp:369] res4b4_branch2b_relu -> res4b4_branch2b (in-place)
I0926 19:11:58.047348 13862 net.cpp:124] Setting up res4b4_branch2b_relu
I0926 19:11:58.047364 13862 net.cpp:131] Top shape: 8 256 18 31 (1142784)
I0926 19:11:58.047369 13862 net.cpp:139] Memory required for data: 4647264032
I0926 19:11:58.047374 13862 layer_factory.hpp:77] Creating layer res4b4_branch2c
I0926 19:11:58.047382 13862 net.cpp:86] Creating Layer res4b4_branch2c
I0926 19:11:58.047386 13862 net.cpp:408] res4b4_branch2c <- res4b4_branch2b
I0926 19:11:58.047394 13862 net.cpp:382] res4b4_branch2c -> res4b4_branch2c
I0926 19:11:58.050029 13862 net.cpp:124] Setting up res4b4_branch2c
I0926 19:11:58.050045 13862 net.cpp:131] Top shape: 8 1024 18 31 (4571136)
I0926 19:11:58.050048 13862 net.cpp:139] Memory required for data: 4665548576
I0926 19:11:58.050055 13862 layer_factory.hpp:77] Creating layer bn4b4_branch2c
I0926 19:11:58.050062 13862 net.cpp:86] Creating Layer bn4b4_branch2c
I0926 19:11:58.050067 13862 net.cpp:408] bn4b4_branch2c <- res4b4_branch2c
I0926 19:11:58.050074 13862 net.cpp:369] bn4b4_branch2c -> res4b4_branch2c (in-place)
I0926 19:11:58.050317 13862 net.cpp:124] Setting up bn4b4_branch2c
I0926 19:11:58.050330 13862 net.cpp:131] Top shape: 8 1024 18 31 (4571136)
I0926 19:11:58.050339 13862 net.cpp:139] Memory required for data: 4683833120
I0926 19:11:58.050346 13862 layer_factory.hpp:77] Creating layer scale4b4_branch2c
I0926 19:11:58.050355 13862 net.cpp:86] Creating Layer scale4b4_branch2c
I0926 19:11:58.050360 13862 net.cpp:408] scale4b4_branch2c <- res4b4_branch2c
I0926 19:11:58.050367 13862 net.cpp:369] scale4b4_branch2c -> res4b4_branch2c (in-place)
I0926 19:11:58.050418 13862 layer_factory.hpp:77] Creating layer scale4b4_branch2c
I0926 19:11:58.050597 13862 net.cpp:124] Setting up scale4b4_branch2c
I0926 19:11:58.050608 13862 net.cpp:131] Top shape: 8 1024 18 31 (4571136)
I0926 19:11:58.050612 13862 net.cpp:139] Memory required for data: 4702117664
I0926 19:11:58.050618 13862 layer_factory.hpp:77] Creating layer res4b4
I0926 19:11:58.050624 13862 net.cpp:86] Creating Layer res4b4
I0926 19:11:58.050629 13862 net.cpp:408] res4b4 <- res4b3_res4b3_relu_0_split_1
I0926 19:11:58.050635 13862 net.cpp:408] res4b4 <- res4b4_branch2c
I0926 19:11:58.050642 13862 net.cpp:382] res4b4 -> res4b4
I0926 19:11:58.050674 13862 net.cpp:124] Setting up res4b4
I0926 19:11:58.050684 13862 net.cpp:131] Top shape: 8 1024 18 31 (4571136)
I0926 19:11:58.050688 13862 net.cpp:139] Memory required for data: 4720402208
I0926 19:11:58.050691 13862 layer_factory.hpp:77] Creating layer res4b4_relu
I0926 19:11:58.050698 13862 net.cpp:86] Creating Layer res4b4_relu
I0926 19:11:58.050703 13862 net.cpp:408] res4b4_relu <- res4b4
I0926 19:11:58.050707 13862 net.cpp:369] res4b4_relu -> res4b4 (in-place)
I0926 19:11:58.050940 13862 net.cpp:124] Setting up res4b4_relu
I0926 19:11:58.050951 13862 net.cpp:131] Top shape: 8 1024 18 31 (4571136)
I0926 19:11:58.050954 13862 net.cpp:139] Memory required for data: 4738686752
I0926 19:11:58.050958 13862 layer_factory.hpp:77] Creating layer res4b4_res4b4_relu_0_split
I0926 19:11:58.050964 13862 net.cpp:86] Creating Layer res4b4_res4b4_relu_0_split
I0926 19:11:58.050968 13862 net.cpp:408] res4b4_res4b4_relu_0_split <- res4b4
I0926 19:11:58.050976 13862 net.cpp:382] res4b4_res4b4_relu_0_split -> res4b4_res4b4_relu_0_split_0
I0926 19:11:58.050984 13862 net.cpp:382] res4b4_res4b4_relu_0_split -> res4b4_res4b4_relu_0_split_1
I0926 19:11:58.051038 13862 net.cpp:124] Setting up res4b4_res4b4_relu_0_split
I0926 19:11:58.051045 13862 net.cpp:131] Top shape: 8 1024 18 31 (4571136)
I0926 19:11:58.051050 13862 net.cpp:131] Top shape: 8 1024 18 31 (4571136)
I0926 19:11:58.051054 13862 net.cpp:139] Memory required for data: 4775255840
I0926 19:11:58.051059 13862 layer_factory.hpp:77] Creating layer res4b5_branch2a
I0926 19:11:58.051069 13862 net.cpp:86] Creating Layer res4b5_branch2a
I0926 19:11:58.051074 13862 net.cpp:408] res4b5_branch2a <- res4b4_res4b4_relu_0_split_0
I0926 19:11:58.051079 13862 net.cpp:382] res4b5_branch2a -> res4b5_branch2a
I0926 19:11:58.052485 13862 net.cpp:124] Setting up res4b5_branch2a
I0926 19:11:58.052500 13862 net.cpp:131] Top shape: 8 256 18 31 (1142784)
I0926 19:11:58.052505 13862 net.cpp:139] Memory required for data: 4779826976
I0926 19:11:58.052510 13862 layer_factory.hpp:77] Creating layer bn4b5_branch2a
I0926 19:11:58.052520 13862 net.cpp:86] Creating Layer bn4b5_branch2a
I0926 19:11:58.052523 13862 net.cpp:408] bn4b5_branch2a <- res4b5_branch2a
I0926 19:11:58.052531 13862 net.cpp:369] bn4b5_branch2a -> res4b5_branch2a (in-place)
I0926 19:11:58.052776 13862 net.cpp:124] Setting up bn4b5_branch2a
I0926 19:11:58.052784 13862 net.cpp:131] Top shape: 8 256 18 31 (1142784)
I0926 19:11:58.052788 13862 net.cpp:139] Memory required for data: 4784398112
I0926 19:11:58.052795 13862 layer_factory.hpp:77] Creating layer scale4b5_branch2a
I0926 19:11:58.052803 13862 net.cpp:86] Creating Layer scale4b5_branch2a
I0926 19:11:58.052805 13862 net.cpp:408] scale4b5_branch2a <- res4b5_branch2a
I0926 19:11:58.052810 13862 net.cpp:369] scale4b5_branch2a -> res4b5_branch2a (in-place)
I0926 19:11:58.052860 13862 layer_factory.hpp:77] Creating layer scale4b5_branch2a
I0926 19:11:58.052996 13862 net.cpp:124] Setting up scale4b5_branch2a
I0926 19:11:58.053009 13862 net.cpp:131] Top shape: 8 256 18 31 (1142784)
I0926 19:11:58.053020 13862 net.cpp:139] Memory required for data: 4788969248
I0926 19:11:58.053025 13862 layer_factory.hpp:77] Creating layer res4b5_branch2a_relu
I0926 19:11:58.053038 13862 net.cpp:86] Creating Layer res4b5_branch2a_relu
I0926 19:11:58.053042 13862 net.cpp:408] res4b5_branch2a_relu <- res4b5_branch2a
I0926 19:11:58.053047 13862 net.cpp:369] res4b5_branch2a_relu -> res4b5_branch2a (in-place)
I0926 19:11:58.053261 13862 net.cpp:124] Setting up res4b5_branch2a_relu
I0926 19:11:58.053270 13862 net.cpp:131] Top shape: 8 256 18 31 (1142784)
I0926 19:11:58.053274 13862 net.cpp:139] Memory required for data: 4793540384
I0926 19:11:58.053277 13862 layer_factory.hpp:77] Creating layer res4b5_branch2b
I0926 19:11:58.053288 13862 net.cpp:86] Creating Layer res4b5_branch2b
I0926 19:11:58.053292 13862 net.cpp:408] res4b5_branch2b <- res4b5_branch2a
I0926 19:11:58.053300 13862 net.cpp:382] res4b5_branch2b -> res4b5_branch2b
I0926 19:11:58.056715 13862 net.cpp:124] Setting up res4b5_branch2b
I0926 19:11:58.056730 13862 net.cpp:131] Top shape: 8 256 18 31 (1142784)
I0926 19:11:58.056735 13862 net.cpp:139] Memory required for data: 4798111520
I0926 19:11:58.056740 13862 layer_factory.hpp:77] Creating layer bn4b5_branch2b
I0926 19:11:58.056751 13862 net.cpp:86] Creating Layer bn4b5_branch2b
I0926 19:11:58.056756 13862 net.cpp:408] bn4b5_branch2b <- res4b5_branch2b
I0926 19:11:58.056761 13862 net.cpp:369] bn4b5_branch2b -> res4b5_branch2b (in-place)
I0926 19:11:58.057015 13862 net.cpp:124] Setting up bn4b5_branch2b
I0926 19:11:58.057024 13862 net.cpp:131] Top shape: 8 256 18 31 (1142784)
I0926 19:11:58.057029 13862 net.cpp:139] Memory required for data: 4802682656
I0926 19:11:58.057035 13862 layer_factory.hpp:77] Creating layer scale4b5_branch2b
I0926 19:11:58.057042 13862 net.cpp:86] Creating Layer scale4b5_branch2b
I0926 19:11:58.057046 13862 net.cpp:408] scale4b5_branch2b <- res4b5_branch2b
I0926 19:11:58.057051 13862 net.cpp:369] scale4b5_branch2b -> res4b5_branch2b (in-place)
I0926 19:11:58.057103 13862 layer_factory.hpp:77] Creating layer scale4b5_branch2b
I0926 19:11:58.057245 13862 net.cpp:124] Setting up scale4b5_branch2b
I0926 19:11:58.057252 13862 net.cpp:131] Top shape: 8 256 18 31 (1142784)
I0926 19:11:58.057256 13862 net.cpp:139] Memory required for data: 4807253792
I0926 19:11:58.057263 13862 layer_factory.hpp:77] Creating layer res4b5_branch2b_relu
I0926 19:11:58.057269 13862 net.cpp:86] Creating Layer res4b5_branch2b_relu
I0926 19:11:58.057273 13862 net.cpp:408] res4b5_branch2b_relu <- res4b5_branch2b
I0926 19:11:58.057281 13862 net.cpp:369] res4b5_branch2b_relu -> res4b5_branch2b (in-place)
I0926 19:11:58.057493 13862 net.cpp:124] Setting up res4b5_branch2b_relu
I0926 19:11:58.057503 13862 net.cpp:131] Top shape: 8 256 18 31 (1142784)
I0926 19:11:58.057507 13862 net.cpp:139] Memory required for data: 4811824928
I0926 19:11:58.057512 13862 layer_factory.hpp:77] Creating layer res4b5_branch2c
I0926 19:11:58.057521 13862 net.cpp:86] Creating Layer res4b5_branch2c
I0926 19:11:58.057525 13862 net.cpp:408] res4b5_branch2c <- res4b5_branch2b
I0926 19:11:58.057533 13862 net.cpp:382] res4b5_branch2c -> res4b5_branch2c
I0926 19:11:58.060220 13862 net.cpp:124] Setting up res4b5_branch2c
I0926 19:11:58.060235 13862 net.cpp:131] Top shape: 8 1024 18 31 (4571136)
I0926 19:11:58.060240 13862 net.cpp:139] Memory required for data: 4830109472
I0926 19:11:58.060245 13862 layer_factory.hpp:77] Creating layer bn4b5_branch2c
I0926 19:11:58.060256 13862 net.cpp:86] Creating Layer bn4b5_branch2c
I0926 19:11:58.060259 13862 net.cpp:408] bn4b5_branch2c <- res4b5_branch2c
I0926 19:11:58.060266 13862 net.cpp:369] bn4b5_branch2c -> res4b5_branch2c (in-place)
I0926 19:11:58.060511 13862 net.cpp:124] Setting up bn4b5_branch2c
I0926 19:11:58.060519 13862 net.cpp:131] Top shape: 8 1024 18 31 (4571136)
I0926 19:11:58.060523 13862 net.cpp:139] Memory required for data: 4848394016
I0926 19:11:58.060530 13862 layer_factory.hpp:77] Creating layer scale4b5_branch2c
I0926 19:11:58.060542 13862 net.cpp:86] Creating Layer scale4b5_branch2c
I0926 19:11:58.060555 13862 net.cpp:408] scale4b5_branch2c <- res4b5_branch2c
I0926 19:11:58.060560 13862 net.cpp:369] scale4b5_branch2c -> res4b5_branch2c (in-place)
I0926 19:11:58.060616 13862 layer_factory.hpp:77] Creating layer scale4b5_branch2c
I0926 19:11:58.060755 13862 net.cpp:124] Setting up scale4b5_branch2c
I0926 19:11:58.060762 13862 net.cpp:131] Top shape: 8 1024 18 31 (4571136)
I0926 19:11:58.060766 13862 net.cpp:139] Memory required for data: 4866678560
I0926 19:11:58.060803 13862 layer_factory.hpp:77] Creating layer res4b5
I0926 19:11:58.060811 13862 net.cpp:86] Creating Layer res4b5
I0926 19:11:58.060817 13862 net.cpp:408] res4b5 <- res4b4_res4b4_relu_0_split_1
I0926 19:11:58.060822 13862 net.cpp:408] res4b5 <- res4b5_branch2c
I0926 19:11:58.060827 13862 net.cpp:382] res4b5 -> res4b5
I0926 19:11:58.060859 13862 net.cpp:124] Setting up res4b5
I0926 19:11:58.060866 13862 net.cpp:131] Top shape: 8 1024 18 31 (4571136)
I0926 19:11:58.060870 13862 net.cpp:139] Memory required for data: 4884963104
I0926 19:11:58.060873 13862 layer_factory.hpp:77] Creating layer res4b5_relu
I0926 19:11:58.060879 13862 net.cpp:86] Creating Layer res4b5_relu
I0926 19:11:58.060884 13862 net.cpp:408] res4b5_relu <- res4b5
I0926 19:11:58.060891 13862 net.cpp:369] res4b5_relu -> res4b5 (in-place)
I0926 19:11:58.061516 13862 net.cpp:124] Setting up res4b5_relu
I0926 19:11:58.061529 13862 net.cpp:131] Top shape: 8 1024 18 31 (4571136)
I0926 19:11:58.061534 13862 net.cpp:139] Memory required for data: 4903247648
I0926 19:11:58.061538 13862 layer_factory.hpp:77] Creating layer res4b5_res4b5_relu_0_split
I0926 19:11:58.061544 13862 net.cpp:86] Creating Layer res4b5_res4b5_relu_0_split
I0926 19:11:58.061549 13862 net.cpp:408] res4b5_res4b5_relu_0_split <- res4b5
I0926 19:11:58.061556 13862 net.cpp:382] res4b5_res4b5_relu_0_split -> res4b5_res4b5_relu_0_split_0
I0926 19:11:58.061563 13862 net.cpp:382] res4b5_res4b5_relu_0_split -> res4b5_res4b5_relu_0_split_1
I0926 19:11:58.061616 13862 net.cpp:124] Setting up res4b5_res4b5_relu_0_split
I0926 19:11:58.061623 13862 net.cpp:131] Top shape: 8 1024 18 31 (4571136)
I0926 19:11:58.061628 13862 net.cpp:131] Top shape: 8 1024 18 31 (4571136)
I0926 19:11:58.061631 13862 net.cpp:139] Memory required for data: 4939816736
I0926 19:11:58.061637 13862 layer_factory.hpp:77] Creating layer res4b6_branch2a
I0926 19:11:58.061646 13862 net.cpp:86] Creating Layer res4b6_branch2a
I0926 19:11:58.061651 13862 net.cpp:408] res4b6_branch2a <- res4b5_res4b5_relu_0_split_0
I0926 19:11:58.061659 13862 net.cpp:382] res4b6_branch2a -> res4b6_branch2a
I0926 19:11:58.063535 13862 net.cpp:124] Setting up res4b6_branch2a
I0926 19:11:58.063550 13862 net.cpp:131] Top shape: 8 256 18 31 (1142784)
I0926 19:11:58.063555 13862 net.cpp:139] Memory required for data: 4944387872
I0926 19:11:58.063561 13862 layer_factory.hpp:77] Creating layer bn4b6_branch2a
I0926 19:11:58.063572 13862 net.cpp:86] Creating Layer bn4b6_branch2a
I0926 19:11:58.063577 13862 net.cpp:408] bn4b6_branch2a <- res4b6_branch2a
I0926 19:11:58.063583 13862 net.cpp:369] bn4b6_branch2a -> res4b6_branch2a (in-place)
I0926 19:11:58.063827 13862 net.cpp:124] Setting up bn4b6_branch2a
I0926 19:11:58.063835 13862 net.cpp:131] Top shape: 8 256 18 31 (1142784)
I0926 19:11:58.063838 13862 net.cpp:139] Memory required for data: 4948959008
I0926 19:11:58.063846 13862 layer_factory.hpp:77] Creating layer scale4b6_branch2a
I0926 19:11:58.063854 13862 net.cpp:86] Creating Layer scale4b6_branch2a
I0926 19:11:58.063858 13862 net.cpp:408] scale4b6_branch2a <- res4b6_branch2a
I0926 19:11:58.063863 13862 net.cpp:369] scale4b6_branch2a -> res4b6_branch2a (in-place)
I0926 19:11:58.063915 13862 layer_factory.hpp:77] Creating layer scale4b6_branch2a
I0926 19:11:58.064057 13862 net.cpp:124] Setting up scale4b6_branch2a
I0926 19:11:58.064065 13862 net.cpp:131] Top shape: 8 256 18 31 (1142784)
I0926 19:11:58.064069 13862 net.cpp:139] Memory required for data: 4953530144
I0926 19:11:58.064074 13862 layer_factory.hpp:77] Creating layer res4b6_branch2a_relu
I0926 19:11:58.064097 13862 net.cpp:86] Creating Layer res4b6_branch2a_relu
I0926 19:11:58.064101 13862 net.cpp:408] res4b6_branch2a_relu <- res4b6_branch2a
I0926 19:11:58.064108 13862 net.cpp:369] res4b6_branch2a_relu -> res4b6_branch2a (in-place)
I0926 19:11:58.064327 13862 net.cpp:124] Setting up res4b6_branch2a_relu
I0926 19:11:58.064337 13862 net.cpp:131] Top shape: 8 256 18 31 (1142784)
I0926 19:11:58.064342 13862 net.cpp:139] Memory required for data: 4958101280
I0926 19:11:58.064345 13862 layer_factory.hpp:77] Creating layer res4b6_branch2b
I0926 19:11:58.064355 13862 net.cpp:86] Creating Layer res4b6_branch2b
I0926 19:11:58.064360 13862 net.cpp:408] res4b6_branch2b <- res4b6_branch2a
I0926 19:11:58.064368 13862 net.cpp:382] res4b6_branch2b -> res4b6_branch2b
I0926 19:11:58.067776 13862 net.cpp:124] Setting up res4b6_branch2b
I0926 19:11:58.067793 13862 net.cpp:131] Top shape: 8 256 18 31 (1142784)
I0926 19:11:58.067797 13862 net.cpp:139] Memory required for data: 4962672416
I0926 19:11:58.067803 13862 layer_factory.hpp:77] Creating layer bn4b6_branch2b
I0926 19:11:58.067812 13862 net.cpp:86] Creating Layer bn4b6_branch2b
I0926 19:11:58.067818 13862 net.cpp:408] bn4b6_branch2b <- res4b6_branch2b
I0926 19:11:58.067826 13862 net.cpp:369] bn4b6_branch2b -> res4b6_branch2b (in-place)
I0926 19:11:58.068080 13862 net.cpp:124] Setting up bn4b6_branch2b
I0926 19:11:58.068089 13862 net.cpp:131] Top shape: 8 256 18 31 (1142784)
I0926 19:11:58.068092 13862 net.cpp:139] Memory required for data: 4967243552
I0926 19:11:58.068099 13862 layer_factory.hpp:77] Creating layer scale4b6_branch2b
I0926 19:11:58.068109 13862 net.cpp:86] Creating Layer scale4b6_branch2b
I0926 19:11:58.068112 13862 net.cpp:408] scale4b6_branch2b <- res4b6_branch2b
I0926 19:11:58.068119 13862 net.cpp:369] scale4b6_branch2b -> res4b6_branch2b (in-place)
I0926 19:11:58.068168 13862 layer_factory.hpp:77] Creating layer scale4b6_branch2b
I0926 19:11:58.068315 13862 net.cpp:124] Setting up scale4b6_branch2b
I0926 19:11:58.068322 13862 net.cpp:131] Top shape: 8 256 18 31 (1142784)
I0926 19:11:58.068326 13862 net.cpp:139] Memory required for data: 4971814688
I0926 19:11:58.068333 13862 layer_factory.hpp:77] Creating layer res4b6_branch2b_relu
I0926 19:11:58.068341 13862 net.cpp:86] Creating Layer res4b6_branch2b_relu
I0926 19:11:58.068346 13862 net.cpp:408] res4b6_branch2b_relu <- res4b6_branch2b
I0926 19:11:58.068351 13862 net.cpp:369] res4b6_branch2b_relu -> res4b6_branch2b (in-place)
I0926 19:11:58.068564 13862 net.cpp:124] Setting up res4b6_branch2b_relu
I0926 19:11:58.068574 13862 net.cpp:131] Top shape: 8 256 18 31 (1142784)
I0926 19:11:58.068578 13862 net.cpp:139] Memory required for data: 4976385824
I0926 19:11:58.068583 13862 layer_factory.hpp:77] Creating layer res4b6_branch2c
I0926 19:11:58.068593 13862 net.cpp:86] Creating Layer res4b6_branch2c
I0926 19:11:58.068598 13862 net.cpp:408] res4b6_branch2c <- res4b6_branch2b
I0926 19:11:58.068604 13862 net.cpp:382] res4b6_branch2c -> res4b6_branch2c
I0926 19:11:58.071318 13862 net.cpp:124] Setting up res4b6_branch2c
I0926 19:11:58.071336 13862 net.cpp:131] Top shape: 8 1024 18 31 (4571136)
I0926 19:11:58.071341 13862 net.cpp:139] Memory required for data: 4994670368
I0926 19:11:58.071346 13862 layer_factory.hpp:77] Creating layer bn4b6_branch2c
I0926 19:11:58.071354 13862 net.cpp:86] Creating Layer bn4b6_branch2c
I0926 19:11:58.071358 13862 net.cpp:408] bn4b6_branch2c <- res4b6_branch2c
I0926 19:11:58.071367 13862 net.cpp:369] bn4b6_branch2c -> res4b6_branch2c (in-place)
I0926 19:11:58.071612 13862 net.cpp:124] Setting up bn4b6_branch2c
I0926 19:11:58.071621 13862 net.cpp:131] Top shape: 8 1024 18 31 (4571136)
I0926 19:11:58.071624 13862 net.cpp:139] Memory required for data: 5012954912
…
I0926 19:11:58.240207 13862 net.cpp:408] res4b21_branch2c <- res4b21_branch2b
I0926 19:11:58.240217 13862 net.cpp:382] res4b21_branch2c -> res4b21_branch2c
I0926 19:11:58.243289 13862 net.cpp:124] Setting up res4b21_branch2c
I0926 19:11:58.243306 13862 net.cpp:131] Top shape: 8 1024 18 31 (4571136)
I0926 19:11:58.243310 13862 net.cpp:139] Memory required for data: 7463083808
I0926 19:11:58.243316 13862 layer_factory.hpp:77] Creating layer bn4b21_branch2c
I0926 19:11:58.243326 13862 net.cpp:86] Creating Layer bn4b21_branch2c
I0926 19:11:58.243331 13862 net.cpp:408] bn4b21_branch2c <- res4b21_branch2c
I0926 19:11:58.243340 13862 net.cpp:369] bn4b21_branch2c -> res4b21_branch2c (in-place)
I0926 19:11:58.243661 13862 net.cpp:124] Setting up bn4b21_branch2c
I0926 19:11:58.243670 13862 net.cpp:131] Top shape: 8 1024 18 31 (4571136)
I0926 19:11:58.243674 13862 net.cpp:139] Memory required for data: 7481368352
I0926 19:11:58.243681 13862 layer_factory.hpp:77] Creating layer scale4b21_branch2c
I0926 19:11:58.243690 13862 net.cpp:86] Creating Layer scale4b21_branch2c
I0926 19:11:58.243695 13862 net.cpp:408] scale4b21_branch2c <- res4b21_branch2c
I0926 19:11:58.243700 13862 net.cpp:369] scale4b21_branch2c -> res4b21_branch2c (in-place)
I0926 19:11:58.243765 13862 layer_factory.hpp:77] Creating layer scale4b21_branch2c
I0926 19:11:58.243945 13862 net.cpp:124] Setting up scale4b21_branch2c
I0926 19:11:58.243953 13862 net.cpp:131] Top shape: 8 1024 18 31 (4571136)
I0926 19:11:58.243957 13862 net.cpp:139] Memory required for data: 7499652896
I0926 19:11:58.243965 13862 layer_factory.hpp:77] Creating layer res4b21
I0926 19:11:58.243973 13862 net.cpp:86] Creating Layer res4b21
I0926 19:11:58.243978 13862 net.cpp:408] res4b21 <- res4b20_res4b20_relu_0_split_1
I0926 19:11:58.243984 13862 net.cpp:408] res4b21 <- res4b21_branch2c
I0926 19:11:58.243989 13862 net.cpp:382] res4b21 -> res4b21
I0926 19:11:58.244029 13862 net.cpp:124] Setting up res4b21
I0926 19:11:58.244036 13862 net.cpp:131] Top shape: 8 1024 18 31 (4571136)
I0926 19:11:58.244040 13862 net.cpp:139] Memory required for data: 7517937440
I0926 19:11:58.244045 13862 layer_factory.hpp:77] Creating layer res4b21_relu
I0926 19:11:58.244050 13862 net.cpp:86] Creating Layer res4b21_relu
I0926 19:11:58.244053 13862 net.cpp:408] res4b21_relu <- res4b21
I0926 19:11:58.244061 13862 net.cpp:369] res4b21_relu -> res4b21 (in-place)
I0926 19:11:58.244287 13862 net.cpp:124] Setting up res4b21_relu
I0926 19:11:58.244297 13862 net.cpp:131] Top shape: 8 1024 18 31 (4571136)
I0926 19:11:58.244299 13862 net.cpp:139] Memory required for data: 7536221984
I0926 19:11:58.244304 13862 layer_factory.hpp:77] Creating layer res4b21_res4b21_relu_0_split
I0926 19:11:58.244313 13862 net.cpp:86] Creating Layer res4b21_res4b21_relu_0_split
I0926 19:11:58.244316 13862 net.cpp:408] res4b21_res4b21_relu_0_split <- res4b21
I0926 19:11:58.244328 13862 net.cpp:382] res4b21_res4b21_relu_0_split -> res4b21_res4b21_relu_0_split_0
I0926 19:11:58.244345 13862 net.cpp:382] res4b21_res4b21_relu_0_split -> res4b21_res4b21_relu_0_split_1
I0926 19:11:58.244411 13862 net.cpp:124] Setting up res4b21_res4b21_relu_0_split
I0926 19:11:58.244419 13862 net.cpp:131] Top shape: 8 1024 18 31 (4571136)
I0926 19:11:58.244423 13862 net.cpp:131] Top shape: 8 1024 18 31 (4571136)
I0926 19:11:58.244427 13862 net.cpp:139] Memory required for data: 7572791072
I0926 19:11:58.244432 13862 layer_factory.hpp:77] Creating layer res4b22_branch2a
I0926 19:11:58.244442 13862 net.cpp:86] Creating Layer res4b22_branch2a
I0926 19:11:58.244447 13862 net.cpp:408] res4b22_branch2a <- res4b21_res4b21_relu_0_split_0
I0926 19:11:58.244455 13862 net.cpp:382] res4b22_branch2a -> res4b22_branch2a
I0926 19:11:58.246107 13862 net.cpp:124] Setting up res4b22_branch2a
I0926 19:11:58.246122 13862 net.cpp:131] Top shape: 8 256 18 31 (1142784)
I0926 19:11:58.246126 13862 net.cpp:139] Memory required for data: 7577362208
I0926 19:11:58.246132 13862 layer_factory.hpp:77] Creating layer bn4b22_branch2a
I0926 19:11:58.246142 13862 net.cpp:86] Creating Layer bn4b22_branch2a
I0926 19:11:58.246147 13862 net.cpp:408] bn4b22_branch2a <- res4b22_branch2a
I0926 19:11:58.246155 13862 net.cpp:369] bn4b22_branch2a -> res4b22_branch2a (in-place)
I0926 19:11:58.246510 13862 net.cpp:124] Setting up bn4b22_branch2a
I0926 19:11:58.246520 13862 net.cpp:131] Top shape: 8 256 18 31 (1142784)
I0926 19:11:58.246525 13862 net.cpp:139] Memory required for data: 7581933344
I0926 19:11:58.246531 13862 layer_factory.hpp:77] Creating layer scale4b22_branch2a
I0926 19:11:58.246541 13862 net.cpp:86] Creating Layer scale4b22_branch2a
I0926 19:11:58.246546 13862 net.cpp:408] scale4b22_branch2a <- res4b22_branch2a
I0926 19:11:58.246552 13862 net.cpp:369] scale4b22_branch2a -> res4b22_branch2a (in-place)
I0926 19:11:58.246621 13862 layer_factory.hpp:77] Creating layer scale4b22_branch2a
I0926 19:11:58.246826 13862 net.cpp:124] Setting up scale4b22_branch2a
I0926 19:11:58.246834 13862 net.cpp:131] Top shape: 8 256 18 31 (1142784)
I0926 19:11:58.246839 13862 net.cpp:139] Memory required for data: 7586504480
I0926 19:11:58.246843 13862 layer_factory.hpp:77] Creating layer res4b22_branch2a_relu
I0926 19:11:58.246855 13862 net.cpp:86] Creating Layer res4b22_branch2a_relu
I0926 19:11:58.246860 13862 net.cpp:408] res4b22_branch2a_relu <- res4b22_branch2a
I0926 19:11:58.246865 13862 net.cpp:369] res4b22_branch2a_relu -> res4b22_branch2a (in-place)
I0926 19:11:58.247094 13862 net.cpp:124] Setting up res4b22_branch2a_relu
I0926 19:11:58.247105 13862 net.cpp:131] Top shape: 8 256 18 31 (1142784)
I0926 19:11:58.247108 13862 net.cpp:139] Memory required for data: 7591075616
I0926 19:11:58.247112 13862 layer_factory.hpp:77] Creating layer res4b22_branch2b
I0926 19:11:58.247124 13862 net.cpp:86] Creating Layer res4b22_branch2b
I0926 19:11:58.247129 13862 net.cpp:408] res4b22_branch2b <- res4b22_branch2a
I0926 19:11:58.247135 13862 net.cpp:382] res4b22_branch2b -> res4b22_branch2b
I0926 19:11:58.250931 13862 net.cpp:124] Setting up res4b22_branch2b
I0926 19:11:58.250947 13862 net.cpp:131] Top shape: 8 256 18 31 (1142784)
I0926 19:11:58.250952 13862 net.cpp:139] Memory required for data: 7595646752
I0926 19:11:58.250957 13862 layer_factory.hpp:77] Creating layer bn4b22_branch2b
I0926 19:11:58.250967 13862 net.cpp:86] Creating Layer bn4b22_branch2b
I0926 19:11:58.250972 13862 net.cpp:408] bn4b22_branch2b <- res4b22_branch2b
I0926 19:11:58.250978 13862 net.cpp:369] bn4b22_branch2b -> res4b22_branch2b (in-place)
I0926 19:11:58.251310 13862 net.cpp:124] Setting up bn4b22_branch2b
I0926 19:11:58.251319 13862 net.cpp:131] Top shape: 8 256 18 31 (1142784)
I0926 19:11:58.251322 13862 net.cpp:139] Memory required for data: 7600217888
I0926 19:11:58.251330 13862 layer_factory.hpp:77] Creating layer scale4b22_branch2b
I0926 19:11:58.251338 13862 net.cpp:86] Creating Layer scale4b22_branch2b
I0926 19:11:58.251341 13862 net.cpp:408] scale4b22_branch2b <- res4b22_branch2b
I0926 19:11:58.251353 13862 net.cpp:369] scale4b22_branch2b -> res4b22_branch2b (in-place)
I0926 19:11:58.251427 13862 layer_factory.hpp:77] Creating layer scale4b22_branch2b
I0926 19:11:58.251613 13862 net.cpp:124] Setting up scale4b22_branch2b
I0926 19:11:58.251621 13862 net.cpp:131] Top shape: 8 256 18 31 (1142784)
I0926 19:11:58.251624 13862 net.cpp:139] Memory required for data: 7604789024
I0926 19:11:58.251632 13862 layer_factory.hpp:77] Creating layer res4b22_branch2b_relu
I0926 19:11:58.251639 13862 net.cpp:86] Creating Layer res4b22_branch2b_relu
I0926 19:11:58.251643 13862 net.cpp:408] res4b22_branch2b_relu <- res4b22_branch2b
I0926 19:11:58.251651 13862 net.cpp:369] res4b22_branch2b_relu -> res4b22_branch2b (in-place)
I0926 19:11:58.252368 13862 net.cpp:124] Setting up res4b22_branch2b_relu
I0926 19:11:58.252383 13862 net.cpp:131] Top shape: 8 256 18 31 (1142784)
I0926 19:11:58.252387 13862 net.cpp:139] Memory required for data: 7609360160
I0926 19:11:58.252390 13862 layer_factory.hpp:77] Creating layer res4b22_branch2c
I0926 19:11:58.252403 13862 net.cpp:86] Creating Layer res4b22_branch2c
I0926 19:11:58.252406 13862 net.cpp:408] res4b22_branch2c <- res4b22_branch2b
I0926 19:11:58.252415 13862 net.cpp:382] res4b22_branch2c -> res4b22_branch2c
I0926 19:11:58.255491 13862 net.cpp:124] Setting up res4b22_branch2c
I0926 19:11:58.255506 13862 net.cpp:131] Top shape: 8 1024 18 31 (4571136)
I0926 19:11:58.255511 13862 net.cpp:139] Memory required for data: 7627644704
I0926 19:11:58.255517 13862 layer_factory.hpp:77] Creating layer bn4b22_branch2c
I0926 19:11:58.255527 13862 net.cpp:86] Creating Layer bn4b22_branch2c
I0926 19:11:58.255532 13862 net.cpp:408] bn4b22_branch2c <- res4b22_branch2c
I0926 19:11:58.255540 13862 net.cpp:369] bn4b22_branch2c -> res4b22_branch2c (in-place)
I0926 19:11:58.255862 13862 net.cpp:124] Setting up bn4b22_branch2c
I0926 19:11:58.255870 13862 net.cpp:131] Top shape: 8 1024 18 31 (4571136)
I0926 19:11:58.255875 13862 net.cpp:139] Memory required for data: 7645929248
I0926 19:11:58.255882 13862 layer_factory.hpp:77] Creating layer scale4b22_branch2c
I0926 19:11:58.255888 13862 net.cpp:86] Creating Layer scale4b22_branch2c
I0926 19:11:58.255892 13862 net.cpp:408] scale4b22_branch2c <- res4b22_branch2c
I0926 19:11:58.255900 13862 net.cpp:369] scale4b22_branch2c -> res4b22_branch2c (in-place)
I0926 19:11:58.255964 13862 layer_factory.hpp:77] Creating layer scale4b22_branch2c
I0926 19:11:58.256145 13862 net.cpp:124] Setting up scale4b22_branch2c
I0926 19:11:58.256156 13862 net.cpp:131] Top shape: 8 1024 18 31 (4571136)
I0926 19:11:58.256160 13862 net.cpp:139] Memory required for data: 7664213792
I0926 19:11:58.256168 13862 layer_factory.hpp:77] Creating layer res4b22
I0926 19:11:58.256175 13862 net.cpp:86] Creating Layer res4b22
I0926 19:11:58.256178 13862 net.cpp:408] res4b22 <- res4b21_res4b21_relu_0_split_1
I0926 19:11:58.256184 13862 net.cpp:408] res4b22 <- res4b22_branch2c
I0926 19:11:58.256191 13862 net.cpp:382] res4b22 -> res4b22
I0926 19:11:58.256230 13862 net.cpp:124] Setting up res4b22
I0926 19:11:58.256237 13862 net.cpp:131] Top shape: 8 1024 18 31 (4571136)
I0926 19:11:58.256242 13862 net.cpp:139] Memory required for data: 7682498336
I0926 19:11:58.256245 13862 layer_factory.hpp:77] Creating layer res4b22_relu
I0926 19:11:58.256250 13862 net.cpp:86] Creating Layer res4b22_relu
I0926 19:11:58.256255 13862 net.cpp:408] res4b22_relu <- res4b22
I0926 19:11:58.256263 13862 net.cpp:369] res4b22_relu -> res4b22 (in-place)
I0926 19:11:58.256494 13862 net.cpp:124] Setting up res4b22_relu
I0926 19:11:58.256505 13862 net.cpp:131] Top shape: 8 1024 18 31 (4571136)
I0926 19:11:58.256508 13862 net.cpp:139] Memory required for data: 7700782880
I0926 19:11:58.256513 13862 layer_factory.hpp:77] Creating layer res4b22_res4b22_relu_0_split
I0926 19:11:58.256520 13862 net.cpp:86] Creating Layer res4b22_res4b22_relu_0_split
I0926 19:11:58.256523 13862 net.cpp:408] res4b22_res4b22_relu_0_split <- res4b22
I0926 19:11:58.256530 13862 net.cpp:382] res4b22_res4b22_relu_0_split -> res4b22_res4b22_relu_0_split_0
I0926 19:11:58.256546 13862 net.cpp:382] res4b22_res4b22_relu_0_split -> res4b22_res4b22_relu_0_split_1
I0926 19:11:58.256558 13862 net.cpp:382] res4b22_res4b22_relu_0_split -> res4b22_res4b22_relu_0_split_2
I0926 19:11:58.256647 13862 net.cpp:124] Setting up res4b22_res4b22_relu_0_split
I0926 19:11:58.256659 13862 net.cpp:131] Top shape: 8 1024 18 31 (4571136)
I0926 19:11:58.256664 13862 net.cpp:131] Top shape: 8 1024 18 31 (4571136)
I0926 19:11:58.256669 13862 net.cpp:131] Top shape: 8 1024 18 31 (4571136)
I0926 19:11:58.256671 13862 net.cpp:139] Memory required for data: 7755636512
I0926 19:11:58.256676 13862 layer_factory.hpp:77] Creating layer res5a_branch1
I0926 19:11:58.256685 13862 net.cpp:86] Creating Layer res5a_branch1
I0926 19:11:58.256690 13862 net.cpp:408] res5a_branch1 <- res4b22_res4b22_relu_0_split_0
I0926 19:11:58.256700 13862 net.cpp:382] res5a_branch1 -> res5a_branch1
I0926 19:11:58.263345 13862 net.cpp:124] Setting up res5a_branch1
I0926 19:11:58.263365 13862 net.cpp:131] Top shape: 8 2048 9 16 (2359296)
I0926 19:11:58.263368 13862 net.cpp:139] Memory required for data: 7765073696
I0926 19:11:58.263375 13862 layer_factory.hpp:77] Creating layer bn5a_branch1
I0926 19:11:58.263381 13862 net.cpp:86] Creating Layer bn5a_branch1
I0926 19:11:58.263386 13862 net.cpp:408] bn5a_branch1 <- res5a_branch1
I0926 19:11:58.263394 13862 net.cpp:369] bn5a_branch1 -> res5a_branch1 (in-place)
I0926 19:11:58.263736 13862 net.cpp:124] Setting up bn5a_branch1
I0926 19:11:58.263744 13862 net.cpp:131] Top shape: 8 2048 9 16 (2359296)
I0926 19:11:58.263748 13862 net.cpp:139] Memory required for data: 7774510880
I0926 19:11:58.263756 13862 layer_factory.hpp:77] Creating layer scale5a_branch1
I0926 19:11:58.263761 13862 net.cpp:86] Creating Layer scale5a_branch1
I0926 19:11:58.263765 13862 net.cpp:408] scale5a_branch1 <- res5a_branch1
I0926 19:11:58.263773 13862 net.cpp:369] scale5a_branch1 -> res5a_branch1 (in-place)
I0926 19:11:58.263831 13862 layer_factory.hpp:77] Creating layer scale5a_branch1
I0926 19:11:58.264021 13862 net.cpp:124] Setting up scale5a_branch1
I0926 19:11:58.264029 13862 net.cpp:131] Top shape: 8 2048 9 16 (2359296)
I0926 19:11:58.264034 13862 net.cpp:139] Memory required for data: 7783948064
I0926 19:11:58.264039 13862 layer_factory.hpp:77] Creating layer res5a_branch2a
I0926 19:11:58.264051 13862 net.cpp:86] Creating Layer res5a_branch2a
I0926 19:11:58.264055 13862 net.cpp:408] res5a_branch2a <- res4b22_res4b22_relu_0_split_1
I0926 19:11:58.264065 13862 net.cpp:382] res5a_branch2a -> res5a_branch2a
I0926 19:11:58.267310 13862 net.cpp:124] Setting up res5a_branch2a
I0926 19:11:58.267326 13862 net.cpp:131] Top shape: 8 512 9 16 (589824)
I0926 19:11:58.267330 13862 net.cpp:139] Memory required for data: 7786307360
I0926 19:11:58.267336 13862 layer_factory.hpp:77] Creating layer bn5a_branch2a
I0926 19:11:58.267346 13862 net.cpp:86] Creating Layer bn5a_branch2a
I0926 19:11:58.267351 13862 net.cpp:408] bn5a_branch2a <- res5a_branch2a
I0926 19:11:58.267357 13862 net.cpp:369] bn5a_branch2a -> res5a_branch2a (in-place)
I0926 19:11:58.267689 13862 net.cpp:124] Setting up bn5a_branch2a
I0926 19:11:58.267699 13862 net.cpp:131] Top shape: 8 512 9 16 (589824)
I0926 19:11:58.267701 13862 net.cpp:139] Memory required for data: 7788666656
I0926 19:11:58.267709 13862 layer_factory.hpp:77] Creating layer scale5a_branch2a
I0926 19:11:58.267717 13862 net.cpp:86] Creating Layer scale5a_branch2a
I0926 19:11:58.267722 13862 net.cpp:408] scale5a_branch2a <- res5a_branch2a
I0926 19:11:58.267727 13862 net.cpp:369] scale5a_branch2a -> res5a_branch2a (in-place)
I0926 19:11:58.267786 13862 layer_factory.hpp:77] Creating layer scale5a_branch2a
I0926 19:11:58.267972 13862 net.cpp:124] Setting up scale5a_branch2a
I0926 19:11:58.267980 13862 net.cpp:131] Top shape: 8 512 9 16 (589824)
I0926 19:11:58.267983 13862 net.cpp:139] Memory required for data: 7791025952
I0926 19:11:58.267988 13862 layer_factory.hpp:77] Creating layer res5a_branch2a_relu
I0926 19:11:58.267998 13862 net.cpp:86] Creating Layer res5a_branch2a_relu
I0926 19:11:58.268008 13862 net.cpp:408] res5a_branch2a_relu <- res5a_branch2a
I0926 19:11:58.268020 13862 net.cpp:369] res5a_branch2a_relu -> res5a_branch2a (in-place)
I0926 19:11:58.268249 13862 net.cpp:124] Setting up res5a_branch2a_relu
I0926 19:11:58.268259 13862 net.cpp:131] Top shape: 8 512 9 16 (589824)
I0926 19:11:58.268262 13862 net.cpp:139] Memory required for data: 7793385248
I0926 19:11:58.268268 13862 layer_factory.hpp:77] Creating layer res5a_branch2b
I0926 19:11:58.268278 13862 net.cpp:86] Creating Layer res5a_branch2b
I0926 19:11:58.268283 13862 net.cpp:408] res5a_branch2b <- res5a_branch2a
I0926 19:11:58.268291 13862 net.cpp:382] res5a_branch2b -> res5a_branch2b
I0926 19:11:58.275455 13862 net.cpp:124] Setting up res5a_branch2b
I0926 19:11:58.275475 13862 net.cpp:131] Top shape: 8 512 9 16 (589824)
I0926 19:11:58.275480 13862 net.cpp:139] Memory required for data: 7795744544
I0926 19:11:58.275485 13862 layer_factory.hpp:77] Creating layer bn5a_branch2b
I0926 19:11:58.275496 13862 net.cpp:86] Creating Layer bn5a_branch2b
I0926 19:11:58.275501 13862 net.cpp:408] bn5a_branch2b <- res5a_branch2b
I0926 19:11:58.275506 13862 net.cpp:369] bn5a_branch2b -> res5a_branch2b (in-place)
I0926 19:11:58.275833 13862 net.cpp:124] Setting up bn5a_branch2b
I0926 19:11:58.275842 13862 net.cpp:131] Top shape: 8 512 9 16 (589824)
I0926 19:11:58.275846 13862 net.cpp:139] Memory required for data: 7798103840
I0926 19:11:58.275853 13862 layer_factory.hpp:77] Creating layer scale5a_branch2b
I0926 19:11:58.275862 13862 net.cpp:86] Creating Layer scale5a_branch2b
I0926 19:11:58.275866 13862 net.cpp:408] scale5a_branch2b <- res5a_branch2b
I0926 19:11:58.275871 13862 net.cpp:369] scale5a_branch2b -> res5a_branch2b (in-place)
I0926 19:11:58.275933 13862 layer_factory.hpp:77] Creating layer scale5a_branch2b
I0926 19:11:58.276125 13862 net.cpp:124] Setting up scale5a_branch2b
I0926 19:11:58.276134 13862 net.cpp:131] Top shape: 8 512 9 16 (589824)
I0926 19:11:58.276137 13862 net.cpp:139] Memory required for data: 7800463136
I0926 19:11:58.276144 13862 layer_factory.hpp:77] Creating layer res5a_branch2b_relu
I0926 19:11:58.276149 13862 net.cpp:86] Creating Layer res5a_branch2b_relu
I0926 19:11:58.276154 13862 net.cpp:408] res5a_branch2b_relu <- res5a_branch2b
I0926 19:11:58.276160 13862 net.cpp:369] res5a_branch2b_relu -> res5a_branch2b (in-place)
I0926 19:11:58.276906 13862 net.cpp:124] Setting up res5a_branch2b_relu
I0926 19:11:58.276921 13862 net.cpp:131] Top shape: 8 512 9 16 (589824)
I0926 19:11:58.276924 13862 net.cpp:139] Memory required for data: 7802822432
I0926 19:11:58.276931 13862 layer_factory.hpp:77] Creating layer res5a_branch2c
I0926 19:11:58.276942 13862 net.cpp:86] Creating Layer res5a_branch2c
I0926 19:11:58.276947 13862 net.cpp:408] res5a_branch2c <- res5a_branch2b
I0926 19:11:58.276952 13862 net.cpp:382] res5a_branch2c -> res5a_branch2c
I0926 19:11:58.281307 13862 net.cpp:124] Setting up res5a_branch2c
I0926 19:11:58.281324 13862 net.cpp:131] Top shape: 8 2048 9 16 (2359296)
I0926 19:11:58.281328 13862 net.cpp:139] Memory required for data: 7812259616
I0926 19:11:58.281334 13862 layer_factory.hpp:77] Creating layer bn5a_branch2c
I0926 19:11:58.281344 13862 net.cpp:86] Creating Layer bn5a_branch2c
I0926 19:11:58.281349 13862 net.cpp:408] bn5a_branch2c <- res5a_branch2c
I0926 19:11:58.281355 13862 net.cpp:369] bn5a_branch2c -> res5a_branch2c (in-place)
I0926 19:11:58.281694 13862 net.cpp:124] Setting up bn5a_branch2c
I0926 19:11:58.281702 13862 net.cpp:131] Top shape: 8 2048 9 16 (2359296)
I0926 19:11:58.281708 13862 net.cpp:139] Memory required for data: 7821696800
I0926 19:11:58.281713 13862 layer_factory.hpp:77] Creating layer scale5a_branch2c
I0926 19:11:58.281720 13862 net.cpp:86] Creating Layer scale5a_branch2c
I0926 19:11:58.281725 13862 net.cpp:408] scale5a_branch2c <- res5a_branch2c
I0926 19:11:58.281733 13862 net.cpp:369] scale5a_branch2c -> res5a_branch2c (in-place)
I0926 19:11:58.281793 13862 layer_factory.hpp:77] Creating layer scale5a_branch2c
I0926 19:11:58.281986 13862 net.cpp:124] Setting up scale5a_branch2c
I0926 19:11:58.281999 13862 net.cpp:131] Top shape: 8 2048 9 16 (2359296)
I0926 19:11:58.282011 13862 net.cpp:139] Memory required for data: 7831133984
I0926 19:11:58.282018 13862 layer_factory.hpp:77] Creating layer res5a
I0926 19:11:58.282025 13862 net.cpp:86] Creating Layer res5a
I0926 19:11:58.282029 13862 net.cpp:408] res5a <- res5a_branch1
I0926 19:11:58.282034 13862 net.cpp:408] res5a <- res5a_branch2c
I0926 19:11:58.282042 13862 net.cpp:382] res5a -> res5a
I0926 19:11:58.282081 13862 net.cpp:124] Setting up res5a
I0926 19:11:58.282090 13862 net.cpp:131] Top shape: 8 2048 9 16 (2359296)
I0926 19:11:58.282095 13862 net.cpp:139] Memory required for data: 7840571168
I0926 19:11:58.282099 13862 layer_factory.hpp:77] Creating layer res5a_relu
I0926 19:11:58.282104 13862 net.cpp:86] Creating Layer res5a_relu
I0926 19:11:58.282109 13862 net.cpp:408] res5a_relu <- res5a
I0926 19:11:58.282114 13862 net.cpp:369] res5a_relu -> res5a (in-place)
I0926 19:11:58.282342 13862 net.cpp:124] Setting up res5a_relu
I0926 19:11:58.282352 13862 net.cpp:131] Top shape: 8 2048 9 16 (2359296)
I0926 19:11:58.282356 13862 net.cpp:139] Memory required for data: 7850008352
I0926 19:11:58.282361 13862 layer_factory.hpp:77] Creating layer res5a_res5a_relu_0_split
I0926 19:11:58.282366 13862 net.cpp:86] Creating Layer res5a_res5a_relu_0_split
I0926 19:11:58.282371 13862 net.cpp:408] res5a_res5a_relu_0_split <- res5a
I0926 19:11:58.282378 13862 net.cpp:382] res5a_res5a_relu_0_split -> res5a_res5a_relu_0_split_0
I0926 19:11:58.282387 13862 net.cpp:382] res5a_res5a_relu_0_split -> res5a_res5a_relu_0_split_1
I0926 19:11:58.282452 13862 net.cpp:124] Setting up res5a_res5a_relu_0_split
I0926 19:11:58.282460 13862 net.cpp:131] Top shape: 8 2048 9 16 (2359296)
I0926 19:11:58.282464 13862 net.cpp:131] Top shape: 8 2048 9 16 (2359296)
I0926 19:11:58.282469 13862 net.cpp:139] Memory required for data: 7868882720
I0926 19:11:58.282481 13862 layer_factory.hpp:77] Creating layer res5b_branch2a
I0926 19:11:58.282493 13862 net.cpp:86] Creating Layer res5b_branch2a
I0926 19:11:58.282498 13862 net.cpp:408] res5b_branch2a <- res5a_res5a_relu_0_split_0
I0926 19:11:58.282505 13862 net.cpp:382] res5b_branch2a -> res5b_branch2a
I0926 19:11:58.286854 13862 net.cpp:124] Setting up res5b_branch2a
I0926 19:11:58.286870 13862 net.cpp:131] Top shape: 8 512 9 16 (589824)
I0926 19:11:58.286873 13862 net.cpp:139] Memory required for data: 7871242016
I0926 19:11:58.286882 13862 layer_factory.hpp:77] Creating layer bn5b_branch2a
I0926 19:11:58.286891 13862 net.cpp:86] Creating Layer bn5b_branch2a
I0926 19:11:58.286896 13862 net.cpp:408] bn5b_branch2a <- res5b_branch2a
I0926 19:11:58.286902 13862 net.cpp:369] bn5b_branch2a -> res5b_branch2a (in-place)
I0926 19:11:58.287235 13862 net.cpp:124] Setting up bn5b_branch2a
I0926 19:11:58.287242 13862 net.cpp:131] Top shape: 8 512 9 16 (589824)
I0926 19:11:58.287246 13862 net.cpp:139] Memory required for data: 7873601312
I0926 19:11:58.287253 13862 layer_factory.hpp:77] Creating layer scale5b_branch2a
I0926 19:11:58.287262 13862 net.cpp:86] Creating Layer scale5b_branch2a
I0926 19:11:58.287266 13862 net.cpp:408] scale5b_branch2a <- res5b_branch2a
I0926 19:11:58.287273 13862 net.cpp:369] scale5b_branch2a -> res5b_branch2a (in-place)
I0926 19:11:58.287336 13862 layer_factory.hpp:77] Creating layer scale5b_branch2a
I0926 19:11:58.287530 13862 net.cpp:124] Setting up scale5b_branch2a
I0926 19:11:58.287539 13862 net.cpp:131] Top shape: 8 512 9 16 (589824)
I0926 19:11:58.287542 13862 net.cpp:139] Memory required for data: 7875960608
I0926 19:11:58.287547 13862 layer_factory.hpp:77] Creating layer res5b_branch2a_relu
I0926 19:11:58.287554 13862 net.cpp:86] Creating Layer res5b_branch2a_relu
I0926 19:11:58.287559 13862 net.cpp:408] res5b_branch2a_relu <- res5b_branch2a
I0926 19:11:58.287565 13862 net.cpp:369] res5b_branch2a_relu -> res5b_branch2a (in-place)
I0926 19:11:58.287796 13862 net.cpp:124] Setting up res5b_branch2a_relu
I0926 19:11:58.287806 13862 net.cpp:131] Top shape: 8 512 9 16 (589824)
I0926 19:11:58.287809 13862 net.cpp:139] Memory required for data: 7878319904
I0926 19:11:58.287819 13862 layer_factory.hpp:77] Creating layer res5b_branch2b
I0926 19:11:58.287837 13862 net.cpp:86] Creating Layer res5b_branch2b
I0926 19:11:58.287842 13862 net.cpp:408] res5b_branch2b <- res5b_branch2a
I0926 19:11:58.287848 13862 net.cpp:382] res5b_branch2b -> res5b_branch2b
I0926 19:11:58.295137 13862 net.cpp:124] Setting up res5b_branch2b
I0926 19:11:58.295153 13862 net.cpp:131] Top shape: 8 512 9 16 (589824)
I0926 19:11:58.295158 13862 net.cpp:139] Memory required for data: 7880679200
I0926 19:11:58.295164 13862 layer_factory.hpp:77] Creating layer bn5b_branch2b
I0926 19:11:58.295176 13862 net.cpp:86] Creating Layer bn5b_branch2b
I0926 19:11:58.295181 13862 net.cpp:408] bn5b_branch2b <- res5b_branch2b
I0926 19:11:58.295188 13862 net.cpp:369] bn5b_branch2b -> res5b_branch2b (in-place)
I0926 19:11:58.295523 13862 net.cpp:124] Setting up bn5b_branch2b
I0926 19:11:58.295531 13862 net.cpp:131] Top shape: 8 512 9 16 (589824)
I0926 19:11:58.295536 13862 net.cpp:139] Memory required for data: 7883038496
I0926 19:11:58.295542 13862 layer_factory.hpp:77] Creating layer scale5b_branch2b
I0926 19:11:58.295549 13862 net.cpp:86] Creating Layer scale5b_branch2b
I0926 19:11:58.295553 13862 net.cpp:408] scale5b_branch2b <- res5b_branch2b
I0926 19:11:58.295557 13862 net.cpp:369] scale5b_branch2b -> res5b_branch2b (in-place)
I0926 19:11:58.295619 13862 layer_factory.hpp:77] Creating layer scale5b_branch2b
I0926 19:11:58.295809 13862 net.cpp:124] Setting up scale5b_branch2b
I0926 19:11:58.295817 13862 net.cpp:131] Top shape: 8 512 9 16 (589824)
I0926 19:11:58.295821 13862 net.cpp:139] Memory required for data: 7885397792
I0926 19:11:58.295830 13862 layer_factory.hpp:77] Creating layer res5b_branch2b_relu
I0926 19:11:58.295838 13862 net.cpp:86] Creating Layer res5b_branch2b_relu
I0926 19:11:58.295842 13862 net.cpp:408] res5b_branch2b_relu <- res5b_branch2b
I0926 19:11:58.295847 13862 net.cpp:369] res5b_branch2b_relu -> res5b_branch2b (in-place)
I0926 19:11:58.296594 13862 net.cpp:124] Setting up res5b_branch2b_relu
I0926 19:11:58.296608 13862 net.cpp:131] Top shape: 8 512 9 16 (589824)
I0926 19:11:58.296612 13862 net.cpp:139] Memory required for data: 7887757088
I0926 19:11:58.296617 13862 layer_factory.hpp:77] Creating layer res5b_branch2c
I0926 19:11:58.296627 13862 net.cpp:86] Creating Layer res5b_branch2c
I0926 19:11:58.296633 13862 net.cpp:408] res5b_branch2c <- res5b_branch2b
I0926 19:11:58.296640 13862 net.cpp:382] res5b_branch2c -> res5b_branch2c
I0926 19:11:58.301076 13862 net.cpp:124] Setting up res5b_branch2c
I0926 19:11:58.301095 13862 net.cpp:131] Top shape: 8 2048 9 16 (2359296)
I0926 19:11:58.301100 13862 net.cpp:139] Memory required for data: 7897194272
I0926 19:11:58.301105 13862 layer_factory.hpp:77] Creating layer bn5b_branch2c
I0926 19:11:58.301112 13862 net.cpp:86] Creating Layer bn5b_branch2c
I0926 19:11:58.301118 13862 net.cpp:408] bn5b_branch2c <- res5b_branch2c
I0926 19:11:58.301126 13862 net.cpp:369] bn5b_branch2c -> res5b_branch2c (in-place)
I0926 19:11:58.301466 13862 net.cpp:124] Setting up bn5b_branch2c
I0926 19:11:58.301476 13862 net.cpp:131] Top shape: 8 2048 9 16 (2359296)
I0926 19:11:58.301479 13862 net.cpp:139] Memory required for data: 7906631456
I0926 19:11:58.301486 13862 layer_factory.hpp:77] Creating layer scale5b_branch2c
I0926 19:11:58.301497 13862 net.cpp:86] Creating Layer scale5b_branch2c
I0926 19:11:58.301502 13862 net.cpp:408] scale5b_branch2c <- res5b_branch2c
I0926 19:11:58.301507 13862 net.cpp:369] scale5b_branch2c -> res5b_branch2c (in-place)
I0926 19:11:58.301571 13862 layer_factory.hpp:77] Creating layer scale5b_branch2c
I0926 19:11:58.301769 13862 net.cpp:124] Setting up scale5b_branch2c
I0926 19:11:58.301776 13862 net.cpp:131] Top shape: 8 2048 9 16 (2359296)
I0926 19:11:58.301780 13862 net.cpp:139] Memory required for data: 7916068640
I0926 19:11:58.301786 13862 layer_factory.hpp:77] Creating layer res5b
I0926 19:11:58.301795 13862 net.cpp:86] Creating Layer res5b
I0926 19:11:58.301798 13862 net.cpp:408] res5b <- res5a_res5a_relu_0_split_1
I0926 19:11:58.301810 13862 net.cpp:408] res5b <- res5b_branch2c
I0926 19:11:58.301822 13862 net.cpp:382] res5b -> res5b
I0926 19:11:58.301863 13862 net.cpp:124] Setting up res5b
I0926 19:11:58.301872 13862 net.cpp:131] Top shape: 8 2048 9 16 (2359296)
I0926 19:11:58.301875 13862 net.cpp:139] Memory required for data: 7925505824
I0926 19:11:58.301879 13862 layer_factory.hpp:77] Creating layer res5b_relu
I0926 19:11:58.301884 13862 net.cpp:86] Creating Layer res5b_relu
I0926 19:11:58.301888 13862 net.cpp:408] res5b_relu <- res5b
I0926 19:11:58.301898 13862 net.cpp:369] res5b_relu -> res5b (in-place)
I0926 19:11:58.302126 13862 net.cpp:124] Setting up res5b_relu
I0926 19:11:58.302136 13862 net.cpp:131] Top shape: 8 2048 9 16 (2359296)
I0926 19:11:58.302140 13862 net.cpp:139] Memory required for data: 7934943008
I0926 19:11:58.302145 13862 layer_factory.hpp:77] Creating layer res5b_res5b_relu_0_split
I0926 19:11:58.302152 13862 net.cpp:86] Creating Layer res5b_res5b_relu_0_split
I0926 19:11:58.302157 13862 net.cpp:408] res5b_res5b_relu_0_split <- res5b
I0926 19:11:58.302162 13862 net.cpp:382] res5b_res5b_relu_0_split -> res5b_res5b_relu_0_split_0
I0926 19:11:58.302172 13862 net.cpp:382] res5b_res5b_relu_0_split -> res5b_res5b_relu_0_split_1
I0926 19:11:58.302238 13862 net.cpp:124] Setting up res5b_res5b_relu_0_split
I0926 19:11:58.302247 13862 net.cpp:131] Top shape: 8 2048 9 16 (2359296)
I0926 19:11:58.302250 13862 net.cpp:131] Top shape: 8 2048 9 16 (2359296)
I0926 19:11:58.302254 13862 net.cpp:139] Memory required for data: 7953817376
I0926 19:11:58.302258 13862 layer_factory.hpp:77] Creating layer res5c_branch2a
I0926 19:11:58.302268 13862 net.cpp:86] Creating Layer res5c_branch2a
I0926 19:11:58.302273 13862 net.cpp:408] res5c_branch2a <- res5b_res5b_relu_0_split_0
I0926 19:11:58.302280 13862 net.cpp:382] res5c_branch2a -> res5c_branch2a
I0926 19:11:58.306759 13862 net.cpp:124] Setting up res5c_branch2a
I0926 19:11:58.306777 13862 net.cpp:131] Top shape: 8 512 9 16 (589824)
I0926 19:11:58.306780 13862 net.cpp:139] Memory required for data: 7956176672
I0926 19:11:58.306787 13862 layer_factory.hpp:77] Creating layer bn5c_branch2a
I0926 19:11:58.306797 13862 net.cpp:86] Creating Layer bn5c_branch2a
I0926 19:11:58.306800 13862 net.cpp:408] bn5c_branch2a <- res5c_branch2a
I0926 19:11:58.306808 13862 net.cpp:369] bn5c_branch2a -> res5c_branch2a (in-place)
I0926 19:11:58.307150 13862 net.cpp:124] Setting up bn5c_branch2a
I0926 19:11:58.307159 13862 net.cpp:131] Top shape: 8 512 9 16 (589824)
I0926 19:11:58.307163 13862 net.cpp:139] Memory required for data: 7958535968
I0926 19:11:58.307173 13862 layer_factory.hpp:77] Creating layer scale5c_branch2a
I0926 19:11:58.307180 13862 net.cpp:86] Creating Layer scale5c_branch2a
I0926 19:11:58.307185 13862 net.cpp:408] scale5c_branch2a <- res5c_branch2a
I0926 19:11:58.307190 13862 net.cpp:369] scale5c_branch2a -> res5c_branch2a (in-place)
I0926 19:11:58.307253 13862 layer_factory.hpp:77] Creating layer scale5c_branch2a
I0926 19:11:58.307448 13862 net.cpp:124] Setting up scale5c_branch2a
I0926 19:11:58.307456 13862 net.cpp:131] Top shape: 8 512 9 16 (589824)
I0926 19:11:58.307459 13862 net.cpp:139] Memory required for data: 7960895264
I0926 19:11:58.307466 13862 layer_factory.hpp:77] Creating layer res5c_branch2a_relu
I0926 19:11:58.307473 13862 net.cpp:86] Creating Layer res5c_branch2a_relu
I0926 19:11:58.307477 13862 net.cpp:408] res5c_branch2a_relu <- res5c_branch2a
I0926 19:11:58.307482 13862 net.cpp:369] res5c_branch2a_relu -> res5c_branch2a (in-place)
I0926 19:11:58.307711 13862 net.cpp:124] Setting up res5c_branch2a_relu
I0926 19:11:58.307724 13862 net.cpp:131] Top shape: 8 512 9 16 (589824)
I0926 19:11:58.307727 13862 net.cpp:139] Memory required for data: 7963254560
I0926 19:11:58.307731 13862 layer_factory.hpp:77] Creating layer res5c_branch2b
I0926 19:11:58.307739 13862 net.cpp:86] Creating Layer res5c_branch2b
I0926 19:11:58.307744 13862 net.cpp:408] res5c_branch2b <- res5c_branch2a
I0926 19:11:58.307752 13862 net.cpp:382] res5c_branch2b -> res5c_branch2b
I0926 19:11:58.315172 13862 net.cpp:124] Setting up res5c_branch2b
I0926 19:11:58.315198 13862 net.cpp:131] Top shape: 8 512 9 16 (589824)
I0926 19:11:58.315203 13862 net.cpp:139] Memory required for data: 7965613856
I0926 19:11:58.315212 13862 layer_factory.hpp:77] Creating layer bn5c_branch2b
I0926 19:11:58.315219 13862 net.cpp:86] Creating Layer bn5c_branch2b
I0926 19:11:58.315224 13862 net.cpp:408] bn5c_branch2b <- res5c_branch2b
I0926 19:11:58.315233 13862 net.cpp:369] bn5c_branch2b -> res5c_branch2b (in-place)
I0926 19:11:58.315573 13862 net.cpp:124] Setting up bn5c_branch2b
I0926 19:11:58.315582 13862 net.cpp:131] Top shape: 8 512 9 16 (589824)
I0926 19:11:58.315587 13862 net.cpp:139] Memory required for data: 7967973152
I0926 19:11:58.315593 13862 layer_factory.hpp:77] Creating layer scale5c_branch2b
I0926 19:11:58.315600 13862 net.cpp:86] Creating Layer scale5c_branch2b
I0926 19:11:58.315604 13862 net.cpp:408] scale5c_branch2b <- res5c_branch2b
I0926 19:11:58.315611 13862 net.cpp:369] scale5c_branch2b -> res5c_branch2b (in-place)
I0926 19:11:58.315671 13862 layer_factory.hpp:77] Creating layer scale5c_branch2b
I0926 19:11:58.315867 13862 net.cpp:124] Setting up scale5c_branch2b
I0926 19:11:58.315876 13862 net.cpp:131] Top shape: 8 512 9 16 (589824)
I0926 19:11:58.315879 13862 net.cpp:139] Memory required for data: 7970332448
I0926 19:11:58.315886 13862 layer_factory.hpp:77] Creating layer res5c_branch2b_relu
I0926 19:11:58.315893 13862 net.cpp:86] Creating Layer res5c_branch2b_relu
I0926 19:11:58.315897 13862 net.cpp:408] res5c_branch2b_relu <- res5c_branch2b
I0926 19:11:58.315903 13862 net.cpp:369] res5c_branch2b_relu -> res5c_branch2b (in-place)
I0926 19:11:58.316134 13862 net.cpp:124] Setting up res5c_branch2b_relu
I0926 19:11:58.316144 13862 net.cpp:131] Top shape: 8 512 9 16 (589824)
I0926 19:11:58.316148 13862 net.cpp:139] Memory required for data: 7972691744
I0926 19:11:58.316153 13862 layer_factory.hpp:77] Creating layer res5c_branch2c
I0926 19:11:58.316162 13862 net.cpp:86] Creating Layer res5c_branch2c
I0926 19:11:58.316167 13862 net.cpp:408] res5c_branch2c <- res5c_branch2b
I0926 19:11:58.316175 13862 net.cpp:382] res5c_branch2c -> res5c_branch2c
I0926 19:11:58.321142 13862 net.cpp:124] Setting up res5c_branch2c
I0926 19:11:58.321159 13862 net.cpp:131] Top shape: 8 2048 9 16 (2359296)
I0926 19:11:58.321163 13862 net.cpp:139] Memory required for data: 7982128928
I0926 19:11:58.321169 13862 layer_factory.hpp:77] Creating layer bn5c_branch2c
I0926 19:11:58.321178 13862 net.cpp:86] Creating Layer bn5c_branch2c
I0926 19:11:58.321184 13862 net.cpp:408] bn5c_branch2c <- res5c_branch2c
I0926 19:11:58.321192 13862 net.cpp:369] bn5c_branch2c -> res5c_branch2c (in-place)
I0926 19:11:58.321538 13862 net.cpp:124] Setting up bn5c_branch2c
I0926 19:11:58.321547 13862 net.cpp:131] Top shape: 8 2048 9 16 (2359296)
I0926 19:11:58.321552 13862 net.cpp:139] Memory required for data: 7991566112
I0926 19:11:58.321558 13862 layer_factory.hpp:77] Creating layer scale5c_branch2c
I0926 19:11:58.321565 13862 net.cpp:86] Creating Layer scale5c_branch2c
I0926 19:11:58.321569 13862 net.cpp:408] scale5c_branch2c <- res5c_branch2c
I0926 19:11:58.321574 13862 net.cpp:369] scale5c_branch2c -> res5c_branch2c (in-place)
I0926 19:11:58.321638 13862 layer_factory.hpp:77] Creating layer scale5c_branch2c
I0926 19:11:58.321837 13862 net.cpp:124] Setting up scale5c_branch2c
I0926 19:11:58.321846 13862 net.cpp:131] Top shape: 8 2048 9 16 (2359296)
I0926 19:11:58.321849 13862 net.cpp:139] Memory required for data: 8001003296
I0926 19:11:58.321856 13862 layer_factory.hpp:77] Creating layer res5c
I0926 19:11:58.321863 13862 net.cpp:86] Creating Layer res5c
I0926 19:11:58.321867 13862 net.cpp:408] res5c <- res5b_res5b_relu_0_split_1
I0926 19:11:58.321873 13862 net.cpp:408] res5c <- res5c_branch2c
I0926 19:11:58.321878 13862 net.cpp:382] res5c -> res5c
I0926 19:11:58.321918 13862 net.cpp:124] Setting up res5c
I0926 19:11:58.321926 13862 net.cpp:131] Top shape: 8 2048 9 16 (2359296)
I0926 19:11:58.321930 13862 net.cpp:139] Memory required for data: 8010440480
I0926 19:11:58.321939 13862 layer_factory.hpp:77] Creating layer res5c_relu
I0926 19:11:58.321952 13862 net.cpp:86] Creating Layer res5c_relu
I0926 19:11:58.321956 13862 net.cpp:408] res5c_relu <- res5c
I0926 19:11:58.321964 13862 net.cpp:369] res5c_relu -> res5c (in-place)
I0926 19:11:58.322741 13862 net.cpp:124] Setting up res5c_relu
I0926 19:11:58.322757 13862 net.cpp:131] Top shape: 8 2048 9 16 (2359296)
I0926 19:11:58.322760 13862 net.cpp:139] Memory required for data: 8019877664
I0926 19:11:58.322764 13862 layer_factory.hpp:77] Creating layer pooled_rois_branch_1
I0926 19:11:58.322772 13862 net.cpp:86] Creating Layer pooled_rois_branch_1
I0926 19:11:58.322778 13862 net.cpp:408] pooled_rois_branch_1 <- res4b22_res4b22_relu_0_split_2
I0926 19:11:58.322783 13862 net.cpp:408] pooled_rois_branch_1 <- rois_rois_0_split_0
I0926 19:11:58.322793 13862 net.cpp:382] pooled_rois_branch_1 -> pooled_rois_branch_1
I0926 19:11:58.322808 13862 roi_pooling_layer.cpp:30] Spatial scale: 0.0625
I0926 19:11:58.322899 13862 net.cpp:124] Setting up pooled_rois_branch_1
I0926 19:11:58.322909 13862 net.cpp:131] Top shape: 64 1024 1 1 (65536)
I0926 19:11:58.322913 13862 net.cpp:139] Memory required for data: 8020139808
I0926 19:11:58.322919 13862 layer_factory.hpp:77] Creating layer pooled_rois_branch_1/normalized
I0926 19:11:58.322926 13862 net.cpp:86] Creating Layer pooled_rois_branch_1/normalized
I0926 19:11:58.322930 13862 net.cpp:408] pooled_rois_branch_1/normalized <- pooled_rois_branch_1
I0926 19:11:58.322938 13862 net.cpp:382] pooled_rois_branch_1/normalized -> pooled_rois_branch_1/normalized
I0926 19:11:58.323025 13862 net.cpp:124] Setting up pooled_rois_branch_1/normalized
I0926 19:11:58.323032 13862 net.cpp:131] Top shape: 64 1024 1 1 (65536)
I0926 19:11:58.323036 13862 net.cpp:139] Memory required for data: 8020401952
I0926 19:11:58.323040 13862 layer_factory.hpp:77] Creating layer pooled_rois_branch_1/normalized_flat
I0926 19:11:58.323050 13862 net.cpp:86] Creating Layer pooled_rois_branch_1/normalized_flat
I0926 19:11:58.323055 13862 net.cpp:408] pooled_rois_branch_1/normalized_flat <- pooled_rois_branch_1/normalized
I0926 19:11:58.323063 13862 net.cpp:382] pooled_rois_branch_1/normalized_flat -> pooled_rois_branch_1/normalized_flat
I0926 19:11:58.323110 13862 net.cpp:124] Setting up pooled_rois_branch_1/normalized_flat
I0926 19:11:58.323118 13862 net.cpp:131] Top shape: 64 1024 1 1 (65536)
I0926 19:11:58.323122 13862 net.cpp:139] Memory required for data: 8020664096
I0926 19:11:58.323125 13862 layer_factory.hpp:77] Creating layer pooled_rois_branch_1/centered
I0926 19:11:58.323135 13862 net.cpp:86] Creating Layer pooled_rois_branch_1/centered
I0926 19:11:58.323139 13862 net.cpp:408] pooled_rois_branch_1/centered <- pooled_rois_branch_1/normalized_flat
I0926 19:11:58.323148 13862 net.cpp:382] pooled_rois_branch_1/centered -> pooled_rois_branch_1/centered
I0926 19:11:58.323211 13862 layer_factory.hpp:77] Creating layer pooled_rois_branch_1/centered
I0926 19:11:58.323410 13862 net.cpp:124] Setting up pooled_rois_branch_1/centered
I0926 19:11:58.323418 13862 net.cpp:131] Top shape: 64 1024 1 1 (65536)
I0926 19:11:58.323421 13862 net.cpp:139] Memory required for data: 8020926240
I0926 19:11:58.323427 13862 layer_factory.hpp:77] Creating layer pooled_rois_branch_1/pca
I0926 19:11:58.323439 13862 net.cpp:86] Creating Layer pooled_rois_branch_1/pca
I0926 19:11:58.323444 13862 net.cpp:408] pooled_rois_branch_1/pca <- pooled_rois_branch_1/centered
I0926 19:11:58.323451 13862 net.cpp:382] pooled_rois_branch_1/pca -> pooled_rois_branch_1/pca
I0926 19:11:58.331063 13862 net.cpp:124] Setting up pooled_rois_branch_1/pca
I0926 19:11:58.331079 13862 net.cpp:131] Top shape: 64 1024 (65536)
I0926 19:11:58.331084 13862 net.cpp:139] Memory required for data: 8021188384
I0926 19:11:58.331089 13862 layer_factory.hpp:77] Creating layer pooled_rois_branch_1/pca/reshaped
I0926 19:11:58.331097 13862 net.cpp:86] Creating Layer pooled_rois_branch_1/pca/reshaped
I0926 19:11:58.331102 13862 net.cpp:408] pooled_rois_branch_1/pca/reshaped <- pooled_rois_branch_1/pca
I0926 19:11:58.331116 13862 net.cpp:382] pooled_rois_branch_1/pca/reshaped -> pooled_rois_branch_1/pca/reshaped
I0926 19:11:58.331171 13862 net.cpp:124] Setting up pooled_rois_branch_1/pca/reshaped
I0926 19:11:58.331178 13862 net.cpp:131] Top shape: 64 1024 1 1 (65536)
I0926 19:11:58.331182 13862 net.cpp:139] Memory required for data: 8021450528
I0926 19:11:58.331187 13862 layer_factory.hpp:77] Creating layer pooled_rois_branch_1/pca/normalized
I0926 19:11:58.331192 13862 net.cpp:86] Creating Layer pooled_rois_branch_1/pca/normalized
I0926 19:11:58.331195 13862 net.cpp:408] pooled_rois_branch_1/pca/normalized <- pooled_rois_branch_1/pca/reshaped
I0926 19:11:58.331204 13862 net.cpp:382] pooled_rois_branch_1/pca/normalized -> pooled_rois_branch_1/pca/normalized
I0926 19:11:58.331288 13862 net.cpp:124] Setting up pooled_rois_branch_1/pca/normalized
I0926 19:11:58.331295 13862 net.cpp:131] Top shape: 64 1024 1 1 (65536)
I0926 19:11:58.331300 13862 net.cpp:139] Memory required for data: 8021712672
I0926 19:11:58.331303 13862 layer_factory.hpp:77] Creating layer rmac_branch_1
I0926 19:11:58.331379 13862 net.cpp:86] Creating Layer rmac_branch_1
I0926 19:11:58.331387 13862 net.cpp:408] rmac_branch_1 <- pooled_rois_branch_1/pca/normalized
I0926 19:11:58.331393 13862 net.cpp:382] rmac_branch_1 -> rmac_branch_1
I0926 19:11:58.332151 13862 net.cpp:124] Setting up rmac_branch_1
I0926 19:11:58.332166 13862 net.cpp:131] Top shape: 8 1024 1 1 (8192)
I0926 19:11:58.332170 13862 net.cpp:139] Memory required for data: 8021745440
I0926 19:11:58.332175 13862 layer_factory.hpp:77] Creating layer rmac_branch_1/normalized
I0926 19:11:58.332185 13862 net.cpp:86] Creating Layer rmac_branch_1/normalized
I0926 19:11:58.332188 13862 net.cpp:408] rmac_branch_1/normalized <- rmac_branch_1
I0926 19:11:58.332195 13862 net.cpp:382] rmac_branch_1/normalized -> rmac_branch_1/normalized
I0926 19:11:58.332284 13862 net.cpp:124] Setting up rmac_branch_1/normalized
I0926 19:11:58.332293 13862 net.cpp:131] Top shape: 8 1024 1 1 (8192)
I0926 19:11:58.332295 13862 net.cpp:139] Memory required for data: 8021778208
I0926 19:11:58.332299 13862 layer_factory.hpp:77] Creating layer pooled_rois
I0926 19:11:58.332307 13862 net.cpp:86] Creating Layer pooled_rois
I0926 19:11:58.332311 13862 net.cpp:408] pooled_rois <- res5c
I0926 19:11:58.332316 13862 net.cpp:408] pooled_rois <- rois_rois_0_split_1
I0926 19:11:58.332322 13862 net.cpp:382] pooled_rois -> pooled_rois
I0926 19:11:58.332329 13862 roi_pooling_layer.cpp:30] Spatial scale: 0.03125
I0926 19:11:58.332393 13862 net.cpp:124] Setting up pooled_rois
I0926 19:11:58.332401 13862 net.cpp:131] Top shape: 64 2048 1 1 (131072)
I0926 19:11:58.332403 13862 net.cpp:139] Memory required for data: 8022302496
I0926 19:11:58.332407 13862 layer_factory.hpp:77] Creating layer pooled_rois/normalized
I0926 19:11:58.332413 13862 net.cpp:86] Creating Layer pooled_rois/normalized
I0926 19:11:58.332417 13862 net.cpp:408] pooled_rois/normalized <- pooled_rois
I0926 19:11:58.332422 13862 net.cpp:382] pooled_rois/normalized -> pooled_rois/normalized
I0926 19:11:58.332504 13862 net.cpp:124] Setting up pooled_rois/normalized
I0926 19:11:58.332514 13862 net.cpp:131] Top shape: 64 2048 1 1 (131072)
I0926 19:11:58.332517 13862 net.cpp:139] Memory required for data: 8022826784
I0926 19:11:58.332520 13862 layer_factory.hpp:77] Creating layer pooled_rois/normalized_flat
I0926 19:11:58.332528 13862 net.cpp:86] Creating Layer pooled_rois/normalized_flat
I0926 19:11:58.332533 13862 net.cpp:408] pooled_rois/normalized_flat <- pooled_rois/normalized
I0926 19:11:58.332538 13862 net.cpp:382] pooled_rois/normalized_flat -> pooled_rois/normalized_flat
I0926 19:11:58.332578 13862 net.cpp:124] Setting up pooled_rois/normalized_flat
I0926 19:11:58.332587 13862 net.cpp:131] Top shape: 64 2048 1 1 (131072)
I0926 19:11:58.332590 13862 net.cpp:139] Memory required for data: 8023351072
I0926 19:11:58.332593 13862 layer_factory.hpp:77] Creating layer pooled_rois/centered
I0926 19:11:58.332602 13862 net.cpp:86] Creating Layer pooled_rois/centered
I0926 19:11:58.332610 13862 net.cpp:408] pooled_rois/centered <- pooled_rois/normalized_flat
I0926 19:11:58.332623 13862 net.cpp:382] pooled_rois/centered -> pooled_rois/centered
I0926 19:11:58.332689 13862 layer_factory.hpp:77] Creating layer pooled_rois/centered
I0926 19:11:58.332882 13862 net.cpp:124] Setting up pooled_rois/centered
I0926 19:11:58.332890 13862 net.cpp:131] Top shape: 64 2048 1 1 (131072)
I0926 19:11:58.332895 13862 net.cpp:139] Memory required for data: 8023875360
I0926 19:11:58.332901 13862 layer_factory.hpp:77] Creating layer pooled_rois/pca
I0926 19:11:58.332907 13862 net.cpp:86] Creating Layer pooled_rois/pca
I0926 19:11:58.332911 13862 net.cpp:408] pooled_rois/pca <- pooled_rois/centered
I0926 19:11:58.332918 13862 net.cpp:382] pooled_rois/pca -> pooled_rois/pca
I0926 19:11:58.361534 13862 net.cpp:124] Setting up pooled_rois/pca
I0926 19:11:58.361555 13862 net.cpp:131] Top shape: 64 2048 (131072)
I0926 19:11:58.361559 13862 net.cpp:139] Memory required for data: 8024399648
I0926 19:11:58.361567 13862 layer_factory.hpp:77] Creating layer pooled_rois/pca/reshaped
I0926 19:11:58.361578 13862 net.cpp:86] Creating Layer pooled_rois/pca/reshaped
I0926 19:11:58.361583 13862 net.cpp:408] pooled_rois/pca/reshaped <- pooled_rois/pca
I0926 19:11:58.361591 13862 net.cpp:382] pooled_rois/pca/reshaped -> pooled_rois/pca/reshaped
I0926 19:11:58.361637 13862 net.cpp:124] Setting up pooled_rois/pca/reshaped
I0926 19:11:58.361644 13862 net.cpp:131] Top shape: 64 2048 1 1 (131072)
I0926 19:11:58.361649 13862 net.cpp:139] Memory required for data: 8024923936
I0926 19:11:58.361651 13862 layer_factory.hpp:77] Creating layer pooled_rois/pca/normalized
I0926 19:11:58.361661 13862 net.cpp:86] Creating Layer pooled_rois/pca/normalized
I0926 19:11:58.361665 13862 net.cpp:408] pooled_rois/pca/normalized <- pooled_rois/pca/reshaped
I0926 19:11:58.361672 13862 net.cpp:382] pooled_rois/pca/normalized -> pooled_rois/pca/normalized
I0926 19:11:58.361758 13862 net.cpp:124] Setting up pooled_rois/pca/normalized
I0926 19:11:58.361766 13862 net.cpp:131] Top shape: 64 2048 1 1 (131072)
I0926 19:11:58.361769 13862 net.cpp:139] Memory required for data: 8025448224
I0926 19:11:58.361773 13862 layer_factory.hpp:77] Creating layer rmac
I0926 19:11:58.361800 13862 net.cpp:86] Creating Layer rmac
I0926 19:11:58.361807 13862 net.cpp:408] rmac <- pooled_rois/pca/normalized
I0926 19:11:58.361814 13862 net.cpp:382] rmac -> rmac
I0926 19:11:58.362380 13862 net.cpp:124] Setting up rmac
I0926 19:11:58.362395 13862 net.cpp:131] Top shape: 8 2048 1 1 (16384)
I0926 19:11:58.362399 13862 net.cpp:139] Memory required for data: 8025513760
I0926 19:11:58.362403 13862 layer_factory.hpp:77] Creating layer rmac/normalized
I0926 19:11:58.362412 13862 net.cpp:86] Creating Layer rmac/normalized
I0926 19:11:58.362416 13862 net.cpp:408] rmac/normalized <- rmac
I0926 19:11:58.362423 13862 net.cpp:382] rmac/normalized -> rmac/normalized
I0926 19:11:58.362522 13862 net.cpp:124] Setting up rmac/normalized
I0926 19:11:58.362531 13862 net.cpp:131] Top shape: 8 2048 1 1 (16384)
I0926 19:11:58.362534 13862 net.cpp:139] Memory required for data: 8025579296
I0926 19:11:58.362540 13862 layer_factory.hpp:77] Creating layer rmac/concat
I0926 19:11:58.362547 13862 net.cpp:86] Creating Layer rmac/concat
I0926 19:11:58.362551 13862 net.cpp:408] rmac/concat <- rmac_branch_1/normalized
I0926 19:11:58.362556 13862 net.cpp:408] rmac/concat <- rmac/normalized
I0926 19:11:58.362565 13862 net.cpp:382] rmac/concat -> rmac/concat
I0926 19:11:58.362607 13862 net.cpp:124] Setting up rmac/concat
I0926 19:11:58.362613 13862 net.cpp:131] Top shape: 8 3072 1 1 (24576)
I0926 19:11:58.362617 13862 net.cpp:139] Memory required for data: 8025677600
I0926 19:11:58.362620 13862 layer_factory.hpp:77] Creating layer rmac/centered
I0926 19:11:58.362628 13862 net.cpp:86] Creating Layer rmac/centered
I0926 19:11:58.362632 13862 net.cpp:408] rmac/centered <- rmac/concat
I0926 19:11:58.362640 13862 net.cpp:382] rmac/centered -> rmac/centered
I0926 19:11:58.362709 13862 layer_factory.hpp:77] Creating layer rmac/centered
I0926 19:11:58.362912 13862 net.cpp:124] Setting up rmac/centered
I0926 19:11:58.362927 13862 net.cpp:131] Top shape: 8 3072 1 1 (24576)
I0926 19:11:58.362931 13862 net.cpp:139] Memory required for data: 8025775904
I0926 19:11:58.362938 13862 layer_factory.hpp:77] Creating layer rmac/pca
I0926 19:11:58.362947 13862 net.cpp:86] Creating Layer rmac/pca
I0926 19:11:58.362952 13862 net.cpp:408] rmac/pca <- rmac/centered
I0926 19:11:58.362957 13862 net.cpp:382] rmac/pca -> rmac/pca
I0926 19:11:58.406170 13862 net.cpp:124] Setting up rmac/pca
I0926 19:11:58.406203 13862 net.cpp:131] Top shape: 8 2048 (16384)
I0926 19:11:58.406206 13862 net.cpp:139] Memory required for data: 8025841440
I0926 19:11:58.406216 13862 layer_factory.hpp:77] Creating layer rmac/pca/reshaped
I0926 19:11:58.406229 13862 net.cpp:86] Creating Layer rmac/pca/reshaped
I0926 19:11:58.406234 13862 net.cpp:408] rmac/pca/reshaped <- rmac/pca
I0926 19:11:58.406246 13862 net.cpp:382] rmac/pca/reshaped -> rmac/pca/reshaped
I0926 19:11:58.406303 13862 net.cpp:124] Setting up rmac/pca/reshaped
I0926 19:11:58.406312 13862 net.cpp:131] Top shape: 8 2048 1 1 (16384)
I0926 19:11:58.406316 13862 net.cpp:139] Memory required for data: 8025906976
I0926 19:11:58.406319 13862 layer_factory.hpp:77] Creating layer rmac/pca/normalized
I0926 19:11:58.406327 13862 net.cpp:86] Creating Layer rmac/pca/normalized
I0926 19:11:58.406330 13862 net.cpp:408] rmac/pca/normalized <- rmac/pca/reshaped
I0926 19:11:58.406335 13862 net.cpp:382] rmac/pca/normalized -> rmac/pca/normalized
I0926 19:11:58.406428 13862 net.cpp:124] Setting up rmac/pca/normalized
I0926 19:11:58.406435 13862 net.cpp:131] Top shape: 8 2048 1 1 (16384)
I0926 19:11:58.406440 13862 net.cpp:139] Memory required for data: 8025972512
I0926 19:11:58.406443 13862 layer_factory.hpp:77] Creating layer loss
I0926 19:11:58.406450 13862 net.cpp:86] Creating Layer loss
I0926 19:11:58.406455 13862 net.cpp:408] loss <- features
I0926 19:11:58.406460 13862 net.cpp:408] loss <- rmac/pca/normalized
I0926 19:11:58.406468 13862 net.cpp:382] loss -> loss
…
