name: "ResNet-101"
layer {
	name: "data"
	type: "Python"
	top: "data"
	top: "p_data"
	top: "n_data"
	include {
		phase: TRAIN
	}
	python_param {
		module: "custom_layers"
		layer: "TripletDataLayer"
		param_str: "{'batch_size': 2, 'cls_dir': '/home/processyuan/data/Paris/triplet/', 'mean': [103.93900299, 116.77899933, 123.68000031]}"
	}
}

layer {
	name: "data"
	type: "Python"
	top: "data"
	top: "p_data"
	top: "n_data"
	include {
		phase: TEST
	}
	python_param {
		module: "custom_layers"
		layer: "TripletDataLayer"
		param_str: "{'batch_size': 1, 'cls_dir': '/home/processyuan/data/Paris/triplet/', 'mean': [103.93900299, 116.77899933, 123.68000031]}"
	}
}

layer {
	name: "rois"
	type: "Python"
	bottom: "data"
	top: "rois"
	python_param {
		module: 'custom_layers'
		layer: 'RigidGridLayer'
		param_str: "{'dataset': 'paris'}"
	}
}

layer {
	bottom: "data"
	top: "conv1"
	name: "conv1"
	type: "Convolution"
	param {
		name: "conv1_w"
		lr_mult: 0.0
		decay_mult: 0.0
	}
	convolution_param {
		num_output: 64
		kernel_size: 7
		pad: 3
		stride: 2
		bias_term: false
	}
}

layer {
	bottom: "conv1"
	top: "conv1"
	name: "bn_conv1"
	type: "BatchNorm"
	param {
		name: "bn_conv1_1"
		lr_mult: 0.0
		decay_mult: 0.0
	}
	param {
		name: "bn_conv1_2"
		lr_mult: 0.0
		decay_mult: 0.0
	}
	param {
		name: "bn_conv1_3"
		lr_mult: 0.0
		decay_mult: 0.0
	}
	batch_norm_param {
		use_global_stats: true
	}
}

layer {
	bottom: "conv1"
	top: "conv1"
	name: "scale_conv1"
	type: "Scale"
	param {
		name: "scale_conv1_1"
		lr_mult: 0.0
		decay_mult: 0.0
	}
	param {
		name: "scale_conv1_2"
		lr_mult: 0.0
		decay_mult: 0.0
	}
	scale_param {
		bias_term: true
	}
}

layer {
	top: "conv1"
	bottom: "conv1"
	name: "conv1_relu"
	type: "ReLU"
}

layer {
	bottom: "conv1"
	top: "pool1"
	name: "pool1"
	type: "Pooling"
	pooling_param {
		kernel_size: 3
		stride: 2
		pool: MAX
	}
}

layer {
	bottom: "pool1"
	top: "res2a_branch1"
	name: "res2a_branch1"
	type: "Convolution"
	param {
		name: "res2a_branch1_w"
		lr_mult: 0.0
		decay_mult: 0.0
	}
	convolution_param {
		num_output: 256
		kernel_size: 1
		pad: 0
		stride: 1
		bias_term: false
	}
}

layer {
	bottom: "res2a_branch1"
	top: "res2a_branch1"
	name: "bn2a_branch1"
	type: "BatchNorm"
	param {
		name: "bn2a_branch1_1"
		lr_mult: 0.0
		decay_mult: 0.0
	}
	param {
		name: "bn2a_branch1_2"
		lr_mult: 0.0
		decay_mult: 0.0
	}
	param {
		name: "bn2a_branch1_3"
		lr_mult: 0.0
		decay_mult: 0.0
	}
	batch_norm_param {
		use_global_stats: true
	}
}

layer {
	bottom: "res2a_branch1"
	top: "res2a_branch1"
	name: "scale2a_branch1"
	type: "Scale"
	param {
		name: "scale2a_branch1_1"
		lr_mult: 0.0
		decay_mult: 0.0
	}
	param {
		name: "scale2a_branch1_2"
		lr_mult: 0.0
		decay_mult: 0.0
	}
	scale_param {
		bias_term: true
	}
}

layer {
	bottom: "pool1"
	top: "res2a_branch2a"
	name: "res2a_branch2a"
	type: "Convolution"
	param {
		name: "res2a_branch2a_w"
		lr_mult: 0.0
		decay_mult: 0.0
	}
	convolution_param {
		num_output: 64
		kernel_size: 1
		pad: 0
		stride: 1
		bias_term: false
	}
}

layer {
	bottom: "res2a_branch2a"
	top: "res2a_branch2a"
	name: "bn2a_branch2a"
	type: "BatchNorm"
	param {
		name: "bn2a_branch2a_1"
		lr_mult: 0.0
		decay_mult: 0.0
	}
	param {
		name: "bn2a_branch2a_2"
		lr_mult: 0.0
		decay_mult: 0.0
	}
	param {
		name: "bn2a_branch2a_3"
		lr_mult: 0.0
		decay_mult: 0.0
	}
	batch_norm_param {
		use_global_stats: true
	}
}

layer {
	bottom: "res2a_branch2a"
	top: "res2a_branch2a"
	name: "scale2a_branch2a"
	type: "Scale"
	param {
		name: "scale2a_branch2a_1"
		lr_mult: 0.0
		decay_mult: 0.0
	}
	param {
		name: "scale2a_branch2a_2"
		lr_mult: 0.0
		decay_mult: 0.0
	}
	scale_param {
		bias_term: true
	}
}

layer {
	top: "res2a_branch2a"
	bottom: "res2a_branch2a"
	name: "res2a_branch2a_relu"
	type: "ReLU"
}

layer {
	bottom: "res2a_branch2a"
	top: "res2a_branch2b"
	name: "res2a_branch2b"
	type: "Convolution"
	param {
		name: "res2a_branch2b_w"
		lr_mult: 0.0
		decay_mult: 0.0
	}
	convolution_param {
		num_output: 64
		kernel_size: 3
		pad: 1
		stride: 1
		bias_term: false
	}
}

layer {
	bottom: "res2a_branch2b"
	top: "res2a_branch2b"
	name: "bn2a_branch2b"
	type: "BatchNorm"
	param {
		name: "bn2a_branch2b_1"
		lr_mult: 0.0
		decay_mult: 0.0
	}
	param {
		name: "bn2a_branch2b_2"
		lr_mult: 0.0
		decay_mult: 0.0
	}
	param {
		name: "bn2a_branch2b_3"
		lr_mult: 0.0
		decay_mult: 0.0
	}
	batch_norm_param {
		use_global_stats: true
	}
}

layer {
	bottom: "res2a_branch2b"
	top: "res2a_branch2b"
	name: "scale2a_branch2b"
	type: "Scale"
	param {
		name: "scale2a_branch2b_1"
		lr_mult: 0.0
		decay_mult: 0.0
	}
	param {
		name: "scale2a_branch2b_2"
		lr_mult: 0.0
		decay_mult: 0.0
	}
	scale_param {
		bias_term: true
	}
}

layer {
	top: "res2a_branch2b"
	bottom: "res2a_branch2b"
	name: "res2a_branch2b_relu"
	type: "ReLU"
}

layer {
	bottom: "res2a_branch2b"
	top: "res2a_branch2c"
	name: "res2a_branch2c"
	type: "Convolution"
	param {
		name: "res2a_branch2c_w"
		lr_mult: 0.0
		decay_mult: 0.0
	}
	convolution_param {
		num_output: 256
		kernel_size: 1
		pad: 0
		stride: 1
		bias_term: false
	}
}

layer {
	bottom: "res2a_branch2c"
	top: "res2a_branch2c"
	name: "bn2a_branch2c"
	type: "BatchNorm"
	param {
		name: "bn2a_branch2c_1"
		lr_mult: 0.0
		decay_mult: 0.0
	}
	param {
		name: "bn2a_branch2c_2"
		lr_mult: 0.0
		decay_mult: 0.0
	}
	param {
		name: "bn2a_branch2c_3"
		lr_mult: 0.0
		decay_mult: 0.0
	}
	batch_norm_param {
		use_global_stats: true
	}
}

layer {
	bottom: "res2a_branch2c"
	top: "res2a_branch2c"
	name: "scale2a_branch2c"
	type: "Scale"
	param {
		name: "scale2a_branch2c_1"
		lr_mult: 0.0
		decay_mult: 0.0
	}
	param {
		name: "scale2a_branch2c_2"
		lr_mult: 0.0
		decay_mult: 0.0
	}
	scale_param {
		bias_term: true
	}
}

layer {
	bottom: "res2a_branch1"
	bottom: "res2a_branch2c"
	top: "res2a"
	name: "res2a"
	type: "Eltwise"
}

layer {
	bottom: "res2a"
	top: "res2a"
	name: "res2a_relu"
	type: "ReLU"
}

layer {
	bottom: "res2a"
	top: "res2b_branch2a"
	name: "res2b_branch2a"
	type: "Convolution"
	param {
		name: "res2b_branch2a_w"
		lr_mult: 0.0
		decay_mult: 0.0
	}
	convolution_param {
		num_output: 64
		kernel_size: 1
		pad: 0
		stride: 1
		bias_term: false
	}
}

layer {
	bottom: "res2b_branch2a"
	top: "res2b_branch2a"
	name: "bn2b_branch2a"
	type: "BatchNorm"
	param {
		name: "bn2b_branch2a_1"
		lr_mult: 0.0
		decay_mult: 0.0
	}
	param {
		name: "bn2b_branch2a_2"
		lr_mult: 0.0
		decay_mult: 0.0
	}
	param {
		name: "bn2b_branch2a_3"
		lr_mult: 0.0
		decay_mult: 0.0
	}
	batch_norm_param {
		use_global_stats: true
	}
}

layer {
	bottom: "res2b_branch2a"
	top: "res2b_branch2a"
	name: "scale2b_branch2a"
	type: "Scale"
	param {
		name: "scale2b_branch2a_1"
		lr_mult: 0.0
		decay_mult: 0.0
	}
	param {
		name: "scale2b_branch2a_2"
		lr_mult: 0.0
		decay_mult: 0.0
	}
	scale_param {
		bias_term: true
	}
}

layer {
	top: "res2b_branch2a"
	bottom: "res2b_branch2a"
	name: "res2b_branch2a_relu"
	type: "ReLU"
}

layer {
	bottom: "res2b_branch2a"
	top: "res2b_branch2b"
	name: "res2b_branch2b"
	type: "Convolution"
	param {
		name: "res2b_branch2b_w"
		lr_mult: 0.0
		decay_mult: 0.0
	}
	convolution_param {
		num_output: 64
		kernel_size: 3
		pad: 1
		stride: 1
		bias_term: false
	}
}

layer {
	bottom: "res2b_branch2b"
	top: "res2b_branch2b"
	name: "bn2b_branch2b"
	type: "BatchNorm"
	param {
		name: "bn2b_branch2b_1"
		lr_mult: 0.0
		decay_mult: 0.0
	}
	param {
		name: "bn2b_branch2b_2"
		lr_mult: 0.0
		decay_mult: 0.0
	}
	param {
		name: "bn2b_branch2b_3"
		lr_mult: 0.0
		decay_mult: 0.0
	}
	batch_norm_param {
		use_global_stats: true
	}
}

layer {
	bottom: "res2b_branch2b"
	top: "res2b_branch2b"
	name: "scale2b_branch2b"
	type: "Scale"
	param {
		name: "scale2b_branch2b_1"
		lr_mult: 0.0
		decay_mult: 0.0
	}
	param {
		name: "scale2b_branch2b_2"
		lr_mult: 0.0
		decay_mult: 0.0
	}
	scale_param {
		bias_term: true
	}
}

layer {
	top: "res2b_branch2b"
	bottom: "res2b_branch2b"
	name: "res2b_branch2b_relu"
	type: "ReLU"
}

layer {
	bottom: "res2b_branch2b"
	top: "res2b_branch2c"
	name: "res2b_branch2c"
	type: "Convolution"
	param {
		name: "res2b_branch2c_w"
		lr_mult: 0.0
		decay_mult: 0.0
	}
	convolution_param {
		num_output: 256
		kernel_size: 1
		pad: 0
		stride: 1
		bias_term: false
	}
}

layer {
	bottom: "res2b_branch2c"
	top: "res2b_branch2c"
	name: "bn2b_branch2c"
	type: "BatchNorm"
	param {
		name: "bn2b_branch2c_1"
		lr_mult: 0.0
		decay_mult: 0.0
	}
	param {
		name: "bn2b_branch2c_2"
		lr_mult: 0.0
		decay_mult: 0.0
	}
	param {
		name: "bn2b_branch2c_3"
		lr_mult: 0.0
		decay_mult: 0.0
	}
	batch_norm_param {
		use_global_stats: true
	}
}

layer {
	bottom: "res2b_branch2c"
	top: "res2b_branch2c"
	name: "scale2b_branch2c"
	type: "Scale"
	param {
		name: "scale2b_branch2c_1"
		lr_mult: 0.0
		decay_mult: 0.0
	}
	param {
		name: "scale2b_branch2c_2"
		lr_mult: 0.0
		decay_mult: 0.0
	}
	scale_param {
		bias_term: true
	}
}

layer {
	bottom: "res2a"
	bottom: "res2b_branch2c"
	top: "res2b"
	name: "res2b"
	type: "Eltwise"
}

layer {
	bottom: "res2b"
	top: "res2b"
	name: "res2b_relu"
	type: "ReLU"
}

layer {
	bottom: "res2b"
	top: "res2c_branch2a"
	name: "res2c_branch2a"
	type: "Convolution"
	param {
		name: "res2c_branch2a_w"
		lr_mult: 0.0
		decay_mult: 0.0
	}
	convolution_param {
		num_output: 64
		kernel_size: 1
		pad: 0
		stride: 1
		bias_term: false
	}
}

layer {
	bottom: "res2c_branch2a"
	top: "res2c_branch2a"
	name: "bn2c_branch2a"
	type: "BatchNorm"
	param {
		name: "bn2c_branch2a_1"
		lr_mult: 0.0
		decay_mult: 0.0
	}
	param {
		name: "bn2c_branch2a_2"
		lr_mult: 0.0
		decay_mult: 0.0
	}
	param {
		name: "bn2c_branch2a_3"
		lr_mult: 0.0
		decay_mult: 0.0
	}
	batch_norm_param {
		use_global_stats: true
	}
}

layer {
	bottom: "res2c_branch2a"
	top: "res2c_branch2a"
	name: "scale2c_branch2a"
	type: "Scale"
	param {
		name: "scale2c_branch2a_1"
		lr_mult: 0.0
		decay_mult: 0.0
	}
	param {
		name: "scale2c_branch2a_2"
		lr_mult: 0.0
		decay_mult: 0.0
	}
	scale_param {
		bias_term: true
	}
}

layer {
	top: "res2c_branch2a"
	bottom: "res2c_branch2a"
	name: "res2c_branch2a_relu"
	type: "ReLU"
}

layer {
	bottom: "res2c_branch2a"
	top: "res2c_branch2b"
	name: "res2c_branch2b"
	type: "Convolution"
	param {
		name: "res2c_branch2b_w"
		lr_mult: 0.0
		decay_mult: 0.0
	}
	convolution_param {
		num_output: 64
		kernel_size: 3
		pad: 1
		stride: 1
		bias_term: false
	}
}

layer {
	bottom: "res2c_branch2b"
	top: "res2c_branch2b"
	name: "bn2c_branch2b"
	type: "BatchNorm"
	param {
		name: "bn2c_branch2b_1"
		lr_mult: 0.0
		decay_mult: 0.0
	}
	param {
		name: "bn2c_branch2b_2"
		lr_mult: 0.0
		decay_mult: 0.0
	}
	param {
		name: "bn2c_branch2b_3"
		lr_mult: 0.0
		decay_mult: 0.0
	}
	batch_norm_param {
		use_global_stats: true
	}
}

layer {
	bottom: "res2c_branch2b"
	top: "res2c_branch2b"
	name: "scale2c_branch2b"
	type: "Scale"
	param {
		name: "scale2c_branch2b_1"
		lr_mult: 0.0
		decay_mult: 0.0
	}
	param {
		name: "scale2c_branch2b_2"
		lr_mult: 0.0
		decay_mult: 0.0
	}
	scale_param {
		bias_term: true
	}
}

layer {
	top: "res2c_branch2b"
	bottom: "res2c_branch2b"
	name: "res2c_branch2b_relu"
	type: "ReLU"
}

layer {
	bottom: "res2c_branch2b"
	top: "res2c_branch2c"
	name: "res2c_branch2c"
	type: "Convolution"
	param {
		name: "res2c_branch2c_w"
		lr_mult: 0.0
		decay_mult: 0.0
	}
	convolution_param {
		num_output: 256
		kernel_size: 1
		pad: 0
		stride: 1
		bias_term: false
	}
}

layer {
	bottom: "res2c_branch2c"
	top: "res2c_branch2c"
	name: "bn2c_branch2c"
	type: "BatchNorm"
	param {
		name: "bn2c_branch2c_1"
		lr_mult: 0.0
		decay_mult: 0.0
	}
	param {
		name: "bn2c_branch2c_2"
		lr_mult: 0.0
		decay_mult: 0.0
	}
	param {
		name: "bn2c_branch2c_3"
		lr_mult: 0.0
		decay_mult: 0.0
	}
	batch_norm_param {
		use_global_stats: true
	}
}

layer {
	bottom: "res2c_branch2c"
	top: "res2c_branch2c"
	name: "scale2c_branch2c"
	type: "Scale"
	param {
		name: "scale2c_branch2c_1"
		lr_mult: 0.0
		decay_mult: 0.0
	}
	param {
		name: "scale2c_branch2c_2"
		lr_mult: 0.0
		decay_mult: 0.0
	}
	scale_param {
		bias_term: true
	}
}

layer {
	bottom: "res2b"
	bottom: "res2c_branch2c"
	top: "res2c"
	name: "res2c"
	type: "Eltwise"
}

layer {
	bottom: "res2c"
	top: "res2c"
	name: "res2c_relu"
	type: "ReLU"
}

layer {
	bottom: "res2c"
	top: "res3a_branch1"
	name: "res3a_branch1"
	type: "Convolution"
	param {
		name: "res3a_branch1_w"
		lr_mult: 0.0
		decay_mult: 0.0
	}
	convolution_param {
		num_output: 512
		kernel_size: 1
		pad: 0
		stride: 2
		bias_term: false
	}
}

layer {
	bottom: "res3a_branch1"
	top: "res3a_branch1"
	name: "bn3a_branch1"
	type: "BatchNorm"
	param {
		name: "bn3a_branch1_1"
		lr_mult: 0.0
		decay_mult: 0.0
	}
	param {
		name: "bn3a_branch1_2"
		lr_mult: 0.0
		decay_mult: 0.0
	}
	param {
		name: "bn3a_branch1_3"
		lr_mult: 0.0
		decay_mult: 0.0
	}
	batch_norm_param {
		use_global_stats: true
	}
}

layer {
	bottom: "res3a_branch1"
	top: "res3a_branch1"
	name: "scale3a_branch1"
	type: "Scale"
	param {
		name: "scale3a_branch1_1"
		lr_mult: 0.0
		decay_mult: 0.0
	}
	param {
		name: "scale3a_branch1_2"
		lr_mult: 0.0
		decay_mult: 0.0
	}
	scale_param {
		bias_term: true
	}
}

layer {
	bottom: "res2c"
	top: "res3a_branch2a"
	name: "res3a_branch2a"
	type: "Convolution"
	param {
		name: "res3a_branch2a_w"
		lr_mult: 0.0
		decay_mult: 0.0
	}
	convolution_param {
		num_output: 128
		kernel_size: 1
		pad: 0
		stride: 2
		bias_term: false
	}
}

layer {
	bottom: "res3a_branch2a"
	top: "res3a_branch2a"
	name: "bn3a_branch2a"
	type: "BatchNorm"
	param {
		name: "bn3a_branch2a_1"
		lr_mult: 0.0
		decay_mult: 0.0
	}
	param {
		name: "bn3a_branch2a_2"
		lr_mult: 0.0
		decay_mult: 0.0
	}
	param {
		name: "bn3a_branch2a_3"
		lr_mult: 0.0
		decay_mult: 0.0
	}
	batch_norm_param {
		use_global_stats: true
	}
}

layer {
	bottom: "res3a_branch2a"
	top: "res3a_branch2a"
	name: "scale3a_branch2a"
	type: "Scale"
	param {
		name: "scale3a_branch2a_1"
		lr_mult: 0.0
		decay_mult: 0.0
	}
	param {
		name: "scale3a_branch2a_2"
		lr_mult: 0.0
		decay_mult: 0.0
	}
	scale_param {
		bias_term: true
	}
}

layer {
	top: "res3a_branch2a"
	bottom: "res3a_branch2a"
	name: "res3a_branch2a_relu"
	type: "ReLU"
}

layer {
	bottom: "res3a_branch2a"
	top: "res3a_branch2b"
	name: "res3a_branch2b"
	type: "Convolution"
	param {
		name: "res3a_branch2b_w"
		lr_mult: 0.0
		decay_mult: 0.0
	}
	convolution_param {
		num_output: 128
		kernel_size: 3
		pad: 1
		stride: 1
		bias_term: false
	}
}

layer {
	bottom: "res3a_branch2b"
	top: "res3a_branch2b"
	name: "bn3a_branch2b"
	type: "BatchNorm"
	param {
		name: "bn3a_branch2b_1"
		lr_mult: 0.0
		decay_mult: 0.0
	}
	param {
		name: "bn3a_branch2b_2"
		lr_mult: 0.0
		decay_mult: 0.0
	}
	param {
		name: "bn3a_branch2b_3"
		lr_mult: 0.0
		decay_mult: 0.0
	}
	batch_norm_param {
		use_global_stats: true
	}
}

layer {
	bottom: "res3a_branch2b"
	top: "res3a_branch2b"
	name: "scale3a_branch2b"
	type: "Scale"
	param {
		name: "scale3a_branch2b_1"
		lr_mult: 0.0
		decay_mult: 0.0
	}
	param {
		name: "scale3a_branch2b_2"
		lr_mult: 0.0
		decay_mult: 0.0
	}
	scale_param {
		bias_term: true
	}
}

layer {
	top: "res3a_branch2b"
	bottom: "res3a_branch2b"
	name: "res3a_branch2b_relu"
	type: "ReLU"
}

layer {
	bottom: "res3a_branch2b"
	top: "res3a_branch2c"
	name: "res3a_branch2c"
	type: "Convolution"
	param {
		name: "res3a_branch2c_w"
		lr_mult: 0.0
		decay_mult: 0.0
	}
	convolution_param {
		num_output: 512
		kernel_size: 1
		pad: 0
		stride: 1
		bias_term: false
	}
}

layer {
	bottom: "res3a_branch2c"
	top: "res3a_branch2c"
	name: "bn3a_branch2c"
	type: "BatchNorm"
	param {
		name: "bn3a_branch2c_1"
		lr_mult: 0.0
		decay_mult: 0.0
	}
	param {
		name: "bn3a_branch2c_2"
		lr_mult: 0.0
		decay_mult: 0.0
	}
	param {
		name: "bn3a_branch2c_3"
		lr_mult: 0.0
		decay_mult: 0.0
	}
	batch_norm_param {
		use_global_stats: true
	}
}

layer {
	bottom: "res3a_branch2c"
	top: "res3a_branch2c"
	name: "scale3a_branch2c"
	type: "Scale"
	param {
		name: "scale3a_branch2c_1"
		lr_mult: 0.0
		decay_mult: 0.0
	}
	param {
		name: "scale3a_branch2c_2"
		lr_mult: 0.0
		decay_mult: 0.0
	}
	scale_param {
		bias_term: true
	}
}

layer {
	bottom: "res3a_branch1"
	bottom: "res3a_branch2c"
	top: "res3a"
	name: "res3a"
	type: "Eltwise"
}

layer {
	bottom: "res3a"
	top: "res3a"
	name: "res3a_relu"
	type: "ReLU"
}

layer {
	bottom: "res3a"
	top: "res3b1_branch2a"
	name: "res3b1_branch2a"
	type: "Convolution"
	param {
		name: "res3b1_branch2a_w"
		lr_mult: 0.0
		decay_mult: 0.0
	}
	convolution_param {
		num_output: 128
		kernel_size: 1
		pad: 0
		stride: 1
		bias_term: false
	}
}

layer {
	bottom: "res3b1_branch2a"
	top: "res3b1_branch2a"
	name: "bn3b1_branch2a"
	type: "BatchNorm"
	param {
		name: "bn3b1_branch2a_1"
		lr_mult: 0.0
		decay_mult: 0.0
	}
	param {
		name: "bn3b1_branch2a_2"
		lr_mult: 0.0
		decay_mult: 0.0
	}
	param {
		name: "bn3b1_branch2a_3"
		lr_mult: 0.0
		decay_mult: 0.0
	}
	batch_norm_param {
		use_global_stats: true
	}
}

layer {
	bottom: "res3b1_branch2a"
	top: "res3b1_branch2a"
	name: "scale3b1_branch2a"
	type: "Scale"
	param {
		name: "scale3b1_branch2a_1"
		lr_mult: 0.0
		decay_mult: 0.0
	}
	param {
		name: "scale3b1_branch2a_2"
		lr_mult: 0.0
		decay_mult: 0.0
	}
	scale_param {
		bias_term: true
	}
}

layer {
	top: "res3b1_branch2a"
	bottom: "res3b1_branch2a"
	name: "res3b1_branch2a_relu"
	type: "ReLU"
}

layer {
	bottom: "res3b1_branch2a"
	top: "res3b1_branch2b"
	name: "res3b1_branch2b"
	type: "Convolution"
	param {
		name: "res3b1_branch2b_w"
		lr_mult: 0.0
		decay_mult: 0.0
	}
	convolution_param {
		num_output: 128
		kernel_size: 3
		pad: 1
		stride: 1
		bias_term: false
	}
}

layer {
	bottom: "res3b1_branch2b"
	top: "res3b1_branch2b"
	name: "bn3b1_branch2b"
	type: "BatchNorm"
	param {
		name: "bn3b1_branch2b_1"
		lr_mult: 0.0
		decay_mult: 0.0
	}
	param {
		name: "bn3b1_branch2b_2"
		lr_mult: 0.0
		decay_mult: 0.0
	}
	param {
		name: "bn3b1_branch2b_3"
		lr_mult: 0.0
		decay_mult: 0.0
	}
	batch_norm_param {
		use_global_stats: true
	}
}

layer {
	bottom: "res3b1_branch2b"
	top: "res3b1_branch2b"
	name: "scale3b1_branch2b"
	type: "Scale"
	param {
		name: "scale3b1_branch2b_1"
		lr_mult: 0.0
		decay_mult: 0.0
	}
	param {
		name: "scale3b1_branch2b_2"
		lr_mult: 0.0
		decay_mult: 0.0
	}
	scale_param {
		bias_term: true
	}
}

layer {
	top: "res3b1_branch2b"
	bottom: "res3b1_branch2b"
	name: "res3b1_branch2b_relu"
	type: "ReLU"
}

layer {
	bottom: "res3b1_branch2b"
	top: "res3b1_branch2c"
	name: "res3b1_branch2c"
	type: "Convolution"
	param {
		name: "res3b1_branch2c_w"
		lr_mult: 0.0
		decay_mult: 0.0
	}
	convolution_param {
		num_output: 512
		kernel_size: 1
		pad: 0
		stride: 1
		bias_term: false
	}
}

layer {
	bottom: "res3b1_branch2c"
	top: "res3b1_branch2c"
	name: "bn3b1_branch2c"
	type: "BatchNorm"
	param {
		name: "bn3b1_branch2c_1"
		lr_mult: 0.0
		decay_mult: 0.0
	}
	param {
		name: "bn3b1_branch2c_2"
		lr_mult: 0.0
		decay_mult: 0.0
	}
	param {
		name: "bn3b1_branch2c_3"
		lr_mult: 0.0
		decay_mult: 0.0
	}
	batch_norm_param {
		use_global_stats: true
	}
}

layer {
	bottom: "res3b1_branch2c"
	top: "res3b1_branch2c"
	name: "scale3b1_branch2c"
	type: "Scale"
	param {
		name: "scale3b1_branch2c_1"
		lr_mult: 0.0
		decay_mult: 0.0
	}
	param {
		name: "scale3b1_branch2c_2"
		lr_mult: 0.0
		decay_mult: 0.0
	}
	scale_param {
		bias_term: true
	}
}

layer {
	bottom: "res3a"
	bottom: "res3b1_branch2c"
	top: "res3b1"
	name: "res3b1"
	type: "Eltwise"
}

layer {
	bottom: "res3b1"
	top: "res3b1"
	name: "res3b1_relu"
	type: "ReLU"
}

layer {
	bottom: "res3b1"
	top: "res3b2_branch2a"
	name: "res3b2_branch2a"
	type: "Convolution"
	param {
		name: "res3b2_branch2a_w"
		lr_mult: 0.0
		decay_mult: 0.0
	}
	convolution_param {
		num_output: 128
		kernel_size: 1
		pad: 0
		stride: 1
		bias_term: false
	}
}

layer {
	bottom: "res3b2_branch2a"
	top: "res3b2_branch2a"
	name: "bn3b2_branch2a"
	type: "BatchNorm"
	param {
		name: "bn3b2_branch2a_1"
		lr_mult: 0.0
		decay_mult: 0.0
	}
	param {
		name: "bn3b2_branch2a_2"
		lr_mult: 0.0
		decay_mult: 0.0
	}
	param {
		name: "bn3b2_branch2a_3"
		lr_mult: 0.0
		decay_mult: 0.0
	}
	batch_norm_param {
		use_global_stats: true
	}
}

layer {
	bottom: "res3b2_branch2a"
	top: "res3b2_branch2a"
	name: "scale3b2_branch2a"
	type: "Scale"
	param {
		name: "scale3b2_branch2a_1"
		lr_mult: 0.0
		decay_mult: 0.0
	}
	param {
		name: "scale3b2_branch2a_2"
		lr_mult: 0.0
		decay_mult: 0.0
	}
	scale_param {
		bias_term: true
	}
}

layer {
	top: "res3b2_branch2a"
	bottom: "res3b2_branch2a"
	name: "res3b2_branch2a_relu"
	type: "ReLU"
}

layer {
	bottom: "res3b2_branch2a"
	top: "res3b2_branch2b"
	name: "res3b2_branch2b"
	type: "Convolution"
	param {
		name: "res3b2_branch2b_w"
		lr_mult: 0.0
		decay_mult: 0.0
	}
	convolution_param {
		num_output: 128
		kernel_size: 3
		pad: 1
		stride: 1
		bias_term: false
	}
}

layer {
	bottom: "res3b2_branch2b"
	top: "res3b2_branch2b"
	name: "bn3b2_branch2b"
	type: "BatchNorm"
	param {
		name: "bn3b2_branch2b_1"
		lr_mult: 0.0
		decay_mult: 0.0
	}
	param {
		name: "bn3b2_branch2b_2"
		lr_mult: 0.0
		decay_mult: 0.0
	}
	param {
		name: "bn3b2_branch2b_3"
		lr_mult: 0.0
		decay_mult: 0.0
	}
	batch_norm_param {
		use_global_stats: true
	}
}

layer {
	bottom: "res3b2_branch2b"
	top: "res3b2_branch2b"
	name: "scale3b2_branch2b"
	type: "Scale"
	param {
		name: "scale3b2_branch2b_1"
		lr_mult: 0.0
		decay_mult: 0.0
	}
	param {
		name: "scale3b2_branch2b_2"
		lr_mult: 0.0
		decay_mult: 0.0
	}
	scale_param {
		bias_term: true
	}
}

layer {
	top: "res3b2_branch2b"
	bottom: "res3b2_branch2b"
	name: "res3b2_branch2b_relu"
	type: "ReLU"
}

layer {
	bottom: "res3b2_branch2b"
	top: "res3b2_branch2c"
	name: "res3b2_branch2c"
	type: "Convolution"
	param {
		name: "res3b2_branch2c_w"
		lr_mult: 0.0
		decay_mult: 0.0
	}
	convolution_param {
		num_output: 512
		kernel_size: 1
		pad: 0
		stride: 1
		bias_term: false
	}
}

layer {
	bottom: "res3b2_branch2c"
	top: "res3b2_branch2c"
	name: "bn3b2_branch2c"
	type: "BatchNorm"
	param {
		name: "bn3b2_branch2c_1"
		lr_mult: 0.0
		decay_mult: 0.0
	}
	param {
		name: "bn3b2_branch2c_2"
		lr_mult: 0.0
		decay_mult: 0.0
	}
	param {
		name: "bn3b2_branch2c_3"
		lr_mult: 0.0
		decay_mult: 0.0
	}
	batch_norm_param {
		use_global_stats: true
	}
}

layer {
	bottom: "res3b2_branch2c"
	top: "res3b2_branch2c"
	name: "scale3b2_branch2c"
	type: "Scale"
	param {
		name: "scale3b2_branch2c_1"
		lr_mult: 0.0
		decay_mult: 0.0
	}
	param {
		name: "scale3b2_branch2c_2"
		lr_mult: 0.0
		decay_mult: 0.0
	}
	scale_param {
		bias_term: true
	}
}

layer {
	bottom: "res3b1"
	bottom: "res3b2_branch2c"
	top: "res3b2"
	name: "res3b2"
	type: "Eltwise"
}

layer {
	bottom: "res3b2"
	top: "res3b2"
	name: "res3b2_relu"
	type: "ReLU"
}

layer {
	bottom: "res3b2"
	top: "res3b3_branch2a"
	name: "res3b3_branch2a"
	type: "Convolution"
	param {
		name: "res3b3_branch2a_w"
		lr_mult: 0.0
		decay_mult: 0.0
	}
	convolution_param {
		num_output: 128
		kernel_size: 1
		pad: 0
		stride: 1
		bias_term: false
	}
}

layer {
	bottom: "res3b3_branch2a"
	top: "res3b3_branch2a"
	name: "bn3b3_branch2a"
	type: "BatchNorm"
	param {
		name: "bn3b3_branch2a_1"
		lr_mult: 0.0
		decay_mult: 0.0
	}
	param {
		name: "bn3b3_branch2a_2"
		lr_mult: 0.0
		decay_mult: 0.0
	}
	param {
		name: "bn3b3_branch2a_3"
		lr_mult: 0.0
		decay_mult: 0.0
	}
	batch_norm_param {
		use_global_stats: true
	}
}

layer {
	bottom: "res3b3_branch2a"
	top: "res3b3_branch2a"
	name: "scale3b3_branch2a"
	type: "Scale"
	param {
		name: "scale3b3_branch2a_1"
		lr_mult: 0.0
		decay_mult: 0.0
	}
	param {
		name: "scale3b3_branch2a_2"
		lr_mult: 0.0
		decay_mult: 0.0
	}
	scale_param {
		bias_term: true
	}
}

layer {
	top: "res3b3_branch2a"
	bottom: "res3b3_branch2a"
	name: "res3b3_branch2a_relu"
	type: "ReLU"
}

layer {
	bottom: "res3b3_branch2a"
	top: "res3b3_branch2b"
	name: "res3b3_branch2b"
	type: "Convolution"
	param {
		name: "res3b3_branch2b_w"
		lr_mult: 0.0
		decay_mult: 0.0
	}
	convolution_param {
		num_output: 128
		kernel_size: 3
		pad: 1
		stride: 1
		bias_term: false
	}
}

layer {
	bottom: "res3b3_branch2b"
	top: "res3b3_branch2b"
	name: "bn3b3_branch2b"
	type: "BatchNorm"
	param {
		name: "bn3b3_branch2b_1"
		lr_mult: 0.0
		decay_mult: 0.0
	}
	param {
		name: "bn3b3_branch2b_2"
		lr_mult: 0.0
		decay_mult: 0.0
	}
	param {
		name: "bn3b3_branch2b_3"
		lr_mult: 0.0
		decay_mult: 0.0
	}
	batch_norm_param {
		use_global_stats: true
	}
}

layer {
	bottom: "res3b3_branch2b"
	top: "res3b3_branch2b"
	name: "scale3b3_branch2b"
	type: "Scale"
	param {
		name: "scale3b3_branch2b_1"
		lr_mult: 0.0
		decay_mult: 0.0
	}
	param {
		name: "scale3b3_branch2b_2"
		lr_mult: 0.0
		decay_mult: 0.0
	}
	scale_param {
		bias_term: true
	}
}

layer {
	top: "res3b3_branch2b"
	bottom: "res3b3_branch2b"
	name: "res3b3_branch2b_relu"
	type: "ReLU"
}

layer {
	bottom: "res3b3_branch2b"
	top: "res3b3_branch2c"
	name: "res3b3_branch2c"
	type: "Convolution"
	param {
		name: "res3b3_branch2c_w"
		lr_mult: 0.0
		decay_mult: 0.0
	}
	convolution_param {
		num_output: 512
		kernel_size: 1
		pad: 0
		stride: 1
		bias_term: false
	}
}

layer {
	bottom: "res3b3_branch2c"
	top: "res3b3_branch2c"
	name: "bn3b3_branch2c"
	type: "BatchNorm"
	param {
		name: "bn3b3_branch2c_1"
		lr_mult: 0.0
		decay_mult: 0.0
	}
	param {
		name: "bn3b3_branch2c_2"
		lr_mult: 0.0
		decay_mult: 0.0
	}
	param {
		name: "bn3b3_branch2c_3"
		lr_mult: 0.0
		decay_mult: 0.0
	}
	batch_norm_param {
		use_global_stats: true
	}
}

layer {
	bottom: "res3b3_branch2c"
	top: "res3b3_branch2c"
	name: "scale3b3_branch2c"
	type: "Scale"
	param {
		name: "scale3b3_branch2c_1"
		lr_mult: 0.0
		decay_mult: 0.0
	}
	param {
		name: "scale3b3_branch2c_2"
		lr_mult: 0.0
		decay_mult: 0.0
	}
	scale_param {
		bias_term: true
	}
}

layer {
	bottom: "res3b2"
	bottom: "res3b3_branch2c"
	top: "res3b3"
	name: "res3b3"
	type: "Eltwise"
}

layer {
	bottom: "res3b3"
	top: "res3b3"
	name: "res3b3_relu"
	type: "ReLU"
}

layer {
	bottom: "res3b3"
	top: "res4a_branch1"
	name: "res4a_branch1"
	type: "Convolution"
	param {
		name: "res4a_branch1_w"
		lr_mult: 0.0
		decay_mult: 0.0
	}
	convolution_param {
		num_output: 1024
		kernel_size: 1
		pad: 0
		stride: 2
		bias_term: false
	}
}

layer {
	bottom: "res4a_branch1"
	top: "res4a_branch1"
	name: "bn4a_branch1"
	type: "BatchNorm"
	param {
		name: "bn4a_branch1_1"
		lr_mult: 0.0
		decay_mult: 0.0
	}
	param {
		name: "bn4a_branch1_2"
		lr_mult: 0.0
		decay_mult: 0.0
	}
	param {
		name: "bn4a_branch1_3"
		lr_mult: 0.0
		decay_mult: 0.0
	}
	batch_norm_param {
		use_global_stats: true
	}
}

layer {
	bottom: "res4a_branch1"
	top: "res4a_branch1"
	name: "scale4a_branch1"
	type: "Scale"
	param {
		name: "scale4a_branch1_1"
		lr_mult: 0.0
		decay_mult: 0.0
	}
	param {
		name: "scale4a_branch1_2"
		lr_mult: 0.0
		decay_mult: 0.0
	}
	scale_param {
		bias_term: true
	}
}

layer {
	bottom: "res3b3"
	top: "res4a_branch2a"
	name: "res4a_branch2a"
	type: "Convolution"
	param {
		name: "res4a_branch2a_w"
		lr_mult: 0.0
		decay_mult: 0.0
	}
	convolution_param {
		num_output: 256
		kernel_size: 1
		pad: 0
		stride: 2
		bias_term: false
	}
}

layer {
	bottom: "res4a_branch2a"
	top: "res4a_branch2a"
	name: "bn4a_branch2a"
	type: "BatchNorm"
	param {
		name: "bn4a_branch2a_1"
		lr_mult: 0.0
		decay_mult: 0.0
	}
	param {
		name: "bn4a_branch2a_2"
		lr_mult: 0.0
		decay_mult: 0.0
	}
	param {
		name: "bn4a_branch2a_3"
		lr_mult: 0.0
		decay_mult: 0.0
	}
	batch_norm_param {
		use_global_stats: true
	}
}

layer {
	bottom: "res4a_branch2a"
	top: "res4a_branch2a"
	name: "scale4a_branch2a"
	type: "Scale"
	param {
		name: "scale4a_branch2a_1"
		lr_mult: 0.0
		decay_mult: 0.0
	}
	param {
		name: "scale4a_branch2a_2"
		lr_mult: 0.0
		decay_mult: 0.0
	}
	scale_param {
		bias_term: true
	}
}

layer {
	top: "res4a_branch2a"
	bottom: "res4a_branch2a"
	name: "res4a_branch2a_relu"
	type: "ReLU"
}

layer {
	bottom: "res4a_branch2a"
	top: "res4a_branch2b"
	name: "res4a_branch2b"
	type: "Convolution"
	param {
		name: "res4a_branch2b_w"
		lr_mult: 0.0
		decay_mult: 0.0
	}
	convolution_param {
		num_output: 256
		kernel_size: 3
		pad: 1
		stride: 1
		bias_term: false
	}
}

layer {
	bottom: "res4a_branch2b"
	top: "res4a_branch2b"
	name: "bn4a_branch2b"
	type: "BatchNorm"
	param {
		name: "bn4a_branch2b_1"
		lr_mult: 0.0
		decay_mult: 0.0
	}
	param {
		name: "bn4a_branch2b_2"
		lr_mult: 0.0
		decay_mult: 0.0
	}
	param {
		name: "bn4a_branch2b_3"
		lr_mult: 0.0
		decay_mult: 0.0
	}
	batch_norm_param {
		use_global_stats: true
	}
}

layer {
	bottom: "res4a_branch2b"
	top: "res4a_branch2b"
	name: "scale4a_branch2b"
	type: "Scale"
	param {
		name: "scale4a_branch2b_1"
		lr_mult: 0.0
		decay_mult: 0.0
	}
	param {
		name: "scale4a_branch2b_2"
		lr_mult: 0.0
		decay_mult: 0.0
	}
	scale_param {
		bias_term: true
	}
}

layer {
	top: "res4a_branch2b"
	bottom: "res4a_branch2b"
	name: "res4a_branch2b_relu"
	type: "ReLU"
}

layer {
	bottom: "res4a_branch2b"
	top: "res4a_branch2c"
	name: "res4a_branch2c"
	type: "Convolution"
	param {
		name: "res4a_branch2c_w"
		lr_mult: 0.0
		decay_mult: 0.0
	}
	convolution_param {
		num_output: 1024
		kernel_size: 1
		pad: 0
		stride: 1
		bias_term: false
	}
}

layer {
	bottom: "res4a_branch2c"
	top: "res4a_branch2c"
	name: "bn4a_branch2c"
	type: "BatchNorm"
	param {
		name: "bn4a_branch2c_1"
		lr_mult: 0.0
		decay_mult: 0.0
	}
	param {
		name: "bn4a_branch2c_2"
		lr_mult: 0.0
		decay_mult: 0.0
	}
	param {
		name: "bn4a_branch2c_3"
		lr_mult: 0.0
		decay_mult: 0.0
	}
	batch_norm_param {
		use_global_stats: true
	}
}

layer {
	bottom: "res4a_branch2c"
	top: "res4a_branch2c"
	name: "scale4a_branch2c"
	type: "Scale"
	param {
		name: "scale4a_branch2c_1"
		lr_mult: 0.0
		decay_mult: 0.0
	}
	param {
		name: "scale4a_branch2c_2"
		lr_mult: 0.0
		decay_mult: 0.0
	}
	scale_param {
		bias_term: true
	}
}

layer {
	bottom: "res4a_branch1"
	bottom: "res4a_branch2c"
	top: "res4a"
	name: "res4a"
	type: "Eltwise"
}

layer {
	bottom: "res4a"
	top: "res4a"
	name: "res4a_relu"
	type: "ReLU"
}

layer {
	bottom: "res4a"
	top: "res4b1_branch2a"
	name: "res4b1_branch2a"
	type: "Convolution"
	param {
		name: "res4b1_branch2a_w"
		lr_mult: 0.0
		decay_mult: 0.0
	}
	convolution_param {
		num_output: 256
		kernel_size: 1
		pad: 0
		stride: 1
		bias_term: false
	}
}

layer {
	bottom: "res4b1_branch2a"
	top: "res4b1_branch2a"
	name: "bn4b1_branch2a"
	type: "BatchNorm"
	param {
		name: "bn4b1_branch2a_1"
		lr_mult: 0.0
		decay_mult: 0.0
	}
	param {
		name: "bn4b1_branch2a_2"
		lr_mult: 0.0
		decay_mult: 0.0
	}
	param {
		name: "bn4b1_branch2a_3"
		lr_mult: 0.0
		decay_mult: 0.0
	}
	batch_norm_param {
		use_global_stats: true
	}
}

layer {
	bottom: "res4b1_branch2a"
	top: "res4b1_branch2a"
	name: "scale4b1_branch2a"
	type: "Scale"
	param {
		name: "scale4b1_branch2a_1"
		lr_mult: 0.0
		decay_mult: 0.0
	}
	param {
		name: "scale4b1_branch2a_2"
		lr_mult: 0.0
		decay_mult: 0.0
	}
	scale_param {
		bias_term: true
	}
}

layer {
	top: "res4b1_branch2a"
	bottom: "res4b1_branch2a"
	name: "res4b1_branch2a_relu"
	type: "ReLU"
}

layer {
	bottom: "res4b1_branch2a"
	top: "res4b1_branch2b"
	name: "res4b1_branch2b"
	type: "Convolution"
	param {
		name: "res4b1_branch2b_w"
		lr_mult: 0.0
		decay_mult: 0.0
	}
	convolution_param {
		num_output: 256
		kernel_size: 3
		pad: 1
		stride: 1
		bias_term: false
	}
}

layer {
	bottom: "res4b1_branch2b"
	top: "res4b1_branch2b"
	name: "bn4b1_branch2b"
	type: "BatchNorm"
	param {
		name: "bn4b1_branch2b_1"
		lr_mult: 0.0
		decay_mult: 0.0
	}
	param {
		name: "bn4b1_branch2b_2"
		lr_mult: 0.0
		decay_mult: 0.0
	}
	param {
		name: "bn4b1_branch2b_3"
		lr_mult: 0.0
		decay_mult: 0.0
	}
	batch_norm_param {
		use_global_stats: true
	}
}

layer {
	bottom: "res4b1_branch2b"
	top: "res4b1_branch2b"
	name: "scale4b1_branch2b"
	type: "Scale"
	param {
		name: "scale4b1_branch2b_1"
		lr_mult: 0.0
		decay_mult: 0.0
	}
	param {
		name: "scale4b1_branch2b_2"
		lr_mult: 0.0
		decay_mult: 0.0
	}
	scale_param {
		bias_term: true
	}
}

layer {
	top: "res4b1_branch2b"
	bottom: "res4b1_branch2b"
	name: "res4b1_branch2b_relu"
	type: "ReLU"
}

layer {
	bottom: "res4b1_branch2b"
	top: "res4b1_branch2c"
	name: "res4b1_branch2c"
	type: "Convolution"
	param {
		name: "res4b1_branch2c_w"
		lr_mult: 0.0
		decay_mult: 0.0
	}
	convolution_param {
		num_output: 1024
		kernel_size: 1
		pad: 0
		stride: 1
		bias_term: false
	}
}

layer {
	bottom: "res4b1_branch2c"
	top: "res4b1_branch2c"
	name: "bn4b1_branch2c"
	type: "BatchNorm"
	param {
		name: "bn4b1_branch2c_1"
		lr_mult: 0.0
		decay_mult: 0.0
	}
	param {
		name: "bn4b1_branch2c_2"
		lr_mult: 0.0
		decay_mult: 0.0
	}
	param {
		name: "bn4b1_branch2c_3"
		lr_mult: 0.0
		decay_mult: 0.0
	}
	batch_norm_param {
		use_global_stats: true
	}
}

layer {
	bottom: "res4b1_branch2c"
	top: "res4b1_branch2c"
	name: "scale4b1_branch2c"
	type: "Scale"
	param {
		name: "scale4b1_branch2c_1"
		lr_mult: 0.0
		decay_mult: 0.0
	}
	param {
		name: "scale4b1_branch2c_2"
		lr_mult: 0.0
		decay_mult: 0.0
	}
	scale_param {
		bias_term: true
	}
}

layer {
	bottom: "res4a"
	bottom: "res4b1_branch2c"
	top: "res4b1"
	name: "res4b1"
	type: "Eltwise"
}

layer {
	bottom: "res4b1"
	top: "res4b1"
	name: "res4b1_relu"
	type: "ReLU"
}

layer {
	bottom: "res4b1"
	top: "res4b2_branch2a"
	name: "res4b2_branch2a"
	type: "Convolution"
	param {
		name: "res4b2_branch2a_w"
		lr_mult: 0.0
		decay_mult: 0.0
	}
	convolution_param {
		num_output: 256
		kernel_size: 1
		pad: 0
		stride: 1
		bias_term: false
	}
}

layer {
	bottom: "res4b2_branch2a"
	top: "res4b2_branch2a"
	name: "bn4b2_branch2a"
	type: "BatchNorm"
	param {
		name: "bn4b2_branch2a_1"
		lr_mult: 0.0
		decay_mult: 0.0
	}
	param {
		name: "bn4b2_branch2a_2"
		lr_mult: 0.0
		decay_mult: 0.0
	}
	param {
		name: "bn4b2_branch2a_3"
		lr_mult: 0.0
		decay_mult: 0.0
	}
	batch_norm_param {
		use_global_stats: true
	}
}

layer {
	bottom: "res4b2_branch2a"
	top: "res4b2_branch2a"
	name: "scale4b2_branch2a"
	type: "Scale"
	param {
		name: "scale4b2_branch2a_1"
		lr_mult: 0.0
		decay_mult: 0.0
	}
	param {
		name: "scale4b2_branch2a_2"
		lr_mult: 0.0
		decay_mult: 0.0
	}
	scale_param {
		bias_term: true
	}
}

layer {
	top: "res4b2_branch2a"
	bottom: "res4b2_branch2a"
	name: "res4b2_branch2a_relu"
	type: "ReLU"
}

layer {
	bottom: "res4b2_branch2a"
	top: "res4b2_branch2b"
	name: "res4b2_branch2b"
	type: "Convolution"
	param {
		name: "res4b2_branch2b_w"
		lr_mult: 0.0
		decay_mult: 0.0
	}
	convolution_param {
		num_output: 256
		kernel_size: 3
		pad: 1
		stride: 1
		bias_term: false
	}
}

layer {
	bottom: "res4b2_branch2b"
	top: "res4b2_branch2b"
	name: "bn4b2_branch2b"
	type: "BatchNorm"
	param {
		name: "bn4b2_branch2b_1"
		lr_mult: 0.0
		decay_mult: 0.0
	}
	param {
		name: "bn4b2_branch2b_2"
		lr_mult: 0.0
		decay_mult: 0.0
	}
	param {
		name: "bn4b2_branch2b_3"
		lr_mult: 0.0
		decay_mult: 0.0
	}
	batch_norm_param {
		use_global_stats: true
	}
}

layer {
	bottom: "res4b2_branch2b"
	top: "res4b2_branch2b"
	name: "scale4b2_branch2b"
	type: "Scale"
	param {
		name: "scale4b2_branch2b_1"
		lr_mult: 0.0
		decay_mult: 0.0
	}
	param {
		name: "scale4b2_branch2b_2"
		lr_mult: 0.0
		decay_mult: 0.0
	}
	scale_param {
		bias_term: true
	}
}

layer {
	top: "res4b2_branch2b"
	bottom: "res4b2_branch2b"
	name: "res4b2_branch2b_relu"
	type: "ReLU"
}

layer {
	bottom: "res4b2_branch2b"
	top: "res4b2_branch2c"
	name: "res4b2_branch2c"
	type: "Convolution"
	param {
		name: "res4b2_branch2c_w"
		lr_mult: 0.0
		decay_mult: 0.0
	}
	convolution_param {
		num_output: 1024
		kernel_size: 1
		pad: 0
		stride: 1
		bias_term: false
	}
}

layer {
	bottom: "res4b2_branch2c"
	top: "res4b2_branch2c"
	name: "bn4b2_branch2c"
	type: "BatchNorm"
	param {
		name: "bn4b2_branch2c_1"
		lr_mult: 0.0
		decay_mult: 0.0
	}
	param {
		name: "bn4b2_branch2c_2"
		lr_mult: 0.0
		decay_mult: 0.0
	}
	param {
		name: "bn4b2_branch2c_3"
		lr_mult: 0.0
		decay_mult: 0.0
	}
	batch_norm_param {
		use_global_stats: true
	}
}

layer {
	bottom: "res4b2_branch2c"
	top: "res4b2_branch2c"
	name: "scale4b2_branch2c"
	type: "Scale"
	param {
		name: "scale4b2_branch2c_1"
		lr_mult: 0.0
		decay_mult: 0.0
	}
	param {
		name: "scale4b2_branch2c_2"
		lr_mult: 0.0
		decay_mult: 0.0
	}
	scale_param {
		bias_term: true
	}
}

layer {
	bottom: "res4b1"
	bottom: "res4b2_branch2c"
	top: "res4b2"
	name: "res4b2"
	type: "Eltwise"
}

layer {
	bottom: "res4b2"
	top: "res4b2"
	name: "res4b2_relu"
	type: "ReLU"
}

layer {
	bottom: "res4b2"
	top: "res4b3_branch2a"
	name: "res4b3_branch2a"
	type: "Convolution"
	param {
		name: "res4b3_branch2a_w"
		lr_mult: 0.0
		decay_mult: 0.0
	}
	convolution_param {
		num_output: 256
		kernel_size: 1
		pad: 0
		stride: 1
		bias_term: false
	}
}

layer {
	bottom: "res4b3_branch2a"
	top: "res4b3_branch2a"
	name: "bn4b3_branch2a"
	type: "BatchNorm"
	param {
		name: "bn4b3_branch2a_1"
		lr_mult: 0.0
		decay_mult: 0.0
	}
	param {
		name: "bn4b3_branch2a_2"
		lr_mult: 0.0
		decay_mult: 0.0
	}
	param {
		name: "bn4b3_branch2a_3"
		lr_mult: 0.0
		decay_mult: 0.0
	}
	batch_norm_param {
		use_global_stats: true
	}
}

layer {
	bottom: "res4b3_branch2a"
	top: "res4b3_branch2a"
	name: "scale4b3_branch2a"
	type: "Scale"
	param {
		name: "scale4b3_branch2a_1"
		lr_mult: 0.0
		decay_mult: 0.0
	}
	param {
		name: "scale4b3_branch2a_2"
		lr_mult: 0.0
		decay_mult: 0.0
	}
	scale_param {
		bias_term: true
	}
}

layer {
	top: "res4b3_branch2a"
	bottom: "res4b3_branch2a"
	name: "res4b3_branch2a_relu"
	type: "ReLU"
}

layer {
	bottom: "res4b3_branch2a"
	top: "res4b3_branch2b"
	name: "res4b3_branch2b"
	type: "Convolution"
	param {
		name: "res4b3_branch2b_w"
		lr_mult: 0.0
		decay_mult: 0.0
	}
	convolution_param {
		num_output: 256
		kernel_size: 3
		pad: 1
		stride: 1
		bias_term: false
	}
}

layer {
	bottom: "res4b3_branch2b"
	top: "res4b3_branch2b"
	name: "bn4b3_branch2b"
	type: "BatchNorm"
	param {
		name: "bn4b3_branch2b_1"
		lr_mult: 0.0
		decay_mult: 0.0
	}
	param {
		name: "bn4b3_branch2b_2"
		lr_mult: 0.0
		decay_mult: 0.0
	}
	param {
		name: "bn4b3_branch2b_3"
		lr_mult: 0.0
		decay_mult: 0.0
	}
	batch_norm_param {
		use_global_stats: true
	}
}

layer {
	bottom: "res4b3_branch2b"
	top: "res4b3_branch2b"
	name: "scale4b3_branch2b"
	type: "Scale"
	param {
		name: "scale4b3_branch2b_1"
		lr_mult: 0.0
		decay_mult: 0.0
	}
	param {
		name: "scale4b3_branch2b_2"
		lr_mult: 0.0
		decay_mult: 0.0
	}
	scale_param {
		bias_term: true
	}
}

layer {
	top: "res4b3_branch2b"
	bottom: "res4b3_branch2b"
	name: "res4b3_branch2b_relu"
	type: "ReLU"
}

layer {
	bottom: "res4b3_branch2b"
	top: "res4b3_branch2c"
	name: "res4b3_branch2c"
	type: "Convolution"
	param {
		name: "res4b3_branch2c_w"
		lr_mult: 0.0
		decay_mult: 0.0
	}
	convolution_param {
		num_output: 1024
		kernel_size: 1
		pad: 0
		stride: 1
		bias_term: false
	}
}

layer {
	bottom: "res4b3_branch2c"
	top: "res4b3_branch2c"
	name: "bn4b3_branch2c"
	type: "BatchNorm"
	param {
		name: "bn4b3_branch2c_1"
		lr_mult: 0.0
		decay_mult: 0.0
	}
	param {
		name: "bn4b3_branch2c_2"
		lr_mult: 0.0
		decay_mult: 0.0
	}
	param {
		name: "bn4b3_branch2c_3"
		lr_mult: 0.0
		decay_mult: 0.0
	}
	batch_norm_param {
		use_global_stats: true
	}
}

layer {
	bottom: "res4b3_branch2c"
	top: "res4b3_branch2c"
	name: "scale4b3_branch2c"
	type: "Scale"
	param {
		name: "scale4b3_branch2c_1"
		lr_mult: 0.0
		decay_mult: 0.0
	}
	param {
		name: "scale4b3_branch2c_2"
		lr_mult: 0.0
		decay_mult: 0.0
	}
	scale_param {
		bias_term: true
	}
}

layer {
	bottom: "res4b2"
	bottom: "res4b3_branch2c"
	top: "res4b3"
	name: "res4b3"
	type: "Eltwise"
}

layer {
	bottom: "res4b3"
	top: "res4b3"
	name: "res4b3_relu"
	type: "ReLU"
}

layer {
	bottom: "res4b3"
	top: "res4b4_branch2a"
	name: "res4b4_branch2a"
	type: "Convolution"
	param {
		name: "res4b4_branch2a_w"
		lr_mult: 0.0
		decay_mult: 0.0
	}
	convolution_param {
		num_output: 256
		kernel_size: 1
		pad: 0
		stride: 1
		bias_term: false
	}
}

layer {
	bottom: "res4b4_branch2a"
	top: "res4b4_branch2a"
	name: "bn4b4_branch2a"
	type: "BatchNorm"
	param {
		name: "bn4b4_branch2a_1"
		lr_mult: 0.0
		decay_mult: 0.0
	}
	param {
		name: "bn4b4_branch2a_2"
		lr_mult: 0.0
		decay_mult: 0.0
	}
	param {
		name: "bn4b4_branch2a_3"
		lr_mult: 0.0
		decay_mult: 0.0
	}
	batch_norm_param {
		use_global_stats: true
	}
}

layer {
	bottom: "res4b4_branch2a"
	top: "res4b4_branch2a"
	name: "scale4b4_branch2a"
	type: "Scale"
	param {
		name: "scale4b4_branch2a_1"
		lr_mult: 0.0
		decay_mult: 0.0
	}
	param {
		name: "scale4b4_branch2a_2"
		lr_mult: 0.0
		decay_mult: 0.0
	}
	scale_param {
		bias_term: true
	}
}

layer {
	top: "res4b4_branch2a"
	bottom: "res4b4_branch2a"
	name: "res4b4_branch2a_relu"
	type: "ReLU"
}

layer {
	bottom: "res4b4_branch2a"
	top: "res4b4_branch2b"
	name: "res4b4_branch2b"
	type: "Convolution"
	param {
		name: "res4b4_branch2b_w"
		lr_mult: 0.0
		decay_mult: 0.0
	}
	convolution_param {
		num_output: 256
		kernel_size: 3
		pad: 1
		stride: 1
		bias_term: false
	}
}

layer {
	bottom: "res4b4_branch2b"
	top: "res4b4_branch2b"
	name: "bn4b4_branch2b"
	type: "BatchNorm"
	param {
		name: "bn4b4_branch2b_1"
		lr_mult: 0.0
		decay_mult: 0.0
	}
	param {
		name: "bn4b4_branch2b_2"
		lr_mult: 0.0
		decay_mult: 0.0
	}
	param {
		name: "bn4b4_branch2b_3"
		lr_mult: 0.0
		decay_mult: 0.0
	}
	batch_norm_param {
		use_global_stats: true
	}
}

layer {
	bottom: "res4b4_branch2b"
	top: "res4b4_branch2b"
	name: "scale4b4_branch2b"
	type: "Scale"
	param {
		name: "scale4b4_branch2b_1"
		lr_mult: 0.0
		decay_mult: 0.0
	}
	param {
		name: "scale4b4_branch2b_2"
		lr_mult: 0.0
		decay_mult: 0.0
	}
	scale_param {
		bias_term: true
	}
}

layer {
	top: "res4b4_branch2b"
	bottom: "res4b4_branch2b"
	name: "res4b4_branch2b_relu"
	type: "ReLU"
}

layer {
	bottom: "res4b4_branch2b"
	top: "res4b4_branch2c"
	name: "res4b4_branch2c"
	type: "Convolution"
	param {
		name: "res4b4_branch2c_w"
		lr_mult: 0.0
		decay_mult: 0.0
	}
	convolution_param {
		num_output: 1024
		kernel_size: 1
		pad: 0
		stride: 1
		bias_term: false
	}
}

layer {
	bottom: "res4b4_branch2c"
	top: "res4b4_branch2c"
	name: "bn4b4_branch2c"
	type: "BatchNorm"
	param {
		name: "bn4b4_branch2c_1"
		lr_mult: 0.0
		decay_mult: 0.0
	}
	param {
		name: "bn4b4_branch2c_2"
		lr_mult: 0.0
		decay_mult: 0.0
	}
	param {
		name: "bn4b4_branch2c_3"
		lr_mult: 0.0
		decay_mult: 0.0
	}
	batch_norm_param {
		use_global_stats: true
	}
}

layer {
	bottom: "res4b4_branch2c"
	top: "res4b4_branch2c"
	name: "scale4b4_branch2c"
	type: "Scale"
	param {
		name: "scale4b4_branch2c_1"
		lr_mult: 0.0
		decay_mult: 0.0
	}
	param {
		name: "scale4b4_branch2c_2"
		lr_mult: 0.0
		decay_mult: 0.0
	}
	scale_param {
		bias_term: true
	}
}

layer {
	bottom: "res4b3"
	bottom: "res4b4_branch2c"
	top: "res4b4"
	name: "res4b4"
	type: "Eltwise"
}

layer {
	bottom: "res4b4"
	top: "res4b4"
	name: "res4b4_relu"
	type: "ReLU"
}

layer {
	bottom: "res4b4"
	top: "res4b5_branch2a"
	name: "res4b5_branch2a"
	type: "Convolution"
	param {
		name: "res4b5_branch2a_w"
		lr_mult: 0.0
		decay_mult: 0.0
	}
	convolution_param {
		num_output: 256
		kernel_size: 1
		pad: 0
		stride: 1
		bias_term: false
	}
}

layer {
	bottom: "res4b5_branch2a"
	top: "res4b5_branch2a"
	name: "bn4b5_branch2a"
	type: "BatchNorm"
	param {
		name: "bn4b5_branch2a_1"
		lr_mult: 0.0
		decay_mult: 0.0
	}
	param {
		name: "bn4b5_branch2a_2"
		lr_mult: 0.0
		decay_mult: 0.0
	}
	param {
		name: "bn4b5_branch2a_3"
		lr_mult: 0.0
		decay_mult: 0.0
	}
	batch_norm_param {
		use_global_stats: true
	}
}

layer {
	bottom: "res4b5_branch2a"
	top: "res4b5_branch2a"
	name: "scale4b5_branch2a"
	type: "Scale"
	param {
		name: "scale4b5_branch2a_1"
		lr_mult: 0.0
		decay_mult: 0.0
	}
	param {
		name: "scale4b5_branch2a_2"
		lr_mult: 0.0
		decay_mult: 0.0
	}
	scale_param {
		bias_term: true
	}
}

layer {
	top: "res4b5_branch2a"
	bottom: "res4b5_branch2a"
	name: "res4b5_branch2a_relu"
	type: "ReLU"
}

layer {
	bottom: "res4b5_branch2a"
	top: "res4b5_branch2b"
	name: "res4b5_branch2b"
	type: "Convolution"
	param {
		name: "res4b5_branch2b_w"
		lr_mult: 0.0
		decay_mult: 0.0
	}
	convolution_param {
		num_output: 256
		kernel_size: 3
		pad: 1
		stride: 1
		bias_term: false
	}
}

layer {
	bottom: "res4b5_branch2b"
	top: "res4b5_branch2b"
	name: "bn4b5_branch2b"
	type: "BatchNorm"
	param {
		name: "bn4b5_branch2b_1"
		lr_mult: 0.0
		decay_mult: 0.0
	}
	param {
		name: "bn4b5_branch2b_2"
		lr_mult: 0.0
		decay_mult: 0.0
	}
	param {
		name: "bn4b5_branch2b_3"
		lr_mult: 0.0
		decay_mult: 0.0
	}
	batch_norm_param {
		use_global_stats: true
	}
}

layer {
	bottom: "res4b5_branch2b"
	top: "res4b5_branch2b"
	name: "scale4b5_branch2b"
	type: "Scale"
	param {
		name: "scale4b5_branch2b_1"
		lr_mult: 0.0
		decay_mult: 0.0
	}
	param {
		name: "scale4b5_branch2b_2"
		lr_mult: 0.0
		decay_mult: 0.0
	}
	scale_param {
		bias_term: true
	}
}

layer {
	top: "res4b5_branch2b"
	bottom: "res4b5_branch2b"
	name: "res4b5_branch2b_relu"
	type: "ReLU"
}

layer {
	bottom: "res4b5_branch2b"
	top: "res4b5_branch2c"
	name: "res4b5_branch2c"
	type: "Convolution"
	param {
		name: "res4b5_branch2c_w"
		lr_mult: 0.0
		decay_mult: 0.0
	}
	convolution_param {
		num_output: 1024
		kernel_size: 1
		pad: 0
		stride: 1
		bias_term: false
	}
}

layer {
	bottom: "res4b5_branch2c"
	top: "res4b5_branch2c"
	name: "bn4b5_branch2c"
	type: "BatchNorm"
	param {
		name: "bn4b5_branch2c_1"
		lr_mult: 0.0
		decay_mult: 0.0
	}
	param {
		name: "bn4b5_branch2c_2"
		lr_mult: 0.0
		decay_mult: 0.0
	}
	param {
		name: "bn4b5_branch2c_3"
		lr_mult: 0.0
		decay_mult: 0.0
	}
	batch_norm_param {
		use_global_stats: true
	}
}

layer {
	bottom: "res4b5_branch2c"
	top: "res4b5_branch2c"
	name: "scale4b5_branch2c"
	type: "Scale"
	param {
		name: "scale4b5_branch2c_1"
		lr_mult: 0.0
		decay_mult: 0.0
	}
	param {
		name: "scale4b5_branch2c_2"
		lr_mult: 0.0
		decay_mult: 0.0
	}
	scale_param {
		bias_term: true
	}
}

layer {
	bottom: "res4b4"
	bottom: "res4b5_branch2c"
	top: "res4b5"
	name: "res4b5"
	type: "Eltwise"
}

layer {
	bottom: "res4b5"
	top: "res4b5"
	name: "res4b5_relu"
	type: "ReLU"
}

layer {
	bottom: "res4b5"
	top: "res4b6_branch2a"
	name: "res4b6_branch2a"
	type: "Convolution"
	param {
		name: "res4b6_branch2a_w"
		lr_mult: 0.0
		decay_mult: 0.0
	}
	convolution_param {
		num_output: 256
		kernel_size: 1
		pad: 0
		stride: 1
		bias_term: false
	}
}

layer {
	bottom: "res4b6_branch2a"
	top: "res4b6_branch2a"
	name: "bn4b6_branch2a"
	type: "BatchNorm"
	param {
		name: "bn4b6_branch2a_1"
		lr_mult: 0.0
		decay_mult: 0.0
	}
	param {
		name: "bn4b6_branch2a_2"
		lr_mult: 0.0
		decay_mult: 0.0
	}
	param {
		name: "bn4b6_branch2a_3"
		lr_mult: 0.0
		decay_mult: 0.0
	}
	batch_norm_param {
		use_global_stats: true
	}
}

layer {
	bottom: "res4b6_branch2a"
	top: "res4b6_branch2a"
	name: "scale4b6_branch2a"
	type: "Scale"
	param {
		name: "scale4b6_branch2a_1"
		lr_mult: 0.0
		decay_mult: 0.0
	}
	param {
		name: "scale4b6_branch2a_2"
		lr_mult: 0.0
		decay_mult: 0.0
	}
	scale_param {
		bias_term: true
	}
}

layer {
	top: "res4b6_branch2a"
	bottom: "res4b6_branch2a"
	name: "res4b6_branch2a_relu"
	type: "ReLU"
}

layer {
	bottom: "res4b6_branch2a"
	top: "res4b6_branch2b"
	name: "res4b6_branch2b"
	type: "Convolution"
	param {
		name: "res4b6_branch2b_w"
		lr_mult: 0.0
		decay_mult: 0.0
	}
	convolution_param {
		num_output: 256
		kernel_size: 3
		pad: 1
		stride: 1
		bias_term: false
	}
}

layer {
	bottom: "res4b6_branch2b"
	top: "res4b6_branch2b"
	name: "bn4b6_branch2b"
	type: "BatchNorm"
	param {
		name: "bn4b6_branch2b_1"
		lr_mult: 0.0
		decay_mult: 0.0
	}
	param {
		name: "bn4b6_branch2b_2"
		lr_mult: 0.0
		decay_mult: 0.0
	}
	param {
		name: "bn4b6_branch2b_3"
		lr_mult: 0.0
		decay_mult: 0.0
	}
	batch_norm_param {
		use_global_stats: true
	}
}

layer {
	bottom: "res4b6_branch2b"
	top: "res4b6_branch2b"
	name: "scale4b6_branch2b"
	type: "Scale"
	param {
		name: "scale4b6_branch2b_1"
		lr_mult: 0.0
		decay_mult: 0.0
	}
	param {
		name: "scale4b6_branch2b_2"
		lr_mult: 0.0
		decay_mult: 0.0
	}
	scale_param {
		bias_term: true
	}
}

layer {
	top: "res4b6_branch2b"
	bottom: "res4b6_branch2b"
	name: "res4b6_branch2b_relu"
	type: "ReLU"
}

layer {
	bottom: "res4b6_branch2b"
	top: "res4b6_branch2c"
	name: "res4b6_branch2c"
	type: "Convolution"
	param {
		name: "res4b6_branch2c_w"
		lr_mult: 0.0
		decay_mult: 0.0
	}
	convolution_param {
		num_output: 1024
		kernel_size: 1
		pad: 0
		stride: 1
		bias_term: false
	}
}

layer {
	bottom: "res4b6_branch2c"
	top: "res4b6_branch2c"
	name: "bn4b6_branch2c"
	type: "BatchNorm"
	param {
		name: "bn4b6_branch2c_1"
		lr_mult: 0.0
		decay_mult: 0.0
	}
	param {
		name: "bn4b6_branch2c_2"
		lr_mult: 0.0
		decay_mult: 0.0
	}
	param {
		name: "bn4b6_branch2c_3"
		lr_mult: 0.0
		decay_mult: 0.0
	}
	batch_norm_param {
		use_global_stats: true
	}
}

layer {
	bottom: "res4b6_branch2c"
	top: "res4b6_branch2c"
	name: "scale4b6_branch2c"
	type: "Scale"
	param {
		name: "scale4b6_branch2c_1"
		lr_mult: 0.0
		decay_mult: 0.0
	}
	param {
		name: "scale4b6_branch2c_2"
		lr_mult: 0.0
		decay_mult: 0.0
	}
	scale_param {
		bias_term: true
	}
}

layer {
	bottom: "res4b5"
	bottom: "res4b6_branch2c"
	top: "res4b6"
	name: "res4b6"
	type: "Eltwise"
}

layer {
	bottom: "res4b6"
	top: "res4b6"
	name: "res4b6_relu"
	type: "ReLU"
}

layer {
	bottom: "res4b6"
	top: "res4b7_branch2a"
	name: "res4b7_branch2a"
	type: "Convolution"
	param {
		name: "res4b7_branch2a_w"
		lr_mult: 0.0
		decay_mult: 0.0
	}
	convolution_param {
		num_output: 256
		kernel_size: 1
		pad: 0
		stride: 1
		bias_term: false
	}
}

layer {
	bottom: "res4b7_branch2a"
	top: "res4b7_branch2a"
	name: "bn4b7_branch2a"
	type: "BatchNorm"
	param {
		name: "bn4b7_branch2a_1"
		lr_mult: 0.0
		decay_mult: 0.0
	}
	param {
		name: "bn4b7_branch2a_2"
		lr_mult: 0.0
		decay_mult: 0.0
	}
	param {
		name: "bn4b7_branch2a_3"
		lr_mult: 0.0
		decay_mult: 0.0
	}
	batch_norm_param {
		use_global_stats: true
	}
}

layer {
	bottom: "res4b7_branch2a"
	top: "res4b7_branch2a"
	name: "scale4b7_branch2a"
	type: "Scale"
	param {
		name: "scale4b7_branch2a_1"
		lr_mult: 0.0
		decay_mult: 0.0
	}
	param {
		name: "scale4b7_branch2a_2"
		lr_mult: 0.0
		decay_mult: 0.0
	}
	scale_param {
		bias_term: true
	}
}

layer {
	top: "res4b7_branch2a"
	bottom: "res4b7_branch2a"
	name: "res4b7_branch2a_relu"
	type: "ReLU"
}

layer {
	bottom: "res4b7_branch2a"
	top: "res4b7_branch2b"
	name: "res4b7_branch2b"
	type: "Convolution"
	param {
		name: "res4b7_branch2b_w"
		lr_mult: 0.0
		decay_mult: 0.0
	}
	convolution_param {
		num_output: 256
		kernel_size: 3
		pad: 1
		stride: 1
		bias_term: false
	}
}

layer {
	bottom: "res4b7_branch2b"
	top: "res4b7_branch2b"
	name: "bn4b7_branch2b"
	type: "BatchNorm"
	param {
		name: "bn4b7_branch2b_1"
		lr_mult: 0.0
		decay_mult: 0.0
	}
	param {
		name: "bn4b7_branch2b_2"
		lr_mult: 0.0
		decay_mult: 0.0
	}
	param {
		name: "bn4b7_branch2b_3"
		lr_mult: 0.0
		decay_mult: 0.0
	}
	batch_norm_param {
		use_global_stats: true
	}
}

layer {
	bottom: "res4b7_branch2b"
	top: "res4b7_branch2b"
	name: "scale4b7_branch2b"
	type: "Scale"
	param {
		name: "scale4b7_branch2b_1"
		lr_mult: 0.0
		decay_mult: 0.0
	}
	param {
		name: "scale4b7_branch2b_2"
		lr_mult: 0.0
		decay_mult: 0.0
	}
	scale_param {
		bias_term: true
	}
}

layer {
	top: "res4b7_branch2b"
	bottom: "res4b7_branch2b"
	name: "res4b7_branch2b_relu"
	type: "ReLU"
}

layer {
	bottom: "res4b7_branch2b"
	top: "res4b7_branch2c"
	name: "res4b7_branch2c"
	type: "Convolution"
	param {
		name: "res4b7_branch2c_w"
		lr_mult: 0.0
		decay_mult: 0.0
	}
	convolution_param {
		num_output: 1024
		kernel_size: 1
		pad: 0
		stride: 1
		bias_term: false
	}
}

layer {
	bottom: "res4b7_branch2c"
	top: "res4b7_branch2c"
	name: "bn4b7_branch2c"
	type: "BatchNorm"
	param {
		name: "bn4b7_branch2c_1"
		lr_mult: 0.0
		decay_mult: 0.0
	}
	param {
		name: "bn4b7_branch2c_2"
		lr_mult: 0.0
		decay_mult: 0.0
	}
	param {
		name: "bn4b7_branch2c_3"
		lr_mult: 0.0
		decay_mult: 0.0
	}
	batch_norm_param {
		use_global_stats: true
	}
}

layer {
	bottom: "res4b7_branch2c"
	top: "res4b7_branch2c"
	name: "scale4b7_branch2c"
	type: "Scale"
	param {
		name: "scale4b7_branch2c_1"
		lr_mult: 0.0
		decay_mult: 0.0
	}
	param {
		name: "scale4b7_branch2c_2"
		lr_mult: 0.0
		decay_mult: 0.0
	}
	scale_param {
		bias_term: true
	}
}

layer {
	bottom: "res4b6"
	bottom: "res4b7_branch2c"
	top: "res4b7"
	name: "res4b7"
	type: "Eltwise"
}

layer {
	bottom: "res4b7"
	top: "res4b7"
	name: "res4b7_relu"
	type: "ReLU"
}

layer {
	bottom: "res4b7"
	top: "res4b8_branch2a"
	name: "res4b8_branch2a"
	type: "Convolution"
	param {
		name: "res4b8_branch2a_w"
		lr_mult: 0.0
		decay_mult: 0.0
	}
	convolution_param {
		num_output: 256
		kernel_size: 1
		pad: 0
		stride: 1
		bias_term: false
	}
}

layer {
	bottom: "res4b8_branch2a"
	top: "res4b8_branch2a"
	name: "bn4b8_branch2a"
	type: "BatchNorm"
	param {
		name: "bn4b8_branch2a_1"
		lr_mult: 0.0
		decay_mult: 0.0
	}
	param {
		name: "bn4b8_branch2a_2"
		lr_mult: 0.0
		decay_mult: 0.0
	}
	param {
		name: "bn4b8_branch2a_3"
		lr_mult: 0.0
		decay_mult: 0.0
	}
	batch_norm_param {
		use_global_stats: true
	}
}

layer {
	bottom: "res4b8_branch2a"
	top: "res4b8_branch2a"
	name: "scale4b8_branch2a"
	type: "Scale"
	param {
		name: "scale4b8_branch2a_1"
		lr_mult: 0.0
		decay_mult: 0.0
	}
	param {
		name: "scale4b8_branch2a_2"
		lr_mult: 0.0
		decay_mult: 0.0
	}
	scale_param {
		bias_term: true
	}
}

layer {
	top: "res4b8_branch2a"
	bottom: "res4b8_branch2a"
	name: "res4b8_branch2a_relu"
	type: "ReLU"
}

layer {
	bottom: "res4b8_branch2a"
	top: "res4b8_branch2b"
	name: "res4b8_branch2b"
	type: "Convolution"
	param {
		name: "res4b8_branch2b_w"
		lr_mult: 0.0
		decay_mult: 0.0
	}
	convolution_param {
		num_output: 256
		kernel_size: 3
		pad: 1
		stride: 1
		bias_term: false
	}
}

layer {
	bottom: "res4b8_branch2b"
	top: "res4b8_branch2b"
	name: "bn4b8_branch2b"
	type: "BatchNorm"
	param {
		name: "bn4b8_branch2b_1"
		lr_mult: 0.0
		decay_mult: 0.0
	}
	param {
		name: "bn4b8_branch2b_2"
		lr_mult: 0.0
		decay_mult: 0.0
	}
	param {
		name: "bn4b8_branch2b_3"
		lr_mult: 0.0
		decay_mult: 0.0
	}
	batch_norm_param {
		use_global_stats: true
	}
}

layer {
	bottom: "res4b8_branch2b"
	top: "res4b8_branch2b"
	name: "scale4b8_branch2b"
	type: "Scale"
	param {
		name: "scale4b8_branch2b_1"
		lr_mult: 0.0
		decay_mult: 0.0
	}
	param {
		name: "scale4b8_branch2b_2"
		lr_mult: 0.0
		decay_mult: 0.0
	}
	scale_param {
		bias_term: true
	}
}

layer {
	top: "res4b8_branch2b"
	bottom: "res4b8_branch2b"
	name: "res4b8_branch2b_relu"
	type: "ReLU"
}

layer {
	bottom: "res4b8_branch2b"
	top: "res4b8_branch2c"
	name: "res4b8_branch2c"
	type: "Convolution"
	param {
		name: "res4b8_branch2c_w"
		lr_mult: 0.0
		decay_mult: 0.0
	}
	convolution_param {
		num_output: 1024
		kernel_size: 1
		pad: 0
		stride: 1
		bias_term: false
	}
}

layer {
	bottom: "res4b8_branch2c"
	top: "res4b8_branch2c"
	name: "bn4b8_branch2c"
	type: "BatchNorm"
	param {
		name: "bn4b8_branch2c_1"
		lr_mult: 0.0
		decay_mult: 0.0
	}
	param {
		name: "bn4b8_branch2c_2"
		lr_mult: 0.0
		decay_mult: 0.0
	}
	param {
		name: "bn4b8_branch2c_3"
		lr_mult: 0.0
		decay_mult: 0.0
	}
	batch_norm_param {
		use_global_stats: true
	}
}

layer {
	bottom: "res4b8_branch2c"
	top: "res4b8_branch2c"
	name: "scale4b8_branch2c"
	type: "Scale"
	param {
		name: "scale4b8_branch2c_1"
		lr_mult: 0.0
		decay_mult: 0.0
	}
	param {
		name: "scale4b8_branch2c_2"
		lr_mult: 0.0
		decay_mult: 0.0
	}
	scale_param {
		bias_term: true
	}
}

layer {
	bottom: "res4b7"
	bottom: "res4b8_branch2c"
	top: "res4b8"
	name: "res4b8"
	type: "Eltwise"
}

layer {
	bottom: "res4b8"
	top: "res4b8"
	name: "res4b8_relu"
	type: "ReLU"
}

layer {
	bottom: "res4b8"
	top: "res4b9_branch2a"
	name: "res4b9_branch2a"
	type: "Convolution"
	param {
		name: "res4b9_branch2a_w"
		lr_mult: 0.0
		decay_mult: 0.0
	}
	convolution_param {
		num_output: 256
		kernel_size: 1
		pad: 0
		stride: 1
		bias_term: false
	}
}

layer {
	bottom: "res4b9_branch2a"
	top: "res4b9_branch2a"
	name: "bn4b9_branch2a"
	type: "BatchNorm"
	param {
		name: "bn4b9_branch2a_1"
		lr_mult: 0.0
		decay_mult: 0.0
	}
	param {
		name: "bn4b9_branch2a_2"
		lr_mult: 0.0
		decay_mult: 0.0
	}
	param {
		name: "bn4b9_branch2a_3"
		lr_mult: 0.0
		decay_mult: 0.0
	}
	batch_norm_param {
		use_global_stats: true
	}
}

layer {
	bottom: "res4b9_branch2a"
	top: "res4b9_branch2a"
	name: "scale4b9_branch2a"
	type: "Scale"
	param {
		name: "scale4b9_branch2a_1"
		lr_mult: 0.0
		decay_mult: 0.0
	}
	param {
		name: "scale4b9_branch2a_2"
		lr_mult: 0.0
		decay_mult: 0.0
	}
	scale_param {
		bias_term: true
	}
}

layer {
	top: "res4b9_branch2a"
	bottom: "res4b9_branch2a"
	name: "res4b9_branch2a_relu"
	type: "ReLU"
}

layer {
	bottom: "res4b9_branch2a"
	top: "res4b9_branch2b"
	name: "res4b9_branch2b"
	type: "Convolution"
	param {
		name: "res4b9_branch2b_w"
		lr_mult: 0.0
		decay_mult: 0.0
	}
	convolution_param {
		num_output: 256
		kernel_size: 3
		pad: 1
		stride: 1
		bias_term: false
	}
}

layer {
	bottom: "res4b9_branch2b"
	top: "res4b9_branch2b"
	name: "bn4b9_branch2b"
	type: "BatchNorm"
	param {
		name: "bn4b9_branch2b_1"
		lr_mult: 0.0
		decay_mult: 0.0
	}
	param {
		name: "bn4b9_branch2b_2"
		lr_mult: 0.0
		decay_mult: 0.0
	}
	param {
		name: "bn4b9_branch2b_3"
		lr_mult: 0.0
		decay_mult: 0.0
	}
	batch_norm_param {
		use_global_stats: true
	}
}

layer {
	bottom: "res4b9_branch2b"
	top: "res4b9_branch2b"
	name: "scale4b9_branch2b"
	type: "Scale"
	param {
		name: "scale4b9_branch2b_1"
		lr_mult: 0.0
		decay_mult: 0.0
	}
	param {
		name: "scale4b9_branch2b_2"
		lr_mult: 0.0
		decay_mult: 0.0
	}
	scale_param {
		bias_term: true
	}
}

layer {
	top: "res4b9_branch2b"
	bottom: "res4b9_branch2b"
	name: "res4b9_branch2b_relu"
	type: "ReLU"
}

layer {
	bottom: "res4b9_branch2b"
	top: "res4b9_branch2c"
	name: "res4b9_branch2c"
	type: "Convolution"
	param {
		name: "res4b9_branch2c_w"
		lr_mult: 0.0
		decay_mult: 0.0
	}
	convolution_param {
		num_output: 1024
		kernel_size: 1
		pad: 0
		stride: 1
		bias_term: false
	}
}

layer {
	bottom: "res4b9_branch2c"
	top: "res4b9_branch2c"
	name: "bn4b9_branch2c"
	type: "BatchNorm"
	param {
		name: "bn4b9_branch2c_1"
		lr_mult: 0.0
		decay_mult: 0.0
	}
	param {
		name: "bn4b9_branch2c_2"
		lr_mult: 0.0
		decay_mult: 0.0
	}
	param {
		name: "bn4b9_branch2c_3"
		lr_mult: 0.0
		decay_mult: 0.0
	}
	batch_norm_param {
		use_global_stats: true
	}
}

layer {
	bottom: "res4b9_branch2c"
	top: "res4b9_branch2c"
	name: "scale4b9_branch2c"
	type: "Scale"
	param {
		name: "scale4b9_branch2c_1"
		lr_mult: 0.0
		decay_mult: 0.0
	}
	param {
		name: "scale4b9_branch2c_2"
		lr_mult: 0.0
		decay_mult: 0.0
	}
	scale_param {
		bias_term: true
	}
}

layer {
	bottom: "res4b8"
	bottom: "res4b9_branch2c"
	top: "res4b9"
	name: "res4b9"
	type: "Eltwise"
}

layer {
	bottom: "res4b9"
	top: "res4b9"
	name: "res4b9_relu"
	type: "ReLU"
}

layer {
	bottom: "res4b9"
	top: "res4b10_branch2a"
	name: "res4b10_branch2a"
	type: "Convolution"
	param {
		name: "res4b10_branch2a_w"
		lr_mult: 0.0
		decay_mult: 0.0
	}
	convolution_param {
		num_output: 256
		kernel_size: 1
		pad: 0
		stride: 1
		bias_term: false
	}
}

layer {
	bottom: "res4b10_branch2a"
	top: "res4b10_branch2a"
	name: "bn4b10_branch2a"
	type: "BatchNorm"
	param {
		name: "bn4b10_branch2a_1"
		lr_mult: 0.0
		decay_mult: 0.0
	}
	param {
		name: "bn4b10_branch2a_2"
		lr_mult: 0.0
		decay_mult: 0.0
	}
	param {
		name: "bn4b10_branch2a_3"
		lr_mult: 0.0
		decay_mult: 0.0
	}
	batch_norm_param {
		use_global_stats: true
	}
}

layer {
	bottom: "res4b10_branch2a"
	top: "res4b10_branch2a"
	name: "scale4b10_branch2a"
	type: "Scale"
	param {
		name: "scale4b10_branch2a_1"
		lr_mult: 0.0
		decay_mult: 0.0
	}
	param {
		name: "scale4b10_branch2a_2"
		lr_mult: 0.0
		decay_mult: 0.0
	}
	scale_param {
		bias_term: true
	}
}

layer {
	top: "res4b10_branch2a"
	bottom: "res4b10_branch2a"
	name: "res4b10_branch2a_relu"
	type: "ReLU"
}

layer {
	bottom: "res4b10_branch2a"
	top: "res4b10_branch2b"
	name: "res4b10_branch2b"
	type: "Convolution"
	param {
		name: "res4b10_branch2b_w"
		lr_mult: 0.0
		decay_mult: 0.0
	}
	convolution_param {
		num_output: 256
		kernel_size: 3
		pad: 1
		stride: 1
		bias_term: false
	}
}

layer {
	bottom: "res4b10_branch2b"
	top: "res4b10_branch2b"
	name: "bn4b10_branch2b"
	type: "BatchNorm"
	param {
		name: "bn4b10_branch2b_1"
		lr_mult: 0.0
		decay_mult: 0.0
	}
	param {
		name: "bn4b10_branch2b_2"
		lr_mult: 0.0
		decay_mult: 0.0
	}
	param {
		name: "bn4b10_branch2b_3"
		lr_mult: 0.0
		decay_mult: 0.0
	}
	batch_norm_param {
		use_global_stats: true
	}
}

layer {
	bottom: "res4b10_branch2b"
	top: "res4b10_branch2b"
	name: "scale4b10_branch2b"
	type: "Scale"
	param {
		name: "scale4b10_branch2b_1"
		lr_mult: 0.0
		decay_mult: 0.0
	}
	param {
		name: "scale4b10_branch2b_2"
		lr_mult: 0.0
		decay_mult: 0.0
	}
	scale_param {
		bias_term: true
	}
}

layer {
	top: "res4b10_branch2b"
	bottom: "res4b10_branch2b"
	name: "res4b10_branch2b_relu"
	type: "ReLU"
}

layer {
	bottom: "res4b10_branch2b"
	top: "res4b10_branch2c"
	name: "res4b10_branch2c"
	type: "Convolution"
	param {
		name: "res4b10_branch2c_w"
		lr_mult: 0.0
		decay_mult: 0.0
	}
	convolution_param {
		num_output: 1024
		kernel_size: 1
		pad: 0
		stride: 1
		bias_term: false
	}
}

layer {
	bottom: "res4b10_branch2c"
	top: "res4b10_branch2c"
	name: "bn4b10_branch2c"
	type: "BatchNorm"
	param {
		name: "bn4b10_branch2c_1"
		lr_mult: 0.0
		decay_mult: 0.0
	}
	param {
		name: "bn4b10_branch2c_2"
		lr_mult: 0.0
		decay_mult: 0.0
	}
	param {
		name: "bn4b10_branch2c_3"
		lr_mult: 0.0
		decay_mult: 0.0
	}
	batch_norm_param {
		use_global_stats: true
	}
}

layer {
	bottom: "res4b10_branch2c"
	top: "res4b10_branch2c"
	name: "scale4b10_branch2c"
	type: "Scale"
	param {
		name: "scale4b10_branch2c_1"
		lr_mult: 0.0
		decay_mult: 0.0
	}
	param {
		name: "scale4b10_branch2c_2"
		lr_mult: 0.0
		decay_mult: 0.0
	}
	scale_param {
		bias_term: true
	}
}

layer {
	bottom: "res4b9"
	bottom: "res4b10_branch2c"
	top: "res4b10"
	name: "res4b10"
	type: "Eltwise"
}

layer {
	bottom: "res4b10"
	top: "res4b10"
	name: "res4b10_relu"
	type: "ReLU"
}

layer {
	bottom: "res4b10"
	top: "res4b11_branch2a"
	name: "res4b11_branch2a"
	type: "Convolution"
	param {
		name: "res4b11_branch2a_w"
		lr_mult: 0.0
		decay_mult: 0.0
	}
	convolution_param {
		num_output: 256
		kernel_size: 1
		pad: 0
		stride: 1
		bias_term: false
	}
}

layer {
	bottom: "res4b11_branch2a"
	top: "res4b11_branch2a"
	name: "bn4b11_branch2a"
	type: "BatchNorm"
	param {
		name: "bn4b11_branch2a_1"
		lr_mult: 0.0
		decay_mult: 0.0
	}
	param {
		name: "bn4b11_branch2a_2"
		lr_mult: 0.0
		decay_mult: 0.0
	}
	param {
		name: "bn4b11_branch2a_3"
		lr_mult: 0.0
		decay_mult: 0.0
	}
	batch_norm_param {
		use_global_stats: true
	}
}

layer {
	bottom: "res4b11_branch2a"
	top: "res4b11_branch2a"
	name: "scale4b11_branch2a"
	type: "Scale"
	param {
		name: "scale4b11_branch2a_1"
		lr_mult: 0.0
		decay_mult: 0.0
	}
	param {
		name: "scale4b11_branch2a_2"
		lr_mult: 0.0
		decay_mult: 0.0
	}
	scale_param {
		bias_term: true
	}
}

layer {
	top: "res4b11_branch2a"
	bottom: "res4b11_branch2a"
	name: "res4b11_branch2a_relu"
	type: "ReLU"
}

layer {
	bottom: "res4b11_branch2a"
	top: "res4b11_branch2b"
	name: "res4b11_branch2b"
	type: "Convolution"
	param {
		name: "res4b11_branch2b_w"
		lr_mult: 0.0
		decay_mult: 0.0
	}
	convolution_param {
		num_output: 256
		kernel_size: 3
		pad: 1
		stride: 1
		bias_term: false
	}
}

layer {
	bottom: "res4b11_branch2b"
	top: "res4b11_branch2b"
	name: "bn4b11_branch2b"
	type: "BatchNorm"
	param {
		name: "bn4b11_branch2b_1"
		lr_mult: 0.0
		decay_mult: 0.0
	}
	param {
		name: "bn4b11_branch2b_2"
		lr_mult: 0.0
		decay_mult: 0.0
	}
	param {
		name: "bn4b11_branch2b_3"
		lr_mult: 0.0
		decay_mult: 0.0
	}
	batch_norm_param {
		use_global_stats: true
	}
}

layer {
	bottom: "res4b11_branch2b"
	top: "res4b11_branch2b"
	name: "scale4b11_branch2b"
	type: "Scale"
	param {
		name: "scale4b11_branch2b_1"
		lr_mult: 0.0
		decay_mult: 0.0
	}
	param {
		name: "scale4b11_branch2b_2"
		lr_mult: 0.0
		decay_mult: 0.0
	}
	scale_param {
		bias_term: true
	}
}

layer {
	top: "res4b11_branch2b"
	bottom: "res4b11_branch2b"
	name: "res4b11_branch2b_relu"
	type: "ReLU"
}

layer {
	bottom: "res4b11_branch2b"
	top: "res4b11_branch2c"
	name: "res4b11_branch2c"
	type: "Convolution"
	param {
		name: "res4b11_branch2c_w"
		lr_mult: 0.0
		decay_mult: 0.0
	}
	convolution_param {
		num_output: 1024
		kernel_size: 1
		pad: 0
		stride: 1
		bias_term: false
	}
}

layer {
	bottom: "res4b11_branch2c"
	top: "res4b11_branch2c"
	name: "bn4b11_branch2c"
	type: "BatchNorm"
	param {
		name: "bn4b11_branch2c_1"
		lr_mult: 0.0
		decay_mult: 0.0
	}
	param {
		name: "bn4b11_branch2c_2"
		lr_mult: 0.0
		decay_mult: 0.0
	}
	param {
		name: "bn4b11_branch2c_3"
		lr_mult: 0.0
		decay_mult: 0.0
	}
	batch_norm_param {
		use_global_stats: true
	}
}

layer {
	bottom: "res4b11_branch2c"
	top: "res4b11_branch2c"
	name: "scale4b11_branch2c"
	type: "Scale"
	param {
		name: "scale4b11_branch2c_1"
		lr_mult: 0.0
		decay_mult: 0.0
	}
	param {
		name: "scale4b11_branch2c_2"
		lr_mult: 0.0
		decay_mult: 0.0
	}
	scale_param {
		bias_term: true
	}
}

layer {
	bottom: "res4b10"
	bottom: "res4b11_branch2c"
	top: "res4b11"
	name: "res4b11"
	type: "Eltwise"
}

layer {
	bottom: "res4b11"
	top: "res4b11"
	name: "res4b11_relu"
	type: "ReLU"
}

layer {
	bottom: "res4b11"
	top: "res4b12_branch2a"
	name: "res4b12_branch2a"
	type: "Convolution"
	param {
		name: "res4b12_branch2a_w"
		lr_mult: 0.0
		decay_mult: 0.0
	}
	convolution_param {
		num_output: 256
		kernel_size: 1
		pad: 0
		stride: 1
		bias_term: false
	}
}

layer {
	bottom: "res4b12_branch2a"
	top: "res4b12_branch2a"
	name: "bn4b12_branch2a"
	type: "BatchNorm"
	param {
		name: "bn4b12_branch2a_1"
		lr_mult: 0.0
		decay_mult: 0.0
	}
	param {
		name: "bn4b12_branch2a_2"
		lr_mult: 0.0
		decay_mult: 0.0
	}
	param {
		name: "bn4b12_branch2a_3"
		lr_mult: 0.0
		decay_mult: 0.0
	}
	batch_norm_param {
		use_global_stats: true
	}
}

layer {
	bottom: "res4b12_branch2a"
	top: "res4b12_branch2a"
	name: "scale4b12_branch2a"
	type: "Scale"
	param {
		name: "scale4b12_branch2a_1"
		lr_mult: 0.0
		decay_mult: 0.0
	}
	param {
		name: "scale4b12_branch2a_2"
		lr_mult: 0.0
		decay_mult: 0.0
	}
	scale_param {
		bias_term: true
	}
}

layer {
	top: "res4b12_branch2a"
	bottom: "res4b12_branch2a"
	name: "res4b12_branch2a_relu"
	type: "ReLU"
}

layer {
	bottom: "res4b12_branch2a"
	top: "res4b12_branch2b"
	name: "res4b12_branch2b"
	type: "Convolution"
	param {
		name: "res4b12_branch2b_w"
		lr_mult: 0.0
		decay_mult: 0.0
	}
	convolution_param {
		num_output: 256
		kernel_size: 3
		pad: 1
		stride: 1
		bias_term: false
	}
}

layer {
	bottom: "res4b12_branch2b"
	top: "res4b12_branch2b"
	name: "bn4b12_branch2b"
	type: "BatchNorm"
	param {
		name: "bn4b12_branch2b_1"
		lr_mult: 0.0
		decay_mult: 0.0
	}
	param {
		name: "bn4b12_branch2b_2"
		lr_mult: 0.0
		decay_mult: 0.0
	}
	param {
		name: "bn4b12_branch2b_3"
		lr_mult: 0.0
		decay_mult: 0.0
	}
	batch_norm_param {
		use_global_stats: true
	}
}

layer {
	bottom: "res4b12_branch2b"
	top: "res4b12_branch2b"
	name: "scale4b12_branch2b"
	type: "Scale"
	param {
		name: "scale4b12_branch2b_1"
		lr_mult: 0.0
		decay_mult: 0.0
	}
	param {
		name: "scale4b12_branch2b_2"
		lr_mult: 0.0
		decay_mult: 0.0
	}
	scale_param {
		bias_term: true
	}
}

layer {
	top: "res4b12_branch2b"
	bottom: "res4b12_branch2b"
	name: "res4b12_branch2b_relu"
	type: "ReLU"
}

layer {
	bottom: "res4b12_branch2b"
	top: "res4b12_branch2c"
	name: "res4b12_branch2c"
	type: "Convolution"
	param {
		name: "res4b12_branch2c_w"
		lr_mult: 0.0
		decay_mult: 0.0
	}
	convolution_param {
		num_output: 1024
		kernel_size: 1
		pad: 0
		stride: 1
		bias_term: false
	}
}

layer {
	bottom: "res4b12_branch2c"
	top: "res4b12_branch2c"
	name: "bn4b12_branch2c"
	type: "BatchNorm"
	param {
		name: "bn4b12_branch2c_1"
		lr_mult: 0.0
		decay_mult: 0.0
	}
	param {
		name: "bn4b12_branch2c_2"
		lr_mult: 0.0
		decay_mult: 0.0
	}
	param {
		name: "bn4b12_branch2c_3"
		lr_mult: 0.0
		decay_mult: 0.0
	}
	batch_norm_param {
		use_global_stats: true
	}
}

layer {
	bottom: "res4b12_branch2c"
	top: "res4b12_branch2c"
	name: "scale4b12_branch2c"
	type: "Scale"
	param {
		name: "scale4b12_branch2c_1"
		lr_mult: 0.0
		decay_mult: 0.0
	}
	param {
		name: "scale4b12_branch2c_2"
		lr_mult: 0.0
		decay_mult: 0.0
	}
	scale_param {
		bias_term: true
	}
}

layer {
	bottom: "res4b11"
	bottom: "res4b12_branch2c"
	top: "res4b12"
	name: "res4b12"
	type: "Eltwise"
}

layer {
	bottom: "res4b12"
	top: "res4b12"
	name: "res4b12_relu"
	type: "ReLU"
}

layer {
	bottom: "res4b12"
	top: "res4b13_branch2a"
	name: "res4b13_branch2a"
	type: "Convolution"
	param {
		name: "res4b13_branch2a_w"
		lr_mult: 0.0
		decay_mult: 0.0
	}
	convolution_param {
		num_output: 256
		kernel_size: 1
		pad: 0
		stride: 1
		bias_term: false
	}
}

layer {
	bottom: "res4b13_branch2a"
	top: "res4b13_branch2a"
	name: "bn4b13_branch2a"
	type: "BatchNorm"
	param {
		name: "bn4b13_branch2a_1"
		lr_mult: 0.0
		decay_mult: 0.0
	}
	param {
		name: "bn4b13_branch2a_2"
		lr_mult: 0.0
		decay_mult: 0.0
	}
	param {
		name: "bn4b13_branch2a_3"
		lr_mult: 0.0
		decay_mult: 0.0
	}
	batch_norm_param {
		use_global_stats: true
	}
}

layer {
	bottom: "res4b13_branch2a"
	top: "res4b13_branch2a"
	name: "scale4b13_branch2a"
	type: "Scale"
	param {
		name: "scale4b13_branch2a_1"
		lr_mult: 0.0
		decay_mult: 0.0
	}
	param {
		name: "scale4b13_branch2a_2"
		lr_mult: 0.0
		decay_mult: 0.0
	}
	scale_param {
		bias_term: true
	}
}

layer {
	top: "res4b13_branch2a"
	bottom: "res4b13_branch2a"
	name: "res4b13_branch2a_relu"
	type: "ReLU"
}

layer {
	bottom: "res4b13_branch2a"
	top: "res4b13_branch2b"
	name: "res4b13_branch2b"
	type: "Convolution"
	param {
		name: "res4b13_branch2b_w"
		lr_mult: 0.0
		decay_mult: 0.0
	}
	convolution_param {
		num_output: 256
		kernel_size: 3
		pad: 1
		stride: 1
		bias_term: false
	}
}

layer {
	bottom: "res4b13_branch2b"
	top: "res4b13_branch2b"
	name: "bn4b13_branch2b"
	type: "BatchNorm"
	param {
		name: "bn4b13_branch2b_1"
		lr_mult: 0.0
		decay_mult: 0.0
	}
	param {
		name: "bn4b13_branch2b_2"
		lr_mult: 0.0
		decay_mult: 0.0
	}
	param {
		name: "bn4b13_branch2b_3"
		lr_mult: 0.0
		decay_mult: 0.0
	}
	batch_norm_param {
		use_global_stats: true
	}
}

layer {
	bottom: "res4b13_branch2b"
	top: "res4b13_branch2b"
	name: "scale4b13_branch2b"
	type: "Scale"
	param {
		name: "scale4b13_branch2b_1"
		lr_mult: 0.0
		decay_mult: 0.0
	}
	param {
		name: "scale4b13_branch2b_2"
		lr_mult: 0.0
		decay_mult: 0.0
	}
	scale_param {
		bias_term: true
	}
}

layer {
	top: "res4b13_branch2b"
	bottom: "res4b13_branch2b"
	name: "res4b13_branch2b_relu"
	type: "ReLU"
}

layer {
	bottom: "res4b13_branch2b"
	top: "res4b13_branch2c"
	name: "res4b13_branch2c"
	type: "Convolution"
	param {
		name: "res4b13_branch2c_w"
		lr_mult: 0.0
		decay_mult: 0.0
	}
	convolution_param {
		num_output: 1024
		kernel_size: 1
		pad: 0
		stride: 1
		bias_term: false
	}
}

layer {
	bottom: "res4b13_branch2c"
	top: "res4b13_branch2c"
	name: "bn4b13_branch2c"
	type: "BatchNorm"
	param {
		name: "bn4b13_branch2c_1"
		lr_mult: 0.0
		decay_mult: 0.0
	}
	param {
		name: "bn4b13_branch2c_2"
		lr_mult: 0.0
		decay_mult: 0.0
	}
	param {
		name: "bn4b13_branch2c_3"
		lr_mult: 0.0
		decay_mult: 0.0
	}
	batch_norm_param {
		use_global_stats: true
	}
}

layer {
	bottom: "res4b13_branch2c"
	top: "res4b13_branch2c"
	name: "scale4b13_branch2c"
	type: "Scale"
	param {
		name: "scale4b13_branch2c_1"
		lr_mult: 0.0
		decay_mult: 0.0
	}
	param {
		name: "scale4b13_branch2c_2"
		lr_mult: 0.0
		decay_mult: 0.0
	}
	scale_param {
		bias_term: true
	}
}

layer {
	bottom: "res4b12"
	bottom: "res4b13_branch2c"
	top: "res4b13"
	name: "res4b13"
	type: "Eltwise"
}

layer {
	bottom: "res4b13"
	top: "res4b13"
	name: "res4b13_relu"
	type: "ReLU"
}

layer {
	bottom: "res4b13"
	top: "res4b14_branch2a"
	name: "res4b14_branch2a"
	type: "Convolution"
	param {
		name: "res4b14_branch2a_w"
		lr_mult: 0.0
		decay_mult: 0.0
	}
	convolution_param {
		num_output: 256
		kernel_size: 1
		pad: 0
		stride: 1
		bias_term: false
	}
}

layer {
	bottom: "res4b14_branch2a"
	top: "res4b14_branch2a"
	name: "bn4b14_branch2a"
	type: "BatchNorm"
	param {
		name: "bn4b14_branch2a_1"
		lr_mult: 0.0
		decay_mult: 0.0
	}
	param {
		name: "bn4b14_branch2a_2"
		lr_mult: 0.0
		decay_mult: 0.0
	}
	param {
		name: "bn4b14_branch2a_3"
		lr_mult: 0.0
		decay_mult: 0.0
	}
	batch_norm_param {
		use_global_stats: true
	}
}

layer {
	bottom: "res4b14_branch2a"
	top: "res4b14_branch2a"
	name: "scale4b14_branch2a"
	type: "Scale"
	param {
		name: "scale4b14_branch2a_1"
		lr_mult: 0.0
		decay_mult: 0.0
	}
	param {
		name: "scale4b14_branch2a_2"
		lr_mult: 0.0
		decay_mult: 0.0
	}
	scale_param {
		bias_term: true
	}
}

layer {
	top: "res4b14_branch2a"
	bottom: "res4b14_branch2a"
	name: "res4b14_branch2a_relu"
	type: "ReLU"
}

layer {
	bottom: "res4b14_branch2a"
	top: "res4b14_branch2b"
	name: "res4b14_branch2b"
	type: "Convolution"
	param {
		name: "res4b14_branch2b_w"
		lr_mult: 0.0
		decay_mult: 0.0
	}
	convolution_param {
		num_output: 256
		kernel_size: 3
		pad: 1
		stride: 1
		bias_term: false
	}
}

layer {
	bottom: "res4b14_branch2b"
	top: "res4b14_branch2b"
	name: "bn4b14_branch2b"
	type: "BatchNorm"
	param {
		name: "bn4b14_branch2b_1"
		lr_mult: 0.0
		decay_mult: 0.0
	}
	param {
		name: "bn4b14_branch2b_2"
		lr_mult: 0.0
		decay_mult: 0.0
	}
	param {
		name: "bn4b14_branch2b_3"
		lr_mult: 0.0
		decay_mult: 0.0
	}
	batch_norm_param {
		use_global_stats: true
	}
}

layer {
	bottom: "res4b14_branch2b"
	top: "res4b14_branch2b"
	name: "scale4b14_branch2b"
	type: "Scale"
	param {
		name: "scale4b14_branch2b_1"
		lr_mult: 0.0
		decay_mult: 0.0
	}
	param {
		name: "scale4b14_branch2b_2"
		lr_mult: 0.0
		decay_mult: 0.0
	}
	scale_param {
		bias_term: true
	}
}

layer {
	top: "res4b14_branch2b"
	bottom: "res4b14_branch2b"
	name: "res4b14_branch2b_relu"
	type: "ReLU"
}

layer {
	bottom: "res4b14_branch2b"
	top: "res4b14_branch2c"
	name: "res4b14_branch2c"
	type: "Convolution"
	param {
		name: "res4b14_branch2c_w"
		lr_mult: 0.0
		decay_mult: 0.0
	}
	convolution_param {
		num_output: 1024
		kernel_size: 1
		pad: 0
		stride: 1
		bias_term: false
	}
}

layer {
	bottom: "res4b14_branch2c"
	top: "res4b14_branch2c"
	name: "bn4b14_branch2c"
	type: "BatchNorm"
	param {
		name: "bn4b14_branch2c_1"
		lr_mult: 0.0
		decay_mult: 0.0
	}
	param {
		name: "bn4b14_branch2c_2"
		lr_mult: 0.0
		decay_mult: 0.0
	}
	param {
		name: "bn4b14_branch2c_3"
		lr_mult: 0.0
		decay_mult: 0.0
	}
	batch_norm_param {
		use_global_stats: true
	}
}

layer {
	bottom: "res4b14_branch2c"
	top: "res4b14_branch2c"
	name: "scale4b14_branch2c"
	type: "Scale"
	param {
		name: "scale4b14_branch2c_1"
		lr_mult: 0.0
		decay_mult: 0.0
	}
	param {
		name: "scale4b14_branch2c_2"
		lr_mult: 0.0
		decay_mult: 0.0
	}
	scale_param {
		bias_term: true
	}
}

layer {
	bottom: "res4b13"
	bottom: "res4b14_branch2c"
	top: "res4b14"
	name: "res4b14"
	type: "Eltwise"
}

layer {
	bottom: "res4b14"
	top: "res4b14"
	name: "res4b14_relu"
	type: "ReLU"
}

layer {
	bottom: "res4b14"
	top: "res4b15_branch2a"
	name: "res4b15_branch2a"
	type: "Convolution"
	param {
		name: "res4b15_branch2a_w"
		lr_mult: 0.0
		decay_mult: 0.0
	}
	convolution_param {
		num_output: 256
		kernel_size: 1
		pad: 0
		stride: 1
		bias_term: false
	}
}

layer {
	bottom: "res4b15_branch2a"
	top: "res4b15_branch2a"
	name: "bn4b15_branch2a"
	type: "BatchNorm"
	param {
		name: "bn4b15_branch2a_1"
		lr_mult: 0.0
		decay_mult: 0.0
	}
	param {
		name: "bn4b15_branch2a_2"
		lr_mult: 0.0
		decay_mult: 0.0
	}
	param {
		name: "bn4b15_branch2a_3"
		lr_mult: 0.0
		decay_mult: 0.0
	}
	batch_norm_param {
		use_global_stats: true
	}
}

layer {
	bottom: "res4b15_branch2a"
	top: "res4b15_branch2a"
	name: "scale4b15_branch2a"
	type: "Scale"
	param {
		name: "scale4b15_branch2a_1"
		lr_mult: 0.0
		decay_mult: 0.0
	}
	param {
		name: "scale4b15_branch2a_2"
		lr_mult: 0.0
		decay_mult: 0.0
	}
	scale_param {
		bias_term: true
	}
}

layer {
	top: "res4b15_branch2a"
	bottom: "res4b15_branch2a"
	name: "res4b15_branch2a_relu"
	type: "ReLU"
}

layer {
	bottom: "res4b15_branch2a"
	top: "res4b15_branch2b"
	name: "res4b15_branch2b"
	type: "Convolution"
	param {
		name: "res4b15_branch2b_w"
		lr_mult: 0.0
		decay_mult: 0.0
	}
	convolution_param {
		num_output: 256
		kernel_size: 3
		pad: 1
		stride: 1
		bias_term: false
	}
}

layer {
	bottom: "res4b15_branch2b"
	top: "res4b15_branch2b"
	name: "bn4b15_branch2b"
	type: "BatchNorm"
	param {
		name: "bn4b15_branch2b_1"
		lr_mult: 0.0
		decay_mult: 0.0
	}
	param {
		name: "bn4b15_branch2b_2"
		lr_mult: 0.0
		decay_mult: 0.0
	}
	param {
		name: "bn4b15_branch2b_3"
		lr_mult: 0.0
		decay_mult: 0.0
	}
	batch_norm_param {
		use_global_stats: true
	}
}

layer {
	bottom: "res4b15_branch2b"
	top: "res4b15_branch2b"
	name: "scale4b15_branch2b"
	type: "Scale"
	param {
		name: "scale4b15_branch2b_1"
		lr_mult: 0.0
		decay_mult: 0.0
	}
	param {
		name: "scale4b15_branch2b_2"
		lr_mult: 0.0
		decay_mult: 0.0
	}
	scale_param {
		bias_term: true
	}
}

layer {
	top: "res4b15_branch2b"
	bottom: "res4b15_branch2b"
	name: "res4b15_branch2b_relu"
	type: "ReLU"
}

layer {
	bottom: "res4b15_branch2b"
	top: "res4b15_branch2c"
	name: "res4b15_branch2c"
	type: "Convolution"
	param {
		name: "res4b15_branch2c_w"
		lr_mult: 0.0
		decay_mult: 0.0
	}
	convolution_param {
		num_output: 1024
		kernel_size: 1
		pad: 0
		stride: 1
		bias_term: false
	}
}

layer {
	bottom: "res4b15_branch2c"
	top: "res4b15_branch2c"
	name: "bn4b15_branch2c"
	type: "BatchNorm"
	param {
		name: "bn4b15_branch2c_1"
		lr_mult: 0.0
		decay_mult: 0.0
	}
	param {
		name: "bn4b15_branch2c_2"
		lr_mult: 0.0
		decay_mult: 0.0
	}
	param {
		name: "bn4b15_branch2c_3"
		lr_mult: 0.0
		decay_mult: 0.0
	}
	batch_norm_param {
		use_global_stats: true
	}
}

layer {
	bottom: "res4b15_branch2c"
	top: "res4b15_branch2c"
	name: "scale4b15_branch2c"
	type: "Scale"
	param {
		name: "scale4b15_branch2c_1"
		lr_mult: 0.0
		decay_mult: 0.0
	}
	param {
		name: "scale4b15_branch2c_2"
		lr_mult: 0.0
		decay_mult: 0.0
	}
	scale_param {
		bias_term: true
	}
}

layer {
	bottom: "res4b14"
	bottom: "res4b15_branch2c"
	top: "res4b15"
	name: "res4b15"
	type: "Eltwise"
}

layer {
	bottom: "res4b15"
	top: "res4b15"
	name: "res4b15_relu"
	type: "ReLU"
}

layer {
	bottom: "res4b15"
	top: "res4b16_branch2a"
	name: "res4b16_branch2a"
	type: "Convolution"
	param {
		name: "res4b16_branch2a_w"
		lr_mult: 0.0
		decay_mult: 0.0
	}
	convolution_param {
		num_output: 256
		kernel_size: 1
		pad: 0
		stride: 1
		bias_term: false
	}
}

layer {
	bottom: "res4b16_branch2a"
	top: "res4b16_branch2a"
	name: "bn4b16_branch2a"
	type: "BatchNorm"
	param {
		name: "bn4b16_branch2a_1"
		lr_mult: 0.0
		decay_mult: 0.0
	}
	param {
		name: "bn4b16_branch2a_2"
		lr_mult: 0.0
		decay_mult: 0.0
	}
	param {
		name: "bn4b16_branch2a_3"
		lr_mult: 0.0
		decay_mult: 0.0
	}
	batch_norm_param {
		use_global_stats: true
	}
}

layer {
	bottom: "res4b16_branch2a"
	top: "res4b16_branch2a"
	name: "scale4b16_branch2a"
	type: "Scale"
	param {
		name: "scale4b16_branch2a_1"
		lr_mult: 0.0
		decay_mult: 0.0
	}
	param {
		name: "scale4b16_branch2a_2"
		lr_mult: 0.0
		decay_mult: 0.0
	}
	scale_param {
		bias_term: true
	}
}

layer {
	top: "res4b16_branch2a"
	bottom: "res4b16_branch2a"
	name: "res4b16_branch2a_relu"
	type: "ReLU"
}

layer {
	bottom: "res4b16_branch2a"
	top: "res4b16_branch2b"
	name: "res4b16_branch2b"
	type: "Convolution"
	param {
		name: "res4b16_branch2b_w"
		lr_mult: 0.0
		decay_mult: 0.0
	}
	convolution_param {
		num_output: 256
		kernel_size: 3
		pad: 1
		stride: 1
		bias_term: false
	}
}

layer {
	bottom: "res4b16_branch2b"
	top: "res4b16_branch2b"
	name: "bn4b16_branch2b"
	type: "BatchNorm"
	param {
		name: "bn4b16_branch2b_1"
		lr_mult: 0.0
		decay_mult: 0.0
	}
	param {
		name: "bn4b16_branch2b_2"
		lr_mult: 0.0
		decay_mult: 0.0
	}
	param {
		name: "bn4b16_branch2b_3"
		lr_mult: 0.0
		decay_mult: 0.0
	}
	batch_norm_param {
		use_global_stats: true
	}
}

layer {
	bottom: "res4b16_branch2b"
	top: "res4b16_branch2b"
	name: "scale4b16_branch2b"
	type: "Scale"
	param {
		name: "scale4b16_branch2b_1"
		lr_mult: 0.0
		decay_mult: 0.0
	}
	param {
		name: "scale4b16_branch2b_2"
		lr_mult: 0.0
		decay_mult: 0.0
	}
	scale_param {
		bias_term: true
	}
}

layer {
	top: "res4b16_branch2b"
	bottom: "res4b16_branch2b"
	name: "res4b16_branch2b_relu"
	type: "ReLU"
}

layer {
	bottom: "res4b16_branch2b"
	top: "res4b16_branch2c"
	name: "res4b16_branch2c"
	type: "Convolution"
	param {
		name: "res4b16_branch2c_w"
		lr_mult: 0.0
		decay_mult: 0.0
	}
	convolution_param {
		num_output: 1024
		kernel_size: 1
		pad: 0
		stride: 1
		bias_term: false
	}
}

layer {
	bottom: "res4b16_branch2c"
	top: "res4b16_branch2c"
	name: "bn4b16_branch2c"
	type: "BatchNorm"
	param {
		name: "bn4b16_branch2c_1"
		lr_mult: 0.0
		decay_mult: 0.0
	}
	param {
		name: "bn4b16_branch2c_2"
		lr_mult: 0.0
		decay_mult: 0.0
	}
	param {
		name: "bn4b16_branch2c_3"
		lr_mult: 0.0
		decay_mult: 0.0
	}
	batch_norm_param {
		use_global_stats: true
	}
}

layer {
	bottom: "res4b16_branch2c"
	top: "res4b16_branch2c"
	name: "scale4b16_branch2c"
	type: "Scale"
	param {
		name: "scale4b16_branch2c_1"
		lr_mult: 0.0
		decay_mult: 0.0
	}
	param {
		name: "scale4b16_branch2c_2"
		lr_mult: 0.0
		decay_mult: 0.0
	}
	scale_param {
		bias_term: true
	}
}

layer {
	bottom: "res4b15"
	bottom: "res4b16_branch2c"
	top: "res4b16"
	name: "res4b16"
	type: "Eltwise"
}

layer {
	bottom: "res4b16"
	top: "res4b16"
	name: "res4b16_relu"
	type: "ReLU"
}

layer {
	bottom: "res4b16"
	top: "res4b17_branch2a"
	name: "res4b17_branch2a"
	type: "Convolution"
	param {
		name: "res4b17_branch2a_w"
		lr_mult: 0.0
		decay_mult: 0.0
	}
	convolution_param {
		num_output: 256
		kernel_size: 1
		pad: 0
		stride: 1
		bias_term: false
	}
}

layer {
	bottom: "res4b17_branch2a"
	top: "res4b17_branch2a"
	name: "bn4b17_branch2a"
	type: "BatchNorm"
	param {
		name: "bn4b17_branch2a_1"
		lr_mult: 0.0
		decay_mult: 0.0
	}
	param {
		name: "bn4b17_branch2a_2"
		lr_mult: 0.0
		decay_mult: 0.0
	}
	param {
		name: "bn4b17_branch2a_3"
		lr_mult: 0.0
		decay_mult: 0.0
	}
	batch_norm_param {
		use_global_stats: true
	}
}

layer {
	bottom: "res4b17_branch2a"
	top: "res4b17_branch2a"
	name: "scale4b17_branch2a"
	type: "Scale"
	param {
		name: "scale4b17_branch2a_1"
		lr_mult: 0.0
		decay_mult: 0.0
	}
	param {
		name: "scale4b17_branch2a_2"
		lr_mult: 0.0
		decay_mult: 0.0
	}
	scale_param {
		bias_term: true
	}
}

layer {
	top: "res4b17_branch2a"
	bottom: "res4b17_branch2a"
	name: "res4b17_branch2a_relu"
	type: "ReLU"
}

layer {
	bottom: "res4b17_branch2a"
	top: "res4b17_branch2b"
	name: "res4b17_branch2b"
	type: "Convolution"
	param {
		name: "res4b17_branch2b_w"
		lr_mult: 0.0
		decay_mult: 0.0
	}
	convolution_param {
		num_output: 256
		kernel_size: 3
		pad: 1
		stride: 1
		bias_term: false
	}
}

layer {
	bottom: "res4b17_branch2b"
	top: "res4b17_branch2b"
	name: "bn4b17_branch2b"
	type: "BatchNorm"
	param {
		name: "bn4b17_branch2b_1"
		lr_mult: 0.0
		decay_mult: 0.0
	}
	param {
		name: "bn4b17_branch2b_2"
		lr_mult: 0.0
		decay_mult: 0.0
	}
	param {
		name: "bn4b17_branch2b_3"
		lr_mult: 0.0
		decay_mult: 0.0
	}
	batch_norm_param {
		use_global_stats: true
	}
}

layer {
	bottom: "res4b17_branch2b"
	top: "res4b17_branch2b"
	name: "scale4b17_branch2b"
	type: "Scale"
	param {
		name: "scale4b17_branch2b_1"
		lr_mult: 0.0
		decay_mult: 0.0
	}
	param {
		name: "scale4b17_branch2b_2"
		lr_mult: 0.0
		decay_mult: 0.0
	}
	scale_param {
		bias_term: true
	}
}

layer {
	top: "res4b17_branch2b"
	bottom: "res4b17_branch2b"
	name: "res4b17_branch2b_relu"
	type: "ReLU"
}

layer {
	bottom: "res4b17_branch2b"
	top: "res4b17_branch2c"
	name: "res4b17_branch2c"
	type: "Convolution"
	param {
		name: "res4b17_branch2c_w"
		lr_mult: 0.0
		decay_mult: 0.0
	}
	convolution_param {
		num_output: 1024
		kernel_size: 1
		pad: 0
		stride: 1
		bias_term: false
	}
}

layer {
	bottom: "res4b17_branch2c"
	top: "res4b17_branch2c"
	name: "bn4b17_branch2c"
	type: "BatchNorm"
	param {
		name: "bn4b17_branch2c_1"
		lr_mult: 0.0
		decay_mult: 0.0
	}
	param {
		name: "bn4b17_branch2c_2"
		lr_mult: 0.0
		decay_mult: 0.0
	}
	param {
		name: "bn4b17_branch2c_3"
		lr_mult: 0.0
		decay_mult: 0.0
	}
	batch_norm_param {
		use_global_stats: true
	}
}

layer {
	bottom: "res4b17_branch2c"
	top: "res4b17_branch2c"
	name: "scale4b17_branch2c"
	type: "Scale"
	param {
		name: "scale4b17_branch2c_1"
		lr_mult: 0.0
		decay_mult: 0.0
	}
	param {
		name: "scale4b17_branch2c_2"
		lr_mult: 0.0
		decay_mult: 0.0
	}
	scale_param {
		bias_term: true
	}
}

layer {
	bottom: "res4b16"
	bottom: "res4b17_branch2c"
	top: "res4b17"
	name: "res4b17"
	type: "Eltwise"
}

layer {
	bottom: "res4b17"
	top: "res4b17"
	name: "res4b17_relu"
	type: "ReLU"
}

layer {
	bottom: "res4b17"
	top: "res4b18_branch2a"
	name: "res4b18_branch2a"
	type: "Convolution"
	param {
		name: "res4b18_branch2a_w"
		lr_mult: 0.0
		decay_mult: 0.0
	}
	convolution_param {
		num_output: 256
		kernel_size: 1
		pad: 0
		stride: 1
		bias_term: false
	}
}

layer {
	bottom: "res4b18_branch2a"
	top: "res4b18_branch2a"
	name: "bn4b18_branch2a"
	type: "BatchNorm"
	param {
		name: "bn4b18_branch2a_1"
		lr_mult: 0.0
		decay_mult: 0.0
	}
	param {
		name: "bn4b18_branch2a_2"
		lr_mult: 0.0
		decay_mult: 0.0
	}
	param {
		name: "bn4b18_branch2a_3"
		lr_mult: 0.0
		decay_mult: 0.0
	}
	batch_norm_param {
		use_global_stats: true
	}
}

layer {
	bottom: "res4b18_branch2a"
	top: "res4b18_branch2a"
	name: "scale4b18_branch2a"
	type: "Scale"
	param {
		name: "scale4b18_branch2a_1"
		lr_mult: 0.0
		decay_mult: 0.0
	}
	param {
		name: "scale4b18_branch2a_2"
		lr_mult: 0.0
		decay_mult: 0.0
	}
	scale_param {
		bias_term: true
	}
}

layer {
	top: "res4b18_branch2a"
	bottom: "res4b18_branch2a"
	name: "res4b18_branch2a_relu"
	type: "ReLU"
}

layer {
	bottom: "res4b18_branch2a"
	top: "res4b18_branch2b"
	name: "res4b18_branch2b"
	type: "Convolution"
	param {
		name: "res4b18_branch2b_w"
		lr_mult: 0.0
		decay_mult: 0.0
	}
	convolution_param {
		num_output: 256
		kernel_size: 3
		pad: 1
		stride: 1
		bias_term: false
	}
}

layer {
	bottom: "res4b18_branch2b"
	top: "res4b18_branch2b"
	name: "bn4b18_branch2b"
	type: "BatchNorm"
	param {
		name: "bn4b18_branch2b_1"
		lr_mult: 0.0
		decay_mult: 0.0
	}
	param {
		name: "bn4b18_branch2b_2"
		lr_mult: 0.0
		decay_mult: 0.0
	}
	param {
		name: "bn4b18_branch2b_3"
		lr_mult: 0.0
		decay_mult: 0.0
	}
	batch_norm_param {
		use_global_stats: true
	}
}

layer {
	bottom: "res4b18_branch2b"
	top: "res4b18_branch2b"
	name: "scale4b18_branch2b"
	type: "Scale"
	param {
		name: "scale4b18_branch2b_1"
		lr_mult: 0.0
		decay_mult: 0.0
	}
	param {
		name: "scale4b18_branch2b_2"
		lr_mult: 0.0
		decay_mult: 0.0
	}
	scale_param {
		bias_term: true
	}
}

layer {
	top: "res4b18_branch2b"
	bottom: "res4b18_branch2b"
	name: "res4b18_branch2b_relu"
	type: "ReLU"
}

layer {
	bottom: "res4b18_branch2b"
	top: "res4b18_branch2c"
	name: "res4b18_branch2c"
	type: "Convolution"
	param {
		name: "res4b18_branch2c_w"
		lr_mult: 0.0
		decay_mult: 0.0
	}
	convolution_param {
		num_output: 1024
		kernel_size: 1
		pad: 0
		stride: 1
		bias_term: false
	}
}

layer {
	bottom: "res4b18_branch2c"
	top: "res4b18_branch2c"
	name: "bn4b18_branch2c"
	type: "BatchNorm"
	param {
		name: "bn4b18_branch2c_1"
		lr_mult: 0.0
		decay_mult: 0.0
	}
	param {
		name: "bn4b18_branch2c_2"
		lr_mult: 0.0
		decay_mult: 0.0
	}
	param {
		name: "bn4b18_branch2c_3"
		lr_mult: 0.0
		decay_mult: 0.0
	}
	batch_norm_param {
		use_global_stats: true
	}
}

layer {
	bottom: "res4b18_branch2c"
	top: "res4b18_branch2c"
	name: "scale4b18_branch2c"
	type: "Scale"
	param {
		name: "scale4b18_branch2c_1"
		lr_mult: 0.0
		decay_mult: 0.0
	}
	param {
		name: "scale4b18_branch2c_2"
		lr_mult: 0.0
		decay_mult: 0.0
	}
	scale_param {
		bias_term: true
	}
}

layer {
	bottom: "res4b17"
	bottom: "res4b18_branch2c"
	top: "res4b18"
	name: "res4b18"
	type: "Eltwise"
}

layer {
	bottom: "res4b18"
	top: "res4b18"
	name: "res4b18_relu"
	type: "ReLU"
}

layer {
	bottom: "res4b18"
	top: "res4b19_branch2a"
	name: "res4b19_branch2a"
	type: "Convolution"
	param {
		name: "res4b19_branch2a_w"
		lr_mult: 0.0
		decay_mult: 0.0
	}
	convolution_param {
		num_output: 256
		kernel_size: 1
		pad: 0
		stride: 1
		bias_term: false
	}
}

layer {
	bottom: "res4b19_branch2a"
	top: "res4b19_branch2a"
	name: "bn4b19_branch2a"
	type: "BatchNorm"
	param {
		name: "bn4b19_branch2a_1"
		lr_mult: 0.0
		decay_mult: 0.0
	}
	param {
		name: "bn4b19_branch2a_2"
		lr_mult: 0.0
		decay_mult: 0.0
	}
	param {
		name: "bn4b19_branch2a_3"
		lr_mult: 0.0
		decay_mult: 0.0
	}
	batch_norm_param {
		use_global_stats: true
	}
}

layer {
	bottom: "res4b19_branch2a"
	top: "res4b19_branch2a"
	name: "scale4b19_branch2a"
	type: "Scale"
	param {
		name: "scale4b19_branch2a_1"
		lr_mult: 0.0
		decay_mult: 0.0
	}
	param {
		name: "scale4b19_branch2a_2"
		lr_mult: 0.0
		decay_mult: 0.0
	}
	scale_param {
		bias_term: true
	}
}

layer {
	top: "res4b19_branch2a"
	bottom: "res4b19_branch2a"
	name: "res4b19_branch2a_relu"
	type: "ReLU"
}

layer {
	bottom: "res4b19_branch2a"
	top: "res4b19_branch2b"
	name: "res4b19_branch2b"
	type: "Convolution"
	param {
		name: "res4b19_branch2b_w"
		lr_mult: 0.0
		decay_mult: 0.0
	}
	convolution_param {
		num_output: 256
		kernel_size: 3
		pad: 1
		stride: 1
		bias_term: false
	}
}

layer {
	bottom: "res4b19_branch2b"
	top: "res4b19_branch2b"
	name: "bn4b19_branch2b"
	type: "BatchNorm"
	param {
		name: "bn4b19_branch2b_1"
		lr_mult: 0.0
		decay_mult: 0.0
	}
	param {
		name: "bn4b19_branch2b_2"
		lr_mult: 0.0
		decay_mult: 0.0
	}
	param {
		name: "bn4b19_branch2b_3"
		lr_mult: 0.0
		decay_mult: 0.0
	}
	batch_norm_param {
		use_global_stats: true
	}
}

layer {
	bottom: "res4b19_branch2b"
	top: "res4b19_branch2b"
	name: "scale4b19_branch2b"
	type: "Scale"
	param {
		name: "scale4b19_branch2b_1"
		lr_mult: 0.0
		decay_mult: 0.0
	}
	param {
		name: "scale4b19_branch2b_2"
		lr_mult: 0.0
		decay_mult: 0.0
	}
	scale_param {
		bias_term: true
	}
}

layer {
	top: "res4b19_branch2b"
	bottom: "res4b19_branch2b"
	name: "res4b19_branch2b_relu"
	type: "ReLU"
}

layer {
	bottom: "res4b19_branch2b"
	top: "res4b19_branch2c"
	name: "res4b19_branch2c"
	type: "Convolution"
	param {
		name: "res4b19_branch2c_w"
		lr_mult: 0.0
		decay_mult: 0.0
	}
	convolution_param {
		num_output: 1024
		kernel_size: 1
		pad: 0
		stride: 1
		bias_term: false
	}
}

layer {
	bottom: "res4b19_branch2c"
	top: "res4b19_branch2c"
	name: "bn4b19_branch2c"
	type: "BatchNorm"
	param {
		name: "bn4b19_branch2c_1"
		lr_mult: 0.0
		decay_mult: 0.0
	}
	param {
		name: "bn4b19_branch2c_2"
		lr_mult: 0.0
		decay_mult: 0.0
	}
	param {
		name: "bn4b19_branch2c_3"
		lr_mult: 0.0
		decay_mult: 0.0
	}
	batch_norm_param {
		use_global_stats: true
	}
}

layer {
	bottom: "res4b19_branch2c"
	top: "res4b19_branch2c"
	name: "scale4b19_branch2c"
	type: "Scale"
	param {
		name: "scale4b19_branch2c_1"
		lr_mult: 0.0
		decay_mult: 0.0
	}
	param {
		name: "scale4b19_branch2c_2"
		lr_mult: 0.0
		decay_mult: 0.0
	}
	scale_param {
		bias_term: true
	}
}

layer {
	bottom: "res4b18"
	bottom: "res4b19_branch2c"
	top: "res4b19"
	name: "res4b19"
	type: "Eltwise"
}

layer {
	bottom: "res4b19"
	top: "res4b19"
	name: "res4b19_relu"
	type: "ReLU"
}

layer {
	bottom: "res4b19"
	top: "res4b20_branch2a"
	name: "res4b20_branch2a"
	type: "Convolution"
	param {
		name: "res4b20_branch2a_w"
		lr_mult: 0.0
		decay_mult: 0.0
	}
	convolution_param {
		num_output: 256
		kernel_size: 1
		pad: 0
		stride: 1
		bias_term: false
	}
}

layer {
	bottom: "res4b20_branch2a"
	top: "res4b20_branch2a"
	name: "bn4b20_branch2a"
	type: "BatchNorm"
	param {
		name: "bn4b20_branch2a_1"
		lr_mult: 0.0
		decay_mult: 0.0
	}
	param {
		name: "bn4b20_branch2a_2"
		lr_mult: 0.0
		decay_mult: 0.0
	}
	param {
		name: "bn4b20_branch2a_3"
		lr_mult: 0.0
		decay_mult: 0.0
	}
	batch_norm_param {
		use_global_stats: true
	}
}

layer {
	bottom: "res4b20_branch2a"
	top: "res4b20_branch2a"
	name: "scale4b20_branch2a"
	type: "Scale"
	param {
		name: "scale4b20_branch2a_1"
		lr_mult: 0.0
		decay_mult: 0.0
	}
	param {
		name: "scale4b20_branch2a_2"
		lr_mult: 0.0
		decay_mult: 0.0
	}
	scale_param {
		bias_term: true
	}
}

layer {
	top: "res4b20_branch2a"
	bottom: "res4b20_branch2a"
	name: "res4b20_branch2a_relu"
	type: "ReLU"
}

layer {
	bottom: "res4b20_branch2a"
	top: "res4b20_branch2b"
	name: "res4b20_branch2b"
	type: "Convolution"
	param {
		name: "res4b20_branch2b_w"
		lr_mult: 0.0
		decay_mult: 0.0
	}
	convolution_param {
		num_output: 256
		kernel_size: 3
		pad: 1
		stride: 1
		bias_term: false
	}
}

layer {
	bottom: "res4b20_branch2b"
	top: "res4b20_branch2b"
	name: "bn4b20_branch2b"
	type: "BatchNorm"
	param {
		name: "bn4b20_branch2b_1"
		lr_mult: 0.0
		decay_mult: 0.0
	}
	param {
		name: "bn4b20_branch2b_2"
		lr_mult: 0.0
		decay_mult: 0.0
	}
	param {
		name: "bn4b20_branch2b_3"
		lr_mult: 0.0
		decay_mult: 0.0
	}
	batch_norm_param {
		use_global_stats: true
	}
}

layer {
	bottom: "res4b20_branch2b"
	top: "res4b20_branch2b"
	name: "scale4b20_branch2b"
	type: "Scale"
	param {
		name: "scale4b20_branch2b_1"
		lr_mult: 0.0
		decay_mult: 0.0
	}
	param {
		name: "scale4b20_branch2b_2"
		lr_mult: 0.0
		decay_mult: 0.0
	}
	scale_param {
		bias_term: true
	}
}

layer {
	top: "res4b20_branch2b"
	bottom: "res4b20_branch2b"
	name: "res4b20_branch2b_relu"
	type: "ReLU"
}

layer {
	bottom: "res4b20_branch2b"
	top: "res4b20_branch2c"
	name: "res4b20_branch2c"
	type: "Convolution"
	param {
		name: "res4b20_branch2c_w"
		lr_mult: 0.0
		decay_mult: 0.0
	}
	convolution_param {
		num_output: 1024
		kernel_size: 1
		pad: 0
		stride: 1
		bias_term: false
	}
}

layer {
	bottom: "res4b20_branch2c"
	top: "res4b20_branch2c"
	name: "bn4b20_branch2c"
	type: "BatchNorm"
	param {
		name: "bn4b20_branch2c_1"
		lr_mult: 0.0
		decay_mult: 0.0
	}
	param {
		name: "bn4b20_branch2c_2"
		lr_mult: 0.0
		decay_mult: 0.0
	}
	param {
		name: "bn4b20_branch2c_3"
		lr_mult: 0.0
		decay_mult: 0.0
	}
	batch_norm_param {
		use_global_stats: true
	}
}

layer {
	bottom: "res4b20_branch2c"
	top: "res4b20_branch2c"
	name: "scale4b20_branch2c"
	type: "Scale"
	param {
		name: "scale4b20_branch2c_1"
		lr_mult: 0.0
		decay_mult: 0.0
	}
	param {
		name: "scale4b20_branch2c_2"
		lr_mult: 0.0
		decay_mult: 0.0
	}
	scale_param {
		bias_term: true
	}
}

layer {
	bottom: "res4b19"
	bottom: "res4b20_branch2c"
	top: "res4b20"
	name: "res4b20"
	type: "Eltwise"
}

layer {
	bottom: "res4b20"
	top: "res4b20"
	name: "res4b20_relu"
	type: "ReLU"
}

layer {
	bottom: "res4b20"
	top: "res4b21_branch2a"
	name: "res4b21_branch2a"
	type: "Convolution"
	param {
		name: "res4b21_branch2a_w"
		lr_mult: 0.0
		decay_mult: 0.0
	}
	convolution_param {
		num_output: 256
		kernel_size: 1
		pad: 0
		stride: 1
		bias_term: false
	}
}

layer {
	bottom: "res4b21_branch2a"
	top: "res4b21_branch2a"
	name: "bn4b21_branch2a"
	type: "BatchNorm"
	param {
		name: "bn4b21_branch2a_1"
		lr_mult: 0.0
		decay_mult: 0.0
	}
	param {
		name: "bn4b21_branch2a_2"
		lr_mult: 0.0
		decay_mult: 0.0
	}
	param {
		name: "bn4b21_branch2a_3"
		lr_mult: 0.0
		decay_mult: 0.0
	}
	batch_norm_param {
		use_global_stats: true
	}
}

layer {
	bottom: "res4b21_branch2a"
	top: "res4b21_branch2a"
	name: "scale4b21_branch2a"
	type: "Scale"
	param {
		name: "scale4b21_branch2a_1"
		lr_mult: 0.0
		decay_mult: 0.0
	}
	param {
		name: "scale4b21_branch2a_2"
		lr_mult: 0.0
		decay_mult: 0.0
	}
	scale_param {
		bias_term: true
	}
}

layer {
	top: "res4b21_branch2a"
	bottom: "res4b21_branch2a"
	name: "res4b21_branch2a_relu"
	type: "ReLU"
}

layer {
	bottom: "res4b21_branch2a"
	top: "res4b21_branch2b"
	name: "res4b21_branch2b"
	type: "Convolution"
	param {
		name: "res4b21_branch2b_w"
		lr_mult: 0.0
		decay_mult: 0.0
	}
	convolution_param {
		num_output: 256
		kernel_size: 3
		pad: 1
		stride: 1
		bias_term: false
	}
}

layer {
	bottom: "res4b21_branch2b"
	top: "res4b21_branch2b"
	name: "bn4b21_branch2b"
	type: "BatchNorm"
	param {
		name: "bn4b21_branch2b_1"
		lr_mult: 0.0
		decay_mult: 0.0
	}
	param {
		name: "bn4b21_branch2b_2"
		lr_mult: 0.0
		decay_mult: 0.0
	}
	param {
		name: "bn4b21_branch2b_3"
		lr_mult: 0.0
		decay_mult: 0.0
	}
	batch_norm_param {
		use_global_stats: true
	}
}

layer {
	bottom: "res4b21_branch2b"
	top: "res4b21_branch2b"
	name: "scale4b21_branch2b"
	type: "Scale"
	param {
		name: "scale4b21_branch2b_1"
		lr_mult: 0.0
		decay_mult: 0.0
	}
	param {
		name: "scale4b21_branch2b_2"
		lr_mult: 0.0
		decay_mult: 0.0
	}
	scale_param {
		bias_term: true
	}
}

layer {
	top: "res4b21_branch2b"
	bottom: "res4b21_branch2b"
	name: "res4b21_branch2b_relu"
	type: "ReLU"
}

layer {
	bottom: "res4b21_branch2b"
	top: "res4b21_branch2c"
	name: "res4b21_branch2c"
	type: "Convolution"
	param {
		name: "res4b21_branch2c_w"
		lr_mult: 0.0
		decay_mult: 0.0
	}
	convolution_param {
		num_output: 1024
		kernel_size: 1
		pad: 0
		stride: 1
		bias_term: false
	}
}

layer {
	bottom: "res4b21_branch2c"
	top: "res4b21_branch2c"
	name: "bn4b21_branch2c"
	type: "BatchNorm"
	param {
		name: "bn4b21_branch2c_1"
		lr_mult: 0.0
		decay_mult: 0.0
	}
	param {
		name: "bn4b21_branch2c_2"
		lr_mult: 0.0
		decay_mult: 0.0
	}
	param {
		name: "bn4b21_branch2c_3"
		lr_mult: 0.0
		decay_mult: 0.0
	}
	batch_norm_param {
		use_global_stats: true
	}
}

layer {
	bottom: "res4b21_branch2c"
	top: "res4b21_branch2c"
	name: "scale4b21_branch2c"
	type: "Scale"
	param {
		name: "scale4b21_branch2c_1"
		lr_mult: 0.0
		decay_mult: 0.0
	}
	param {
		name: "scale4b21_branch2c_2"
		lr_mult: 0.0
		decay_mult: 0.0
	}
	scale_param {
		bias_term: true
	}
}

layer {
	bottom: "res4b20"
	bottom: "res4b21_branch2c"
	top: "res4b21"
	name: "res4b21"
	type: "Eltwise"
}

layer {
	bottom: "res4b21"
	top: "res4b21"
	name: "res4b21_relu"
	type: "ReLU"
}

layer {
	bottom: "res4b21"
	top: "res4b22_branch2a"
	name: "res4b22_branch2a"
	type: "Convolution"
	param {
		name: "res4b22_branch2a_w"
		lr_mult: 0.0
		decay_mult: 0.0
	}
	convolution_param {
		num_output: 256
		kernel_size: 1
		pad: 0
		stride: 1
		bias_term: false
	}
}

layer {
	bottom: "res4b22_branch2a"
	top: "res4b22_branch2a"
	name: "bn4b22_branch2a"
	type: "BatchNorm"
	param {
		name: "bn4b22_branch2a_1"
		lr_mult: 0.0
		decay_mult: 0.0
	}
	param {
		name: "bn4b22_branch2a_2"
		lr_mult: 0.0
		decay_mult: 0.0
	}
	param {
		name: "bn4b22_branch2a_3"
		lr_mult: 0.0
		decay_mult: 0.0
	}
	batch_norm_param {
		use_global_stats: true
	}
}

layer {
	bottom: "res4b22_branch2a"
	top: "res4b22_branch2a"
	name: "scale4b22_branch2a"
	type: "Scale"
	param {
		name: "scale4b22_branch2a_1"
		lr_mult: 0.0
		decay_mult: 0.0
	}
	param {
		name: "scale4b22_branch2a_2"
		lr_mult: 0.0
		decay_mult: 0.0
	}
	scale_param {
		bias_term: true
	}
}

layer {
	top: "res4b22_branch2a"
	bottom: "res4b22_branch2a"
	name: "res4b22_branch2a_relu"
	type: "ReLU"
}

layer {
	bottom: "res4b22_branch2a"
	top: "res4b22_branch2b"
	name: "res4b22_branch2b"
	type: "Convolution"
	param {
		name: "res4b22_branch2b_w"
		lr_mult: 0.0
		decay_mult: 0.0
	}
	convolution_param {
		num_output: 256
		kernel_size: 3
		pad: 1
		stride: 1
		bias_term: false
	}
}

layer {
	bottom: "res4b22_branch2b"
	top: "res4b22_branch2b"
	name: "bn4b22_branch2b"
	type: "BatchNorm"
	param {
		name: "bn4b22_branch2b_1"
		lr_mult: 0.0
		decay_mult: 0.0
	}
	param {
		name: "bn4b22_branch2b_2"
		lr_mult: 0.0
		decay_mult: 0.0
	}
	param {
		name: "bn4b22_branch2b_3"
		lr_mult: 0.0
		decay_mult: 0.0
	}
	batch_norm_param {
		use_global_stats: true
	}
}

layer {
	bottom: "res4b22_branch2b"
	top: "res4b22_branch2b"
	name: "scale4b22_branch2b"
	type: "Scale"
	param {
		name: "scale4b22_branch2b_1"
		lr_mult: 0.0
		decay_mult: 0.0
	}
	param {
		name: "scale4b22_branch2b_2"
		lr_mult: 0.0
		decay_mult: 0.0
	}
	scale_param {
		bias_term: true
	}
}

layer {
	top: "res4b22_branch2b"
	bottom: "res4b22_branch2b"
	name: "res4b22_branch2b_relu"
	type: "ReLU"
}

layer {
	bottom: "res4b22_branch2b"
	top: "res4b22_branch2c"
	name: "res4b22_branch2c"
	type: "Convolution"
	param {
		name: "res4b22_branch2c_w"
		lr_mult: 0.0
		decay_mult: 0.0
	}
	convolution_param {
		num_output: 1024
		kernel_size: 1
		pad: 0
		stride: 1
		bias_term: false
	}
}

layer {
	bottom: "res4b22_branch2c"
	top: "res4b22_branch2c"
	name: "bn4b22_branch2c"
	type: "BatchNorm"
	param {
		name: "bn4b22_branch2c_1"
		lr_mult: 0.0
		decay_mult: 0.0
	}
	param {
		name: "bn4b22_branch2c_2"
		lr_mult: 0.0
		decay_mult: 0.0
	}
	param {
		name: "bn4b22_branch2c_3"
		lr_mult: 0.0
		decay_mult: 0.0
	}
	batch_norm_param {
		use_global_stats: true
	}
}

layer {
	bottom: "res4b22_branch2c"
	top: "res4b22_branch2c"
	name: "scale4b22_branch2c"
	type: "Scale"
	param {
		name: "scale4b22_branch2c_1"
		lr_mult: 0.0
		decay_mult: 0.0
	}
	param {
		name: "scale4b22_branch2c_2"
		lr_mult: 0.0
		decay_mult: 0.0
	}
	scale_param {
		bias_term: true
	}
}

layer {
	bottom: "res4b21"
	bottom: "res4b22_branch2c"
	top: "res4b22"
	name: "res4b22"
	type: "Eltwise"
}

layer {
	bottom: "res4b22"
	top: "res4b22"
	name: "res4b22_relu"
	type: "ReLU"
}

layer {
	bottom: "res4b22"
	top: "res5a_branch1"
	name: "res5a_branch1"
	type: "Convolution"
	param {
		name: "res5a_branch1_w"
		lr_mult: 0.0
		decay_mult: 0.0
	}
	convolution_param {
		num_output: 2048
		kernel_size: 1
		pad: 0
		stride: 2
		bias_term: false
	}
}

layer {
	bottom: "res5a_branch1"
	top: "res5a_branch1"
	name: "bn5a_branch1"
	type: "BatchNorm"
	param {
		name: "bn5a_branch1_1"
		lr_mult: 0.0
		decay_mult: 0.0
	}
	param {
		name: "bn5a_branch1_2"
		lr_mult: 0.0
		decay_mult: 0.0
	}
	param {
		name: "bn5a_branch1_3"
		lr_mult: 0.0
		decay_mult: 0.0
	}
	batch_norm_param {
		use_global_stats: true
	}
}

layer {
	bottom: "res5a_branch1"
	top: "res5a_branch1"
	name: "scale5a_branch1"
	type: "Scale"
	param {
		name: "scale5a_branch1_1"
		lr_mult: 0.0
		decay_mult: 0.0
	}
	param {
		name: "scale5a_branch1_2"
		lr_mult: 0.0
		decay_mult: 0.0
	}
	scale_param {
		bias_term: true
	}
}

layer {
	bottom: "res4b22"
	top: "res5a_branch2a"
	name: "res5a_branch2a"
	type: "Convolution"
	param {
		name: "res5a_branch2a_w"
		lr_mult: 0.0
		decay_mult: 0.0
	}
	convolution_param {
		num_output: 512
		kernel_size: 1
		pad: 0
		stride: 2
		bias_term: false
	}
}

layer {
	bottom: "res5a_branch2a"
	top: "res5a_branch2a"
	name: "bn5a_branch2a"
	type: "BatchNorm"
	param {
		name: "bn5a_branch2a_1"
		lr_mult: 0.0
		decay_mult: 0.0
	}
	param {
		name: "bn5a_branch2a_2"
		lr_mult: 0.0
		decay_mult: 0.0
	}
	param {
		name: "bn5a_branch2a_3"
		lr_mult: 0.0
		decay_mult: 0.0
	}
	batch_norm_param {
		use_global_stats: true
	}
}

layer {
	bottom: "res5a_branch2a"
	top: "res5a_branch2a"
	name: "scale5a_branch2a"
	type: "Scale"
	param {
		name: "scale5a_branch2a_1"
		lr_mult: 0.0
		decay_mult: 0.0
	}
	param {
		name: "scale5a_branch2a_2"
		lr_mult: 0.0
		decay_mult: 0.0
	}
	scale_param {
		bias_term: true
	}
}

layer {
	top: "res5a_branch2a"
	bottom: "res5a_branch2a"
	name: "res5a_branch2a_relu"
	type: "ReLU"
}

layer {
	bottom: "res5a_branch2a"
	top: "res5a_branch2b"
	name: "res5a_branch2b"
	type: "Convolution"
	param {
		name: "res5a_branch2b_w"
		lr_mult: 0.0
		decay_mult: 0.0
	}
	convolution_param {
		num_output: 512
		kernel_size: 3
		pad: 1
		stride: 1
		bias_term: false
	}
}

layer {
	bottom: "res5a_branch2b"
	top: "res5a_branch2b"
	name: "bn5a_branch2b"
	type: "BatchNorm"
	param {
		name: "bn5a_branch2b_1"
		lr_mult: 0.0
		decay_mult: 0.0
	}
	param {
		name: "bn5a_branch2b_2"
		lr_mult: 0.0
		decay_mult: 0.0
	}
	param {
		name: "bn5a_branch2b_3"
		lr_mult: 0.0
		decay_mult: 0.0
	}
	batch_norm_param {
		use_global_stats: true
	}
}

layer {
	bottom: "res5a_branch2b"
	top: "res5a_branch2b"
	name: "scale5a_branch2b"
	type: "Scale"
	param {
		name: "scale5a_branch2b_1"
		lr_mult: 0.0
		decay_mult: 0.0
	}
	param {
		name: "scale5a_branch2b_2"
		lr_mult: 0.0
		decay_mult: 0.0
	}
	scale_param {
		bias_term: true
	}
}

layer {
	top: "res5a_branch2b"
	bottom: "res5a_branch2b"
	name: "res5a_branch2b_relu"
	type: "ReLU"
}

layer {
	bottom: "res5a_branch2b"
	top: "res5a_branch2c"
	name: "res5a_branch2c"
	type: "Convolution"
	param {
		name: "res5a_branch2c_w"
		lr_mult: 0.0
		decay_mult: 0.0
	}
	convolution_param {
		num_output: 2048
		kernel_size: 1
		pad: 0
		stride: 1
		bias_term: false
	}
}

layer {
	bottom: "res5a_branch2c"
	top: "res5a_branch2c"
	name: "bn5a_branch2c"
	type: "BatchNorm"
	param {
		name: "bn5a_branch2c_1"
		lr_mult: 0.0
		decay_mult: 0.0
	}
	param {
		name: "bn5a_branch2c_2"
		lr_mult: 0.0
		decay_mult: 0.0
	}
	param {
		name: "bn5a_branch2c_3"
		lr_mult: 0.0
		decay_mult: 0.0
	}
	batch_norm_param {
		use_global_stats: true
	}
}

layer {
	bottom: "res5a_branch2c"
	top: "res5a_branch2c"
	name: "scale5a_branch2c"
	type: "Scale"
	param {
		name: "scale5a_branch2c_1"
		lr_mult: 0.0
		decay_mult: 0.0
	}
	param {
		name: "scale5a_branch2c_2"
		lr_mult: 0.0
		decay_mult: 0.0
	}
	scale_param {
		bias_term: true
	}
}

layer {
	bottom: "res5a_branch1"
	bottom: "res5a_branch2c"
	top: "res5a"
	name: "res5a"
	type: "Eltwise"
}

layer {
	bottom: "res5a"
	top: "res5a"
	name: "res5a_relu"
	type: "ReLU"
}

layer {
	bottom: "res5a"
	top: "res5b_branch2a"
	name: "res5b_branch2a"
	type: "Convolution"
	param {
		name: "res5b_branch2a_w"
		lr_mult: 0.0
		decay_mult: 0.0
	}
	convolution_param {
		num_output: 512
		kernel_size: 1
		pad: 0
		stride: 1
		bias_term: false
	}
}

layer {
	bottom: "res5b_branch2a"
	top: "res5b_branch2a"
	name: "bn5b_branch2a"
	type: "BatchNorm"
	param {
		name: "bn5b_branch2a_1"
		lr_mult: 0.0
		decay_mult: 0.0
	}
	param {
		name: "bn5b_branch2a_2"
		lr_mult: 0.0
		decay_mult: 0.0
	}
	param {
		name: "bn5b_branch2a_3"
		lr_mult: 0.0
		decay_mult: 0.0
	}
	batch_norm_param {
		use_global_stats: true
	}
}

layer {
	bottom: "res5b_branch2a"
	top: "res5b_branch2a"
	name: "scale5b_branch2a"
	type: "Scale"
	param {
		name: "scale5b_branch2a_1"
		lr_mult: 0.0
		decay_mult: 0.0
	}
	param {
		name: "scale5b_branch2a_2"
		lr_mult: 0.0
		decay_mult: 0.0
	}
	scale_param {
		bias_term: true
	}
}

layer {
	top: "res5b_branch2a"
	bottom: "res5b_branch2a"
	name: "res5b_branch2a_relu"
	type: "ReLU"
}

layer {
	bottom: "res5b_branch2a"
	top: "res5b_branch2b"
	name: "res5b_branch2b"
	type: "Convolution"
	param {
		name: "res5b_branch2b_w"
		lr_mult: 0.0
		decay_mult: 0.0
	}
	convolution_param {
		num_output: 512
		kernel_size: 3
		pad: 1
		stride: 1
		bias_term: false
	}
}

layer {
	bottom: "res5b_branch2b"
	top: "res5b_branch2b"
	name: "bn5b_branch2b"
	type: "BatchNorm"
	param {
		name: "bn5b_branch2b_1"
		lr_mult: 0.0
		decay_mult: 0.0
	}
	param {
		name: "bn5b_branch2b_2"
		lr_mult: 0.0
		decay_mult: 0.0
	}
	param {
		name: "bn5b_branch2b_3"
		lr_mult: 0.0
		decay_mult: 0.0
	}
	batch_norm_param {
		use_global_stats: true
	}
}

layer {
	bottom: "res5b_branch2b"
	top: "res5b_branch2b"
	name: "scale5b_branch2b"
	type: "Scale"
	param {
		name: "scale5b_branch2b_1"
		lr_mult: 0.0
		decay_mult: 0.0
	}
	param {
		name: "scale5b_branch2b_2"
		lr_mult: 0.0
		decay_mult: 0.0
	}
	scale_param {
		bias_term: true
	}
}

layer {
	top: "res5b_branch2b"
	bottom: "res5b_branch2b"
	name: "res5b_branch2b_relu"
	type: "ReLU"
}

layer {
	bottom: "res5b_branch2b"
	top: "res5b_branch2c"
	name: "res5b_branch2c"
	type: "Convolution"
	param {
		name: "res5b_branch2c_w"
		lr_mult: 0.0
		decay_mult: 0.0
	}
	convolution_param {
		num_output: 2048
		kernel_size: 1
		pad: 0
		stride: 1
		bias_term: false
	}
}

layer {
	bottom: "res5b_branch2c"
	top: "res5b_branch2c"
	name: "bn5b_branch2c"
	type: "BatchNorm"
	param {
		name: "bn5b_branch2c_1"
		lr_mult: 0.0
		decay_mult: 0.0
	}
	param {
		name: "bn5b_branch2c_2"
		lr_mult: 0.0
		decay_mult: 0.0
	}
	param {
		name: "bn5b_branch2c_3"
		lr_mult: 0.0
		decay_mult: 0.0
	}
	batch_norm_param {
		use_global_stats: true
	}
}

layer {
	bottom: "res5b_branch2c"
	top: "res5b_branch2c"
	name: "scale5b_branch2c"
	type: "Scale"
	param {
		name: "scale5b_branch2c_1"
		lr_mult: 0.0
		decay_mult: 0.0
	}
	param {
		name: "scale5b_branch2c_2"
		lr_mult: 0.0
		decay_mult: 0.0
	}
	scale_param {
		bias_term: true
	}
}

layer {
	bottom: "res5a"
	bottom: "res5b_branch2c"
	top: "res5b"
	name: "res5b"
	type: "Eltwise"
}

layer {
	bottom: "res5b"
	top: "res5b"
	name: "res5b_relu"
	type: "ReLU"
}

layer {
	bottom: "res5b"
	top: "res5c_branch2a"
	name: "res5c_branch2a"
	type: "Convolution"
	param {
		name: "res5c_branch2a_w"
		lr_mult: 0.0
		decay_mult: 0.0
	}
	convolution_param {
		num_output: 512
		kernel_size: 1
		pad: 0
		stride: 1
		bias_term: false
	}
}

layer {
	bottom: "res5c_branch2a"
	top: "res5c_branch2a"
	name: "bn5c_branch2a"
	type: "BatchNorm"
	param {
		name: "bn5c_branch2a_1"
		lr_mult: 0.0
		decay_mult: 0.0
	}
	param {
		name: "bn5c_branch2a_2"
		lr_mult: 0.0
		decay_mult: 0.0
	}
	param {
		name: "bn5c_branch2a_3"
		lr_mult: 0.0
		decay_mult: 0.0
	}
	batch_norm_param {
		use_global_stats: true
	}
}

layer {
	bottom: "res5c_branch2a"
	top: "res5c_branch2a"
	name: "scale5c_branch2a"
	type: "Scale"
	param {
		name: "scale5c_branch2a_1"
		lr_mult: 0.0
		decay_mult: 0.0
	}
	param {
		name: "scale5c_branch2a_2"
		lr_mult: 0.0
		decay_mult: 0.0
	}
	scale_param {
		bias_term: true
	}
}

layer {
	top: "res5c_branch2a"
	bottom: "res5c_branch2a"
	name: "res5c_branch2a_relu"
	type: "ReLU"
}

layer {
	bottom: "res5c_branch2a"
	top: "res5c_branch2b"
	name: "res5c_branch2b"
	type: "Convolution"
	param {
		name: "res5c_branch2b_w"
		lr_mult: 0.0
		decay_mult: 0.0
	}
	convolution_param {
		num_output: 512
		kernel_size: 3
		pad: 1
		stride: 1
		bias_term: false
	}
}

layer {
	bottom: "res5c_branch2b"
	top: "res5c_branch2b"
	name: "bn5c_branch2b"
	type: "BatchNorm"
	param {
		name: "bn5c_branch2b_1"
		lr_mult: 0.0
		decay_mult: 0.0
	}
	param {
		name: "bn5c_branch2b_2"
		lr_mult: 0.0
		decay_mult: 0.0
	}
	param {
		name: "bn5c_branch2b_3"
		lr_mult: 0.0
		decay_mult: 0.0
	}
	batch_norm_param {
		use_global_stats: true
	}
}

layer {
	bottom: "res5c_branch2b"
	top: "res5c_branch2b"
	name: "scale5c_branch2b"
	type: "Scale"
	param {
		name: "scale5c_branch2b_1"
		lr_mult: 0.0
		decay_mult: 0.0
	}
	param {
		name: "scale5c_branch2b_2"
		lr_mult: 0.0
		decay_mult: 0.0
	}
	scale_param {
		bias_term: true
	}
}

layer {
	top: "res5c_branch2b"
	bottom: "res5c_branch2b"
	name: "res5c_branch2b_relu"
	type: "ReLU"
}

layer {
	bottom: "res5c_branch2b"
	top: "res5c_branch2c"
	name: "res5c_branch2c"
	type: "Convolution"
	param {
		name: "res5c_branch2c_w"
		lr_mult: 0.0
		decay_mult: 0.0
	}
	convolution_param {
		num_output: 2048
		kernel_size: 1
		pad: 0
		stride: 1
		bias_term: false
	}
}

layer {
	bottom: "res5c_branch2c"
	top: "res5c_branch2c"
	name: "bn5c_branch2c"
	type: "BatchNorm"
	param {
		name: "bn5c_branch2c_1"
		lr_mult: 0.0
		decay_mult: 0.0
	}
	param {
		name: "bn5c_branch2c_2"
		lr_mult: 0.0
		decay_mult: 0.0
	}
	param {
		name: "bn5c_branch2c_3"
		lr_mult: 0.0
		decay_mult: 0.0
	}
	batch_norm_param {
		use_global_stats: true
	}
}

layer {
	bottom: "res5c_branch2c"
	top: "res5c_branch2c"
	name: "scale5c_branch2c"
	type: "Scale"
	param {
		name: "scale5c_branch2c_1"
		lr_mult: 0.0
		decay_mult: 0.0
	}
	param {
		name: "scale5c_branch2c_2"
		lr_mult: 0.0
		decay_mult: 0.0
	}
	scale_param {
		bias_term: true
	}
}

layer {
	bottom: "res5b"
	bottom: "res5c_branch2c"
	top: "res5c"
	name: "res5c"
	type: "Eltwise"
}

layer {
	bottom: "res5c"
	top: "res5c"
	name: "res5c_relu"
	type: "ReLU"
}

## Get rmac regions with a RoiPooling layer. If batch size was 1, we end up with N_regions x D x pooled_h x pooled_w 
layer {
   name: "pooled_rois"
   type: "ROIPooling"
   bottom: "res5c"
   bottom: "rois"
   top: "pooled_rois"
   roi_pooling_param {
     pooled_w: 1
     pooled_h: 1
    spatial_scale: 0.03125 # 1/32
   }
 }
layer {
  name: "pooled_rois/normalized"
  type: "Normalize"
  bottom: "pooled_rois"
  top: "pooled_rois/normalized"
}
layer {
	name: "pooled_rois/normalized_flat"
	type: "Reshape"
	reshape_param{
	shape{
		dim: 0
		dim: 2048 # feat x spx (1) x spy (1)
		dim: 1
		dim: 1
		}    
	}
	bottom: "pooled_rois/normalized"
	top: "pooled_rois/normalized_flat"
}
# Mean center done with a scaling (at 1) + shifting. The shifting needs to be copied into the model weights.
layer {
  name: "pooled_rois/centered"
  bottom: "pooled_rois/normalized_flat"
  top: "pooled_rois/centered"
  type: "Scale"
	param {
		name: "pooled_rois/centered_1"
		lr_mult: 0.0
		decay_mult: 0.0
	}
	param {
		name: "pooled_rois/centered_2"
		lr_mult: 2.0
		decay_mult: 1.0
	}
  scale_param {
      bias_term: true
      filler {
        type: "constant"
        value: 1
      }
      bias_filler {
        type: "constant"
		value: 0
      }
  }
}
# And then the PCA, which is another FC layer
layer {
  name: "pooled_rois/pca_512"
  type: "InnerProduct"
  param {
		name: "pooled_rois/pca_1"
		lr_mult: 1.0
		decay_mult: 1.0
	}
	param {
		name: "pooled_rois/pca_2"
		lr_mult: 2.0
		decay_mult: 1.0
	}
  inner_product_param {
    num_output: 512 # output PCA dimensionality 
    weight_filler {
      type: "xavier"
    }
    bias_filler {
      type: "constant"
      value: 0
    }
  }
  bottom: "pooled_rois/centered"
  top: "pooled_rois/pca_512"
}
# After the FC layers the size is now n_batches x d. We reshape to n_batches x d x 1 x 1 to L2 normalize again
layer {
	name: "pooled_rois/pca/reshaped"
	type: "Reshape"
	reshape_param{
	shape{
		dim: 0 
		dim: 0
		dim: 1
		dim: 1
		}    
	}
	bottom: "pooled_rois/pca_512"
	top: "pooled_rois/pca/reshaped"
}
layer {
  name: "pooled_rois/pca/normalized"
  type: "Normalize"
  bottom: "pooled_rois/pca/reshaped"
  top: "pooled_rois/pca/normalized"
}
layer {
  name: "rmac"
  type: "Python"
  bottom: "pooled_rois/pca/normalized"
  top: "rmac"
  python_param {
    module: 'custom_layers'
    layer: 'AggregateLayer'
    param_str: "{'num_rois': 8}"
  }
}
## L2, one last time
layer {
  name: "rmac/normalized"
  type: "Normalize"
  bottom: "rmac"
  top: "rmac/normalized"
}

# positive
layer {
	bottom: "p_data"
	top: "p_conv1"
	name: "p_conv1"
	type: "Convolution"
	param {
		name: "conv1_w"
		lr_mult: 0.0
		decay_mult: 0.0
	}
	convolution_param {
		num_output: 64
		kernel_size: 7
		pad: 3
		stride: 2
		bias_term: false
	}
}

layer {
	bottom: "p_conv1"
	top: "p_conv1"
	name: "p_bn_conv1"
	type: "BatchNorm"
	param {
		name: "bn_conv1_1"
		lr_mult: 0.0
		decay_mult: 0.0
	}
	param {
		name: "bn_conv1_2"
		lr_mult: 0.0
		decay_mult: 0.0
	}
	param {
		name: "bn_conv1_3"
		lr_mult: 0.0
		decay_mult: 0.0
	}
	batch_norm_param {
		use_global_stats: true
	}
}

layer {
	bottom: "p_conv1"
	top: "p_conv1"
	name: "p_scale_conv1"
	type: "Scale"
	param {
		name: "scale_conv1_1"
		lr_mult: 0.0
		decay_mult: 0.0
	}
	param {
		name: "scale_conv1_2"
		lr_mult: 0.0
		decay_mult: 0.0
	}
	scale_param {
		bias_term: true
	}
}

layer {
	top: "p_conv1"
	bottom: "p_conv1"
	name: "p_conv1_relu"
	type: "ReLU"
}

layer {
	bottom: "p_conv1"
	top: "p_pool1"
	name: "p_pool1"
	type: "Pooling"
	pooling_param {
		kernel_size: 3
		stride: 2
		pool: MAX
	}
}

layer {
	bottom: "p_pool1"
	top: "p_res2a_branch1"
	name: "p_res2a_branch1"
	type: "Convolution"
	param {
		name: "res2a_branch1_w"
		lr_mult: 0.0
		decay_mult: 0.0
	}
	convolution_param {
		num_output: 256
		kernel_size: 1
		pad: 0
		stride: 1
		bias_term: false
	}
}

layer {
	bottom: "p_res2a_branch1"
	top: "p_res2a_branch1"
	name: "p_bn2a_branch1"
	type: "BatchNorm"
	param {
		name: "bn2a_branch1_1"
		lr_mult: 0.0
		decay_mult: 0.0
	}
	param {
		name: "bn2a_branch1_2"
		lr_mult: 0.0
		decay_mult: 0.0
	}
	param {
		name: "bn2a_branch1_3"
		lr_mult: 0.0
		decay_mult: 0.0
	}
	batch_norm_param {
		use_global_stats: true
	}
}

layer {
	bottom: "p_res2a_branch1"
	top: "p_res2a_branch1"
	name: "p_scale2a_branch1"
	type: "Scale"
	param {
		name: "scale2a_branch1_1"
		lr_mult: 0.0
		decay_mult: 0.0
	}
	param {
		name: "scale2a_branch1_2"
		lr_mult: 0.0
		decay_mult: 0.0
	}
	scale_param {
		bias_term: true
	}
}

layer {
	bottom: "p_pool1"
	top: "p_res2a_branch2a"
	name: "p_res2a_branch2a"
	type: "Convolution"
	param {
		name: "res2a_branch2a_w"
		lr_mult: 0.0
		decay_mult: 0.0
	}
	convolution_param {
		num_output: 64
		kernel_size: 1
		pad: 0
		stride: 1
		bias_term: false
	}
}

layer {
	bottom: "p_res2a_branch2a"
	top: "p_res2a_branch2a"
	name: "p_bn2a_branch2a"
	type: "BatchNorm"
	param {
		name: "bn2a_branch2a_1"
		lr_mult: 0.0
		decay_mult: 0.0
	}
	param {
		name: "bn2a_branch2a_2"
		lr_mult: 0.0
		decay_mult: 0.0
	}
	param {
		name: "bn2a_branch2a_3"
		lr_mult: 0.0
		decay_mult: 0.0
	}
	batch_norm_param {
		use_global_stats: true
	}
}

layer {
	bottom: "p_res2a_branch2a"
	top: "p_res2a_branch2a"
	name: "p_scale2a_branch2a"
	type: "Scale"
	param {
		name: "scale2a_branch2a_1"
		lr_mult: 0.0
		decay_mult: 0.0
	}
	param {
		name: "scale2a_branch2a_2"
		lr_mult: 0.0
		decay_mult: 0.0
	}
	scale_param {
		bias_term: true
	}
}

layer {
	top: "p_res2a_branch2a"
	bottom: "p_res2a_branch2a"
	name: "p_res2a_branch2a_relu"
	type: "ReLU"
}

layer {
	bottom: "p_res2a_branch2a"
	top: "p_res2a_branch2b"
	name: "p_res2a_branch2b"
	type: "Convolution"
	param {
		name: "res2a_branch2b_w"
		lr_mult: 0.0
		decay_mult: 0.0
	}
	convolution_param {
		num_output: 64
		kernel_size: 3
		pad: 1
		stride: 1
		bias_term: false
	}
}

layer {
	bottom: "p_res2a_branch2b"
	top: "p_res2a_branch2b"
	name: "p_bn2a_branch2b"
	type: "BatchNorm"
	param {
		name: "bn2a_branch2b_1"
		lr_mult: 0.0
		decay_mult: 0.0
	}
	param {
		name: "bn2a_branch2b_2"
		lr_mult: 0.0
		decay_mult: 0.0
	}
	param {
		name: "bn2a_branch2b_3"
		lr_mult: 0.0
		decay_mult: 0.0
	}
	batch_norm_param {
		use_global_stats: true
	}
}

layer {
	bottom: "p_res2a_branch2b"
	top: "p_res2a_branch2b"
	name: "p_scale2a_branch2b"
	type: "Scale"
	param {
		name: "scale2a_branch2b_1"
		lr_mult: 0.0
		decay_mult: 0.0
	}
	param {
		name: "scale2a_branch2b_2"
		lr_mult: 0.0
		decay_mult: 0.0
	}
	scale_param {
		bias_term: true
	}
}

layer {
	top: "p_res2a_branch2b"
	bottom: "p_res2a_branch2b"
	name: "p_res2a_branch2b_relu"
	type: "ReLU"
}

layer {
	bottom: "p_res2a_branch2b"
	top: "p_res2a_branch2c"
	name: "p_res2a_branch2c"
	type: "Convolution"
	param {
		name: "res2a_branch2c_w"
		lr_mult: 0.0
		decay_mult: 0.0
	}
	convolution_param {
		num_output: 256
		kernel_size: 1
		pad: 0
		stride: 1
		bias_term: false
	}
}

layer {
	bottom: "p_res2a_branch2c"
	top: "p_res2a_branch2c"
	name: "p_bn2a_branch2c"
	type: "BatchNorm"
	param {
		name: "bn2a_branch2c_1"
		lr_mult: 0.0
		decay_mult: 0.0
	}
	param {
		name: "bn2a_branch2c_2"
		lr_mult: 0.0
		decay_mult: 0.0
	}
	param {
		name: "bn2a_branch2c_3"
		lr_mult: 0.0
		decay_mult: 0.0
	}
	batch_norm_param {
		use_global_stats: true
	}
}

layer {
	bottom: "p_res2a_branch2c"
	top: "p_res2a_branch2c"
	name: "p_scale2a_branch2c"
	type: "Scale"
	param {
		name: "scale2a_branch2c_1"
		lr_mult: 0.0
		decay_mult: 0.0
	}
	param {
		name: "scale2a_branch2c_2"
		lr_mult: 0.0
		decay_mult: 0.0
	}
	scale_param {
		bias_term: true
	}
}

layer {
	bottom: "p_res2a_branch1"
	bottom: "p_res2a_branch2c"
	top: "p_res2a"
	name: "p_res2a"
	type: "Eltwise"
}

layer {
	bottom: "p_res2a"
	top: "p_res2a"
	name: "p_res2a_relu"
	type: "ReLU"
}

layer {
	bottom: "p_res2a"
	top: "p_res2b_branch2a"
	name: "p_res2b_branch2a"
	type: "Convolution"
	param {
		name: "res2b_branch2a_w"
		lr_mult: 0.0
		decay_mult: 0.0
	}
	convolution_param {
		num_output: 64
		kernel_size: 1
		pad: 0
		stride: 1
		bias_term: false
	}
}

layer {
	bottom: "p_res2b_branch2a"
	top: "p_res2b_branch2a"
	name: "p_bn2b_branch2a"
	type: "BatchNorm"
	param {
		name: "bn2b_branch2a_1"
		lr_mult: 0.0
		decay_mult: 0.0
	}
	param {
		name: "bn2b_branch2a_2"
		lr_mult: 0.0
		decay_mult: 0.0
	}
	param {
		name: "bn2b_branch2a_3"
		lr_mult: 0.0
		decay_mult: 0.0
	}
	batch_norm_param {
		use_global_stats: true
	}
}

layer {
	bottom: "p_res2b_branch2a"
	top: "p_res2b_branch2a"
	name: "p_scale2b_branch2a"
	type: "Scale"
	param {
		name: "scale2b_branch2a_1"
		lr_mult: 0.0
		decay_mult: 0.0
	}
	param {
		name: "scale2b_branch2a_2"
		lr_mult: 0.0
		decay_mult: 0.0
	}
	scale_param {
		bias_term: true
	}
}

layer {
	top: "p_res2b_branch2a"
	bottom: "p_res2b_branch2a"
	name: "p_res2b_branch2a_relu"
	type: "ReLU"
}

layer {
	bottom: "p_res2b_branch2a"
	top: "p_res2b_branch2b"
	name: "p_res2b_branch2b"
	type: "Convolution"
	param {
		name: "res2b_branch2b_w"
		lr_mult: 0.0
		decay_mult: 0.0
	}
	convolution_param {
		num_output: 64
		kernel_size: 3
		pad: 1
		stride: 1
		bias_term: false
	}
}

layer {
	bottom: "p_res2b_branch2b"
	top: "p_res2b_branch2b"
	name: "p_bn2b_branch2b"
	type: "BatchNorm"
	param {
		name: "bn2b_branch2b_1"
		lr_mult: 0.0
		decay_mult: 0.0
	}
	param {
		name: "bn2b_branch2b_2"
		lr_mult: 0.0
		decay_mult: 0.0
	}
	param {
		name: "bn2b_branch2b_3"
		lr_mult: 0.0
		decay_mult: 0.0
	}
	batch_norm_param {
		use_global_stats: true
	}
}

layer {
	bottom: "p_res2b_branch2b"
	top: "p_res2b_branch2b"
	name: "p_scale2b_branch2b"
	type: "Scale"
	param {
		name: "scale2b_branch2b_1"
		lr_mult: 0.0
		decay_mult: 0.0
	}
	param {
		name: "scale2b_branch2b_2"
		lr_mult: 0.0
		decay_mult: 0.0
	}
	scale_param {
		bias_term: true
	}
}

layer {
	top: "p_res2b_branch2b"
	bottom: "p_res2b_branch2b"
	name: "p_res2b_branch2b_relu"
	type: "ReLU"
}

layer {
	bottom: "p_res2b_branch2b"
	top: "p_res2b_branch2c"
	name: "p_res2b_branch2c"
	type: "Convolution"
	param {
		name: "res2b_branch2c_w"
		lr_mult: 0.0
		decay_mult: 0.0
	}
	convolution_param {
		num_output: 256
		kernel_size: 1
		pad: 0
		stride: 1
		bias_term: false
	}
}

layer {
	bottom: "p_res2b_branch2c"
	top: "p_res2b_branch2c"
	name: "p_bn2b_branch2c"
	type: "BatchNorm"
	param {
		name: "bn2b_branch2c_1"
		lr_mult: 0.0
		decay_mult: 0.0
	}
	param {
		name: "bn2b_branch2c_2"
		lr_mult: 0.0
		decay_mult: 0.0
	}
	param {
		name: "bn2b_branch2c_3"
		lr_mult: 0.0
		decay_mult: 0.0
	}
	batch_norm_param {
		use_global_stats: true
	}
}

layer {
	bottom: "p_res2b_branch2c"
	top: "p_res2b_branch2c"
	name: "p_scale2b_branch2c"
	type: "Scale"
	param {
		name: "scale2b_branch2c_1"
		lr_mult: 0.0
		decay_mult: 0.0
	}
	param {
		name: "scale2b_branch2c_2"
		lr_mult: 0.0
		decay_mult: 0.0
	}
	scale_param {
		bias_term: true
	}
}

layer {
	bottom: "p_res2a"
	bottom: "p_res2b_branch2c"
	top: "p_res2b"
	name: "p_res2b"
	type: "Eltwise"
}

layer {
	bottom: "p_res2b"
	top: "p_res2b"
	name: "p_res2b_relu"
	type: "ReLU"
}

layer {
	bottom: "p_res2b"
	top: "p_res2c_branch2a"
	name: "p_res2c_branch2a"
	type: "Convolution"
	param {
		name: "res2c_branch2a_w"
		lr_mult: 0.0
		decay_mult: 0.0
	}
	convolution_param {
		num_output: 64
		kernel_size: 1
		pad: 0
		stride: 1
		bias_term: false
	}
}

layer {
	bottom: "p_res2c_branch2a"
	top: "p_res2c_branch2a"
	name: "p_bn2c_branch2a"
	type: "BatchNorm"
	param {
		name: "bn2c_branch2a_1"
		lr_mult: 0.0
		decay_mult: 0.0
	}
	param {
		name: "bn2c_branch2a_2"
		lr_mult: 0.0
		decay_mult: 0.0
	}
	param {
		name: "bn2c_branch2a_3"
		lr_mult: 0.0
		decay_mult: 0.0
	}
	batch_norm_param {
		use_global_stats: true
	}
}

layer {
	bottom: "p_res2c_branch2a"
	top: "p_res2c_branch2a"
	name: "p_scale2c_branch2a"
	type: "Scale"
	param {
		name: "scale2c_branch2a_1"
		lr_mult: 0.0
		decay_mult: 0.0
	}
	param {
		name: "scale2c_branch2a_2"
		lr_mult: 0.0
		decay_mult: 0.0
	}
	scale_param {
		bias_term: true
	}
}

layer {
	top: "p_res2c_branch2a"
	bottom: "p_res2c_branch2a"
	name: "p_res2c_branch2a_relu"
	type: "ReLU"
}

layer {
	bottom: "p_res2c_branch2a"
	top: "p_res2c_branch2b"
	name: "p_res2c_branch2b"
	type: "Convolution"
	param {
		name: "res2c_branch2b_w"
		lr_mult: 0.0
		decay_mult: 0.0
	}
	convolution_param {
		num_output: 64
		kernel_size: 3
		pad: 1
		stride: 1
		bias_term: false
	}
}

layer {
	bottom: "p_res2c_branch2b"
	top: "p_res2c_branch2b"
	name: "p_bn2c_branch2b"
	type: "BatchNorm"
	param {
		name: "bn2c_branch2b_1"
		lr_mult: 0.0
		decay_mult: 0.0
	}
	param {
		name: "bn2c_branch2b_2"
		lr_mult: 0.0
		decay_mult: 0.0
	}
	param {
		name: "bn2c_branch2b_3"
		lr_mult: 0.0
		decay_mult: 0.0
	}
	batch_norm_param {
		use_global_stats: true
	}
}

layer {
	bottom: "p_res2c_branch2b"
	top: "p_res2c_branch2b"
	name: "p_scale2c_branch2b"
	type: "Scale"
	param {
		name: "scale2c_branch2b_1"
		lr_mult: 0.0
		decay_mult: 0.0
	}
	param {
		name: "scale2c_branch2b_2"
		lr_mult: 0.0
		decay_mult: 0.0
	}
	scale_param {
		bias_term: true
	}
}

layer {
	top: "p_res2c_branch2b"
	bottom: "p_res2c_branch2b"
	name: "p_res2c_branch2b_relu"
	type: "ReLU"
}

layer {
	bottom: "p_res2c_branch2b"
	top: "p_res2c_branch2c"
	name: "p_res2c_branch2c"
	type: "Convolution"
	param {
		name: "res2c_branch2c_w"
		lr_mult: 0.0
		decay_mult: 0.0
	}
	convolution_param {
		num_output: 256
		kernel_size: 1
		pad: 0
		stride: 1
		bias_term: false
	}
}

layer {
	bottom: "p_res2c_branch2c"
	top: "p_res2c_branch2c"
	name: "p_bn2c_branch2c"
	type: "BatchNorm"
	param {
		name: "bn2c_branch2c_1"
		lr_mult: 0.0
		decay_mult: 0.0
	}
	param {
		name: "bn2c_branch2c_2"
		lr_mult: 0.0
		decay_mult: 0.0
	}
	param {
		name: "bn2c_branch2c_3"
		lr_mult: 0.0
		decay_mult: 0.0
	}
	batch_norm_param {
		use_global_stats: true
	}
}

layer {
	bottom: "p_res2c_branch2c"
	top: "p_res2c_branch2c"
	name: "p_scale2c_branch2c"
	type: "Scale"
	param {
		name: "scale2c_branch2c_1"
		lr_mult: 0.0
		decay_mult: 0.0
	}
	param {
		name: "scale2c_branch2c_2"
		lr_mult: 0.0
		decay_mult: 0.0
	}
	scale_param {
		bias_term: true
	}
}

layer {
	bottom: "p_res2b"
	bottom: "p_res2c_branch2c"
	top: "p_res2c"
	name: "p_res2c"
	type: "Eltwise"
}

layer {
	bottom: "p_res2c"
	top: "p_res2c"
	name: "p_res2c_relu"
	type: "ReLU"
}

layer {
	bottom: "p_res2c"
	top: "p_res3a_branch1"
	name: "p_res3a_branch1"
	type: "Convolution"
	param {
		name: "res3a_branch1_w"
		lr_mult: 0.0
		decay_mult: 0.0
	}
	convolution_param {
		num_output: 512
		kernel_size: 1
		pad: 0
		stride: 2
		bias_term: false
	}
}

layer {
	bottom: "p_res3a_branch1"
	top: "p_res3a_branch1"
	name: "p_bn3a_branch1"
	type: "BatchNorm"
	param {
		name: "bn3a_branch1_1"
		lr_mult: 0.0
		decay_mult: 0.0
	}
	param {
		name: "bn3a_branch1_2"
		lr_mult: 0.0
		decay_mult: 0.0
	}
	param {
		name: "bn3a_branch1_3"
		lr_mult: 0.0
		decay_mult: 0.0
	}
	batch_norm_param {
		use_global_stats: true
	}
}

layer {
	bottom: "p_res3a_branch1"
	top: "p_res3a_branch1"
	name: "p_scale3a_branch1"
	type: "Scale"
	param {
		name: "scale3a_branch1_1"
		lr_mult: 0.0
		decay_mult: 0.0
	}
	param {
		name: "scale3a_branch1_2"
		lr_mult: 0.0
		decay_mult: 0.0
	}
	scale_param {
		bias_term: true
	}
}

layer {
	bottom: "p_res2c"
	top: "p_res3a_branch2a"
	name: "p_res3a_branch2a"
	type: "Convolution"
	param {
		name: "res3a_branch2a_w"
		lr_mult: 0.0
		decay_mult: 0.0
	}
	convolution_param {
		num_output: 128
		kernel_size: 1
		pad: 0
		stride: 2
		bias_term: false
	}
}

layer {
	bottom: "p_res3a_branch2a"
	top: "p_res3a_branch2a"
	name: "p_bn3a_branch2a"
	type: "BatchNorm"
	param {
		name: "bn3a_branch2a_1"
		lr_mult: 0.0
		decay_mult: 0.0
	}
	param {
		name: "bn3a_branch2a_2"
		lr_mult: 0.0
		decay_mult: 0.0
	}
	param {
		name: "bn3a_branch2a_3"
		lr_mult: 0.0
		decay_mult: 0.0
	}
	batch_norm_param {
		use_global_stats: true
	}
}

layer {
	bottom: "p_res3a_branch2a"
	top: "p_res3a_branch2a"
	name: "p_scale3a_branch2a"
	type: "Scale"
	param {
		name: "scale3a_branch2a_1"
		lr_mult: 0.0
		decay_mult: 0.0
	}
	param {
		name: "scale3a_branch2a_2"
		lr_mult: 0.0
		decay_mult: 0.0
	}
	scale_param {
		bias_term: true
	}
}

layer {
	top: "p_res3a_branch2a"
	bottom: "p_res3a_branch2a"
	name: "p_res3a_branch2a_relu"
	type: "ReLU"
}

layer {
	bottom: "p_res3a_branch2a"
	top: "p_res3a_branch2b"
	name: "p_res3a_branch2b"
	type: "Convolution"
	param {
		name: "res3a_branch2b_w"
		lr_mult: 0.0
		decay_mult: 0.0
	}
	convolution_param {
		num_output: 128
		kernel_size: 3
		pad: 1
		stride: 1
		bias_term: false
	}
}

layer {
	bottom: "p_res3a_branch2b"
	top: "p_res3a_branch2b"
	name: "p_bn3a_branch2b"
	type: "BatchNorm"
	param {
		name: "bn3a_branch2b_1"
		lr_mult: 0.0
		decay_mult: 0.0
	}
	param {
		name: "bn3a_branch2b_2"
		lr_mult: 0.0
		decay_mult: 0.0
	}
	param {
		name: "bn3a_branch2b_3"
		lr_mult: 0.0
		decay_mult: 0.0
	}
	batch_norm_param {
		use_global_stats: true
	}
}

layer {
	bottom: "p_res3a_branch2b"
	top: "p_res3a_branch2b"
	name: "p_scale3a_branch2b"
	type: "Scale"
	param {
		name: "scale3a_branch2b_1"
		lr_mult: 0.0
		decay_mult: 0.0
	}
	param {
		name: "scale3a_branch2b_2"
		lr_mult: 0.0
		decay_mult: 0.0
	}
	scale_param {
		bias_term: true
	}
}

layer {
	top: "p_res3a_branch2b"
	bottom: "p_res3a_branch2b"
	name: "p_res3a_branch2b_relu"
	type: "ReLU"
}

layer {
	bottom: "p_res3a_branch2b"
	top: "p_res3a_branch2c"
	name: "p_res3a_branch2c"
	type: "Convolution"
	param {
		name: "res3a_branch2c_w"
		lr_mult: 0.0
		decay_mult: 0.0
	}
	convolution_param {
		num_output: 512
		kernel_size: 1
		pad: 0
		stride: 1
		bias_term: false
	}
}

layer {
	bottom: "p_res3a_branch2c"
	top: "p_res3a_branch2c"
	name: "p_bn3a_branch2c"
	type: "BatchNorm"
	param {
		name: "bn3a_branch2c_1"
		lr_mult: 0.0
		decay_mult: 0.0
	}
	param {
		name: "bn3a_branch2c_2"
		lr_mult: 0.0
		decay_mult: 0.0
	}
	param {
		name: "bn3a_branch2c_3"
		lr_mult: 0.0
		decay_mult: 0.0
	}
	batch_norm_param {
		use_global_stats: true
	}
}

layer {
	bottom: "p_res3a_branch2c"
	top: "p_res3a_branch2c"
	name: "p_scale3a_branch2c"
	type: "Scale"
	param {
		name: "scale3a_branch2c_1"
		lr_mult: 0.0
		decay_mult: 0.0
	}
	param {
		name: "scale3a_branch2c_2"
		lr_mult: 0.0
		decay_mult: 0.0
	}
	scale_param {
		bias_term: true
	}
}

layer {
	bottom: "p_res3a_branch1"
	bottom: "p_res3a_branch2c"
	top: "p_res3a"
	name: "p_res3a"
	type: "Eltwise"
}

layer {
	bottom: "p_res3a"
	top: "p_res3a"
	name: "p_res3a_relu"
	type: "ReLU"
}

layer {
	bottom: "p_res3a"
	top: "p_res3b1_branch2a"
	name: "p_res3b1_branch2a"
	type: "Convolution"
	param {
		name: "res3b1_branch2a_w"
		lr_mult: 0.0
		decay_mult: 0.0
	}
	convolution_param {
		num_output: 128
		kernel_size: 1
		pad: 0
		stride: 1
		bias_term: false
	}
}

layer {
	bottom: "p_res3b1_branch2a"
	top: "p_res3b1_branch2a"
	name: "p_bn3b1_branch2a"
	type: "BatchNorm"
	param {
		name: "bn3b1_branch2a_1"
		lr_mult: 0.0
		decay_mult: 0.0
	}
	param {
		name: "bn3b1_branch2a_2"
		lr_mult: 0.0
		decay_mult: 0.0
	}
	param {
		name: "bn3b1_branch2a_3"
		lr_mult: 0.0
		decay_mult: 0.0
	}
	batch_norm_param {
		use_global_stats: true
	}
}

layer {
	bottom: "p_res3b1_branch2a"
	top: "p_res3b1_branch2a"
	name: "p_scale3b1_branch2a"
	type: "Scale"
	param {
		name: "scale3b1_branch2a_1"
		lr_mult: 0.0
		decay_mult: 0.0
	}
	param {
		name: "scale3b1_branch2a_2"
		lr_mult: 0.0
		decay_mult: 0.0
	}
	scale_param {
		bias_term: true
	}
}

layer {
	top: "p_res3b1_branch2a"
	bottom: "p_res3b1_branch2a"
	name: "p_res3b1_branch2a_relu"
	type: "ReLU"
}

layer {
	bottom: "p_res3b1_branch2a"
	top: "p_res3b1_branch2b"
	name: "p_res3b1_branch2b"
	type: "Convolution"
	param {
		name: "res3b1_branch2b_w"
		lr_mult: 0.0
		decay_mult: 0.0
	}
	convolution_param {
		num_output: 128
		kernel_size: 3
		pad: 1
		stride: 1
		bias_term: false
	}
}

layer {
	bottom: "p_res3b1_branch2b"
	top: "p_res3b1_branch2b"
	name: "p_bn3b1_branch2b"
	type: "BatchNorm"
	param {
		name: "bn3b1_branch2b_1"
		lr_mult: 0.0
		decay_mult: 0.0
	}
	param {
		name: "bn3b1_branch2b_2"
		lr_mult: 0.0
		decay_mult: 0.0
	}
	param {
		name: "bn3b1_branch2b_3"
		lr_mult: 0.0
		decay_mult: 0.0
	}
	batch_norm_param {
		use_global_stats: true
	}
}

layer {
	bottom: "p_res3b1_branch2b"
	top: "p_res3b1_branch2b"
	name: "p_scale3b1_branch2b"
	type: "Scale"
	param {
		name: "scale3b1_branch2b_1"
		lr_mult: 0.0
		decay_mult: 0.0
	}
	param {
		name: "scale3b1_branch2b_2"
		lr_mult: 0.0
		decay_mult: 0.0
	}
	scale_param {
		bias_term: true
	}
}

layer {
	top: "p_res3b1_branch2b"
	bottom: "p_res3b1_branch2b"
	name: "p_res3b1_branch2b_relu"
	type: "ReLU"
}

layer {
	bottom: "p_res3b1_branch2b"
	top: "p_res3b1_branch2c"
	name: "p_res3b1_branch2c"
	type: "Convolution"
	param {
		name: "res3b1_branch2c_w"
		lr_mult: 0.0
		decay_mult: 0.0
	}
	convolution_param {
		num_output: 512
		kernel_size: 1
		pad: 0
		stride: 1
		bias_term: false
	}
}

layer {
	bottom: "p_res3b1_branch2c"
	top: "p_res3b1_branch2c"
	name: "p_bn3b1_branch2c"
	type: "BatchNorm"
	param {
		name: "bn3b1_branch2c_1"
		lr_mult: 0.0
		decay_mult: 0.0
	}
	param {
		name: "bn3b1_branch2c_2"
		lr_mult: 0.0
		decay_mult: 0.0
	}
	param {
		name: "bn3b1_branch2c_3"
		lr_mult: 0.0
		decay_mult: 0.0
	}
	batch_norm_param {
		use_global_stats: true
	}
}

layer {
	bottom: "p_res3b1_branch2c"
	top: "p_res3b1_branch2c"
	name: "p_scale3b1_branch2c"
	type: "Scale"
	param {
		name: "scale3b1_branch2c_1"
		lr_mult: 0.0
		decay_mult: 0.0
	}
	param {
		name: "scale3b1_branch2c_2"
		lr_mult: 0.0
		decay_mult: 0.0
	}
	scale_param {
		bias_term: true
	}
}

layer {
	bottom: "p_res3a"
	bottom: "p_res3b1_branch2c"
	top: "p_res3b1"
	name: "p_res3b1"
	type: "Eltwise"
}

layer {
	bottom: "p_res3b1"
	top: "p_res3b1"
	name: "p_res3b1_relu"
	type: "ReLU"
}

layer {
	bottom: "p_res3b1"
	top: "p_res3b2_branch2a"
	name: "p_res3b2_branch2a"
	type: "Convolution"
	param {
		name: "res3b2_branch2a_w"
		lr_mult: 0.0
		decay_mult: 0.0
	}
	convolution_param {
		num_output: 128
		kernel_size: 1
		pad: 0
		stride: 1
		bias_term: false
	}
}

layer {
	bottom: "p_res3b2_branch2a"
	top: "p_res3b2_branch2a"
	name: "p_bn3b2_branch2a"
	type: "BatchNorm"
	param {
		name: "bn3b2_branch2a_1"
		lr_mult: 0.0
		decay_mult: 0.0
	}
	param {
		name: "bn3b2_branch2a_2"
		lr_mult: 0.0
		decay_mult: 0.0
	}
	param {
		name: "bn3b2_branch2a_3"
		lr_mult: 0.0
		decay_mult: 0.0
	}
	batch_norm_param {
		use_global_stats: true
	}
}

layer {
	bottom: "p_res3b2_branch2a"
	top: "p_res3b2_branch2a"
	name: "p_scale3b2_branch2a"
	type: "Scale"
	param {
		name: "scale3b2_branch2a_1"
		lr_mult: 0.0
		decay_mult: 0.0
	}
	param {
		name: "scale3b2_branch2a_2"
		lr_mult: 0.0
		decay_mult: 0.0
	}
	scale_param {
		bias_term: true
	}
}

layer {
	top: "p_res3b2_branch2a"
	bottom: "p_res3b2_branch2a"
	name: "p_res3b2_branch2a_relu"
	type: "ReLU"
}

layer {
	bottom: "p_res3b2_branch2a"
	top: "p_res3b2_branch2b"
	name: "p_res3b2_branch2b"
	type: "Convolution"
	param {
		name: "res3b2_branch2b_w"
		lr_mult: 0.0
		decay_mult: 0.0
	}
	convolution_param {
		num_output: 128
		kernel_size: 3
		pad: 1
		stride: 1
		bias_term: false
	}
}

layer {
	bottom: "p_res3b2_branch2b"
	top: "p_res3b2_branch2b"
	name: "p_bn3b2_branch2b"
	type: "BatchNorm"
	param {
		name: "bn3b2_branch2b_1"
		lr_mult: 0.0
		decay_mult: 0.0
	}
	param {
		name: "bn3b2_branch2b_2"
		lr_mult: 0.0
		decay_mult: 0.0
	}
	param {
		name: "bn3b2_branch2b_3"
		lr_mult: 0.0
		decay_mult: 0.0
	}
	batch_norm_param {
		use_global_stats: true
	}
}

layer {
	bottom: "p_res3b2_branch2b"
	top: "p_res3b2_branch2b"
	name: "p_scale3b2_branch2b"
	type: "Scale"
	param {
		name: "scale3b2_branch2b_1"
		lr_mult: 0.0
		decay_mult: 0.0
	}
	param {
		name: "scale3b2_branch2b_2"
		lr_mult: 0.0
		decay_mult: 0.0
	}
	scale_param {
		bias_term: true
	}
}

layer {
	top: "p_res3b2_branch2b"
	bottom: "p_res3b2_branch2b"
	name: "p_res3b2_branch2b_relu"
	type: "ReLU"
}

layer {
	bottom: "p_res3b2_branch2b"
	top: "p_res3b2_branch2c"
	name: "p_res3b2_branch2c"
	type: "Convolution"
	param {
		name: "res3b2_branch2c_w"
		lr_mult: 0.0
		decay_mult: 0.0
	}
	convolution_param {
		num_output: 512
		kernel_size: 1
		pad: 0
		stride: 1
		bias_term: false
	}
}

layer {
	bottom: "p_res3b2_branch2c"
	top: "p_res3b2_branch2c"
	name: "p_bn3b2_branch2c"
	type: "BatchNorm"
	param {
		name: "bn3b2_branch2c_1"
		lr_mult: 0.0
		decay_mult: 0.0
	}
	param {
		name: "bn3b2_branch2c_2"
		lr_mult: 0.0
		decay_mult: 0.0
	}
	param {
		name: "bn3b2_branch2c_3"
		lr_mult: 0.0
		decay_mult: 0.0
	}
	batch_norm_param {
		use_global_stats: true
	}
}

layer {
	bottom: "p_res3b2_branch2c"
	top: "p_res3b2_branch2c"
	name: "p_scale3b2_branch2c"
	type: "Scale"
	param {
		name: "scale3b2_branch2c_1"
		lr_mult: 0.0
		decay_mult: 0.0
	}
	param {
		name: "scale3b2_branch2c_2"
		lr_mult: 0.0
		decay_mult: 0.0
	}
	scale_param {
		bias_term: true
	}
}

layer {
	bottom: "p_res3b1"
	bottom: "p_res3b2_branch2c"
	top: "p_res3b2"
	name: "p_res3b2"
	type: "Eltwise"
}

layer {
	bottom: "p_res3b2"
	top: "p_res3b2"
	name: "p_res3b2_relu"
	type: "ReLU"
}

layer {
	bottom: "p_res3b2"
	top: "p_res3b3_branch2a"
	name: "p_res3b3_branch2a"
	type: "Convolution"
	param {
		name: "res3b3_branch2a_w"
		lr_mult: 0.0
		decay_mult: 0.0
	}
	convolution_param {
		num_output: 128
		kernel_size: 1
		pad: 0
		stride: 1
		bias_term: false
	}
}

layer {
	bottom: "p_res3b3_branch2a"
	top: "p_res3b3_branch2a"
	name: "p_bn3b3_branch2a"
	type: "BatchNorm"
	param {
		name: "bn3b3_branch2a_1"
		lr_mult: 0.0
		decay_mult: 0.0
	}
	param {
		name: "bn3b3_branch2a_2"
		lr_mult: 0.0
		decay_mult: 0.0
	}
	param {
		name: "bn3b3_branch2a_3"
		lr_mult: 0.0
		decay_mult: 0.0
	}
	batch_norm_param {
		use_global_stats: true
	}
}

layer {
	bottom: "p_res3b3_branch2a"
	top: "p_res3b3_branch2a"
	name: "p_scale3b3_branch2a"
	type: "Scale"
	param {
		name: "scale3b3_branch2a_1"
		lr_mult: 0.0
		decay_mult: 0.0
	}
	param {
		name: "scale3b3_branch2a_2"
		lr_mult: 0.0
		decay_mult: 0.0
	}
	scale_param {
		bias_term: true
	}
}

layer {
	top: "p_res3b3_branch2a"
	bottom: "p_res3b3_branch2a"
	name: "p_res3b3_branch2a_relu"
	type: "ReLU"
}

layer {
	bottom: "p_res3b3_branch2a"
	top: "p_res3b3_branch2b"
	name: "p_res3b3_branch2b"
	type: "Convolution"
	param {
		name: "res3b3_branch2b_w"
		lr_mult: 0.0
		decay_mult: 0.0
	}
	convolution_param {
		num_output: 128
		kernel_size: 3
		pad: 1
		stride: 1
		bias_term: false
	}
}

layer {
	bottom: "p_res3b3_branch2b"
	top: "p_res3b3_branch2b"
	name: "p_bn3b3_branch2b"
	type: "BatchNorm"
	param {
		name: "bn3b3_branch2b_1"
		lr_mult: 0.0
		decay_mult: 0.0
	}
	param {
		name: "bn3b3_branch2b_2"
		lr_mult: 0.0
		decay_mult: 0.0
	}
	param {
		name: "bn3b3_branch2b_3"
		lr_mult: 0.0
		decay_mult: 0.0
	}
	batch_norm_param {
		use_global_stats: true
	}
}

layer {
	bottom: "p_res3b3_branch2b"
	top: "p_res3b3_branch2b"
	name: "p_scale3b3_branch2b"
	type: "Scale"
	param {
		name: "scale3b3_branch2b_1"
		lr_mult: 0.0
		decay_mult: 0.0
	}
	param {
		name: "scale3b3_branch2b_2"
		lr_mult: 0.0
		decay_mult: 0.0
	}
	scale_param {
		bias_term: true
	}
}

layer {
	top: "p_res3b3_branch2b"
	bottom: "p_res3b3_branch2b"
	name: "p_res3b3_branch2b_relu"
	type: "ReLU"
}

layer {
	bottom: "p_res3b3_branch2b"
	top: "p_res3b3_branch2c"
	name: "p_res3b3_branch2c"
	type: "Convolution"
	param {
		name: "res3b3_branch2c_w"
		lr_mult: 0.0
		decay_mult: 0.0
	}
	convolution_param {
		num_output: 512
		kernel_size: 1
		pad: 0
		stride: 1
		bias_term: false
	}
}

layer {
	bottom: "p_res3b3_branch2c"
	top: "p_res3b3_branch2c"
	name: "p_bn3b3_branch2c"
	type: "BatchNorm"
	param {
		name: "bn3b3_branch2c_1"
		lr_mult: 0.0
		decay_mult: 0.0
	}
	param {
		name: "bn3b3_branch2c_2"
		lr_mult: 0.0
		decay_mult: 0.0
	}
	param {
		name: "bn3b3_branch2c_3"
		lr_mult: 0.0
		decay_mult: 0.0
	}
	batch_norm_param {
		use_global_stats: true
	}
}

layer {
	bottom: "p_res3b3_branch2c"
	top: "p_res3b3_branch2c"
	name: "p_scale3b3_branch2c"
	type: "Scale"
	param {
		name: "scale3b3_branch2c_1"
		lr_mult: 0.0
		decay_mult: 0.0
	}
	param {
		name: "scale3b3_branch2c_2"
		lr_mult: 0.0
		decay_mult: 0.0
	}
	scale_param {
		bias_term: true
	}
}

layer {
	bottom: "p_res3b2"
	bottom: "p_res3b3_branch2c"
	top: "p_res3b3"
	name: "p_res3b3"
	type: "Eltwise"
}

layer {
	bottom: "p_res3b3"
	top: "p_res3b3"
	name: "p_res3b3_relu"
	type: "ReLU"
}

layer {
	bottom: "p_res3b3"
	top: "p_res4a_branch1"
	name: "p_res4a_branch1"
	type: "Convolution"
	param {
		name: "res4a_branch1_w"
		lr_mult: 0.0
		decay_mult: 0.0
	}
	convolution_param {
		num_output: 1024
		kernel_size: 1
		pad: 0
		stride: 2
		bias_term: false
	}
}

layer {
	bottom: "p_res4a_branch1"
	top: "p_res4a_branch1"
	name: "p_bn4a_branch1"
	type: "BatchNorm"
	param {
		name: "bn4a_branch1_1"
		lr_mult: 0.0
		decay_mult: 0.0
	}
	param {
		name: "bn4a_branch1_2"
		lr_mult: 0.0
		decay_mult: 0.0
	}
	param {
		name: "bn4a_branch1_3"
		lr_mult: 0.0
		decay_mult: 0.0
	}
	batch_norm_param {
		use_global_stats: true
	}
}

layer {
	bottom: "p_res4a_branch1"
…
	name: "n_res4b12"
	type: "Eltwise"
}

layer {
	bottom: "n_res4b12"
	top: "n_res4b12"
	name: "n_res4b12_relu"
	type: "ReLU"
}

layer {
	bottom: "n_res4b12"
	top: "n_res4b13_branch2a"
	name: "n_res4b13_branch2a"
	type: "Convolution"
	param {
		name: "res4b13_branch2a_w"
		lr_mult: 0.0
		decay_mult: 0.0
	}
	convolution_param {
		num_output: 256
		kernel_size: 1
		pad: 0
		stride: 1
		bias_term: false
	}
}

layer {
	bottom: "n_res4b13_branch2a"
	top: "n_res4b13_branch2a"
	name: "n_bn4b13_branch2a"
	type: "BatchNorm"
	param {
		name: "bn4b13_branch2a_1"
		lr_mult: 0.0
		decay_mult: 0.0
	}
	param {
		name: "bn4b13_branch2a_2"
		lr_mult: 0.0
		decay_mult: 0.0
	}
	param {
		name: "bn4b13_branch2a_3"
		lr_mult: 0.0
		decay_mult: 0.0
	}
	batch_norm_param {
		use_global_stats: true
	}
}

layer {
	bottom: "n_res4b13_branch2a"
	top: "n_res4b13_branch2a"
	name: "n_scale4b13_branch2a"
	type: "Scale"
	param {
		name: "scale4b13_branch2a_1"
		lr_mult: 0.0
		decay_mult: 0.0
	}
	param {
		name: "scale4b13_branch2a_2"
		lr_mult: 0.0
		decay_mult: 0.0
	}
	scale_param {
		bias_term: true
	}
}

layer {
	top: "n_res4b13_branch2a"
	bottom: "n_res4b13_branch2a"
	name: "n_res4b13_branch2a_relu"
	type: "ReLU"
}

layer {
	bottom: "n_res4b13_branch2a"
	top: "n_res4b13_branch2b"
	name: "n_res4b13_branch2b"
	type: "Convolution"
	param {
		name: "res4b13_branch2b_w"
		lr_mult: 0.0
		decay_mult: 0.0
	}
	convolution_param {
		num_output: 256
		kernel_size: 3
		pad: 1
		stride: 1
		bias_term: false
	}
}

layer {
	bottom: "n_res4b13_branch2b"
	top: "n_res4b13_branch2b"
	name: "n_bn4b13_branch2b"
	type: "BatchNorm"
	param {
		name: "bn4b13_branch2b_1"
		lr_mult: 0.0
		decay_mult: 0.0
	}
	param {
		name: "bn4b13_branch2b_2"
		lr_mult: 0.0
		decay_mult: 0.0
	}
	param {
		name: "bn4b13_branch2b_3"
		lr_mult: 0.0
		decay_mult: 0.0
	}
	batch_norm_param {
		use_global_stats: true
	}
}

layer {
	bottom: "n_res4b13_branch2b"
	top: "n_res4b13_branch2b"
	name: "n_scale4b13_branch2b"
	type: "Scale"
	param {
		name: "scale4b13_branch2b_1"
		lr_mult: 0.0
		decay_mult: 0.0
	}
	param {
		name: "scale4b13_branch2b_2"
		lr_mult: 0.0
		decay_mult: 0.0
	}
	scale_param {
		bias_term: true
	}
}

layer {
	top: "n_res4b13_branch2b"
	bottom: "n_res4b13_branch2b"
	name: "n_res4b13_branch2b_relu"
	type: "ReLU"
}

layer {
	bottom: "n_res4b13_branch2b"
	top: "n_res4b13_branch2c"
	name: "n_res4b13_branch2c"
	type: "Convolution"
	param {
		name: "res4b13_branch2c_w"
		lr_mult: 0.0
		decay_mult: 0.0
	}
	convolution_param {
		num_output: 1024
		kernel_size: 1
		pad: 0
		stride: 1
		bias_term: false
	}
}

layer {
	bottom: "n_res4b13_branch2c"
	top: "n_res4b13_branch2c"
	name: "n_bn4b13_branch2c"
	type: "BatchNorm"
	param {
		name: "bn4b13_branch2c_1"
		lr_mult: 0.0
		decay_mult: 0.0
	}
	param {
		name: "bn4b13_branch2c_2"
		lr_mult: 0.0
		decay_mult: 0.0
	}
	param {
		name: "bn4b13_branch2c_3"
		lr_mult: 0.0
		decay_mult: 0.0
	}
	batch_norm_param {
		use_global_stats: true
	}
}

layer {
	bottom: "n_res4b13_branch2c"
	top: "n_res4b13_branch2c"
	name: "n_scale4b13_branch2c"
	type: "Scale"
	param {
		name: "scale4b13_branch2c_1"
		lr_mult: 0.0
		decay_mult: 0.0
	}
	param {
		name: "scale4b13_branch2c_2"
		lr_mult: 0.0
		decay_mult: 0.0
	}
	scale_param {
		bias_term: true
	}
}

layer {
	bottom: "n_res4b12"
	bottom: "n_res4b13_branch2c"
	top: "n_res4b13"
	name: "n_res4b13"
	type: "Eltwise"
}

layer {
	bottom: "n_res4b13"
	top: "n_res4b13"
	name: "n_res4b13_relu"
	type: "ReLU"
}

layer {
	bottom: "n_res4b13"
	top: "n_res4b14_branch2a"
	name: "n_res4b14_branch2a"
	type: "Convolution"
	param {
		name: "res4b14_branch2a_w"
		lr_mult: 0.0
		decay_mult: 0.0
	}
	convolution_param {
		num_output: 256
		kernel_size: 1
		pad: 0
		stride: 1
		bias_term: false
	}
}

layer {
	bottom: "n_res4b14_branch2a"
	top: "n_res4b14_branch2a"
	name: "n_bn4b14_branch2a"
	type: "BatchNorm"
	param {
		name: "bn4b14_branch2a_1"
		lr_mult: 0.0
		decay_mult: 0.0
	}
	param {
		name: "bn4b14_branch2a_2"
		lr_mult: 0.0
		decay_mult: 0.0
	}
	param {
		name: "bn4b14_branch2a_3"
		lr_mult: 0.0
		decay_mult: 0.0
	}
	batch_norm_param {
		use_global_stats: true
	}
}

layer {
	bottom: "n_res4b14_branch2a"
	top: "n_res4b14_branch2a"
	name: "n_scale4b14_branch2a"
	type: "Scale"
	param {
		name: "scale4b14_branch2a_1"
		lr_mult: 0.0
		decay_mult: 0.0
	}
	param {
		name: "scale4b14_branch2a_2"
		lr_mult: 0.0
		decay_mult: 0.0
	}
	scale_param {
		bias_term: true
	}
}

layer {
	top: "n_res4b14_branch2a"
	bottom: "n_res4b14_branch2a"
	name: "n_res4b14_branch2a_relu"
	type: "ReLU"
}

layer {
	bottom: "n_res4b14_branch2a"
	top: "n_res4b14_branch2b"
	name: "n_res4b14_branch2b"
	type: "Convolution"
	param {
		name: "res4b14_branch2b_w"
		lr_mult: 0.0
		decay_mult: 0.0
	}
	convolution_param {
		num_output: 256
		kernel_size: 3
		pad: 1
		stride: 1
		bias_term: false
	}
}

layer {
	bottom: "n_res4b14_branch2b"
	top: "n_res4b14_branch2b"
	name: "n_bn4b14_branch2b"
	type: "BatchNorm"
	param {
		name: "bn4b14_branch2b_1"
		lr_mult: 0.0
		decay_mult: 0.0
	}
	param {
		name: "bn4b14_branch2b_2"
		lr_mult: 0.0
		decay_mult: 0.0
	}
	param {
		name: "bn4b14_branch2b_3"
		lr_mult: 0.0
		decay_mult: 0.0
	}
	batch_norm_param {
		use_global_stats: true
	}
}

layer {
	bottom: "n_res4b14_branch2b"
	top: "n_res4b14_branch2b"
	name: "n_scale4b14_branch2b"
	type: "Scale"
	param {
		name: "scale4b14_branch2b_1"
		lr_mult: 0.0
		decay_mult: 0.0
	}
	param {
		name: "scale4b14_branch2b_2"
		lr_mult: 0.0
		decay_mult: 0.0
	}
	scale_param {
		bias_term: true
	}
}

layer {
	top: "n_res4b14_branch2b"
	bottom: "n_res4b14_branch2b"
	name: "n_res4b14_branch2b_relu"
	type: "ReLU"
}

layer {
	bottom: "n_res4b14_branch2b"
	top: "n_res4b14_branch2c"
	name: "n_res4b14_branch2c"
	type: "Convolution"
	param {
		name: "res4b14_branch2c_w"
		lr_mult: 0.0
		decay_mult: 0.0
	}
	convolution_param {
		num_output: 1024
		kernel_size: 1
		pad: 0
		stride: 1
		bias_term: false
	}
}

layer {
	bottom: "n_res4b14_branch2c"
	top: "n_res4b14_branch2c"
	name: "n_bn4b14_branch2c"
	type: "BatchNorm"
	param {
		name: "bn4b14_branch2c_1"
		lr_mult: 0.0
		decay_mult: 0.0
	}
	param {
		name: "bn4b14_branch2c_2"
		lr_mult: 0.0
		decay_mult: 0.0
	}
	param {
		name: "bn4b14_branch2c_3"
		lr_mult: 0.0
		decay_mult: 0.0
	}
	batch_norm_param {
		use_global_stats: true
	}
}

layer {
	bottom: "n_res4b14_branch2c"
	top: "n_res4b14_branch2c"
	name: "n_scale4b14_branch2c"
	type: "Scale"
	param {
		name: "scale4b14_branch2c_1"
		lr_mult: 0.0
		decay_mult: 0.0
	}
	param {
		name: "scale4b14_branch2c_2"
		lr_mult: 0.0
		decay_mult: 0.0
	}
	scale_param {
		bias_term: true
	}
}

layer {
	bottom: "n_res4b13"
	bottom: "n_res4b14_branch2c"
	top: "n_res4b14"
	name: "n_res4b14"
	type: "Eltwise"
}

layer {
	bottom: "n_res4b14"
	top: "n_res4b14"
	name: "n_res4b14_relu"
	type: "ReLU"
}

layer {
	bottom: "n_res4b14"
	top: "n_res4b15_branch2a"
	name: "n_res4b15_branch2a"
	type: "Convolution"
	param {
		name: "res4b15_branch2a_w"
		lr_mult: 0.0
		decay_mult: 0.0
	}
	convolution_param {
		num_output: 256
		kernel_size: 1
		pad: 0
		stride: 1
		bias_term: false
	}
}

layer {
	bottom: "n_res4b15_branch2a"
	top: "n_res4b15_branch2a"
	name: "n_bn4b15_branch2a"
	type: "BatchNorm"
	param {
		name: "bn4b15_branch2a_1"
		lr_mult: 0.0
		decay_mult: 0.0
	}
	param {
		name: "bn4b15_branch2a_2"
		lr_mult: 0.0
		decay_mult: 0.0
	}
	param {
		name: "bn4b15_branch2a_3"
		lr_mult: 0.0
		decay_mult: 0.0
	}
	batch_norm_param {
		use_global_stats: true
	}
}

layer {
	bottom: "n_res4b15_branch2a"
	top: "n_res4b15_branch2a"
	name: "n_scale4b15_branch2a"
	type: "Scale"
	param {
		name: "scale4b15_branch2a_1"
		lr_mult: 0.0
		decay_mult: 0.0
	}
	param {
		name: "scale4b15_branch2a_2"
		lr_mult: 0.0
		decay_mult: 0.0
	}
	scale_param {
		bias_term: true
	}
}

layer {
	top: "n_res4b15_branch2a"
	bottom: "n_res4b15_branch2a"
	name: "n_res4b15_branch2a_relu"
	type: "ReLU"
}

layer {
	bottom: "n_res4b15_branch2a"
	top: "n_res4b15_branch2b"
	name: "n_res4b15_branch2b"
	type: "Convolution"
	param {
		name: "res4b15_branch2b_w"
		lr_mult: 0.0
		decay_mult: 0.0
	}
	convolution_param {
		num_output: 256
		kernel_size: 3
		pad: 1
		stride: 1
		bias_term: false
	}
}

layer {
	bottom: "n_res4b15_branch2b"
	top: "n_res4b15_branch2b"
	name: "n_bn4b15_branch2b"
	type: "BatchNorm"
	param {
		name: "bn4b15_branch2b_1"
		lr_mult: 0.0
		decay_mult: 0.0
	}
	param {
		name: "bn4b15_branch2b_2"
		lr_mult: 0.0
		decay_mult: 0.0
	}
	param {
		name: "bn4b15_branch2b_3"
		lr_mult: 0.0
		decay_mult: 0.0
	}
	batch_norm_param {
		use_global_stats: true
	}
}

layer {
	bottom: "n_res4b15_branch2b"
	top: "n_res4b15_branch2b"
	name: "n_scale4b15_branch2b"
	type: "Scale"
	param {
		name: "scale4b15_branch2b_1"
		lr_mult: 0.0
		decay_mult: 0.0
	}
	param {
		name: "scale4b15_branch2b_2"
		lr_mult: 0.0
		decay_mult: 0.0
	}
	scale_param {
		bias_term: true
	}
}

layer {
	top: "n_res4b15_branch2b"
	bottom: "n_res4b15_branch2b"
	name: "n_res4b15_branch2b_relu"
	type: "ReLU"
}

layer {
	bottom: "n_res4b15_branch2b"
	top: "n_res4b15_branch2c"
	name: "n_res4b15_branch2c"
	type: "Convolution"
	param {
		name: "res4b15_branch2c_w"
		lr_mult: 0.0
		decay_mult: 0.0
	}
	convolution_param {
		num_output: 1024
		kernel_size: 1
		pad: 0
		stride: 1
		bias_term: false
	}
}

layer {
	bottom: "n_res4b15_branch2c"
	top: "n_res4b15_branch2c"
	name: "n_bn4b15_branch2c"
	type: "BatchNorm"
	param {
		name: "bn4b15_branch2c_1"
		lr_mult: 0.0
		decay_mult: 0.0
	}
	param {
		name: "bn4b15_branch2c_2"
		lr_mult: 0.0
		decay_mult: 0.0
	}
	param {
		name: "bn4b15_branch2c_3"
		lr_mult: 0.0
		decay_mult: 0.0
	}
	batch_norm_param {
		use_global_stats: true
	}
}

layer {
	bottom: "n_res4b15_branch2c"
	top: "n_res4b15_branch2c"
	name: "n_scale4b15_branch2c"
	type: "Scale"
	param {
		name: "scale4b15_branch2c_1"
		lr_mult: 0.0
		decay_mult: 0.0
	}
	param {
		name: "scale4b15_branch2c_2"
		lr_mult: 0.0
		decay_mult: 0.0
	}
	scale_param {
		bias_term: true
	}
}

layer {
	bottom: "n_res4b14"
	bottom: "n_res4b15_branch2c"
	top: "n_res4b15"
	name: "n_res4b15"
	type: "Eltwise"
}

layer {
	bottom: "n_res4b15"
	top: "n_res4b15"
	name: "n_res4b15_relu"
	type: "ReLU"
}

layer {
	bottom: "n_res4b15"
	top: "n_res4b16_branch2a"
	name: "n_res4b16_branch2a"
	type: "Convolution"
	param {
		name: "res4b16_branch2a_w"
		lr_mult: 0.0
		decay_mult: 0.0
	}
	convolution_param {
		num_output: 256
		kernel_size: 1
		pad: 0
		stride: 1
		bias_term: false
	}
}

layer {
	bottom: "n_res4b16_branch2a"
	top: "n_res4b16_branch2a"
	name: "n_bn4b16_branch2a"
	type: "BatchNorm"
	param {
		name: "bn4b16_branch2a_1"
		lr_mult: 0.0
		decay_mult: 0.0
	}
	param {
		name: "bn4b16_branch2a_2"
		lr_mult: 0.0
		decay_mult: 0.0
	}
	param {
		name: "bn4b16_branch2a_3"
		lr_mult: 0.0
		decay_mult: 0.0
	}
	batch_norm_param {
		use_global_stats: true
	}
}

layer {
	bottom: "n_res4b16_branch2a"
	top: "n_res4b16_branch2a"
	name: "n_scale4b16_branch2a"
	type: "Scale"
	param {
		name: "scale4b16_branch2a_1"
		lr_mult: 0.0
		decay_mult: 0.0
	}
	param {
		name: "scale4b16_branch2a_2"
		lr_mult: 0.0
		decay_mult: 0.0
	}
	scale_param {
		bias_term: true
	}
}

layer {
	top: "n_res4b16_branch2a"
	bottom: "n_res4b16_branch2a"
	name: "n_res4b16_branch2a_relu"
	type: "ReLU"
}

layer {
	bottom: "n_res4b16_branch2a"
	top: "n_res4b16_branch2b"
	name: "n_res4b16_branch2b"
	type: "Convolution"
	param {
		name: "res4b16_branch2b_w"
		lr_mult: 0.0
		decay_mult: 0.0
	}
	convolution_param {
		num_output: 256
		kernel_size: 3
		pad: 1
		stride: 1
		bias_term: false
	}
}

layer {
	bottom: "n_res4b16_branch2b"
	top: "n_res4b16_branch2b"
	name: "n_bn4b16_branch2b"
	type: "BatchNorm"
	param {
		name: "bn4b16_branch2b_1"
		lr_mult: 0.0
		decay_mult: 0.0
	}
	param {
		name: "bn4b16_branch2b_2"
		lr_mult: 0.0
		decay_mult: 0.0
	}
	param {
		name: "bn4b16_branch2b_3"
		lr_mult: 0.0
		decay_mult: 0.0
	}
	batch_norm_param {
		use_global_stats: true
	}
}

layer {
	bottom: "n_res4b16_branch2b"
	top: "n_res4b16_branch2b"
	name: "n_scale4b16_branch2b"
	type: "Scale"
	param {
		name: "scale4b16_branch2b_1"
		lr_mult: 0.0
		decay_mult: 0.0
	}
	param {
		name: "scale4b16_branch2b_2"
		lr_mult: 0.0
		decay_mult: 0.0
	}
	scale_param {
		bias_term: true
	}
}

layer {
	top: "n_res4b16_branch2b"
	bottom: "n_res4b16_branch2b"
	name: "n_res4b16_branch2b_relu"
	type: "ReLU"
}

layer {
	bottom: "n_res4b16_branch2b"
	top: "n_res4b16_branch2c"
	name: "n_res4b16_branch2c"
	type: "Convolution"
	param {
		name: "res4b16_branch2c_w"
		lr_mult: 0.0
		decay_mult: 0.0
	}
	convolution_param {
		num_output: 1024
		kernel_size: 1
		pad: 0
		stride: 1
		bias_term: false
	}
}

layer {
	bottom: "n_res4b16_branch2c"
	top: "n_res4b16_branch2c"
	name: "n_bn4b16_branch2c"
	type: "BatchNorm"
	param {
		name: "bn4b16_branch2c_1"
		lr_mult: 0.0
		decay_mult: 0.0
	}
	param {
		name: "bn4b16_branch2c_2"
		lr_mult: 0.0
		decay_mult: 0.0
	}
	param {
		name: "bn4b16_branch2c_3"
		lr_mult: 0.0
		decay_mult: 0.0
	}
	batch_norm_param {
		use_global_stats: true
	}
}

layer {
	bottom: "n_res4b16_branch2c"
	top: "n_res4b16_branch2c"
	name: "n_scale4b16_branch2c"
	type: "Scale"
	param {
		name: "scale4b16_branch2c_1"
		lr_mult: 0.0
		decay_mult: 0.0
	}
	param {
		name: "scale4b16_branch2c_2"
		lr_mult: 0.0
		decay_mult: 0.0
	}
	scale_param {
		bias_term: true
	}
}

layer {
	bottom: "n_res4b15"
	bottom: "n_res4b16_branch2c"
	top: "n_res4b16"
	name: "n_res4b16"
	type: "Eltwise"
}

layer {
	bottom: "n_res4b16"
	top: "n_res4b16"
	name: "n_res4b16_relu"
	type: "ReLU"
}

layer {
	bottom: "n_res4b16"
	top: "n_res4b17_branch2a"
	name: "n_res4b17_branch2a"
	type: "Convolution"
	param {
		name: "res4b17_branch2a_w"
		lr_mult: 0.0
		decay_mult: 0.0
	}
	convolution_param {
		num_output: 256
		kernel_size: 1
		pad: 0
		stride: 1
		bias_term: false
	}
}

layer {
	bottom: "n_res4b17_branch2a"
	top: "n_res4b17_branch2a"
	name: "n_bn4b17_branch2a"
	type: "BatchNorm"
	param {
		name: "bn4b17_branch2a_1"
		lr_mult: 0.0
		decay_mult: 0.0
	}
	param {
		name: "bn4b17_branch2a_2"
		lr_mult: 0.0
		decay_mult: 0.0
	}
	param {
		name: "bn4b17_branch2a_3"
		lr_mult: 0.0
		decay_mult: 0.0
	}
	batch_norm_param {
		use_global_stats: true
	}
}

layer {
	bottom: "n_res4b17_branch2a"
	top: "n_res4b17_branch2a"
	name: "n_scale4b17_branch2a"
	type: "Scale"
	param {
		name: "scale4b17_branch2a_1"
		lr_mult: 0.0
		decay_mult: 0.0
	}
	param {
		name: "scale4b17_branch2a_2"
		lr_mult: 0.0
		decay_mult: 0.0
	}
	scale_param {
		bias_term: true
	}
}

layer {
	top: "n_res4b17_branch2a"
	bottom: "n_res4b17_branch2a"
	name: "n_res4b17_branch2a_relu"
	type: "ReLU"
}

layer {
	bottom: "n_res4b17_branch2a"
	top: "n_res4b17_branch2b"
	name: "n_res4b17_branch2b"
	type: "Convolution"
	param {
		name: "res4b17_branch2b_w"
		lr_mult: 0.0
		decay_mult: 0.0
	}
	convolution_param {
		num_output: 256
		kernel_size: 3
		pad: 1
		stride: 1
		bias_term: false
	}
}

layer {
	bottom: "n_res4b17_branch2b"
	top: "n_res4b17_branch2b"
	name: "n_bn4b17_branch2b"
	type: "BatchNorm"
	param {
		name: "bn4b17_branch2b_1"
		lr_mult: 0.0
		decay_mult: 0.0
	}
	param {
		name: "bn4b17_branch2b_2"
		lr_mult: 0.0
		decay_mult: 0.0
	}
	param {
		name: "bn4b17_branch2b_3"
		lr_mult: 0.0
		decay_mult: 0.0
	}
	batch_norm_param {
		use_global_stats: true
	}
}

layer {
	bottom: "n_res4b17_branch2b"
	top: "n_res4b17_branch2b"
	name: "n_scale4b17_branch2b"
	type: "Scale"
	param {
		name: "scale4b17_branch2b_1"
		lr_mult: 0.0
		decay_mult: 0.0
	}
	param {
		name: "scale4b17_branch2b_2"
		lr_mult: 0.0
		decay_mult: 0.0
	}
	scale_param {
		bias_term: true
	}
}

layer {
	top: "n_res4b17_branch2b"
	bottom: "n_res4b17_branch2b"
	name: "n_res4b17_branch2b_relu"
	type: "ReLU"
}

layer {
	bottom: "n_res4b17_branch2b"
	top: "n_res4b17_branch2c"
	name: "n_res4b17_branch2c"
	type: "Convolution"
	param {
		name: "res4b17_branch2c_w"
		lr_mult: 0.0
		decay_mult: 0.0
	}
	convolution_param {
		num_output: 1024
		kernel_size: 1
		pad: 0
		stride: 1
		bias_term: false
	}
}

layer {
	bottom: "n_res4b17_branch2c"
	top: "n_res4b17_branch2c"
	name: "n_bn4b17_branch2c"
	type: "BatchNorm"
	param {
		name: "bn4b17_branch2c_1"
		lr_mult: 0.0
		decay_mult: 0.0
	}
	param {
		name: "bn4b17_branch2c_2"
		lr_mult: 0.0
		decay_mult: 0.0
	}
	param {
		name: "bn4b17_branch2c_3"
		lr_mult: 0.0
		decay_mult: 0.0
	}
	batch_norm_param {
		use_global_stats: true
	}
}

layer {
	bottom: "n_res4b17_branch2c"
	top: "n_res4b17_branch2c"
	name: "n_scale4b17_branch2c"
	type: "Scale"
	param {
		name: "scale4b17_branch2c_1"
		lr_mult: 0.0
		decay_mult: 0.0
	}
	param {
		name: "scale4b17_branch2c_2"
		lr_mult: 0.0
		decay_mult: 0.0
	}
	scale_param {
		bias_term: true
	}
}

layer {
	bottom: "n_res4b16"
	bottom: "n_res4b17_branch2c"
	top: "n_res4b17"
	name: "n_res4b17"
	type: "Eltwise"
}

layer {
	bottom: "n_res4b17"
	top: "n_res4b17"
	name: "n_res4b17_relu"
	type: "ReLU"
}

layer {
	bottom: "n_res4b17"
	top: "n_res4b18_branch2a"
	name: "n_res4b18_branch2a"
	type: "Convolution"
	param {
		name: "res4b18_branch2a_w"
		lr_mult: 0.0
		decay_mult: 0.0
	}
	convolution_param {
		num_output: 256
		kernel_size: 1
		pad: 0
		stride: 1
		bias_term: false
	}
}

layer {
	bottom: "n_res4b18_branch2a"
	top: "n_res4b18_branch2a"
	name: "n_bn4b18_branch2a"
	type: "BatchNorm"
	param {
		name: "bn4b18_branch2a_1"
		lr_mult: 0.0
		decay_mult: 0.0
	}
	param {
		name: "bn4b18_branch2a_2"
		lr_mult: 0.0
		decay_mult: 0.0
	}
	param {
		name: "bn4b18_branch2a_3"
		lr_mult: 0.0
		decay_mult: 0.0
	}
	batch_norm_param {
		use_global_stats: true
	}
}

layer {
	bottom: "n_res4b18_branch2a"
	top: "n_res4b18_branch2a"
	name: "n_scale4b18_branch2a"
	type: "Scale"
	param {
		name: "scale4b18_branch2a_1"
		lr_mult: 0.0
		decay_mult: 0.0
	}
	param {
		name: "scale4b18_branch2a_2"
		lr_mult: 0.0
		decay_mult: 0.0
	}
	scale_param {
		bias_term: true
	}
}

layer {
	top: "n_res4b18_branch2a"
	bottom: "n_res4b18_branch2a"
	name: "n_res4b18_branch2a_relu"
	type: "ReLU"
}

layer {
	bottom: "n_res4b18_branch2a"
	top: "n_res4b18_branch2b"
	name: "n_res4b18_branch2b"
	type: "Convolution"
	param {
		name: "res4b18_branch2b_w"
		lr_mult: 0.0
		decay_mult: 0.0
	}
	convolution_param {
		num_output: 256
		kernel_size: 3
		pad: 1
		stride: 1
		bias_term: false
	}
}

layer {
	bottom: "n_res4b18_branch2b"
	top: "n_res4b18_branch2b"
	name: "n_bn4b18_branch2b"
	type: "BatchNorm"
	param {
		name: "bn4b18_branch2b_1"
		lr_mult: 0.0
		decay_mult: 0.0
	}
	param {
		name: "bn4b18_branch2b_2"
		lr_mult: 0.0
		decay_mult: 0.0
	}
	param {
		name: "bn4b18_branch2b_3"
		lr_mult: 0.0
		decay_mult: 0.0
	}
	batch_norm_param {
		use_global_stats: true
	}
}

layer {
	bottom: "n_res4b18_branch2b"
	top: "n_res4b18_branch2b"
	name: "n_scale4b18_branch2b"
	type: "Scale"
	param {
		name: "scale4b18_branch2b_1"
		lr_mult: 0.0
		decay_mult: 0.0
	}
	param {
		name: "scale4b18_branch2b_2"
		lr_mult: 0.0
		decay_mult: 0.0
	}
	scale_param {
		bias_term: true
	}
}

layer {
	top: "n_res4b18_branch2b"
	bottom: "n_res4b18_branch2b"
	name: "n_res4b18_branch2b_relu"
	type: "ReLU"
}

layer {
	bottom: "n_res4b18_branch2b"
	top: "n_res4b18_branch2c"
	name: "n_res4b18_branch2c"
	type: "Convolution"
	param {
		name: "res4b18_branch2c_w"
		lr_mult: 0.0
		decay_mult: 0.0
	}
	convolution_param {
		num_output: 1024
		kernel_size: 1
		pad: 0
		stride: 1
		bias_term: false
	}
}

layer {
	bottom: "n_res4b18_branch2c"
	top: "n_res4b18_branch2c"
	name: "n_bn4b18_branch2c"
	type: "BatchNorm"
	param {
		name: "bn4b18_branch2c_1"
		lr_mult: 0.0
		decay_mult: 0.0
	}
	param {
		name: "bn4b18_branch2c_2"
		lr_mult: 0.0
		decay_mult: 0.0
	}
	param {
		name: "bn4b18_branch2c_3"
		lr_mult: 0.0
		decay_mult: 0.0
	}
	batch_norm_param {
		use_global_stats: true
	}
}

layer {
	bottom: "n_res4b18_branch2c"
	top: "n_res4b18_branch2c"
	name: "n_scale4b18_branch2c"
	type: "Scale"
	param {
		name: "scale4b18_branch2c_1"
		lr_mult: 0.0
		decay_mult: 0.0
	}
	param {
		name: "scale4b18_branch2c_2"
		lr_mult: 0.0
		decay_mult: 0.0
	}
	scale_param {
		bias_term: true
	}
}

layer {
	bottom: "n_res4b17"
	bottom: "n_res4b18_branch2c"
	top: "n_res4b18"
	name: "n_res4b18"
	type: "Eltwise"
}

layer {
	bottom: "n_res4b18"
	top: "n_res4b18"
	name: "n_res4b18_relu"
	type: "ReLU"
}

layer {
	bottom: "n_res4b18"
	top: "n_res4b19_branch2a"
	name: "n_res4b19_branch2a"
	type: "Convolution"
	param {
		name: "res4b19_branch2a_w"
		lr_mult: 0.0
		decay_mult: 0.0
	}
	convolution_param {
		num_output: 256
		kernel_size: 1
		pad: 0
		stride: 1
		bias_term: false
	}
}

layer {
	bottom: "n_res4b19_branch2a"
	top: "n_res4b19_branch2a"
	name: "n_bn4b19_branch2a"
	type: "BatchNorm"
	param {
		name: "bn4b19_branch2a_1"
		lr_mult: 0.0
		decay_mult: 0.0
	}
	param {
		name: "bn4b19_branch2a_2"
		lr_mult: 0.0
		decay_mult: 0.0
	}
	param {
		name: "bn4b19_branch2a_3"
		lr_mult: 0.0
		decay_mult: 0.0
	}
	batch_norm_param {
		use_global_stats: true
	}
}

layer {
	bottom: "n_res4b19_branch2a"
	top: "n_res4b19_branch2a"
	name: "n_scale4b19_branch2a"
	type: "Scale"
	param {
		name: "scale4b19_branch2a_1"
		lr_mult: 0.0
		decay_mult: 0.0
	}
	param {
		name: "scale4b19_branch2a_2"
		lr_mult: 0.0
		decay_mult: 0.0
	}
	scale_param {
		bias_term: true
	}
}

layer {
	top: "n_res4b19_branch2a"
	bottom: "n_res4b19_branch2a"
	name: "n_res4b19_branch2a_relu"
	type: "ReLU"
}

layer {
	bottom: "n_res4b19_branch2a"
	top: "n_res4b19_branch2b"
	name: "n_res4b19_branch2b"
	type: "Convolution"
	param {
		name: "res4b19_branch2b_w"
		lr_mult: 0.0
		decay_mult: 0.0
	}
	convolution_param {
		num_output: 256
		kernel_size: 3
		pad: 1
		stride: 1
		bias_term: false
	}
}

layer {
	bottom: "n_res4b19_branch2b"
	top: "n_res4b19_branch2b"
	name: "n_bn4b19_branch2b"
	type: "BatchNorm"
	param {
		name: "bn4b19_branch2b_1"
		lr_mult: 0.0
		decay_mult: 0.0
	}
	param {
		name: "bn4b19_branch2b_2"
		lr_mult: 0.0
		decay_mult: 0.0
	}
	param {
		name: "bn4b19_branch2b_3"
		lr_mult: 0.0
		decay_mult: 0.0
	}
	batch_norm_param {
		use_global_stats: true
	}
}

layer {
	bottom: "n_res4b19_branch2b"
	top: "n_res4b19_branch2b"
	name: "n_scale4b19_branch2b"
	type: "Scale"
	param {
		name: "scale4b19_branch2b_1"
		lr_mult: 0.0
		decay_mult: 0.0
	}
	param {
		name: "scale4b19_branch2b_2"
		lr_mult: 0.0
		decay_mult: 0.0
	}
	scale_param {
		bias_term: true
	}
}

layer {
	top: "n_res4b19_branch2b"
	bottom: "n_res4b19_branch2b"
	name: "n_res4b19_branch2b_relu"
	type: "ReLU"
}

layer {
	bottom: "n_res4b19_branch2b"
	top: "n_res4b19_branch2c"
	name: "n_res4b19_branch2c"
	type: "Convolution"
	param {
		name: "res4b19_branch2c_w"
		lr_mult: 0.0
		decay_mult: 0.0
	}
	convolution_param {
		num_output: 1024
		kernel_size: 1
		pad: 0
		stride: 1
		bias_term: false
	}
}

layer {
	bottom: "n_res4b19_branch2c"
	top: "n_res4b19_branch2c"
	name: "n_bn4b19_branch2c"
	type: "BatchNorm"
	param {
		name: "bn4b19_branch2c_1"
		lr_mult: 0.0
		decay_mult: 0.0
	}
	param {
		name: "bn4b19_branch2c_2"
		lr_mult: 0.0
		decay_mult: 0.0
	}
	param {
		name: "bn4b19_branch2c_3"
		lr_mult: 0.0
		decay_mult: 0.0
	}
	batch_norm_param {
		use_global_stats: true
	}
}

layer {
	bottom: "n_res4b19_branch2c"
	top: "n_res4b19_branch2c"
	name: "n_scale4b19_branch2c"
	type: "Scale"
	param {
		name: "scale4b19_branch2c_1"
		lr_mult: 0.0
		decay_mult: 0.0
	}
	param {
		name: "scale4b19_branch2c_2"
		lr_mult: 0.0
		decay_mult: 0.0
	}
	scale_param {
		bias_term: true
	}
}

layer {
	bottom: "n_res4b18"
	bottom: "n_res4b19_branch2c"
	top: "n_res4b19"
	name: "n_res4b19"
	type: "Eltwise"
}

layer {
	bottom: "n_res4b19"
	top: "n_res4b19"
	name: "n_res4b19_relu"
	type: "ReLU"
}

layer {
	bottom: "n_res4b19"
	top: "n_res4b20_branch2a"
	name: "n_res4b20_branch2a"
	type: "Convolution"
	param {
		name: "res4b20_branch2a_w"
		lr_mult: 0.0
		decay_mult: 0.0
	}
	convolution_param {
		num_output: 256
		kernel_size: 1
		pad: 0
		stride: 1
		bias_term: false
	}
}

layer {
	bottom: "n_res4b20_branch2a"
	top: "n_res4b20_branch2a"
	name: "n_bn4b20_branch2a"
	type: "BatchNorm"
	param {
		name: "bn4b20_branch2a_1"
		lr_mult: 0.0
		decay_mult: 0.0
	}
	param {
		name: "bn4b20_branch2a_2"
		lr_mult: 0.0
		decay_mult: 0.0
	}
	param {
		name: "bn4b20_branch2a_3"
		lr_mult: 0.0
		decay_mult: 0.0
	}
	batch_norm_param {
		use_global_stats: true
	}
}

layer {
	bottom: "n_res4b20_branch2a"
	top: "n_res4b20_branch2a"
	name: "n_scale4b20_branch2a"
	type: "Scale"
	param {
		name: "scale4b20_branch2a_1"
		lr_mult: 0.0
		decay_mult: 0.0
	}
	param {
		name: "scale4b20_branch2a_2"
		lr_mult: 0.0
		decay_mult: 0.0
	}
	scale_param {
		bias_term: true
	}
}

layer {
	top: "n_res4b20_branch2a"
	bottom: "n_res4b20_branch2a"
	name: "n_res4b20_branch2a_relu"
	type: "ReLU"
}

layer {
	bottom: "n_res4b20_branch2a"
	top: "n_res4b20_branch2b"
	name: "n_res4b20_branch2b"
	type: "Convolution"
	param {
		name: "res4b20_branch2b_w"
		lr_mult: 0.0
		decay_mult: 0.0
	}
	convolution_param {
		num_output: 256
		kernel_size: 3
		pad: 1
		stride: 1
		bias_term: false
	}
}

layer {
	bottom: "n_res4b20_branch2b"
	top: "n_res4b20_branch2b"
	name: "n_bn4b20_branch2b"
	type: "BatchNorm"
	param {
		name: "bn4b20_branch2b_1"
		lr_mult: 0.0
		decay_mult: 0.0
	}
	param {
		name: "bn4b20_branch2b_2"
		lr_mult: 0.0
		decay_mult: 0.0
	}
	param {
		name: "bn4b20_branch2b_3"
		lr_mult: 0.0
		decay_mult: 0.0
	}
	batch_norm_param {
		use_global_stats: true
	}
}

layer {
	bottom: "n_res4b20_branch2b"
	top: "n_res4b20_branch2b"
	name: "n_scale4b20_branch2b"
	type: "Scale"
	param {
		name: "scale4b20_branch2b_1"
		lr_mult: 0.0
		decay_mult: 0.0
	}
	param {
		name: "scale4b20_branch2b_2"
		lr_mult: 0.0
		decay_mult: 0.0
	}
	scale_param {
		bias_term: true
	}
}

layer {
	top: "n_res4b20_branch2b"
	bottom: "n_res4b20_branch2b"
	name: "n_res4b20_branch2b_relu"
	type: "ReLU"
}

layer {
	bottom: "n_res4b20_branch2b"
	top: "n_res4b20_branch2c"
	name: "n_res4b20_branch2c"
	type: "Convolution"
	param {
		name: "res4b20_branch2c_w"
		lr_mult: 0.0
		decay_mult: 0.0
	}
	convolution_param {
		num_output: 1024
		kernel_size: 1
		pad: 0
		stride: 1
		bias_term: false
	}
}

layer {
	bottom: "n_res4b20_branch2c"
	top: "n_res4b20_branch2c"
	name: "n_bn4b20_branch2c"
	type: "BatchNorm"
	param {
		name: "bn4b20_branch2c_1"
		lr_mult: 0.0
		decay_mult: 0.0
	}
	param {
		name: "bn4b20_branch2c_2"
		lr_mult: 0.0
		decay_mult: 0.0
	}
	param {
		name: "bn4b20_branch2c_3"
		lr_mult: 0.0
		decay_mult: 0.0
	}
	batch_norm_param {
		use_global_stats: true
	}
}

layer {
	bottom: "n_res4b20_branch2c"
	top: "n_res4b20_branch2c"
	name: "n_scale4b20_branch2c"
	type: "Scale"
	param {
		name: "scale4b20_branch2c_1"
		lr_mult: 0.0
		decay_mult: 0.0
	}
	param {
		name: "scale4b20_branch2c_2"
		lr_mult: 0.0
		decay_mult: 0.0
	}
	scale_param {
		bias_term: true
	}
}

layer {
	bottom: "n_res4b19"
	bottom: "n_res4b20_branch2c"
	top: "n_res4b20"
	name: "n_res4b20"
	type: "Eltwise"
}

layer {
	bottom: "n_res4b20"
	top: "n_res4b20"
	name: "n_res4b20_relu"
	type: "ReLU"
}

layer {
	bottom: "n_res4b20"
	top: "n_res4b21_branch2a"
	name: "n_res4b21_branch2a"
	type: "Convolution"
	param {
		name: "res4b21_branch2a_w"
		lr_mult: 0.0
		decay_mult: 0.0
	}
	convolution_param {
		num_output: 256
		kernel_size: 1
		pad: 0
		stride: 1
		bias_term: false
	}
}

layer {
	bottom: "n_res4b21_branch2a"
	top: "n_res4b21_branch2a"
	name: "n_bn4b21_branch2a"
	type: "BatchNorm"
	param {
		name: "bn4b21_branch2a_1"
		lr_mult: 0.0
		decay_mult: 0.0
	}
	param {
		name: "bn4b21_branch2a_2"
		lr_mult: 0.0
		decay_mult: 0.0
	}
	param {
		name: "bn4b21_branch2a_3"
		lr_mult: 0.0
		decay_mult: 0.0
	}
	batch_norm_param {
		use_global_stats: true
	}
}

layer {
	bottom: "n_res4b21_branch2a"
	top: "n_res4b21_branch2a"
	name: "n_scale4b21_branch2a"
	type: "Scale"
	param {
		name: "scale4b21_branch2a_1"
		lr_mult: 0.0
		decay_mult: 0.0
	}
	param {
		name: "scale4b21_branch2a_2"
		lr_mult: 0.0
		decay_mult: 0.0
	}
	scale_param {
		bias_term: true
	}
}

layer {
	top: "n_res4b21_branch2a"
	bottom: "n_res4b21_branch2a"
	name: "n_res4b21_branch2a_relu"
	type: "ReLU"
}

layer {
	bottom: "n_res4b21_branch2a"
	top: "n_res4b21_branch2b"
	name: "n_res4b21_branch2b"
	type: "Convolution"
	param {
		name: "res4b21_branch2b_w"
		lr_mult: 0.0
		decay_mult: 0.0
	}
	convolution_param {
		num_output: 256
		kernel_size: 3
		pad: 1
		stride: 1
		bias_term: false
	}
}

layer {
	bottom: "n_res4b21_branch2b"
	top: "n_res4b21_branch2b"
	name: "n_bn4b21_branch2b"
	type: "BatchNorm"
	param {
		name: "bn4b21_branch2b_1"
		lr_mult: 0.0
		decay_mult: 0.0
	}
	param {
		name: "bn4b21_branch2b_2"
		lr_mult: 0.0
		decay_mult: 0.0
	}
	param {
		name: "bn4b21_branch2b_3"
		lr_mult: 0.0
		decay_mult: 0.0
	}
	batch_norm_param {
		use_global_stats: true
	}
}

layer {
	bottom: "n_res4b21_branch2b"
	top: "n_res4b21_branch2b"
	name: "n_scale4b21_branch2b"
	type: "Scale"
	param {
		name: "scale4b21_branch2b_1"
		lr_mult: 0.0
		decay_mult: 0.0
	}
	param {
		name: "scale4b21_branch2b_2"
		lr_mult: 0.0
		decay_mult: 0.0
	}
	scale_param {
		bias_term: true
	}
}

layer {
	top: "n_res4b21_branch2b"
	bottom: "n_res4b21_branch2b"
	name: "n_res4b21_branch2b_relu"
	type: "ReLU"
}

layer {
	bottom: "n_res4b21_branch2b"
	top: "n_res4b21_branch2c"
	name: "n_res4b21_branch2c"
	type: "Convolution"
	param {
		name: "res4b21_branch2c_w"
		lr_mult: 0.0
		decay_mult: 0.0
	}
	convolution_param {
		num_output: 1024
		kernel_size: 1
		pad: 0
		stride: 1
		bias_term: false
	}
}

layer {
	bottom: "n_res4b21_branch2c"
	top: "n_res4b21_branch2c"
	name: "n_bn4b21_branch2c"
	type: "BatchNorm"
	param {
		name: "bn4b21_branch2c_1"
		lr_mult: 0.0
		decay_mult: 0.0
	}
	param {
		name: "bn4b21_branch2c_2"
		lr_mult: 0.0
		decay_mult: 0.0
	}
	param {
		name: "bn4b21_branch2c_3"
		lr_mult: 0.0
		decay_mult: 0.0
	}
	batch_norm_param {
		use_global_stats: true
	}
}

layer {
	bottom: "n_res4b21_branch2c"
	top: "n_res4b21_branch2c"
	name: "n_scale4b21_branch2c"
	type: "Scale"
	param {
		name: "scale4b21_branch2c_1"
		lr_mult: 0.0
		decay_mult: 0.0
	}
	param {
		name: "scale4b21_branch2c_2"
		lr_mult: 0.0
		decay_mult: 0.0
	}
	scale_param {
		bias_term: true
	}
}

layer {
	bottom: "n_res4b20"
	bottom: "n_res4b21_branch2c"
	top: "n_res4b21"
	name: "n_res4b21"
	type: "Eltwise"
}

layer {
	bottom: "n_res4b21"
	top: "n_res4b21"
	name: "n_res4b21_relu"
	type: "ReLU"
}

layer {
	bottom: "n_res4b21"
	top: "n_res4b22_branch2a"
	name: "n_res4b22_branch2a"
	type: "Convolution"
	param {
		name: "res4b22_branch2a_w"
		lr_mult: 0.0
		decay_mult: 0.0
	}
	convolution_param {
		num_output: 256
		kernel_size: 1
		pad: 0
		stride: 1
		bias_term: false
	}
}

layer {
	bottom: "n_res4b22_branch2a"
	top: "n_res4b22_branch2a"
	name: "n_bn4b22_branch2a"
	type: "BatchNorm"
	param {
		name: "bn4b22_branch2a_1"
		lr_mult: 0.0
		decay_mult: 0.0
	}
	param {
		name: "bn4b22_branch2a_2"
		lr_mult: 0.0
		decay_mult: 0.0
	}
	param {
		name: "bn4b22_branch2a_3"
		lr_mult: 0.0
		decay_mult: 0.0
	}
	batch_norm_param {
		use_global_stats: true
	}
}

layer {
	bottom: "n_res4b22_branch2a"
	top: "n_res4b22_branch2a"
	name: "n_scale4b22_branch2a"
	type: "Scale"
	param {
		name: "scale4b22_branch2a_1"
		lr_mult: 0.0
		decay_mult: 0.0
	}
	param {
		name: "scale4b22_branch2a_2"
		lr_mult: 0.0
		decay_mult: 0.0
	}
	scale_param {
		bias_term: true
	}
}

layer {
	top: "n_res4b22_branch2a"
	bottom: "n_res4b22_branch2a"
	name: "n_res4b22_branch2a_relu"
	type: "ReLU"
}

layer {
	bottom: "n_res4b22_branch2a"
	top: "n_res4b22_branch2b"
	name: "n_res4b22_branch2b"
	type: "Convolution"
	param {
		name: "res4b22_branch2b_w"
		lr_mult: 0.0
		decay_mult: 0.0
	}
	convolution_param {
		num_output: 256
		kernel_size: 3
		pad: 1
		stride: 1
		bias_term: false
	}
}

layer {
	bottom: "n_res4b22_branch2b"
	top: "n_res4b22_branch2b"
	name: "n_bn4b22_branch2b"
	type: "BatchNorm"
	param {
		name: "bn4b22_branch2b_1"
		lr_mult: 0.0
		decay_mult: 0.0
	}
	param {
		name: "bn4b22_branch2b_2"
		lr_mult: 0.0
		decay_mult: 0.0
	}
	param {
		name: "bn4b22_branch2b_3"
		lr_mult: 0.0
		decay_mult: 0.0
	}
	batch_norm_param {
		use_global_stats: true
	}
}

layer {
	bottom: "n_res4b22_branch2b"
	top: "n_res4b22_branch2b"
	name: "n_scale4b22_branch2b"
	type: "Scale"
	param {
		name: "scale4b22_branch2b_1"
		lr_mult: 0.0
		decay_mult: 0.0
	}
	param {
		name: "scale4b22_branch2b_2"
		lr_mult: 0.0
		decay_mult: 0.0
	}
	scale_param {
		bias_term: true
	}
}

layer {
	top: "n_res4b22_branch2b"
	bottom: "n_res4b22_branch2b"
	name: "n_res4b22_branch2b_relu"
	type: "ReLU"
}

layer {
	bottom: "n_res4b22_branch2b"
	top: "n_res4b22_branch2c"
	name: "n_res4b22_branch2c"
	type: "Convolution"
	param {
		name: "res4b22_branch2c_w"
		lr_mult: 0.0
		decay_mult: 0.0
	}
	convolution_param {
		num_output: 1024
		kernel_size: 1
		pad: 0
		stride: 1
		bias_term: false
	}
}

layer {
	bottom: "n_res4b22_branch2c"
	top: "n_res4b22_branch2c"
	name: "n_bn4b22_branch2c"
	type: "BatchNorm"
	param {
		name: "bn4b22_branch2c_1"
		lr_mult: 0.0
		decay_mult: 0.0
	}
	param {
		name: "bn4b22_branch2c_2"
		lr_mult: 0.0
		decay_mult: 0.0
	}
	param {
		name: "bn4b22_branch2c_3"
		lr_mult: 0.0
		decay_mult: 0.0
	}
	batch_norm_param {
		use_global_stats: true
	}
}

layer {
	bottom: "n_res4b22_branch2c"
	top: "n_res4b22_branch2c"
	name: "n_scale4b22_branch2c"
	type: "Scale"
	param {
		name: "scale4b22_branch2c_1"
		lr_mult: 0.0
		decay_mult: 0.0
	}
	param {
		name: "scale4b22_branch2c_2"
		lr_mult: 0.0
		decay_mult: 0.0
	}
	scale_param {
		bias_term: true
	}
}

layer {
	bottom: "n_res4b21"
	bottom: "n_res4b22_branch2c"
	top: "n_res4b22"
	name: "n_res4b22"
	type: "Eltwise"
}

layer {
	bottom: "n_res4b22"
	top: "n_res4b22"
	name: "n_res4b22_relu"
	type: "ReLU"
}

layer {
	bottom: "n_res4b22"
	top: "n_res5a_branch1"
	name: "n_res5a_branch1"
	type: "Convolution"
	param {
		name: "res5a_branch1_w"
		lr_mult: 0.0
		decay_mult: 0.0
	}
	convolution_param {
		num_output: 2048
		kernel_size: 1
		pad: 0
		stride: 2
		bias_term: false
	}
}

layer {
	bottom: "n_res5a_branch1"
	top: "n_res5a_branch1"
	name: "n_bn5a_branch1"
	type: "BatchNorm"
	param {
		name: "bn5a_branch1_1"
		lr_mult: 0.0
		decay_mult: 0.0
	}
	param {
		name: "bn5a_branch1_2"
		lr_mult: 0.0
		decay_mult: 0.0
	}
	param {
		name: "bn5a_branch1_3"
		lr_mult: 0.0
		decay_mult: 0.0
	}
	batch_norm_param {
		use_global_stats: true
	}
}

layer {
	bottom: "n_res5a_branch1"
	top: "n_res5a_branch1"
	name: "n_scale5a_branch1"
	type: "Scale"
	param {
		name: "scale5a_branch1_1"
		lr_mult: 0.0
		decay_mult: 0.0
	}
	param {
		name: "scale5a_branch1_2"
		lr_mult: 0.0
		decay_mult: 0.0
	}
	scale_param {
		bias_term: true
	}
}

layer {
	bottom: "n_res4b22"
	top: "n_res5a_branch2a"
	name: "n_res5a_branch2a"
	type: "Convolution"
	param {
		name: "res5a_branch2a_w"
		lr_mult: 0.0
		decay_mult: 0.0
	}
	convolution_param {
		num_output: 512
		kernel_size: 1
		pad: 0
		stride: 2
		bias_term: false
	}
}

layer {
	bottom: "n_res5a_branch2a"
	top: "n_res5a_branch2a"
	name: "n_bn5a_branch2a"
	type: "BatchNorm"
	param {
		name: "bn5a_branch2a_1"
		lr_mult: 0.0
		decay_mult: 0.0
	}
	param {
		name: "bn5a_branch2a_2"
		lr_mult: 0.0
		decay_mult: 0.0
	}
	param {
		name: "bn5a_branch2a_3"
		lr_mult: 0.0
		decay_mult: 0.0
	}
	batch_norm_param {
		use_global_stats: true
	}
}

layer {
	bottom: "n_res5a_branch2a"
	top: "n_res5a_branch2a"
	name: "n_scale5a_branch2a"
	type: "Scale"
	param {
		name: "scale5a_branch2a_1"
		lr_mult: 0.0
		decay_mult: 0.0
	}
	param {
		name: "scale5a_branch2a_2"
		lr_mult: 0.0
		decay_mult: 0.0
	}
	scale_param {
		bias_term: true
	}
}

layer {
	top: "n_res5a_branch2a"
	bottom: "n_res5a_branch2a"
	name: "n_res5a_branch2a_relu"
	type: "ReLU"
}

layer {
	bottom: "n_res5a_branch2a"
	top: "n_res5a_branch2b"
	name: "n_res5a_branch2b"
	type: "Convolution"
	param {
		name: "res5a_branch2b_w"
		lr_mult: 0.0
		decay_mult: 0.0
	}
	convolution_param {
		num_output: 512
		kernel_size: 3
		pad: 1
		stride: 1
		bias_term: false
	}
}

layer {
	bottom: "n_res5a_branch2b"
	top: "n_res5a_branch2b"
	name: "n_bn5a_branch2b"
	type: "BatchNorm"
	param {
		name: "bn5a_branch2b_1"
		lr_mult: 0.0
		decay_mult: 0.0
	}
	param {
		name: "bn5a_branch2b_2"
		lr_mult: 0.0
		decay_mult: 0.0
	}
	param {
		name: "bn5a_branch2b_3"
		lr_mult: 0.0
		decay_mult: 0.0
	}
	batch_norm_param {
		use_global_stats: true
	}
}

layer {
	bottom: "n_res5a_branch2b"
	top: "n_res5a_branch2b"
	name: "n_scale5a_branch2b"
	type: "Scale"
	param {
		name: "scale5a_branch2b_1"
		lr_mult: 0.0
		decay_mult: 0.0
	}
	param {
		name: "scale5a_branch2b_2"
		lr_mult: 0.0
		decay_mult: 0.0
	}
	scale_param {
		bias_term: true
	}
}

layer {
	top: "n_res5a_branch2b"
	bottom: "n_res5a_branch2b"
	name: "n_res5a_branch2b_relu"
	type: "ReLU"
}

layer {
	bottom: "n_res5a_branch2b"
	top: "n_res5a_branch2c"
	name: "n_res5a_branch2c"
	type: "Convolution"
	param {
		name: "res5a_branch2c_w"
		lr_mult: 0.0
		decay_mult: 0.0
	}
	convolution_param {
		num_output: 2048
		kernel_size: 1
		pad: 0
		stride: 1
		bias_term: false
	}
}

layer {
	bottom: "n_res5a_branch2c"
	top: "n_res5a_branch2c"
	name: "n_bn5a_branch2c"
	type: "BatchNorm"
	param {
		name: "bn5a_branch2c_1"
		lr_mult: 0.0
		decay_mult: 0.0
	}
	param {
		name: "bn5a_branch2c_2"
		lr_mult: 0.0
		decay_mult: 0.0
	}
	param {
		name: "bn5a_branch2c_3"
		lr_mult: 0.0
		decay_mult: 0.0
	}
	batch_norm_param {
		use_global_stats: true
	}
}

layer {
	bottom: "n_res5a_branch2c"
	top: "n_res5a_branch2c"
	name: "n_scale5a_branch2c"
	type: "Scale"
	param {
		name: "scale5a_branch2c_1"
		lr_mult: 0.0
		decay_mult: 0.0
	}
	param {
		name: "scale5a_branch2c_2"
		lr_mult: 0.0
		decay_mult: 0.0
	}
	scale_param {
		bias_term: true
	}
}

layer {
	bottom: "n_res5a_branch1"
	bottom: "n_res5a_branch2c"
	top: "n_res5a"
	name: "n_res5a"
	type: "Eltwise"
}

layer {
	bottom: "n_res5a"
	top: "n_res5a"
	name: "n_res5a_relu"
	type: "ReLU"
}

layer {
	bottom: "n_res5a"
	top: "n_res5b_branch2a"
	name: "n_res5b_branch2a"
	type: "Convolution"
	param {
		name: "res5b_branch2a_w"
		lr_mult: 0.0
		decay_mult: 0.0
	}
	convolution_param {
		num_output: 512
		kernel_size: 1
		pad: 0
		stride: 1
		bias_term: false
	}
}

layer {
	bottom: "n_res5b_branch2a"
	top: "n_res5b_branch2a"
	name: "n_bn5b_branch2a"
	type: "BatchNorm"
	param {
		name: "bn5b_branch2a_1"
		lr_mult: 0.0
		decay_mult: 0.0
	}
	param {
		name: "bn5b_branch2a_2"
		lr_mult: 0.0
		decay_mult: 0.0
	}
	param {
		name: "bn5b_branch2a_3"
		lr_mult: 0.0
		decay_mult: 0.0
	}
	batch_norm_param {
		use_global_stats: true
	}
}

layer {
	bottom: "n_res5b_branch2a"
	top: "n_res5b_branch2a"
	name: "n_scale5b_branch2a"
	type: "Scale"
	param {
		name: "scale5b_branch2a_1"
		lr_mult: 0.0
		decay_mult: 0.0
	}
	param {
		name: "scale5b_branch2a_2"
		lr_mult: 0.0
		decay_mult: 0.0
	}
	scale_param {
		bias_term: true
	}
}

layer {
	top: "n_res5b_branch2a"
	bottom: "n_res5b_branch2a"
	name: "n_res5b_branch2a_relu"
	type: "ReLU"
}

layer {
	bottom: "n_res5b_branch2a"
	top: "n_res5b_branch2b"
	name: "n_res5b_branch2b"
	type: "Convolution"
	param {
		name: "res5b_branch2b_w"
		lr_mult: 0.0
		decay_mult: 0.0
	}
	convolution_param {
		num_output: 512
		kernel_size: 3
		pad: 1
		stride: 1
		bias_term: false
	}
}

layer {
	bottom: "n_res5b_branch2b"
	top: "n_res5b_branch2b"
	name: "n_bn5b_branch2b"
	type: "BatchNorm"
	param {
		name: "bn5b_branch2b_1"
		lr_mult: 0.0
		decay_mult: 0.0
	}
	param {
		name: "bn5b_branch2b_2"
		lr_mult: 0.0
		decay_mult: 0.0
	}
	param {
		name: "bn5b_branch2b_3"
		lr_mult: 0.0
		decay_mult: 0.0
	}
	batch_norm_param {
		use_global_stats: true
	}
}

layer {
	bottom: "n_res5b_branch2b"
	top: "n_res5b_branch2b"
	name: "n_scale5b_branch2b"
	type: "Scale"
	param {
		name: "scale5b_branch2b_1"
		lr_mult: 0.0
		decay_mult: 0.0
	}
	param {
		name: "scale5b_branch2b_2"
		lr_mult: 0.0
		decay_mult: 0.0
	}
	scale_param {
		bias_term: true
	}
}

layer {
	top: "n_res5b_branch2b"
	bottom: "n_res5b_branch2b"
	name: "n_res5b_branch2b_relu"
	type: "ReLU"
}

layer {
	bottom: "n_res5b_branch2b"
	top: "n_res5b_branch2c"
	name: "n_res5b_branch2c"
	type: "Convolution"
	param {
		name: "res5b_branch2c_w"
		lr_mult: 0.0
		decay_mult: 0.0
	}
	convolution_param {
		num_output: 2048
		kernel_size: 1
		pad: 0
		stride: 1
		bias_term: false
	}
}

layer {
	bottom: "n_res5b_branch2c"
	top: "n_res5b_branch2c"
	name: "n_bn5b_branch2c"
	type: "BatchNorm"
	param {
		name: "bn5b_branch2c_1"
		lr_mult: 0.0
		decay_mult: 0.0
	}
	param {
		name: "bn5b_branch2c_2"
		lr_mult: 0.0
		decay_mult: 0.0
	}
	param {
		name: "bn5b_branch2c_3"
		lr_mult: 0.0
		decay_mult: 0.0
	}
	batch_norm_param {
		use_global_stats: true
	}
}

layer {
	bottom: "n_res5b_branch2c"
	top: "n_res5b_branch2c"
	name: "n_scale5b_branch2c"
	type: "Scale"
	param {
		name: "scale5b_branch2c_1"
		lr_mult: 0.0
		decay_mult: 0.0
	}
	param {
		name: "scale5b_branch2c_2"
		lr_mult: 0.0
		decay_mult: 0.0
	}
	scale_param {
		bias_term: true
	}
}

layer {
	bottom: "n_res5a"
	bottom: "n_res5b_branch2c"
	top: "n_res5b"
	name: "n_res5b"
	type: "Eltwise"
}

layer {
	bottom: "n_res5b"
	top: "n_res5b"
	name: "n_res5b_relu"
	type: "ReLU"
}

layer {
	bottom: "n_res5b"
	top: "n_res5c_branch2a"
	name: "n_res5c_branch2a"
	type: "Convolution"
	param {
		name: "res5c_branch2a_w"
		lr_mult: 0.0
		decay_mult: 0.0
	}
	convolution_param {
		num_output: 512
		kernel_size: 1
		pad: 0
		stride: 1
		bias_term: false
	}
}

layer {
	bottom: "n_res5c_branch2a"
	top: "n_res5c_branch2a"
	name: "n_bn5c_branch2a"
	type: "BatchNorm"
	param {
		name: "bn5c_branch2a_1"
		lr_mult: 0.0
		decay_mult: 0.0
	}
	param {
		name: "bn5c_branch2a_2"
		lr_mult: 0.0
		decay_mult: 0.0
	}
	param {
		name: "bn5c_branch2a_3"
		lr_mult: 0.0
		decay_mult: 0.0
	}
	batch_norm_param {
		use_global_stats: true
	}
}

layer {
	bottom: "n_res5c_branch2a"
	top: "n_res5c_branch2a"
	name: "n_scale5c_branch2a"
	type: "Scale"
	param {
		name: "scale5c_branch2a_1"
		lr_mult: 0.0
		decay_mult: 0.0
	}
	param {
		name: "scale5c_branch2a_2"
		lr_mult: 0.0
		decay_mult: 0.0
	}
	scale_param {
		bias_term: true
	}
}

layer {
	top: "n_res5c_branch2a"
	bottom: "n_res5c_branch2a"
	name: "n_res5c_branch2a_relu"
	type: "ReLU"
}

layer {
	bottom: "n_res5c_branch2a"
	top: "n_res5c_branch2b"
	name: "n_res5c_branch2b"
	type: "Convolution"
	param {
		name: "res5c_branch2b_w"
		lr_mult: 0.0
		decay_mult: 0.0
	}
	convolution_param {
		num_output: 512
		kernel_size: 3
		pad: 1
		stride: 1
		bias_term: false
	}
}

layer {
	bottom: "n_res5c_branch2b"
	top: "n_res5c_branch2b"
	name: "n_bn5c_branch2b"
	type: "BatchNorm"
	param {
		name: "bn5c_branch2b_1"
		lr_mult: 0.0
		decay_mult: 0.0
	}
	param {
		name: "bn5c_branch2b_2"
		lr_mult: 0.0
		decay_mult: 0.0
	}
	param {
		name: "bn5c_branch2b_3"
		lr_mult: 0.0
		decay_mult: 0.0
	}
	batch_norm_param {
		use_global_stats: true
	}
}

layer {
	bottom: "n_res5c_branch2b"
	top: "n_res5c_branch2b"
	name: "n_scale5c_branch2b"
	type: "Scale"
	param {
		name: "scale5c_branch2b_1"
		lr_mult: 0.0
		decay_mult: 0.0
	}
	param {
		name: "scale5c_branch2b_2"
		lr_mult: 0.0
		decay_mult: 0.0
	}
	scale_param {
		bias_term: true
	}
}

layer {
	top: "n_res5c_branch2b"
	bottom: "n_res5c_branch2b"
	name: "n_res5c_branch2b_relu"
	type: "ReLU"
}

layer {
	bottom: "n_res5c_branch2b"
	top: "n_res5c_branch2c"
	name: "n_res5c_branch2c"
	type: "Convolution"
	param {
		name: "res5c_branch2c_w"
		lr_mult: 0.0
		decay_mult: 0.0
	}
	convolution_param {
		num_output: 2048
		kernel_size: 1
		pad: 0
		stride: 1
		bias_term: false
	}
}

layer {
	bottom: "n_res5c_branch2c"
	top: "n_res5c_branch2c"
	name: "n_bn5c_branch2c"
	type: "BatchNorm"
	param {
		name: "bn5c_branch2c_1"
		lr_mult: 0.0
		decay_mult: 0.0
	}
	param {
		name: "bn5c_branch2c_2"
		lr_mult: 0.0
		decay_mult: 0.0
	}
	param {
		name: "bn5c_branch2c_3"
		lr_mult: 0.0
		decay_mult: 0.0
	}
	batch_norm_param {
		use_global_stats: true
	}
}

layer {
	bottom: "n_res5c_branch2c"
	top: "n_res5c_branch2c"
	name: "n_scale5c_branch2c"
	type: "Scale"
	param {
		name: "scale5c_branch2c_1"
		lr_mult: 0.0
		decay_mult: 0.0
	}
	param {
		name: "scale5c_branch2c_2"
		lr_mult: 0.0
		decay_mult: 0.0
	}
	scale_param {
		bias_term: true
	}
}

layer {
	bottom: "n_res5b"
	bottom: "n_res5c_branch2c"
	top: "n_res5c"
	name: "n_res5c"
	type: "Eltwise"
}

layer {
	bottom: "n_res5c"
	top: "n_res5c"
	name: "n_res5c_relu"
	type: "ReLU"
}

## Get rmac regions with a RoiPooling layer. If batch size was 1, we end up with N_regions x D x pooled_h x pooled_w 
layer {
   name: "n_pooled_rois"
   type: "ROIPooling"
   bottom: "n_res5c"
   bottom: "rois"
   top: "n_pooled_rois"
   roi_pooling_param {
     pooled_w: 1
     pooled_h: 1
    spatial_scale: 0.03125 # 1/32
   }
 }
layer {
  name: "n_pooled_rois/normalized"
  type: "Normalize"
  bottom: "n_pooled_rois"
  top: "n_pooled_rois/normalized"
}
layer {
	name: "n_pooled_rois/normalized_flat"
	type: "Reshape"
	reshape_param{
	shape{
		dim: 0
		dim: 2048 # feat x spx (1) x spy (1)
		dim: 1
		dim: 1
		}    
	}
	bottom: "n_pooled_rois/normalized"
	top: "n_pooled_rois/normalized_flat"
}
# Mean center done with a scaling (at 1) + shifting. The shifting needs to be copied into the model weights.
layer {
  name: "n_pooled_rois/centered"
  bottom: "n_pooled_rois/normalized_flat"
  top: "n_pooled_rois/centered"
  type: "Scale"
	param {
		name: "pooled_rois/centered_1"
		lr_mult: 0.0
		decay_mult: 0.0
	}
	param {
		name: "pooled_rois/centered_2"
		lr_mult: 2.0
		decay_mult: 1.0
	}
  scale_param {
      bias_term: true
      filler {
        type: "constant"
        value: 1
      }
      bias_filler {
        type: "constant"
		value: 0
      }
  }
}
# And then the PCA, which is another FC layer
layer {
  name: "n_pooled_rois/pca_512"
  type: "InnerProduct"
  param {
	name: "pooled_rois/pca_1"
		lr_mult: 1.0
		decay_mult: 1.0
	}
	param {
		name: "pooled_rois/pca_2"
		lr_mult: 2.0
		decay_mult: 1.0
	}
  inner_product_param {
    num_output: 512 # output PCA dimensionality 
    weight_filler {
      type: "xavier"
    }
    bias_filler {
      type: "constant"
      value: 0
    }
  }
  bottom: "n_pooled_rois/centered"
  top: "n_pooled_rois/pca_512"
}
# After the FC layers the size is now n_batches x d. We reshape to n_batches x d x 1 x 1 to L2 normalize again
layer {
	name: "n_pooled_rois/pca/reshaped"
	type: "Reshape"
	reshape_param{
	shape{
		dim: 0 
		dim: 0
		dim: 1
		dim: 1
		}    
	}
	bottom: "n_pooled_rois/pca_512"
	top: "n_pooled_rois/pca/reshaped"
}
layer {
  name: "n_pooled_rois/pca/normalized"
  type: "Normalize"
  bottom: "n_pooled_rois/pca/reshaped"
  top: "n_pooled_rois/pca/normalized"
}
layer {
  name: "n_rmac"
  type: "Python"
  bottom: "n_pooled_rois/pca/normalized"
  top: "n_rmac"
  python_param {
    module: 'custom_layers'
    layer: 'AggregateLayer'
    param_str: "{'num_rois': 8}"
  }
}
## L2, one last time
layer {
  name: "n_rmac/normalized"
  type: "Normalize"
  bottom: "n_rmac"
  top: "n_rmac/normalized"
}

## triplet-loss
layer {
	name: "loss"
	type: "TripletLoss"
	bottom: "rmac/normalized"
	bottom: "p_rmac/normalized"
	bottom: "n_rmac/normalized"
	top: "loss"
	triplet_loss_param {
		margin: 1.0
	}
}
