…
I1022 23:41:02.858533 12894 net.cpp:296] The NetState phase (0) differed from the phase (1) specified by a rule in layer data
I1022 23:41:02.867686 12894 net.cpp:53] Initializing net from parameters: 
name: "ResNet-101"
state {
  phase: TRAIN
  level: 0
  stage: ""
}
layer {
  name: "data"
  type: "Python"
  top: "data"
  top: "p_data"
  top: "n_data"
  include {
    phase: TRAIN
  }
  python_param {
    module: "custom_layers"
    layer: "TripletDataLayer"
    param_str: "{\'batch_size\': 2, \'cls_dir\': \'/home/processyuan/data/Paris/triplet/\', \'mean\': [103.93900299, 116.77899933, 123.68000031]}"
  }
}
layer {
  name: "rois"
  type: "Python"
  bottom: "data"
  top: "rois"
  python_param {
    module: "custom_layers"
    layer: "RigidGridLayer"
    param_str: "{\'dataset\': \'paris\'}"
  }
}
layer {
  name: "conv1"
  type: "Convolution"
  bottom: "data"
  top: "conv1"
  param {
    name: "conv1_w"
    lr_mult: 0
    decay_mult: 0
  }
  convolution_param {
    num_output: 64
    bias_term: false
    pad: 3
    kernel_size: 7
    stride: 2
  }
}
layer {
  name: "bn_conv1"
  type: "BatchNorm"
  bottom: "conv1"
  top: "conv1"
  param {
    name: "bn_conv1_1"
    lr_mult: 0
    decay_mult: 0
  }
  param {
    name: "bn_conv1_2"
    lr_mult: 0
    decay_mult: 0
  }
  param {
    name: "bn_conv1_3"
    lr_mult: 0
    decay_mult: 0
  }
  batch_norm_param {
    use_global_stats: true
  }
}
layer {
  name: "scale_conv1"
  type: "Scale"
  bottom: "conv1"
  top: "conv1"
  param {
    name: "scale_conv1_1"
    lr_mult: 0
    decay_mult: 0
  }
  param {
    name: "scale_conv1_2"
    lr_mult: 0
    decay_mult: 0
  }
  scale_param {
    bias_term: true
  }
}
layer {
  name: "conv1_relu"
  type: "ReLU"
  bottom: "conv1"
  top: "conv1"
}
layer {
  name: "pool1"
  type: "Pooling"
  bottom: "conv1"
  top: "pool1"
  pooling_param {
    pool: MAX
    kernel_size: 3
    stride: 2
  }
}
layer {
  name: "res2a_branch1"
  type: "Convolution"
  bottom: "pool1"
  top: "res2a_branch1"
  param {
    name: "res2a_branch1_w"
    lr_mult: 0
    decay_mult: 0
  }
  convolution_param {
    num_output: 256
    bias_term: false
    pad: 0
    kernel_size: 1
    stride: 1
  }
}
layer {
  name: "bn2a_branch1"
  type: "BatchNorm"
  bottom: "res2a_branch1"
  top: "res2a_branch1"
  param {
    name: "bn2a_branch1_1"
    lr_mult: 0
    decay_mult: 0
  }
  param {
    name: "bn2a_branch1_2"
    lr_mult: 0
    decay_mult: 0
  }
  param {
    name: "bn2a_branch1_3"
    lr_mult: 0
    decay_mult: 0
  }
  batch_norm_param {
    use_global_stats: true
  }
}
layer {
  name: "scale2a_branch1"
  type: "Scale"
  bottom: "res2a_branch1"
  top: "res2a_branch1"
  param {
    name: "scale2a_branch1_1"
    lr_mult: 0
    decay_mult: 0
  }
  param {
    name: "scale2a_branch1_2"
    lr_mult: 0
    decay_mult: 0
  }
  scale_param {
    bias_term: true
  }
}
layer {
  name: "res2a_branch2a"
  type: "Convolution"
  bottom: "pool1"
  top: "res2a_branch2a"
  param {
    name: "res2a_branch2a_w"
    lr_mult: 0
    decay_mult: 0
  }
  convolution_param {
    num_output: 64
    bias_term: false
    pad: 0
    kernel_size: 1
    stride: 1
  }
}
layer {
  name: "bn2a_branch2a"
  type: "BatchNorm"
  bottom: "res2a_branch2a"
  top: "res2a_branch2a"
  param {
    name: "bn2a_branch2a_1"
    lr_mult: 0
    decay_mult: 0
  }
  param {
    name: "bn2a_branch2a_2"
    lr_mult: 0
    decay_mult: 0
  }
  param {
    name: "bn2a_branch2a_3"
    lr_mult: 0
    decay_mult: 0
  }
  batch_norm_param {
    use_global_stats: true
  }
}
layer {
  name: "scale2a_branch2a"
  type: "Scale"
  bottom: "res2a_branch2a"
  top: "res2a_branch2a"
  param {
    name: "scale2a_branch2a_1"
    lr_mult: 0
    decay_mult: 0
  }
  param {
    name: "scale2a_branch2a_2"
    lr_mult: 0
    decay_mult: 0
  }
  scale_param {
    bias_term: true
  }
}
layer {
  name: "res2a_branch2a_relu"
  type: "ReLU"
  bottom: "res2a_branch2a"
  top: "res2a_branch2a"
}
layer {
  name: "res2a_branch2b"
  type: "Convolution"
  bottom: "res2a_branch2a"
  top: "res2a_branch2b"
  param {
    name: "res2a_branch2b_w"
    lr_mult: 0
    decay_mult: 0
  }
  convolution_param {
    num_output: 64
    bias_term: false
    pad: 1
    kernel_size: 3
    stride: 1
  }
}
layer {
  name: "bn2a_branch2b"
  type: "BatchNorm"
  bottom: "res2a_branch2b"
  top: "res2a_branch2b"
  param {
    name: "bn2a_branch2b_1"
    lr_mult: 0
    decay_mult: 0
  }
  param {
    name: "bn2a_branch2b_2"
    lr_mult: 0
    decay_mult: 0
  }
  param {
    name: "bn2a_branch2b_3"
    lr_mult: 0
    decay_mult: 0
  }
  batch_norm_param {
    use_global_stats: true
  }
}
layer {
  name: "scale2a_branch2b"
  type: "Scale"
  bottom: "res2a_branch2b"
  top: "res2a_branch2b"
  param {
    name: "scale2a_branch2b_1"
    lr_mult: 0
    decay_mult: 0
  }
  param {
    name: "scale2a_branch2b_2"
    lr_mult: 0
    decay_mult: 0
  }
  scale_param {
    bias_term: true
  }
}
layer {
  name: "res2a_branch2b_relu"
  type: "ReLU"
  bottom: "res2a_branch2b"
  top: "res2a_branch2b"
}
layer {
  name: "res2a_branch2c"
  type: "Convolution"
  bottom: "res2a_branch2b"
  top: "res2a_branch2c"
  param {
    name: "res2a_branch2c_w"
    lr_mult: 0
    decay_mult: 0
  }
  convolution_param {
    num_output: 256
    bias_term: false
    pad: 0
    kernel_size: 1
    stride: 1
  }
}
layer {
  name: "bn2a_branch2c"
  type: "BatchNorm"
  bottom: "res2a_branch2c"
  top: "res2a_branch2c"
  param {
    name: "bn2a_branch2c_1"
    lr_mult: 0
    decay_mult: 0
  }
  param {
    name: "bn2a_branch2c_2"
    lr_mult: 0
    decay_mult: 0
  }
  param {
    name: "bn2a_branch2c_3"
    lr_mult: 0
    decay_mult: 0
  }
  batch_norm_param {
    use_global_stats: true
  }
}
layer {
  name: "scale2a_branch2c"
  type: "Scale"
  bottom: "res2a_branch2c"
  top: "res2a_branch2c"
  param {
    name: "scale2a_branch2c_1"
    lr_mult: 0
    decay_mult: 0
  }
  param {
    name: "scale2a_branch2c_2"
    lr_mult: 0
    decay_mult: 0
  }
  scale_param {
    bias_term: true
  }
}
layer {
  name: "res2a"
  type: "Eltwise"
  bottom: "res2a_branch1"
  bottom: "res2a_branch2c"
  top: "res2a"
}
layer {
  name: "res2a_relu"
  type: "ReLU"
  bottom: "res2a"
  top: "res2a"
}
layer {
  name: "res2b_branch2a"
  type: "Convolution"
  bottom: "res2a"
  top: "res2b_branch2a"
  param {
    name: "res2b_branch2a_w"
    lr_mult: 0
    decay_mult: 0
  }
  convolution_param {
    num_output: 64
    bias_term: false
    pad: 0
    kernel_size: 1
    stride: 1
  }
}
layer {
  name: "bn2b_branch2a"
  type: "BatchNorm"
  bottom: "res2b_branch2a"
  top: "res2b_branch2a"
  param {
    name: "bn2b_branch2a_1"
    lr_mult: 0
    decay_mult: 0
  }
  param {
    name: "bn2b_branch2a_2"
    lr_mult: 0
    decay_mult: 0
  }
  param {
    name: "bn2b_branch2a_3"
    lr_mult: 0
    decay_mult: 0
  }
  batch_norm_param {
    use_global_stats: true
  }
}
layer {
  name: "scale2b_branch2a"
  type: "Scale"
  bottom: "res2b_branch2a"
  top: "res2b_branch2a"
  param {
    name: "scale2b_branch2a_1"
    lr_mult: 0
    decay_mult: 0
  }
  param {
    name: "scale2b_branch2a_2"
    lr_mult: 0
    decay_mult: 0
  }
  scale_param {
    bias_term: true
  }
}
layer {
  name: "res2b_branch2a_relu"
  type: "ReLU"
  bottom: "res2b_branch2a"
  top: "res2b_branch2a"
}
layer {
  name: "res2b_branch2b"
  type: "Convolution"
  bottom: "res2b_branch2a"
  top: "res2b_branch2b"
  param {
    name: "res2b_branch2b_w"
    lr_mult: 0
    decay_mult: 0
  }
  convolution_param {
    num_output: 64
    bias_term: false
    pad: 1
    kernel_size: 3
    stride: 1
  }
}
layer {
  name: "bn2b_branch2b"
  type: "BatchNorm"
  bottom: "res2b_branch2b"
  top: "res2b_branch2b"
  param {
    name: "bn2b_branch2b_1"
    lr_mult: 0
    decay_mult: 0
  }
  param {
    name: "bn2b_branch2b_2"
    lr_mult: 0
    decay_mult: 0
  }
  param {
    name: "bn2b_branch2b_3"
    lr_mult: 0
    decay_mult: 0
  }
  batch_norm_param {
    use_global_stats: true
  }
}
layer {
  name: "scale2b_branch2b"
  type: "Scale"
  bottom: "res2b_branch2b"
  top: "res2b_branch2b"
  param {
    name: "scale2b_branch2b_1"
    lr_mult: 0
    decay_mult: 0
  }
  param {
    name: "scale2b_branch2b_2"
    lr_mult: 0
    decay_mult: 0
  }
  scale_param {
    bias_term: true
  }
}
layer {
  name: "res2b_branch2b_relu"
  type: "ReLU"
  bottom: "res2b_branch2b"
  top: "res2b_branch2b"
}
layer {
  name: "res2b_branch2c"
  type: "Convolution"
  bottom: "res2b_branch2b"
  top: "res2b_branch2c"
  param {
    name: "res2b_branch2c_w"
    lr_mult: 0
    decay_mult: 0
  }
  convolution_param {
    num_output: 256
    bias_term: false
    pad: 0
    kernel_size: 1
    stride: 1
  }
}
layer {
  name: "bn2b_branch2c"
  type: "BatchNorm"
  bottom: "res2b_branch2c"
  top: "res2b_branch2c"
  param {
    name: "bn2b_branch2c_1"
    lr_mult: 0
    decay_mult: 0
  }
  param {
    name: "bn2b_branch2c_2"
    lr_mult: 0
    decay_mult: 0
  }
  param {
    name: "bn2b_branch2c_3"
    lr_mult: 0
    decay_mult: 0
  }
  batch_norm_param {
    use_global_stats: true
  }
}
layer {
  name: "scale2b_branch2c"
  type: "Scale"
  bottom: "res2b_branch2c"
  top: "res2b_branch2c"
  param {
    name: "scale2b_branch2c_1"
    lr_mult: 0
    decay_mult: 0
  }
  param {
    name: "scale2b_branch2c_2"
    lr_mult: 0
    decay_mult: 0
  }
  scale_param {
    bias_term: true
  }
}
layer {
  name: "res2b"
  type: "Eltwise"
  bottom: "res2a"
  bottom: "res2b_branch2c"
  top: "res2b"
}
layer {
  name: "res2b_relu"
  type: "ReLU"
  bottom: "res2b"
  top: "res2b"
}
layer {
  name: "res2c_branch2a"
  type: "Convolution"
  bottom: "res2b"
  top: "res2c_branch2a"
  param {
    name: "res2c_branch2a_w"
    lr_mult: 0
    decay_mult: 0
  }
  convolution_param {
    num_output: 64
    bias_term: false
    pad: 0
    kernel_size: 1
    stride: 1
  }
}
layer {
  name: "bn2c_branch2a"
  type: "BatchNorm"
  bottom: "res2c_branch2a"
  top: "res2c_branch2a"
  param {
    name: "bn2c_branch2a_1"
    lr_mult: 0
    decay_mult: 0
  }
  param {
    name: "bn2c_branch2a_2"
    lr_mult: 0
    decay_mult: 0
  }
  param {
    name: "bn2c_branch2a_3"
    lr_mult: 0
    decay_mult: 0
  }
  batch_norm_param {
    use_global_stats: true
  }
}
layer {
  name: "scale2c_branch2a"
  type: "Scale"
  bottom: "res2c_branch2a"
  top: "res2c_branch2a"
  param {
    name: "scale2c_branch2a_1"
    lr_mult: 0
    decay_mult: 0
  }
  param {
    name: "scale2c_branch2a_2"
    lr_mult: 0
    decay_mult: 0
  }
  scale_param {
    bias_term: true
  }
}
layer {
  name: "res2c_branch2a_relu"
  type: "ReLU"
  bottom: "res2c_branch2a"
  top: "res2c_branch2a"
}
layer {
  name: "res2c_branch2b"
  type: "Convolution"
  bottom: "res2c_branch2a"
  top: "res2c_branch2b"
  param {
    name: "res2c_branch2b_w"
    lr_mult: 0
    decay_mult: 0
  }
  convolution_param {
    num_output: 64
    bias_term: false
    pad: 1
    kernel_size: 3
    stride: 1
  }
}
layer {
  name: "bn2c_branch2b"
  type: "BatchNorm"
  bottom: "res2c_branch2b"
  top: "res2c_branch2b"
  param {
    name: "bn2c_branch2b_1"
    lr_mult: 0
    decay_mult: 0
  }
  param {
    name: "bn2c_branch2b_2"
    lr_mult: 0
    decay_mult: 0
  }
  param {
    name: "bn2c_branch2b_3"
    lr_mult: 0
    decay_mult: 0
  }
  batch_norm_param {
    use_global_stats: true
  }
}
layer {
  name: "scale2c_branch2b"
  type: "Scale"
  bottom: "res2c_branch2b"
  top: "res2c_branch2b"
  param {
    name: "scale2c_branch2b_1"
    lr_mult: 0
    decay_mult: 0
  }
  param {
    name: "scale2c_branch2b_2"
    lr_mult: 0
    decay_mult: 0
  }
  scale_param {
    bias_term: true
  }
}
layer {
  name: "res2c_branch2b_relu"
  type: "ReLU"
  bottom: "res2c_branch2b"
  top: "res2c_branch2b"
}
layer {
  name: "res2c_branch2c"
  type: "Convolution"
  bottom: "res2c_branch2b"
  top: "res2c_branch2c"
  param {
    name: "res2c_branch2c_w"
    lr_mult: 0
    decay_mult: 0
  }
  convolution_param {
    num_output: 256
    bias_term: false
    pad: 0
    kernel_size: 1
    stride: 1
  }
}
layer {
  name: "bn2c_branch2c"
  type: "BatchNorm"
  bottom: "res2c_branch2c"
  top: "res2c_branch2c"
  param {
    name: "bn2c_branch2c_1"
    lr_mult: 0
    decay_mult: 0
  }
  param {
    name: "bn2c_branch2c_2"
    lr_mult: 0
    decay_mult: 0
  }
  param {
    name: "bn2c_branch2c_3"
    lr_mult: 0
    decay_mult: 0
  }
  batch_norm_param {
    use_global_stats: true
  }
}
layer {
  name: "scale2c_branch2c"
  type: "Scale"
  bottom: "res2c_branch2c"
  top: "res2c_branch2c"
  param {
    name: "scale2c_branch2c_1"
    lr_mult: 0
    decay_mult: 0
  }
  param {
    name: "scale2c_branch2c_2"
    lr_mult: 0
    decay_mult: 0
  }
  scale_param {
    bias_term: true
  }
}
layer {
  name: "res2c"
  type: "Eltwise"
  bottom: "res2b"
  bottom: "res2c_branch2c"
  top: "res2c"
}
layer {
  name: "res2c_relu"
  type: "ReLU"
  bottom: "res2c"
  top: "res2c"
}
layer {
  name: "res3a_branch1"
  type: "Convolution"
  bottom: "res2c"
  top: "res3a_branch1"
  param {
    name: "res3a_branch1_w"
    lr_mult: 0
    decay_mult: 0
  }
  convolution_param {
    num_output: 512
    bias_term: false
    pad: 0
    kernel_size: 1
    stride: 2
  }
}
layer {
  name: "bn3a_branch1"
  type: "BatchNorm"
  bottom: "res3a_branch1"
  top: "res3a_branch1"
  param {
    name: "bn3a_branch1_1"
    lr_mult: 0
    decay_mult: 0
  }
  param {
    name: "bn3a_branch1_2"
    lr_mult: 0
    decay_mult: 0
  }
  param {
    name: "bn3a_branch1_3"
    lr_mult: 0
    decay_mult: 0
  }
  batch_norm_param {
    use_global_stats: true
  }
}
layer {
  name: "scale3a_branch1"
  type: "Scale"
  bottom: "res3a_branch1"
  top: "res3a_branch1"
  param {
    name: "scale3a_branch1_1"
    lr_mult: 0
    decay_mult: 0
  }
  param {
    name: "scale3a_branch1_2"
    lr_mult: 0
    decay_mult: 0
  }
  scale_param {
    bias_term: true
  }
}
layer {
  name: "res3a_branch2a"
  type: "Convolution"
  bottom: "res2c"
  top: "res3a_branch2a"
  param {
    name: "res3a_branch2a_w"
    lr_mult: 0
    decay_mult: 0
  }
  convolution_param {
    num_output: 128
    bias_term: false
    pad: 0
    kernel_size: 1
    stride: 2
  }
}
layer {
  name: "bn3a_branch2a"
  type: "BatchNorm"
  bottom: "res3a_branch2a"
  top: "res3a_branch2a"
  param {
    name: "bn3a_branch2a_1"
    lr_mult: 0
    decay_mult: 0
  }
  param {
    name: "bn3a_branch2a_2"
    lr_mult: 0
    decay_mult: 0
  }
  param {
    name: "bn3a_branch2a_3"
    lr_mult: 0
    decay_mult: 0
  }
  batch_norm_param {
    use_global_stats: true
  }
}
layer {
  name: "scale3a_branch2a"
  type: "Scale"
  bottom: "res3a_branch2a"
  top: "res3a_branch2a"
  param {
    name: "scale3a_branch2a_1"
    lr_mult: 0
    decay_mult: 0
  }
  param {
    name: "scale3a_branch2a_2"
    lr_mult: 0
    decay_mult: 0
  }
  scale_param {
    bias_term: true
  }
}
layer {
  name: "res3a_branch2a_relu"
  type: "ReLU"
  bottom: "res3a_branch2a"
  top: "res3a_branch2a"
}
layer {
  name: "res3a_branch2b"
  type: "Convolution"
  bottom: "res3a_branch2a"
  top: "res3a_branch2b"
  param {
    name: "res3a_branch2b_w"
    lr_mult: 0
    decay_mult: 0
  }
  convolution_param {
    num_output: 128
    bias_term: false
    pad: 1
    kernel_size: 3
    stride: 1
  }
}
layer {
  name: "bn3a_branch2b"
  type: "BatchNorm"
  bottom: "res3a_branch2b"
  top: "res3a_branch2b"
  param {
    name: "bn3a_branch2b_1"
    lr_mult: 0
    decay_mult: 0
  }
  param {
    name: "bn3a_branch2b_2"
    lr_mult: 0
    decay_mult: 0
  }
  param {
    name: "bn3a_branch2b_3"
    lr_mult: 0
    decay_mult: 0
  }
  batch_norm_param {
    use_global_stats: true
  }
}
layer {
  name: "scale3a_branch2b"
  type: "Scale"
  bottom: "res3a_branch2b"
  top: "res3a_branch2b"
  param {
    name: "scale3a_branch2b_1"
    lr_mult: 0
    decay_mult: 0
  }
  param {
    name: "scale3a_branch2b_2"
    lr_mult: 0
    decay_mult: 0
  }
  scale_param {
    bias_term: true
  }
}
layer {
  name: "res3a_branch2b_relu"
  type: "ReLU"
  bottom: "res3a_branch2b"
  top: "res3a_branch2b"
}
layer {
  name: "res3a_branch2c"
  type: "Convolution"
  bottom: "res3a_branch2b"
  top: "res3a_branch2c"
  param {
    name: "res3a_branch2c_w"
    lr_mult: 0
    decay_mult: 0
  }
  convolution_param {
    num_output: 512
    bias_term: false
    pad: 0
    kernel_size: 1
    stride: 1
  }
}
layer {
  name: "bn3a_branch2c"
  type: "BatchNorm"
  bottom: "res3a_branch2c"
  top: "res3a_branch2c"
  param {
    name: "bn3a_branch2c_1"
    lr_mult: 0
    decay_mult: 0
  }
  param {
    name: "bn3a_branch2c_2"
    lr_mult: 0
    decay_mult: 0
  }
  param {
    name: "bn3a_branch2c_3"
    lr_mult: 0
    decay_mult: 0
  }
  batch_norm_param {
    use_global_stats: true
  }
}
layer {
  name: "scale3a_branch2c"
  type: "Scale"
  bottom: "res3a_branch2c"
  top: "res3a_branch2c"
  param {
    name: "scale3a_branch2c_1"
    lr_mult: 0
    decay_mult: 0
  }
  param {
    name: "scale3a_branch2c_2"
    lr_mult: 0
    decay_mult: 0
  }
  scale_param {
    bias_term: true
  }
}
layer {
  name: "res3a"
  type: "Eltwise"
  bottom: "res3a_branch1"
  bottom: "res3a_branch2c"
  top: "res3a"
}
layer {
  name: "res3a_relu"
  type: "ReLU"
  bottom: "res3a"
  top: "res3a"
}
layer {
  name: "res3b1_branch2a"
  type: "Convolution"
  bottom: "res3a"
  top: "res3b1_branch2a"
  param {
    name: "res3b1_branch2a_w"
    lr_mult: 0
    decay_mult: 0
  }
  convolution_param {
    num_output: 128
    bias_term: false
    pad: 0
    kernel_size: 1
    stride: 1
  }
}
layer {
  name: "bn3b1_branch2a"
  type: "BatchNorm"
  bottom: "res3b1_branch2a"
  top: "res3b1_branch2a"
  param {
    name: "bn3b1_branch2a_1"
    lr_mult: 0
    decay_mult: 0
  }
  param {
    name: "bn3b1_branch2a_2"
    lr_mult: 0
    decay_mult: 0
  }
  param {
    name: "bn3b1_branch2a_3"
    lr_mult: 0
    decay_mult: 0
  }
  batch_norm_param {
    use_global_stats: true
  }
}
layer {
  name: "scale3b1_branch2a"
  type: "Scale"
  bottom: "res3b1_branch2a"
  top: "res3b1_branch2a"
  param {
    name: "scale3b1_branch2a_1"
    lr_mult: 0
    decay_mult: 0
  }
  param {
    name: "scale3b1_branch2a_2"
    lr_mult: 0
    decay_mult: 0
  }
  scale_param {
    bias_term: true
  }
}
layer {
  name: "res3b1_branch2a_relu"
  type: "ReLU"
  bottom: "res3b1_branch2a"
  top: "res3b1_branch2a"
}
layer {
  name: "res3b1_branch2b"
  type: "Convolution"
  bottom: "res3b1_branch2a"
  top: "res3b1_branch2b"
  param {
    name: "res3b1_branch2b_w"
    lr_mult: 0
    decay_mult: 0
  }
  convolution_param {
    num_output: 128
    bias_term: false
    pad: 1
    kernel_size: 3
    stride: 1
  }
}
layer {
  name: "bn3b1_branch2b"
  type: "BatchNorm"
  bottom: "res3b1_branch2b"
  top: "res3b1_branch2b"
  param {
    name: "bn3b1_branch2b_1"
    lr_mult: 0
    decay_mult: 0
  }
  param {
    name: "bn3b1_branch2b_2"
    lr_mult: 0
    decay_mult: 0
  }
  param {
    name: "bn3b1_branch2b_3"
    lr_mult: 0
    decay_mult: 0
  }
  batch_norm_param {
    use_global_stats: true
  }
}
layer {
  name: "scale3b1_branch2b"
  type: "Scale"
  bottom: "res3b1_branch2b"
  top: "res3b1_branch2b"
  param {
    name: "scale3b1_branch2b_1"
    lr_mult: 0
    decay_mult: 0
  }
  param {
    name: "scale3b1_branch2b_2"
    lr_mult: 0
    decay_mult: 0
  }
  scale_param {
    bias_term: true
  }
}
layer {
  name: "res3b1_branch2b_relu"
  type: "ReLU"
  bottom: "res3b1_branch2b"
  top: "res3b1_branch2b"
}
layer {
  name: "res3b1_branch2c"
  type: "Convolution"
  bottom: "res3b1_branch2b"
  top: "res3b1_branch2c"
  param {
    name: "res3b1_branch2c_w"
    lr_mult: 0
    decay_mult: 0
  }
  convolution_param {
    num_output: 512
    bias_term: false
    pad: 0
    kernel_size: 1
    stride: 1
  }
}
layer {
  name: "bn3b1_branch2c"
  type: "BatchNorm"
  bottom: "res3b1_branch2c"
  top: "res3b1_branch2c"
  param {
    name: "bn3b1_branch2c_1"
    lr_mult: 0
    decay_mult: 0
  }
  param {
    name: "bn3b1_branch2c_2"
    lr_mult: 0
    decay_mult: 0
  }
  param {
    name: "bn3b1_branch2c_3"
    lr_mult: 0
    decay_mult: 0
  }
  batch_norm_param {
    use_global_stats: true
  }
}
layer {
  name: "scale3b1_branch2c"
  type: "Scale"
  bottom: "res3b1_branch2c"
  top: "res3b1_branch2c"
  param {
    name: "scale3b1_branch2c_1"
    lr_mult: 0
    decay_mult: 0
  }
  param {
    name: "scale3b1_branch2c_2"
    lr_mult: 0
    decay_mult: 0
  }
  scale_param {
    bias_term: true
  }
}
layer {
  name: "res3b1"
  type: "Eltwise"
  bottom: "res3a"
  bottom: "res3b1_branch2c"
  top: "res3b1"
}
layer {
  name: "res3b1_relu"
  type: "ReLU"
  bottom: "res3b1"
  top: "res3b1"
}
layer {
  name: "res3b2_branch2a"
  type: "Convolution"
  bottom: "res3b1"
  top: "res3b2_branch2a"
  param {
    name: "res3b2_branch2a_w"
    lr_mult: 0
    decay_mult: 0
  }
  convolution_param {
    num_output: 128
    bias_term: false
    pad: 0
    kernel_size: 1
    stride: 1
  }
}
layer {
  name: "bn3b2_branch2a"
  type: "BatchNorm"
  bottom: "res3b2_branch2a"
  top: "res3b2_branch2a"
  param {
    name: "bn3b2_branch2a_1"
    lr_mult: 0
    decay_mult: 0
  }
  param {
    name: "bn3b2_branch2a_2"
    lr_mult: 0
    decay_mult: 0
  }
  param {
    name: "bn3b2_branch2a_3"
    lr_mult: 0
    decay_mult: 0
  }
  batch_norm_param {
    use_global_stats: true
  }
}
layer {
  name: "scale3b2_branch2a"
  type: "Scale"
  bottom: "res3b2_branch2a"
  top: "res3b2_branch2a"
  param {
    name: "scale3b2_branch2a_1"
    lr_mult: 0
    decay_mult: 0
  }
  param {
    name: "scale3b2_branch2a_2"
    lr_mult: 0
    decay_mult: 0
  }
  scale_param {
    bias_term: true
  }
}
layer {
  name: "res3b2_branch2a_relu"
  type: "ReLU"
  bottom: "res3b2_branch2a"
  top: "res3b2_branch2a"
}
layer {
  name: "res3b2_branch2b"
  type: "Convolution"
  bottom: "res3b2_branch2a"
  top: "res3b2_branch2b"
  param {
    name: "res3b2_branch2b_w"
    lr_mult: 0
    decay_mult: 0
  }
  convolution_param {
    num_output: 128
    bias_term: false
    pad: 1
    kernel_size: 3
    stride: 1
  }
}
layer {
  name: "bn3b2_branch2b"
  type: "BatchNorm"
  bottom: "res3b2_branch2b"
  top: "res3b2_branch2b"
  param {
    name: "bn3b2_branch2b_1"
    lr_mult: 0
    decay_mult: 0
  }
  param {
    name: "bn3b2_branch2b_2"
    lr_mult: 0
    decay_mult: 0
  }
  param {
    name: "bn3b2_branch2b_3"
    lr_mult: 0
    decay_mult: 0
  }
  batch_norm_param {
    use_global_stats: true
  }
}
layer {
  name: "scale3b2_branch2b"
  type: "Scale"
  bottom: "res3b2_branch2b"
  top: "res3b2_branch2b"
  param {
    name: "scale3b2_branch2b_1"
    lr_mult: 0
    decay_mult: 0
  }
  param {
    name: "scale3b2_branch2b_2"
    lr_mult: 0
    decay_mult: 0
  }
  scale_param {
    bias_term: true
  }
}
layer {
  name: "res3b2_branch2b_relu"
  type: "ReLU"
  bottom: "res3b2_branch2b"
  top: "res3b2_branch2b"
}
layer {
  name: "res3b2_branch2c"
  type: "Convolution"
  bottom: "res3b2_branch2b"
  top: "res3b2_branch2c"
  param {
    name: "res3b2_branch2c_w"
    lr_mult: 0
    decay_mult: 0
  }
  convolution_param {
    num_output: 512
    bias_term: false
    pad: 0
    kernel_size: 1
    stride: 1
  }
}
layer {
  name: "bn3b2_branch2c"
  type: "BatchNorm"
  bottom: "res3b2_branch2c"
  top: "res3b2_branch2c"
  param {
    name: "bn3b2_branch2c_1"
    lr_mult: 0
    decay_mult: 0
  }
  param {
    name: "bn3b2_branch2c_2"
    lr_mult: 0
    decay_mult: 0
  }
  param {
    name: "bn3b2_branch2c_3"
    lr_mult: 0
    decay_mult: 0
  }
  batch_norm_param {
    use_global_stats: true
  }
}
layer {
  name: "scale3b2_branch2c"
  type: "Scale"
  bottom: "res3b2_branch2c"
  top: "res3b2_branch2c"
  param {
    name: "scale3b2_branch2c_1"
    lr_mult: 0
    decay_mult: 0
  }
  param {
    name: "scale3b2_branch2c_2"
    lr_mult: 0
    decay_mult: 0
  }
  scale_param {
    bias_term: true
  }
}
layer {
  name: "res3b2"
  type: "Eltwise"
  bottom: "res3b1"
  bottom: "res3b2_branch2c"
  top: "res3b2"
}
layer {
  name: "res3b2_relu"
  type: "ReLU"
  bottom: "res3b2"
  top: "res3b2"
}
layer {
  name: "res3b3_branch2a"
  type: "Convolution"
  bottom: "res3b2"
  top: "res3b3_branch2a"
  param {
    name: "res3b3_branch2a_w"
    lr_mult: 0
    decay_mult: 0
  }
  convolution_param {
    num_output: 128
    bias_term: false
    pad: 0
    kernel_size: 1
    stride: 1
  }
}
layer {
  name: "bn3b3_branch2a"
  type: "BatchNorm"
  bottom: "res3b3_branch2a"
  top: "res3b3_branch2a"
  param {
    name: "bn3b3_branch2a_1"
    lr_mult: 0
    decay_mult: 0
  }
  param {
    name: "bn3b3_branch2a_2"
    lr_mult: 0
    decay_mult: 0
  }
  param {
    name: "bn3b3_branch2a_3"
    lr_mult: 0
    decay_mult: 0
  }
  batch_norm_param {
    use_global_stats: true
  }
}
layer {
  name: "scale3b3_branch2a"
  type: "Scale"
  bottom: "res3b3_branch2a"
  top: "res3b3_branch2a"
  param {
    name: "scale3b3_branch2a_1"
    lr_mult: 0
    decay_mult: 0
  }
  param {
    name: "scale3b3_branch2a_2"
    lr_mult: 0
    decay_mult: 0
  }
  scale_param {
    bias_term: true
  }
}
layer {
  name: "res3b3_branch2a_relu"
  type: "ReLU"
  bottom: "res3b3_branch2a"
  top: "res3b3_branch2a"
}
layer {
  name: "res3b3_branch2b"
  type: "Convolution"
  bottom: "res3b3_branch2a"
  top: "res3b3_branch2b"
  param {
    name: "res3b3_branch2b_w"
    lr_mult: 0
    decay_mult: 0
  }
  convolution_param {
    num_output: 128
    bias_term: false
    pad: 1
    kernel_size: 3
    stride: 1
  }
}
layer {
  name: "bn3b3_branch2b"
  type: "BatchNorm"
  bottom: "res3b3_branch2b"
  top: "res3b3_branch2b"
  param {
    name: "bn3b3_branch2b_1"
    lr_mult: 0
    decay_mult: 0
  }
  param {
    name: "bn3b3_branch2b_2"
    lr_mult: 0
    decay_mult: 0
  }
  param {
    name: "bn3b3_branch2b_3"
    lr_mult: 0
    decay_mult: 0
  }
  batch_norm_param {
    use_global_stats: true
  }
}
layer {
  name: "scale3b3_branch2b"
  type: "Scale"
  bottom: "res3b3_branch2b"
  top: "res3b3_branch2b"
  param {
    name: "scale3b3_branch2b_1"
    lr_mult: 0
    decay_mult: 0
  }
  param {
    name: "scale3b3_branch2b_2"
    lr_mult: 0
    decay_mult: 0
  }
  scale_param {
    bias_term: true
  }
}
layer {
  name: "res3b3_branch2b_relu"
  type: "ReLU"
  bottom: "res3b3_branch2b"
  top: "res3b3_branch2b"
}
layer {
  name: "res3b3_branch2c"
  type: "Convolution"
  bottom: "res3b3_branch2b"
  top: "res3b3_branch2c"
  param {
    name: "res3b3_branch2c_w"
    lr_mult: 0
    decay_mult: 0
  }
  convolution_param {
    num_output: 512
    bias_term: false
    pad: 0
    kernel_size: 1
    stride: 1
  }
}
layer {
  name: "bn3b3_branch2c"
  type: "BatchNorm"
  bottom: "res3b3_branch2c"
  top: "res3b3_branch2c"
  param {
    name: "bn3b3_branch2c_1"
    lr_mult: 0
    decay_mult: 0
  }
  param {
    name: "bn3b3_branch2c_2"
    lr_mult: 0
    decay_mult: 0
  }
  param {
    name: "bn3b3_branch2c_3"
    lr_mult: 0
    decay_mult: 0
  }
  batch_norm_param {
    use_global_stats: true
  }
}
layer {
  name: "scale3b3_branch2c"
  type: "Scale"
  bottom: "res3b3_branch2c"
  top: "res3b3_branch2c"
  param {
    name: "scale3b3_branch2c_1"
    lr_mult: 0
    decay_mult: 0
  }
  param {
    name: "scale3b3_branch2c_2"
    lr_mult: 0
    decay_mult: 0
  }
  scale_param {
    bias_term: true
  }
}
layer {
  name: "res3b3"
  type: "Eltwise"
  bottom: "res3b2"
  bottom: "res3b3_branch2c"
  top: "res3b3"
}
layer {
  name: "res3b3_relu"
  type: "ReLU"
  bottom: "res3b3"
  top: "res3b3"
}
layer {
  name: "res4a_branch1"
  type: "Convolution"
  bottom: "res3b3"
  top: "res4a_branch1"
  param {
    name: "res4a_branch1_w"
    lr_mult: 0
    decay_mult: 0
  }
  convolution_param {
    num_output: 1024
    bias_term: false
    pad: 0
    kernel_size: 1
    stride: 2
  }
}
layer {
  name: "bn4a_branch1"
  type: "BatchNorm"
  bottom: "res4a_branch1"
  top: "res4a_branch1"
  param {
    name: "bn4a_branch1_1"
    lr_mult: 0
    decay_mult: 0
  }
  param {
    name: "bn4a_branch1_2"
    lr_mult: 0
    decay_mult: 0
  }
  param {
    name: "bn4a_branch1_3"
    lr_mult: 0
    decay_mult: 0
  }
  batch_norm_param {
    use_global_stats: true
  }
}
layer {
  name: "scale4a_branch1"
  type: "Scale"
  bottom: "res4a_branch1"
  top: "res4a_branch1"
  param {
    name: "scale4a_branch1_1"
    lr_mult: 0
    decay_mult: 0
  }
  param {
    name: "scale4a_branch1_2"
    lr_mult: 0
    decay_mult: 0
  }
  scale_param {
    bias_term: true
  }
}
layer {
  name: "res4a_branch2a"
  type: "Convolution"
  bottom: "res3b3"
  top: "res4a_branch2a"
  param {
    name: "res4a_branch2a_w"
    lr_mult: 0
    decay_mult: 0
  }
  convolution_param {
    num_output: 256
    bias_term: false
    pad: 0
    kernel_size: 1
    stride: 2
  }
}
layer {
  name: "bn4a_branch2a"
  type: "BatchNorm"
  bottom: "res4a_branch2a"
  top: "res4a_branch2a"
  param {
    name: "bn4a_branch2a_1"
    lr_mult: 0
    decay_mult: 0
  }
  param {
    name: "bn4a_branch2a_2"
    lr_mult: 0
    decay_mult: 0
  }
  param {
    name: "bn4a_branch2a_3"
    lr_mult: 0
    decay_mult: 0
  }
  batch_norm_param {
    use_global_stats: true
  }
}
layer {
  name: "scale4a_branch2a"
  type: "Scale"
  bottom: "res4a_branch2a"
  top: "res4a_branch2a"
  param {
    name: "scale4a_branch2a_1"
    lr_mult: 0
    decay_mult: 0
  }
  param {
    name: "scale4a_branch2a_2"
    lr_mult: 0
    decay_mult: 0
  }
  scale_param {
    bias_term: true
  }
}
layer {
  name: "res4a_branch2a_relu"
  type: "ReLU"
  bottom: "res4a_branch2a"
  top: "res4a_branch2a"
}
layer {
  name: "res4a_branch2b"
  type: "Convolution"
  bottom: "res4a_branch2a"
  top: "res4a_branch2b"
  param {
    name: "res4a_branch2b_w"
    lr_mult: 0
    decay_mult: 0
  }
  convolution_param {
    num_output: 256
    bias_term: false
    pad: 1
    kernel_size: 3
    stride: 1
  }
}
layer {
  name: "bn4a_branch2b"
  type: "BatchNorm"
  bottom: "res4a_branch2b"
  top: "res4a_branch2b"
  param {
    name: "bn4a_branch2b_1"
    lr_mult: 0
    decay_mult: 0
  }
  param {
    name: "bn4a_branch2b_2"
    lr_mult: 0
    decay_mult: 0
  }
  param {
    name: "bn4a_branch2b_3"
    lr_mult: 0
    decay_mult: 0
  }
  batch_norm_param {
    use_global_stats: true
  }
}
layer {
  name: "scale4a_branch2b"
  type: "Scale"
  bottom: "res4a_branch2b"
  top: "res4a_branch2b"
  param {
    name: "scale4a_branch2b_1"
    lr_mult: 0
    decay_mult: 0
  }
  param {
    name: "scale4
I1022 23:41:02.873965 12894 layer_factory.hpp:77] Creating layer data
I1022 23:41:03.481039 12894 net.cpp:86] Creating Layer data
I1022 23:41:03.481071 12894 net.cpp:382] data -> data
I1022 23:41:03.481088 12894 net.cpp:382] data -> p_data
I1022 23:41:03.481097 12894 net.cpp:382] data -> n_data
I1022 23:41:03.860713 12894 net.cpp:124] Setting up data
I1022 23:41:03.860754 12894 net.cpp:131] Top shape: 2 3 384 512 (1179648)
I1022 23:41:03.860760 12894 net.cpp:131] Top shape: 2 3 384 512 (1179648)
I1022 23:41:03.860764 12894 net.cpp:131] Top shape: 2 3 384 512 (1179648)
I1022 23:41:03.860767 12894 net.cpp:139] Memory required for data: 14155776
I1022 23:41:03.860780 12894 layer_factory.hpp:77] Creating layer data_data_0_split
I1022 23:41:03.860798 12894 net.cpp:86] Creating Layer data_data_0_split
I1022 23:41:03.860819 12894 net.cpp:408] data_data_0_split <- data
I1022 23:41:03.860837 12894 net.cpp:382] data_data_0_split -> data_data_0_split_0
I1022 23:41:03.860865 12894 net.cpp:382] data_data_0_split -> data_data_0_split_1
I1022 23:41:03.860921 12894 net.cpp:124] Setting up data_data_0_split
I1022 23:41:03.860929 12894 net.cpp:131] Top shape: 2 3 384 512 (1179648)
I1022 23:41:03.860935 12894 net.cpp:131] Top shape: 2 3 384 512 (1179648)
I1022 23:41:03.860939 12894 net.cpp:139] Memory required for data: 23592960
I1022 23:41:03.860942 12894 layer_factory.hpp:77] Creating layer rois
I1022 23:41:03.861012 12894 net.cpp:86] Creating Layer rois
I1022 23:41:03.861039 12894 net.cpp:408] rois <- data_data_0_split_0
I1022 23:41:03.861047 12894 net.cpp:382] rois -> rois
I1022 23:41:03.864063 12894 net.cpp:124] Setting up rois
I1022 23:41:03.864078 12894 net.cpp:131] Top shape: 16 5 (80)
I1022 23:41:03.864099 12894 net.cpp:139] Memory required for data: 23593280
I1022 23:41:03.864102 12894 layer_factory.hpp:77] Creating layer rois_rois_0_split
I1022 23:41:03.864109 12894 net.cpp:86] Creating Layer rois_rois_0_split
I1022 23:41:03.864112 12894 net.cpp:408] rois_rois_0_split <- rois
I1022 23:41:03.864120 12894 net.cpp:382] rois_rois_0_split -> rois_rois_0_split_0
I1022 23:41:03.864142 12894 net.cpp:382] rois_rois_0_split -> rois_rois_0_split_1
I1022 23:41:03.864148 12894 net.cpp:382] rois_rois_0_split -> rois_rois_0_split_2
I1022 23:41:03.864209 12894 net.cpp:124] Setting up rois_rois_0_split
I1022 23:41:03.864217 12894 net.cpp:131] Top shape: 16 5 (80)
I1022 23:41:03.864220 12894 net.cpp:131] Top shape: 16 5 (80)
I1022 23:41:03.864224 12894 net.cpp:131] Top shape: 16 5 (80)
I1022 23:41:03.864228 12894 net.cpp:139] Memory required for data: 23594240
I1022 23:41:03.864231 12894 layer_factory.hpp:77] Creating layer conv1
I1022 23:41:03.864248 12894 net.cpp:86] Creating Layer conv1
I1022 23:41:03.864254 12894 net.cpp:408] conv1 <- data_data_0_split_1
I1022 23:41:03.864260 12894 net.cpp:382] conv1 -> conv1
I1022 23:41:04.442507 12894 net.cpp:124] Setting up conv1
I1022 23:41:04.442589 12894 net.cpp:131] Top shape: 2 64 192 256 (6291456)
I1022 23:41:04.442595 12894 net.cpp:139] Memory required for data: 48760064
I1022 23:41:04.442652 12894 layer_factory.hpp:77] Creating layer bn_conv1
I1022 23:41:04.442713 12894 net.cpp:86] Creating Layer bn_conv1
I1022 23:41:04.442726 12894 net.cpp:408] bn_conv1 <- conv1
I1022 23:41:04.442750 12894 net.cpp:369] bn_conv1 -> conv1 (in-place)
I1022 23:41:04.444275 12894 net.cpp:124] Setting up bn_conv1
I1022 23:41:04.444290 12894 net.cpp:131] Top shape: 2 64 192 256 (6291456)
I1022 23:41:04.444309 12894 net.cpp:139] Memory required for data: 73925888
I1022 23:41:04.444320 12894 layer_factory.hpp:77] Creating layer scale_conv1
I1022 23:41:04.444341 12894 net.cpp:86] Creating Layer scale_conv1
I1022 23:41:04.444362 12894 net.cpp:408] scale_conv1 <- conv1
I1022 23:41:04.444368 12894 net.cpp:369] scale_conv1 -> conv1 (in-place)
I1022 23:41:04.444455 12894 layer_factory.hpp:77] Creating layer scale_conv1
I1022 23:41:04.444659 12894 net.cpp:124] Setting up scale_conv1
I1022 23:41:04.444671 12894 net.cpp:131] Top shape: 2 64 192 256 (6291456)
I1022 23:41:04.444675 12894 net.cpp:139] Memory required for data: 99091712
I1022 23:41:04.444682 12894 layer_factory.hpp:77] Creating layer conv1_relu
I1022 23:41:04.444694 12894 net.cpp:86] Creating Layer conv1_relu
I1022 23:41:04.444700 12894 net.cpp:408] conv1_relu <- conv1
I1022 23:41:04.444705 12894 net.cpp:369] conv1_relu -> conv1 (in-place)
I1022 23:41:04.444928 12894 net.cpp:124] Setting up conv1_relu
I1022 23:41:04.444941 12894 net.cpp:131] Top shape: 2 64 192 256 (6291456)
I1022 23:41:04.444944 12894 net.cpp:139] Memory required for data: 124257536
I1022 23:41:04.444947 12894 layer_factory.hpp:77] Creating layer pool1
I1022 23:41:04.444977 12894 net.cpp:86] Creating Layer pool1
I1022 23:41:04.444983 12894 net.cpp:408] pool1 <- conv1
I1022 23:41:04.444988 12894 net.cpp:382] pool1 -> pool1
I1022 23:41:04.445047 12894 net.cpp:124] Setting up pool1
I1022 23:41:04.445056 12894 net.cpp:131] Top shape: 2 64 96 128 (1572864)
I1022 23:41:04.445060 12894 net.cpp:139] Memory required for data: 130548992
I1022 23:41:04.445063 12894 layer_factory.hpp:77] Creating layer pool1_pool1_0_split
I1022 23:41:04.445070 12894 net.cpp:86] Creating Layer pool1_pool1_0_split
I1022 23:41:04.445073 12894 net.cpp:408] pool1_pool1_0_split <- pool1
I1022 23:41:04.445085 12894 net.cpp:382] pool1_pool1_0_split -> pool1_pool1_0_split_0
I1022 23:41:04.445092 12894 net.cpp:382] pool1_pool1_0_split -> pool1_pool1_0_split_1
I1022 23:41:04.445128 12894 net.cpp:124] Setting up pool1_pool1_0_split
I1022 23:41:04.445158 12894 net.cpp:131] Top shape: 2 64 96 128 (1572864)
I1022 23:41:04.445163 12894 net.cpp:131] Top shape: 2 64 96 128 (1572864)
I1022 23:41:04.445166 12894 net.cpp:139] Memory required for data: 143131904
I1022 23:41:04.445169 12894 layer_factory.hpp:77] Creating layer res2a_branch1
I1022 23:41:04.445186 12894 net.cpp:86] Creating Layer res2a_branch1
I1022 23:41:04.445190 12894 net.cpp:408] res2a_branch1 <- pool1_pool1_0_split_0
I1022 23:41:04.445197 12894 net.cpp:382] res2a_branch1 -> res2a_branch1
I1022 23:41:04.446696 12894 net.cpp:124] Setting up res2a_branch1
I1022 23:41:04.446727 12894 net.cpp:131] Top shape: 2 256 96 128 (6291456)
I1022 23:41:04.446732 12894 net.cpp:139] Memory required for data: 168297728
I1022 23:41:04.446738 12894 layer_factory.hpp:77] Creating layer bn2a_branch1
I1022 23:41:04.446756 12894 net.cpp:86] Creating Layer bn2a_branch1
I1022 23:41:04.446760 12894 net.cpp:408] bn2a_branch1 <- res2a_branch1
I1022 23:41:04.446771 12894 net.cpp:369] bn2a_branch1 -> res2a_branch1 (in-place)
I1022 23:41:04.446974 12894 net.cpp:124] Setting up bn2a_branch1
I1022 23:41:04.446983 12894 net.cpp:131] Top shape: 2 256 96 128 (6291456)
I1022 23:41:04.446986 12894 net.cpp:139] Memory required for data: 193463552
I1022 23:41:04.446995 12894 layer_factory.hpp:77] Creating layer scale2a_branch1
I1022 23:41:04.447003 12894 net.cpp:86] Creating Layer scale2a_branch1
I1022 23:41:04.447006 12894 net.cpp:408] scale2a_branch1 <- res2a_branch1
I1022 23:41:04.447012 12894 net.cpp:369] scale2a_branch1 -> res2a_branch1 (in-place)
I1022 23:41:04.447051 12894 layer_factory.hpp:77] Creating layer scale2a_branch1
I1022 23:41:04.447178 12894 net.cpp:124] Setting up scale2a_branch1
I1022 23:41:04.447187 12894 net.cpp:131] Top shape: 2 256 96 128 (6291456)
I1022 23:41:04.447190 12894 net.cpp:139] Memory required for data: 218629376
I1022 23:41:04.447197 12894 layer_factory.hpp:77] Creating layer res2a_branch2a
I1022 23:41:04.447206 12894 net.cpp:86] Creating Layer res2a_branch2a
I1022 23:41:04.447209 12894 net.cpp:408] res2a_branch2a <- pool1_pool1_0_split_1
I1022 23:41:04.447222 12894 net.cpp:382] res2a_branch2a -> res2a_branch2a
I1022 23:41:04.449669 12894 net.cpp:124] Setting up res2a_branch2a
I1022 23:41:04.449702 12894 net.cpp:131] Top shape: 2 64 96 128 (1572864)
I1022 23:41:04.449707 12894 net.cpp:139] Memory required for data: 224920832
I1022 23:41:04.449712 12894 layer_factory.hpp:77] Creating layer bn2a_branch2a
I1022 23:41:04.449723 12894 net.cpp:86] Creating Layer bn2a_branch2a
I1022 23:41:04.449728 12894 net.cpp:408] bn2a_branch2a <- res2a_branch2a
I1022 23:41:04.449734 12894 net.cpp:369] bn2a_branch2a -> res2a_branch2a (in-place)
I1022 23:41:04.449954 12894 net.cpp:124] Setting up bn2a_branch2a
I1022 23:41:04.449964 12894 net.cpp:131] Top shape: 2 64 96 128 (1572864)
I1022 23:41:04.449967 12894 net.cpp:139] Memory required for data: 231212288
I1022 23:41:04.449995 12894 layer_factory.hpp:77] Creating layer scale2a_branch2a
I1022 23:41:04.450004 12894 net.cpp:86] Creating Layer scale2a_branch2a
I1022 23:41:04.450008 12894 net.cpp:408] scale2a_branch2a <- res2a_branch2a
I1022 23:41:04.450014 12894 net.cpp:369] scale2a_branch2a -> res2a_branch2a (in-place)
I1022 23:41:04.450063 12894 layer_factory.hpp:77] Creating layer scale2a_branch2a
I1022 23:41:04.450213 12894 net.cpp:124] Setting up scale2a_branch2a
I1022 23:41:04.450223 12894 net.cpp:131] Top shape: 2 64 96 128 (1572864)
I1022 23:41:04.450227 12894 net.cpp:139] Memory required for data: 237503744
I1022 23:41:04.450237 12894 layer_factory.hpp:77] Creating layer res2a_branch2a_relu
I1022 23:41:04.450248 12894 net.cpp:86] Creating Layer res2a_branch2a_relu
I1022 23:41:04.450250 12894 net.cpp:408] res2a_branch2a_relu <- res2a_branch2a
I1022 23:41:04.450256 12894 net.cpp:369] res2a_branch2a_relu -> res2a_branch2a (in-place)
I1022 23:41:04.450469 12894 net.cpp:124] Setting up res2a_branch2a_relu
I1022 23:41:04.450480 12894 net.cpp:131] Top shape: 2 64 96 128 (1572864)
I1022 23:41:04.450484 12894 net.cpp:139] Memory required for data: 243795200
I1022 23:41:04.450487 12894 layer_factory.hpp:77] Creating layer res2a_branch2b
I1022 23:41:04.450510 12894 net.cpp:86] Creating Layer res2a_branch2b
I1022 23:41:04.450515 12894 net.cpp:408] res2a_branch2b <- res2a_branch2a
I1022 23:41:04.450531 12894 net.cpp:382] res2a_branch2b -> res2a_branch2b
I1022 23:41:04.451784 12894 net.cpp:124] Setting up res2a_branch2b
I1022 23:41:04.451812 12894 net.cpp:131] Top shape: 2 64 96 128 (1572864)
I1022 23:41:04.451817 12894 net.cpp:139] Memory required for data: 250086656
I1022 23:41:04.451831 12894 layer_factory.hpp:77] Creating layer bn2a_branch2b
I1022 23:41:04.451838 12894 net.cpp:86] Creating Layer bn2a_branch2b
I1022 23:41:04.451843 12894 net.cpp:408] bn2a_branch2b <- res2a_branch2b
I1022 23:41:04.451850 12894 net.cpp:369] bn2a_branch2b -> res2a_branch2b (in-place)
I1022 23:41:04.452075 12894 net.cpp:124] Setting up bn2a_branch2b
I1022 23:41:04.452085 12894 net.cpp:131] Top shape: 2 64 96 128 (1572864)
I1022 23:41:04.452088 12894 net.cpp:139] Memory required for data: 256378112
I1022 23:41:04.452095 12894 layer_factory.hpp:77] Creating layer scale2a_branch2b
I1022 23:41:04.452105 12894 net.cpp:86] Creating Layer scale2a_branch2b
I1022 23:41:04.452108 12894 net.cpp:408] scale2a_branch2b <- res2a_branch2b
I1022 23:41:04.452113 12894 net.cpp:369] scale2a_branch2b -> res2a_branch2b (in-place)
I1022 23:41:04.452155 12894 layer_factory.hpp:77] Creating layer scale2a_branch2b
I1022 23:41:04.452307 12894 net.cpp:124] Setting up scale2a_branch2b
I1022 23:41:04.452316 12894 net.cpp:131] Top shape: 2 64 96 128 (1572864)
I1022 23:41:04.452320 12894 net.cpp:139] Memory required for data: 262669568
I1022 23:41:04.452327 12894 layer_factory.hpp:77] Creating layer res2a_branch2b_relu
I1022 23:41:04.452333 12894 net.cpp:86] Creating Layer res2a_branch2b_relu
I1022 23:41:04.452338 12894 net.cpp:408] res2a_branch2b_relu <- res2a_branch2b
I1022 23:41:04.452342 12894 net.cpp:369] res2a_branch2b_relu -> res2a_branch2b (in-place)
I1022 23:41:04.452926 12894 net.cpp:124] Setting up res2a_branch2b_relu
I1022 23:41:04.452944 12894 net.cpp:131] Top shape: 2 64 96 128 (1572864)
I1022 23:41:04.452960 12894 net.cpp:139] Memory required for data: 268961024
I1022 23:41:04.452972 12894 layer_factory.hpp:77] Creating layer res2a_branch2c
I1022 23:41:04.452982 12894 net.cpp:86] Creating Layer res2a_branch2c
I1022 23:41:04.452986 12894 net.cpp:408] res2a_branch2c <- res2a_branch2b
I1022 23:41:04.453003 12894 net.cpp:382] res2a_branch2c -> res2a_branch2c
I1022 23:41:04.454289 12894 net.cpp:124] Setting up res2a_branch2c
I1022 23:41:04.454319 12894 net.cpp:131] Top shape: 2 256 96 128 (6291456)
I1022 23:41:04.454324 12894 net.cpp:139] Memory required for data: 294126848
I1022 23:41:04.454330 12894 layer_factory.hpp:77] Creating layer bn2a_branch2c
I1022 23:41:04.454339 12894 net.cpp:86] Creating Layer bn2a_branch2c
I1022 23:41:04.454342 12894 net.cpp:408] bn2a_branch2c <- res2a_branch2c
I1022 23:41:04.454349 12894 net.cpp:369] bn2a_branch2c -> res2a_branch2c (in-place)
I1022 23:41:04.454586 12894 net.cpp:124] Setting up bn2a_branch2c
I1022 23:41:04.454596 12894 net.cpp:131] Top shape: 2 256 96 128 (6291456)
I1022 23:41:04.454598 12894 net.cpp:139] Memory required for data: 319292672
I1022 23:41:04.454605 12894 layer_factory.hpp:77] Creating layer scale2a_branch2c
I1022 23:41:04.454612 12894 net.cpp:86] Creating Layer scale2a_branch2c
I1022 23:41:04.454617 12894 net.cpp:408] scale2a_branch2c <- res2a_branch2c
I1022 23:41:04.454634 12894 net.cpp:369] scale2a_branch2c -> res2a_branch2c (in-place)
I1022 23:41:04.454674 12894 layer_factory.hpp:77] Creating layer scale2a_branch2c
I1022 23:41:04.454813 12894 net.cpp:124] Setting up scale2a_branch2c
I1022 23:41:04.454823 12894 net.cpp:131] Top shape: 2 256 96 128 (6291456)
I1022 23:41:04.454826 12894 net.cpp:139] Memory required for data: 344458496
I1022 23:41:04.454833 12894 layer_factory.hpp:77] Creating layer res2a
I1022 23:41:04.454851 12894 net.cpp:86] Creating Layer res2a
I1022 23:41:04.454855 12894 net.cpp:408] res2a <- res2a_branch1
I1022 23:41:04.454860 12894 net.cpp:408] res2a <- res2a_branch2c
I1022 23:41:04.454880 12894 net.cpp:382] res2a -> res2a
I1022 23:41:04.454910 12894 net.cpp:124] Setting up res2a
I1022 23:41:04.454917 12894 net.cpp:131] Top shape: 2 256 96 128 (6291456)
I1022 23:41:04.454921 12894 net.cpp:139] Memory required for data: 369624320
I1022 23:41:04.454924 12894 layer_factory.hpp:77] Creating layer res2a_relu
I1022 23:41:04.454931 12894 net.cpp:86] Creating Layer res2a_relu
I1022 23:41:04.454936 12894 net.cpp:408] res2a_relu <- res2a
I1022 23:41:04.454947 12894 net.cpp:369] res2a_relu -> res2a (in-place)
I1022 23:41:04.455164 12894 net.cpp:124] Setting up res2a_relu
I1022 23:41:04.455174 12894 net.cpp:131] Top shape: 2 256 96 128 (6291456)
I1022 23:41:04.455178 12894 net.cpp:139] Memory required for data: 394790144
I1022 23:41:04.455181 12894 layer_factory.hpp:77] Creating layer res2a_res2a_relu_0_split
I1022 23:41:04.455186 12894 net.cpp:86] Creating Layer res2a_res2a_relu_0_split
I1022 23:41:04.455190 12894 net.cpp:408] res2a_res2a_relu_0_split <- res2a
I1022 23:41:04.455197 12894 net.cpp:382] res2a_res2a_relu_0_split -> res2a_res2a_relu_0_split_0
I1022 23:41:04.455219 12894 net.cpp:382] res2a_res2a_relu_0_split -> res2a_res2a_relu_0_split_1
I1022 23:41:04.455262 12894 net.cpp:124] Setting up res2a_res2a_relu_0_split
I1022 23:41:04.455271 12894 net.cpp:131] Top shape: 2 256 96 128 (6291456)
I1022 23:41:04.455276 12894 net.cpp:131] Top shape: 2 256 96 128 (6291456)
I1022 23:41:04.455278 12894 net.cpp:139] Memory required for data: 445121792
I1022 23:41:04.455281 12894 layer_factory.hpp:77] Creating layer res2b_branch2a
I1022 23:41:04.455298 12894 net.cpp:86] Creating Layer res2b_branch2a
I1022 23:41:04.455302 12894 net.cpp:408] res2b_branch2a <- res2a_res2a_relu_0_split_0
I1022 23:41:04.455312 12894 net.cpp:382] res2b_branch2a -> res2b_branch2a
I1022 23:41:04.456565 12894 net.cpp:124] Setting up res2b_branch2a
I1022 23:41:04.456581 12894 net.cpp:131] Top shape: 2 64 96 128 (1572864)
I1022 23:41:04.456585 12894 net.cpp:139] Memory required for data: 451413248
I1022 23:41:04.456591 12894 layer_factory.hpp:77] Creating layer bn2b_branch2a
I1022 23:41:04.456600 12894 net.cpp:86] Creating Layer bn2b_branch2a
I1022 23:41:04.456605 12894 net.cpp:408] bn2b_branch2a <- res2b_branch2a
I1022 23:41:04.456626 12894 net.cpp:369] bn2b_branch2a -> res2b_branch2a (in-place)
I1022 23:41:04.456846 12894 net.cpp:124] Setting up bn2b_branch2a
I1022 23:41:04.456856 12894 net.cpp:131] Top shape: 2 64 96 128 (1572864)
I1022 23:41:04.456859 12894 net.cpp:139] Memory required for data: 457704704
I1022 23:41:04.456874 12894 layer_factory.hpp:77] Creating layer scale2b_branch2a
I1022 23:41:04.456883 12894 net.cpp:86] Creating Layer scale2b_branch2a
I1022 23:41:04.456887 12894 net.cpp:408] scale2b_branch2a <- res2b_branch2a
I1022 23:41:04.456903 12894 net.cpp:369] scale2b_branch2a -> res2b_branch2a (in-place)
I1022 23:41:04.456951 12894 layer_factory.hpp:77] Creating layer scale2b_branch2a
I1022 23:41:04.457098 12894 net.cpp:124] Setting up scale2b_branch2a
I1022 23:41:04.457108 12894 net.cpp:131] Top shape: 2 64 96 128 (1572864)
I1022 23:41:04.457111 12894 net.cpp:139] Memory required for data: 463996160
I1022 23:41:04.457118 12894 layer_factory.hpp:77] Creating layer res2b_branch2a_relu
I1022 23:41:04.457123 12894 net.cpp:86] Creating Layer res2b_branch2a_relu
I1022 23:41:04.457128 12894 net.cpp:408] res2b_branch2a_relu <- res2b_branch2a
I1022 23:41:04.457135 12894 net.cpp:369] res2b_branch2a_relu -> res2b_branch2a (in-place)
I1022 23:41:04.457352 12894 net.cpp:124] Setting up res2b_branch2a_relu
I1022 23:41:04.457362 12894 net.cpp:131] Top shape: 2 64 96 128 (1572864)
I1022 23:41:04.457366 12894 net.cpp:139] Memory required for data: 470287616
I1022 23:41:04.457379 12894 layer_factory.hpp:77] Creating layer res2b_branch2b
I1022 23:41:04.457389 12894 net.cpp:86] Creating Layer res2b_branch2b
I1022 23:41:04.457392 12894 net.cpp:408] res2b_branch2b <- res2b_branch2a
I1022 23:41:04.457401 12894 net.cpp:382] res2b_branch2b -> res2b_branch2b
I1022 23:41:04.458976 12894 net.cpp:124] Setting up res2b_branch2b
I1022 23:41:04.459014 12894 net.cpp:131] Top shape: 2 64 96 128 (1572864)
I1022 23:41:04.459018 12894 net.cpp:139] Memory required for data: 476579072
I1022 23:41:04.459025 12894 layer_factory.hpp:77] Creating layer bn2b_branch2b
I1022 23:41:04.459040 12894 net.cpp:86] Creating Layer bn2b_branch2b
I1022 23:41:04.459060 12894 net.cpp:408] bn2b_branch2b <- res2b_branch2b
I1022 23:41:04.459066 12894 net.cpp:369] bn2b_branch2b -> res2b_branch2b (in-place)
I1022 23:41:04.459295 12894 net.cpp:124] Setting up bn2b_branch2b
I1022 23:41:04.459306 12894 net.cpp:131] Top shape: 2 64 96 128 (1572864)
I1022 23:41:04.459308 12894 net.cpp:139] Memory required for data: 482870528
I1022 23:41:04.459316 12894 layer_factory.hpp:77] Creating layer scale2b_branch2b
I1022 23:41:04.459332 12894 net.cpp:86] Creating Layer scale2b_branch2b
I1022 23:41:04.459337 12894 net.cpp:408] scale2b_branch2b <- res2b_branch2b
I1022 23:41:04.459349 12894 net.cpp:369] scale2b_branch2b -> res2b_branch2b (in-place)
I1022 23:41:04.459400 12894 layer_factory.hpp:77] Creating layer scale2b_branch2b
I1022 23:41:04.459553 12894 net.cpp:124] Setting up scale2b_branch2b
I1022 23:41:04.459563 12894 net.cpp:131] Top shape: 2 64 96 128 (1572864)
I1022 23:41:04.459566 12894 net.cpp:139] Memory required for data: 489161984
I1022 23:41:04.459573 12894 layer_factory.hpp:77] Creating layer res2b_branch2b_relu
I1022 23:41:04.459579 12894 net.cpp:86] Creating Layer res2b_branch2b_relu
I1022 23:41:04.459583 12894 net.cpp:408] res2b_branch2b_relu <- res2b_branch2b
I1022 23:41:04.459590 12894 net.cpp:369] res2b_branch2b_relu -> res2b_branch2b (in-place)
I1022 23:41:04.460263 12894 net.cpp:124] Setting up res2b_branch2b_relu
I1022 23:41:04.460278 12894 net.cpp:131] Top shape: 2 64 96 128 (1572864)
I1022 23:41:04.460281 12894 net.cpp:139] Memory required for data: 495453440
I1022 23:41:04.460285 12894 layer_factory.hpp:77] Creating layer res2b_branch2c
I1022 23:41:04.460312 12894 net.cpp:86] Creating Layer res2b_branch2c
I1022 23:41:04.460319 12894 net.cpp:408] res2b_branch2c <- res2b_branch2b
I1022 23:41:04.460338 12894 net.cpp:382] res2b_branch2c -> res2b_branch2c
I1022 23:41:04.461599 12894 net.cpp:124] Setting up res2b_branch2c
I1022 23:41:04.461616 12894 net.cpp:131] Top shape: 2 256 96 128 (6291456)
I1022 23:41:04.461619 12894 net.cpp:139] Memory required for data: 520619264
I1022 23:41:04.461627 12894 layer_factory.hpp:77] Creating layer bn2b_branch2c
I1022 23:41:04.461652 12894 net.cpp:86] Creating Layer bn2b_branch2c
I1022 23:41:04.461655 12894 net.cpp:408] bn2b_branch2c <- res2b_branch2c
I1022 23:41:04.461663 12894 net.cpp:369] bn2b_branch2c -> res2b_branch2c (in-place)
I1022 23:41:04.461886 12894 net.cpp:124] Setting up bn2b_branch2c
I1022 23:41:04.461896 12894 net.cpp:131] Top shape: 2 256 96 128 (6291456)
I1022 23:41:04.461899 12894 net.cpp:139] Memory required for data: 545785088
I1022 23:41:04.461915 12894 layer_factory.hpp:77] Creating layer scale2b_branch2c
I1022 23:41:04.461925 12894 net.cpp:86] Creating Layer scale2b_branch2c
I1022 23:41:04.461927 12894 net.cpp:408] scale2b_branch2c <- res2b_branch2c
I1022 23:41:04.461941 12894 net.cpp:369] scale2b_branch2c -> res2b_branch2c (in-place)
I1022 23:41:04.461983 12894 layer_factory.hpp:77] Creating layer scale2b_branch2c
I1022 23:41:04.462127 12894 net.cpp:124] Setting up scale2b_branch2c
I1022 23:41:04.462137 12894 net.cpp:131] Top shape: 2 256 96 128 (6291456)
I1022 23:41:04.462141 12894 net.cpp:139] Memory required for data: 570950912
I1022 23:41:04.462147 12894 layer_factory.hpp:77] Creating layer res2b
I1022 23:41:04.462157 12894 net.cpp:86] Creating Layer res2b
I1022 23:41:04.462162 12894 net.cpp:408] res2b <- res2a_res2a_relu_0_split_1
I1022 23:41:04.462165 12894 net.cpp:408] res2b <- res2b_branch2c
I1022 23:41:04.462170 12894 net.cpp:382] res2b -> res2b
I1022 23:41:04.462199 12894 net.cpp:124] Setting up res2b
I1022 23:41:04.462208 12894 net.cpp:131] Top shape: 2 256 96 128 (6291456)
I1022 23:41:04.462210 12894 net.cpp:139] Memory required for data: 596116736
I1022 23:41:04.462213 12894 layer_factory.hpp:77] Creating layer res2b_relu
I1022 23:41:04.462231 12894 net.cpp:86] Creating Layer res2b_relu
I1022 23:41:04.462235 12894 net.cpp:408] res2b_relu <- res2b
I1022 23:41:04.462242 12894 net.cpp:369] res2b_relu -> res2b (in-place)
I1022 23:41:04.462463 12894 net.cpp:124] Setting up res2b_relu
I1022 23:41:04.462476 12894 net.cpp:131] Top shape: 2 256 96 128 (6291456)
I1022 23:41:04.462478 12894 net.cpp:139] Memory required for data: 621282560
I1022 23:41:04.462481 12894 layer_factory.hpp:77] Creating layer res2b_res2b_relu_0_split
I1022 23:41:04.462494 12894 net.cpp:86] Creating Layer res2b_res2b_relu_0_split
I1022 23:41:04.462498 12894 net.cpp:408] res2b_res2b_relu_0_split <- res2b
I1022 23:41:04.462507 12894 net.cpp:382] res2b_res2b_relu_0_split -> res2b_res2b_relu_0_split_0
I1022 23:41:04.462513 12894 net.cpp:382] res2b_res2b_relu_0_split -> res2b_res2b_relu_0_split_1
I1022 23:41:04.462560 12894 net.cpp:124] Setting up res2b_res2b_relu_0_split
I1022 23:41:04.462568 12894 net.cpp:131] Top shape: 2 256 96 128 (6291456)
I1022 23:41:04.462572 12894 net.cpp:131] Top shape: 2 256 96 128 (6291456)
I1022 23:41:04.462575 12894 net.cpp:139] Memory required for data: 671614208
I1022 23:41:04.462579 12894 layer_factory.hpp:77] Creating layer res2c_branch2a
I1022 23:41:04.462589 12894 net.cpp:86] Creating Layer res2c_branch2a
I1022 23:41:04.462592 12894 net.cpp:408] res2c_branch2a <- res2b_res2b_relu_0_split_0
I1022 23:41:04.462606 12894 net.cpp:382] res2c_branch2a -> res2c_branch2a
I1022 23:41:04.463840 12894 net.cpp:124] Setting up res2c_branch2a
I1022 23:41:04.463856 12894 net.cpp:131] Top shape: 2 64 96 128 (1572864)
I1022 23:41:04.463871 12894 net.cpp:139] Memory required for data: 677905664
I1022 23:41:04.463877 12894 layer_factory.hpp:77] Creating layer bn2c_branch2a
I1022 23:41:04.463886 12894 net.cpp:86] Creating Layer bn2c_branch2a
I1022 23:41:04.463891 12894 net.cpp:408] bn2c_branch2a <- res2c_branch2a
I1022 23:41:04.463898 12894 net.cpp:369] bn2c_branch2a -> res2c_branch2a (in-place)
I1022 23:41:04.464126 12894 net.cpp:124] Setting up bn2c_branch2a
I1022 23:41:04.464135 12894 net.cpp:131] Top shape: 2 64 96 128 (1572864)
I1022 23:41:04.464139 12894 net.cpp:139] Memory required for data: 684197120
I1022 23:41:04.464148 12894 layer_factory.hpp:77] Creating layer scale2c_branch2a
I1022 23:41:04.464169 12894 net.cpp:86] Creating Layer scale2c_branch2a
I1022 23:41:04.464172 12894 net.cpp:408] scale2c_branch2a <- res2c_branch2a
I1022 23:41:04.464185 12894 net.cpp:369] scale2c_branch2a -> res2c_branch2a (in-place)
I1022 23:41:04.464231 12894 layer_factory.hpp:77] Creating layer scale2c_branch2a
I1022 23:41:04.464385 12894 net.cpp:124] Setting up scale2c_branch2a
I1022 23:41:04.464395 12894 net.cpp:131] Top shape: 2 64 96 128 (1572864)
I1022 23:41:04.464399 12894 net.cpp:139] Memory required for data: 690488576
I1022 23:41:04.464406 12894 layer_factory.hpp:77] Creating layer res2c_branch2a_relu
I1022 23:41:04.464411 12894 net.cpp:86] Creating Layer res2c_branch2a_relu
I1022 23:41:04.464416 12894 net.cpp:408] res2c_branch2a_relu <- res2c_branch2a
I1022 23:41:04.464424 12894 net.cpp:369] res2c_branch2a_relu -> res2c_branch2a (in-place)
I1022 23:41:04.464648 12894 net.cpp:124] Setting up res2c_branch2a_relu
I1022 23:41:04.464659 12894 net.cpp:131] Top shape: 2 64 96 128 (1572864)
I1022 23:41:04.464663 12894 net.cpp:139] Memory required for data: 696780032
I1022 23:41:04.464666 12894 layer_factory.hpp:77] Creating layer res2c_branch2b
I1022 23:41:04.464676 12894 net.cpp:86] Creating Layer res2c_branch2b
I1022 23:41:04.464680 12894 net.cpp:408] res2c_branch2b <- res2c_branch2a
I1022 23:41:04.464695 12894 net.cpp:382] res2c_branch2b -> res2c_branch2b
I1022 23:41:04.465945 12894 net.cpp:124] Setting up res2c_branch2b
I1022 23:41:04.465960 12894 net.cpp:131] Top shape: 2 64 96 128 (1572864)
I1022 23:41:04.465975 12894 net.cpp:139] Memory required for data: 703071488
I1022 23:41:04.465981 12894 layer_factory.hpp:77] Creating layer bn2c_branch2b
I1022 23:41:04.465997 12894 net.cpp:86] Creating Layer bn2c_branch2b
I1022 23:41:04.466002 12894 net.cpp:408] bn2c_branch2b <- res2c_branch2b
I1022 23:41:04.466022 12894 net.cpp:369] bn2c_branch2b -> res2c_branch2b (in-place)
I1022 23:41:04.466253 12894 net.cpp:124] Setting up bn2c_branch2b
I1022 23:41:04.466262 12894 net.cpp:131] Top shape: 2 64 96 128 (1572864)
I1022 23:41:04.466266 12894 net.cpp:139] Memory required for data: 709362944
I1022 23:41:04.466274 12894 layer_factory.hpp:77] Creating layer scale2c_branch2b
I1022 23:41:04.466280 12894 net.cpp:86] Creating Layer scale2c_branch2b
I1022 23:41:04.466284 12894 net.cpp:408] scale2c_branch2b <- res2c_branch2b
I1022 23:41:04.466306 12894 net.cpp:369] scale2c_branch2b -> res2c_branch2b (in-place)
I1022 23:41:04.466351 12894 layer_factory.hpp:77] Creating layer scale2c_branch2b
I1022 23:41:04.466503 12894 net.cpp:124] Setting up scale2c_branch2b
I1022 23:41:04.466513 12894 net.cpp:131] Top shape: 2 64 96 128 (1572864)
I1022 23:41:04.466516 12894 net.cpp:139] Memory required for data: 715654400
I1022 23:41:04.466522 12894 layer_factory.hpp:77] Creating layer res2c_branch2b_relu
I1022 23:41:04.466527 12894 net.cpp:86] Creating Layer res2c_branch2b_relu
I1022 23:41:04.466532 12894 net.cpp:408] res2c_branch2b_relu <- res2c_branch2b
I1022 23:41:04.466538 12894 net.cpp:369] res2c_branch2b_relu -> res2c_branch2b (in-place)
I1022 23:41:04.466761 12894 net.cpp:124] Setting up res2c_branch2b_relu
I1022 23:41:04.466771 12894 net.cpp:131] Top shape: 2 64 96 128 (1572864)
I1022 23:41:04.466775 12894 net.cpp:139] Memory required for data: 721945856
I1022 23:41:04.466779 12894 layer_factory.hpp:77] Creating layer res2c_branch2c
I1022 23:41:04.466789 12894 net.cpp:86] Creating Layer res2c_branch2c
I1022 23:41:04.466792 12894 net.cpp:408] res2c_branch2c <- res2c_branch2b
I1022 23:41:04.466801 12894 net.cpp:382] res2c_branch2c -> res2c_branch2c
I1022 23:41:04.468068 12894 net.cpp:124] Setting up res2c_branch2c
I1022 23:41:04.468083 12894 net.cpp:131] Top shape: 2 256 96 128 (6291456)
I1022 23:41:04.468098 12894 net.cpp:139] Memory required for data: 747111680
I1022 23:41:04.468114 12894 layer_factory.hpp:77] Creating layer bn2c_branch2c
I1022 23:41:04.468123 12894 net.cpp:86] Creating Layer bn2c_branch2c
I1022 23:41:04.468127 12894 net.cpp:408] bn2c_branch2c <- res2c_branch2c
I1022 23:41:04.468134 12894 net.cpp:369] bn2c_branch2c -> res2c_branch2c (in-place)
I1022 23:41:04.468374 12894 net.cpp:124] Setting up bn2c_branch2c
I1022 23:41:04.468384 12894 net.cpp:131] Top shape: 2 256 96 128 (6291456)
I1022 23:41:04.468387 12894 net.cpp:139] Memory required for data: 772277504
I1022 23:41:04.468395 12894 layer_factory.hpp:77] Creating layer scale2c_branch2c
I1022 23:41:04.468402 12894 net.cpp:86] Creating Layer scale2c_branch2c
I1022 23:41:04.468405 12894 net.cpp:408] scale2c_branch2c <- res2c_branch2c
I1022 23:41:04.468418 12894 net.cpp:369] scale2c_branch2c -> res2c_branch2c (in-place)
I1022 23:41:04.468485 12894 layer_factory.hpp:77] Creating layer scale2c_branch2c
I1022 23:41:04.468628 12894 net.cpp:124] Setting up scale2c_branch2c
I1022 23:41:04.468638 12894 net.cpp:131] Top shape: 2 256 96 128 (6291456)
I1022 23:41:04.468641 12894 net.cpp:139] Memory required for data: 797443328
I1022 23:41:04.468662 12894 layer_factory.hpp:77] Creating layer res2c
I1022 23:41:04.468670 12894 net.cpp:86] Creating Layer res2c
I1022 23:41:04.468674 12894 net.cpp:408] res2c <- res2b_res2b_relu_0_split_1
I1022 23:41:04.468678 12894 net.cpp:408] res2c <- res2c_branch2c
I1022 23:41:04.468685 12894 net.cpp:382] res2c -> res2c
I1022 23:41:04.468713 12894 net.cpp:124] Setting up res2c
I1022 23:41:04.468720 12894 net.cpp:131] Top shape: 2 256 96 128 (6291456)
I1022 23:41:04.468724 12894 net.cpp:139] Memory required for data: 822609152
I1022 23:41:04.468734 12894 layer_factory.hpp:77] Creating layer res2c_relu
I1022 23:41:04.468741 12894 net.cpp:86] Creating Layer res2c_relu
I1022 23:41:04.468745 12894 net.cpp:408] res2c_relu <- res2c
I1022 23:41:04.468755 12894 net.cpp:369] res2c_relu -> res2c (in-place)
I1022 23:41:04.469339 12894 net.cpp:124] Setting up res2c_relu
I1022 23:41:04.469354 12894 net.cpp:131] Top shape: 2 256 96 128 (6291456)
I1022 23:41:04.469382 12894 net.cpp:139] Memory required for data: 847774976
I1022 23:41:04.469386 12894 layer_factory.hpp:77] Creating layer res2c_res2c_relu_0_split
I1022 23:41:04.469394 12894 net.cpp:86] Creating Layer res2c_res2c_relu_0_split
I1022 23:41:04.469399 12894 net.cpp:408] res2c_res2c_relu_0_split <- res2c
I1022 23:41:04.469405 12894 net.cpp:382] res2c_res2c_relu_0_split -> res2c_res2c_relu_0_split_0
I1022 23:41:04.469413 12894 net.cpp:382] res2c_res2c_relu_0_split -> res2c_res2c_relu_0_split_1
I1022 23:41:04.469461 12894 net.cpp:124] Setting up res2c_res2c_relu_0_split
I1022 23:41:04.469471 12894 net.cpp:131] Top shape: 2 256 96 128 (6291456)
I1022 23:41:04.469475 12894 net.cpp:131] Top shape: 2 256 96 128 (6291456)
I1022 23:41:04.469478 12894 net.cpp:139] Memory required for data: 898106624
I1022 23:41:04.469481 12894 layer_factory.hpp:77] Creating layer res3a_branch1
I1022 23:41:04.469491 12894 net.cpp:86] Creating Layer res3a_branch1
I1022 23:41:04.469496 12894 net.cpp:408] res3a_branch1 <- res2c_res2c_relu_0_split_0
I1022 23:41:04.469503 12894 net.cpp:382] res3a_branch1 -> res3a_branch1
I1022 23:41:04.472095 12894 net.cpp:124] Setting up res3a_branch1
I1022 23:41:04.472122 12894 net.cpp:131] Top shape: 2 512 48 64 (3145728)
I1022 23:41:04.472126 12894 net.cpp:139] Memory required for data: 910689536
I1022 23:41:04.472132 12894 layer_factory.hpp:77] Creating layer bn3a_branch1
I1022 23:41:04.472152 12894 net.cpp:86] Creating Layer bn3a_branch1
I1022 23:41:04.472157 12894 net.cpp:408] bn3a_branch1 <- res3a_branch1
I1022 23:41:04.472165 12894 net.cpp:369] bn3a_branch1 -> res3a_branch1 (in-place)
I1022 23:41:04.473680 12894 net.cpp:124] Setting up bn3a_branch1
I1022 23:41:04.473695 12894 net.cpp:131] Top shape: 2 512 48 64 (3145728)
I1022 23:41:04.473714 12894 net.cpp:139] Memory required for data: 923272448
I1022 23:41:04.473723 12894 layer_factory.hpp:77] Creating layer scale3a_branch1
I1022 23:41:04.473731 12894 net.cpp:86] Creating Layer scale3a_branch1
I1022 23:41:04.473734 12894 net.cpp:408] scale3a_branch1 <- res3a_branch1
I1022 23:41:04.473743 12894 net.cpp:369] scale3a_branch1 -> res3a_branch1 (in-place)
I1022 23:41:04.473788 12894 layer_factory.hpp:77] Creating layer scale3a_branch1
I1022 23:41:04.473912 12894 net.cpp:124] Setting up scale3a_branch1
I1022 23:41:04.473922 12894 net.cpp:131] Top shape: 2 512 48 64 (3145728)
I1022 23:41:04.473927 12894 net.cpp:139] Memory required for data: 935855360
I1022 23:41:04.473932 12894 layer_factory.hpp:77] Creating layer res3a_branch2a
I1022 23:41:04.473942 12894 net.cpp:86] Creating Layer res3a_branch2a
I1022 23:41:04.473947 12894 net.cpp:408] res3a_branch2a <- res2c_res2c_relu_0_split_1
I1022 23:41:04.473954 12894 net.cpp:382] res3a_branch2a -> res3a_branch2a
I1022 23:41:04.475257 12894 net.cpp:124] Setting up res3a_branch2a
I1022 23:41:04.475272 12894 net.cpp:131] Top shape: 2 128 48 64 (786432)
I1022 23:41:04.475292 12894 net.cpp:139] Memory required for data: 939001088
I1022 23:41:04.475299 12894 layer_factory.hpp:77] Creating layer bn3a_branch2a
I1022 23:41:04.475317 12894 net.cpp:86] Creating Layer bn3a_branch2a
I1022 23:41:04.475322 12894 net.cpp:408] bn3a_branch2a <- res3a_branch2a
I1022 23:41:04.475334 12894 net.cpp:369] bn3a_branch2a -> res3a_branch2a (in-place)
I1022 23:41:04.475548 12894 net.cpp:124] Setting up bn3a_branch2a
I1022 23:41:04.475556 12894 net.cpp:131] Top shape: 2 128 48 64 (786432)
I1022 23:41:04.475559 12894 net.cpp:139] Memory required for data: 942146816
I1022 23:41:04.475567 12894 layer_factory.hpp:77] Creating layer scale3a_branch2a
I1022 23:41:04.475577 12894 net.cpp:86] Creating Layer scale3a_branch2a
I1022 23:41:04.475580 12894 net.cpp:408] scale3a_branch2a <- res3a_branch2a
I1022 23:41:04.475585 12894 net.cpp:369] scale3a_branch2a -> res3a_branch2a (in-place)
I1022 23:41:04.475632 12894 layer_factory.hpp:77] Creating layer scale3a_branch2a
I1022 23:41:04.475755 12894 net.cpp:124] Setting up scale3a_branch2a
I1022 23:41:04.475764 12894 net.cpp:131] Top shape: 2 128 48 64 (786432)
I1022 23:41:04.475783 12894 net.cpp:139] Memory required for data: 945292544
I1022 23:41:04.475791 12894 layer_factory.hpp:77] Creating layer res3a_branch2a_relu
I1022 23:41:04.475797 12894 net.cpp:86] Creating Layer res3a_branch2a_relu
I1022 23:41:04.475800 12894 net.cpp:408] res3a_branch2a_relu <- res3a_branch2a
I1022 23:41:04.475814 12894 net.cpp:369] res3a_branch2a_relu -> res3a_branch2a (in-place)
I1022 23:41:04.476040 12894 net.cpp:124] Setting up res3a_branch2a_relu
I1022 23:41:04.476052 12894 net.cpp:131] Top shape: 2 128 48 64 (786432)
I1022 23:41:04.476055 12894 net.cpp:139] Memory required for data: 948438272
I1022 23:41:04.476059 12894 layer_factory.hpp:77] Creating layer res3a_branch2b
I1022 23:41:04.476078 12894 net.cpp:86] Creating Layer res3a_branch2b
I1022 23:41:04.476083 12894 net.cpp:408] res3a_branch2b <- res3a_branch2a
I1022 23:41:04.476089 12894 net.cpp:382] res3a_branch2b -> res3a_branch2b
I1022 23:41:04.477833 12894 net.cpp:124] Setting up res3a_branch2b
I1022 23:41:04.477861 12894 net.cpp:131] Top shape: 2 128 48 64 (786432)
I1022 23:41:04.477865 12894 net.cpp:139] Memory required for data: 951584000
I1022 23:41:04.477874 12894 layer_factory.hpp:77] Creating layer bn3a_branch2b
I1022 23:41:04.477881 12894 net.cpp:86] Creating Layer bn3a_branch2b
I1022 23:41:04.477885 12894 net.cpp:408] bn3a_branch2b <- res3a_branch2b
I1022 23:41:04.477910 12894 net.cpp:369] bn3a_branch2b -> res3a_branch2b (in-place)
I1022 23:41:04.478133 12894 net.cpp:124] Setting up bn3a_branch2b
I1022 23:41:04.478142 12894 net.cpp:131] Top shape: 2 128 48 64 (786432)
I1022 23:41:04.478147 12894 net.cpp:139] Memory required for data: 954729728
I1022 23:41:04.478153 12894 layer_factory.hpp:77] Creating layer scale3a_branch2b
I1022 23:41:04.478170 12894 net.cpp:86] Creating Layer scale3a_branch2b
I1022 23:41:04.478174 12894 net.cpp:408] scale3a_branch2b <- res3a_branch2b
I1022 23:41:04.478179 12894 net.cpp:369] scale3a_branch2b -> res3a_branch2b (in-place)
I1022 23:41:04.478227 12894 layer_factory.hpp:77] Creating layer scale3a_branch2b
I1022 23:41:04.478351 12894 net.cpp:124] Setting up scale3a_branch2b
I1022 23:41:04.478360 12894 net.cpp:131] Top shape: 2 128 48 64 (786432)
I1022 23:41:04.478363 12894 net.cpp:139] Memory required for data: 957875456
I1022 23:41:04.478370 12894 layer_factory.hpp:77] Creating layer res3a_branch2b_relu
I1022 23:41:04.478376 12894 net.cpp:86] Creating Layer res3a_branch2b_relu
I1022 23:41:04.478380 12894 net.cpp:408] res3a_branch2b_relu <- res3a_branch2b
I1022 23:41:04.478394 12894 net.cpp:369] res3a_branch2b_relu -> res3a_branch2b (in-place)
I1022 23:41:04.478623 12894 net.cpp:124] Setting up res3a_branch2b_relu
I1022 23:41:04.478634 12894 net.cpp:131] Top shape: 2 128 48 64 (786432)
I1022 23:41:04.478637 12894 net.cpp:139] Memory required for data: 961021184
I1022 23:41:04.478648 12894 layer_factory.hpp:77] Creating layer res3a_branch2c
I1022 23:41:04.478659 12894 net.cpp:86] Creating Layer res3a_branch2c
I1022 23:41:04.478663 12894 net.cpp:408] res3a_branch2c <- res3a_branch2b
I1022 23:41:04.478673 12894 net.cpp:382] res3a_branch2c -> res3a_branch2c
I1022 23:41:04.479992 12894 net.cpp:124] Setting up res3a_branch2c
I1022 23:41:04.480008 12894 net.cpp:131] Top shape: 2 512 48 64 (3145728)
I1022 23:41:04.480023 12894 net.cpp:139] Memory required for data: 973604096
I1022 23:41:04.480031 12894 layer_factory.hpp:77] Creating layer bn3a_branch2c
I1022 23:41:04.480039 12894 net.cpp:86] Creating Layer bn3a_branch2c
I1022 23:41:04.480043 12894 net.cpp:408] bn3a_branch2c <- res3a_branch2c
I1022 23:41:04.480060 12894 net.cpp:369] bn3a_branch2c -> res3a_branch2c (in-place)
I1022 23:41:04.480283 12894 net.cpp:124] Setting up bn3a_branch2c
I1022 23:41:04.480293 12894 net.cpp:131] Top shape: 2 512 48 64 (3145728)
I1022 23:41:04.480295 12894 net.cpp:139] Memory required for data: 986187008
I1022 23:41:04.480306 12894 layer_factory.hpp:77] Creating layer scale3a_branch2c
I1022 23:41:04.480312 12894 net.cpp:86] Creating Layer scale3a_branch2c
I1022 23:41:04.480316 12894 net.cpp:408] scale3a_branch2c <- res3a_branch2c
I1022 23:41:04.480337 12894 net.cpp:369] scale3a_branch2c -> res3a_branch2c (in-place)
I1022 23:41:04.480384 12894 layer_factory.hpp:77] Creating layer scale3a_branch2c
I1022 23:41:04.480518 12894 net.cpp:124] Setting up scale3a_branch2c
I1022 23:41:04.480528 12894 net.cpp:131] Top shape: 2 512 48 64 (3145728)
I1022 23:41:04.480532 12894 net.cpp:139] Memory required for data: 998769920
I1022 23:41:04.480547 12894 layer_factory.hpp:77] Creating layer res3a
I1022 23:41:04.480557 12894 net.cpp:86] Creating Layer res3a
I1022 23:41:04.480561 12894 net.cpp:408] res3a <- res3a_branch1
I1022 23:41:04.480571 12894 net.cpp:408] res3a <- res3a_branch2c
I1022 23:41:04.480578 12894 net.cpp:382] res3a -> res3a
I1022 23:41:04.480607 12894 net.cpp:124] Setting up res3a
I1022 23:41:04.480613 12894 net.cpp:131] Top shape: 2 512 48 64 (3145728)
I1022 23:41:04.480617 12894 net.cpp:139] Memory required for data: 1011352832
I1022 23:41:04.480620 12894 layer_factory.hpp:77] Creating layer res3a_relu
I1022 23:41:04.480628 12894 net.cpp:86] Creating Layer res3a_relu
I1022 23:41:04.480631 12894 net.cpp:408] res3a_relu <- res3a
I1022 23:41:04.480636 12894 net.cpp:369] res3a_relu -> res3a (in-place)
I1022 23:41:04.481552 12894 net.cpp:124] Setting up res3a_relu
I1022 23:41:04.481580 12894 net.cpp:131] Top shape: 2 512 48 64 (3145728)
I1022 23:41:04.481585 12894 net.cpp:139] Memory required for data: 1023935744
I1022 23:41:04.481588 12894 layer_factory.hpp:77] Creating layer res3a_res3a_relu_0_split
I1022 23:41:04.481595 12894 net.cpp:86] Creating Layer res3a_res3a_relu_0_split
I1022 23:41:04.481598 12894 net.cpp:408] res3a_res3a_relu_0_split <- res3a
I1022 23:41:04.481617 12894 net.cpp:382] res3a_res3a_relu_0_split -> res3a_res3a_relu_0_split_0
I1022 23:41:04.481628 12894 net.cpp:382] res3a_res3a_relu_0_split -> res3a_res3a_relu_0_split_1
I1022 23:41:04.481683 12894 net.cpp:124] Setting up res3a_res3a_relu_0_split
I1022 23:41:04.481690 12894 net.cpp:131] Top shape: 2 512 48 64 (3145728)
I1022 23:41:04.481695 12894 net.cpp:131] Top shape: 2 512 48 64 (3145728)
I1022 23:41:04.481698 12894 net.cpp:139] Memory required for data: 1049101568
I1022 23:41:04.481707 12894 layer_factory.hpp:77] Creating layer res3b1_branch2a
I1022 23:41:04.481717 12894 net.cpp:86] Creating Layer res3b1_branch2a
I1022 23:41:04.481721 12894 net.cpp:408] res3b1_branch2a <- res3a_res3a_relu_0_split_0
I1022 23:41:04.481727 12894 net.cpp:382] res3b1_branch2a -> res3b1_branch2a
I1022 23:41:04.483052 12894 net.cpp:124] Setting up res3b1_branch2a
I1022 23:41:04.483079 12894 net.cpp:131] Top shape: 2 128 48 64 (786432)
I1022 23:41:04.483083 12894 net.cpp:139] Memory required for data: 1052247296
I1022 23:41:04.483090 12894 layer_factory.hpp:77] Creating layer bn3b1_branch2a
I1022 23:41:04.483101 12894 net.cpp:86] Creating Layer bn3b1_branch2a
I1022 23:41:04.483105 12894 net.cpp:408] bn3b1_branch2a <- res3b1_branch2a
I1022 23:41:04.483111 12894 net.cpp:369] bn3b1_branch2a -> res3b1_branch2a (in-place)
I1022 23:41:04.483326 12894 net.cpp:124] Setting up bn3b1_branch2a
I1022 23:41:04.483336 12894 net.cpp:131] Top shape: 2 128 48 64 (786432)
I1022 23:41:04.483342 12894 net.cpp:139] Memory required for data: 1055393024
I1022 23:41:04.483350 12894 layer_factory.hpp:77] Creating layer scale3b1_branch2a
I1022 23:41:04.483358 12894 net.cpp:86] Creating Layer scale3b1_branch2a
I1022 23:41:04.483362 12894 net.cpp:408] scale3b1_branch2a <- res3b1_branch2a
I1022 23:41:04.483367 12894 net.cpp:369] scale3b1_branch2a -> res3b1_branch2a (in-place)
I1022 23:41:04.483414 12894 layer_factory.hpp:77] Creating layer scale3b1_branch2a
I1022 23:41:04.483533 12894 net.cpp:124] Setting up scale3b1_branch2a
I1022 23:41:04.483543 12894 net.cpp:131] Top shape: 2 128 48 64 (786432)
I1022 23:41:04.483546 12894 net.cpp:139] Memory required for data: 1058538752
I1022 23:41:04.483564 12894 layer_factory.hpp:77] Creating layer res3b1_branch2a_relu
I1022 23:41:04.483573 12894 net.cpp:86] Creating Layer res3b1_branch2a_relu
I1022 23:41:04.483578 12894 net.cpp:408] res3b1_branch2a_relu <- res3b1_branch2a
I1022 23:41:04.483588 12894 net.cpp:369] res3b1_branch2a_relu -> res3b1_branch2a (in-place)
I1022 23:41:04.483830 12894 net.cpp:124] Setting up res3b1_branch2a_relu
I1022 23:41:04.483842 12894 net.cpp:131] Top shape: 2 128 48 64 (786432)
I1022 23:41:04.483846 12894 net.cpp:139] Memory required for data: 1061684480
I1022 23:41:04.483850 12894 layer_factory.hpp:77] Creating layer res3b1_branch2b
I1022 23:41:04.483860 12894 net.cpp:86] Creating Layer res3b1_branch2b
I1022 23:41:04.483863 12894 net.cpp:408] res3b1_branch2b <- res3b1_branch2a
I1022 23:41:04.483870 12894 net.cpp:382] res3b1_branch2b -> res3b1_branch2b
I1022 23:41:04.485569 12894 net.cpp:124] Setting up res3b1_branch2b
I1022 23:41:04.485594 12894 net.cpp:131] Top shape: 2 128 48 64 (786432)
I1022 23:41:04.485599 12894 net.cpp:139] Memory required for data: 1064830208
I1022 23:41:04.485606 12894 layer_factory.hpp:77] Creating layer bn3b1_branch2b
I1022 23:41:04.485615 12894 net.cpp:86] Creating Layer bn3b1_branch2b
I1022 23:41:04.485620 12894 net.cpp:408] bn3b1_branch2b <- res3b1_branch2b
I1022 23:41:04.485636 12894 net.cpp:369] bn3b1_branch2b -> res3b1_branch2b (in-place)
I1022 23:41:04.485865 12894 net.cpp:124] Setting up bn3b1_branch2b
I1022 23:41:04.485875 12894 net.cpp:131] Top shape: 2 128 48 64 (786432)
I1022 23:41:04.485878 12894 net.cpp:139] Memory required for data: 1067975936
I1022 23:41:04.485886 12894 layer_factory.hpp:77] Creating layer scale3b1_branch2b
I1022 23:41:04.485900 12894 net.cpp:86] Creating Layer scale3b1_branch2b
I1022 23:41:04.485904 12894 net.cpp:408] scale3b1_branch2b <- res3b1_branch2b
I1022 23:41:04.485909 12894 net.cpp:369] scale3b1_branch2b -> res3b1_branch2b (in-place)
I1022 23:41:04.485960 12894 layer_factory.hpp:77] Creating layer scale3b1_branch2b
I1022 23:41:04.486084 12894 net.cpp:124] Setting up scale3b1_branch2b
I1022 23:41:04.486093 12894 net.cpp:131] Top shape: 2 128 48 64 (786432)
I1022 23:41:04.486096 12894 net.cpp:139] Memory required for data: 1071121664
I1022 23:41:04.486109 12894 layer_factory.hpp:77] Creating layer res3b1_branch2b_relu
I1022 23:41:04.486115 12894 net.cpp:86] Creating Layer res3b1_branch2b_relu
I1022 23:41:04.486119 12894 net.cpp:408] res3b1_branch2b_relu <- res3b1_branch2b
I1022 23:41:04.486125 12894 net.cpp:369] res3b1_branch2b_relu -> res3b1_branch2b (in-place)
I1022 23:41:04.486352 12894 net.cpp:124] Setting up res3b1_branch2b_relu
I1022 23:41:04.486364 12894 net.cpp:131] Top shape: 2 128 48 64 (786432)
I1022 23:41:04.486367 12894 net.cpp:139] Memory required for data: 1074267392
I1022 23:41:04.486371 12894 layer_factory.hpp:77] Creating layer res3b1_branch2c
I1022 23:41:04.486380 12894 net.cpp:86] Creating Layer res3b1_branch2c
I1022 23:41:04.486385 12894 net.cpp:408] res3b1_branch2c <- res3b1_branch2b
I1022 23:41:04.486393 12894 net.cpp:382] res3b1_branch2c -> res3b1_branch2c
I1022 23:41:04.487778 12894 net.cpp:124] Setting up res3b1_branch2c
I1022 23:41:04.487792 12894 net.cpp:131] Top shape: 2 512 48 64 (3145728)
I1022 23:41:04.487808 12894 net.cpp:139] Memory required for data: 1086850304
I1022 23:41:04.487815 12894 layer_factory.hpp:77] Creating layer bn3b1_branch2c
I1022 23:41:04.487833 12894 net.cpp:86] Creating Layer bn3b1_branch2c
I1022 23:41:04.487849 12894 net.cpp:408] bn3b1_branch2c <- res3b1_branch2c
I1022 23:41:04.487859 12894 net.cpp:369] bn3b1_branch2c -> res3b1_branch2c (in-place)
I1022 23:41:04.488080 12894 net.cpp:124] Setting up bn3b1_branch2c
I1022 23:41:04.488088 12894 net.cpp:131] Top shape: 2 512 48 64 (3145728)
I1022 23:41:04.488091 12894 net.cpp:139] Memory required for data: 1099433216
I1022 23:41:04.488101 12894 layer_factory.hpp:77] Creating layer scale3b1_branch2c
I1022 23:41:04.488111 12894 net.cpp:86] Creating Layer scale3b1_branch2c
I1022 23:41:04.488114 12894 net.cpp:408] scale3b1_branch2c <- res3b1_branch2c
I1022 23:41:04.488119 12894 net.cpp:369] scale3b1_branch2c -> res3b1_branch2c (in-place)
I1022 23:41:04.488162 12894 layer_factory.hpp:77] Creating layer scale3b1_branch2c
I1022 23:41:04.488291 12894 net.cpp:124] Setting up scale3b1_branch2c
I1022 23:41:04.488299 12894 net.cpp:131] Top shape: 2 512 48 64 (3145728)
I1022 23:41:04.488315 12894 net.cpp:139] Memory required for data: 1112016128
I1022 23:41:04.488323 12894 layer_factory.hpp:77] Creating layer res3b1
I1022 23:41:04.488329 12894 net.cpp:86] Creating Layer res3b1
I1022 23:41:04.488333 12894 net.cpp:408] res3b1 <- res3a_res3a_relu_0_split_1
I1022 23:41:04.488345 12894 net.cpp:408] res3b1 <- res3b1_branch2c
I1022 23:41:04.488353 12894 net.cpp:382] res3b1 -> res3b1
I1022 23:41:04.488385 12894 net.cpp:124] Setting up res3b1
I1022 23:41:04.488394 12894 net.cpp:131] Top shape: 2 512 48 64 (3145728)
I1022 23:41:04.488396 12894 net.cpp:139] Memory required for data: 1124599040
I1022 23:41:04.488399 12894 layer_factory.hpp:77] Creating layer res3b1_relu
I1022 23:41:04.488410 12894 net.cpp:86] Creating Layer res3b1_relu
I1022 23:41:04.488415 12894 net.cpp:408] res3b1_relu <- res3b1
I1022 23:41:04.488420 12894 net.cpp:369] res3b1_relu -> res3b1 (in-place)
I1022 23:41:04.489032 12894 net.cpp:124] Setting up res3b1_relu
I1022 23:41:04.489058 12894 net.cpp:131] Top shape: 2 512 48 64 (3145728)
I1022 23:41:04.489061 12894 net.cpp:139] Memory required for data: 1137181952
I1022 23:41:04.489066 12894 layer_factory.hpp:77] Creating layer res3b1_res3b1_relu_0_split
I1022 23:41:04.489073 12894 net.cpp:86] Creating Layer res3b1_res3b1_relu_0_split
I1022 23:41:04.489076 12894 net.cpp:408] res3b1_res3b1_relu_0_split <- res3b1
I1022 23:41:04.489102 12894 net.cpp:382] res3b1_res3b1_relu_0_split -> res3b1_res3b1_relu_0_split_0
I1022 23:41:04.489114 12894 net.cpp:382] res3b1_res3b1_relu_0_split -> res3b1_res3b1_relu_0_split_1
I1022 23:41:04.489166 12894 net.cpp:124] Setting up res3b1_res3b1_relu_0_split
I1022 23:41:04.489173 12894 net.cpp:131] Top shape: 2 512 48 64 (3145728)
I1022 23:41:04.489178 12894 net.cpp:131] Top shape: 2 512 48 64 (3145728)
I1022 23:41:04.489181 12894 net.cpp:139] Memory required for data: 1162347776
I1022 23:41:04.489186 12894 layer_factory.hpp:77] Creating layer res3b2_branch2a
I1022 23:41:04.489194 12894 net.cpp:86] Creating Layer res3b2_branch2a
I1022 23:41:04.489198 12894 net.cpp:408] res3b2_branch2a <- res3b1_res3b1_relu_0_split_0
I1022 23:41:04.489207 12894 net.cpp:382] res3b2_branch2a -> res3b2_branch2a
I1022 23:41:04.491737 12894 net.cpp:124] Setting up res3b2_branch2a
I1022 23:41:04.491752 12894 net.cpp:131] Top shape: 2 128 48 64 (786432)
I1022 23:41:04.491766 12894 net.cpp:139] Memory required for data: 1165493504
I1022 23:41:04.491773 12894 layer_factory.hpp:77] Creating layer bn3b2_branch2a
I1022 23:41:04.491804 12894 net.cpp:86] Creating Layer bn3b2_branch2a
I1022 23:41:04.491811 12894 net.cpp:408] bn3b2_branch2a <- res3b2_branch2a
I1022 23:41:04.491825 12894 net.cpp:369] bn3b2_branch2a -> res3b2_branch2a (in-place)
I1022 23:41:04.492046 12894 net.cpp:124] Setting up bn3b2_branch2a
I1022 23:41:04.492055 12894 net.cpp:131] Top shape: 2 128 48 64 (786432)
I1022 23:41:04.492058 12894 net.cpp:139] Memory required for data: 1168639232
I1022 23:41:04.492067 12894 layer_factory.hpp:77] Creating layer scale3b2_branch2a
I1022 23:41:04.492076 12894 net.cpp:86] Creating Layer scale3b2_branch2a
I1022 23:41:04.492080 12894 net.cpp:408] scale3b2_branch2a <- res3b2_branch2a
I1022 23:41:04.492092 12894 net.cpp:369] scale3b2_branch2a -> res3b2_branch2a (in-place)
I1022 23:41:04.492141 12894 layer_factory.hpp:77] Creating layer scale3b2_branch2a
I1022 23:41:04.492267 12894 net.cpp:124] Setting up scale3b2_branch2a
I1022 23:41:04.492278 12894 net.cpp:131] Top shape: 2 128 48 64 (786432)
I1022 23:41:04.492281 12894 net.cpp:139] Memory required for data: 1171784960
I1022 23:41:04.492288 12894 layer_factory.hpp:77] Creating layer res3b2_branch2a_relu
I1022 23:41:04.492293 12894 net.cpp:86] Creating Layer res3b2_branch2a_relu
I1022 23:41:04.492297 12894 net.cpp:408] res3b2_branch2a_relu <- res3b2_branch2a
I1022 23:41:04.492311 12894 net.cpp:369] res3b2_branch2a_relu -> res3b2_branch2a (in-place)
I1022 23:41:04.492564 12894 net.cpp:124] Setting up res3b2_branch2a_relu
I1022 23:41:04.492576 12894 net.cpp:131] Top shape: 2 128 48 64 (786432)
I1022 23:41:04.492594 12894 net.cpp:139] Memory required for data: 1174930688
I1022 23:41:04.492599 12894 layer_factory.hpp:77] Creating layer res3b2_branch2b
I1022 23:41:04.492606 12894 net.cpp:86] Creating Layer res3b2_branch2b
I1022 23:41:04.492610 12894 net.cpp:408] res3b2_branch2b <- res3b2_branch2a
I1022 23:41:04.492619 12894 net.cpp:382] res3b2_branch2b -> res3b2_branch2b
I1022 23:41:04.495569 12894 net.cpp:124] Setting up res3b2_branch2b
I1022 23:41:04.495584 12894 net.cpp:131] Top shape: 2 128 48 64 (786432)
I1022 23:41:04.495599 12894 net.cpp:139] Memory required for data: 1178076416
I1022 23:41:04.495615 12894 layer_factory.hpp:77] Creating layer bn3b2_branch2b
I1022 23:41:04.495625 12894 net.cpp:86] Creating Layer bn3b2_branch2b
I1022 23:41:04.495641 12894 net.cpp:408] bn3b2_branch2b <- res3b2_branch2b
I1022 23:41:04.495651 12894 net.cpp:369] bn3b2_branch2b -> res3b2_branch2b (in-place)
I1022 23:41:04.495879 12894 net.cpp:124] Setting up bn3b2_branch2b
I1022 23:41:04.495889 12894 net.cpp:131] Top shape: 2 128 48 64 (786432)
I1022 23:41:04.495893 12894 net.cpp:139] Memory required for data: 1181222144
I1022 23:41:04.495901 12894 layer_factory.hpp:77] Creating layer scale3b2_branch2b
I1022 23:41:04.495910 12894 net.cpp:86] Creating Layer scale3b2_branch2b
I1022 23:41:04.495913 12894 net.cpp:408] scale3b2_branch2b <- res3b2_branch2b
I1022 23:41:04.495918 12894 net.cpp:369] scale3b2_branch2b -> res3b2_branch2b (in-place)
I1022 23:41:04.495965 12894 layer_factory.hpp:77] Creating layer scale3b2_branch2b
I1022 23:41:04.496094 12894 net.cpp:124] Setting up scale3b2_branch2b
I1022 23:41:04.496104 12894 net.cpp:131] Top shape: 2 128 48 64 (786432)
I1022 23:41:04.496106 12894 net.cpp:139] Memory required for data: 1184367872
I1022 23:41:04.496114 12894 layer_factory.hpp:77] Creating layer res3b2_branch2b_relu
I1022 23:41:04.496120 12894 net.cpp:86] Creating Layer res3b2_branch2b_relu
I1022 23:41:04.496124 12894 net.cpp:408] res3b2_branch2b_relu <- res3b2_branch2b
I1022 23:41:04.496137 12894 net.cpp:369] res3b2_branch2b_relu -> res3b2_branch2b (in-place)
I1022 23:41:04.496376 12894 net.cpp:124] Setting up res3b2_branch2b_relu
I1022 23:41:04.496387 12894 net.cpp:131] Top shape: 2 128 48 64 (786432)
I1022 23:41:04.496390 12894 net.cpp:139] Memory required for data: 1187513600
I1022 23:41:04.496400 12894 layer_factory.hpp:77] Creating layer res3b2_branch2c
I1022 23:41:04.496413 12894 net.cpp:86] Creating Layer res3b2_branch2c
I1022 23:41:04.496418 12894 net.cpp:408] res3b2_branch2c <- res3b2_branch2b
I1022 23:41:04.496425 12894 net.cpp:382] res3b2_branch2c -> res3b2_branch2c
I1022 23:41:04.497742 12894 net.cpp:124] Setting up res3b2_branch2c
I1022 23:41:04.497768 12894 net.cpp:131] Top shape: 2 512 48 64 (3145728)
I1022 23:41:04.497773 12894 net.cpp:139] Memory required for data: 1200096512
I1022 23:41:04.497779 12894 layer_factory.hpp:77] Creating layer bn3b2_branch2c
I1022 23:41:04.497788 12894 net.cpp:86] Creating Layer bn3b2_branch2c
I1022 23:41:04.497792 12894 net.cpp:408] bn3b2_branch2c <- res3b2_branch2c
I1022 23:41:04.497822 12894 net.cpp:369] bn3b2_branch2c -> res3b2_branch2c (in-place)
I1022 23:41:04.498051 12894 net.cpp:124] Setting up bn3b2_branch2c
I1022 23:41:04.498060 12894 net.cpp:131] Top shape: 2 512 48 64 (3145728)
I1022 23:41:04.498064 12894 net.cpp:139] Memory required for data: 1212679424
I1022 23:41:04.498075 12894 layer_factory.hpp:77] Creating layer scale3b2_branch2c
I1022 23:41:04.498081 12894 net.cpp:86] Creating Layer scale3b2_branch2c
I1022 23:41:04.498085 12894 net.cpp:408] scale3b2_branch2c <- res3b2_branch2c
I1022 23:41:04.498090 12894 net.cpp:369] scale3b2_branch2c -> res3b2_branch2c (in-place)
I1022 23:41:04.498132 12894 layer_factory.hpp:77] Creating layer scale3b2_branch2c
I1022 23:41:04.498262 12894 net.cpp:124] Setting up scale3b2_branch2c
I1022 23:41:04.498271 12894 net.cpp:131] Top shape: 2 512 48 64 (3145728)
I1022 23:41:04.498275 12894 net.cpp:139] Memory required for data: 1225262336
I1022 23:41:04.498296 12894 layer_factory.hpp:77] Creating layer res3b2
I1022 23:41:04.498301 12894 net.cpp:86] Creating Layer res3b2
I1022 23:41:04.498318 12894 net.cpp:408] res3b2 <- res3b1_res3b1_relu_0_split_1
I1022 23:41:04.498333 12894 net.cpp:408] res3b2 <- res3b2_branch2c
I1022 23:41:04.498345 12894 net.cpp:382] res3b2 -> res3b2
I1022 23:41:04.498374 12894 net.cpp:124] Setting up res3b2
I1022 23:41:04.498383 12894 net.cpp:131] Top shape: 2 512 48 64 (3145728)
I1022 23:41:04.498386 12894 net.cpp:139] Memory required for data: 1237845248
I1022 23:41:04.498390 12894 layer_factory.hpp:77] Creating layer res3b2_relu
I1022 23:41:04.498397 12894 net.cpp:86] Creating Layer res3b2_relu
I1022 23:41:04.498401 12894 net.cpp:408] res3b2_relu <- res3b2
I1022 23:41:04.498406 12894 net.cpp:369] res3b2_relu -> res3b2 (in-place)
I1022 23:41:04.498638 12894 net.cpp:124] Setting up res3b2_relu
I1022 23:41:04.498648 12894 net.cpp:131] Top shape: 2 512 48 64 (3145728)
I1022 23:41:04.498651 12894 net.cpp:139] Memory required for data: 1250428160
I1022 23:41:04.498656 12894 layer_factory.hpp:77] Creating layer res3b2_res3b2_relu_0_split
I1022 23:41:04.498661 12894 net.cpp:86] Creating Layer res3b2_res3b2_relu_0_split
I1022 23:41:04.498664 12894 net.cpp:408] res3b2_res3b2_relu_0_split <- res3b2
I1022 23:41:04.498672 12894 net.cpp:382] res3b2_res3b2_relu_0_split -> res3b2_res3b2_relu_0_split_0
I1022 23:41:04.498679 12894 net.cpp:382] res3b2_res3b2_relu_0_split -> res3b2_res3b2_relu_0_split_1
I1022 23:41:04.498728 12894 net.cpp:124] Setting up res3b2_res3b2_relu_0_split
I1022 23:41:04.498736 12894 net.cpp:131] Top shape: 2 512 48 64 (3145728)
I1022 23:41:04.498740 12894 net.cpp:131] Top shape: 2 512 48 64 (3145728)
I1022 23:41:04.498744 12894 net.cpp:139] Memory required for data: 1275593984
I1022 23:41:04.498747 12894 layer_factory.hpp:77] Creating layer res3b3_branch2a
I1022 23:41:04.498765 12894 net.cpp:86] Creating Layer res3b3_branch2a
I1022 23:41:04.498769 12894 net.cpp:408] res3b3_branch2a <- res3b2_res3b2_relu_0_split_0
I1022 23:41:04.498775 12894 net.cpp:382] res3b3_branch2a -> res3b3_branch2a
I1022 23:41:04.500094 12894 net.cpp:124] Setting up res3b3_branch2a
I1022 23:41:04.500123 12894 net.cpp:131] Top shape: 2 128 48 64 (786432)
I1022 23:41:04.500128 12894 net.cpp:139] Memory required for data: 1278739712
I1022 23:41:04.500134 12894 layer_factory.hpp:77] Creating layer bn3b3_branch2a
I1022 23:41:04.500144 12894 net.cpp:86] Creating Layer bn3b3_branch2a
I1022 23:41:04.500147 12894 net.cpp:408] bn3b3_branch2a <- res3b3_branch2a
I1022 23:41:04.500162 12894 net.cpp:369] bn3b3_branch2a -> res3b3_branch2a (in-place)
I1022 23:41:04.500391 12894 net.cpp:124] Setting up bn3b3_branch2a
I1022 23:41:04.500401 12894 net.cpp:131] Top shape: 2 128 48 64 (786432)
I1022 23:41:04.500403 12894 net.cpp:139] Memory required for data: 1281885440
I1022 23:41:04.500435 12894 layer_factory.hpp:77] Creating layer scale3b3_branch2a
I1022 23:41:04.500459 12894 net.cpp:86] Creating Layer scale3b3_branch2a
I1022 23:41:04.500464 12894 net.cpp:408] scale3b3_branch2a <- res3b3_branch2a
I1022 23:41:04.500469 12894 net.cpp:369] scale3b3_branch2a -> res3b3_branch2a (in-place)
I1022 23:41:04.500520 12894 layer_factory.hpp:77] Creating layer scale3b3_branch2a
I1022 23:41:04.500649 12894 net.cpp:124] Setting up scale3b3_branch2a
I1022 23:41:04.500659 12894 net.cpp:131] Top shape: 2 128 48 64 (786432)
I1022 23:41:04.500663 12894 net.cpp:139] Memory required for data: 1285031168
I1022 23:41:04.500669 12894 layer_factory.hpp:77] Creating layer res3b3_branch2a_relu
I1022 23:41:04.500681 12894 net.cpp:86] Creating Layer res3b3_branch2a_relu
I1022 23:41:04.500689 12894 net.cpp:408] res3b3_branch2a_relu <- res3b3_branch2a
I1022 23:41:04.500699 12894 net.cpp:369] res3b3_branch2a_relu -> res3b3_branch2a (in-place)
I1022 23:41:04.501307 12894 net.cpp:124] Setting up res3b3_branch2a_relu
I1022 23:41:04.501320 12894 net.cpp:131] Top shape: 2 128 48 64 (786432)
I1022 23:41:04.501336 12894 net.cpp:139] Memory required for data: 1288176896
I1022 23:41:04.501340 12894 layer_factory.hpp:77] Creating layer res3b3_branch2b
I1022 23:41:04.501350 12894 net.cpp:86] Creating Layer res3b3_branch2b
I1022 23:41:04.501368 12894 net.cpp:408] res3b3_branch2b <- res3b3_branch2a
I1022 23:41:04.501377 12894 net.cpp:382] res3b3_branch2b -> res3b3_branch2b
I1022 23:41:04.503103 12894 net.cpp:124] Setting up res3b3_branch2b
I1022 23:41:04.503118 12894 net.cpp:131] Top shape: 2 128 48 64 (786432)
I1022 23:41:04.503132 12894 net.cpp:139] Memory required for data: 1291322624
I1022 23:41:04.503140 12894 layer_factory.hpp:77] Creating layer bn3b3_branch2b
I1022 23:41:04.503149 12894 net.cpp:86] Creating Layer bn3b3_branch2b
I1022 23:41:04.503154 12894 net.cpp:408] bn3b3_branch2b <- res3b3_branch2b
I1022 23:41:04.503170 12894 net.cpp:369] bn3b3_branch2b -> res3b3_branch2b (in-place)
I1022 23:41:04.503413 12894 net.cpp:124] Setting up bn3b3_branch2b
I1022 23:41:04.503423 12894 net.cpp:131] Top shape: 2 128 48 64 (786432)
I1022 23:41:04.503427 12894 net.cpp:139] Memory required for data: 1294468352
I1022 23:41:04.503435 12894 layer_factory.hpp:77] Creating layer scale3b3_branch2b
I1022 23:41:04.503448 12894 net.cpp:86] Creating Layer scale3b3_branch2b
I1022 23:41:04.503453 12894 net.cpp:408] scale3b3_branch2b <- res3b3_branch2b
I1022 23:41:04.503460 12894 net.cpp:369] scale3b3_branch2b -> res3b3_branch2b (in-place)
I1022 23:41:04.503506 12894 layer_factory.hpp:77] Creating layer scale3b3_branch2b
I1022 23:41:04.503633 12894 net.cpp:124] Setting up scale3b3_branch2b
I1022 23:41:04.503640 12894 net.cpp:131] Top shape: 2 128 48 64 (786432)
I1022 23:41:04.503644 12894 net.cpp:139] Memory required for data: 1297614080
I1022 23:41:04.503651 12894 layer_factory.hpp:77] Creating layer res3b3_branch2b_relu
I1022 23:41:04.503657 12894 net.cpp:86] Creating Layer res3b3_branch2b_relu
I1022 23:41:04.503661 12894 net.cpp:408] res3b3_branch2b_relu <- res3b3_branch2b
I1022 23:41:04.503674 12894 net.cpp:369] res3b3_branch2b_relu -> res3b3_branch2b (in-place)
I1022 23:41:04.503919 12894 net.cpp:124] Setting up res3b3_branch2b_relu
I1022 23:41:04.503932 12894 net.cpp:131] Top shape: 2 128 48 64 (786432)
I1022 23:41:04.503935 12894 net.cpp:139] Memory required for data: 1300759808
I1022 23:41:04.503939 12894 layer_factory.hpp:77] Creating layer res3b3_branch2c
I1022 23:41:04.503949 12894 net.cpp:86] Creating Layer res3b3_branch2c
I1022 23:41:04.503953 12894 net.cpp:408] res3b3_branch2c <- res3b3_branch2b
I1022 23:41:04.503959 12894 net.cpp:382] res3b3_branch2c -> res3b3_branch2c
I1022 23:41:04.505327 12894 net.cpp:124] Setting up res3b3_branch2c
I1022 23:41:04.505343 12894 net.cpp:131] Top shape: 2 512 48 64 (3145728)
I1022 23:41:04.505359 12894 net.cpp:139] Memory required for data: 1313342720
I1022 23:41:04.505367 12894 layer_factory.hpp:77] Creating layer bn3b3_branch2c
I1022 23:41:04.505384 12894 net.cpp:86] Creating Layer bn3b3_branch2c
I1022 23:41:04.505388 12894 net.cpp:408] bn3b3_branch2c <- res3b3_branch2c
I1022 23:41:04.505398 12894 net.cpp:369] bn3b3_branch2c -> res3b3_branch2c (in-place)
I1022 23:41:04.505625 12894 net.cpp:124] Setting up bn3b3_branch2c
I1022 23:41:04.505635 12894 net.cpp:131] Top shape: 2 512 48 64 (3145728)
I1022 23:41:04.505638 12894 net.cpp:139] Memory required for data: 1325925632
I1022 23:41:04.505648 12894 layer_factory.hpp:77] Creating layer scale3b3_branch2c
I1022 23:41:04.505657 12894 net.cpp:86] Creating Layer scale3b3_branch2c
I1022 23:41:04.505661 12894 net.cpp:408] scale3b3_branch2c <- res3b3_branch2c
I1022 23:41:04.505666 12894 net.cpp:369] scale3b3_branch2c -> res3b3_branch2c (in-place)
I1022 23:41:04.505709 12894 layer_factory.hpp:77] Creating layer scale3b3_branch2c
I1022 23:41:04.505843 12894 net.cpp:124] Setting up scale3b3_branch2c
I1022 23:41:04.505852 12894 net.cpp:131] Top shape: 2 512 48 64 (3145728)
I1022 23:41:04.505856 12894 net.cpp:139] Memory required for data: 1338508544
I1022 23:41:04.505863 12894 layer_factory.hpp:77] Creating layer res3b3
I1022 23:41:04.505877 12894 net.cpp:86] Creating Layer res3b3
I1022 23:41:04.505880 12894 net.cpp:408] res3b3 <- res3b2_res3b2_relu_0_split_1
I1022 23:41:04.505889 12894 net.cpp:408] res3b3 <- res3b3_branch2c
I1022 23:41:04.505897 12894 net.cpp:382] res3b3 -> res3b3
I1022 23:41:04.505946 12894 net.cpp:124] Setting up res3b3
I1022 23:41:04.505954 12894 net.cpp:131] Top shape: 2 512 48 64 (3145728)
I1022 23:41:04.505957 12894 net.cpp:139] Memory required for data: 1351091456
I1022 23:41:04.505961 12894 layer_factory.hpp:77] Creating layer res3b3_relu
I1022 23:41:04.505967 12894 net.cpp:86] Creating Layer res3b3_relu
I1022 23:41:04.505970 12894 net.cpp:408] res3b3_relu <- res3b3
I1022 23:41:04.505975 12894 net.cpp:369] res3b3_relu -> res3b3 (in-place)
I1022 23:41:04.506208 12894 net.cpp:124] Setting up res3b3_relu
I1022 23:41:04.506219 12894 net.cpp:131] Top shape: 2 512 48 64 (3145728)
I1022 23:41:04.506222 12894 net.cpp:139] Memory required for data: 1363674368
I1022 23:41:04.506233 12894 layer_factory.hpp:77] Creating layer res3b3_res3b3_relu_0_split
I1022 23:41:04.506239 12894 net.cpp:86] Creating Layer res3b3_res3b3_relu_0_split
I1022 23:41:04.506243 12894 net.cpp:408] res3b3_res3b3_relu_0_split <- res3b3
I1022 23:41:04.506255 12894 net.cpp:382] res3b3_res3b3_relu_0_split -> res3b3_res3b3_relu_0_split_0
I1022 23:41:04.506263 12894 net.cpp:382] res3b3_res3b3_relu_0_split -> res3b3_res3b3_relu_0_split_1
I1022 23:41:04.506314 12894 net.cpp:124] Setting up res3b3_res3b3_relu_0_split
I1022 23:41:04.506321 12894 net.cpp:131] Top shape: 2 512 48 64 (3145728)
I1022 23:41:04.506326 12894 net.cpp:131] Top shape: 2 512 48 64 (3145728)
I1022 23:41:04.506330 12894 net.cpp:139] Memory required for data: 1388840192
I1022 23:41:04.506332 12894 layer_factory.hpp:77] Creating layer res4a_branch1
I1022 23:41:04.506342 12894 net.cpp:86] Creating Layer res4a_branch1
I1022 23:41:04.506346 12894 net.cpp:408] res4a_branch1 <- res3b3_res3b3_relu_0_split_0
I1022 23:41:04.506353 12894 net.cpp:382] res4a_branch1 -> res4a_branch1
I1022 23:41:04.509577 12894 net.cpp:124] Setting up res4a_branch1
I1022 23:41:04.509593 12894 net.cpp:131] Top shape: 2 1024 24 32 (1572864)
I1022 23:41:04.509608 12894 net.cpp:139] Memory required for data: 1395131648
I1022 23:41:04.509615 12894 layer_factory.hpp:77] Creating layer bn4a_branch1
I1022 23:41:04.509626 12894 net.cpp:86] Creating Layer bn4a_branch1
I1022 23:41:04.509630 12894 net.cpp:408] bn4a_branch1 <- res4a_branch1
I1022 23:41:04.509647 12894 net.cpp:369] bn4a_branch1 -> res4a_branch1 (in-place)
I1022 23:41:04.509882 12894 net.cpp:124] Setting up bn4a_branch1
I1022 23:41:04.509892 12894 net.cpp:131] Top shape: 2 1024 24 32 (1572864)
I1022 23:41:04.509896 12894 net.cpp:139] Memory required for data: 1401423104
I1022 23:41:04.509909 12894 layer_factory.hpp:77] Creating layer scale4a_branch1
I1022 23:41:04.509918 12894 net.cpp:86] Creating Layer scale4a_branch1
I1022 23:41:04.509922 12894 net.cpp:408] scale4a_branch1 <- res4a_branch1
I1022 23:41:04.509928 12894 net.cpp:369] scale4a_branch1 -> res4a_branch1 (in-place)
I1022 23:41:04.509973 12894 layer_factory.hpp:77] Creating layer scale4a_branch1
I1022 23:41:04.510108 12894 net.cpp:124] Setting up scale4a_branch1
I1022 23:41:04.510119 12894 net.cpp:131] Top shape: 2 1024 24 32 (1572864)
I1022 23:41:04.510123 12894 net.cpp:139] Memory required for data: 1407714560
I1022 23:41:04.510129 12894 layer_factory.hpp:77] Creating layer res4a_branch2a
I1022 23:41:04.510139 12894 net.cpp:86] Creating Layer res4a_branch2a
I1022 23:41:04.510145 12894 net.cpp:408] res4a_branch2a <- res3b3_res3b3_relu_0_split_1
I1022 23:41:04.510159 12894 net.cpp:382] res4a_branch2a -> res4a_branch2a
I1022 23:41:04.511525 12894 net.cpp:124] Setting up res4a_branch2a
I1022 23:41:04.511540 12894 net.cpp:131] Top shape: 2 256 24 32 (393216)
I1022 23:41:04.511560 12894 net.cpp:139] Memory required for data: 1409287424
I1022 23:41:04.511567 12894 layer_factory.hpp:77] Creating layer bn4a_branch2a
I1022 23:41:04.511576 12894 net.cpp:86] Creating Layer bn4a_branch2a
I1022 23:41:04.511580 12894 net.cpp:408] bn4a_branch2a <- res4a_branch2a
I1022 23:41:04.511598 12894 net.cpp:369] bn4a_branch2a -> res4a_branch2a (in-place)
I1022 23:41:04.511823 12894 net.cpp:124] Setting up bn4a_branch2a
I1022 23:41:04.511832 12894 net.cpp:131] Top shape: 2 256 24 32 (393216)
I1022 23:41:04.511848 12894 net.cpp:139] Memory required for data: 1410860288
I1022 23:41:04.511860 12894 layer_factory.hpp:77] Creating layer scale4a_branch2a
I1022 23:41:04.511878 12894 net.cpp:86] Creating Layer scale4a_branch2a
I1022 23:41:04.511881 12894 net.cpp:408] scale4a_branch2a <- res4a_branch2a
I1022 23:41:04.511891 12894 net.cpp:369] scale4a_branch2a -> res4a_branch2a (in-place)
I1022 23:41:04.511945 12894 layer_factory.hpp:77] Creating layer scale4a_branch2a
I1022 23:41:04.512068 12894 net.cpp:124] Setting up scale4a_branch2a
I1022 23:41:04.512078 12894 net.cpp:131] Top shape: 2 256 24 32 (393216)
I1022 23:41:04.512081 12894 net.cpp:139] Memory required for data: 1412433152
I1022 23:41:04.512089 12894 layer_factory.hpp:77] Creating layer res4a_branch2a_relu
I1022 23:41:04.512096 12894 net.cpp:86] Creating Layer res4a_branch2a_relu
I1022 23:41:04.512099 12894 net.cpp:408] res4a_branch2a_relu <- res4a_branch2a
I1022 23:41:04.512106 12894 net.cpp:369] res4a_branch2a_relu -> res4a_branch2a (in-place)
I1022 23:41:04.512714 12894 net.cpp:124] Setting up res4a_branch2a_relu
I1022 23:41:04.512729 12894 net.cpp:131] Top shape: 2 256 24 32 (393216)
I1022 23:41:04.512743 12894 net.cpp:139] Memory required for data: 1414006016
I1022 23:41:04.512748 12894 layer_factory.hpp:77] Creating layer res4a_branch2b
I1022 23:41:04.512758 12894 net.cpp:86] Creating Layer res4a_branch2b
I1022 23:41:04.512763 12894 net.cpp:408] res4a_branch2b <- res4a_branch2a
I1022 23:41:04.512771 12894 net.cpp:382] res4a_branch2b -> res4a_branch2b
I1022 23:41:04.516289 12894 net.cpp:124] Setting up res4a_branch2b
I1022 23:41:04.516306 12894 net.cpp:131] Top shape: 2 256 24 32 (393216)
I1022 23:41:04.516310 12894 net.cpp:139] Memory required for data: 1415578880
I1022 23:41:04.516317 12894 layer_factory.hpp:77] Creating layer bn4a_branch2b
I1022 23:41:04.516335 12894 net.cpp:86] Creating Layer bn4a_branch2b
I1022 23:41:04.516340 12894 net.cpp:408] bn4a_branch2b <- res4a_branch2b
I1022 23:41:04.516348 12894 net.cpp:369] bn4a_branch2b -> res4a_branch2b (in-place)
I1022 23:41:04.516602 12894 net.cpp:124] Setting up bn4a_branch2b
I1022 23:41:04.516615 12894 net.cpp:131] Top shape: 2 256 24 32 (393216)
I1022 23:41:04.516619 12894 net.cpp:139] Memory required for data: 1417151744
I1022 23:41:04.516628 12894 layer_factory.hpp:77] Creating layer scale4a_branch2b
I1022 23:41:04.516635 12894 net.cpp:86] Creating Layer scale4a_branch2b
I1022 23:41:04.516639 12894 net.cpp:408] scale4a_branch2b <- res4a_branch2b
I1022 23:41:04.516652 12894 net.cpp:369] scale4a_branch2b -> res4a_branch2b (in-place)
I1022 23:41:04.516703 12894 layer_factory.hpp:77] Creating layer scale4a_branch2b
I1022 23:41:04.516829 12894 net.cpp:124] Setting up scale4a_branch2b
I1022 23:41:04.516839 12894 net.cpp:131] Top shape: 2 256 24 32 (393216)
I1022 23:41:04.516842 12894 net.cpp:139] Memory required for data: 1418724608
I1022 23:41:04.516849 12894 layer_factory.hpp:77] Creating layer res4a_branch2b_relu
I1022 23:41:04.516855 12894 net.cpp:86] Creating Layer res4a_branch2b_relu
I1022 23:41:04.516860 12894 net.cpp:408] res4a_branch2b_relu <- res4a_branch2b
I1022 23:41:04.516866 12894 net.cpp:369] res4a_branch2b_relu -> res4a_branch2b (in-place)
I1022 23:41:04.517141 12894 net.cpp:124] Setting up res4a_branch2b_relu
I1022 23:41:04.517153 12894 net.cpp:131] Top shape: 2 256 24 32 (393216)
I1022 23:41:04.517155 12894 net.cpp:139] Memory required for data: 1420297472
I1022 23:41:04.517160 12894 layer_factory.hpp:77] Creating layer res4a_branch2c
I1022 23:41:04.517184 12894 net.cpp:86] Creating Layer res4a_branch2c
I1022 23:41:04.517205 12894 net.cpp:408] res4a_branch2c <- res4a_branch2b
I1022 23:41:04.517228 12894 net.cpp:382] res4a_branch2c -> res4a_branch2c
I1022 23:41:04.519963 12894 net.cpp:124] Setting up res4a_branch2c
I1022 23:41:04.519978 12894 net.cpp:131] Top shape: 2 1024 24 32 (1572864)
I1022 23:41:04.519996 12894 net.cpp:139] Memory required for data: 1426588928
I1022 23:41:04.520004 12894 layer_factory.hpp:77] Creating layer bn4a_branch2c
I1022 23:41:04.520014 12894 net.cpp:86] Creating Layer bn4a_branch2c
I1022 23:41:04.520031 12894 net.cpp:408] bn4a_branch2c <- res4a_branch2c
I1022 23:41:04.520056 12894 net.cpp:369] bn4a_branch2c -> res4a_branch2c (in-place)
I1022 23:41:04.520301 12894 net.cpp:124] Setting up bn4a_branch2c
I1022 23:41:04.520313 12894 net.cpp:131] Top shape: 2 1024 24 32 (1572864)
I1022 23:41:04.520316 12894 net.cpp:139] Memory required for data: 1432880384
I1022 23:41:04.520324 12894 layer_factory.hpp:77] Creating layer scale4a_branch2c
I1022 23:41:04.520330 12894 net.cpp:86] Creating Layer scale4a_branch2c
I1022 23:41:04.520334 12894 net.cpp:408] scale4a_branch2c <- res4a_branch2c
I1022 23:41:04.520345 12894 net.cpp:369] scale4a_branch2c -> res4a_branch2c (in-place)
I1022 23:41:04.520391 12894 layer_factory.hpp:77] Creating layer scale4a_branch2c
I1022 23:41:04.520545 12894 net.cpp:124] Setting up scale4a_branch2c
I1022 23:41:04.520555 12894 net.cpp:131] Top shape: 2 1024 24 32 (1572864)
I1022 23:41:04.520560 12894 net.cpp:139] Memory required for data: 1439171840
I1022 23:41:04.520566 12894 layer_factory.hpp:77] Creating layer res4a
I1022 23:41:04.520588 12894 net.cpp:86] Creating Layer res4a
I1022 23:41:04.520594 12894 net.cpp:408] res4a <- res4a_branch1
I1022 23:41:04.520599 12894 net.cpp:408] res4a <- res4a_branch2c
I1022 23:41:04.520604 12894 net.cpp:382] res4a -> res4a
I1022 23:41:04.520633 12894 net.cpp:124] Setting up res4a
I1022 23:41:04.520642 12894 net.cpp:131] Top shape: 2 1024 24 32 (1572864)
I1022 23:41:04.520645 12894 net.cpp:139] Memory required for data: 1445463296
I1022 23:41:04.520655 12894 layer_factory.hpp:77] Creating layer res4a_relu
I1022 23:41:04.520661 12894 net.cpp:86] Creating Layer res4a_relu
I1022 23:41:04.520665 12894 net.cpp:408] res4a_relu <- res4a
I1022 23:41:04.520670 12894 net.cpp:369] res4a_relu -> res4a (in-place)
I1022 23:41:04.520907 12894 net.cpp:124] Setting up res4a_relu
I1022 23:41:04.520918 12894 net.cpp:131] Top shape: 2 1024 24 32 (1572864)
I1022 23:41:04.520922 12894 net.cpp:139] Memory required for data: 1451754752
I1022 23:41:04.520925 12894 layer_factory.hpp:77] Creating layer res4a_res4a_relu_0_split
I1022 23:41:04.520931 12894 net.cpp:86] Creating Layer res4a_res4a_relu_0_split
I1022 23:41:04.520934 12894 net.cpp:408] res4a_res4a_relu_0_split <- res4a
I1022 23:41:04.520951 12894 net.cpp:382] res4a_res4a_relu_0_split -> res4a_res4a_relu_0_split_0
I1022 23:41:04.520959 12894 net.cpp:382] res4a_res4a_relu_0_split -> res4a_res4a_relu_0_split_1
I1022 23:41:04.521011 12894 net.cpp:124] Setting up res4a_res4a_relu_0_split
I1022 23:41:04.521019 12894 net.cpp:131] Top shape: 2 1024 24 32 (1572864)
I1022 23:41:04.521024 12894 net.cpp:131] Top shape: 2 1024 24 32 (1572864)
I1022 23:41:04.521028 12894 net.cpp:139] Memory required for data: 1464337664
I1022 23:41:04.521030 12894 layer_factory.hpp:77] Creating layer res4b1_branch2a
I1022 23:41:04.521039 12894 net.cpp:86] Creating Layer res4b1_branch2a
I1022 23:41:04.521044 12894 net.cpp:408] res4b1_branch2a <- res4a_res4a_relu_0_split_0
I1022 23:41:04.521059 12894 net.cpp:382] res4b1_branch2a -> res4b1_branch2a
I1022 23:41:04.522886 12894 net.cpp:124] Setting up res4b1_branch2a
I1022 23:41:04.522902 12894 net.cpp:131] Top shape: 2 256 24 32 (393216)
I1022 23:41:04.522922 12894 net.cpp:139] Memory required for data: 1465910528
I1022 23:41:04.522938 12894 layer_factory.hpp:77] Creating layer bn4b1_branch2a
I1022 23:41:04.522948 12894 net.cpp:86] Creating Layer bn4b1_branch2a
I1022 23:41:04.522951 12894 net.cpp:408] bn4b1_branch2a <- res4b1_branch2a
I1022 23:41:04.522975 12894 net.cpp:369] bn4b1_branch2a -> res4b1_branch2a (in-place)
I1022 23:41:04.523205 12894 net.cpp:124] Setting up bn4b1_branch2a
I1022 23:41:04.523213 12894 net.cpp:131] Top shape: 2 256 24 32 (393216)
I1022 23:41:04.523217 12894 net.cpp:139] Memory required for data: 1467483392
I1022 23:41:04.523226 12894 layer_factory.hpp:77] Creating layer scale4b1_branch2a
I1022 23:41:04.523234 12894 net.cpp:86] Creating Layer scale4b1_branch2a
I1022 23:41:04.523238 12894 net.cpp:408] scale4b1_branch2a <- res4b1_branch2a
I1022 23:41:04.523262 12894 net.cpp:369] scale4b1_branch2a -> res4b1_branch2a (in-place)
I1022 23:41:04.523319 12894 layer_factory.hpp:77] Creating layer scale4b1_branch2a
I1022 23:41:04.523447 12894 net.cpp:124] Setting up scale4b1_branch2a
I1022 23:41:04.523455 12894 net.cpp:131] Top shape: 2 256 24 32 (393216)
I1022 23:41:04.523458 12894 net.cpp:139] Memory required for data: 1469056256
I1022 23:41:04.523466 12894 layer_factory.hpp:77] Creating layer res4b1_branch2a_relu
I1022 23:41:04.523473 12894 net.cpp:86] Creating Layer res4b1_branch2a_relu
I1022 23:41:04.523478 12894 net.cpp:408] res4b1_branch2a_relu <- res4b1_branch2a
I1022 23:41:04.523483 12894 net.cpp:369] res4b1_branch2a_relu -> res4b1_branch2a (in-place)
I1022 23:41:04.524111 12894 net.cpp:124] Setting up res4b1_branch2a_relu
I1022 23:41:04.524143 12894 net.cpp:131] Top shape: 2 256 24 32 (393216)
I1022 23:41:04.524148 12894 net.cpp:139] Memory required for data: 1470629120
I1022 23:41:04.524160 12894 layer_factory.hpp:77] Creating layer res4b1_branch2b
I1022 23:41:04.524173 12894 net.cpp:86] Creating Layer res4b1_branch2b
I1022 23:41:04.524176 12894 net.cpp:408] res4b1_branch2b <- res4b1_branch2a
I1022 23:41:04.524188 12894 net.cpp:382] res4b1_branch2b -> res4b1_branch2b
I1022 23:41:04.527669 12894 net.cpp:124] Setting up res4b1_branch2b
I1022 23:41:04.527686 12894 net.cpp:131] Top shape: 2 256 24 32 (393216)
I1022 23:41:04.527705 12894 net.cpp:139] Memory required for data: 1472201984
I1022 23:41:04.527714 12894 layer_factory.hpp:77] Creating layer bn4b1_branch2b
I1022 23:41:04.527722 12894 net.cpp:86] Creating Layer bn4b1_branch2b
I1022 23:41:04.527729 12894 net.cpp:408] bn4b1_branch2b <- res4b1_branch2b
I1022 23:41:04.527736 12894 net.cpp:369] bn4b1_branch2b -> res4b1_branch2b (in-place)
I1022 23:41:04.527978 12894 net.cpp:124] Setting up bn4b1_branch2b
I1022 23:41:04.527987 12894 net.cpp:131] Top shape: 2 256 24 32 (393216)
I1022 23:41:04.527992 12894 net.cpp:139] Memory required for data: 1473774848
I1022 23:41:04.528000 12894 layer_factory.hpp:77] Creating layer scale4b1_branch2b
I1022 23:41:04.528007 12894 net.cpp:86] Creating Layer scale4b1_branch2b
I1022 23:41:04.528010 12894 net.cpp:408] scale4b1_branch2b <- res4b1_branch2b
I1022 23:41:04.528015 12894 net.cpp:369] scale4b1_branch2b -> res4b1_branch2b (in-place)
I1022 23:41:04.528064 12894 layer_factory.hpp:77] Creating layer scale4b1_branch2b
I1022 23:41:04.528192 12894 net.cpp:124] Setting up scale4b1_branch2b
I1022 23:41:04.528203 12894 net.cpp:131] Top shape: 2 256 24 32 (393216)
I1022 23:41:04.528206 12894 net.cpp:139] Memory required for data: 1475347712
I1022 23:41:04.528228 12894 layer_factory.hpp:77] Creating layer res4b1_branch2b_relu
I1022 23:41:04.528235 12894 net.cpp:86] Creating Layer res4b1_branch2b_relu
I1022 23:41:04.528239 12894 net.cpp:408] res4b1_branch2b_relu <- res4b1_branch2b
I1022 23:41:04.528247 12894 net.cpp:369] res4b1_branch2b_relu -> res4b1_branch2b (in-place)
I1022 23:41:04.528496 12894 net.cpp:124] Setting up res4b1_branch2b_relu
I1022 23:41:04.528508 12894 net.cpp:131] Top shape: 2 256 24 32 (393216)
I1022 23:41:04.528512 12894 net.cpp:139] Memory required for data: 1476920576
I1022 23:41:04.528515 12894 layer_factory.hpp:77] Creating layer res4b1_branch2c
I1022 23:41:04.528525 12894 net.cpp:86] Creating Layer res4b1_branch2c
I1022 23:41:04.528529 12894 net.cpp:408] res4b1_branch2c <- res4b1_branch2b
I1022 23:41:04.528537 12894 net.cpp:382] res4b1_branch2c -> res4b1_branch2c
I1022 23:41:04.531318 12894 net.cpp:124] Setting up res4b1_branch2c
I1022 23:41:04.531335 12894 net.cpp:131] Top shape: 2 1024 24 32 (1572864)
I1022 23:41:04.531354 12894 net.cpp:139] Memory required for data: 1483212032
I1022 23:41:04.531361 12894 layer_factory.hpp:77] Creating layer bn4b1_branch2c
I1022 23:41:04.531371 12894 net.cpp:86] Creating Layer bn4b1_branch2c
I1022 23:41:04.531376 12894 net.cpp:408] bn4b1_branch2c <- res4b1_branch2c
I1022 23:41:04.531384 12894 net.cpp:369] bn4b1_branch2c -> res4b1_branch2c (in-place)
I1022 23:41:04.531620 12894 net.cpp:124] Setting up bn4b1_branch2c
I1022 23:41:04.531642 12894 net.cpp:131] Top shape: 2 1024 24 32 (1572864)
I1022 23:41:04.531646 12894 net.cpp:139] Memory required for data: 1489503488
I1022 23:41:04.531656 12894 layer_factory.hpp:77] Creating layer scale4b1_branch2c
I1022 23:41:04.531673 12894 net.cpp:86] Creating Layer scale4b1_branch2c
I1022 23:41:04.531682 12894 net.cpp:408] scale4b1_branch2c <- res4b1_branch2c
I1022 23:41:04.531693 12894 net.cpp:369] scale4b1_branch2c -> res4b1_branch2c (in-place)
I1022 23:41:04.531744 12894 layer_factory.hpp:77] Creating layer scale4b1_branch2c
I1022 23:41:04.531879 12894 net.cpp:124] Setting up scale4b1_branch2c
I1022 23:41:04.531888 12894 net.cpp:131] Top shape: 2 1024 24 32 (1572864)
I1022 23:41:04.531893 12894 net.cpp:139] Memory required for data: 1495794944
I1022 23:41:04.531899 12894 layer_factory.hpp:77] Creating layer res4b1
I1022 23:41:04.531905 12894 net.cpp:86] Creating Layer res4b1
I1022 23:41:04.531909 12894 net.cpp:408] res4b1 <- res4a_res4a_relu_0_split_1
I1022 23:41:04.531914 12894 net.cpp:408] res4b1 <- res4b1_branch2c
I1022 23:41:04.531925 12894 net.cpp:382] res4b1 -> res4b1
I1022 23:41:04.531953 12894 net.cpp:124] Setting up res4b1
I1022 23:41:04.531961 12894 net.cpp:131] Top shape: 2 1024 24 32 (1572864)
I1022 23:41:04.531965 12894 net.cpp:139] Memory required for data: 1502086400
I1022 23:41:04.531967 12894 layer_factory.hpp:77] Creating layer res4b1_relu
I1022 23:41:04.531975 12894 net.cpp:86] Creating Layer res4b1_relu
I1022 23:41:04.531978 12894 net.cpp:408] res4b1_relu <- res4b1
I1022 23:41:04.531991 12894 net.cpp:369] res4b1_relu -> res4b1 (in-place)
I1022 23:41:04.532227 12894 net.cpp:124] Setting up res4b1_relu
I1022 23:41:04.532238 12894 net.cpp:131] Top shape: 2 1024 24 32 (1572864)
I1022 23:41:04.532240 12894 net.cpp:139] Memory required for data: 1508377856
I1022 23:41:04.532251 12894 layer_factory.hpp:77] Creating layer res4b1_res4b1_relu_0_split
I1022 23:41:04.532256 12894 net.cpp:86] Creating Layer res4b1_res4b1_relu_0_split
I1022 23:41:04.532260 12894 net.cpp:408] res4b1_res4b1_relu_0_split <- res4b1
I1022 23:41:04.532269 12894 net.cpp:382] res4b1_res4b1_relu_0_split -> res4b1_res4b1_relu_0_split_0
I1022 23:41:04.532276 12894 net.cpp:382] res4b1_res4b1_relu_0_split -> res4b1_res4b1_relu_0_split_1
I1022 23:41:04.532327 12894 net.cpp:124] Setting up res4b1_res4b1_relu_0_split
I1022 23:41:04.532335 12894 net.cpp:131] Top shape: 2 1024 24 32 (1572864)
I1022 23:41:04.532339 12894 net.cpp:131] Top shape: 2 1024 24 32 (1572864)
I1022 23:41:04.532343 12894 net.cpp:139] Memory required for data: 1520960768
I1022 23:41:04.532346 12894 layer_factory.hpp:77] Creating layer res4b2_branch2a
I1022 23:41:04.532356 12894 net.cpp:86] Creating Layer res4b2_branch2a
I1022 23:41:04.532359 12894 net.cpp:408] res4b2_branch2a <- res4b1_res4b1_relu_0_split_0
I1022 23:41:04.532374 12894 net.cpp:382] res4b2_branch2a -> res4b2_branch2a
I1022 23:41:04.537695 12894 net.cpp:124] Setting up res4b2_branch2a
I1022 23:41:04.537729 12894 net.cpp:131] Top shape: 2 256 24 32 (393216)
I1022 23:41:04.537732 12894 net.cpp:139] Memory required for data: 1522533632
I1022 23:41:04.537740 12894 layer_factory.hpp:77] Creating layer bn4b2_branch2a
I1022 23:41:04.537750 12894 net.cpp:86] Creating Layer bn4b2_branch2a
I1022 23:41:04.537755 12894 net.cpp:408] bn4b2_branch2a <- res4b2_branch2a
I1022 23:41:04.537760 12894 net.cpp:369] bn4b2_branch2a -> res4b2_branch2a (in-place)
I1022 23:41:04.537997 12894 net.cpp:124] Setting up bn4b2_branch2a
I1022 23:41:04.538007 12894 net.cpp:131] Top shape: 2 256 24 32 (393216)
I1022 23:41:04.538009 12894 net.cpp:139] Memory required for data: 1524106496
I1022 23:41:04.538018 12894 layer_factory.hpp:77] Creating layer scale4b2_branch2a
I1022 23:41:04.538035 12894 net.cpp:86] Creating Layer scale4b2_branch2a
I1022 23:41:04.538040 12894 net.cpp:408] scale4b2_branch2a <- res4b2_branch2a
I1022 23:41:04.538051 12894 net.cpp:369] scale4b2_branch2a -> res4b2_branch2a (in-place)
I1022 23:41:04.538106 12894 layer_factory.hpp:77] Creating layer scale4b2_branch2a
I1022 23:41:04.538239 12894 net.cpp:124] Setting up scale4b2_branch2a
I1022 23:41:04.538261 12894 net.cpp:131] Top shape: 2 256 24 32 (393216)
I1022 23:41:04.538265 12894 net.cpp:139] Memory required for data: 1525679360
I1022 23:41:04.538272 12894 layer_factory.hpp:77] Creating layer res4b2_branch2a_relu
I1022 23:41:04.538280 12894 net.cpp:86] Creating Layer res4b2_branch2a_relu
I1022 23:41:04.538285 12894 net.cpp:408] res4b2_branch2a_relu <- res4b2_branch2a
I1022 23:41:04.538290 12894 net.cpp:369] res4b2_branch2a_relu -> res4b2_branch2a (in-place)
I1022 23:41:04.538528 12894 net.cpp:124] Setting up res4b2_branch2a_relu
I1022 23:41:04.538539 12894 net.cpp:131] Top shape: 2 256 24 32 (393216)
I1022 23:41:04.538543 12894 net.cpp:139] Memory required for data: 1527252224
I1022 23:41:04.538547 12894 layer_factory.hpp:77] Creating layer res4b2_branch2b
I1022 23:41:04.538556 12894 net.cpp:86] Creating Layer res4b2_branch2b
I1022 23:41:04.538560 12894 net.cpp:408] res4b2_branch2b <- res4b2_branch2a
I1022 23:41:04.538568 12894 net.cpp:382] res4b2_branch2b -> res4b2_branch2b
I1022 23:41:04.542073 12894 net.cpp:124] Setting up res4b2_branch2b
I1022 23:41:04.542089 12894 net.cpp:131] Top shape: 2 256 24 32 (393216)
I1022 23:41:04.542109 12894 net.cpp:139] Memory required for data: 1528825088
I1022 23:41:04.542117 12894 layer_factory.hpp:77] Creating layer bn4b2_branch2b
I1022 23:41:04.542126 12894 net.cpp:86] Creating Layer bn4b2_branch2b
I1022 23:41:04.542130 12894 net.cpp:408] bn4b2_branch2b <- res4b2_branch2b
I1022 23:41:04.542138 12894 net.cpp:369] bn4b2_branch2b -> res4b2_branch2b (in-place)
I1022 23:41:04.542384 12894 net.cpp:124] Setting up bn4b2_branch2b
I1022 23:41:04.542393 12894 net.cpp:131] Top shape: 2 256 24 32 (393216)
I1022 23:41:04.542397 12894 net.cpp:139] Memory required for data: 1530397952
I1022 23:41:04.542415 12894 layer_factory.hpp:77] Creating layer scale4b2_branch2b
I1022 23:41:04.542426 12894 net.cpp:86] Creating Layer scale4b2_branch2b
I1022 23:41:04.542430 12894 net.cpp:408] scale4b2_branch2b <- res4b2_branch2b
I1022 23:41:04.542449 12894 net.cpp:369] scale4b2_branch2b -> res4b2_branch2b (in-place)
I1022 23:41:04.542501 12894 layer_factory.hpp:77] Creating layer scale4b2_branch2b
I1022 23:41:04.542634 12894 net.cpp:124] Setting up scale4b2_branch2b
I1022 23:41:04.542644 12894 net.cpp:131] Top shape: 2 256 24 32 (393216)
I1022 23:41:04.542646 12894 net.cpp:139] Memory required for data: 1531970816
I1022 23:41:04.542654 12894 layer_factory.hpp:77] Creating layer res4b2_branch2b_relu
I1022 23:41:04.542659 12894 net.cpp:86] Creating Layer res4b2_branch2b_relu
I1022 23:41:04.542663 12894 net.cpp:408] res4b2_branch2b_relu <- res4b2_branch2b
I1022 23:41:04.542670 12894 net.cpp:369] res4b2_branch2b_relu -> res4b2_branch2b (in-place)
I1022 23:41:04.543292 12894 net.cpp:124] Setting up res4b2_branch2b_relu
I1022 23:41:04.543321 12894 net.cpp:131] Top shape: 2 256 24 32 (393216)
I1022 23:41:04.543340 12894 net.cpp:139] Memory required for data: 1533543680
I1022 23:41:04.543344 12894 layer_factory.hpp:77] Creating layer res4b2_branch2c
I1022 23:41:04.543355 12894 net.cpp:86] Creating Layer res4b2_branch2c
I1022 23:41:04.543360 12894 net.cpp:408] res4b2_branch2c <- res4b2_branch2b
I1022 23:41:04.543383 12894 net.cpp:382] res4b2_branch2c -> res4b2_branch2c
I1022 23:41:04.546159 12894 net.cpp:124] Setting up res4b2_branch2c
I1022 23:41:04.546175 12894 net.cpp:131] Top shape: 2 1024 24 32 (1572864)
I1022 23:41:04.546195 12894 net.cpp:139] Memory required for data: 1539835136
I1022 23:41:04.546211 12894 layer_factory.hpp:77] Creating layer bn4b2_branch2c
I1022 23:41:04.546221 12894 net.cpp:86] Creating Layer bn4b2_branch2c
I1022 23:41:04.546226 12894 net.cpp:408] bn4b2_branch2c <- res4b2_branch2c
I1022 23:41:04.546234 12894 net.cpp:369] bn4b2_branch2c -> res4b2_branch2c (in-place)
I1022 23:41:04.546489 12894 net.cpp:124] Setting up bn4b2_branch2c
I1022 23:41:04.546499 12894 net.cpp:131] Top shape: 2 1024 24 32 (1572864)
I1022 23:41:04.546501 12894 net.cpp:139] Memory required for data: 1546126592
I1022 23:41:04.546511 12894 layer_factory.hpp:77] Creating layer scale4b2_branch2c
I1022 23:41:04.546530 12894 net.cpp:86] Creating Layer scale4b2_branch2c
I1022 23:41:04.546535 12894 net.cpp:408] scale4b2_branch2c <- res4b2_branch2c
I1022 23:41:04.546550 12894 net.cpp:369] scale4b2_branch2c -> res4b2_branch2c (in-place)
I1022 23:41:04.546597 12894 layer_factory.hpp:77] Creating layer scale4b2_branch2c
I1022 23:41:04.546730 12894 net.cpp:124] Setting up scale4b2_branch2c
I1022 23:41:04.546741 12894 net.cpp:131] Top shape: 2 1024 24 32 (1572864)
I1022 23:41:04.546743 12894 net.cpp:139] Memory required for data: 1552418048
I1022 23:41:04.546751 12894 layer_factory.hpp:77] Creating layer res4b2
I1022 23:41:04.546759 12894 net.cpp:86] Creating Layer res4b2
I1022 23:41:04.546762 12894 net.cpp:408] res4b2 <- res4b1_res4b1_relu_0_split_1
I1022 23:41:04.546767 12894 net.cpp:408] res4b2 <- res4b2_branch2c
I1022 23:41:04.546773 12894 net.cpp:382] res4b2 -> res4b2
I1022 23:41:04.546803 12894 net.cpp:124] Setting up res4b2
I1022 23:41:04.546811 12894 net.cpp:131] Top shape: 2 1024 24 32 (1572864)
I1022 23:41:04.546814 12894 net.cpp:139] Memory required for data: 1558709504
I1022 23:41:04.546824 12894 layer_factory.hpp:77] Creating layer res4b2_relu
I1022 23:41:04.546830 12894 net.cpp:86] Creating Layer res4b2_relu
I1022 23:41:04.546834 12894 net.cpp:408] res4b2_relu <- res4b2
I1022 23:41:04.546845 12894 net.cpp:369] res4b2_relu -> res4b2 (in-place)
I1022 23:41:04.547081 12894 net.cpp:124] Setting up res4b2_relu
I1022 23:41:04.547093 12894 net.cpp:131] Top shape: 2 1024 24 32 (1572864)
I1022 23:41:04.547096 12894 net.cpp:139] Memory required for data: 1565000960
I1022 23:41:04.547099 12894 layer_factory.hpp:77] Creating layer res4b2_res4b2_relu_0_split
I1022 23:41:04.547109 12894 net.cpp:86] Creating Layer res4b2_res4b2_relu_0_split
I1022 23:41:04.547113 12894 net.cpp:408] res4b2_res4b2_relu_0_split <- res4b2
I1022 23:41:04.547118 12894 net.cpp:382] res4b2_res4b2_relu_0_split -> res4b2_res4b2_relu_0_split_0
I1022 23:41:04.547125 12894 net.cpp:382] res4b2_res4b2_relu_0_split -> res4b2_res4b2_relu_0_split_1
I1022 23:41:04.547178 12894 net.cpp:124] Setting up res4b2_res4b2_relu_0_split
I1022 23:41:04.547185 12894 net.cpp:131] Top shape: 2 1024 24 32 (1572864)
I1022 23:41:04.547189 12894 net.cpp:131] Top shape: 2 1024 24 32 (1572864)
I1022 23:41:04.547192 12894 net.cpp:139] Memory required for data: 1577583872
I1022 23:41:04.547196 12894 layer_factory.hpp:77] Creating layer res4b3_branch2a
I1022 23:41:04.547206 12894 net.cpp:86] Creating Layer res4b3_branch2a
I1022 23:41:04.547210 12894 net.cpp:408] res4b3_branch2a <- res4b2_res4b2_relu_0_split_0
I1022 23:41:04.547225 12894 net.cpp:382] res4b3_branch2a -> res4b3_branch2a
I1022 23:41:04.548715 12894 net.cpp:124] Setting up res4b3_branch2a
I1022 23:41:04.548732 12894 net.cpp:131] Top shape: 2 256 24 32 (393216)
I1022 23:41:04.548750 12894 net.cpp:139] Memory required for data: 1579156736
I1022 23:41:04.548758 12894 layer_factory.hpp:77] Creating layer bn4b3_branch2a
I1022 23:41:04.548777 12894 net.cpp:86] Creating Layer bn4b3_branch2a
I1022 23:41:04.548782 12894 net.cpp:408] bn4b3_branch2a <- res4b3_branch2a
I1022 23:41:04.548789 12894 net.cpp:369] bn4b3_branch2a -> res4b3_branch2a (in-place)
I1022 23:41:04.549027 12894 net.cpp:124] Setting up bn4b3_branch2a
I1022 23:41:04.549036 12894 net.cpp:131] Top shape: 2 256 24 32 (393216)
I1022 23:41:04.549041 12894 net.cpp:139] Memory required for data: 1580729600
I1022 23:41:04.549052 12894 layer_factory.hpp:77] Creating layer scale4b3_branch2a
I1022 23:41:04.549057 12894 net.cpp:86] Creating Layer scale4b3_branch2a
I1022 23:41:04.549062 12894 net.cpp:408] scale4b3_branch2a <- res4b3_branch2a
I1022 23:41:04.549067 12894 net.cpp:369] scale4b3_branch2a -> res4b3_branch2a (in-place)
I1022 23:41:04.549118 12894 layer_factory.hpp:77] Creating layer scale4b3_branch2a
I1022 23:41:04.549247 12894 net.cpp:124] Setting up scale4b3_branch2a
I1022 23:41:04.549257 12894 net.cpp:131] Top shape: 2 256 24 32 (393216)
I1022 23:41:04.549262 12894 net.cpp:139] Memory required for data: 1582302464
I1022 23:41:04.549268 12894 layer_factory.hpp:77] Creating layer res4b3_branch2a_relu
I1022 23:41:04.549288 12894 net.cpp:86] Creating Layer res4b3_branch2a_relu
I1022 23:41:04.549293 12894 net.cpp:408] res4b3_branch2a_relu <- res4b3_branch2a
I1022 23:41:04.549299 12894 net.cpp:369] res4b3_branch2a_relu -> res4b3_branch2a (in-place)
I1022 23:41:04.549536 12894 net.cpp:124] Setting up res4b3_branch2a_relu
I1022 23:41:04.549547 12894 net.cpp:131] Top shape: 2 256 24 32 (393216)
I1022 23:41:04.549551 12894 net.cpp:139] Memory required for data: 1583875328
I1022 23:41:04.549554 12894 layer_factory.hpp:77] Creating layer res4b3_branch2b
I1022 23:41:04.549572 12894 net.cpp:86] Creating Layer res4b3_branch2b
I1022 23:41:04.549576 12894 net.cpp:408] res4b3_branch2b <- res4b3_branch2a
I1022 23:41:04.549590 12894 net.cpp:382] res4b3_branch2b -> res4b3_branch2b
I1022 23:41:04.553576 12894 net.cpp:124] Setting up res4b3_branch2b
I1022 23:41:04.553603 12894 net.cpp:131] Top shape: 2 256 24 32 (393216)
I1022 23:41:04.553607 12894 net.cpp:139] Memory required for data: 1585448192
I1022 23:41:04.553616 12894 layer_factory.hpp:77] Creating layer bn4b3_branch2b
I1022 23:41:04.553625 12894 net.cpp:86] Creating Layer bn4b3_branch2b
I1022 23:41:04.553629 12894 net.cpp:408] bn4b3_branch2b <- res4b3_branch2b
I1022 23:41:04.553637 12894 net.cpp:369] bn4b3_branch2b -> res4b3_branch2b (in-place)
I1022 23:41:04.553884 12894 net.cpp:124] Setting up bn4b3_branch2b
I1022 23:41:04.553894 12894 net.cpp:131] Top shape: 2 256 24 32 (393216)
I1022 23:41:04.553896 12894 net.cpp:139] Memory required for data: 1587021056
I1022 23:41:04.553905 12894 layer_factory.hpp:77] Creating layer scale4b3_branch2b
I1022 23:41:04.553915 12894 net.cpp:86] Creating Layer scale4b3_branch2b
I1022 23:41:04.553918 12894 net.cpp:408] scale4b3_branch2b <- res4b3_branch2b
I1022 23:41:04.553932 12894 net.cpp:369] scale4b3_branch2b -> res4b3_branch2b (in-place)
I1022 23:41:04.553987 12894 layer_factory.hpp:77] Creating layer scale4b3_branch2b
I1022 23:41:04.554119 12894 net.cpp:124] Setting up scale4b3_branch2b
I1022 23:41:04.554128 12894 net.cpp:131] Top shape: 2 256 24 32 (393216)
I1022 23:41:04.554132 12894 net.cpp:139] Memory required for data: 1588593920
I1022 23:41:04.554147 12894 layer_factory.hpp:77] Creating layer res4b3_branch2b_relu
I1022 23:41:04.554154 12894 net.cpp:86] Creating Layer res4b3_branch2b_relu
I1022 23:41:04.554158 12894 net.cpp:408] res4b3_branch2b_relu <- res4b3_branch2b
I1022 23:41:04.554162 12894 net.cpp:369] res4b3_branch2b_relu -> res4b3_branch2b (in-place)
I1022 23:41:04.554805 12894 net.cpp:124] Setting up res4b3_branch2b_relu
I1022 23:41:04.554821 12894 net.cpp:131] Top shape: 2 256 24 32 (393216)
I1022 23:41:04.554841 12894 net.cpp:139] Memory required for data: 1590166784
I1022 23:41:04.554843 12894 layer_factory.hpp:77] Creating layer res4b3_branch2c
I1022 23:41:04.554854 12894 net.cpp:86] Creating Layer res4b3_branch2c
I1022 23:41:04.554859 12894 net.cpp:408] res4b3_branch2c <- res4b3_branch2b
I1022 23:41:04.554877 12894 net.cpp:382] res4b3_branch2c -> res4b3_branch2c
I1022 23:41:04.557796 12894 net.cpp:124] Setting up res4b3_branch2c
I1022 23:41:04.557831 12894 net.cpp:131] Top shape: 2 1024 24 32 (1572864)
I1022 23:41:04.557835 12894 net.cpp:139] Memory required for data: 1596458240
I1022 23:41:04.557842 12894 layer_factory.hpp:77] Creating layer bn4b3_branch2c
I1022 23:41:04.557849 12894 net.cpp:86] Creating Layer bn4b3_branch2c
I1022 23:41:04.557853 12894 net.cpp:408] bn4b3_branch2c <- res4b3_branch2c
I1022 23:41:04.557862 12894 net.cpp:369] bn4b3_branch2c -> res4b3_branch2c (in-place)
I1022 23:41:04.558125 12894 net.cpp:124] Setting up bn4b3_branch2c
I1022 23:41:04.558133 12894 net.cpp:131] Top shape: 2 1024 24 32 (1572864)
I1022 23:41:04.558137 12894 net.cpp:139] Memory required for data: 1602749696
I1022 23:41:04.558146 12894 layer_factory.hpp:77] Creating layer scale4b3_branch2c
I1022 23:41:04.558163 12894 net.cpp:86] Creating Layer scale4b3_branch2c
I1022 23:41:04.558167 12894 net.cpp:408] scale4b3_branch2c <- res4b3_branch2c
I1022 23:41:04.558176 12894 net.cpp:369] scale4b3_branch2c -> res4b3_branch2c (in-place)
I1022 23:41:04.558236 12894 layer_factory.hpp:77] Creating layer scale4b3_branch2c
I1022 23:41:04.558372 12894 net.cpp:124] Setting up scale4b3_branch2c
I1022 23:41:04.558382 12894 net.cpp:131] Top shape: 2 1024 24 32 (1572864)
I1022 23:41:04.558384 12894 net.cpp:139] Memory required for data: 1609041152
I1022 23:41:04.558393 12894 layer_factory.hpp:77] Creating layer res4b3
I1022 23:41:04.558400 12894 net.cpp:86] Creating Layer res4b3
I1022 23:41:04.558404 12894 net.cpp:408] res4b3 <- res4b2_res4b2_relu_0_split_1
I1022 23:41:04.558414 12894 net.cpp:408] res4b3 <- res4b3_branch2c
I1022 23:41:04.558420 12894 net.cpp:382] res4b3 -> res4b3
I1022 23:41:04.558450 12894 net.cpp:124] Setting up res4b3
I1022 23:41:04.558459 12894 net.cpp:131] Top shape: 2 1024 24 32 (1572864)
I1022 23:41:04.558461 12894 net.cpp:139] Memory required for data: 1615332608
I1022 23:41:04.558465 12894 layer_factory.hpp:77] Creating layer res4b3_relu
I1022 23:41:04.558470 12894 net.cpp:86] Creating Layer res4b3_relu
I1022 23:41:04.558473 12894 net.cpp:408] res4b3_relu <- res4b3
I1022 23:41:04.558487 12894 net.cpp:369] res4b3_relu -> res4b3 (in-place)
I1022 23:41:04.558727 12894 net.cpp:124] Setting up res4b3_relu
I1022 23:41:04.558739 12894 net.cpp:131] Top shape: 2 1024 24 32 (1572864)
I1022 23:41:04.558743 12894 net.cpp:139] Memory required for data: 1621624064
I1022 23:41:04.558746 12894 layer_factory.hpp:77] Creating layer res4b3_res4b3_relu_0_split
I1022 23:41:04.558753 12894 net.cpp:86] Creating Layer res4b3_res4b3_relu_0_split
I1022 23:41:04.558756 12894 net.cpp:408] res4b3_res4b3_relu_0_split <- res4b3
I1022 23:41:04.558761 12894 net.cpp:382] res4b3_res4b3_relu_0_split -> res4b3_res4b3_relu_0_split_0
I1022 23:41:04.558771 12894 net.cpp:382] res4b3_res4b3_relu_0_split -> res4b3_res4b3_relu_0_split_1
I1022 23:41:04.558823 12894 net.cpp:124] Setting up res4b3_res4b3_relu_0_split
I1022 23:41:04.558831 12894 net.cpp:131] Top shape: 2 1024 24 32 (1572864)
I1022 23:41:04.558835 12894 net.cpp:131] Top shape: 2 1024 24 32 (1572864)
I1022 23:41:04.558838 12894 net.cpp:139] Memory required for data: 1634206976
I1022 23:41:04.558848 12894 layer_factory.hpp:77] Creating layer res4b4_branch2a
I1022 23:41:04.558858 12894 net.cpp:86] Creating Layer res4b4_branch2a
I1022 23:41:04.558862 12894 net.cpp:408] res4b4_branch2a <- res4b3_res4b3_relu_0_split_0
I1022 23:41:04.558876 12894 net.cpp:382] res4b4_branch2a -> res4b4_branch2a
I1022 23:41:04.560406 12894 net.cpp:124] Setting up res4b4_branch2a
I1022 23:41:04.560421 12894 net.cpp:131] Top shape: 2 256 24 32 (393216)
I1022 23:41:04.560443 12894 net.cpp:139] Memory required for data: 1635779840
I1022 23:41:04.560461 12894 layer_factory.hpp:77] Creating layer bn4b4_branch2a
I1022 23:41:04.560472 12894 net.cpp:86] Creating Layer bn4b4_branch2a
I1022 23:41:04.560477 12894 net.cpp:408] bn4b4_branch2a <- res4b4_branch2a
I1022 23:41:04.560487 12894 net.cpp:369] bn4b4_branch2a -> res4b4_branch2a (in-place)
I1022 23:41:04.560739 12894 net.cpp:124] Setting up bn4b4_branch2a
I1022 23:41:04.560750 12894 net.cpp:131] Top shape: 2 256 24 32 (393216)
I1022 23:41:04.560755 12894 net.cpp:139] Memory required for data: 1637352704
I1022 23:41:04.560762 12894 layer_factory.hpp:77] Creating layer scale4b4_branch2a
I1022 23:41:04.560768 12894 net.cpp:86] Creating Layer scale4b4_branch2a
I1022 23:41:04.560773 12894 net.cpp:408] scale4b4_branch2a <- res4b4_branch2a
I1022 23:41:04.560786 12894 net.cpp:369] scale4b4_branch2a -> res4b4_branch2a (in-place)
I1022 23:41:04.560839 12894 layer_factory.hpp:77] Creating layer scale4b4_branch2a
I1022 23:41:04.560974 12894 net.cpp:124] Setting up scale4b4_branch2a
I1022 23:41:04.560984 12894 net.cpp:131] Top shape: 2 256 24 32 (393216)
I1022 23:41:04.560987 12894 net.cpp:139] Memory required for data: 1638925568
I1022 23:41:04.561000 12894 layer_factory.hpp:77] Creating layer res4b4_branch2a_relu
I1022 23:41:04.561007 12894 net.cpp:86] Creating Layer res4b4_branch2a_relu
I1022 23:41:04.561010 12894 net.cpp:408] res4b4_branch2a_relu <- res4b4_branch2a
I1022 23:41:04.561030 12894 net.cpp:369] res4b4_branch2a_relu -> res4b4_branch2a (in-place)
I1022 23:41:04.561264 12894 net.cpp:124] Setting up res4b4_branch2a_relu
I1022 23:41:04.561275 12894 net.cpp:131] Top shape: 2 256 24 32 (393216)
I1022 23:41:04.561280 12894 net.cpp:139] Memory required for data: 1640498432
I1022 23:41:04.561282 12894 layer_factory.hpp:77] Creating layer res4b4_branch2b
I1022 23:41:04.561292 12894 net.cpp:86] Creating Layer res4b4_branch2b
I1022 23:41:04.561296 12894 net.cpp:408] res4b4_branch2b <- res4b4_branch2a
I1022 23:41:04.561312 12894 net.cpp:382] res4b4_branch2b -> res4b4_branch2b
I1022 23:41:04.564821 12894 net.cpp:124] Setting up res4b4_branch2b
I1022 23:41:04.564849 12894 net.cpp:131] Top shape: 2 256 24 32 (393216)
I1022 23:41:04.564853 12894 net.cpp:139] Memory required for data: 1642071296
I1022 23:41:04.564860 12894 layer_factory.hpp:77] Creating layer bn4b4_branch2b
I1022 23:41:04.564869 12894 net.cpp:86] Creating Layer bn4b4_branch2b
I1022 23:41:04.564873 12894 net.cpp:408] bn4b4_branch2b <- res4b4_branch2b
I1022 23:41:04.564894 12894 net.cpp:369] bn4b4_branch2b -> res4b4_branch2b (in-place)
I1022 23:41:04.565146 12894 net.cpp:124] Setting up bn4b4_branch2b
I1022 23:41:04.565156 12894 net.cpp:131] Top shape: 2 256 24 32 (393216)
I1022 23:41:04.565160 12894 net.cpp:139] Memory required for data: 1643644160
I1022 23:41:04.565178 12894 layer_factory.hpp:77] Creating layer scale4b4_branch2b
I1022 23:41:04.565191 12894 net.cpp:86] Creating Layer scale4b4_branch2b
I1022 23:41:04.565194 12894 net.cpp:408] scale4b4_branch2b <- res4b4_branch2b
I1022 23:41:04.565207 12894 net.cpp:369] scale4b4_branch2b -> res4b4_branch2b (in-place)
I1022 23:41:04.565266 12894 layer_factory.hpp:77] Creating layer scale4b4_branch2b
I1022 23:41:04.565402 12894 net.cpp:124] Setting up scale4b4_branch2b
I1022 23:41:04.565410 12894 net.cpp:131] Top shape: 2 256 24 32 (393216)
I1022 23:41:04.565413 12894 net.cpp:139] Memory required for data: 1645217024
I1022 23:41:04.565420 12894 layer_factory.hpp:77] Creating layer res4b4_branch2b_relu
I1022 23:41:04.565428 12894 net.cpp:86] Creating Layer res4b4_branch2b_relu
I1022 23:41:04.565433 12894 net.cpp:408] res4b4_branch2b_relu <- res4b4_branch2b
I1022 23:41:04.565438 12894 net.cpp:369] res4b4_branch2b_relu -> res4b4_branch2b (in-place)
I1022 23:41:04.566089 12894 net.cpp:124] Setting up res4b4_branch2b_relu
I1022 23:41:04.566104 12894 net.cpp:131] Top shape: 2 256 24 32 (393216)
I1022 23:41:04.566125 12894 net.cpp:139] Memory required for data: 1646789888
I1022 23:41:04.566128 12894 layer_factory.hpp:77] Creating layer res4b4_branch2c
I1022 23:41:04.566136 12894 net.cpp:86] Creating Layer res4b4_branch2c
I1022 23:41:04.566141 12894 net.cpp:408] res4b4_branch2c <- res4b4_branch2b
I1022 23:41:04.566149 12894 net.cpp:382] res4b4_branch2c -> res4b4_branch2c
I1022 23:41:04.569017 12894 net.cpp:124] Setting up res4b4_branch2c
I1022 23:41:04.569052 12894 net.cpp:131] Top shape: 2 1024 24 32 (1572864)
I1022 23:41:04.569057 12894 net.cpp:139] Memory required for data: 1653081344
I1022 23:41:04.569072 12894 layer_factory.hpp:77] Creating layer bn4b4_branch2c
I1022 23:41:04.569082 12894 net.cpp:86] Creating Layer bn4b4_branch2c
I1022 23:41:04.569102 12894 net.cpp:408] bn4b4_branch2c <- res4b4_branch2c
I1022 23:41:04.569108 12894 net.cpp:369] bn4b4_branch2c -> res4b4_branch2c (in-place)
I1022 23:41:04.569360 12894 net.cpp:124] Setting up bn4b4_branch2c
I1022 23:41:04.569370 12894 net.cpp:131] Top shape: 2 1024 24 32 (1572864)
I1022 23:41:04.569372 12894 net.cpp:139] Memory required for data: 1659372800
I1022 23:41:04.569382 12894 layer_factory.hpp:77] Creating layer scale4b4_branch2c
I1022 23:41:04.569389 12894 net.cpp:86] Creating Layer scale4b4_branch2c
I1022 23:41:04.569392 12894 net.cpp:408] scale4b4_branch2c <- res4b4_branch2c
I1022 23:41:04.569413 12894 net.cpp:369] scale4b4_branch2c -> res4b4_branch2c (in-place)
I1022 23:41:04.569463 12894 layer_factory.hpp:77] Creating layer scale4b4_branch2c
I1022 23:41:04.569607 12894 net.cpp:124] Setting up scale4b4_branch2c
I1022 23:41:04.569630 12894 net.cpp:131] Top shape: 2 1024 24 32 (1572864)
I1022 23:41:04.569634 12894 net.cpp:139] Memory required for data: 1665664256
I1022 23:41:04.569643 12894 layer_factory.hpp:77] Creating layer res4b4
I1022 23:41:04.569648 12894 net.cpp:86] Creating Layer res4b4
I1022 23:41:04.569653 12894 net.cpp:408] res4b4 <- res4b3_res4b3_relu_0_split_1
I1022 23:41:04.569656 12894 net.cpp:408] res4b4 <- res4b4_branch2c
I1022 23:41:04.569663 12894 net.cpp:382] res4b4 -> res4b4
I1022 23:41:04.569695 12894 net.cpp:124] Setting up res4b4
I1022 23:41:04.569703 12894 net.cpp:131] Top shape: 2 1024 24 32 (1572864)
I1022 23:41:04.569706 12894 net.cpp:139] Memory required for data: 1671955712
I1022 23:41:04.569710 12894 layer_factory.hpp:77] Creating layer res4b4_relu
I1022 23:41:04.569725 12894 net.cpp:86] Creating Layer res4b4_relu
I1022 23:41:04.569728 12894 net.cpp:408] res4b4_relu <- res4b4
I1022 23:41:04.569738 12894 net.cpp:369] res4b4_relu -> res4b4 (in-place)
I1022 23:41:04.569979 12894 net.cpp:124] Setting up res4b4_relu
I1022 23:41:04.569993 12894 net.cpp:131] Top shape: 2 1024 24 32 (1572864)
I1022 23:41:04.569998 12894 net.cpp:139] Memory required for data: 1678247168
I1022 23:41:04.570000 12894 layer_factory.hpp:77] Creating layer res4b4_res4b4_relu_0_split
I1022 23:41:04.570008 12894 net.cpp:86] Creating Layer res4b4_res4b4_relu_0_split
I1022 23:41:04.570011 12894 net.cpp:408] res4b4_res4b4_relu_0_split <- res4b4
I1022 23:41:04.570019 12894 net.cpp:382] res4b4_res4b4_relu_0_split -> res4b4_res4b4_relu_0_split_0
I1022 23:41:04.570025 12894 net.cpp:382] res4b4_res4b4_relu_0_split -> res4b4_res4b4_relu_0_split_1
I1022 23:41:04.570077 12894 net.cpp:124] Setting up res4b4_res4b4_relu_0_split
I1022 23:41:04.570086 12894 net.cpp:131] Top shape: 2 1024 24 32 (1572864)
I1022 23:41:04.570089 12894 net.cpp:131] Top shape: 2 1024 24 32 (1572864)
I1022 23:41:04.570092 12894 net.cpp:139] Memory required for data: 1690830080
I1022 23:41:04.570096 12894 layer_factory.hpp:77] Creating layer res4b5_branch2a
I1022 23:41:04.570108 12894 net.cpp:86] Creating Layer res4b5_branch2a
I1022 23:41:04.570112 12894 net.cpp:408] res4b5_branch2a <- res4b4_res4b4_relu_0_split_0
I1022 23:41:04.570125 12894 net.cpp:382] res4b5_branch2a -> res4b5_branch2a
I1022 23:41:04.571625 12894 net.cpp:124] Setting up res4b5_branch2a
I1022 23:41:04.571640 12894 net.cpp:131] Top shape: 2 256 24 32 (393216)
I1022 23:41:04.571655 12894 net.cpp:139] Memory required for data: 1692402944
I1022 23:41:04.571676 12894 layer_factory.hpp:77] Creating layer bn4b5_branch2a
I1022 23:41:04.571704 12894 net.cpp:86] Creating Layer bn4b5_branch2a
I1022 23:41:04.571709 12894 net.cpp:408] bn4b5_branch2a <- res4b5_branch2a
I1022 23:41:04.571717 12894 net.cpp:369] bn4b5_branch2a -> res4b5_branch2a (in-place)
I1022 23:41:04.571974 12894 net.cpp:124] Setting up bn4b5_branch2a
I1022 23:41:04.571983 12894 net.cpp:131] Top shape: 2 256 24 32 (393216)
I1022 23:41:04.571986 12894 net.cpp:139] Memory required for data: 1693975808
I1022 23:41:04.571995 12894 layer_factory.hpp:77] Creating layer scale4b5_branch2a
I1022 23:41:04.572002 12894 net.cpp:86] Creating Layer scale4b5_branch2a
I1022 23:41:04.572006 12894 net.cpp:408] scale4b5_branch2a <- res4b5_branch2a
I1022 23:41:04.572019 12894 net.cpp:369] scale4b5_branch2a -> res4b5_branch2a (in-place)
I1022 23:41:04.572078 12894 layer_factory.hpp:77] Creating layer scale4b5_branch2a
I1022 23:41:04.572214 12894 net.cpp:124] Setting up scale4b5_branch2a
I1022 23:41:04.572226 12894 net.cpp:131] Top shape: 2 256 24 32 (393216)
I1022 23:41:04.572228 12894 net.cpp:139] Memory required for data: 1695548672
I1022 23:41:04.572235 12894 layer_factory.hpp:77] Creating layer res4b5_branch2a_relu
I1022 23:41:04.572240 12894 net.cpp:86] Creating Layer res4b5_branch2a_relu
I1022 23:41:04.572244 12894 net.cpp:408] res4b5_branch2a_relu <- res4b5_branch2a
I1022 23:41:04.572258 12894 net.cpp:369] res4b5_branch2a_relu -> res4b5_branch2a (in-place)
I1022 23:41:04.572512 12894 net.cpp:124] Setting up res4b5_branch2a_relu
I1022 23:41:04.572526 12894 net.cpp:131] Top shape: 2 256 24 32 (393216)
I1022 23:41:04.572543 12894 net.cpp:139] Memory required for data: 1697121536
I1022 23:41:04.572547 12894 layer_factory.hpp:77] Creating layer res4b5_branch2b
I1022 23:41:04.572562 12894 net.cpp:86] Creating Layer res4b5_branch2b
I1022 23:41:04.572566 12894 net.cpp:408] res4b5_branch2b <- res4b5_branch2a
I1022 23:41:04.572582 12894 net.cpp:382] res4b5_branch2b -> res4b5_branch2b
I1022 23:41:04.576140 12894 net.cpp:124] Setting up res4b5_branch2b
I1022 23:41:04.576169 12894 net.cpp:131] Top shape: 2 256 24 32 (393216)
I1022 23:41:04.576174 12894 net.cpp:139] Memory required for data: 1698694400
I1022 23:41:04.576181 12894 layer_factory.hpp:77] Creating layer bn4b5_branch2b
I1022 23:41:04.576190 12894 net.cpp:86] Creating Layer bn4b5_branch2b
I1022 23:41:04.576195 12894 net.cpp:408] bn4b5_branch2b <- res4b5_branch2b
I1022 23:41:04.576210 12894 net.cpp:369] bn4b5_branch2b -> res4b5_branch2b (in-place)
I1022 23:41:04.576486 12894 net.cpp:124] Setting up bn4b5_branch2b
I1022 23:41:04.576496 12894 net.cpp:131] Top shape: 2 256 24 32 (393216)
I1022 23:41:04.576499 12894 net.cpp:139] Memory required for data: 1700267264
I1022 23:41:04.576511 12894 layer_factory.hpp:77] Creating layer scale4b5_branch2b
I1022 23:41:04.576519 12894 net.cpp:86] Creating Layer scale4b5_branch2b
I1022 23:41:04.576522 12894 net.cpp:408] scale4b5_branch2b <- res4b5_branch2b
I1022 23:41:04.576535 12894 net.cpp:369] scale4b5_branch2b -> res4b5_branch2b (in-place)
I1022 23:41:04.576591 12894 layer_factory.hpp:77] Creating layer scale4b5_branch2b
I1022 23:41:04.576726 12894 net.cpp:124] Setting up scale4b5_branch2b
I1022 23:41:04.576735 12894 net.cpp:131] Top shape: 2 256 24 32 (393216)
I1022 23:41:04.576738 12894 net.cpp:139] Memory required for data: 1701840128
I1022 23:41:04.576745 12894 layer_factory.hpp:77] Creating layer res4b5_branch2b_relu
I1022 23:41:04.576759 12894 net.cpp:86] Creating Layer res4b5_branch2b_relu
I1022 23:41:04.576763 12894 net.cpp:408] res4b5_branch2b_relu <- res4b5_branch2b
I1022 23:41:04.576773 12894 net.cpp:369] res4b5_branch2b_relu -> res4b5_branch2b (in-place)
I1022 23:41:04.577013 12894 net.cpp:124] Setting up res4b5_branch2b_relu
I1022 23:41:04.577025 12894 net.cpp:131] Top shape: 2 256 24 32 (393216)
I1022 23:41:04.577028 12894 net.cpp:139] Memory required for data: 1703412992
I1022 23:41:04.577031 12894 layer_factory.hpp:77] Creating layer res4b5_branch2c
I1022 23:41:04.577049 12894 net.cpp:86] Creating Layer res4b5_branch2c
I1022 23:41:04.577054 12894 net.cpp:408] res4b5_branch2c <- res4b5_branch2b
I1022 23:41:04.577059 12894 net.cpp:382] res4b5_branch2c -> res4b5_branch2c
I1022 23:41:04.580296 12894 net.cpp:124] Setting up res4b5_branch2c
I1022 23:41:04.580312 12894 net.cpp:131] Top shape: 2 1024 24 32 (1572864)
I1022 23:41:04.580327 12894 net.cpp:139] Memory required for data: 1709704448
I1022 23:41:04.580334 12894 layer_factory.hpp:77] Creating layer bn4b5_branch2c
I1022 23:41:04.580345 12894 net.cpp:86] Creating Layer bn4b5_branch2c
I1022 23:41:04.580350 12894 net.cpp:408] bn4b5_branch2c <- res4b5_branch2c
I1022 23:41:04.580374 12894 net.cpp:369] bn4b5_branch2c -> res4b5_branch2c (in-place)
I1022 23:41:04.580634 12894 net.cpp:124] Setting up bn4b5_branch2c
I1022 23:41:04.580646 12894 net.cpp:131] Top shape: 2 1024 24 32 (1572864)
I1022 23:41:04.580648 12894 net.cpp:139] Memory required for data: 1715995904
I1022 23:41:04.580658 12894 layer_factory.hpp:77] Creating layer scale4b5_branch2c
I1022 23:41:04.580667 12894 net.cpp:86] Creating Layer scale4b5_branch2c
I1022 23:41:04.580672 12894 net.cpp:408] scale4b5_branch2c <- res4b5_branch2c
I1022 23:41:04.580677 12894 net.cpp:369] scale4b5_branch2c -> res4b5_branch2c (in-place)
I1022 23:41:04.580725 12894 layer_factory.hpp:77] Creating layer scale4b5_branch2c
I1022 23:41:04.580866 12894 net.cpp:124] Setting up scale4b5_branch2c
I1022 23:41:04.580875 12894 net.cpp:131] Top shape: 2 1024 24 32 (1572864)
I1022 23:41:04.580878 12894 net.cpp:139] Memory required for data: 1722287360
I1022 23:41:04.580948 12894 layer_factory.hpp:77] Creating layer res4b5
I1022 23:41:04.580971 12894 net.cpp:86] Creating Layer res4b5
I1022 23:41:04.580974 12894 net.cpp:408] res4b5 <- res4b4_res4b4_relu_0_split_1
I1022 23:41:04.580979 12894 net.cpp:408] res4b5 <- res4b5_branch2c
I1022 23:41:04.580986 12894 net.cpp:382] res4b5 -> res4b5
I1022 23:41:04.581019 12894 net.cpp:124] Setting up res4b5
I1022 23:41:04.581027 12894 net.cpp:131] Top shape: 2 1024 24 32 (1572864)
I1022 23:41:04.581032 12894 net.cpp:139] Memory required for data: 1728578816
I1022 23:41:04.581035 12894 layer_factory.hpp:77] Creating layer res4b5_relu
I1022 23:41:04.581039 12894 net.cpp:86] Creating Layer res4b5_relu
I1022 23:41:04.581043 12894 net.cpp:408] res4b5_relu <- res4b5
I1022 23:41:04.581048 12894 net.cpp:369] res4b5_relu -> res4b5 (in-place)
I1022 23:41:04.581714 12894 net.cpp:124] Setting up res4b5_relu
I1022 23:41:04.581743 12894 net.cpp:131] Top shape: 2 1024 24 32 (1572864)
I1022 23:41:04.581748 12894 net.cpp:139] Memory required for data: 1734870272
I1022 23:41:04.581751 12894 layer_factory.hpp:77] Creating layer res4b5_res4b5_relu_0_split
I1022 23:41:04.581758 12894 net.cpp:86] Creating Layer res4b5_res4b5_relu_0_split
I1022 23:41:04.581763 12894 net.cpp:408] res4b5_res4b5_relu_0_split <- res4b5
I1022 23:41:04.581779 12894 net.cpp:382] res4b5_res4b5_relu_0_split -> res4b5_res4b5_relu_0_split_0
I1022 23:41:04.581787 12894 net.cpp:382] res4b5_res4b5_relu_0_split -> res4b5_res4b5_relu_0_split_1
I1022 23:41:04.581845 12894 net.cpp:124] Setting up res4b5_res4b5_relu_0_split
I1022 23:41:04.581853 12894 net.cpp:131] Top shape: 2 1024 24 32 (1572864)
I1022 23:41:04.581858 12894 net.cpp:131] Top shape: 2 1024 24 32 (1572864)
I1022 23:41:04.581861 12894 net.cpp:139] Memory required for data: 1747453184
I1022 23:41:04.581873 12894 layer_factory.hpp:77] Creating layer res4b6_branch2a
I1022 23:41:04.581883 12894 net.cpp:86] Creating Layer res4b6_branch2a
I1022 23:41:04.581887 12894 net.cpp:408] res4b6_branch2a <- res4b5_res4b5_relu_0_split_0
I1022 23:41:04.581895 12894 net.cpp:382] res4b6_branch2a -> res4b6_branch2a
I1022 23:41:04.583446 12894 net.cpp:124] Setting up res4b6_branch2a
I1022 23:41:04.583474 12894 net.cpp:131] Top shape: 2 256 24 32 (393216)
I1022 23:41:04.583478 12894 net.cpp:139] Memory required for data: 1749026048
I1022 23:41:04.583485 12894 layer_factory.hpp:77] Creating layer bn4b6_branch2a
I1022 23:41:04.583495 12894 net.cpp:86] Creating Layer bn4b6_branch2a
I1022 23:41:04.583499 12894 net.cpp:408] bn4b6_branch2a <- res4b6_branch2a
I1022 23:41:04.583505 12894 net.cpp:369] bn4b6_branch2a -> res4b6_branch2a (in-place)
I1022 23:41:04.583756 12894 net.cpp:124] Setting up bn4b6_branch2a
I1022 23:41:04.583765 12894 net.cpp:131] Top shape: 2 256 24 32 (393216)
I1022 23:41:04.583770 12894 net.cpp:139] Memory required for data: 1750598912
I1022 23:41:04.583777 12894 layer_factory.hpp:77] Creating layer scale4b6_branch2a
I1022 23:41:04.583786 12894 net.cpp:86] Creating Layer scale4b6_branch2a
I1022 23:41:04.583791 12894 net.cpp:408] scale4b6_branch2a <- res4b6_branch2a
I1022 23:41:04.583796 12894 net.cpp:369] scale4b6_branch2a -> res4b6_branch2a (in-place)
I1022 23:41:04.583851 12894 layer_factory.hpp:77] Creating layer scale4b6_branch2a
I1022 23:41:04.583988 12894 net.cpp:124] Setting up scale4b6_branch2a
I1022 23:41:04.583998 12894 net.cpp:131] Top shape: 2 256 24 32 (393216)
I1022 23:41:04.584002 12894 net.cpp:139] Memory required for data: 1752171776
I1022 23:41:04.584022 12894 layer_factory.hpp:77] Creating layer res4b6_branch2a_relu
I1022 23:41:04.584030 12894 net.cpp:86] Creating Layer res4b6_branch2a_relu
I1022 23:41:04.584035 12894 net.cpp:408] res4b6_branch2a_relu <- res4b6_branch2a
I1022 23:41:04.584039 12894 net.cpp:369] res4b6_branch2a_relu -> res4b6_branch2a (in-place)
I1022 23:41:04.584275 12894 net.cpp:124] Setting up res4b6_branch2a_relu
I1022 23:41:04.584285 12894 net.cpp:131] Top shape: 2 256 24 32 (393216)
I1022 23:41:04.584290 12894 net.cpp:139] Memory required for data: 1753744640
I1022 23:41:04.584292 12894 layer_factory.hpp:77] Creating layer res4b6_branch2b
I1022 23:41:04.584316 12894 net.cpp:86] Creating Layer res4b6_branch2b
I1022 23:41:04.584321 12894 net.cpp:408] res4b6_branch2b <- res4b6_branch2a
I1022 23:41:04.584331 12894 net.cpp:382] res4b6_branch2b -> res4b6_branch2b
I1022 23:41:04.587904 12894 net.cpp:124] Setting up res4b6_branch2b
I1022 23:41:04.587930 12894 net.cpp:131] Top shape: 2 256 24 32 (393216)
I1022 23:41:04.587935 12894 net.cpp:139] Memory required for data: 1755317504
I1022 23:41:04.587944 12894 layer_factory.hpp:77] Creating layer bn4b6_branch2b
I1022 23:41:04.587952 12894 net.cpp:86] Creating Layer bn4b6_branch2b
I1022 23:41:04.587957 12894 net.cpp:408] bn4b6_branch2b <- res4b6_branch2b
I1022 23:41:04.587965 12894 net.cpp:369] bn4b6_branch2b -> res4b6_branch2b (in-place)
I1022 23:41:04.588225 12894 net.cpp:124] Setting up bn4b6_branch2b
I1022 23:41:04.588235 12894 net.cpp:131] Top shape: 2 256 24 32 (393216)
I1022 23:41:04.588239 12894 net.cpp:139] Memory required for data: 1756890368
I1022 23:41:04.588258 12894 layer_factory.hpp:77] Creating layer scale4b6_branch2b
I1022 23:41:04.588268 12894 net.cpp:86] Creating Layer scale4b6_branch2b
I1022 23:41:04.588271 12894 net.cpp:408] scale4b6_branch2b <- res4b6_branch2b
I1022 23:41:04.588276 12894 net.cpp:369] scale4b6_branch2b -> res4b6_branch2b (in-place)
I1022 23:41:04.588330 12894 layer_factory.hpp:77] Creating layer scale4b6_branch2b
I1022 23:41:04.588490 12894 net.cpp:124] Setting up scale4b6_branch2b
I1022 23:41:04.588500 12894 net.cpp:131] Top shape: 2 256 24 32 (393216)
I1022 23:41:04.588505 12894 net.cpp:139] Memory required for data: 1758463232
I1022 23:41:04.588511 12894 layer_factory.hpp:77] Creating layer res4b6_branch2b_relu
I1022 23:41:04.588517 12894 net.cpp:86] Creating Layer res4b6_branch2b_relu
I1022 23:41:04.588521 12894 net.cpp:408] res4b6_branch2b_relu <- res4b6_branch2b
I1022 23:41:04.588527 12894 net.cpp:369] res4b6_branch2b_relu -> res4b6_branch2b (in-place)
I1022 23:41:04.588764 12894 net.cpp:124] Setting up res4b6_branch2b_relu
I1022 23:41:04.588776 12894 net.cpp:131] Top shape: 2 256 24 32 (393216)
I1022 23:41:04.588779 12894 net.cpp:139] Memory required for data: 1760036096
I1022 23:41:04.588783 12894 layer_factory.hpp:77] Creating layer res4b6_branch2c
I1022 23:41:04.588793 12894 net.cpp:86] Creating Layer res4b6_branch2c
I1022 23:41:04.588798 12894 net.cpp:408] res4b6_branch2c <- res4b6_branch2b
I1022 23:41:04.588805 12894 net.cpp:382] res4b6_branch2c -> res4b6_branch2c
I1022 23:41:04.591943 12894 net.cpp:124] Setting up res4b6_branch2c
I1022 23:41:04.591959 12894 net.cpp:131] Top shape: 2 1024 24 32 (1572864)
I1022 23:41:04.591975 12894 net.cpp:139] Memory required for data: 1766327552
I1022 23:41:04.591982 12894 layer_factory.hpp:77] Creating layer bn4b6_branch2c
I1022 23:41:04.592001 12894 net.cpp:86] Creating Layer bn4b6_branch2c
I1022 23:41:04.592006 12894 net.cpp:408] bn4b6_branch2c <- res4b6_branch2c
I1022 23:41:04.592015 12894 net.cpp:369] bn4b6_branch2c -> res4b6_branch2c (in-place)
I1022 23:41:04.592267 12894 net.cpp:124] Setting up bn4b6_branch2c
I1022 23:41:04.592275 12894 net.cpp:131] Top shape: 2 1024 24 32 (1572864)
I1022 23:41:04.592279 12894 net.cpp:139] Memory required for data: 1772619008
I1022 23:41:04.592289 12894 layer_factory.hpp:77] Creating layer scale4b6_branch2c
I1022 23:41:04.592298 12894 net.cpp:86] Creating Layer scale4b6_branch2c
I1022 23:41:04.592301 12894 net.cpp:408] scale4b6_branch2c <- res4b6_branch2c
I1022 23:41:04.592308 12894 net.cpp:369] scale4b6_branch2c -> res4b6_branch2c (in-place)
I1022 23:41:04.592356 12894 layer_factory.hpp:77] Creating layer scale4b6_branch2c
I1022 23:41:04.592514 12894 net.cpp:124] Setting up scale4b6_branch2c
I1022 23:41:04.592525 12894 net.cpp:131] Top shape: 2 1024 24 32 (1572864)
…
I1022 23:41:07.709131 12894 net.cpp:382] n_res4b21_n_res4b21_relu_0_split -> n_res4b21_n_res4b21_relu_0_split_0
I1022 23:41:07.709141 12894 net.cpp:382] n_res4b21_n_res4b21_relu_0_split -> n_res4b21_n_res4b21_relu_0_split_1
I1022 23:41:07.709223 12894 net.cpp:124] Setting up n_res4b21_n_res4b21_relu_0_split
I1022 23:41:07.709231 12894 net.cpp:131] Top shape: 1 1024 24 32 (786432)
I1022 23:41:07.709235 12894 net.cpp:131] Top shape: 1 1024 24 32 (786432)
I1022 23:41:07.709239 12894 net.cpp:139] Memory required for data: 4101874304
I1022 23:41:07.709242 12894 layer_factory.hpp:77] Creating layer n_res4b22_branch2a
I1022 23:41:07.709265 12894 net.cpp:86] Creating Layer n_res4b22_branch2a
I1022 23:41:07.709270 12894 net.cpp:408] n_res4b22_branch2a <- n_res4b21_n_res4b21_relu_0_split_0
I1022 23:41:07.709278 12894 net.cpp:382] n_res4b22_branch2a -> n_res4b22_branch2a
I1022 23:41:07.711843 12894 net.cpp:124] Setting up n_res4b22_branch2a
I1022 23:41:07.711858 12894 net.cpp:131] Top shape: 1 256 24 32 (196608)
I1022 23:41:07.711876 12894 net.cpp:139] Memory required for data: 4102660736
I1022 23:41:07.711882 12894 net.cpp:467] Sharing parameters 'res4b22_branch2a_w' owned by layer 'res4b22_branch2a', param index 0
I1022 23:41:07.711889 12894 layer_factory.hpp:77] Creating layer n_bn4b22_branch2a
I1022 23:41:07.711899 12894 net.cpp:86] Creating Layer n_bn4b22_branch2a
I1022 23:41:07.711904 12894 net.cpp:408] n_bn4b22_branch2a <- n_res4b22_branch2a
I1022 23:41:07.711926 12894 net.cpp:369] n_bn4b22_branch2a -> n_res4b22_branch2a (in-place)
I1022 23:41:07.712218 12894 net.cpp:124] Setting up n_bn4b22_branch2a
I1022 23:41:07.712242 12894 net.cpp:131] Top shape: 1 256 24 32 (196608)
I1022 23:41:07.712245 12894 net.cpp:139] Memory required for data: 4103447168
I1022 23:41:07.712265 12894 net.cpp:467] Sharing parameters 'bn4b22_branch2a_1' owned by layer 'bn4b22_branch2a', param index 0
I1022 23:41:07.712285 12894 net.cpp:467] Sharing parameters 'bn4b22_branch2a_2' owned by layer 'bn4b22_branch2a', param index 1
I1022 23:41:07.712288 12894 net.cpp:467] Sharing parameters 'bn4b22_branch2a_3' owned by layer 'bn4b22_branch2a', param index 2
I1022 23:41:07.712291 12894 layer_factory.hpp:77] Creating layer n_scale4b22_branch2a
I1022 23:41:07.712316 12894 net.cpp:86] Creating Layer n_scale4b22_branch2a
I1022 23:41:07.712319 12894 net.cpp:408] n_scale4b22_branch2a <- n_res4b22_branch2a
I1022 23:41:07.712324 12894 net.cpp:369] n_scale4b22_branch2a -> n_res4b22_branch2a (in-place)
I1022 23:41:07.712386 12894 layer_factory.hpp:77] Creating layer n_scale4b22_branch2a
I1022 23:41:07.712589 12894 net.cpp:124] Setting up n_scale4b22_branch2a
I1022 23:41:07.712599 12894 net.cpp:131] Top shape: 1 256 24 32 (196608)
I1022 23:41:07.712602 12894 net.cpp:139] Memory required for data: 4104233600
I1022 23:41:07.712608 12894 net.cpp:467] Sharing parameters 'scale4b22_branch2a_1' owned by layer 'scale4b22_branch2a', param index 0
I1022 23:41:07.712615 12894 net.cpp:467] Sharing parameters 'scale4b22_branch2a_2' owned by layer 'scale4b22_branch2a', param index 1
I1022 23:41:07.712618 12894 layer_factory.hpp:77] Creating layer n_res4b22_branch2a_relu
I1022 23:41:07.712625 12894 net.cpp:86] Creating Layer n_res4b22_branch2a_relu
I1022 23:41:07.712627 12894 net.cpp:408] n_res4b22_branch2a_relu <- n_res4b22_branch2a
I1022 23:41:07.712635 12894 net.cpp:369] n_res4b22_branch2a_relu -> n_res4b22_branch2a (in-place)
I1022 23:41:07.712987 12894 net.cpp:124] Setting up n_res4b22_branch2a_relu
I1022 23:41:07.712997 12894 net.cpp:131] Top shape: 1 256 24 32 (196608)
I1022 23:41:07.713001 12894 net.cpp:139] Memory required for data: 4105020032
I1022 23:41:07.713006 12894 layer_factory.hpp:77] Creating layer n_res4b22_branch2b
I1022 23:41:07.713016 12894 net.cpp:86] Creating Layer n_res4b22_branch2b
I1022 23:41:07.713018 12894 net.cpp:408] n_res4b22_branch2b <- n_res4b22_branch2a
I1022 23:41:07.713027 12894 net.cpp:382] n_res4b22_branch2b -> n_res4b22_branch2b
I1022 23:41:07.718935 12894 net.cpp:124] Setting up n_res4b22_branch2b
I1022 23:41:07.718952 12894 net.cpp:131] Top shape: 1 256 24 32 (196608)
I1022 23:41:07.718955 12894 net.cpp:139] Memory required for data: 4105806464
I1022 23:41:07.718961 12894 net.cpp:467] Sharing parameters 'res4b22_branch2b_w' owned by layer 'res4b22_branch2b', param index 0
I1022 23:41:07.718966 12894 layer_factory.hpp:77] Creating layer n_bn4b22_branch2b
I1022 23:41:07.718974 12894 net.cpp:86] Creating Layer n_bn4b22_branch2b
I1022 23:41:07.718978 12894 net.cpp:408] n_bn4b22_branch2b <- n_res4b22_branch2b
I1022 23:41:07.718983 12894 net.cpp:369] n_bn4b22_branch2b -> n_res4b22_branch2b (in-place)
I1022 23:41:07.719291 12894 net.cpp:124] Setting up n_bn4b22_branch2b
I1022 23:41:07.719312 12894 net.cpp:131] Top shape: 1 256 24 32 (196608)
I1022 23:41:07.719331 12894 net.cpp:139] Memory required for data: 4106592896
I1022 23:41:07.719336 12894 net.cpp:467] Sharing parameters 'bn4b22_branch2b_1' owned by layer 'bn4b22_branch2b', param index 0
I1022 23:41:07.719342 12894 net.cpp:467] Sharing parameters 'bn4b22_branch2b_2' owned by layer 'bn4b22_branch2b', param index 1
I1022 23:41:07.719347 12894 net.cpp:467] Sharing parameters 'bn4b22_branch2b_3' owned by layer 'bn4b22_branch2b', param index 2
I1022 23:41:07.719349 12894 layer_factory.hpp:77] Creating layer n_scale4b22_branch2b
I1022 23:41:07.719358 12894 net.cpp:86] Creating Layer n_scale4b22_branch2b
I1022 23:41:07.719362 12894 net.cpp:408] n_scale4b22_branch2b <- n_res4b22_branch2b
I1022 23:41:07.719369 12894 net.cpp:369] n_scale4b22_branch2b -> n_res4b22_branch2b (in-place)
I1022 23:41:07.719466 12894 layer_factory.hpp:77] Creating layer n_scale4b22_branch2b
I1022 23:41:07.719635 12894 net.cpp:124] Setting up n_scale4b22_branch2b
I1022 23:41:07.719646 12894 net.cpp:131] Top shape: 1 256 24 32 (196608)
I1022 23:41:07.719650 12894 net.cpp:139] Memory required for data: 4107379328
I1022 23:41:07.719655 12894 net.cpp:467] Sharing parameters 'scale4b22_branch2b_1' owned by layer 'scale4b22_branch2b', param index 0
I1022 23:41:07.719660 12894 net.cpp:467] Sharing parameters 'scale4b22_branch2b_2' owned by layer 'scale4b22_branch2b', param index 1
I1022 23:41:07.719664 12894 layer_factory.hpp:77] Creating layer n_res4b22_branch2b_relu
I1022 23:41:07.719671 12894 net.cpp:86] Creating Layer n_res4b22_branch2b_relu
I1022 23:41:07.719674 12894 net.cpp:408] n_res4b22_branch2b_relu <- n_res4b22_branch2b
I1022 23:41:07.719696 12894 net.cpp:369] n_res4b22_branch2b_relu -> n_res4b22_branch2b (in-place)
I1022 23:41:07.721225 12894 net.cpp:124] Setting up n_res4b22_branch2b_relu
I1022 23:41:07.721240 12894 net.cpp:131] Top shape: 1 256 24 32 (196608)
I1022 23:41:07.721242 12894 net.cpp:139] Memory required for data: 4108165760
I1022 23:41:07.721246 12894 layer_factory.hpp:77] Creating layer n_res4b22_branch2c
I1022 23:41:07.721256 12894 net.cpp:86] Creating Layer n_res4b22_branch2c
I1022 23:41:07.721261 12894 net.cpp:408] n_res4b22_branch2c <- n_res4b22_branch2b
I1022 23:41:07.721268 12894 net.cpp:382] n_res4b22_branch2c -> n_res4b22_branch2c
I1022 23:41:07.725816 12894 net.cpp:124] Setting up n_res4b22_branch2c
I1022 23:41:07.725833 12894 net.cpp:131] Top shape: 1 1024 24 32 (786432)
I1022 23:41:07.725836 12894 net.cpp:139] Memory required for data: 4111311488
I1022 23:41:07.725842 12894 net.cpp:467] Sharing parameters 'res4b22_branch2c_w' owned by layer 'res4b22_branch2c', param index 0
I1022 23:41:07.725847 12894 layer_factory.hpp:77] Creating layer n_bn4b22_branch2c
I1022 23:41:07.725860 12894 net.cpp:86] Creating Layer n_bn4b22_branch2c
I1022 23:41:07.725864 12894 net.cpp:408] n_bn4b22_branch2c <- n_res4b22_branch2c
I1022 23:41:07.725869 12894 net.cpp:369] n_bn4b22_branch2c -> n_res4b22_branch2c (in-place)
I1022 23:41:07.726191 12894 net.cpp:124] Setting up n_bn4b22_branch2c
I1022 23:41:07.726202 12894 net.cpp:131] Top shape: 1 1024 24 32 (786432)
I1022 23:41:07.726205 12894 net.cpp:139] Memory required for data: 4114457216
I1022 23:41:07.726224 12894 net.cpp:467] Sharing parameters 'bn4b22_branch2c_1' owned by layer 'bn4b22_branch2c', param index 0
I1022 23:41:07.726229 12894 net.cpp:467] Sharing parameters 'bn4b22_branch2c_2' owned by layer 'bn4b22_branch2c', param index 1
I1022 23:41:07.726250 12894 net.cpp:467] Sharing parameters 'bn4b22_branch2c_3' owned by layer 'bn4b22_branch2c', param index 2
I1022 23:41:07.726254 12894 layer_factory.hpp:77] Creating layer n_scale4b22_branch2c
I1022 23:41:07.726263 12894 net.cpp:86] Creating Layer n_scale4b22_branch2c
I1022 23:41:07.726266 12894 net.cpp:408] n_scale4b22_branch2c <- n_res4b22_branch2c
I1022 23:41:07.726272 12894 net.cpp:369] n_scale4b22_branch2c -> n_res4b22_branch2c (in-place)
I1022 23:41:07.726333 12894 layer_factory.hpp:77] Creating layer n_scale4b22_branch2c
I1022 23:41:07.726539 12894 net.cpp:124] Setting up n_scale4b22_branch2c
I1022 23:41:07.726550 12894 net.cpp:131] Top shape: 1 1024 24 32 (786432)
I1022 23:41:07.726553 12894 net.cpp:139] Memory required for data: 4117602944
I1022 23:41:07.726559 12894 net.cpp:467] Sharing parameters 'scale4b22_branch2c_1' owned by layer 'scale4b22_branch2c', param index 0
I1022 23:41:07.726564 12894 net.cpp:467] Sharing parameters 'scale4b22_branch2c_2' owned by layer 'scale4b22_branch2c', param index 1
I1022 23:41:07.726568 12894 layer_factory.hpp:77] Creating layer n_res4b22
I1022 23:41:07.726577 12894 net.cpp:86] Creating Layer n_res4b22
I1022 23:41:07.726580 12894 net.cpp:408] n_res4b22 <- n_res4b21_n_res4b21_relu_0_split_1
I1022 23:41:07.726585 12894 net.cpp:408] n_res4b22 <- n_res4b22_branch2c
I1022 23:41:07.726590 12894 net.cpp:382] n_res4b22 -> n_res4b22
I1022 23:41:07.726624 12894 net.cpp:124] Setting up n_res4b22
I1022 23:41:07.726631 12894 net.cpp:131] Top shape: 1 1024 24 32 (786432)
I1022 23:41:07.726634 12894 net.cpp:139] Memory required for data: 4120748672
I1022 23:41:07.726637 12894 layer_factory.hpp:77] Creating layer n_res4b22_relu
I1022 23:41:07.726644 12894 net.cpp:86] Creating Layer n_res4b22_relu
I1022 23:41:07.726646 12894 net.cpp:408] n_res4b22_relu <- n_res4b22
I1022 23:41:07.726653 12894 net.cpp:369] n_res4b22_relu -> n_res4b22 (in-place)
I1022 23:41:07.726996 12894 net.cpp:124] Setting up n_res4b22_relu
I1022 23:41:07.727006 12894 net.cpp:131] Top shape: 1 1024 24 32 (786432)
I1022 23:41:07.727025 12894 net.cpp:139] Memory required for data: 4123894400
I1022 23:41:07.727030 12894 layer_factory.hpp:77] Creating layer n_res4b22_n_res4b22_relu_0_split
I1022 23:41:07.727037 12894 net.cpp:86] Creating Layer n_res4b22_n_res4b22_relu_0_split
I1022 23:41:07.727042 12894 net.cpp:408] n_res4b22_n_res4b22_relu_0_split <- n_res4b22
I1022 23:41:07.727051 12894 net.cpp:382] n_res4b22_n_res4b22_relu_0_split -> n_res4b22_n_res4b22_relu_0_split_0
I1022 23:41:07.727057 12894 net.cpp:382] n_res4b22_n_res4b22_relu_0_split -> n_res4b22_n_res4b22_relu_0_split_1
I1022 23:41:07.727140 12894 net.cpp:124] Setting up n_res4b22_n_res4b22_relu_0_split
I1022 23:41:07.727152 12894 net.cpp:131] Top shape: 1 1024 24 32 (786432)
I1022 23:41:07.727157 12894 net.cpp:131] Top shape: 1 1024 24 32 (786432)
I1022 23:41:07.727160 12894 net.cpp:139] Memory required for data: 4130185856
I1022 23:41:07.727164 12894 layer_factory.hpp:77] Creating layer n_res5a_branch1
I1022 23:41:07.727172 12894 net.cpp:86] Creating Layer n_res5a_branch1
I1022 23:41:07.727176 12894 net.cpp:408] n_res5a_branch1 <- n_res4b22_n_res4b22_relu_0_split_0
I1022 23:41:07.727185 12894 net.cpp:382] n_res5a_branch1 -> n_res5a_branch1
I1022 23:41:07.735950 12894 net.cpp:124] Setting up n_res5a_branch1
I1022 23:41:07.735985 12894 net.cpp:131] Top shape: 1 2048 12 16 (393216)
I1022 23:41:07.735990 12894 net.cpp:139] Memory required for data: 4131758720
I1022 23:41:07.735996 12894 net.cpp:467] Sharing parameters 'res5a_branch1_w' owned by layer 'res5a_branch1', param index 0
I1022 23:41:07.736001 12894 layer_factory.hpp:77] Creating layer n_bn5a_branch1
I1022 23:41:07.736008 12894 net.cpp:86] Creating Layer n_bn5a_branch1
I1022 23:41:07.736012 12894 net.cpp:408] n_bn5a_branch1 <- n_res5a_branch1
I1022 23:41:07.736019 12894 net.cpp:369] n_bn5a_branch1 -> n_res5a_branch1 (in-place)
I1022 23:41:07.736435 12894 net.cpp:124] Setting up n_bn5a_branch1
I1022 23:41:07.736459 12894 net.cpp:131] Top shape: 1 2048 12 16 (393216)
I1022 23:41:07.736477 12894 net.cpp:139] Memory required for data: 4133331584
I1022 23:41:07.736483 12894 net.cpp:467] Sharing parameters 'bn5a_branch1_1' owned by layer 'bn5a_branch1', param index 0
I1022 23:41:07.736488 12894 net.cpp:467] Sharing parameters 'bn5a_branch1_2' owned by layer 'bn5a_branch1', param index 1
I1022 23:41:07.736492 12894 net.cpp:467] Sharing parameters 'bn5a_branch1_3' owned by layer 'bn5a_branch1', param index 2
I1022 23:41:07.736498 12894 layer_factory.hpp:77] Creating layer n_scale5a_branch1
I1022 23:41:07.736505 12894 net.cpp:86] Creating Layer n_scale5a_branch1
I1022 23:41:07.736521 12894 net.cpp:408] n_scale5a_branch1 <- n_res5a_branch1
I1022 23:41:07.736531 12894 net.cpp:369] n_scale5a_branch1 -> n_res5a_branch1 (in-place)
I1022 23:41:07.736635 12894 layer_factory.hpp:77] Creating layer n_scale5a_branch1
I1022 23:41:07.736855 12894 net.cpp:124] Setting up n_scale5a_branch1
I1022 23:41:07.736865 12894 net.cpp:131] Top shape: 1 2048 12 16 (393216)
I1022 23:41:07.736869 12894 net.cpp:139] Memory required for data: 4134904448
I1022 23:41:07.736874 12894 net.cpp:467] Sharing parameters 'scale5a_branch1_1' owned by layer 'scale5a_branch1', param index 0
I1022 23:41:07.736881 12894 net.cpp:467] Sharing parameters 'scale5a_branch1_2' owned by layer 'scale5a_branch1', param index 1
I1022 23:41:07.736883 12894 layer_factory.hpp:77] Creating layer n_res5a_branch2a
I1022 23:41:07.736910 12894 net.cpp:86] Creating Layer n_res5a_branch2a
I1022 23:41:07.736917 12894 net.cpp:408] n_res5a_branch2a <- n_res4b22_n_res4b22_relu_0_split_1
I1022 23:41:07.736924 12894 net.cpp:382] n_res5a_branch2a -> n_res5a_branch2a
I1022 23:41:07.741669 12894 net.cpp:124] Setting up n_res5a_branch2a
I1022 23:41:07.741685 12894 net.cpp:131] Top shape: 1 512 12 16 (98304)
I1022 23:41:07.741688 12894 net.cpp:139] Memory required for data: 4135297664
I1022 23:41:07.741693 12894 net.cpp:467] Sharing parameters 'res5a_branch2a_w' owned by layer 'res5a_branch2a', param index 0
I1022 23:41:07.741698 12894 layer_factory.hpp:77] Creating layer n_bn5a_branch2a
I1022 23:41:07.741706 12894 net.cpp:86] Creating Layer n_bn5a_branch2a
I1022 23:41:07.741710 12894 net.cpp:408] n_bn5a_branch2a <- n_res5a_branch2a
I1022 23:41:07.741717 12894 net.cpp:369] n_bn5a_branch2a -> n_res5a_branch2a (in-place)
I1022 23:41:07.742040 12894 net.cpp:124] Setting up n_bn5a_branch2a
I1022 23:41:07.742065 12894 net.cpp:131] Top shape: 1 512 12 16 (98304)
I1022 23:41:07.742069 12894 net.cpp:139] Memory required for data: 4135690880
I1022 23:41:07.742074 12894 net.cpp:467] Sharing parameters 'bn5a_branch2a_1' owned by layer 'bn5a_branch2a', param index 0
I1022 23:41:07.742079 12894 net.cpp:467] Sharing parameters 'bn5a_branch2a_2' owned by layer 'bn5a_branch2a', param index 1
I1022 23:41:07.742082 12894 net.cpp:467] Sharing parameters 'bn5a_branch2a_3' owned by layer 'bn5a_branch2a', param index 2
I1022 23:41:07.742087 12894 layer_factory.hpp:77] Creating layer n_scale5a_branch2a
I1022 23:41:07.742096 12894 net.cpp:86] Creating Layer n_scale5a_branch2a
I1022 23:41:07.742100 12894 net.cpp:408] n_scale5a_branch2a <- n_res5a_branch2a
I1022 23:41:07.742105 12894 net.cpp:369] n_scale5a_branch2a -> n_res5a_branch2a (in-place)
I1022 23:41:07.742213 12894 layer_factory.hpp:77] Creating layer n_scale5a_branch2a
I1022 23:41:07.742388 12894 net.cpp:124] Setting up n_scale5a_branch2a
I1022 23:41:07.742398 12894 net.cpp:131] Top shape: 1 512 12 16 (98304)
I1022 23:41:07.742401 12894 net.cpp:139] Memory required for data: 4136084096
I1022 23:41:07.742406 12894 net.cpp:467] Sharing parameters 'scale5a_branch2a_1' owned by layer 'scale5a_branch2a', param index 0
I1022 23:41:07.742411 12894 net.cpp:467] Sharing parameters 'scale5a_branch2a_2' owned by layer 'scale5a_branch2a', param index 1
I1022 23:41:07.742415 12894 layer_factory.hpp:77] Creating layer n_res5a_branch2a_relu
I1022 23:41:07.742421 12894 net.cpp:86] Creating Layer n_res5a_branch2a_relu
I1022 23:41:07.742425 12894 net.cpp:408] n_res5a_branch2a_relu <- n_res5a_branch2a
I1022 23:41:07.742432 12894 net.cpp:369] n_res5a_branch2a_relu -> n_res5a_branch2a (in-place)
I1022 23:41:07.742797 12894 net.cpp:124] Setting up n_res5a_branch2a_relu
I1022 23:41:07.742807 12894 net.cpp:131] Top shape: 1 512 12 16 (98304)
I1022 23:41:07.742810 12894 net.cpp:139] Memory required for data: 4136477312
I1022 23:41:07.742813 12894 layer_factory.hpp:77] Creating layer n_res5a_branch2b
I1022 23:41:07.742822 12894 net.cpp:86] Creating Layer n_res5a_branch2b
I1022 23:41:07.742826 12894 net.cpp:408] n_res5a_branch2b <- n_res5a_branch2a
I1022 23:41:07.742833 12894 net.cpp:382] n_res5a_branch2b -> n_res5a_branch2b
I1022 23:41:07.751610 12894 net.cpp:124] Setting up n_res5a_branch2b
I1022 23:41:07.751624 12894 net.cpp:131] Top shape: 1 512 12 16 (98304)
I1022 23:41:07.751628 12894 net.cpp:139] Memory required for data: 4136870528
I1022 23:41:07.751633 12894 net.cpp:467] Sharing parameters 'res5a_branch2b_w' owned by layer 'res5a_branch2b', param index 0
I1022 23:41:07.751641 12894 layer_factory.hpp:77] Creating layer n_bn5a_branch2b
I1022 23:41:07.751649 12894 net.cpp:86] Creating Layer n_bn5a_branch2b
I1022 23:41:07.751654 12894 net.cpp:408] n_bn5a_branch2b <- n_res5a_branch2b
I1022 23:41:07.751662 12894 net.cpp:369] n_bn5a_branch2b -> n_res5a_branch2b (in-place)
I1022 23:41:07.752002 12894 net.cpp:124] Setting up n_bn5a_branch2b
I1022 23:41:07.752025 12894 net.cpp:131] Top shape: 1 512 12 16 (98304)
I1022 23:41:07.752028 12894 net.cpp:139] Memory required for data: 4137263744
I1022 23:41:07.752049 12894 net.cpp:467] Sharing parameters 'bn5a_branch2b_1' owned by layer 'bn5a_branch2b', param index 0
I1022 23:41:07.752054 12894 net.cpp:467] Sharing parameters 'bn5a_branch2b_2' owned by layer 'bn5a_branch2b', param index 1
I1022 23:41:07.752058 12894 net.cpp:467] Sharing parameters 'bn5a_branch2b_3' owned by layer 'bn5a_branch2b', param index 2
I1022 23:41:07.752079 12894 layer_factory.hpp:77] Creating layer n_scale5a_branch2b
I1022 23:41:07.752084 12894 net.cpp:86] Creating Layer n_scale5a_branch2b
I1022 23:41:07.752087 12894 net.cpp:408] n_scale5a_branch2b <- n_res5a_branch2b
I1022 23:41:07.752095 12894 net.cpp:369] n_scale5a_branch2b -> n_res5a_branch2b (in-place)
I1022 23:41:07.752204 12894 layer_factory.hpp:77] Creating layer n_scale5a_branch2b
I1022 23:41:07.752384 12894 net.cpp:124] Setting up n_scale5a_branch2b
I1022 23:41:07.752393 12894 net.cpp:131] Top shape: 1 512 12 16 (98304)
I1022 23:41:07.752398 12894 net.cpp:139] Memory required for data: 4137656960
I1022 23:41:07.752403 12894 net.cpp:467] Sharing parameters 'scale5a_branch2b_1' owned by layer 'scale5a_branch2b', param index 0
I1022 23:41:07.752408 12894 net.cpp:467] Sharing parameters 'scale5a_branch2b_2' owned by layer 'scale5a_branch2b', param index 1
I1022 23:41:07.752413 12894 layer_factory.hpp:77] Creating layer n_res5a_branch2b_relu
I1022 23:41:07.752418 12894 net.cpp:86] Creating Layer n_res5a_branch2b_relu
I1022 23:41:07.752423 12894 net.cpp:408] n_res5a_branch2b_relu <- n_res5a_branch2b
I1022 23:41:07.752429 12894 net.cpp:369] n_res5a_branch2b_relu -> n_res5a_branch2b (in-place)
I1022 23:41:07.754032 12894 net.cpp:124] Setting up n_res5a_branch2b_relu
I1022 23:41:07.754047 12894 net.cpp:131] Top shape: 1 512 12 16 (98304)
I1022 23:41:07.754067 12894 net.cpp:139] Memory required for data: 4138050176
I1022 23:41:07.754073 12894 layer_factory.hpp:77] Creating layer n_res5a_branch2c
I1022 23:41:07.754083 12894 net.cpp:86] Creating Layer n_res5a_branch2c
I1022 23:41:07.754088 12894 net.cpp:408] n_res5a_branch2c <- n_res5a_branch2b
I1022 23:41:07.754097 12894 net.cpp:382] n_res5a_branch2c -> n_res5a_branch2c
I1022 23:41:07.760321 12894 net.cpp:124] Setting up n_res5a_branch2c
I1022 23:41:07.760354 12894 net.cpp:131] Top shape: 1 2048 12 16 (393216)
I1022 23:41:07.760357 12894 net.cpp:139] Memory required for data: 4139623040
I1022 23:41:07.760363 12894 net.cpp:467] Sharing parameters 'res5a_branch2c_w' owned by layer 'res5a_branch2c', param index 0
I1022 23:41:07.760368 12894 layer_factory.hpp:77] Creating layer n_bn5a_branch2c
I1022 23:41:07.760380 12894 net.cpp:86] Creating Layer n_bn5a_branch2c
I1022 23:41:07.760385 12894 net.cpp:408] n_bn5a_branch2c <- n_res5a_branch2c
I1022 23:41:07.760408 12894 net.cpp:369] n_bn5a_branch2c -> n_res5a_branch2c (in-place)
I1022 23:41:07.760815 12894 net.cpp:124] Setting up n_bn5a_branch2c
I1022 23:41:07.760825 12894 net.cpp:131] Top shape: 1 2048 12 16 (393216)
I1022 23:41:07.760844 12894 net.cpp:139] Memory required for data: 4141195904
I1022 23:41:07.760850 12894 net.cpp:467] Sharing parameters 'bn5a_branch2c_1' owned by layer 'bn5a_branch2c', param index 0
I1022 23:41:07.760855 12894 net.cpp:467] Sharing parameters 'bn5a_branch2c_2' owned by layer 'bn5a_branch2c', param index 1
I1022 23:41:07.760871 12894 net.cpp:467] Sharing parameters 'bn5a_branch2c_3' owned by layer 'bn5a_branch2c', param index 2
I1022 23:41:07.760875 12894 layer_factory.hpp:77] Creating layer n_scale5a_branch2c
I1022 23:41:07.760898 12894 net.cpp:86] Creating Layer n_scale5a_branch2c
I1022 23:41:07.760902 12894 net.cpp:408] n_scale5a_branch2c <- n_res5a_branch2c
I1022 23:41:07.760910 12894 net.cpp:369] n_scale5a_branch2c -> n_res5a_branch2c (in-place)
I1022 23:41:07.761000 12894 layer_factory.hpp:77] Creating layer n_scale5a_branch2c
I1022 23:41:07.761211 12894 net.cpp:124] Setting up n_scale5a_branch2c
I1022 23:41:07.761221 12894 net.cpp:131] Top shape: 1 2048 12 16 (393216)
I1022 23:41:07.761224 12894 net.cpp:139] Memory required for data: 4142768768
I1022 23:41:07.761229 12894 net.cpp:467] Sharing parameters 'scale5a_branch2c_1' owned by layer 'scale5a_branch2c', param index 0
I1022 23:41:07.761235 12894 net.cpp:467] Sharing parameters 'scale5a_branch2c_2' owned by layer 'scale5a_branch2c', param index 1
I1022 23:41:07.761242 12894 layer_factory.hpp:77] Creating layer n_res5a
I1022 23:41:07.761248 12894 net.cpp:86] Creating Layer n_res5a
I1022 23:41:07.761253 12894 net.cpp:408] n_res5a <- n_res5a_branch1
I1022 23:41:07.761258 12894 net.cpp:408] n_res5a <- n_res5a_branch2c
I1022 23:41:07.761266 12894 net.cpp:382] n_res5a -> n_res5a
I1022 23:41:07.761298 12894 net.cpp:124] Setting up n_res5a
I1022 23:41:07.761308 12894 net.cpp:131] Top shape: 1 2048 12 16 (393216)
I1022 23:41:07.761312 12894 net.cpp:139] Memory required for data: 4144341632
I1022 23:41:07.761315 12894 layer_factory.hpp:77] Creating layer n_res5a_relu
I1022 23:41:07.761322 12894 net.cpp:86] Creating Layer n_res5a_relu
I1022 23:41:07.761324 12894 net.cpp:408] n_res5a_relu <- n_res5a
I1022 23:41:07.761330 12894 net.cpp:369] n_res5a_relu -> n_res5a (in-place)
I1022 23:41:07.761690 12894 net.cpp:124] Setting up n_res5a_relu
I1022 23:41:07.761703 12894 net.cpp:131] Top shape: 1 2048 12 16 (393216)
I1022 23:41:07.761721 12894 net.cpp:139] Memory required for data: 4145914496
I1022 23:41:07.761725 12894 layer_factory.hpp:77] Creating layer n_res5a_n_res5a_relu_0_split
I1022 23:41:07.761731 12894 net.cpp:86] Creating Layer n_res5a_n_res5a_relu_0_split
I1022 23:41:07.761735 12894 net.cpp:408] n_res5a_n_res5a_relu_0_split <- n_res5a
I1022 23:41:07.761741 12894 net.cpp:382] n_res5a_n_res5a_relu_0_split -> n_res5a_n_res5a_relu_0_split_0
I1022 23:41:07.761754 12894 net.cpp:382] n_res5a_n_res5a_relu_0_split -> n_res5a_n_res5a_relu_0_split_1
I1022 23:41:07.761824 12894 net.cpp:124] Setting up n_res5a_n_res5a_relu_0_split
I1022 23:41:07.761832 12894 net.cpp:131] Top shape: 1 2048 12 16 (393216)
I1022 23:41:07.761837 12894 net.cpp:131] Top shape: 1 2048 12 16 (393216)
I1022 23:41:07.761840 12894 net.cpp:139] Memory required for data: 4149060224
I1022 23:41:07.761843 12894 layer_factory.hpp:77] Creating layer n_res5b_branch2a
I1022 23:41:07.761858 12894 net.cpp:86] Creating Layer n_res5b_branch2a
I1022 23:41:07.761862 12894 net.cpp:408] n_res5b_branch2a <- n_res5a_n_res5a_relu_0_split_0
I1022 23:41:07.761868 12894 net.cpp:382] n_res5b_branch2a -> n_res5b_branch2a
I1022 23:41:07.768231 12894 net.cpp:124] Setting up n_res5b_branch2a
I1022 23:41:07.768267 12894 net.cpp:131] Top shape: 1 512 12 16 (98304)
I1022 23:41:07.768271 12894 net.cpp:139] Memory required for data: 4149453440
I1022 23:41:07.768278 12894 net.cpp:467] Sharing parameters 'res5b_branch2a_w' owned by layer 'res5b_branch2a', param index 0
I1022 23:41:07.768285 12894 layer_factory.hpp:77] Creating layer n_bn5b_branch2a
I1022 23:41:07.768293 12894 net.cpp:86] Creating Layer n_bn5b_branch2a
I1022 23:41:07.768297 12894 net.cpp:408] n_bn5b_branch2a <- n_res5b_branch2a
I1022 23:41:07.768304 12894 net.cpp:369] n_bn5b_branch2a -> n_res5b_branch2a (in-place)
I1022 23:41:07.768649 12894 net.cpp:124] Setting up n_bn5b_branch2a
I1022 23:41:07.768659 12894 net.cpp:131] Top shape: 1 512 12 16 (98304)
I1022 23:41:07.768663 12894 net.cpp:139] Memory required for data: 4149846656
I1022 23:41:07.768682 12894 net.cpp:467] Sharing parameters 'bn5b_branch2a_1' owned by layer 'bn5b_branch2a', param index 0
I1022 23:41:07.768687 12894 net.cpp:467] Sharing parameters 'bn5b_branch2a_2' owned by layer 'bn5b_branch2a', param index 1
I1022 23:41:07.768692 12894 net.cpp:467] Sharing parameters 'bn5b_branch2a_3' owned by layer 'bn5b_branch2a', param index 2
I1022 23:41:07.768694 12894 layer_factory.hpp:77] Creating layer n_scale5b_branch2a
I1022 23:41:07.768702 12894 net.cpp:86] Creating Layer n_scale5b_branch2a
I1022 23:41:07.768707 12894 net.cpp:408] n_scale5b_branch2a <- n_res5b_branch2a
I1022 23:41:07.768712 12894 net.cpp:369] n_scale5b_branch2a -> n_res5b_branch2a (in-place)
I1022 23:41:07.768779 12894 layer_factory.hpp:77] Creating layer n_scale5b_branch2a
I1022 23:41:07.768954 12894 net.cpp:124] Setting up n_scale5b_branch2a
I1022 23:41:07.768965 12894 net.cpp:131] Top shape: 1 512 12 16 (98304)
I1022 23:41:07.768968 12894 net.cpp:139] Memory required for data: 4150239872
I1022 23:41:07.768973 12894 net.cpp:467] Sharing parameters 'scale5b_branch2a_1' owned by layer 'scale5b_branch2a', param index 0
I1022 23:41:07.768980 12894 net.cpp:467] Sharing parameters 'scale5b_branch2a_2' owned by layer 'scale5b_branch2a', param index 1
I1022 23:41:07.768983 12894 layer_factory.hpp:77] Creating layer n_res5b_branch2a_relu
I1022 23:41:07.768993 12894 net.cpp:86] Creating Layer n_res5b_branch2a_relu
I1022 23:41:07.768997 12894 net.cpp:408] n_res5b_branch2a_relu <- n_res5b_branch2a
I1022 23:41:07.769003 12894 net.cpp:369] n_res5b_branch2a_relu -> n_res5b_branch2a (in-place)
I1022 23:41:07.769363 12894 net.cpp:124] Setting up n_res5b_branch2a_relu
I1022 23:41:07.769392 12894 net.cpp:131] Top shape: 1 512 12 16 (98304)
I1022 23:41:07.769395 12894 net.cpp:139] Memory required for data: 4150633088
I1022 23:41:07.769399 12894 layer_factory.hpp:77] Creating layer n_res5b_branch2b
I1022 23:41:07.769407 12894 net.cpp:86] Creating Layer n_res5b_branch2b
I1022 23:41:07.769412 12894 net.cpp:408] n_res5b_branch2b <- n_res5b_branch2a
I1022 23:41:07.769419 12894 net.cpp:382] n_res5b_branch2b -> n_res5b_branch2b
I1022 23:41:07.778818 12894 net.cpp:124] Setting up n_res5b_branch2b
I1022 23:41:07.778834 12894 net.cpp:131] Top shape: 1 512 12 16 (98304)
I1022 23:41:07.778854 12894 net.cpp:139] Memory required for data: 4151026304
I1022 23:41:07.778859 12894 net.cpp:467] Sharing parameters 'res5b_branch2b_w' owned by layer 'res5b_branch2b', param index 0
I1022 23:41:07.778865 12894 layer_factory.hpp:77] Creating layer n_bn5b_branch2b
I1022 23:41:07.778874 12894 net.cpp:86] Creating Layer n_bn5b_branch2b
I1022 23:41:07.778879 12894 net.cpp:408] n_bn5b_branch2b <- n_res5b_branch2b
I1022 23:41:07.778887 12894 net.cpp:369] n_bn5b_branch2b -> n_res5b_branch2b (in-place)
I1022 23:41:07.779224 12894 net.cpp:124] Setting up n_bn5b_branch2b
I1022 23:41:07.779233 12894 net.cpp:131] Top shape: 1 512 12 16 (98304)
I1022 23:41:07.779253 12894 net.cpp:139] Memory required for data: 4151419520
I1022 23:41:07.779258 12894 net.cpp:467] Sharing parameters 'bn5b_branch2b_1' owned by layer 'bn5b_branch2b', param index 0
I1022 23:41:07.779264 12894 net.cpp:467] Sharing parameters 'bn5b_branch2b_2' owned by layer 'bn5b_branch2b', param index 1
I1022 23:41:07.779283 12894 net.cpp:467] Sharing parameters 'bn5b_branch2b_3' owned by layer 'bn5b_branch2b', param index 2
I1022 23:41:07.779286 12894 layer_factory.hpp:77] Creating layer n_scale5b_branch2b
I1022 23:41:07.779311 12894 net.cpp:86] Creating Layer n_scale5b_branch2b
I1022 23:41:07.779316 12894 net.cpp:408] n_scale5b_branch2b <- n_res5b_branch2b
I1022 23:41:07.779322 12894 net.cpp:369] n_scale5b_branch2b -> n_res5b_branch2b (in-place)
I1022 23:41:07.779388 12894 layer_factory.hpp:77] Creating layer n_scale5b_branch2b
I1022 23:41:07.779572 12894 net.cpp:124] Setting up n_scale5b_branch2b
I1022 23:41:07.779582 12894 net.cpp:131] Top shape: 1 512 12 16 (98304)
I1022 23:41:07.779587 12894 net.cpp:139] Memory required for data: 4151812736
I1022 23:41:07.779592 12894 net.cpp:467] Sharing parameters 'scale5b_branch2b_1' owned by layer 'scale5b_branch2b', param index 0
I1022 23:41:07.779623 12894 net.cpp:467] Sharing parameters 'scale5b_branch2b_2' owned by layer 'scale5b_branch2b', param index 1
I1022 23:41:07.779628 12894 layer_factory.hpp:77] Creating layer n_res5b_branch2b_relu
I1022 23:41:07.779637 12894 net.cpp:86] Creating Layer n_res5b_branch2b_relu
I1022 23:41:07.779641 12894 net.cpp:408] n_res5b_branch2b_relu <- n_res5b_branch2b
I1022 23:41:07.779646 12894 net.cpp:369] n_res5b_branch2b_relu -> n_res5b_branch2b (in-place)
I1022 23:41:07.781313 12894 net.cpp:124] Setting up n_res5b_branch2b_relu
I1022 23:41:07.781347 12894 net.cpp:131] Top shape: 1 512 12 16 (98304)
I1022 23:41:07.781350 12894 net.cpp:139] Memory required for data: 4152205952
I1022 23:41:07.781354 12894 layer_factory.hpp:77] Creating layer n_res5b_branch2c
I1022 23:41:07.781365 12894 net.cpp:86] Creating Layer n_res5b_branch2c
I1022 23:41:07.781370 12894 net.cpp:408] n_res5b_branch2c <- n_res5b_branch2b
I1022 23:41:07.781378 12894 net.cpp:382] n_res5b_branch2c -> n_res5b_branch2c
I1022 23:41:07.787791 12894 net.cpp:124] Setting up n_res5b_branch2c
I1022 23:41:07.787823 12894 net.cpp:131] Top shape: 1 2048 12 16 (393216)
I1022 23:41:07.787827 12894 net.cpp:139] Memory required for data: 4153778816
I1022 23:41:07.787833 12894 net.cpp:467] Sharing parameters 'res5b_branch2c_w' owned by layer 'res5b_branch2c', param index 0
I1022 23:41:07.787837 12894 layer_factory.hpp:77] Creating layer n_bn5b_branch2c
I1022 23:41:07.787852 12894 net.cpp:86] Creating Layer n_bn5b_branch2c
I1022 23:41:07.787855 12894 net.cpp:408] n_bn5b_branch2c <- n_res5b_branch2c
I1022 23:41:07.787861 12894 net.cpp:369] n_bn5b_branch2c -> n_res5b_branch2c (in-place)
I1022 23:41:07.788225 12894 net.cpp:124] Setting up n_bn5b_branch2c
I1022 23:41:07.788251 12894 net.cpp:131] Top shape: 1 2048 12 16 (393216)
I1022 23:41:07.788254 12894 net.cpp:139] Memory required for data: 4155351680
I1022 23:41:07.788276 12894 net.cpp:467] Sharing parameters 'bn5b_branch2c_1' owned by layer 'bn5b_branch2c', param index 0
I1022 23:41:07.788281 12894 net.cpp:467] Sharing parameters 'bn5b_branch2c_2' owned by layer 'bn5b_branch2c', param index 1
I1022 23:41:07.788286 12894 net.cpp:467] Sharing parameters 'bn5b_branch2c_3' owned by layer 'bn5b_branch2c', param index 2
I1022 23:41:07.788290 12894 layer_factory.hpp:77] Creating layer n_scale5b_branch2c
I1022 23:41:07.788298 12894 net.cpp:86] Creating Layer n_scale5b_branch2c
I1022 23:41:07.788303 12894 net.cpp:408] n_scale5b_branch2c <- n_res5b_branch2c
I1022 23:41:07.788309 12894 net.cpp:369] n_scale5b_branch2c -> n_res5b_branch2c (in-place)
I1022 23:41:07.788400 12894 layer_factory.hpp:77] Creating layer n_scale5b_branch2c
I1022 23:41:07.788622 12894 net.cpp:124] Setting up n_scale5b_branch2c
I1022 23:41:07.788635 12894 net.cpp:131] Top shape: 1 2048 12 16 (393216)
I1022 23:41:07.788638 12894 net.cpp:139] Memory required for data: 4156924544
I1022 23:41:07.788643 12894 net.cpp:467] Sharing parameters 'scale5b_branch2c_1' owned by layer 'scale5b_branch2c', param index 0
I1022 23:41:07.788650 12894 net.cpp:467] Sharing parameters 'scale5b_branch2c_2' owned by layer 'scale5b_branch2c', param index 1
I1022 23:41:07.788653 12894 layer_factory.hpp:77] Creating layer n_res5b
I1022 23:41:07.788662 12894 net.cpp:86] Creating Layer n_res5b
I1022 23:41:07.788667 12894 net.cpp:408] n_res5b <- n_res5a_n_res5a_relu_0_split_1
I1022 23:41:07.788672 12894 net.cpp:408] n_res5b <- n_res5b_branch2c
I1022 23:41:07.788677 12894 net.cpp:382] n_res5b -> n_res5b
I1022 23:41:07.788715 12894 net.cpp:124] Setting up n_res5b
I1022 23:41:07.788723 12894 net.cpp:131] Top shape: 1 2048 12 16 (393216)
I1022 23:41:07.788727 12894 net.cpp:139] Memory required for data: 4158497408
I1022 23:41:07.788729 12894 layer_factory.hpp:77] Creating layer n_res5b_relu
I1022 23:41:07.788735 12894 net.cpp:86] Creating Layer n_res5b_relu
I1022 23:41:07.788739 12894 net.cpp:408] n_res5b_relu <- n_res5b
I1022 23:41:07.788746 12894 net.cpp:369] n_res5b_relu -> n_res5b (in-place)
I1022 23:41:07.789099 12894 net.cpp:124] Setting up n_res5b_relu
I1022 23:41:07.789124 12894 net.cpp:131] Top shape: 1 2048 12 16 (393216)
I1022 23:41:07.789142 12894 net.cpp:139] Memory required for data: 4160070272
I1022 23:41:07.789147 12894 layer_factory.hpp:77] Creating layer n_res5b_n_res5b_relu_0_split
I1022 23:41:07.789155 12894 net.cpp:86] Creating Layer n_res5b_n_res5b_relu_0_split
I1022 23:41:07.789160 12894 net.cpp:408] n_res5b_n_res5b_relu_0_split <- n_res5b
I1022 23:41:07.789166 12894 net.cpp:382] n_res5b_n_res5b_relu_0_split -> n_res5b_n_res5b_relu_0_split_0
I1022 23:41:07.789189 12894 net.cpp:382] n_res5b_n_res5b_relu_0_split -> n_res5b_n_res5b_relu_0_split_1
I1022 23:41:07.789248 12894 net.cpp:124] Setting up n_res5b_n_res5b_relu_0_split
I1022 23:41:07.789258 12894 net.cpp:131] Top shape: 1 2048 12 16 (393216)
I1022 23:41:07.789263 12894 net.cpp:131] Top shape: 1 2048 12 16 (393216)
I1022 23:41:07.789265 12894 net.cpp:139] Memory required for data: 4163216000
I1022 23:41:07.789268 12894 layer_factory.hpp:77] Creating layer n_res5c_branch2a
I1022 23:41:07.789279 12894 net.cpp:86] Creating Layer n_res5c_branch2a
I1022 23:41:07.789283 12894 net.cpp:408] n_res5c_branch2a <- n_res5b_n_res5b_relu_0_split_0
I1022 23:41:07.789290 12894 net.cpp:382] n_res5c_branch2a -> n_res5c_branch2a
I1022 23:41:07.795729 12894 net.cpp:124] Setting up n_res5c_branch2a
I1022 23:41:07.795747 12894 net.cpp:131] Top shape: 1 512 12 16 (98304)
I1022 23:41:07.795766 12894 net.cpp:139] Memory required for data: 4163609216
I1022 23:41:07.795774 12894 net.cpp:467] Sharing parameters 'res5c_branch2a_w' owned by layer 'res5c_branch2a', param index 0
I1022 23:41:07.795779 12894 layer_factory.hpp:77] Creating layer n_bn5c_branch2a
I1022 23:41:07.795789 12894 net.cpp:86] Creating Layer n_bn5c_branch2a
I1022 23:41:07.795794 12894 net.cpp:408] n_bn5c_branch2a <- n_res5c_branch2a
I1022 23:41:07.795801 12894 net.cpp:369] n_bn5c_branch2a -> n_res5c_branch2a (in-place)
I1022 23:41:07.796118 12894 net.cpp:124] Setting up n_bn5c_branch2a
I1022 23:41:07.796128 12894 net.cpp:131] Top shape: 1 512 12 16 (98304)
I1022 23:41:07.796131 12894 net.cpp:139] Memory required for data: 4164002432
I1022 23:41:07.796138 12894 net.cpp:467] Sharing parameters 'bn5c_branch2a_1' owned by layer 'bn5c_branch2a', param index 0
I1022 23:41:07.796142 12894 net.cpp:467] Sharing parameters 'bn5c_branch2a_2' owned by layer 'bn5c_branch2a', param index 1
I1022 23:41:07.796147 12894 net.cpp:467] Sharing parameters 'bn5c_branch2a_3' owned by layer 'bn5c_branch2a', param index 2
I1022 23:41:07.796152 12894 layer_factory.hpp:77] Creating layer n_scale5c_branch2a
I1022 23:41:07.796159 12894 net.cpp:86] Creating Layer n_scale5c_branch2a
I1022 23:41:07.796164 12894 net.cpp:408] n_scale5c_branch2a <- n_res5c_branch2a
I1022 23:41:07.796171 12894 net.cpp:369] n_scale5c_branch2a -> n_res5c_branch2a (in-place)
I1022 23:41:07.796237 12894 layer_factory.hpp:77] Creating layer n_scale5c_branch2a
I1022 23:41:07.796420 12894 net.cpp:124] Setting up n_scale5c_branch2a
I1022 23:41:07.796430 12894 net.cpp:131] Top shape: 1 512 12 16 (98304)
I1022 23:41:07.796434 12894 net.cpp:139] Memory required for data: 4164395648
I1022 23:41:07.796448 12894 net.cpp:467] Sharing parameters 'scale5c_branch2a_1' owned by layer 'scale5c_branch2a', param index 0
I1022 23:41:07.796454 12894 net.cpp:467] Sharing parameters 'scale5c_branch2a_2' owned by layer 'scale5c_branch2a', param index 1
I1022 23:41:07.796458 12894 layer_factory.hpp:77] Creating layer n_res5c_branch2a_relu
I1022 23:41:07.796465 12894 net.cpp:86] Creating Layer n_res5c_branch2a_relu
I1022 23:41:07.796469 12894 net.cpp:408] n_res5c_branch2a_relu <- n_res5c_branch2a
I1022 23:41:07.796476 12894 net.cpp:369] n_res5c_branch2a_relu -> n_res5c_branch2a (in-place)
I1022 23:41:07.798071 12894 net.cpp:124] Setting up n_res5c_branch2a_relu
I1022 23:41:07.798087 12894 net.cpp:131] Top shape: 1 512 12 16 (98304)
I1022 23:41:07.798106 12894 net.cpp:139] Memory required for data: 4164788864
I1022 23:41:07.798110 12894 layer_factory.hpp:77] Creating layer n_res5c_branch2b
I1022 23:41:07.798133 12894 net.cpp:86] Creating Layer n_res5c_branch2b
I1022 23:41:07.798154 12894 net.cpp:408] n_res5c_branch2b <- n_res5c_branch2a
I1022 23:41:07.798163 12894 net.cpp:382] n_res5c_branch2b -> n_res5c_branch2b
I1022 23:41:07.807785 12894 net.cpp:124] Setting up n_res5c_branch2b
I1022 23:41:07.807817 12894 net.cpp:131] Top shape: 1 512 12 16 (98304)
I1022 23:41:07.807822 12894 net.cpp:139] Memory required for data: 4165182080
I1022 23:41:07.807828 12894 net.cpp:467] Sharing parameters 'res5c_branch2b_w' owned by layer 'res5c_branch2b', param index 0
I1022 23:41:07.807837 12894 layer_factory.hpp:77] Creating layer n_bn5c_branch2b
I1022 23:41:07.807848 12894 net.cpp:86] Creating Layer n_bn5c_branch2b
I1022 23:41:07.807854 12894 net.cpp:408] n_bn5c_branch2b <- n_res5c_branch2b
I1022 23:41:07.807860 12894 net.cpp:369] n_bn5c_branch2b -> n_res5c_branch2b (in-place)
I1022 23:41:07.808189 12894 net.cpp:124] Setting up n_bn5c_branch2b
I1022 23:41:07.808199 12894 net.cpp:131] Top shape: 1 512 12 16 (98304)
I1022 23:41:07.808204 12894 net.cpp:139] Memory required for data: 4165575296
I1022 23:41:07.808209 12894 net.cpp:467] Sharing parameters 'bn5c_branch2b_1' owned by layer 'bn5c_branch2b', param index 0
I1022 23:41:07.808215 12894 net.cpp:467] Sharing parameters 'bn5c_branch2b_2' owned by layer 'bn5c_branch2b', param index 1
I1022 23:41:07.808219 12894 net.cpp:467] Sharing parameters 'bn5c_branch2b_3' owned by layer 'bn5c_branch2b', param index 2
I1022 23:41:07.808223 12894 layer_factory.hpp:77] Creating layer n_scale5c_branch2b
I1022 23:41:07.808230 12894 net.cpp:86] Creating Layer n_scale5c_branch2b
I1022 23:41:07.808234 12894 net.cpp:408] n_scale5c_branch2b <- n_res5c_branch2b
I1022 23:41:07.808239 12894 net.cpp:369] n_scale5c_branch2b -> n_res5c_branch2b (in-place)
I1022 23:41:07.808307 12894 layer_factory.hpp:77] Creating layer n_scale5c_branch2b
I1022 23:41:07.808501 12894 net.cpp:124] Setting up n_scale5c_branch2b
I1022 23:41:07.808512 12894 net.cpp:131] Top shape: 1 512 12 16 (98304)
I1022 23:41:07.808516 12894 net.cpp:139] Memory required for data: 4165968512
I1022 23:41:07.808522 12894 net.cpp:467] Sharing parameters 'scale5c_branch2b_1' owned by layer 'scale5c_branch2b', param index 0
I1022 23:41:07.808527 12894 net.cpp:467] Sharing parameters 'scale5c_branch2b_2' owned by layer 'scale5c_branch2b', param index 1
I1022 23:41:07.808531 12894 layer_factory.hpp:77] Creating layer n_res5c_branch2b_relu
I1022 23:41:07.808537 12894 net.cpp:86] Creating Layer n_res5c_branch2b_relu
I1022 23:41:07.808542 12894 net.cpp:408] n_res5c_branch2b_relu <- n_res5c_branch2b
I1022 23:41:07.808547 12894 net.cpp:369] n_res5c_branch2b_relu -> n_res5c_branch2b (in-place)
I1022 23:41:07.808895 12894 net.cpp:124] Setting up n_res5c_branch2b_relu
I1022 23:41:07.808905 12894 net.cpp:131] Top shape: 1 512 12 16 (98304)
I1022 23:41:07.808925 12894 net.cpp:139] Memory required for data: 4166361728
I1022 23:41:07.808931 12894 layer_factory.hpp:77] Creating layer n_res5c_branch2c
I1022 23:41:07.808943 12894 net.cpp:86] Creating Layer n_res5c_branch2c
I1022 23:41:07.808948 12894 net.cpp:408] n_res5c_branch2c <- n_res5c_branch2b
I1022 23:41:07.808955 12894 net.cpp:382] n_res5c_branch2c -> n_res5c_branch2c
I1022 23:41:07.815397 12894 net.cpp:124] Setting up n_res5c_branch2c
I1022 23:41:07.815431 12894 net.cpp:131] Top shape: 1 2048 12 16 (393216)
I1022 23:41:07.815435 12894 net.cpp:139] Memory required for data: 4167934592
I1022 23:41:07.815441 12894 net.cpp:467] Sharing parameters 'res5c_branch2c_w' owned by layer 'res5c_branch2c', param index 0
I1022 23:41:07.815446 12894 layer_factory.hpp:77] Creating layer n_bn5c_branch2c
I1022 23:41:07.815455 12894 net.cpp:86] Creating Layer n_bn5c_branch2c
I1022 23:41:07.815460 12894 net.cpp:408] n_bn5c_branch2c <- n_res5c_branch2c
I1022 23:41:07.815466 12894 net.cpp:369] n_bn5c_branch2c -> n_res5c_branch2c (in-place)
I1022 23:41:07.815882 12894 net.cpp:124] Setting up n_bn5c_branch2c
I1022 23:41:07.815891 12894 net.cpp:131] Top shape: 1 2048 12 16 (393216)
I1022 23:41:07.815910 12894 net.cpp:139] Memory required for data: 4169507456
I1022 23:41:07.815929 12894 net.cpp:467] Sharing parameters 'bn5c_branch2c_1' owned by layer 'bn5c_branch2c', param index 0
I1022 23:41:07.815935 12894 net.cpp:467] Sharing parameters 'bn5c_branch2c_2' owned by layer 'bn5c_branch2c', param index 1
I1022 23:41:07.815939 12894 net.cpp:467] Sharing parameters 'bn5c_branch2c_3' owned by layer 'bn5c_branch2c', param index 2
I1022 23:41:07.815943 12894 layer_factory.hpp:77] Creating layer n_scale5c_branch2c
I1022 23:41:07.815963 12894 net.cpp:86] Creating Layer n_scale5c_branch2c
I1022 23:41:07.815968 12894 net.cpp:408] n_scale5c_branch2c <- n_res5c_branch2c
I1022 23:41:07.815973 12894 net.cpp:369] n_scale5c_branch2c -> n_res5c_branch2c (in-place)
I1022 23:41:07.816068 12894 layer_factory.hpp:77] Creating layer n_scale5c_branch2c
I1022 23:41:07.816282 12894 net.cpp:124] Setting up n_scale5c_branch2c
I1022 23:41:07.816292 12894 net.cpp:131] Top shape: 1 2048 12 16 (393216)
I1022 23:41:07.816294 12894 net.cpp:139] Memory required for data: 4171080320
I1022 23:41:07.816299 12894 net.cpp:467] Sharing parameters 'scale5c_branch2c_1' owned by layer 'scale5c_branch2c', param index 0
I1022 23:41:07.816305 12894 net.cpp:467] Sharing parameters 'scale5c_branch2c_2' owned by layer 'scale5c_branch2c', param index 1
I1022 23:41:07.816313 12894 layer_factory.hpp:77] Creating layer n_res5c
I1022 23:41:07.816320 12894 net.cpp:86] Creating Layer n_res5c
I1022 23:41:07.816325 12894 net.cpp:408] n_res5c <- n_res5b_n_res5b_relu_0_split_1
I1022 23:41:07.816330 12894 net.cpp:408] n_res5c <- n_res5c_branch2c
I1022 23:41:07.816336 12894 net.cpp:382] n_res5c -> n_res5c
I1022 23:41:07.816372 12894 net.cpp:124] Setting up n_res5c
I1022 23:41:07.816380 12894 net.cpp:131] Top shape: 1 2048 12 16 (393216)
I1022 23:41:07.816385 12894 net.cpp:139] Memory required for data: 4172653184
I1022 23:41:07.816387 12894 layer_factory.hpp:77] Creating layer n_res5c_relu
I1022 23:41:07.816392 12894 net.cpp:86] Creating Layer n_res5c_relu
I1022 23:41:07.816396 12894 net.cpp:408] n_res5c_relu <- n_res5c
I1022 23:41:07.816401 12894 net.cpp:369] n_res5c_relu -> n_res5c (in-place)
I1022 23:41:07.818068 12894 net.cpp:124] Setting up n_res5c_relu
I1022 23:41:07.818084 12894 net.cpp:131] Top shape: 1 2048 12 16 (393216)
I1022 23:41:07.818104 12894 net.cpp:139] Memory required for data: 4174226048
I1022 23:41:07.818107 12894 layer_factory.hpp:77] Creating layer n_pooled_rois
I1022 23:41:07.818115 12894 net.cpp:86] Creating Layer n_pooled_rois
I1022 23:41:07.818120 12894 net.cpp:408] n_pooled_rois <- n_res5c
I1022 23:41:07.818126 12894 net.cpp:408] n_pooled_rois <- rois_rois_0_split_2
I1022 23:41:07.818135 12894 net.cpp:382] n_pooled_rois -> n_pooled_rois
I1022 23:41:07.818145 12894 roi_pooling_layer.cpp:30] Spatial scale: 0.03125
I1022 23:41:07.818215 12894 net.cpp:124] Setting up n_pooled_rois
I1022 23:41:07.818226 12894 net.cpp:131] Top shape: 8 2048 1 1 (16384)
I1022 23:41:07.818230 12894 net.cpp:139] Memory required for data: 4174291584
I1022 23:41:07.818234 12894 layer_factory.hpp:77] Creating layer n_pooled_rois/normalized
I1022 23:41:07.818240 12894 net.cpp:86] Creating Layer n_pooled_rois/normalized
I1022 23:41:07.818244 12894 net.cpp:408] n_pooled_rois/normalized <- n_pooled_rois
I1022 23:41:07.818253 12894 net.cpp:382] n_pooled_rois/normalized -> n_pooled_rois/normalized
I1022 23:41:07.818322 12894 net.cpp:124] Setting up n_pooled_rois/normalized
I1022 23:41:07.818331 12894 net.cpp:131] Top shape: 8 2048 1 1 (16384)
I1022 23:41:07.818334 12894 net.cpp:139] Memory required for data: 4174357120
I1022 23:41:07.818339 12894 layer_factory.hpp:77] Creating layer n_pooled_rois/normalized_flat
I1022 23:41:07.818349 12894 net.cpp:86] Creating Layer n_pooled_rois/normalized_flat
I1022 23:41:07.818353 12894 net.cpp:408] n_pooled_rois/normalized_flat <- n_pooled_rois/normalized
I1022 23:41:07.818359 12894 net.cpp:382] n_pooled_rois/normalized_flat -> n_pooled_rois/normalized_flat
I1022 23:41:07.818395 12894 net.cpp:124] Setting up n_pooled_rois/normalized_flat
I1022 23:41:07.818403 12894 net.cpp:131] Top shape: 8 2048 1 1 (16384)
I1022 23:41:07.818421 12894 net.cpp:139] Memory required for data: 4174422656
I1022 23:41:07.818425 12894 layer_factory.hpp:77] Creating layer n_pooled_rois/centered
I1022 23:41:07.818436 12894 net.cpp:86] Creating Layer n_pooled_rois/centered
I1022 23:41:07.818440 12894 net.cpp:408] n_pooled_rois/centered <- n_pooled_rois/normalized_flat
I1022 23:41:07.818449 12894 net.cpp:382] n_pooled_rois/centered -> n_pooled_rois/centered
I1022 23:41:07.818547 12894 layer_factory.hpp:77] Creating layer n_pooled_rois/centered
I1022 23:41:07.818759 12894 net.cpp:124] Setting up n_pooled_rois/centered
I1022 23:41:07.818769 12894 net.cpp:131] Top shape: 8 2048 1 1 (16384)
I1022 23:41:07.818773 12894 net.cpp:139] Memory required for data: 4174488192
I1022 23:41:07.818779 12894 net.cpp:467] Sharing parameters 'pooled_rois/centered_1' owned by layer 'pooled_rois/centered', param index 0
I1022 23:41:07.818785 12894 net.cpp:467] Sharing parameters 'pooled_rois/centered_2' owned by layer 'pooled_rois/centered', param index 1
I1022 23:41:07.818789 12894 layer_factory.hpp:77] Creating layer n_pooled_rois/pca_512
I1022 23:41:07.818799 12894 net.cpp:86] Creating Layer n_pooled_rois/pca_512
I1022 23:41:07.818804 12894 net.cpp:408] n_pooled_rois/pca_512 <- n_pooled_rois/centered
I1022 23:41:07.818810 12894 net.cpp:382] n_pooled_rois/pca_512 -> n_pooled_rois/pca_512
I1022 23:41:07.827651 12894 net.cpp:124] Setting up n_pooled_rois/pca_512
I1022 23:41:07.827666 12894 net.cpp:131] Top shape: 8 512 (4096)
I1022 23:41:07.827684 12894 net.cpp:139] Memory required for data: 4174504576
I1022 23:41:07.827692 12894 net.cpp:467] Sharing parameters 'pooled_rois/pca_1' owned by layer 'pooled_rois/pca_512', param index 0
I1022 23:41:07.827697 12894 net.cpp:467] Sharing parameters 'pooled_rois/pca_2' owned by layer 'pooled_rois/pca_512', param index 1
I1022 23:41:07.827700 12894 layer_factory.hpp:77] Creating layer n_pooled_rois/pca/reshaped
I1022 23:41:07.827708 12894 net.cpp:86] Creating Layer n_pooled_rois/pca/reshaped
I1022 23:41:07.827714 12894 net.cpp:408] n_pooled_rois/pca/reshaped <- n_pooled_rois/pca_512
I1022 23:41:07.827735 12894 net.cpp:382] n_pooled_rois/pca/reshaped -> n_pooled_rois/pca/reshaped
I1022 23:41:07.827775 12894 net.cpp:124] Setting up n_pooled_rois/pca/reshaped
I1022 23:41:07.827785 12894 net.cpp:131] Top shape: 8 512 1 1 (4096)
I1022 23:41:07.827788 12894 net.cpp:139] Memory required for data: 4174520960
I1022 23:41:07.827791 12894 layer_factory.hpp:77] Creating layer n_pooled_rois/pca/normalized
I1022 23:41:07.827797 12894 net.cpp:86] Creating Layer n_pooled_rois/pca/normalized
I1022 23:41:07.827801 12894 net.cpp:408] n_pooled_rois/pca/normalized <- n_pooled_rois/pca/reshaped
I1022 23:41:07.827810 12894 net.cpp:382] n_pooled_rois/pca/normalized -> n_pooled_rois/pca/normalized
I1022 23:41:07.827878 12894 net.cpp:124] Setting up n_pooled_rois/pca/normalized
I1022 23:41:07.827886 12894 net.cpp:131] Top shape: 8 512 1 1 (4096)
I1022 23:41:07.827889 12894 net.cpp:139] Memory required for data: 4174537344
I1022 23:41:07.827893 12894 layer_factory.hpp:77] Creating layer n_rmac
I1022 23:41:07.827968 12894 net.cpp:86] Creating Layer n_rmac
I1022 23:41:07.827975 12894 net.cpp:408] n_rmac <- n_pooled_rois/pca/normalized
I1022 23:41:07.827982 12894 net.cpp:382] n_rmac -> n_rmac
I1022 23:41:07.828634 12894 net.cpp:124] Setting up n_rmac
I1022 23:41:07.828649 12894 net.cpp:131] Top shape: 1 512 1 1 (512)
I1022 23:41:07.828652 12894 net.cpp:139] Memory required for data: 4174539392
I1022 23:41:07.828656 12894 layer_factory.hpp:77] Creating layer n_rmac/normalized
I1022 23:41:07.828663 12894 net.cpp:86] Creating Layer n_rmac/normalized
I1022 23:41:07.828667 12894 net.cpp:408] n_rmac/normalized <- n_rmac
I1022 23:41:07.828675 12894 net.cpp:382] n_rmac/normalized -> n_rmac/normalized
I1022 23:41:07.828747 12894 net.cpp:124] Setting up n_rmac/normalized
I1022 23:41:07.828754 12894 net.cpp:131] Top shape: 1 512 1 1 (512)
I1022 23:41:07.828758 12894 net.cpp:139] Memory required for data: 4174541440
I1022 23:41:07.828761 12894 layer_factory.hpp:77] Creating layer loss
I1022 23:41:07.828783 12894 net.cpp:86] Creating Layer loss
I1022 23:41:07.828789 12894 net.cpp:408] loss <- rmac/normalized
I1022 23:41:07.828795 12894 net.cpp:408] loss <- p_rmac/normalized
I1022 23:41:07.828800 12894 net.cpp:408] loss <- n_rmac/normalized
…
