…
I1011 23:13:28.170050 18020 net.cpp:296] The NetState phase (0) differed from the phase (1) specified by a rule in layer loss
I1011 23:13:28.171813 18020 net.cpp:53] Initializing net from parameters: 
name: "ResNet-101"
state {
  phase: TRAIN
  level: 0
  stage: ""
}
layer {
  name: "data"
  type: "Data"
  top: "data"
  top: "label"
  include {
    phase: TRAIN
  }
  transform_param {
    mirror: true
    mean_value: 103.939
    mean_value: 116.779
    mean_value: 123.68
  }
  data_param {
    source: "/home/processyuan/data/Paris/aug/paris_aug_lmdb"
    batch_size: 4
    backend: LMDB
  }
}
layer {
  name: "features"
  type: "Python"
  bottom: "label"
  top: "features"
  include {
    phase: TRAIN
  }
  python_param {
    module: "custom_layers"
    layer: "FeatureLayer"
    param_str: "{\'features\': \'/home/processyuan/data/Paris/aug/features.npy\'}"
  }
}
layer {
  name: "rois"
  type: "Python"
  bottom: "data"
  top: "rois"
  python_param {
    module: "custom_layers"
    layer: "RigidGridLayer"
    param_str: "{}"
  }
}
layer {
  name: "conv1"
  type: "Convolution"
  bottom: "data"
  top: "conv1"
  convolution_param {
    num_output: 64
    bias_term: false
    pad: 3
    kernel_size: 7
    stride: 2
  }
}
layer {
  name: "bn_conv1"
  type: "BatchNorm"
  bottom: "conv1"
  top: "conv1"
  batch_norm_param {
    use_global_stats: false
  }
}
layer {
  name: "scale_conv1"
  type: "Scale"
  bottom: "conv1"
  top: "conv1"
  scale_param {
    bias_term: true
  }
}
layer {
  name: "conv1_relu"
  type: "ReLU"
  bottom: "conv1"
  top: "conv1"
}
layer {
  name: "pool1"
  type: "Pooling"
  bottom: "conv1"
  top: "pool1"
  pooling_param {
    pool: MAX
    kernel_size: 3
    stride: 2
  }
}
layer {
  name: "res2a_branch1"
  type: "Convolution"
  bottom: "pool1"
  top: "res2a_branch1"
  convolution_param {
    num_output: 256
    bias_term: false
    pad: 0
    kernel_size: 1
    stride: 1
  }
}
layer {
  name: "bn2a_branch1"
  type: "BatchNorm"
  bottom: "res2a_branch1"
  top: "res2a_branch1"
  batch_norm_param {
    use_global_stats: false
  }
}
layer {
  name: "scale2a_branch1"
  type: "Scale"
  bottom: "res2a_branch1"
  top: "res2a_branch1"
  scale_param {
    bias_term: true
  }
}
layer {
  name: "res2a_branch2a"
  type: "Convolution"
  bottom: "pool1"
  top: "res2a_branch2a"
  convolution_param {
    num_output: 64
    bias_term: false
    pad: 0
    kernel_size: 1
    stride: 1
  }
}
layer {
  name: "bn2a_branch2a"
  type: "BatchNorm"
  bottom: "res2a_branch2a"
  top: "res2a_branch2a"
  batch_norm_param {
    use_global_stats: false
  }
}
layer {
  name: "scale2a_branch2a"
  type: "Scale"
  bottom: "res2a_branch2a"
  top: "res2a_branch2a"
  scale_param {
    bias_term: true
  }
}
layer {
  name: "res2a_branch2a_relu"
  type: "ReLU"
  bottom: "res2a_branch2a"
  top: "res2a_branch2a"
}
layer {
  name: "res2a_branch2b"
  type: "Convolution"
  bottom: "res2a_branch2a"
  top: "res2a_branch2b"
  convolution_param {
    num_output: 64
    bias_term: false
    pad: 1
    kernel_size: 3
    stride: 1
  }
}
layer {
  name: "bn2a_branch2b"
  type: "BatchNorm"
  bottom: "res2a_branch2b"
  top: "res2a_branch2b"
  batch_norm_param {
    use_global_stats: false
  }
}
layer {
  name: "scale2a_branch2b"
  type: "Scale"
  bottom: "res2a_branch2b"
  top: "res2a_branch2b"
  scale_param {
    bias_term: true
  }
}
layer {
  name: "res2a_branch2b_relu"
  type: "ReLU"
  bottom: "res2a_branch2b"
  top: "res2a_branch2b"
}
layer {
  name: "res2a_branch2c"
  type: "Convolution"
  bottom: "res2a_branch2b"
  top: "res2a_branch2c"
  convolution_param {
    num_output: 256
    bias_term: false
    pad: 0
    kernel_size: 1
    stride: 1
  }
}
layer {
  name: "bn2a_branch2c"
  type: "BatchNorm"
  bottom: "res2a_branch2c"
  top: "res2a_branch2c"
  batch_norm_param {
    use_global_stats: false
  }
}
layer {
  name: "scale2a_branch2c"
  type: "Scale"
  bottom: "res2a_branch2c"
  top: "res2a_branch2c"
  scale_param {
    bias_term: true
  }
}
layer {
  name: "res2a"
  type: "Eltwise"
  bottom: "res2a_branch1"
  bottom: "res2a_branch2c"
  top: "res2a"
}
layer {
  name: "res2a_relu"
  type: "ReLU"
  bottom: "res2a"
  top: "res2a"
}
layer {
  name: "res2b_branch2a"
  type: "Convolution"
  bottom: "res2a"
  top: "res2b_branch2a"
  convolution_param {
    num_output: 64
    bias_term: false
    pad: 0
    kernel_size: 1
    stride: 1
  }
}
layer {
  name: "bn2b_branch2a"
  type: "BatchNorm"
  bottom: "res2b_branch2a"
  top: "res2b_branch2a"
  batch_norm_param {
    use_global_stats: false
  }
}
layer {
  name: "scale2b_branch2a"
  type: "Scale"
  bottom: "res2b_branch2a"
  top: "res2b_branch2a"
  scale_param {
    bias_term: true
  }
}
layer {
  name: "res2b_branch2a_relu"
  type: "ReLU"
  bottom: "res2b_branch2a"
  top: "res2b_branch2a"
}
layer {
  name: "res2b_branch2b"
  type: "Convolution"
  bottom: "res2b_branch2a"
  top: "res2b_branch2b"
  convolution_param {
    num_output: 64
    bias_term: false
    pad: 1
    kernel_size: 3
    stride: 1
  }
}
layer {
  name: "bn2b_branch2b"
  type: "BatchNorm"
  bottom: "res2b_branch2b"
  top: "res2b_branch2b"
  batch_norm_param {
    use_global_stats: false
  }
}
layer {
  name: "scale2b_branch2b"
  type: "Scale"
  bottom: "res2b_branch2b"
  top: "res2b_branch2b"
  scale_param {
    bias_term: true
  }
}
layer {
  name: "res2b_branch2b_relu"
  type: "ReLU"
  bottom: "res2b_branch2b"
  top: "res2b_branch2b"
}
layer {
  name: "res2b_branch2c"
  type: "Convolution"
  bottom: "res2b_branch2b"
  top: "res2b_branch2c"
  convolution_param {
    num_output: 256
    bias_term: false
    pad: 0
    kernel_size: 1
    stride: 1
  }
}
layer {
  name: "bn2b_branch2c"
  type: "BatchNorm"
  bottom: "res2b_branch2c"
  top: "res2b_branch2c"
  batch_norm_param {
    use_global_stats: false
  }
}
layer {
  name: "scale2b_branch2c"
  type: "Scale"
  bottom: "res2b_branch2c"
  top: "res2b_branch2c"
  scale_param {
    bias_term: true
  }
}
layer {
  name: "res2b"
  type: "Eltwise"
  bottom: "res2a"
  bottom: "res2b_branch2c"
  top: "res2b"
}
layer {
  name: "res2b_relu"
  type: "ReLU"
  bottom: "res2b"
  top: "res2b"
}
layer {
  name: "res2c_branch2a"
  type: "Convolution"
  bottom: "res2b"
  top: "res2c_branch2a"
  convolution_param {
    num_output: 64
    bias_term: false
    pad: 0
    kernel_size: 1
    stride: 1
  }
}
layer {
  name: "bn2c_branch2a"
  type: "BatchNorm"
  bottom: "res2c_branch2a"
  top: "res2c_branch2a"
  batch_norm_param {
    use_global_stats: false
  }
}
layer {
  name: "scale2c_branch2a"
  type: "Scale"
  bottom: "res2c_branch2a"
  top: "res2c_branch2a"
  scale_param {
    bias_term: true
  }
}
layer {
  name: "res2c_branch2a_relu"
  type: "ReLU"
  bottom: "res2c_branch2a"
  top: "res2c_branch2a"
}
layer {
  name: "res2c_branch2b"
  type: "Convolution"
  bottom: "res2c_branch2a"
  top: "res2c_branch2b"
  convolution_param {
    num_output: 64
    bias_term: false
    pad: 1
    kernel_size: 3
    stride: 1
  }
}
layer {
  name: "bn2c_branch2b"
  type: "BatchNorm"
  bottom: "res2c_branch2b"
  top: "res2c_branch2b"
  batch_norm_param {
    use_global_stats: false
  }
}
layer {
  name: "scale2c_branch2b"
  type: "Scale"
  bottom: "res2c_branch2b"
  top: "res2c_branch2b"
  scale_param {
    bias_term: true
  }
}
layer {
  name: "res2c_branch2b_relu"
  type: "ReLU"
  bottom: "res2c_branch2b"
  top: "res2c_branch2b"
}
layer {
  name: "res2c_branch2c"
  type: "Convolution"
  bottom: "res2c_branch2b"
  top: "res2c_branch2c"
  convolution_param {
    num_output: 256
    bias_term: false
    pad: 0
    kernel_size: 1
    stride: 1
  }
}
layer {
  name: "bn2c_branch2c"
  type: "BatchNorm"
  bottom: "res2c_branch2c"
  top: "res2c_branch2c"
  batch_norm_param {
    use_global_stats: false
  }
}
layer {
  name: "scale2c_branch2c"
  type: "Scale"
  bottom: "res2c_branch2c"
  top: "res2c_branch2c"
  scale_param {
    bias_term: true
  }
}
layer {
  name: "res2c"
  type: "Eltwise"
  bottom: "res2b"
  bottom: "res2c_branch2c"
  top: "res2c"
}
layer {
  name: "res2c_relu"
  type: "ReLU"
  bottom: "res2c"
  top: "res2c"
}
layer {
  name: "res3a_branch1"
  type: "Convolution"
  bottom: "res2c"
  top: "res3a_branch1"
  convolution_param {
    num_output: 512
    bias_term: false
    pad: 0
    kernel_size: 1
    stride: 2
  }
}
layer {
  name: "bn3a_branch1"
  type: "BatchNorm"
  bottom: "res3a_branch1"
  top: "res3a_branch1"
  batch_norm_param {
    use_global_stats: false
  }
}
layer {
  name: "scale3a_branch1"
  type: "Scale"
  bottom: "res3a_branch1"
  top: "res3a_branch1"
  scale_param {
    bias_term: true
  }
}
layer {
  name: "res3a_branch2a"
  type: "Convolution"
  bottom: "res2c"
  top: "res3a_branch2a"
  convolution_param {
    num_output: 128
    bias_term: false
    pad: 0
    kernel_size: 1
    stride: 2
  }
}
layer {
  name: "bn3a_branch2a"
  type: "BatchNorm"
  bottom: "res3a_branch2a"
  top: "res3a_branch2a"
  batch_norm_param {
    use_global_stats: false
  }
}
layer {
  name: "scale3a_branch2a"
  type: "Scale"
  bottom: "res3a_branch2a"
  top: "res3a_branch2a"
  scale_param {
    bias_term: true
  }
}
layer {
  name: "res3a_branch2a_relu"
  type: "ReLU"
  bottom: "res3a_branch2a"
  top: "res3a_branch2a"
}
layer {
  name: "res3a_branch2b"
  type: "Convolution"
  bottom: "res3a_branch2a"
  top: "res3a_branch2b"
  convolution_param {
    num_output: 128
    bias_term: false
    pad: 1
    kernel_size: 3
    stride: 1
  }
}
layer {
  name: "bn3a_branch2b"
  type: "BatchNorm"
  bottom: "res3a_branch2b"
  top: "res3a_branch2b"
  batch_norm_param {
    use_global_stats: false
  }
}
layer {
  name: "scale3a_branch2b"
  type: "Scale"
  bottom: "res3a_branch2b"
  top: "res3a_branch2b"
  scale_param {
    bias_term: true
  }
}
layer {
  name: "res3a_branch2b_relu"
  type: "ReLU"
  bottom: "res3a_branch2b"
  top: "res3a_branch2b"
}
layer {
  name: "res3a_branch2c"
  type: "Convolution"
  bottom: "res3a_branch2b"
  top: "res3a_branch2c"
  convolution_param {
    num_output: 512
    bias_term: false
    pad: 0
    kernel_size: 1
    stride: 1
  }
}
layer {
  name: "bn3a_branch2c"
  type: "BatchNorm"
  bottom: "res3a_branch2c"
  top: "res3a_branch2c"
  batch_norm_param {
    use_global_stats: false
  }
}
layer {
  name: "scale3a_branch2c"
  type: "Scale"
  bottom: "res3a_branch2c"
  top: "res3a_branch2c"
  scale_param {
    bias_term: true
  }
}
layer {
  name: "res3a"
  type: "Eltwise"
  bottom: "res3a_branch1"
  bottom: "res3a_branch2c"
  top: "res3a"
}
layer {
  name: "res3a_relu"
  type: "ReLU"
  bottom: "res3a"
  top: "res3a"
}
layer {
  name: "res3b1_branch2a"
  type: "Convolution"
  bottom: "res3a"
  top: "res3b1_branch2a"
  convolution_param {
    num_output: 128
    bias_term: false
    pad: 0
    kernel_size: 1
    stride: 1
  }
}
layer {
  name: "bn3b1_branch2a"
  type: "BatchNorm"
  bottom: "res3b1_branch2a"
  top: "res3b1_branch2a"
  batch_norm_param {
    use_global_stats: false
  }
}
layer {
  name: "scale3b1_branch2a"
  type: "Scale"
  bottom: "res3b1_branch2a"
  top: "res3b1_branch2a"
  scale_param {
    bias_term: true
  }
}
layer {
  name: "res3b1_branch2a_relu"
  type: "ReLU"
  bottom: "res3b1_branch2a"
  top: "res3b1_branch2a"
}
layer {
  name: "res3b1_branch2b"
  type: "Convolution"
  bottom: "res3b1_branch2a"
  top: "res3b1_branch2b"
  convolution_param {
    num_output: 128
    bias_term: false
    pad: 1
    kernel_size: 3
    stride: 1
  }
}
layer {
  name: "bn3b1_branch2b"
  type: "BatchNorm"
  bottom: "res3b1_branch2b"
  top: "res3b1_branch2b"
  batch_norm_param {
    use_global_stats: false
  }
}
layer {
  name: "scale3b1_branch2b"
  type: "Scale"
  bottom: "res3b1_branch2b"
  top: "res3b1_branch2b"
  scale_param {
    bias_term: true
  }
}
layer {
  name: "res3b1_branch2b_relu"
  type: "ReLU"
  bottom: "res3b1_branch2b"
  top: "res3b1_branch2b"
}
layer {
  name: "res3b1_branch2c"
  type: "Convolution"
  bottom: "res3b1_branch2b"
  top: "res3b1_branch2c"
  convolution_param {
    num_output: 512
    bias_term: false
    pad: 0
    kernel_size: 1
    stride: 1
  }
}
layer {
  name: "bn3b1_branch2c"
  type: "BatchNorm"
  bottom: "res3b1_branch2c"
  top: "res3b1_branch2c"
  batch_norm_param {
    use_global_stats: false
  }
}
layer {
  name: "scale3b1_branch2c"
  type: "Scale"
  bottom: "res3b1_branch2c"
  top: "res3b1_branch2c"
  scale_param {
    bias_term: true
  }
}
layer {
  name: "res3b1"
  type: "Eltwise"
  bottom: "res3a"
  bottom: "res3b1_branch2c"
  top: "res3b1"
}
layer {
  name: "res3b1_relu"
  type: "ReLU"
  bottom: "res3b1"
  top: "res3b1"
}
layer {
  name: "res3b2_branch2a"
  type: "Convolution"
  bottom: "res3b1"
  top: "res3b2_branch2a"
  convolution_param {
    num_output: 128
    bias_term: false
    pad: 0
    kernel_size: 1
    stride: 1
  }
}
layer {
  name: "bn3b2_branch2a"
  type: "BatchNorm"
  bottom: "res3b2_branch2a"
  top: "res3b2_branch2a"
  batch_norm_param {
    use_global_stats: false
  }
}
layer {
  name: "scale3b2_branch2a"
  type: "Scale"
  bottom: "res3b2_branch2a"
  top: "res3b2_branch2a"
  scale_param {
    bias_term: true
  }
}
layer {
  name: "res3b2_branch2a_relu"
  type: "ReLU"
  bottom: "res3b2_branch2a"
  top: "res3b2_branch2a"
}
layer {
  name: "res3b2_branch2b"
  type: "Convolution"
  bottom: "res3b2_branch2a"
  top: "res3b2_branch2b"
  convolution_param {
    num_output: 128
    bias_term: false
    pad: 1
    kernel_size: 3
    stride: 1
  }
}
layer {
  name: "bn3b2_branch2b"
  type: "BatchNorm"
  bottom: "res3b2_branch2b"
  top: "res3b2_branch2b"
  batch_norm_param {
    use_global_stats: false
  }
}
layer {
  name: "scale3b2_branch2b"
  type: "Scale"
  bottom: "res3b2_branch2b"
  top: "res3b2_branch2b"
  scale_param {
    bias_term: true
  }
}
layer {
  name: "res3b2_branch2b_relu"
  type: "ReLU"
  bottom: "res3b2_branch2b"
  top: "res3b2_branch2b"
}
layer {
  name: "res3b2_branch2c"
  type: "Convolution"
  bottom: "res3b2_branch2b"
  top: "res3b2_branch2c"
  convolution_param {
    num_output: 512
    bias_term: false
    pad: 0
    kernel_size: 1
    stride: 1
  }
}
layer {
  name: "bn3b2_branch2c"
  type: "BatchNorm"
  bottom: "res3b2_branch2c"
  top: "res3b2_branch2c"
  batch_norm_param {
    use_global_stats: false
  }
}
layer {
  name: "scale3b2_branch2c"
  type: "Scale"
  bottom: "res3b2_branch2c"
  top: "res3b2_branch2c"
  scale_param {
    bias_term: true
  }
}
layer {
  name: "res3b2"
  type: "Eltwise"
  bottom: "res3b1"
  bottom: "res3b2_branch2c"
  top: "res3b2"
}
layer {
  name: "res3b2_relu"
  type: "ReLU"
  bottom: "res3b2"
  top: "res3b2"
}
layer {
  name: "res3b3_branch2a"
  type: "Convolution"
  bottom: "res3b2"
  top: "res3b3_branch2a"
  convolution_param {
    num_output: 128
    bias_term: false
    pad: 0
    kernel_size: 1
    stride: 1
  }
}
layer {
  name: "bn3b3_branch2a"
  type: "BatchNorm"
  bottom: "res3b3_branch2a"
  top: "res3b3_branch2a"
  batch_norm_param {
    use_global_stats: false
  }
}
layer {
  name: "scale3b3_branch2a"
  type: "Scale"
  bottom: "res3b3_branch2a"
  top: "res3b3_branch2a"
  scale_param {
    bias_term: true
  }
}
layer {
  name: "res3b3_branch2a_relu"
  type: "ReLU"
  bottom: "res3b3_branch2a"
  top: "res3b3_branch2a"
}
layer {
  name: "res3b3_branch2b"
  type: "Convolution"
  bottom: "res3b3_branch2a"
  top: "res3b3_branch2b"
  convolution_param {
    num_output: 128
    bias_term: false
    pad: 1
    kernel_size: 3
    stride: 1
  }
}
layer {
  name: "bn3b3_branch2b"
  type: "BatchNorm"
  bottom: "res3b3_branch2b"
  top: "res3b3_branch2b"
  batch_norm_param {
    use_global_stats: false
  }
}
layer {
  name: "scale3b3_branch2b"
  type: "Scale"
  bottom: "res3b3_branch2b"
  top: "res3b3_branch2b"
  scale_param {
    bias_term: true
  }
}
layer {
  name: "res3b3_branch2b_relu"
  type: "ReLU"
  bottom: "res3b3_branch2b"
  top: "res3b3_branch2b"
}
layer {
  name: "res3b3_branch2c"
  type: "Convolution"
  bottom: "res3b3_branch2b"
  top: "res3b3_branch2c"
  convolution_param {
    num_output: 512
    bias_term: false
    pad: 0
    kernel_size: 1
    stride: 1
  }
}
layer {
  name: "bn3b3_branch2c"
  type: "BatchNorm"
  bottom: "res3b3_branch2c"
  top: "res3b3_branch2c"
  batch_norm_param {
    use_global_stats: false
  }
}
layer {
  name: "scale3b3_branch2c"
  type: "Scale"
  bottom: "res3b3_branch2c"
  top: "res3b3_branch2c"
  scale_param {
    bias_term: true
  }
}
layer {
  name: "res3b3"
  type: "Eltwise"
  bottom: "res3b2"
  bottom: "res3b3_branch2c"
  top: "res3b3"
}
layer {
  name: "res3b3_relu"
  type: "ReLU"
  bottom: "res3b3"
  top: "res3b3"
}
layer {
  name: "res4a_branch1"
  type: "Convolution"
  bottom: "res3b3"
  top: "res4a_branch1"
  convolution_param {
    num_output: 1024
    bias_term: false
    pad: 0
    kernel_size: 1
    stride: 2
  }
}
layer {
  name: "bn4a_branch1"
  type: "BatchNorm"
  bottom: "res4a_branch1"
  top: "res4a_branch1"
  batch_norm_param {
    use_global_stats: false
  }
}
layer {
  name: "scale4a_branch1"
  type: "Scale"
  bottom: "res4a_branch1"
  top: "res4a_branch1"
  scale_param {
    bias_term: true
  }
}
layer {
  name: "res4a_branch2a"
  type: "Convolution"
  bottom: "res3b3"
  top: "res4a_branch2a"
  convolution_param {
    num_output: 256
    bias_term: false
    pad: 0
    kernel_size: 1
    stride: 2
  }
}
layer {
  name: "bn4a_branch2a"
  type: "BatchNorm"
  bottom: "res4a_branch2a"
  top: "res4a_branch2a"
  batch_norm_param {
    use_global_stats: false
  }
}
layer {
  name: "scale4a_branch2a"
  type: "Scale"
  bottom: "res4a_branch2a"
  top: "res4a_branch2a"
  scale_param {
    bias_term: true
  }
}
layer {
  name: "res4a_branch2a_relu"
  type: "ReLU"
  bottom: "res4a_branch2a"
  top: "res4a_branch2a"
}
layer {
  name: "res4a_branch2b"
  type: "Convolution"
  bottom: "res4a_branch2a"
  top: "res4a_branch2b"
  convolution_param {
    num_output: 256
    bias_term: false
    pad: 1
    kernel_size: 3
    stride: 1
  }
}
layer {
  name: "bn4a_branch2b"
  type: "BatchNorm"
  bottom: "res4a_branch2b"
  top: "res4a_branch2b"
  batch_norm_param {
    use_global_stats: false
  }
}
layer {
  name: "scale4a_branch2b"
  type: "Scale"
  bottom: "res4a_branch2b"
  top: "res4a_branch2b"
  scale_param {
    bias_term: true
  }
}
layer {
  name: "res4a_branch2b_relu"
  type: "ReLU"
  bottom: "res4a_branch2b"
  top: "res4a_branch2b"
}
layer {
  name: "res4a_branch2c"
  type: "Convolution"
  bottom: "res4a_branch2b"
  top: "res4a_branch2c"
  convolution_param {
    num_output: 1024
    bias_term: false
    pad: 0
    kernel_size: 1
    stride: 1
  }
}
layer {
  name: "bn4a_branch2c"
  type: "BatchNorm"
  bottom: "res4a_branch2c"
  top: "res4a_branch2c"
  batch_norm_param {
    use_global_stats: false
  }
}
layer {
  name: "scale4a_branch2c"
  type: "Scale"
  bottom: "res4a_branch2c"
  top: "res4a_branch2c"
  scale_param {
    bias_term: true
  }
}
layer {
  name: "res4a"
  type: "Eltwise"
  bottom: "res4a_branch1"
  bottom: "res4a_branch2c"
  top: "res4a"
}
layer {
  name: "res4a_relu"
  type: "ReLU"
  bottom: "res4a"
  top: "res4a"
}
layer {
  name: "res4b1_branch2a"
  type: "Convolution"
  bottom: "res4a"
  top: "res4b1_branch2a"
  convolution_param {
    num_output: 256
    bias_term: false
    pad: 0
    kernel_size: 1
    stride: 1
  }
}
layer {
  name: "bn4b1_branch2a"
  type: "BatchNorm"
  bottom: "res4b1_branch2a"
  top: "res4b1_branch2a"
  batch_norm_param {
    use_global_stats: false
  }
}
layer {
  name: "scale4b1_branch2a"
  type: "Scale"
  bottom: "res4b1_branch2a"
  top: "res4b1_branch2a"
  scale_param {
    bias_term: true
  }
}
layer {
  name: "res4b1_branch2a_relu"
  type: "ReLU"
  bottom: "res4b1_branch2a"
  top: "res4b1_branch2a"
}
layer {
  name: "res4b1_branch2b"
  type: "Convolution"
  bottom: "res4b1_branch2a"
  top: "res4b1_branch2b"
  convolution_param {
    num_output: 256
    bias_term: false
    pad: 1
    kernel_size: 3
    stride: 1
  }
}
layer {
  name: "bn4b1_branch2b"
  type: "BatchNorm"
  bottom: "res4b1_branch2b"
  top: "res4b1_branch2b"
  batch_norm_param {
    use_global_stats: false
  }
}
layer {
  name: "scale4b1_branch2b"
  type: "Scale"
  bottom: "res4b1_branch2b"
  top: "res4b1_branch2b"
  scale_param {
    bias_term: true
  }
}
layer {
  name: "res4b1_branch2b_relu"
  type: "ReLU"
  bottom: "res4b1_branch2b"
  top: "res4b1_branch2b"
}
layer {
  name: "res4b1_branch2c"
  type: "Convolution"
  bottom: "res4b1_branch2b"
  top: "res4b1_branch2c"
  convolution_param {
    num_output: 1024
    bias_term: false
    pad: 0
    kernel_size: 1
    stride: 1
  }
}
layer {
  name: "bn4b1_branch2c"
  type: "BatchNorm"
  bottom: "res4b1_branch2c"
  top: "res4b1_branch2c"
  batch_norm_param {
    use_global_stats: false
  }
}
layer {
  name: "scale4b1_branch2c"
  type: "Scale"
  bottom: "res4b1_branch2c"
  top: "res4b1_branch2c"
  scale_param {
    bias_term: true
  }
}
layer {
  name: "res4b1"
  type: "Eltwise"
  bottom: "res4a"
  bottom: "res4b1_branch2c"
  top: "res4b1"
}
layer {
  name: "res4b1_relu"
  type: "ReLU"
  bottom: "res4b1"
  top: "res4b1"
}
layer {
  name: "res4b2_branch2a"
  type: "Convolution"
  bottom: "res4b1"
  top: "res4b2_branch2a"
  convolution_param {
    num_output: 256
    bias_term: false
    pad: 0
    kernel_size: 1
    stride: 1
  }
}
layer {
  name: "bn4b2_branch2a"
  type: "BatchNorm"
  bottom: "res4b2_branch2a"
  top: "res4b2_branch2a"
  batch_norm_param {
    use_global_stats: false
  }
}
layer {
  name: "scale4b2_branch2a"
  type: "Scale"
  bottom: "res4b2_branch2a"
  top: "res4b2_branch2a"
  scale_param {
    bias_term: true
  }
}
layer {
  name: "res4b2_branch2a_relu"
  type: "ReLU"
  bottom: "res4b2_branch2a"
  top: "res4b2_branch2a"
}
layer {
  name: "res4b2_branch2b"
  type: "Convolution"
  bottom: "res4b2_branch2a"
  top: "res4b2_branch2b"
  convolution_param {
    num_output: 256
    bias_term: false
    pad: 1
    kernel_size: 3
    stride: 1
  }
}
layer {
  name: "bn4b2_branch2b"
  type: "BatchNorm"
  bottom: "res4b2_branch2b"
  top: "res4b2_branch2b"
  batch_norm_param {
    use_global_stats: false
  }
}
layer {
  name: "scale4b2_branch2b"
  type: "Scale"
  bottom: "res4b2_branch2b"
  top: "res4b2_branch2b"
  scale_param {
    bias_term: true
  }
}
layer {
  name: "res4b2_branch2b_relu"
  type: "ReLU"
  bottom: "res4b2_branch2b"
  top: "res4b2_branch2b"
}
layer {
  name: "res4b2_branch2c"
  type: "Convolution"
  bottom: "res4b2_branch2b"
  top: "res4b2_branch2c"
  convolution_param {
    num_output: 1024
    bias_term: false
    pad: 0
    kernel_size: 1
    stride: 1
  }
}
layer {
  name: "bn4b2_branch2c"
  type: "BatchNorm"
  bottom: "res4b2_branch2c"
  top: "res4b2_branch2c"
  batch_norm_param {
    use_global_stats: false
  }
}
layer {
  name: "scale4b2_branch2c"
  type: "Scale"
  bottom: "res4b2_branch2c"
  top: "res4b2_branch2c"
  scale_param {
    bias_term: true
  }
}
layer {
  name: "res4b2"
  type: "Eltwise"
  bottom: "res4b1"
  bottom: "res4b2_branch2c"
  top: "res4b2"
}
layer {
  name: "res4b2_relu"
  type: "ReLU"
  bottom: "res4b2"
  top: "res4b2"
}
layer {
  name: "res4b3_branch2a"
  type: "Convolution"
  bottom: "res4b2"
  top: "res4b3_branch2a"
  convolution_param {
    num_output: 256
    bias_term: false
    pad: 0
    kernel_size: 1
    stride: 1
  }
}
layer {
  name: "bn4b3_branch2a"
  type: "BatchNorm"
  bottom: "res4b3_branch2a"
  top: "res4b3_branch2a"
  batch_norm_param {
    use_global_stats: false
  }
}
layer {
  name: "scale4b3_branch2a"
  type: "Scale"
  bottom: "res4b3_branch2a"
  top: "res4b3_branch2a"
  scale_param {
    bias_term: true
  }
}
layer {
  name: "res4b3_branch2a_relu"
  type: "ReLU"
  bottom: "res4b3_branch2a"
  top: "res4b3_branch2a"
}
layer {
  name: "res4b3_branch2b"
  type: "Convolution"
  bottom: "res4b3_branch2a"
  top: "res4b3_branch2b"
  convolution_param {
    num_output: 256
    bias_term: false
    pad: 1
    kernel_size: 3
    stride: 1
  }
}
layer {
  name: "bn4b3_branch2b"
  type: "BatchNorm"
  bottom: "res4b3_branch2b"
  top: "res4b3_branch2b"
  batch_norm_param {
    use_global_stats: false
  }
}
layer {
  name: "scale4b3_branch2b"
  type: "Scale"
  bottom: "res4b3_branch2b"
  top: "res4b3_branch2b"
  scale_param {
    bias_term: true
  }
}
layer {
  name: "res4b3_branch2b_relu"
  type: "ReLU"
  bottom: "res4b3_branch2b"
  top: "res4b3_branch2b"
}
layer {
  name: "res4b3_branch2c"
  type: "Convolution"
  bottom: "res4b3_branch2b"
  top: "res4b3_branch2c"
  convolution_param {
    num_output: 1024
    bias_term: false
    pad: 0
    kernel_size: 1
    stride: 1
  }
}
layer {
  name: "bn4b3_branch2c"
  type: "BatchNorm"
  bottom: "res4b3_branch2c"
  top: "res4b3_branch2c"
  batch_norm_param {
    use_global_stats: false
  }
}
layer {
  name: "scale4b3_branch2c"
  type: "Scale"
  bottom: "res4b3_branch2c"
  top: "res4b3_branch2c"
  scale_param {
    bias_term: true
  }
}
layer {
  name: "res4b3"
  type: "Eltwise"
  bottom: "res4b2"
  bottom: "res4b3_branch2c"
  top: "res4b3"
}
layer {
  name: "res4b3_relu"
  type: "ReLU"
  bottom: "res4b3"
  top: "res4b3"
}
layer {
  name: "res4b4_branch2a"
  type: "Convolution"
  bottom: "res4b3"
  top: "res4b4_branch2a"
  convolution_param {
    num_output: 256
    bias_term: false
    pad: 0
    kernel_size: 1
    stride: 1
  }
}
layer {
  name: "bn4b4_branch2a"
  type: "BatchNorm"
  bottom: "res4b4_branch2a"
  top: "res4b4_branch2a"
  batch_norm_param {
    use_global_stats: false
  }
}
layer {
  name: "scale4b4_branch2a"
  type: "Scale"
  bottom: "res4b4_branch2a"
  top: "res4b4_branch2a"
  scale_param {
    bias_term: true
  }
}
layer {
  name: "res4b4_branch2a_relu"
  type: "ReLU"
  bottom: "res4b4_branch2a"
  top: "res4b4_branch2a"
}
layer {
  name: "res4b4_branch2b"
  type: "Convolution"
  bottom: "res4b4_branch2a"
  top: "res4b4_branch2b"
  convolution_param {
    num_output: 256
    bias_term: false
    pad: 1
    kernel_size: 3
    stride: 1
  }
}
layer {
  name: "bn4b4_branch2b"
  type: "BatchNorm"
  bottom: "res4b4_branch2b"
  top: "res4b4_branch2b"
  batch_norm_param {
    use_global_stats: false
  }
}
layer {
  name: "scale4b4_branch2b"
  type: "Scale"
  bottom: "res4b4_branch2b"
  top: "res4b4_branch2b"
  scale_param {
    bias_term: true
  }
}
layer {
  name: "res4b4_branch2b_relu"
  type: "ReLU"
  bottom: "res4b4_branch2b"
  top: "res4b4_branch2b"
}
layer {
  name: "res4b4_branch2c"
  type: "Convolution"
  bottom: "res4b4_branch2b"
  top: "res4b4_branch2c"
  convolution_param {
    num_output: 1024
    bias_term: false
    pad: 0
    kernel_size: 1
    stride: 1
  }
}
layer {
  name: "bn4b4_branch2c"
  type: "BatchNorm"
  bottom: "res4b4_branch2c"
  top: "res4b4_branch2c"
  batch_norm_param {
    use_global_stats: false
  }
}
layer {
  name: "scale4b4_branch2c"
  type: "Scale"
  bottom: "res4b4_branch2c"
  top: "res4b4_branch2c"
  scale_param {
    bias_term: true
  }
}
layer {
  name: "res4b4"
  type: "Eltwise"
  bottom: "res4b3"
  bottom: "res4b4_branch2c"
  top: "res4b4"
}
layer {
  name: "res4b4_relu"
  type: "ReLU"
  bottom: "res4b4"
  top: "res4b4"
}
layer {
  name: "res4b5_branch2a"
  type: "Convolution"
  bottom: "res4b4"
  top: "res4b5_branch2a"
  convolution_param {
    num_output: 256
    bias_term: false
    pad: 0
    kernel_size: 1
    stride: 1
  }
}
layer {
  name: "bn4b5_branch2a"
  type: "BatchNorm"
  bottom: "res4b5_branch2a"
  top: "res4b5_branch2a"
  batch_norm_param {
    use_global_stats: false
  }
}
layer {
  name: "scale4b5_branch2a"
  type: "Scale"
  bottom: "res4b5_branch2a"
  top: "res4b5_branch2a"
  scale_param {
    bias_term: true
  }
}
layer {
  name: "res4b5_branch2a_relu"
  type: "ReLU"
  bottom: "res4b5_branch2a"
  top: "res4b5_branch2a"
}
layer {
  name: "res4b5_branch2b"
  type: "Convolution"
  bottom: "res4b5_branch2a"
  top: "res4b5_branch2b"
  convolution_param {
    num_output: 256
    bias_term: false
    pad: 1
    kernel_size: 3
    stride: 1
  }
}
layer {
  name: "bn4b5_branch2b"
  type: "BatchNorm"
  bottom: "res4b5_branch2b"
  top: "res4b5_branch2b"
  batch_norm_param {
    use_global_stats: false
  }
}
layer {
  name: "scale4b5_branch2b"
  type: "Scale"
  bottom: "res4b5_branch2b"
  top: "res4b5_branch2b"
  scale_param {
    bias_term: true
  }
}
layer {
  name: "res4b5_branch2b_relu"
  type: "ReLU"
  bottom: "res4b5_branch2b"
  top: "res4b5_branch2b"
}
layer {
  name: "res4b5_branch2c"
  type: "Convolution"
  bottom: "res4b5_branch2b"
  top: "res4b5_branch2c"
  convolution_param {
    num_output: 1024
    bias_term: false
    pad: 0
    kernel_size: 1
    stride: 1
  }
}
layer {
  name: "bn4b5_branch2c"
  type: "BatchNorm"
  bottom: "res4b5_branch2c"
  top: "res4b5_branch2c"
  batch_norm_param {
    use_global_stats: false
  }
}
layer {
  name: "scale4b5_branch2c"
  type: "Scale"
  bottom: "res4b5_branch2c"
  top: "res4b5_branch2c"
  scale_param {
    bias_term: true
  }
}
layer {
  name: "res4b5"
  type: "Eltwise"
  bottom: "res4b4"
  bottom: "res4b5_branch2c"
  top: "res4b5"
}
layer {
  name: "res4b5_relu"
  type: "ReLU"
  bottom: "res4b5"
  top: "res4b5"
}
layer {
  name: "res4b6_branch2a"
  type: "Convolution"
  bottom: "res4b5"
  top: "res4b6_branch2a"
  convolution_param {
    num_output: 256
    bias_term: false
    pad: 0
    kernel_size: 1
    stride: 1
  }
}
layer {
  name: "bn4b6_branch2a"
  type: "BatchNorm"
  bottom: "res4b6_branch2a"
  top: "res4b6_branch2a"
  batch_norm_param {
    use_global_stats: false
  }
}
layer {
  name: "scale4b6_branch2a"
  type: "Scale"
  bottom: "res4b6_branch2a"
  top: "res4b6_branch2a"
  scale_param {
    bias_term: true
  }
}
layer {
  name: "res4b6_branch2a_relu"
  type: "ReLU"
  bottom: "res4b6_branch2a"
  top: "res4b6_branch2a"
}
layer {
  name: "res4b6_branch2b"
  type: "Convolution"
  bottom: "res4b6_branch2a"
  top: "res4b6_branch2b"
  convolution_param {
    num_output: 256
    bias_term: false
    pad: 1
    kernel_size: 3
    stride: 1
  }
}
layer {
  name: "bn4b6_branch2b"
  type: "BatchNorm"
  bottom: "res4b6_branch2b"
  top: "res4b6_branch2b"
  batch_norm_param {
    use_global_stats: false
  }
}
layer {
  name: "scale4b6_branch2b"
  type: "Scale"
  bottom: "res4b6_branch2b"
  top: "res4b6_branch2b"
  scale_param {
    bias_term: true
  }
}
layer {
  name: "res4b6_branch2b_relu"
  type: "ReLU"
  bot
I1011 23:13:28.173305 18020 layer_factory.hpp:77] Creating layer data
I1011 23:13:28.173455 18020 db_lmdb.cpp:35] Opened lmdb /home/processyuan/data/Paris/aug/paris_aug_lmdb
I1011 23:13:28.173494 18020 net.cpp:86] Creating Layer data
I1011 23:13:28.173506 18020 net.cpp:382] data -> data
I1011 23:13:28.173532 18020 net.cpp:382] data -> label
I1011 23:13:28.175645 18020 data_layer.cpp:45] output data size: 4,3,384,512
I1011 23:13:28.198520 18020 net.cpp:124] Setting up data
I1011 23:13:28.198561 18020 net.cpp:131] Top shape: 4 3 384 512 (2359296)
I1011 23:13:28.198568 18020 net.cpp:131] Top shape: 4 (4)
I1011 23:13:28.198573 18020 net.cpp:139] Memory required for data: 9437200
I1011 23:13:28.198586 18020 layer_factory.hpp:77] Creating layer data_data_0_split
I1011 23:13:28.198603 18020 net.cpp:86] Creating Layer data_data_0_split
I1011 23:13:28.198612 18020 net.cpp:408] data_data_0_split <- data
I1011 23:13:28.198632 18020 net.cpp:382] data_data_0_split -> data_data_0_split_0
I1011 23:13:28.198647 18020 net.cpp:382] data_data_0_split -> data_data_0_split_1
I1011 23:13:28.198757 18020 net.cpp:124] Setting up data_data_0_split
I1011 23:13:28.198767 18020 net.cpp:131] Top shape: 4 3 384 512 (2359296)
I1011 23:13:28.198773 18020 net.cpp:131] Top shape: 4 3 384 512 (2359296)
I1011 23:13:28.198777 18020 net.cpp:139] Memory required for data: 28311568
I1011 23:13:28.198782 18020 layer_factory.hpp:77] Creating layer features
Traceback (most recent call last):
  File "/home/processyuan/code/NetworkOptimization/deep-retrieval/myPython/custom_layers.py", line 6, in <module>
    import caffe
  File "/home/processyuan/caffe/py-faster-rcnn/caffe-fast-rcnn/python/caffe/__init__.py", line 1, in <module>
…
I1011 23:13:50.763993 18092 net.cpp:296] The NetState phase (0) differed from the phase (1) specified by a rule in layer loss
I1011 23:13:50.765559 18092 net.cpp:53] Initializing net from parameters: 
name: "ResNet-101"
state {
  phase: TRAIN
  level: 0
  stage: ""
}
layer {
  name: "data"
  type: "Data"
  top: "data"
  top: "label"
  include {
    phase: TRAIN
  }
  transform_param {
    mirror: true
    mean_value: 103.939
    mean_value: 116.779
    mean_value: 123.68
  }
  data_param {
    source: "/home/processyuan/data/Paris/aug/paris_aug_lmdb"
    batch_size: 4
    backend: LMDB
  }
}
layer {
  name: "features"
  type: "Python"
  bottom: "label"
  top: "features"
  include {
    phase: TRAIN
  }
  python_param {
    module: "custom_layers"
    layer: "FeatureLayer"
    param_str: "{\'features\': \'/home/processyuan/data/Paris/aug/features.npy\'}"
  }
}
layer {
  name: "rois"
  type: "Python"
  bottom: "data"
  top: "rois"
  python_param {
    module: "custom_layers"
    layer: "RigidGridLayer"
    param_str: "{}"
  }
}
layer {
  name: "conv1"
  type: "Convolution"
  bottom: "data"
  top: "conv1"
  convolution_param {
    num_output: 64
    bias_term: false
    pad: 3
    kernel_size: 7
    stride: 2
  }
}
layer {
  name: "bn_conv1"
  type: "BatchNorm"
  bottom: "conv1"
  top: "conv1"
  batch_norm_param {
    use_global_stats: false
  }
}
layer {
  name: "scale_conv1"
  type: "Scale"
  bottom: "conv1"
  top: "conv1"
  scale_param {
    bias_term: true
  }
}
layer {
  name: "conv1_relu"
  type: "ReLU"
  bottom: "conv1"
  top: "conv1"
}
layer {
  name: "pool1"
  type: "Pooling"
  bottom: "conv1"
  top: "pool1"
  pooling_param {
    pool: MAX
    kernel_size: 3
    stride: 2
  }
}
layer {
  name: "res2a_branch1"
  type: "Convolution"
  bottom: "pool1"
  top: "res2a_branch1"
  convolution_param {
    num_output: 256
    bias_term: false
    pad: 0
    kernel_size: 1
    stride: 1
  }
}
layer {
  name: "bn2a_branch1"
  type: "BatchNorm"
  bottom: "res2a_branch1"
  top: "res2a_branch1"
  batch_norm_param {
    use_global_stats: false
  }
}
layer {
  name: "scale2a_branch1"
  type: "Scale"
  bottom: "res2a_branch1"
  top: "res2a_branch1"
  scale_param {
    bias_term: true
  }
}
layer {
  name: "res2a_branch2a"
  type: "Convolution"
  bottom: "pool1"
  top: "res2a_branch2a"
  convolution_param {
    num_output: 64
    bias_term: false
    pad: 0
    kernel_size: 1
    stride: 1
  }
}
layer {
  name: "bn2a_branch2a"
  type: "BatchNorm"
  bottom: "res2a_branch2a"
  top: "res2a_branch2a"
  batch_norm_param {
    use_global_stats: false
  }
}
layer {
  name: "scale2a_branch2a"
  type: "Scale"
  bottom: "res2a_branch2a"
  top: "res2a_branch2a"
  scale_param {
    bias_term: true
  }
}
layer {
  name: "res2a_branch2a_relu"
  type: "ReLU"
  bottom: "res2a_branch2a"
  top: "res2a_branch2a"
}
layer {
  name: "res2a_branch2b"
  type: "Convolution"
  bottom: "res2a_branch2a"
  top: "res2a_branch2b"
  convolution_param {
    num_output: 64
    bias_term: false
    pad: 1
    kernel_size: 3
    stride: 1
  }
}
layer {
  name: "bn2a_branch2b"
  type: "BatchNorm"
  bottom: "res2a_branch2b"
  top: "res2a_branch2b"
  batch_norm_param {
    use_global_stats: false
  }
}
layer {
  name: "scale2a_branch2b"
  type: "Scale"
  bottom: "res2a_branch2b"
  top: "res2a_branch2b"
  scale_param {
    bias_term: true
  }
}
layer {
  name: "res2a_branch2b_relu"
  type: "ReLU"
  bottom: "res2a_branch2b"
  top: "res2a_branch2b"
}
layer {
  name: "res2a_branch2c"
  type: "Convolution"
  bottom: "res2a_branch2b"
  top: "res2a_branch2c"
  convolution_param {
    num_output: 256
    bias_term: false
    pad: 0
    kernel_size: 1
    stride: 1
  }
}
layer {
  name: "bn2a_branch2c"
  type: "BatchNorm"
  bottom: "res2a_branch2c"
  top: "res2a_branch2c"
  batch_norm_param {
    use_global_stats: false
  }
}
layer {
  name: "scale2a_branch2c"
  type: "Scale"
  bottom: "res2a_branch2c"
  top: "res2a_branch2c"
  scale_param {
    bias_term: true
  }
}
layer {
  name: "res2a"
  type: "Eltwise"
  bottom: "res2a_branch1"
  bottom: "res2a_branch2c"
  top: "res2a"
}
layer {
  name: "res2a_relu"
  type: "ReLU"
  bottom: "res2a"
  top: "res2a"
}
layer {
  name: "res2b_branch2a"
  type: "Convolution"
  bottom: "res2a"
  top: "res2b_branch2a"
  convolution_param {
    num_output: 64
    bias_term: false
    pad: 0
    kernel_size: 1
    stride: 1
  }
}
layer {
  name: "bn2b_branch2a"
  type: "BatchNorm"
  bottom: "res2b_branch2a"
  top: "res2b_branch2a"
  batch_norm_param {
    use_global_stats: false
  }
}
layer {
  name: "scale2b_branch2a"
  type: "Scale"
  bottom: "res2b_branch2a"
  top: "res2b_branch2a"
  scale_param {
    bias_term: true
  }
}
layer {
  name: "res2b_branch2a_relu"
  type: "ReLU"
  bottom: "res2b_branch2a"
  top: "res2b_branch2a"
}
layer {
  name: "res2b_branch2b"
  type: "Convolution"
  bottom: "res2b_branch2a"
  top: "res2b_branch2b"
  convolution_param {
    num_output: 64
    bias_term: false
    pad: 1
    kernel_size: 3
    stride: 1
  }
}
layer {
  name: "bn2b_branch2b"
  type: "BatchNorm"
  bottom: "res2b_branch2b"
  top: "res2b_branch2b"
  batch_norm_param {
    use_global_stats: false
  }
}
layer {
  name: "scale2b_branch2b"
  type: "Scale"
  bottom: "res2b_branch2b"
  top: "res2b_branch2b"
  scale_param {
    bias_term: true
  }
}
layer {
  name: "res2b_branch2b_relu"
  type: "ReLU"
  bottom: "res2b_branch2b"
  top: "res2b_branch2b"
}
layer {
  name: "res2b_branch2c"
  type: "Convolution"
  bottom: "res2b_branch2b"
  top: "res2b_branch2c"
  convolution_param {
    num_output: 256
    bias_term: false
    pad: 0
    kernel_size: 1
    stride: 1
  }
}
layer {
  name: "bn2b_branch2c"
  type: "BatchNorm"
  bottom: "res2b_branch2c"
  top: "res2b_branch2c"
  batch_norm_param {
    use_global_stats: false
  }
}
layer {
  name: "scale2b_branch2c"
  type: "Scale"
  bottom: "res2b_branch2c"
  top: "res2b_branch2c"
  scale_param {
    bias_term: true
  }
}
layer {
  name: "res2b"
  type: "Eltwise"
  bottom: "res2a"
  bottom: "res2b_branch2c"
  top: "res2b"
}
layer {
  name: "res2b_relu"
  type: "ReLU"
  bottom: "res2b"
  top: "res2b"
}
layer {
  name: "res2c_branch2a"
  type: "Convolution"
  bottom: "res2b"
  top: "res2c_branch2a"
  convolution_param {
    num_output: 64
    bias_term: false
    pad: 0
    kernel_size: 1
    stride: 1
  }
}
layer {
  name: "bn2c_branch2a"
  type: "BatchNorm"
  bottom: "res2c_branch2a"
  top: "res2c_branch2a"
  batch_norm_param {
    use_global_stats: false
  }
}
layer {
  name: "scale2c_branch2a"
  type: "Scale"
  bottom: "res2c_branch2a"
  top: "res2c_branch2a"
  scale_param {
    bias_term: true
  }
}
layer {
  name: "res2c_branch2a_relu"
  type: "ReLU"
  bottom: "res2c_branch2a"
  top: "res2c_branch2a"
}
layer {
  name: "res2c_branch2b"
  type: "Convolution"
  bottom: "res2c_branch2a"
  top: "res2c_branch2b"
  convolution_param {
    num_output: 64
    bias_term: false
    pad: 1
    kernel_size: 3
    stride: 1
  }
}
layer {
  name: "bn2c_branch2b"
  type: "BatchNorm"
  bottom: "res2c_branch2b"
  top: "res2c_branch2b"
  batch_norm_param {
    use_global_stats: false
  }
}
layer {
  name: "scale2c_branch2b"
  type: "Scale"
  bottom: "res2c_branch2b"
  top: "res2c_branch2b"
  scale_param {
    bias_term: true
  }
}
layer {
  name: "res2c_branch2b_relu"
  type: "ReLU"
  bottom: "res2c_branch2b"
  top: "res2c_branch2b"
}
layer {
  name: "res2c_branch2c"
  type: "Convolution"
  bottom: "res2c_branch2b"
  top: "res2c_branch2c"
  convolution_param {
    num_output: 256
    bias_term: false
    pad: 0
    kernel_size: 1
    stride: 1
  }
}
layer {
  name: "bn2c_branch2c"
  type: "BatchNorm"
  bottom: "res2c_branch2c"
  top: "res2c_branch2c"
  batch_norm_param {
    use_global_stats: false
  }
}
layer {
  name: "scale2c_branch2c"
  type: "Scale"
  bottom: "res2c_branch2c"
  top: "res2c_branch2c"
  scale_param {
    bias_term: true
  }
}
layer {
  name: "res2c"
  type: "Eltwise"
  bottom: "res2b"
  bottom: "res2c_branch2c"
  top: "res2c"
}
layer {
  name: "res2c_relu"
  type: "ReLU"
  bottom: "res2c"
  top: "res2c"
}
layer {
  name: "res3a_branch1"
  type: "Convolution"
  bottom: "res2c"
  top: "res3a_branch1"
  convolution_param {
    num_output: 512
    bias_term: false
    pad: 0
    kernel_size: 1
    stride: 2
  }
}
layer {
  name: "bn3a_branch1"
  type: "BatchNorm"
  bottom: "res3a_branch1"
  top: "res3a_branch1"
  batch_norm_param {
    use_global_stats: false
  }
}
layer {
  name: "scale3a_branch1"
  type: "Scale"
  bottom: "res3a_branch1"
  top: "res3a_branch1"
  scale_param {
    bias_term: true
  }
}
layer {
  name: "res3a_branch2a"
  type: "Convolution"
  bottom: "res2c"
  top: "res3a_branch2a"
  convolution_param {
    num_output: 128
    bias_term: false
    pad: 0
    kernel_size: 1
    stride: 2
  }
}
layer {
  name: "bn3a_branch2a"
  type: "BatchNorm"
  bottom: "res3a_branch2a"
  top: "res3a_branch2a"
  batch_norm_param {
    use_global_stats: false
  }
}
layer {
  name: "scale3a_branch2a"
  type: "Scale"
  bottom: "res3a_branch2a"
  top: "res3a_branch2a"
  scale_param {
    bias_term: true
  }
}
layer {
  name: "res3a_branch2a_relu"
  type: "ReLU"
  bottom: "res3a_branch2a"
  top: "res3a_branch2a"
}
layer {
  name: "res3a_branch2b"
  type: "Convolution"
  bottom: "res3a_branch2a"
  top: "res3a_branch2b"
  convolution_param {
    num_output: 128
    bias_term: false
    pad: 1
    kernel_size: 3
    stride: 1
  }
}
layer {
  name: "bn3a_branch2b"
  type: "BatchNorm"
  bottom: "res3a_branch2b"
  top: "res3a_branch2b"
  batch_norm_param {
    use_global_stats: false
  }
}
layer {
  name: "scale3a_branch2b"
  type: "Scale"
  bottom: "res3a_branch2b"
  top: "res3a_branch2b"
  scale_param {
    bias_term: true
  }
}
layer {
  name: "res3a_branch2b_relu"
  type: "ReLU"
  bottom: "res3a_branch2b"
  top: "res3a_branch2b"
}
layer {
  name: "res3a_branch2c"
  type: "Convolution"
  bottom: "res3a_branch2b"
  top: "res3a_branch2c"
  convolution_param {
    num_output: 512
    bias_term: false
    pad: 0
    kernel_size: 1
    stride: 1
  }
}
layer {
  name: "bn3a_branch2c"
  type: "BatchNorm"
  bottom: "res3a_branch2c"
  top: "res3a_branch2c"
  batch_norm_param {
    use_global_stats: false
  }
}
layer {
  name: "scale3a_branch2c"
  type: "Scale"
  bottom: "res3a_branch2c"
  top: "res3a_branch2c"
  scale_param {
    bias_term: true
  }
}
layer {
  name: "res3a"
  type: "Eltwise"
  bottom: "res3a_branch1"
  bottom: "res3a_branch2c"
  top: "res3a"
}
layer {
  name: "res3a_relu"
  type: "ReLU"
  bottom: "res3a"
  top: "res3a"
}
layer {
  name: "res3b1_branch2a"
  type: "Convolution"
  bottom: "res3a"
  top: "res3b1_branch2a"
  convolution_param {
    num_output: 128
    bias_term: false
    pad: 0
    kernel_size: 1
    stride: 1
  }
}
layer {
  name: "bn3b1_branch2a"
  type: "BatchNorm"
  bottom: "res3b1_branch2a"
  top: "res3b1_branch2a"
  batch_norm_param {
    use_global_stats: false
  }
}
layer {
  name: "scale3b1_branch2a"
  type: "Scale"
  bottom: "res3b1_branch2a"
  top: "res3b1_branch2a"
  scale_param {
    bias_term: true
  }
}
layer {
  name: "res3b1_branch2a_relu"
  type: "ReLU"
  bottom: "res3b1_branch2a"
  top: "res3b1_branch2a"
}
layer {
  name: "res3b1_branch2b"
  type: "Convolution"
  bottom: "res3b1_branch2a"
  top: "res3b1_branch2b"
  convolution_param {
    num_output: 128
    bias_term: false
    pad: 1
    kernel_size: 3
    stride: 1
  }
}
layer {
  name: "bn3b1_branch2b"
  type: "BatchNorm"
  bottom: "res3b1_branch2b"
  top: "res3b1_branch2b"
  batch_norm_param {
    use_global_stats: false
  }
}
layer {
  name: "scale3b1_branch2b"
  type: "Scale"
  bottom: "res3b1_branch2b"
  top: "res3b1_branch2b"
  scale_param {
    bias_term: true
  }
}
layer {
  name: "res3b1_branch2b_relu"
  type: "ReLU"
  bottom: "res3b1_branch2b"
  top: "res3b1_branch2b"
}
layer {
  name: "res3b1_branch2c"
  type: "Convolution"
  bottom: "res3b1_branch2b"
  top: "res3b1_branch2c"
  convolution_param {
    num_output: 512
    bias_term: false
    pad: 0
    kernel_size: 1
    stride: 1
  }
}
layer {
  name: "bn3b1_branch2c"
  type: "BatchNorm"
  bottom: "res3b1_branch2c"
  top: "res3b1_branch2c"
  batch_norm_param {
    use_global_stats: false
  }
}
layer {
  name: "scale3b1_branch2c"
  type: "Scale"
  bottom: "res3b1_branch2c"
  top: "res3b1_branch2c"
  scale_param {
    bias_term: true
  }
}
layer {
  name: "res3b1"
  type: "Eltwise"
  bottom: "res3a"
  bottom: "res3b1_branch2c"
  top: "res3b1"
}
layer {
  name: "res3b1_relu"
  type: "ReLU"
  bottom: "res3b1"
  top: "res3b1"
}
layer {
  name: "res3b2_branch2a"
  type: "Convolution"
  bottom: "res3b1"
  top: "res3b2_branch2a"
  convolution_param {
    num_output: 128
    bias_term: false
    pad: 0
    kernel_size: 1
    stride: 1
  }
}
layer {
  name: "bn3b2_branch2a"
  type: "BatchNorm"
  bottom: "res3b2_branch2a"
  top: "res3b2_branch2a"
  batch_norm_param {
    use_global_stats: false
  }
}
layer {
  name: "scale3b2_branch2a"
  type: "Scale"
  bottom: "res3b2_branch2a"
  top: "res3b2_branch2a"
  scale_param {
    bias_term: true
  }
}
layer {
  name: "res3b2_branch2a_relu"
  type: "ReLU"
  bottom: "res3b2_branch2a"
  top: "res3b2_branch2a"
}
layer {
  name: "res3b2_branch2b"
  type: "Convolution"
  bottom: "res3b2_branch2a"
  top: "res3b2_branch2b"
  convolution_param {
    num_output: 128
    bias_term: false
    pad: 1
    kernel_size: 3
    stride: 1
  }
}
layer {
  name: "bn3b2_branch2b"
  type: "BatchNorm"
  bottom: "res3b2_branch2b"
  top: "res3b2_branch2b"
  batch_norm_param {
    use_global_stats: false
  }
}
layer {
  name: "scale3b2_branch2b"
  type: "Scale"
  bottom: "res3b2_branch2b"
  top: "res3b2_branch2b"
  scale_param {
    bias_term: true
  }
}
layer {
  name: "res3b2_branch2b_relu"
  type: "ReLU"
  bottom: "res3b2_branch2b"
  top: "res3b2_branch2b"
}
layer {
  name: "res3b2_branch2c"
  type: "Convolution"
  bottom: "res3b2_branch2b"
  top: "res3b2_branch2c"
  convolution_param {
    num_output: 512
    bias_term: false
    pad: 0
    kernel_size: 1
    stride: 1
  }
}
layer {
  name: "bn3b2_branch2c"
  type: "BatchNorm"
  bottom: "res3b2_branch2c"
  top: "res3b2_branch2c"
  batch_norm_param {
    use_global_stats: false
  }
}
layer {
  name: "scale3b2_branch2c"
  type: "Scale"
  bottom: "res3b2_branch2c"
  top: "res3b2_branch2c"
  scale_param {
    bias_term: true
  }
}
layer {
  name: "res3b2"
  type: "Eltwise"
  bottom: "res3b1"
  bottom: "res3b2_branch2c"
  top: "res3b2"
}
layer {
  name: "res3b2_relu"
  type: "ReLU"
  bottom: "res3b2"
  top: "res3b2"
}
layer {
  name: "res3b3_branch2a"
  type: "Convolution"
  bottom: "res3b2"
  top: "res3b3_branch2a"
  convolution_param {
    num_output: 128
    bias_term: false
    pad: 0
    kernel_size: 1
    stride: 1
  }
}
layer {
  name: "bn3b3_branch2a"
  type: "BatchNorm"
  bottom: "res3b3_branch2a"
  top: "res3b3_branch2a"
  batch_norm_param {
    use_global_stats: false
  }
}
layer {
  name: "scale3b3_branch2a"
  type: "Scale"
  bottom: "res3b3_branch2a"
  top: "res3b3_branch2a"
  scale_param {
    bias_term: true
  }
}
layer {
  name: "res3b3_branch2a_relu"
  type: "ReLU"
  bottom: "res3b3_branch2a"
  top: "res3b3_branch2a"
}
layer {
  name: "res3b3_branch2b"
  type: "Convolution"
  bottom: "res3b3_branch2a"
  top: "res3b3_branch2b"
  convolution_param {
    num_output: 128
    bias_term: false
    pad: 1
    kernel_size: 3
    stride: 1
  }
}
layer {
  name: "bn3b3_branch2b"
  type: "BatchNorm"
  bottom: "res3b3_branch2b"
  top: "res3b3_branch2b"
  batch_norm_param {
    use_global_stats: false
  }
}
layer {
  name: "scale3b3_branch2b"
  type: "Scale"
  bottom: "res3b3_branch2b"
  top: "res3b3_branch2b"
  scale_param {
    bias_term: true
  }
}
layer {
  name: "res3b3_branch2b_relu"
  type: "ReLU"
  bottom: "res3b3_branch2b"
  top: "res3b3_branch2b"
}
layer {
  name: "res3b3_branch2c"
  type: "Convolution"
  bottom: "res3b3_branch2b"
  top: "res3b3_branch2c"
  convolution_param {
    num_output: 512
    bias_term: false
    pad: 0
    kernel_size: 1
    stride: 1
  }
}
layer {
  name: "bn3b3_branch2c"
  type: "BatchNorm"
  bottom: "res3b3_branch2c"
  top: "res3b3_branch2c"
  batch_norm_param {
    use_global_stats: false
  }
}
layer {
  name: "scale3b3_branch2c"
  type: "Scale"
  bottom: "res3b3_branch2c"
  top: "res3b3_branch2c"
  scale_param {
    bias_term: true
  }
}
layer {
  name: "res3b3"
  type: "Eltwise"
  bottom: "res3b2"
  bottom: "res3b3_branch2c"
  top: "res3b3"
}
layer {
  name: "res3b3_relu"
  type: "ReLU"
  bottom: "res3b3"
  top: "res3b3"
}
layer {
  name: "res4a_branch1"
  type: "Convolution"
  bottom: "res3b3"
  top: "res4a_branch1"
  convolution_param {
    num_output: 1024
    bias_term: false
    pad: 0
    kernel_size: 1
    stride: 2
  }
}
layer {
  name: "bn4a_branch1"
  type: "BatchNorm"
  bottom: "res4a_branch1"
  top: "res4a_branch1"
  batch_norm_param {
    use_global_stats: false
  }
}
layer {
  name: "scale4a_branch1"
  type: "Scale"
  bottom: "res4a_branch1"
  top: "res4a_branch1"
  scale_param {
    bias_term: true
  }
}
layer {
  name: "res4a_branch2a"
  type: "Convolution"
  bottom: "res3b3"
  top: "res4a_branch2a"
  convolution_param {
    num_output: 256
    bias_term: false
    pad: 0
    kernel_size: 1
    stride: 2
  }
}
layer {
  name: "bn4a_branch2a"
  type: "BatchNorm"
  bottom: "res4a_branch2a"
  top: "res4a_branch2a"
  batch_norm_param {
    use_global_stats: false
  }
}
layer {
  name: "scale4a_branch2a"
  type: "Scale"
  bottom: "res4a_branch2a"
  top: "res4a_branch2a"
  scale_param {
    bias_term: true
  }
}
layer {
  name: "res4a_branch2a_relu"
  type: "ReLU"
  bottom: "res4a_branch2a"
  top: "res4a_branch2a"
}
layer {
  name: "res4a_branch2b"
  type: "Convolution"
  bottom: "res4a_branch2a"
  top: "res4a_branch2b"
  convolution_param {
    num_output: 256
    bias_term: false
    pad: 1
    kernel_size: 3
    stride: 1
  }
}
layer {
  name: "bn4a_branch2b"
  type: "BatchNorm"
  bottom: "res4a_branch2b"
  top: "res4a_branch2b"
  batch_norm_param {
    use_global_stats: false
  }
}
layer {
  name: "scale4a_branch2b"
  type: "Scale"
  bottom: "res4a_branch2b"
  top: "res4a_branch2b"
  scale_param {
    bias_term: true
  }
}
layer {
  name: "res4a_branch2b_relu"
  type: "ReLU"
  bottom: "res4a_branch2b"
  top: "res4a_branch2b"
}
layer {
  name: "res4a_branch2c"
  type: "Convolution"
  bottom: "res4a_branch2b"
  top: "res4a_branch2c"
  convolution_param {
    num_output: 1024
    bias_term: false
    pad: 0
    kernel_size: 1
    stride: 1
  }
}
layer {
  name: "bn4a_branch2c"
  type: "BatchNorm"
  bottom: "res4a_branch2c"
  top: "res4a_branch2c"
  batch_norm_param {
    use_global_stats: false
  }
}
layer {
  name: "scale4a_branch2c"
  type: "Scale"
  bottom: "res4a_branch2c"
  top: "res4a_branch2c"
  scale_param {
    bias_term: true
  }
}
layer {
  name: "res4a"
  type: "Eltwise"
  bottom: "res4a_branch1"
  bottom: "res4a_branch2c"
  top: "res4a"
}
layer {
  name: "res4a_relu"
  type: "ReLU"
  bottom: "res4a"
  top: "res4a"
}
layer {
  name: "res4b1_branch2a"
  type: "Convolution"
  bottom: "res4a"
  top: "res4b1_branch2a"
  convolution_param {
    num_output: 256
    bias_term: false
    pad: 0
    kernel_size: 1
    stride: 1
  }
}
layer {
  name: "bn4b1_branch2a"
  type: "BatchNorm"
  bottom: "res4b1_branch2a"
  top: "res4b1_branch2a"
  batch_norm_param {
    use_global_stats: false
  }
}
layer {
  name: "scale4b1_branch2a"
  type: "Scale"
  bottom: "res4b1_branch2a"
  top: "res4b1_branch2a"
  scale_param {
    bias_term: true
  }
}
layer {
  name: "res4b1_branch2a_relu"
  type: "ReLU"
  bottom: "res4b1_branch2a"
  top: "res4b1_branch2a"
}
layer {
  name: "res4b1_branch2b"
  type: "Convolution"
  bottom: "res4b1_branch2a"
  top: "res4b1_branch2b"
  convolution_param {
    num_output: 256
    bias_term: false
    pad: 1
    kernel_size: 3
    stride: 1
  }
}
layer {
  name: "bn4b1_branch2b"
  type: "BatchNorm"
  bottom: "res4b1_branch2b"
  top: "res4b1_branch2b"
  batch_norm_param {
    use_global_stats: false
  }
}
layer {
  name: "scale4b1_branch2b"
  type: "Scale"
  bottom: "res4b1_branch2b"
  top: "res4b1_branch2b"
  scale_param {
    bias_term: true
  }
}
layer {
  name: "res4b1_branch2b_relu"
  type: "ReLU"
  bottom: "res4b1_branch2b"
  top: "res4b1_branch2b"
}
layer {
  name: "res4b1_branch2c"
  type: "Convolution"
  bottom: "res4b1_branch2b"
  top: "res4b1_branch2c"
  convolution_param {
    num_output: 1024
    bias_term: false
    pad: 0
    kernel_size: 1
    stride: 1
  }
}
layer {
  name: "bn4b1_branch2c"
  type: "BatchNorm"
  bottom: "res4b1_branch2c"
  top: "res4b1_branch2c"
  batch_norm_param {
    use_global_stats: false
  }
}
layer {
  name: "scale4b1_branch2c"
  type: "Scale"
  bottom: "res4b1_branch2c"
  top: "res4b1_branch2c"
  scale_param {
    bias_term: true
  }
}
layer {
  name: "res4b1"
  type: "Eltwise"
  bottom: "res4a"
  bottom: "res4b1_branch2c"
  top: "res4b1"
}
layer {
  name: "res4b1_relu"
  type: "ReLU"
  bottom: "res4b1"
  top: "res4b1"
}
layer {
  name: "res4b2_branch2a"
  type: "Convolution"
  bottom: "res4b1"
  top: "res4b2_branch2a"
  convolution_param {
    num_output: 256
    bias_term: false
    pad: 0
    kernel_size: 1
    stride: 1
  }
}
layer {
  name: "bn4b2_branch2a"
  type: "BatchNorm"
  bottom: "res4b2_branch2a"
  top: "res4b2_branch2a"
  batch_norm_param {
    use_global_stats: false
  }
}
layer {
  name: "scale4b2_branch2a"
  type: "Scale"
  bottom: "res4b2_branch2a"
  top: "res4b2_branch2a"
  scale_param {
    bias_term: true
  }
}
layer {
  name: "res4b2_branch2a_relu"
  type: "ReLU"
  bottom: "res4b2_branch2a"
  top: "res4b2_branch2a"
}
layer {
  name: "res4b2_branch2b"
  type: "Convolution"
  bottom: "res4b2_branch2a"
  top: "res4b2_branch2b"
  convolution_param {
    num_output: 256
    bias_term: false
    pad: 1
    kernel_size: 3
    stride: 1
  }
}
layer {
  name: "bn4b2_branch2b"
  type: "BatchNorm"
  bottom: "res4b2_branch2b"
  top: "res4b2_branch2b"
  batch_norm_param {
    use_global_stats: false
  }
}
layer {
  name: "scale4b2_branch2b"
  type: "Scale"
  bottom: "res4b2_branch2b"
  top: "res4b2_branch2b"
  scale_param {
    bias_term: true
  }
}
layer {
  name: "res4b2_branch2b_relu"
  type: "ReLU"
  bottom: "res4b2_branch2b"
  top: "res4b2_branch2b"
}
layer {
  name: "res4b2_branch2c"
  type: "Convolution"
  bottom: "res4b2_branch2b"
  top: "res4b2_branch2c"
  convolution_param {
    num_output: 1024
    bias_term: false
    pad: 0
    kernel_size: 1
    stride: 1
  }
}
layer {
  name: "bn4b2_branch2c"
  type: "BatchNorm"
  bottom: "res4b2_branch2c"
  top: "res4b2_branch2c"
  batch_norm_param {
    use_global_stats: false
  }
}
layer {
  name: "scale4b2_branch2c"
  type: "Scale"
  bottom: "res4b2_branch2c"
  top: "res4b2_branch2c"
  scale_param {
    bias_term: true
  }
}
layer {
  name: "res4b2"
  type: "Eltwise"
  bottom: "res4b1"
  bottom: "res4b2_branch2c"
  top: "res4b2"
}
layer {
  name: "res4b2_relu"
  type: "ReLU"
  bottom: "res4b2"
  top: "res4b2"
}
layer {
  name: "res4b3_branch2a"
  type: "Convolution"
  bottom: "res4b2"
  top: "res4b3_branch2a"
  convolution_param {
    num_output: 256
    bias_term: false
    pad: 0
    kernel_size: 1
    stride: 1
  }
}
layer {
  name: "bn4b3_branch2a"
  type: "BatchNorm"
  bottom: "res4b3_branch2a"
  top: "res4b3_branch2a"
  batch_norm_param {
    use_global_stats: false
  }
}
layer {
  name: "scale4b3_branch2a"
  type: "Scale"
  bottom: "res4b3_branch2a"
  top: "res4b3_branch2a"
  scale_param {
    bias_term: true
  }
}
layer {
  name: "res4b3_branch2a_relu"
  type: "ReLU"
  bottom: "res4b3_branch2a"
  top: "res4b3_branch2a"
}
layer {
  name: "res4b3_branch2b"
  type: "Convolution"
  bottom: "res4b3_branch2a"
  top: "res4b3_branch2b"
  convolution_param {
    num_output: 256
    bias_term: false
    pad: 1
    kernel_size: 3
    stride: 1
  }
}
layer {
  name: "bn4b3_branch2b"
  type: "BatchNorm"
  bottom: "res4b3_branch2b"
  top: "res4b3_branch2b"
  batch_norm_param {
    use_global_stats: false
  }
}
layer {
  name: "scale4b3_branch2b"
  type: "Scale"
  bottom: "res4b3_branch2b"
  top: "res4b3_branch2b"
  scale_param {
    bias_term: true
  }
}
layer {
  name: "res4b3_branch2b_relu"
  type: "ReLU"
  bottom: "res4b3_branch2b"
  top: "res4b3_branch2b"
}
layer {
  name: "res4b3_branch2c"
  type: "Convolution"
  bottom: "res4b3_branch2b"
  top: "res4b3_branch2c"
  convolution_param {
    num_output: 1024
    bias_term: false
    pad: 0
    kernel_size: 1
    stride: 1
  }
}
layer {
  name: "bn4b3_branch2c"
  type: "BatchNorm"
  bottom: "res4b3_branch2c"
  top: "res4b3_branch2c"
  batch_norm_param {
    use_global_stats: false
  }
}
layer {
  name: "scale4b3_branch2c"
  type: "Scale"
  bottom: "res4b3_branch2c"
  top: "res4b3_branch2c"
  scale_param {
    bias_term: true
  }
}
layer {
  name: "res4b3"
  type: "Eltwise"
  bottom: "res4b2"
  bottom: "res4b3_branch2c"
  top: "res4b3"
}
layer {
  name: "res4b3_relu"
  type: "ReLU"
  bottom: "res4b3"
  top: "res4b3"
}
layer {
  name: "res4b4_branch2a"
  type: "Convolution"
  bottom: "res4b3"
  top: "res4b4_branch2a"
  convolution_param {
    num_output: 256
    bias_term: false
    pad: 0
    kernel_size: 1
    stride: 1
  }
}
layer {
  name: "bn4b4_branch2a"
  type: "BatchNorm"
  bottom: "res4b4_branch2a"
  top: "res4b4_branch2a"
  batch_norm_param {
    use_global_stats: false
  }
}
layer {
  name: "scale4b4_branch2a"
  type: "Scale"
  bottom: "res4b4_branch2a"
  top: "res4b4_branch2a"
  scale_param {
    bias_term: true
  }
}
layer {
  name: "res4b4_branch2a_relu"
  type: "ReLU"
  bottom: "res4b4_branch2a"
  top: "res4b4_branch2a"
}
layer {
  name: "res4b4_branch2b"
  type: "Convolution"
  bottom: "res4b4_branch2a"
  top: "res4b4_branch2b"
  convolution_param {
    num_output: 256
    bias_term: false
    pad: 1
    kernel_size: 3
    stride: 1
  }
}
layer {
  name: "bn4b4_branch2b"
  type: "BatchNorm"
  bottom: "res4b4_branch2b"
  top: "res4b4_branch2b"
  batch_norm_param {
    use_global_stats: false
  }
}
layer {
  name: "scale4b4_branch2b"
  type: "Scale"
  bottom: "res4b4_branch2b"
  top: "res4b4_branch2b"
  scale_param {
    bias_term: true
  }
}
layer {
  name: "res4b4_branch2b_relu"
  type: "ReLU"
  bottom: "res4b4_branch2b"
  top: "res4b4_branch2b"
}
layer {
  name: "res4b4_branch2c"
  type: "Convolution"
  bottom: "res4b4_branch2b"
  top: "res4b4_branch2c"
  convolution_param {
    num_output: 1024
    bias_term: false
    pad: 0
    kernel_size: 1
    stride: 1
  }
}
layer {
  name: "bn4b4_branch2c"
  type: "BatchNorm"
  bottom: "res4b4_branch2c"
  top: "res4b4_branch2c"
  batch_norm_param {
    use_global_stats: false
  }
}
layer {
  name: "scale4b4_branch2c"
  type: "Scale"
  bottom: "res4b4_branch2c"
  top: "res4b4_branch2c"
  scale_param {
    bias_term: true
  }
}
layer {
  name: "res4b4"
  type: "Eltwise"
  bottom: "res4b3"
  bottom: "res4b4_branch2c"
  top: "res4b4"
}
layer {
  name: "res4b4_relu"
  type: "ReLU"
  bottom: "res4b4"
  top: "res4b4"
}
layer {
  name: "res4b5_branch2a"
  type: "Convolution"
  bottom: "res4b4"
  top: "res4b5_branch2a"
  convolution_param {
    num_output: 256
    bias_term: false
    pad: 0
    kernel_size: 1
    stride: 1
  }
}
layer {
  name: "bn4b5_branch2a"
  type: "BatchNorm"
  bottom: "res4b5_branch2a"
  top: "res4b5_branch2a"
  batch_norm_param {
    use_global_stats: false
  }
}
layer {
  name: "scale4b5_branch2a"
  type: "Scale"
  bottom: "res4b5_branch2a"
  top: "res4b5_branch2a"
  scale_param {
    bias_term: true
  }
}
layer {
  name: "res4b5_branch2a_relu"
  type: "ReLU"
  bottom: "res4b5_branch2a"
  top: "res4b5_branch2a"
}
layer {
  name: "res4b5_branch2b"
  type: "Convolution"
  bottom: "res4b5_branch2a"
  top: "res4b5_branch2b"
  convolution_param {
    num_output: 256
    bias_term: false
    pad: 1
    kernel_size: 3
    stride: 1
  }
}
layer {
  name: "bn4b5_branch2b"
  type: "BatchNorm"
  bottom: "res4b5_branch2b"
  top: "res4b5_branch2b"
  batch_norm_param {
    use_global_stats: false
  }
}
layer {
  name: "scale4b5_branch2b"
  type: "Scale"
  bottom: "res4b5_branch2b"
  top: "res4b5_branch2b"
  scale_param {
    bias_term: true
  }
}
layer {
  name: "res4b5_branch2b_relu"
  type: "ReLU"
  bottom: "res4b5_branch2b"
  top: "res4b5_branch2b"
}
layer {
  name: "res4b5_branch2c"
  type: "Convolution"
  bottom: "res4b5_branch2b"
  top: "res4b5_branch2c"
  convolution_param {
    num_output: 1024
    bias_term: false
    pad: 0
    kernel_size: 1
    stride: 1
  }
}
layer {
  name: "bn4b5_branch2c"
  type: "BatchNorm"
  bottom: "res4b5_branch2c"
  top: "res4b5_branch2c"
  batch_norm_param {
    use_global_stats: false
  }
}
layer {
  name: "scale4b5_branch2c"
  type: "Scale"
  bottom: "res4b5_branch2c"
  top: "res4b5_branch2c"
  scale_param {
    bias_term: true
  }
}
layer {
  name: "res4b5"
  type: "Eltwise"
  bottom: "res4b4"
  bottom: "res4b5_branch2c"
  top: "res4b5"
}
layer {
  name: "res4b5_relu"
  type: "ReLU"
  bottom: "res4b5"
  top: "res4b5"
}
layer {
  name: "res4b6_branch2a"
  type: "Convolution"
  bottom: "res4b5"
  top: "res4b6_branch2a"
  convolution_param {
    num_output: 256
    bias_term: false
    pad: 0
    kernel_size: 1
    stride: 1
  }
}
layer {
  name: "bn4b6_branch2a"
  type: "BatchNorm"
  bottom: "res4b6_branch2a"
  top: "res4b6_branch2a"
  batch_norm_param {
    use_global_stats: false
  }
}
layer {
  name: "scale4b6_branch2a"
  type: "Scale"
  bottom: "res4b6_branch2a"
  top: "res4b6_branch2a"
  scale_param {
    bias_term: true
  }
}
layer {
  name: "res4b6_branch2a_relu"
  type: "ReLU"
  bottom: "res4b6_branch2a"
  top: "res4b6_branch2a"
}
layer {
  name: "res4b6_branch2b"
  type: "Convolution"
  bottom: "res4b6_branch2a"
  top: "res4b6_branch2b"
  convolution_param {
    num_output: 256
    bias_term: false
    pad: 1
    kernel_size: 3
    stride: 1
  }
}
layer {
  name: "bn4b6_branch2b"
  type: "BatchNorm"
  bottom: "res4b6_branch2b"
  top: "res4b6_branch2b"
  batch_norm_param {
    use_global_stats: false
  }
}
layer {
  name: "scale4b6_branch2b"
  type: "Scale"
  bottom: "res4b6_branch2b"
  top: "res4b6_branch2b"
  scale_param {
    bias_term: true
  }
}
layer {
  name: "res4b6_branch2b_relu"
  type: "ReLU"
  bot
I1011 23:13:50.767068 18092 layer_factory.hpp:77] Creating layer data
I1011 23:13:50.767194 18092 db_lmdb.cpp:35] Opened lmdb /home/processyuan/data/Paris/aug/paris_aug_lmdb
I1011 23:13:50.767230 18092 net.cpp:86] Creating Layer data
I1011 23:13:50.767240 18092 net.cpp:382] data -> data
I1011 23:13:50.767262 18092 net.cpp:382] data -> label
I1011 23:13:50.769383 18092 data_layer.cpp:45] output data size: 4,3,384,512
I1011 23:13:50.793917 18092 net.cpp:124] Setting up data
I1011 23:13:50.793956 18092 net.cpp:131] Top shape: 4 3 384 512 (2359296)
I1011 23:13:50.793962 18092 net.cpp:131] Top shape: 4 (4)
I1011 23:13:50.793967 18092 net.cpp:139] Memory required for data: 9437200
I1011 23:13:50.793977 18092 layer_factory.hpp:77] Creating layer data_data_0_split
I1011 23:13:50.793992 18092 net.cpp:86] Creating Layer data_data_0_split
I1011 23:13:50.793999 18092 net.cpp:408] data_data_0_split <- data
I1011 23:13:50.794015 18092 net.cpp:382] data_data_0_split -> data_data_0_split_0
I1011 23:13:50.794028 18092 net.cpp:382] data_data_0_split -> data_data_0_split_1
I1011 23:13:50.794091 18092 net.cpp:124] Setting up data_data_0_split
I1011 23:13:50.794101 18092 net.cpp:131] Top shape: 4 3 384 512 (2359296)
I1011 23:13:50.794118 18092 net.cpp:131] Top shape: 4 3 384 512 (2359296)
I1011 23:13:50.794123 18092 net.cpp:139] Memory required for data: 28311568
I1011 23:13:50.794127 18092 layer_factory.hpp:77] Creating layer features
I1011 23:13:51.399134 18092 net.cpp:86] Creating Layer features
I1011 23:13:51.399175 18092 net.cpp:408] features <- label
I1011 23:13:51.399204 18092 net.cpp:382] features -> features
I1011 23:13:51.883090 18092 net.cpp:124] Setting up features
I1011 23:13:51.883152 18092 net.cpp:131] Top shape: 4 2048 1 1 (8192)
I1011 23:13:51.883158 18092 net.cpp:139] Memory required for data: 28344336
I1011 23:13:51.883170 18092 layer_factory.hpp:77] Creating layer rois
I1011 23:13:51.883265 18092 net.cpp:86] Creating Layer rois
I1011 23:13:51.883273 18092 net.cpp:408] rois <- data_data_0_split_0
I1011 23:13:51.883296 18092 net.cpp:382] rois -> rois
I1011 23:13:51.888607 18092 net.cpp:124] Setting up rois
I1011 23:13:51.888623 18092 net.cpp:131] Top shape: 32 5 (160)
I1011 23:13:51.888628 18092 net.cpp:139] Memory required for data: 28344976
I1011 23:13:51.888633 18092 layer_factory.hpp:77] Creating layer rois_rois_0_split
I1011 23:13:51.888649 18092 net.cpp:86] Creating Layer rois_rois_0_split
I1011 23:13:51.888654 18092 net.cpp:408] rois_rois_0_split <- rois
I1011 23:13:51.888661 18092 net.cpp:382] rois_rois_0_split -> rois_rois_0_split_0
I1011 23:13:51.888671 18092 net.cpp:382] rois_rois_0_split -> rois_rois_0_split_1
I1011 23:13:51.888706 18092 net.cpp:124] Setting up rois_rois_0_split
I1011 23:13:51.888712 18092 net.cpp:131] Top shape: 32 5 (160)
I1011 23:13:51.888717 18092 net.cpp:131] Top shape: 32 5 (160)
I1011 23:13:51.888722 18092 net.cpp:139] Memory required for data: 28346256
I1011 23:13:51.888726 18092 layer_factory.hpp:77] Creating layer conv1
I1011 23:13:51.888751 18092 net.cpp:86] Creating Layer conv1
I1011 23:13:51.888757 18092 net.cpp:408] conv1 <- data_data_0_split_1
I1011 23:13:51.888764 18092 net.cpp:382] conv1 -> conv1
I1011 23:13:52.480052 18092 net.cpp:124] Setting up conv1
I1011 23:13:52.480108 18092 net.cpp:131] Top shape: 4 64 192 256 (12582912)
I1011 23:13:52.480114 18092 net.cpp:139] Memory required for data: 78677904
I1011 23:13:52.480144 18092 layer_factory.hpp:77] Creating layer bn_conv1
I1011 23:13:52.480162 18092 net.cpp:86] Creating Layer bn_conv1
I1011 23:13:52.480170 18092 net.cpp:408] bn_conv1 <- conv1
I1011 23:13:52.480180 18092 net.cpp:369] bn_conv1 -> conv1 (in-place)
I1011 23:13:52.481755 18092 net.cpp:124] Setting up bn_conv1
I1011 23:13:52.481770 18092 net.cpp:131] Top shape: 4 64 192 256 (12582912)
I1011 23:13:52.481776 18092 net.cpp:139] Memory required for data: 129009552
I1011 23:13:52.481791 18092 layer_factory.hpp:77] Creating layer scale_conv1
I1011 23:13:52.481802 18092 net.cpp:86] Creating Layer scale_conv1
I1011 23:13:52.481807 18092 net.cpp:408] scale_conv1 <- conv1
I1011 23:13:52.481814 18092 net.cpp:369] scale_conv1 -> conv1 (in-place)
I1011 23:13:52.481869 18092 layer_factory.hpp:77] Creating layer scale_conv1
I1011 23:13:52.482045 18092 net.cpp:124] Setting up scale_conv1
I1011 23:13:52.482055 18092 net.cpp:131] Top shape: 4 64 192 256 (12582912)
I1011 23:13:52.482060 18092 net.cpp:139] Memory required for data: 179341200
I1011 23:13:52.482069 18092 layer_factory.hpp:77] Creating layer conv1_relu
I1011 23:13:52.482080 18092 net.cpp:86] Creating Layer conv1_relu
I1011 23:13:52.482086 18092 net.cpp:408] conv1_relu <- conv1
I1011 23:13:52.482092 18092 net.cpp:369] conv1_relu -> conv1 (in-place)
I1011 23:13:52.482300 18092 net.cpp:124] Setting up conv1_relu
I1011 23:13:52.482313 18092 net.cpp:131] Top shape: 4 64 192 256 (12582912)
I1011 23:13:52.482318 18092 net.cpp:139] Memory required for data: 229672848
I1011 23:13:52.482322 18092 layer_factory.hpp:77] Creating layer pool1
I1011 23:13:52.482336 18092 net.cpp:86] Creating Layer pool1
I1011 23:13:52.482342 18092 net.cpp:408] pool1 <- conv1
I1011 23:13:52.482349 18092 net.cpp:382] pool1 -> pool1
I1011 23:13:52.482409 18092 net.cpp:124] Setting up pool1
I1011 23:13:52.482429 18092 net.cpp:131] Top shape: 4 64 96 128 (3145728)
I1011 23:13:52.482434 18092 net.cpp:139] Memory required for data: 242255760
I1011 23:13:52.482437 18092 layer_factory.hpp:77] Creating layer pool1_pool1_0_split
I1011 23:13:52.482445 18092 net.cpp:86] Creating Layer pool1_pool1_0_split
I1011 23:13:52.482450 18092 net.cpp:408] pool1_pool1_0_split <- pool1
I1011 23:13:52.482457 18092 net.cpp:382] pool1_pool1_0_split -> pool1_pool1_0_split_0
I1011 23:13:52.482477 18092 net.cpp:382] pool1_pool1_0_split -> pool1_pool1_0_split_1
I1011 23:13:52.482515 18092 net.cpp:124] Setting up pool1_pool1_0_split
I1011 23:13:52.482522 18092 net.cpp:131] Top shape: 4 64 96 128 (3145728)
I1011 23:13:52.482528 18092 net.cpp:131] Top shape: 4 64 96 128 (3145728)
I1011 23:13:52.482532 18092 net.cpp:139] Memory required for data: 267421584
I1011 23:13:52.482537 18092 layer_factory.hpp:77] Creating layer res2a_branch1
I1011 23:13:52.482549 18092 net.cpp:86] Creating Layer res2a_branch1
I1011 23:13:52.482555 18092 net.cpp:408] res2a_branch1 <- pool1_pool1_0_split_0
I1011 23:13:52.482561 18092 net.cpp:382] res2a_branch1 -> res2a_branch1
I1011 23:13:52.483947 18092 net.cpp:124] Setting up res2a_branch1
I1011 23:13:52.483963 18092 net.cpp:131] Top shape: 4 256 96 128 (12582912)
I1011 23:13:52.483968 18092 net.cpp:139] Memory required for data: 317753232
I1011 23:13:52.483976 18092 layer_factory.hpp:77] Creating layer bn2a_branch1
I1011 23:13:52.483983 18092 net.cpp:86] Creating Layer bn2a_branch1
I1011 23:13:52.483989 18092 net.cpp:408] bn2a_branch1 <- res2a_branch1
I1011 23:13:52.483996 18092 net.cpp:369] bn2a_branch1 -> res2a_branch1 (in-place)
I1011 23:13:52.484191 18092 net.cpp:124] Setting up bn2a_branch1
I1011 23:13:52.484200 18092 net.cpp:131] Top shape: 4 256 96 128 (12582912)
I1011 23:13:52.484205 18092 net.cpp:139] Memory required for data: 368084880
I1011 23:13:52.484215 18092 layer_factory.hpp:77] Creating layer scale2a_branch1
I1011 23:13:52.484226 18092 net.cpp:86] Creating Layer scale2a_branch1
I1011 23:13:52.484230 18092 net.cpp:408] scale2a_branch1 <- res2a_branch1
I1011 23:13:52.484237 18092 net.cpp:369] scale2a_branch1 -> res2a_branch1 (in-place)
I1011 23:13:52.484277 18092 layer_factory.hpp:77] Creating layer scale2a_branch1
I1011 23:13:52.484403 18092 net.cpp:124] Setting up scale2a_branch1
I1011 23:13:52.484411 18092 net.cpp:131] Top shape: 4 256 96 128 (12582912)
I1011 23:13:52.484416 18092 net.cpp:139] Memory required for data: 418416528
I1011 23:13:52.484422 18092 layer_factory.hpp:77] Creating layer res2a_branch2a
I1011 23:13:52.484431 18092 net.cpp:86] Creating Layer res2a_branch2a
I1011 23:13:52.484436 18092 net.cpp:408] res2a_branch2a <- pool1_pool1_0_split_1
I1011 23:13:52.484443 18092 net.cpp:382] res2a_branch2a -> res2a_branch2a
I1011 23:13:52.486841 18092 net.cpp:124] Setting up res2a_branch2a
I1011 23:13:52.486860 18092 net.cpp:131] Top shape: 4 64 96 128 (3145728)
I1011 23:13:52.486865 18092 net.cpp:139] Memory required for data: 430999440
I1011 23:13:52.486872 18092 layer_factory.hpp:77] Creating layer bn2a_branch2a
I1011 23:13:52.486881 18092 net.cpp:86] Creating Layer bn2a_branch2a
I1011 23:13:52.486887 18092 net.cpp:408] bn2a_branch2a <- res2a_branch2a
I1011 23:13:52.486896 18092 net.cpp:369] bn2a_branch2a -> res2a_branch2a (in-place)
I1011 23:13:52.487120 18092 net.cpp:124] Setting up bn2a_branch2a
I1011 23:13:52.487130 18092 net.cpp:131] Top shape: 4 64 96 128 (3145728)
I1011 23:13:52.487134 18092 net.cpp:139] Memory required for data: 443582352
I1011 23:13:52.487143 18092 layer_factory.hpp:77] Creating layer scale2a_branch2a
I1011 23:13:52.487151 18092 net.cpp:86] Creating Layer scale2a_branch2a
I1011 23:13:52.487157 18092 net.cpp:408] scale2a_branch2a <- res2a_branch2a
I1011 23:13:52.487164 18092 net.cpp:369] scale2a_branch2a -> res2a_branch2a (in-place)
I1011 23:13:52.487203 18092 layer_factory.hpp:77] Creating layer scale2a_branch2a
I1011 23:13:52.487339 18092 net.cpp:124] Setting up scale2a_branch2a
I1011 23:13:52.487349 18092 net.cpp:131] Top shape: 4 64 96 128 (3145728)
I1011 23:13:52.487354 18092 net.cpp:139] Memory required for data: 456165264
I1011 23:13:52.487370 18092 layer_factory.hpp:77] Creating layer res2a_branch2a_relu
I1011 23:13:52.487378 18092 net.cpp:86] Creating Layer res2a_branch2a_relu
I1011 23:13:52.487385 18092 net.cpp:408] res2a_branch2a_relu <- res2a_branch2a
I1011 23:13:52.487390 18092 net.cpp:369] res2a_branch2a_relu -> res2a_branch2a (in-place)
I1011 23:13:52.487576 18092 net.cpp:124] Setting up res2a_branch2a_relu
I1011 23:13:52.487586 18092 net.cpp:131] Top shape: 4 64 96 128 (3145728)
I1011 23:13:52.487591 18092 net.cpp:139] Memory required for data: 468748176
I1011 23:13:52.487596 18092 layer_factory.hpp:77] Creating layer res2a_branch2b
I1011 23:13:52.487606 18092 net.cpp:86] Creating Layer res2a_branch2b
I1011 23:13:52.487610 18092 net.cpp:408] res2a_branch2b <- res2a_branch2a
I1011 23:13:52.487617 18092 net.cpp:382] res2a_branch2b -> res2a_branch2b
I1011 23:13:52.488675 18092 net.cpp:124] Setting up res2a_branch2b
I1011 23:13:52.488692 18092 net.cpp:131] Top shape: 4 64 96 128 (3145728)
I1011 23:13:52.488696 18092 net.cpp:139] Memory required for data: 481331088
I1011 23:13:52.488703 18092 layer_factory.hpp:77] Creating layer bn2a_branch2b
I1011 23:13:52.488711 18092 net.cpp:86] Creating Layer bn2a_branch2b
I1011 23:13:52.488716 18092 net.cpp:408] bn2a_branch2b <- res2a_branch2b
I1011 23:13:52.488725 18092 net.cpp:369] bn2a_branch2b -> res2a_branch2b (in-place)
I1011 23:13:52.488925 18092 net.cpp:124] Setting up bn2a_branch2b
I1011 23:13:52.488934 18092 net.cpp:131] Top shape: 4 64 96 128 (3145728)
I1011 23:13:52.488939 18092 net.cpp:139] Memory required for data: 493914000
I1011 23:13:52.488946 18092 layer_factory.hpp:77] Creating layer scale2a_branch2b
I1011 23:13:52.488953 18092 net.cpp:86] Creating Layer scale2a_branch2b
I1011 23:13:52.488958 18092 net.cpp:408] scale2a_branch2b <- res2a_branch2b
I1011 23:13:52.488965 18092 net.cpp:369] scale2a_branch2b -> res2a_branch2b (in-place)
I1011 23:13:52.489003 18092 layer_factory.hpp:77] Creating layer scale2a_branch2b
I1011 23:13:52.489143 18092 net.cpp:124] Setting up scale2a_branch2b
I1011 23:13:52.489151 18092 net.cpp:131] Top shape: 4 64 96 128 (3145728)
I1011 23:13:52.489156 18092 net.cpp:139] Memory required for data: 506496912
I1011 23:13:52.489163 18092 layer_factory.hpp:77] Creating layer res2a_branch2b_relu
I1011 23:13:52.489171 18092 net.cpp:86] Creating Layer res2a_branch2b_relu
I1011 23:13:52.489176 18092 net.cpp:408] res2a_branch2b_relu <- res2a_branch2b
I1011 23:13:52.489182 18092 net.cpp:369] res2a_branch2b_relu -> res2a_branch2b (in-place)
I1011 23:13:52.489696 18092 net.cpp:124] Setting up res2a_branch2b_relu
I1011 23:13:52.489711 18092 net.cpp:131] Top shape: 4 64 96 128 (3145728)
I1011 23:13:52.489715 18092 net.cpp:139] Memory required for data: 519079824
I1011 23:13:52.489720 18092 layer_factory.hpp:77] Creating layer res2a_branch2c
I1011 23:13:52.489729 18092 net.cpp:86] Creating Layer res2a_branch2c
I1011 23:13:52.489735 18092 net.cpp:408] res2a_branch2c <- res2a_branch2b
I1011 23:13:52.489742 18092 net.cpp:382] res2a_branch2c -> res2a_branch2c
I1011 23:13:52.490819 18092 net.cpp:124] Setting up res2a_branch2c
I1011 23:13:52.490836 18092 net.cpp:131] Top shape: 4 256 96 128 (12582912)
I1011 23:13:52.490842 18092 net.cpp:139] Memory required for data: 569411472
I1011 23:13:52.490849 18092 layer_factory.hpp:77] Creating layer bn2a_branch2c
I1011 23:13:52.490857 18092 net.cpp:86] Creating Layer bn2a_branch2c
I1011 23:13:52.490862 18092 net.cpp:408] bn2a_branch2c <- res2a_branch2c
I1011 23:13:52.490870 18092 net.cpp:369] bn2a_branch2c -> res2a_branch2c (in-place)
I1011 23:13:52.491072 18092 net.cpp:124] Setting up bn2a_branch2c
I1011 23:13:52.491080 18092 net.cpp:131] Top shape: 4 256 96 128 (12582912)
I1011 23:13:52.491084 18092 net.cpp:139] Memory required for data: 619743120
I1011 23:13:52.491093 18092 layer_factory.hpp:77] Creating layer scale2a_branch2c
I1011 23:13:52.491101 18092 net.cpp:86] Creating Layer scale2a_branch2c
I1011 23:13:52.491106 18092 net.cpp:408] scale2a_branch2c <- res2a_branch2c
I1011 23:13:52.491117 18092 net.cpp:369] scale2a_branch2c -> res2a_branch2c (in-place)
I1011 23:13:52.491161 18092 layer_factory.hpp:77] Creating layer scale2a_branch2c
I1011 23:13:52.491293 18092 net.cpp:124] Setting up scale2a_branch2c
I1011 23:13:52.491302 18092 net.cpp:131] Top shape: 4 256 96 128 (12582912)
I1011 23:13:52.491307 18092 net.cpp:139] Memory required for data: 670074768
I1011 23:13:52.491323 18092 layer_factory.hpp:77] Creating layer res2a
I1011 23:13:52.491331 18092 net.cpp:86] Creating Layer res2a
I1011 23:13:52.491336 18092 net.cpp:408] res2a <- res2a_branch1
I1011 23:13:52.491343 18092 net.cpp:408] res2a <- res2a_branch2c
I1011 23:13:52.491350 18092 net.cpp:382] res2a -> res2a
I1011 23:13:52.491385 18092 net.cpp:124] Setting up res2a
I1011 23:13:52.491394 18092 net.cpp:131] Top shape: 4 256 96 128 (12582912)
I1011 23:13:52.491398 18092 net.cpp:139] Memory required for data: 720406416
I1011 23:13:52.491403 18092 layer_factory.hpp:77] Creating layer res2a_relu
I1011 23:13:52.491410 18092 net.cpp:86] Creating Layer res2a_relu
I1011 23:13:52.491415 18092 net.cpp:408] res2a_relu <- res2a
I1011 23:13:52.491420 18092 net.cpp:369] res2a_relu -> res2a (in-place)
I1011 23:13:52.491601 18092 net.cpp:124] Setting up res2a_relu
I1011 23:13:52.491612 18092 net.cpp:131] Top shape: 4 256 96 128 (12582912)
I1011 23:13:52.491616 18092 net.cpp:139] Memory required for data: 770738064
I1011 23:13:52.491621 18092 layer_factory.hpp:77] Creating layer res2a_res2a_relu_0_split
I1011 23:13:52.491629 18092 net.cpp:86] Creating Layer res2a_res2a_relu_0_split
I1011 23:13:52.491633 18092 net.cpp:408] res2a_res2a_relu_0_split <- res2a
I1011 23:13:52.491641 18092 net.cpp:382] res2a_res2a_relu_0_split -> res2a_res2a_relu_0_split_0
I1011 23:13:52.491647 18092 net.cpp:382] res2a_res2a_relu_0_split -> res2a_res2a_relu_0_split_1
I1011 23:13:52.491689 18092 net.cpp:124] Setting up res2a_res2a_relu_0_split
I1011 23:13:52.491696 18092 net.cpp:131] Top shape: 4 256 96 128 (12582912)
I1011 23:13:52.491703 18092 net.cpp:131] Top shape: 4 256 96 128 (12582912)
I1011 23:13:52.491705 18092 net.cpp:139] Memory required for data: 871401360
I1011 23:13:52.491713 18092 layer_factory.hpp:77] Creating layer res2b_branch2a
I1011 23:13:52.491721 18092 net.cpp:86] Creating Layer res2b_branch2a
I1011 23:13:52.491726 18092 net.cpp:408] res2b_branch2a <- res2a_res2a_relu_0_split_0
I1011 23:13:52.491732 18092 net.cpp:382] res2b_branch2a -> res2b_branch2a
I1011 23:13:52.492861 18092 net.cpp:124] Setting up res2b_branch2a
I1011 23:13:52.492877 18092 net.cpp:131] Top shape: 4 64 96 128 (3145728)
I1011 23:13:52.492882 18092 net.cpp:139] Memory required for data: 883984272
I1011 23:13:52.492892 18092 layer_factory.hpp:77] Creating layer bn2b_branch2a
I1011 23:13:52.492902 18092 net.cpp:86] Creating Layer bn2b_branch2a
I1011 23:13:52.492908 18092 net.cpp:408] bn2b_branch2a <- res2b_branch2a
I1011 23:13:52.492914 18092 net.cpp:369] bn2b_branch2a -> res2b_branch2a (in-place)
I1011 23:13:52.493142 18092 net.cpp:124] Setting up bn2b_branch2a
I1011 23:13:52.493151 18092 net.cpp:131] Top shape: 4 64 96 128 (3145728)
I1011 23:13:52.493156 18092 net.cpp:139] Memory required for data: 896567184
I1011 23:13:52.493170 18092 layer_factory.hpp:77] Creating layer scale2b_branch2a
I1011 23:13:52.493178 18092 net.cpp:86] Creating Layer scale2b_branch2a
I1011 23:13:52.493183 18092 net.cpp:408] scale2b_branch2a <- res2b_branch2a
I1011 23:13:52.493192 18092 net.cpp:369] scale2b_branch2a -> res2b_branch2a (in-place)
I1011 23:13:52.493237 18092 layer_factory.hpp:77] Creating layer scale2b_branch2a
I1011 23:13:52.493386 18092 net.cpp:124] Setting up scale2b_branch2a
I1011 23:13:52.493396 18092 net.cpp:131] Top shape: 4 64 96 128 (3145728)
I1011 23:13:52.493399 18092 net.cpp:139] Memory required for data: 909150096
I1011 23:13:52.493405 18092 layer_factory.hpp:77] Creating layer res2b_branch2a_relu
I1011 23:13:52.493414 18092 net.cpp:86] Creating Layer res2b_branch2a_relu
I1011 23:13:52.493419 18092 net.cpp:408] res2b_branch2a_relu <- res2b_branch2a
I1011 23:13:52.493429 18092 net.cpp:369] res2b_branch2a_relu -> res2b_branch2a (in-place)
I1011 23:13:52.493636 18092 net.cpp:124] Setting up res2b_branch2a_relu
I1011 23:13:52.493649 18092 net.cpp:131] Top shape: 4 64 96 128 (3145728)
I1011 23:13:52.493652 18092 net.cpp:139] Memory required for data: 921733008
I1011 23:13:52.493657 18092 layer_factory.hpp:77] Creating layer res2b_branch2b
I1011 23:13:52.493676 18092 net.cpp:86] Creating Layer res2b_branch2b
I1011 23:13:52.493690 18092 net.cpp:408] res2b_branch2b <- res2b_branch2a
I1011 23:13:52.493697 18092 net.cpp:382] res2b_branch2b -> res2b_branch2b
I1011 23:13:52.494881 18092 net.cpp:124] Setting up res2b_branch2b
I1011 23:13:52.494905 18092 net.cpp:131] Top shape: 4 64 96 128 (3145728)
I1011 23:13:52.494910 18092 net.cpp:139] Memory required for data: 934315920
I1011 23:13:52.494917 18092 layer_factory.hpp:77] Creating layer bn2b_branch2b
I1011 23:13:52.494925 18092 net.cpp:86] Creating Layer bn2b_branch2b
I1011 23:13:52.494930 18092 net.cpp:408] bn2b_branch2b <- res2b_branch2b
I1011 23:13:52.494940 18092 net.cpp:369] bn2b_branch2b -> res2b_branch2b (in-place)
I1011 23:13:52.495159 18092 net.cpp:124] Setting up bn2b_branch2b
I1011 23:13:52.495170 18092 net.cpp:131] Top shape: 4 64 96 128 (3145728)
I1011 23:13:52.495174 18092 net.cpp:139] Memory required for data: 946898832
I1011 23:13:52.495182 18092 layer_factory.hpp:77] Creating layer scale2b_branch2b
I1011 23:13:52.495189 18092 net.cpp:86] Creating Layer scale2b_branch2b
I1011 23:13:52.495194 18092 net.cpp:408] scale2b_branch2b <- res2b_branch2b
I1011 23:13:52.495204 18092 net.cpp:369] scale2b_branch2b -> res2b_branch2b (in-place)
I1011 23:13:52.495250 18092 layer_factory.hpp:77] Creating layer scale2b_branch2b
I1011 23:13:52.495400 18092 net.cpp:124] Setting up scale2b_branch2b
I1011 23:13:52.495409 18092 net.cpp:131] Top shape: 4 64 96 128 (3145728)
I1011 23:13:52.495414 18092 net.cpp:139] Memory required for data: 959481744
I1011 23:13:52.495419 18092 layer_factory.hpp:77] Creating layer res2b_branch2b_relu
I1011 23:13:52.495429 18092 net.cpp:86] Creating Layer res2b_branch2b_relu
I1011 23:13:52.495434 18092 net.cpp:408] res2b_branch2b_relu <- res2b_branch2b
I1011 23:13:52.495441 18092 net.cpp:369] res2b_branch2b_relu -> res2b_branch2b (in-place)
I1011 23:13:52.495966 18092 net.cpp:124] Setting up res2b_branch2b_relu
I1011 23:13:52.495985 18092 net.cpp:131] Top shape: 4 64 96 128 (3145728)
I1011 23:13:52.495990 18092 net.cpp:139] Memory required for data: 972064656
I1011 23:13:52.495995 18092 layer_factory.hpp:77] Creating layer res2b_branch2c
I1011 23:13:52.496003 18092 net.cpp:86] Creating Layer res2b_branch2c
I1011 23:13:52.496009 18092 net.cpp:408] res2b_branch2c <- res2b_branch2b
I1011 23:13:52.496018 18092 net.cpp:382] res2b_branch2c -> res2b_branch2c
I1011 23:13:52.497181 18092 net.cpp:124] Setting up res2b_branch2c
I1011 23:13:52.497198 18092 net.cpp:131] Top shape: 4 256 96 128 (12582912)
I1011 23:13:52.497205 18092 net.cpp:139] Memory required for data: 1022396304
I1011 23:13:52.497213 18092 layer_factory.hpp:77] Creating layer bn2b_branch2c
I1011 23:13:52.497221 18092 net.cpp:86] Creating Layer bn2b_branch2c
I1011 23:13:52.497226 18092 net.cpp:408] bn2b_branch2c <- res2b_branch2c
I1011 23:13:52.497236 18092 net.cpp:369] bn2b_branch2c -> res2b_branch2c (in-place)
I1011 23:13:52.497455 18092 net.cpp:124] Setting up bn2b_branch2c
I1011 23:13:52.497464 18092 net.cpp:131] Top shape: 4 256 96 128 (12582912)
I1011 23:13:52.497468 18092 net.cpp:139] Memory required for data: 1072727952
I1011 23:13:52.497476 18092 layer_factory.hpp:77] Creating layer scale2b_branch2c
I1011 23:13:52.497486 18092 net.cpp:86] Creating Layer scale2b_branch2c
I1011 23:13:52.497491 18092 net.cpp:408] scale2b_branch2c <- res2b_branch2c
I1011 23:13:52.497498 18092 net.cpp:369] scale2b_branch2c -> res2b_branch2c (in-place)
I1011 23:13:52.497542 18092 layer_factory.hpp:77] Creating layer scale2b_branch2c
I1011 23:13:52.497686 18092 net.cpp:124] Setting up scale2b_branch2c
I1011 23:13:52.497695 18092 net.cpp:131] Top shape: 4 256 96 128 (12582912)
I1011 23:13:52.497699 18092 net.cpp:139] Memory required for data: 1123059600
I1011 23:13:52.497712 18092 layer_factory.hpp:77] Creating layer res2b
I1011 23:13:52.497720 18092 net.cpp:86] Creating Layer res2b
I1011 23:13:52.497725 18092 net.cpp:408] res2b <- res2a_res2a_relu_0_split_1
I1011 23:13:52.497730 18092 net.cpp:408] res2b <- res2b_branch2c
I1011 23:13:52.497737 18092 net.cpp:382] res2b -> res2b
I1011 23:13:52.497774 18092 net.cpp:124] Setting up res2b
I1011 23:13:52.497782 18092 net.cpp:131] Top shape: 4 256 96 128 (12582912)
I1011 23:13:52.497786 18092 net.cpp:139] Memory required for data: 1173391248
I1011 23:13:52.497792 18092 layer_factory.hpp:77] Creating layer res2b_relu
I1011 23:13:52.497802 18092 net.cpp:86] Creating Layer res2b_relu
I1011 23:13:52.497807 18092 net.cpp:408] res2b_relu <- res2b
I1011 23:13:52.497812 18092 net.cpp:369] res2b_relu -> res2b (in-place)
I1011 23:13:52.498011 18092 net.cpp:124] Setting up res2b_relu
I1011 23:13:52.498024 18092 net.cpp:131] Top shape: 4 256 96 128 (12582912)
I1011 23:13:52.498029 18092 net.cpp:139] Memory required for data: 1223722896
I1011 23:13:52.498034 18092 layer_factory.hpp:77] Creating layer res2b_res2b_relu_0_split
I1011 23:13:52.498041 18092 net.cpp:86] Creating Layer res2b_res2b_relu_0_split
I1011 23:13:52.498046 18092 net.cpp:408] res2b_res2b_relu_0_split <- res2b
I1011 23:13:52.498055 18092 net.cpp:382] res2b_res2b_relu_0_split -> res2b_res2b_relu_0_split_0
I1011 23:13:52.498065 18092 net.cpp:382] res2b_res2b_relu_0_split -> res2b_res2b_relu_0_split_1
I1011 23:13:52.498111 18092 net.cpp:124] Setting up res2b_res2b_relu_0_split
I1011 23:13:52.498118 18092 net.cpp:131] Top shape: 4 256 96 128 (12582912)
I1011 23:13:52.498123 18092 net.cpp:131] Top shape: 4 256 96 128 (12582912)
I1011 23:13:52.498126 18092 net.cpp:139] Memory required for data: 1324386192
I1011 23:13:52.498131 18092 layer_factory.hpp:77] Creating layer res2c_branch2a
I1011 23:13:52.498142 18092 net.cpp:86] Creating Layer res2c_branch2a
I1011 23:13:52.498147 18092 net.cpp:408] res2c_branch2a <- res2b_res2b_relu_0_split_0
I1011 23:13:52.498155 18092 net.cpp:382] res2c_branch2a -> res2c_branch2a
I1011 23:13:52.499325 18092 net.cpp:124] Setting up res2c_branch2a
I1011 23:13:52.499344 18092 net.cpp:131] Top shape: 4 64 96 128 (3145728)
I1011 23:13:52.499349 18092 net.cpp:139] Memory required for data: 1336969104
I1011 23:13:52.499356 18092 layer_factory.hpp:77] Creating layer bn2c_branch2a
I1011 23:13:52.499364 18092 net.cpp:86] Creating Layer bn2c_branch2a
I1011 23:13:52.499369 18092 net.cpp:408] bn2c_branch2a <- res2c_branch2a
I1011 23:13:52.499377 18092 net.cpp:369] bn2c_branch2a -> res2c_branch2a (in-place)
I1011 23:13:52.499608 18092 net.cpp:124] Setting up bn2c_branch2a
I1011 23:13:52.499616 18092 net.cpp:131] Top shape: 4 64 96 128 (3145728)
I1011 23:13:52.499621 18092 net.cpp:139] Memory required for data: 1349552016
I1011 23:13:52.499631 18092 layer_factory.hpp:77] Creating layer scale2c_branch2a
I1011 23:13:52.499640 18092 net.cpp:86] Creating Layer scale2c_branch2a
I1011 23:13:52.499645 18092 net.cpp:408] scale2c_branch2a <- res2c_branch2a
I1011 23:13:52.499653 18092 net.cpp:369] scale2c_branch2a -> res2c_branch2a (in-place)
I1011 23:13:52.499697 18092 layer_factory.hpp:77] Creating layer scale2c_branch2a
I1011 23:13:52.499848 18092 net.cpp:124] Setting up scale2c_branch2a
I1011 23:13:52.499860 18092 net.cpp:131] Top shape: 4 64 96 128 (3145728)
I1011 23:13:52.499864 18092 net.cpp:139] Memory required for data: 1362134928
I1011 23:13:52.499871 18092 layer_factory.hpp:77] Creating layer res2c_branch2a_relu
I1011 23:13:52.499878 18092 net.cpp:86] Creating Layer res2c_branch2a_relu
I1011 23:13:52.499884 18092 net.cpp:408] res2c_branch2a_relu <- res2c_branch2a
I1011 23:13:52.499891 18092 net.cpp:369] res2c_branch2a_relu -> res2c_branch2a (in-place)
I1011 23:13:52.500092 18092 net.cpp:124] Setting up res2c_branch2a_relu
I1011 23:13:52.500102 18092 net.cpp:131] Top shape: 4 64 96 128 (3145728)
I1011 23:13:52.500106 18092 net.cpp:139] Memory required for data: 1374717840
I1011 23:13:52.500111 18092 layer_factory.hpp:77] Creating layer res2c_branch2b
I1011 23:13:52.500130 18092 net.cpp:86] Creating Layer res2c_branch2b
I1011 23:13:52.500135 18092 net.cpp:408] res2c_branch2b <- res2c_branch2a
I1011 23:13:52.500144 18092 net.cpp:382] res2c_branch2b -> res2c_branch2b
I1011 23:13:52.501314 18092 net.cpp:124] Setting up res2c_branch2b
I1011 23:13:52.501332 18092 net.cpp:131] Top shape: 4 64 96 128 (3145728)
I1011 23:13:52.501346 18092 net.cpp:139] Memory required for data: 1387300752
I1011 23:13:52.501353 18092 layer_factory.hpp:77] Creating layer bn2c_branch2b
I1011 23:13:52.501361 18092 net.cpp:86] Creating Layer bn2c_branch2b
I1011 23:13:52.501368 18092 net.cpp:408] bn2c_branch2b <- res2c_branch2b
I1011 23:13:52.501377 18092 net.cpp:369] bn2c_branch2b -> res2c_branch2b (in-place)
I1011 23:13:52.501606 18092 net.cpp:124] Setting up bn2c_branch2b
I1011 23:13:52.501617 18092 net.cpp:131] Top shape: 4 64 96 128 (3145728)
I1011 23:13:52.501621 18092 net.cpp:139] Memory required for data: 1399883664
I1011 23:13:52.501629 18092 layer_factory.hpp:77] Creating layer scale2c_branch2b
I1011 23:13:52.501638 18092 net.cpp:86] Creating Layer scale2c_branch2b
I1011 23:13:52.501643 18092 net.cpp:408] scale2c_branch2b <- res2c_branch2b
I1011 23:13:52.501649 18092 net.cpp:369] scale2c_branch2b -> res2c_branch2b (in-place)
I1011 23:13:52.501694 18092 layer_factory.hpp:77] Creating layer scale2c_branch2b
I1011 23:13:52.501845 18092 net.cpp:124] Setting up scale2c_branch2b
I1011 23:13:52.501854 18092 net.cpp:131] Top shape: 4 64 96 128 (3145728)
I1011 23:13:52.501858 18092 net.cpp:139] Memory required for data: 1412466576
I1011 23:13:52.501863 18092 layer_factory.hpp:77] Creating layer res2c_branch2b_relu
I1011 23:13:52.501873 18092 net.cpp:86] Creating Layer res2c_branch2b_relu
I1011 23:13:52.501878 18092 net.cpp:408] res2c_branch2b_relu <- res2c_branch2b
I1011 23:13:52.501889 18092 net.cpp:369] res2c_branch2b_relu -> res2c_branch2b (in-place)
I1011 23:13:52.502085 18092 net.cpp:124] Setting up res2c_branch2b_relu
I1011 23:13:52.502097 18092 net.cpp:131] Top shape: 4 64 96 128 (3145728)
I1011 23:13:52.502101 18092 net.cpp:139] Memory required for data: 1425049488
I1011 23:13:52.502105 18092 layer_factory.hpp:77] Creating layer res2c_branch2c
I1011 23:13:52.502115 18092 net.cpp:86] Creating Layer res2c_branch2c
I1011 23:13:52.502121 18092 net.cpp:408] res2c_branch2c <- res2c_branch2b
I1011 23:13:52.502128 18092 net.cpp:382] res2c_branch2c -> res2c_branch2c
I1011 23:13:52.503317 18092 net.cpp:124] Setting up res2c_branch2c
I1011 23:13:52.503334 18092 net.cpp:131] Top shape: 4 256 96 128 (12582912)
I1011 23:13:52.503340 18092 net.cpp:139] Memory required for data: 1475381136
I1011 23:13:52.503346 18092 layer_factory.hpp:77] Creating layer bn2c_branch2c
I1011 23:13:52.503355 18092 net.cpp:86] Creating Layer bn2c_branch2c
I1011 23:13:52.503360 18092 net.cpp:408] bn2c_branch2c <- res2c_branch2c
I1011 23:13:52.503368 18092 net.cpp:369] bn2c_branch2c -> res2c_branch2c (in-place)
I1011 23:13:52.503603 18092 net.cpp:124] Setting up bn2c_branch2c
I1011 23:13:52.503613 18092 net.cpp:131] Top shape: 4 256 96 128 (12582912)
I1011 23:13:52.503618 18092 net.cpp:139] Memory required for data: 1525712784
I1011 23:13:52.503628 18092 layer_factory.hpp:77] Creating layer scale2c_branch2c
I1011 23:13:52.503635 18092 net.cpp:86] Creating Layer scale2c_branch2c
I1011 23:13:52.503640 18092 net.cpp:408] scale2c_branch2c <- res2c_branch2c
I1011 23:13:52.503646 18092 net.cpp:369] scale2c_branch2c -> res2c_branch2c (in-place)
I1011 23:13:52.503692 18092 layer_factory.hpp:77] Creating layer scale2c_branch2c
I1011 23:13:52.503851 18092 net.cpp:124] Setting up scale2c_branch2c
I1011 23:13:52.503861 18092 net.cpp:131] Top shape: 4 256 96 128 (12582912)
I1011 23:13:52.503865 18092 net.cpp:139] Memory required for data: 1576044432
I1011 23:13:52.503885 18092 layer_factory.hpp:77] Creating layer res2c
I1011 23:13:52.503893 18092 net.cpp:86] Creating Layer res2c
I1011 23:13:52.503898 18092 net.cpp:408] res2c <- res2b_res2b_relu_0_split_1
I1011 23:13:52.503906 18092 net.cpp:408] res2c <- res2c_branch2c
I1011 23:13:52.503919 18092 net.cpp:382] res2c -> res2c
I1011 23:13:52.503955 18092 net.cpp:124] Setting up res2c
I1011 23:13:52.503963 18092 net.cpp:131] Top shape: 4 256 96 128 (12582912)
I1011 23:13:52.503968 18092 net.cpp:139] Memory required for data: 1626376080
I1011 23:13:52.503973 18092 layer_factory.hpp:77] Creating layer res2c_relu
I1011 23:13:52.503979 18092 net.cpp:86] Creating Layer res2c_relu
I1011 23:13:52.503993 18092 net.cpp:408] res2c_relu <- res2c
I1011 23:13:52.504001 18092 net.cpp:369] res2c_relu -> res2c (in-place)
I1011 23:13:52.504560 18092 net.cpp:124] Setting up res2c_relu
I1011 23:13:52.504575 18092 net.cpp:131] Top shape: 4 256 96 128 (12582912)
I1011 23:13:52.504580 18092 net.cpp:139] Memory required for data: 1676707728
I1011 23:13:52.504585 18092 layer_factory.hpp:77] Creating layer res2c_res2c_relu_0_split
I1011 23:13:52.504593 18092 net.cpp:86] Creating Layer res2c_res2c_relu_0_split
I1011 23:13:52.504597 18092 net.cpp:408] res2c_res2c_relu_0_split <- res2c
I1011 23:13:52.504607 18092 net.cpp:382] res2c_res2c_relu_0_split -> res2c_res2c_relu_0_split_0
I1011 23:13:52.504616 18092 net.cpp:382] res2c_res2c_relu_0_split -> res2c_res2c_relu_0_split_1
I1011 23:13:52.504667 18092 net.cpp:124] Setting up res2c_res2c_relu_0_split
I1011 23:13:52.504674 18092 net.cpp:131] Top shape: 4 256 96 128 (12582912)
I1011 23:13:52.504679 18092 net.cpp:131] Top shape: 4 256 96 128 (12582912)
I1011 23:13:52.504683 18092 net.cpp:139] Memory required for data: 1777371024
I1011 23:13:52.504689 18092 layer_factory.hpp:77] Creating layer res3a_branch1
I1011 23:13:52.504701 18092 net.cpp:86] Creating Layer res3a_branch1
I1011 23:13:52.504706 18092 net.cpp:408] res3a_branch1 <- res2c_res2c_relu_0_split_0
I1011 23:13:52.504714 18092 net.cpp:382] res3a_branch1 -> res3a_branch1
I1011 23:13:52.507279 18092 net.cpp:124] Setting up res3a_branch1
I1011 23:13:52.507297 18092 net.cpp:131] Top shape: 4 512 48 64 (6291456)
I1011 23:13:52.507302 18092 net.cpp:139] Memory required for data: 1802536848
I1011 23:13:52.507308 18092 layer_factory.hpp:77] Creating layer bn3a_branch1
I1011 23:13:52.507318 18092 net.cpp:86] Creating Layer bn3a_branch1
I1011 23:13:52.507324 18092 net.cpp:408] bn3a_branch1 <- res3a_branch1
I1011 23:13:52.507333 18092 net.cpp:369] bn3a_branch1 -> res3a_branch1 (in-place)
I1011 23:13:52.508848 18092 net.cpp:124] Setting up bn3a_branch1
I1011 23:13:52.508863 18092 net.cpp:131] Top shape: 4 512 48 64 (6291456)
I1011 23:13:52.508868 18092 net.cpp:139] Memory required for data: 1827702672
I1011 23:13:52.508877 18092 layer_factory.hpp:77] Creating layer scale3a_branch1
I1011 23:13:52.508885 18092 net.cpp:86] Creating Layer scale3a_branch1
I1011 23:13:52.508890 18092 net.cpp:408] scale3a_branch1 <- res3a_branch1
I1011 23:13:52.508900 18092 net.cpp:369] scale3a_branch1 -> res3a_branch1 (in-place)
I1011 23:13:52.508944 18092 layer_factory.hpp:77] Creating layer scale3a_branch1
I1011 23:13:52.509066 18092 net.cpp:124] Setting up scale3a_branch1
I1011 23:13:52.509075 18092 net.cpp:131] Top shape: 4 512 48 64 (6291456)
I1011 23:13:52.509079 18092 net.cpp:139] Memory required for data: 1852868496
I1011 23:13:52.509086 18092 layer_factory.hpp:77] Creating layer res3a_branch2a
I1011 23:13:52.509097 18092 net.cpp:86] Creating Layer res3a_branch2a
I1011 23:13:52.509104 18092 net.cpp:408] res3a_branch2a <- res2c_res2c_relu_0_split_1
I1011 23:13:52.509112 18092 net.cpp:382] res3a_branch2a -> res3a_branch2a
I1011 23:13:52.510349 18092 net.cpp:124] Setting up res3a_branch2a
I1011 23:13:52.510367 18092 net.cpp:131] Top shape: 4 128 48 64 (1572864)
I1011 23:13:52.510372 18092 net.cpp:139] Memory required for data: 1859159952
I1011 23:13:52.510381 18092 layer_factory.hpp:77] Creating layer bn3a_branch2a
I1011 23:13:52.510392 18092 net.cpp:86] Creating Layer bn3a_branch2a
I1011 23:13:52.510398 18092 net.cpp:408] bn3a_branch2a <- res3a_branch2a
I1011 23:13:52.510406 18092 net.cpp:369] bn3a_branch2a -> res3a_branch2a (in-place)
I1011 23:13:52.510617 18092 net.cpp:124] Setting up bn3a_branch2a
I1011 23:13:52.510625 18092 net.cpp:131] Top shape: 4 128 48 64 (1572864)
I1011 23:13:52.510635 18092 net.cpp:139] Memory required for data: 1865451408
I1011 23:13:52.510643 18092 layer_factory.hpp:77] Creating layer scale3a_branch2a
I1011 23:13:52.510650 18092 net.cpp:86] Creating Layer scale3a_branch2a
I1011 23:13:52.510655 18092 net.cpp:408] scale3a_branch2a <- res3a_branch2a
I1011 23:13:52.510663 18092 net.cpp:369] scale3a_branch2a -> res3a_branch2a (in-place)
I1011 23:13:52.510722 18092 layer_factory.hpp:77] Creating layer scale3a_branch2a
I1011 23:13:52.510840 18092 net.cpp:124] Setting up scale3a_branch2a
I1011 23:13:52.510849 18092 net.cpp:131] Top shape: 4 128 48 64 (1572864)
I1011 23:13:52.510854 18092 net.cpp:139] Memory required for data: 1871742864
I1011 23:13:52.510860 18092 layer_factory.hpp:77] Creating layer res3a_branch2a_relu
I1011 23:13:52.510869 18092 net.cpp:86] Creating Layer res3a_branch2a_relu
I1011 23:13:52.510874 18092 net.cpp:408] res3a_branch2a_relu <- res3a_branch2a
I1011 23:13:52.510879 18092 net.cpp:369] res3a_branch2a_relu -> res3a_branch2a (in-place)
I1011 23:13:52.511093 18092 net.cpp:124] Setting up res3a_branch2a_relu
I1011 23:13:52.511104 18092 net.cpp:131] Top shape: 4 128 48 64 (1572864)
I1011 23:13:52.511108 18092 net.cpp:139] Memory required for data: 1878034320
I1011 23:13:52.511112 18092 layer_factory.hpp:77] Creating layer res3a_branch2b
I1011 23:13:52.511124 18092 net.cpp:86] Creating Layer res3a_branch2b
I1011 23:13:52.511129 18092 net.cpp:408] res3a_branch2b <- res3a_branch2a
I1011 23:13:52.511137 18092 net.cpp:382] res3a_branch2b -> res3a_branch2b
I1011 23:13:52.512758 18092 net.cpp:124] Setting up res3a_branch2b
I1011 23:13:52.512778 18092 net.cpp:131] Top shape: 4 128 48 64 (1572864)
I1011 23:13:52.512782 18092 net.cpp:139] Memory required for data: 1884325776
I1011 23:13:52.512791 18092 layer_factory.hpp:77] Creating layer bn3a_branch2b
I1011 23:13:52.512811 18092 net.cpp:86] Creating Layer bn3a_branch2b
I1011 23:13:52.512818 18092 net.cpp:408] bn3a_branch2b <- res3a_branch2b
I1011 23:13:52.512825 18092 net.cpp:369] bn3a_branch2b -> res3a_branch2b (in-place)
I1011 23:13:52.513038 18092 net.cpp:124] Setting up bn3a_branch2b
I1011 23:13:52.513047 18092 net.cpp:131] Top shape: 4 128 48 64 (1572864)
I1011 23:13:52.513052 18092 net.cpp:139] Memory required for data: 1890617232
I1011 23:13:52.513062 18092 layer_factory.hpp:77] Creating layer scale3a_branch2b
I1011 23:13:52.513068 18092 net.cpp:86] Creating Layer scale3a_branch2b
I1011 23:13:52.513073 18092 net.cpp:408] scale3a_branch2b <- res3a_branch2b
I1011 23:13:52.513082 18092 net.cpp:369] scale3a_branch2b -> res3a_branch2b (in-place)
I1011 23:13:52.513124 18092 layer_factory.hpp:77] Creating layer scale3a_branch2b
I1011 23:13:52.513238 18092 net.cpp:124] Setting up scale3a_branch2b
I1011 23:13:52.513247 18092 net.cpp:131] Top shape: 4 128 48 64 (1572864)
I1011 23:13:52.513252 18092 net.cpp:139] Memory required for data: 1896908688
I1011 23:13:52.513257 18092 layer_factory.hpp:77] Creating layer res3a_branch2b_relu
I1011 23:13:52.513264 18092 net.cpp:86] Creating Layer res3a_branch2b_relu
I1011 23:13:52.513272 18092 net.cpp:408] res3a_branch2b_relu <- res3a_branch2b
I1011 23:13:52.513278 18092 net.cpp:369] res3a_branch2b_relu -> res3a_branch2b (in-place)
I1011 23:13:52.513492 18092 net.cpp:124] Setting up res3a_branch2b_relu
I1011 23:13:52.513504 18092 net.cpp:131] Top shape: 4 128 48 64 (1572864)
I1011 23:13:52.513507 18092 net.cpp:139] Memory required for data: 1903200144
I1011 23:13:52.513512 18092 layer_factory.hpp:77] Creating layer res3a_branch2c
I1011 23:13:52.513523 18092 net.cpp:86] Creating Layer res3a_branch2c
I1011 23:13:52.513528 18092 net.cpp:408] res3a_branch2c <- res3a_branch2b
I1011 23:13:52.513537 18092 net.cpp:382] res3a_branch2c -> res3a_branch2c
I1011 23:13:52.515125 18092 net.cpp:124] Setting up res3a_branch2c
I1011 23:13:52.515141 18092 net.cpp:131] Top shape: 4 512 48 64 (6291456)
I1011 23:13:52.515146 18092 net.cpp:139] Memory required for data: 1928365968
I1011 23:13:52.515156 18092 layer_factory.hpp:77] Creating layer bn3a_branch2c
I1011 23:13:52.515172 18092 net.cpp:86] Creating Layer bn3a_branch2c
I1011 23:13:52.515177 18092 net.cpp:408] bn3a_branch2c <- res3a_branch2c
I1011 23:13:52.515184 18092 net.cpp:369] bn3a_branch2c -> res3a_branch2c (in-place)
I1011 23:13:52.515409 18092 net.cpp:124] Setting up bn3a_branch2c
I1011 23:13:52.515419 18092 net.cpp:131] Top shape: 4 512 48 64 (6291456)
I1011 23:13:52.515424 18092 net.cpp:139] Memory required for data: 1953531792
I1011 23:13:52.515439 18092 layer_factory.hpp:77] Creating layer scale3a_branch2c
I1011 23:13:52.515446 18092 net.cpp:86] Creating Layer scale3a_branch2c
I1011 23:13:52.515451 18092 net.cpp:408] scale3a_branch2c <- res3a_branch2c
I1011 23:13:52.515457 18092 net.cpp:369] scale3a_branch2c -> res3a_branch2c (in-place)
I1011 23:13:52.515501 18092 layer_factory.hpp:77] Creating layer scale3a_branch2c
I1011 23:13:52.515626 18092 net.cpp:124] Setting up scale3a_branch2c
I1011 23:13:52.515635 18092 net.cpp:131] Top shape: 4 512 48 64 (6291456)
I1011 23:13:52.515640 18092 net.cpp:139] Memory required for data: 1978697616
I1011 23:13:52.515645 18092 layer_factory.hpp:77] Creating layer res3a
I1011 23:13:52.515655 18092 net.cpp:86] Creating Layer res3a
I1011 23:13:52.515661 18092 net.cpp:408] res3a <- res3a_branch1
I1011 23:13:52.515666 18092 net.cpp:408] res3a <- res3a_branch2c
I1011 23:13:52.515671 18092 net.cpp:382] res3a -> res3a
I1011 23:13:52.515702 18092 net.cpp:124] Setting up res3a
I1011 23:13:52.515709 18092 net.cpp:131] Top shape: 4 512 48 64 (6291456)
I1011 23:13:52.515713 18092 net.cpp:139] Memory required for data: 2003863440
I1011 23:13:52.515717 18092 layer_factory.hpp:77] Creating layer res3a_relu
I1011 23:13:52.515723 18092 net.cpp:86] Creating Layer res3a_relu
I1011 23:13:52.515729 18092 net.cpp:408] res3a_relu <- res3a
I1011 23:13:52.515738 18092 net.cpp:369] res3a_relu -> res3a (in-place)
I1011 23:13:52.516294 18092 net.cpp:124] Setting up res3a_relu
I1011 23:13:52.516309 18092 net.cpp:131] Top shape: 4 512 48 64 (6291456)
I1011 23:13:52.516314 18092 net.cpp:139] Memory required for data: 2029029264
I1011 23:13:52.516320 18092 layer_factory.hpp:77] Creating layer res3a_res3a_relu_0_split
I1011 23:13:52.516330 18092 net.cpp:86] Creating Layer res3a_res3a_relu_0_split
I1011 23:13:52.516336 18092 net.cpp:408] res3a_res3a_relu_0_split <- res3a
I1011 23:13:52.516343 18092 net.cpp:382] res3a_res3a_relu_0_split -> res3a_res3a_relu_0_split_0
I1011 23:13:52.516352 18092 net.cpp:382] res3a_res3a_relu_0_split -> res3a_res3a_relu_0_split_1
I1011 23:13:52.516404 18092 net.cpp:124] Setting up res3a_res3a_relu_0_split
I1011 23:13:52.516412 18092 net.cpp:131] Top shape: 4 512 48 64 (6291456)
I1011 23:13:52.516418 18092 net.cpp:131] Top shape: 4 512 48 64 (6291456)
I1011 23:13:52.516422 18092 net.cpp:139] Memory required for data: 2079360912
I1011 23:13:52.516427 18092 layer_factory.hpp:77] Creating layer res3b1_branch2a
I1011 23:13:52.516438 18092 net.cpp:86] Creating Layer res3b1_branch2a
I1011 23:13:52.516444 18092 net.cpp:408] res3b1_branch2a <- res3a_res3a_relu_0_split_0
I1011 23:13:52.516453 18092 net.cpp:382] res3b1_branch2a -> res3b1_branch2a
I1011 23:13:52.517671 18092 net.cpp:124] Setting up res3b1_branch2a
I1011 23:13:52.517688 18092 net.cpp:131] Top shape: 4 128 48 64 (1572864)
I1011 23:13:52.517693 18092 net.cpp:139] Memory required for data: 2085652368
I1011 23:13:52.517699 18092 layer_factory.hpp:77] Creating layer bn3b1_branch2a
I1011 23:13:52.517709 18092 net.cpp:86] Creating Layer bn3b1_branch2a
I1011 23:13:52.517714 18092 net.cpp:408] bn3b1_branch2a <- res3b1_branch2a
I1011 23:13:52.517721 18092 net.cpp:369] bn3b1_branch2a -> res3b1_branch2a (in-place)
I1011 23:13:52.517940 18092 net.cpp:124] Setting up bn3b1_branch2a
I1011 23:13:52.517951 18092 net.cpp:131] Top shape: 4 128 48 64 (1572864)
I1011 23:13:52.517954 18092 net.cpp:139] Memory required for data: 2091943824
I1011 23:13:52.517962 18092 layer_factory.hpp:77] Creating layer scale3b1_branch2a
I1011 23:13:52.517971 18092 net.cpp:86] Creating Layer scale3b1_branch2a
I1011 23:13:52.517976 18092 net.cpp:408] scale3b1_branch2a <- res3b1_branch2a
I1011 23:13:52.517987 18092 net.cpp:369] scale3b1_branch2a -> res3b1_branch2a (in-place)
I1011 23:13:52.518038 18092 layer_factory.hpp:77] Creating layer scale3b1_branch2a
I1011 23:13:52.518159 18092 net.cpp:124] Setting up scale3b1_branch2a
I1011 23:13:52.518168 18092 net.cpp:131] Top shape: 4 128 48 64 (1572864)
I1011 23:13:52.518172 18092 net.cpp:139] Memory required for data: 2098235280
I1011 23:13:52.518188 18092 layer_factory.hpp:77] Creating layer res3b1_branch2a_relu
I1011 23:13:52.518195 18092 net.cpp:86] Creating Layer res3b1_branch2a_relu
I1011 23:13:52.518200 18092 net.cpp:408] res3b1_branch2a_relu <- res3b1_branch2a
I1011 23:13:52.518208 18092 net.cpp:369] res3b1_branch2a_relu -> res3b1_branch2a (in-place)
I1011 23:13:52.518419 18092 net.cpp:124] Setting up res3b1_branch2a_relu
I1011 23:13:52.518430 18092 net.cpp:131] Top shape: 4 128 48 64 (1572864)
I1011 23:13:52.518435 18092 net.cpp:139] Memory required for data: 2104526736
I1011 23:13:52.518440 18092 layer_factory.hpp:77] Creating layer res3b1_branch2b
I1011 23:13:52.518451 18092 net.cpp:86] Creating Layer res3b1_branch2b
I1011 23:13:52.518456 18092 net.cpp:408] res3b1_branch2b <- res3b1_branch2a
I1011 23:13:52.518465 18092 net.cpp:382] res3b1_branch2b -> res3b1_branch2b
I1011 23:13:52.520071 18092 net.cpp:124] Setting up res3b1_branch2b
I1011 23:13:52.520087 18092 net.cpp:131] Top shape: 4 128 48 64 (1572864)
I1011 23:13:52.520092 18092 net.cpp:139] Memory required for data: 2110818192
I1011 23:13:52.520099 18092 layer_factory.hpp:77] Creating layer bn3b1_branch2b
I1011 23:13:52.520109 18092 net.cpp:86] Creating Layer bn3b1_branch2b
I1011 23:13:52.520115 18092 net.cpp:408] bn3b1_branch2b <- res3b1_branch2b
I1011 23:13:52.520124 18092 net.cpp:369] bn3b1_branch2b -> res3b1_branch2b (in-place)
I1011 23:13:52.520346 18092 net.cpp:124] Setting up bn3b1_branch2b
I1011 23:13:52.520355 18092 net.cpp:131] Top shape: 4 128 48 64 (1572864)
I1011 23:13:52.520360 18092 net.cpp:139] Memory required for data: 2117109648
I1011 23:13:52.520367 18092 layer_factory.hpp:77] Creating layer scale3b1_branch2b
I1011 23:13:52.520375 18092 net.cpp:86] Creating Layer scale3b1_branch2b
I1011 23:13:52.520380 18092 net.cpp:408] scale3b1_branch2b <- res3b1_branch2b
I1011 23:13:52.520387 18092 net.cpp:369] scale3b1_branch2b -> res3b1_branch2b (in-place)
I1011 23:13:52.520437 18092 layer_factory.hpp:77] Creating layer scale3b1_branch2b
I1011 23:13:52.520555 18092 net.cpp:124] Setting up scale3b1_branch2b
I1011 23:13:52.520566 18092 net.cpp:131] Top shape: 4 128 48 64 (1572864)
I1011 23:13:52.520571 18092 net.cpp:139] Memory required for data: 2123401104
I1011 23:13:52.520579 18092 layer_factory.hpp:77] Creating layer res3b1_branch2b_relu
I1011 23:13:52.520586 18092 net.cpp:86] Creating Layer res3b1_branch2b_relu
I1011 23:13:52.520591 18092 net.cpp:408] res3b1_branch2b_relu <- res3b1_branch2b
I1011 23:13:52.520597 18092 net.cpp:369] res3b1_branch2b_relu -> res3b1_branch2b (in-place)
I1011 23:13:52.520799 18092 net.cpp:124] Setting up res3b1_branch2b_relu
I1011 23:13:52.520813 18092 net.cpp:131] Top shape: 4 128 48 64 (1572864)
I1011 23:13:52.520817 18092 net.cpp:139] Memory required for data: 2129692560
I1011 23:13:52.520823 18092 layer_factory.hpp:77] Creating layer res3b1_branch2c
I1011 23:13:52.520831 18092 net.cpp:86] Creating Layer res3b1_branch2c
I1011 23:13:52.520836 18092 net.cpp:408] res3b1_branch2c <- res3b1_branch2b
I1011 23:13:52.520845 18092 net.cpp:382] res3b1_branch2c -> res3b1_branch2c
I1011 23:13:52.522167 18092 net.cpp:124] Setting up res3b1_branch2c
I1011 23:13:52.522182 18092 net.cpp:131] Top shape: 4 512 48 64 (6291456)
I1011 23:13:52.522187 18092 net.cpp:139] Memory required for data: 2154858384
I1011 23:13:52.522195 18092 layer_factory.hpp:77] Creating layer bn3b1_branch2c
I1011 23:13:52.522207 18092 net.cpp:86] Creating Layer bn3b1_branch2c
I1011 23:13:52.522213 18092 net.cpp:408] bn3b1_branch2c <- res3b1_branch2c
I1011 23:13:52.522222 18092 net.cpp:369] bn3b1_branch2c -> res3b1_branch2c (in-place)
I1011 23:13:52.522444 18092 net.cpp:124] Setting up bn3b1_branch2c
I1011 23:13:52.522460 18092 net.cpp:131] Top shape: 4 512 48 64 (6291456)
I1011 23:13:52.522465 18092 net.cpp:139] Memory required for data: 2180024208
I1011 23:13:52.522472 18092 layer_factory.hpp:77] Creating layer scale3b1_branch2c
I1011 23:13:52.522482 18092 net.cpp:86] Creating Layer scale3b1_branch2c
I1011 23:13:52.522487 18092 net.cpp:408] scale3b1_branch2c <- res3b1_branch2c
I1011 23:13:52.522506 18092 net.cpp:369] scale3b1_branch2c -> res3b1_branch2c (in-place)
I1011 23:13:52.522549 18092 layer_factory.hpp:77] Creating layer scale3b1_branch2c
I1011 23:13:52.522675 18092 net.cpp:124] Setting up scale3b1_branch2c
I1011 23:13:52.522686 18092 net.cpp:131] Top shape: 4 512 48 64 (6291456)
I1011 23:13:52.522689 18092 net.cpp:139] Memory required for data: 2205190032
I1011 23:13:52.522696 18092 layer_factory.hpp:77] Creating layer res3b1
I1011 23:13:52.522704 18092 net.cpp:86] Creating Layer res3b1
I1011 23:13:52.522711 18092 net.cpp:408] res3b1 <- res3a_res3a_relu_0_split_1
I1011 23:13:52.522716 18092 net.cpp:408] res3b1 <- res3b1_branch2c
I1011 23:13:52.522722 18092 net.cpp:382] res3b1 -> res3b1
I1011 23:13:52.522754 18092 net.cpp:124] Setting up res3b1
I1011 23:13:52.522763 18092 net.cpp:131] Top shape: 4 512 48 64 (6291456)
I1011 23:13:52.522766 18092 net.cpp:139] Memory required for data: 2230355856
I1011 23:13:52.522770 18092 layer_factory.hpp:77] Creating layer res3b1_relu
I1011 23:13:52.522778 18092 net.cpp:86] Creating Layer res3b1_relu
I1011 23:13:52.522783 18092 net.cpp:408] res3b1_relu <- res3b1
I1011 23:13:52.522790 18092 net.cpp:369] res3b1_relu -> res3b1 (in-place)
I1011 23:13:52.523341 18092 net.cpp:124] Setting up res3b1_relu
I1011 23:13:52.523362 18092 net.cpp:131] Top shape: 4 512 48 64 (6291456)
I1011 23:13:52.523367 18092 net.cpp:139] Memory required for data: 2255521680
I1011 23:13:52.523372 18092 layer_factory.hpp:77] Creating layer res3b1_res3b1_relu_0_split
I1011 23:13:52.523382 18092 net.cpp:86] Creating Layer res3b1_res3b1_relu_0_split
I1011 23:13:52.523387 18092 net.cpp:408] res3b1_res3b1_relu_0_split <- res3b1
I1011 23:13:52.523396 18092 net.cpp:382] res3b1_res3b1_relu_0_split -> res3b1_res3b1_relu_0_split_0
I1011 23:13:52.523406 18092 net.cpp:382] res3b1_res3b1_relu_0_split -> res3b1_res3b1_relu_0_split_1
I1011 23:13:52.523458 18092 net.cpp:124] Setting up res3b1_res3b1_relu_0_split
I1011 23:13:52.523465 18092 net.cpp:131] Top shape: 4 512 48 64 (6291456)
I1011 23:13:52.523470 18092 net.cpp:131] Top shape: 4 512 48 64 (6291456)
I1011 23:13:52.523474 18092 net.cpp:139] Memory required for data: 2305853328
I1011 23:13:52.523478 18092 layer_factory.hpp:77] Creating layer res3b2_branch2a
I1011 23:13:52.523492 18092 net.cpp:86] Creating Layer res3b2_branch2a
I1011 23:13:52.523499 18092 net.cpp:408] res3b2_branch2a <- res3b1_res3b1_relu_0_split_0
I1011 23:13:52.523507 18092 net.cpp:382] res3b2_branch2a -> res3b2_branch2a
I1011 23:13:52.526075 18092 net.cpp:124] Setting up res3b2_branch2a
I1011 23:13:52.526093 18092 net.cpp:131] Top shape: 4 128 48 64 (1572864)
I1011 23:13:52.526100 18092 net.cpp:139] Memory required for data: 2312144784
I1011 23:13:52.526106 18092 layer_factory.hpp:77] Creating layer bn3b2_branch2a
I1011 23:13:52.526114 18092 net.cpp:86] Creating Layer bn3b2_branch2a
I1011 23:13:52.526120 18092 net.cpp:408] bn3b2_branch2a <- res3b2_branch2a
I1011 23:13:52.526127 18092 net.cpp:369] bn3b2_branch2a -> res3b2_branch2a (in-place)
I1011 23:13:52.526365 18092 net.cpp:124] Setting up bn3b2_branch2a
I1011 23:13:52.526376 18092 net.cpp:131] Top shape: 4 128 48 64 (1572864)
I1011 23:13:52.526381 18092 net.cpp:139] Memory required for data: 2318436240
I1011 23:13:52.526388 18092 layer_factory.hpp:77] Creating layer scale3b2_branch2a
I1011 23:13:52.526396 18092 net.cpp:86] Creating Layer scale3b2_branch2a
I1011 23:13:52.526401 18092 net.cpp:408] scale3b2_branch2a <- res3b2_branch2a
I1011 23:13:52.526407 18092 net.cpp:369] scale3b2_branch2a -> res3b2_branch2a (in-place)
I1011 23:13:52.526455 18092 layer_factory.hpp:77] Creating layer scale3b2_branch2a
I1011 23:13:52.526583 18092 net.cpp:124] Setting up scale3b2_branch2a
I1011 23:13:52.526593 18092 net.cpp:131] Top shape: 4 128 48 64 (1572864)
I1011 23:13:52.526597 18092 net.cpp:139] Memory required for data: 2324727696
I1011 23:13:52.526603 18092 layer_factory.hpp:77] Creating layer res3b2_branch2a_relu
I1011 23:13:52.526613 18092 net.cpp:86] Creating Layer res3b2_branch2a_relu
I1011 23:13:52.526626 18092 net.cpp:408] res3b2_branch2a_relu <- res3b2_branch2a
I1011 23:13:52.526633 18092 net.cpp:369] res3b2_branch2a_relu -> res3b2_branch2a (in-place)
I1011 23:13:52.526852 18092 net.cpp:124] Setting up res3b2_branch2a_relu
I1011 23:13:52.526865 18092 net.cpp:131] Top shape: 4 128 48 64 (1572864)
I1011 23:13:52.526868 18092 net.cpp:139] Memory required for data: 2331019152
I1011 23:13:52.526875 18092 layer_factory.hpp:77] Creating layer res3b2_branch2b
I1011 23:13:52.526887 18092 net.cpp:86] Creating Layer res3b2_branch2b
I1011 23:13:52.526892 18092 net.cpp:408] res3b2_branch2b <- res3b2_branch2a
I1011 23:13:52.526899 18092 net.cpp:382] res3b2_branch2b -> res3b2_branch2b
I1011 23:13:52.529856 18092 net.cpp:124] Setting up res3b2_branch2b
I1011 23:13:52.529873 18092 net.cpp:131] Top shape: 4 128 48 64 (1572864)
I1011 23:13:52.529877 18092 net.cpp:139] Memory required for data: 2337310608
I1011 23:13:52.529884 18092 layer_factory.hpp:77] Creating layer bn3b2_branch2b
I1011 23:13:52.529894 18092 net.cpp:86] Creating Layer bn3b2_branch2b
I1011 23:13:52.529901 18092 net.cpp:408] bn3b2_branch2b <- res3b2_branch2b
I1011 23:13:52.529907 18092 net.cpp:369] bn3b2_branch2b -> res3b2_branch2b (in-place)
I1011 23:13:52.530141 18092 net.cpp:124] Setting up bn3b2_branch2b
I1011 23:13:52.530150 18092 net.cpp:131] Top shape: 4 128 48 64 (1572864)
I1011 23:13:52.530155 18092 net.cpp:139] Memory required for data: 2343602064
I1011 23:13:52.530162 18092 layer_factory.hpp:77] Creating layer scale3b2_branch2b
I1011 23:13:52.530169 18092 net.cpp:86] Creating Layer scale3b2_branch2b
I1011 23:13:52.530174 18092 net.cpp:408] scale3b2_branch2b <- res3b2_branch2b
I1011 23:13:52.530182 18092 net.cpp:369] scale3b2_branch2b -> res3b2_branch2b (in-place)
I1011 23:13:52.530228 18092 layer_factory.hpp:77] Creating layer scale3b2_branch2b
I1011 23:13:52.530361 18092 net.cpp:124] Setting up scale3b2_branch2b
I1011 23:13:52.530371 18092 net.cpp:131] Top shape: 4 128 48 64 (1572864)
I1011 23:13:52.530376 18092 net.cpp:139] Memory required for data: 2349893520
I1011 23:13:52.530382 18092 layer_factory.hpp:77] Creating layer res3b2_branch2b_relu
I1011 23:13:52.530390 18092 net.cpp:86] Creating Layer res3b2_branch2b_relu
I1011 23:13:52.530395 18092 net.cpp:408] res3b2_branch2b_relu <- res3b2_branch2b
I1011 23:13:52.530403 18092 net.cpp:369] res3b2_branch2b_relu -> res3b2_branch2b (in-place)
I1011 23:13:52.530619 18092 net.cpp:124] Setting up res3b2_branch2b_relu
I1011 23:13:52.530630 18092 net.cpp:131] Top shape: 4 128 48 64 (1572864)
I1011 23:13:52.530634 18092 net.cpp:139] Memory required for data: 2356184976
I1011 23:13:52.530642 18092 layer_factory.hpp:77] Creating layer res3b2_branch2c
I1011 23:13:52.530652 18092 net.cpp:86] Creating Layer res3b2_branch2c
I1011 23:13:52.530658 18092 net.cpp:408] res3b2_branch2c <- res3b2_branch2b
I1011 23:13:52.530666 18092 net.cpp:382] res3b2_branch2c -> res3b2_branch2c
I1011 23:13:52.531914 18092 net.cpp:124] Setting up res3b2_branch2c
I1011 23:13:52.531931 18092 net.cpp:131] Top shape: 4 512 48 64 (6291456)
I1011 23:13:52.531935 18092 net.cpp:139] Memory required for data: 2381350800
I1011 23:13:52.531944 18092 layer_factory.hpp:77] Creating layer bn3b2_branch2c
I1011 23:13:52.531955 18092 net.cpp:86] Creating Layer bn3b2_branch2c
I1011 23:13:52.531960 18092 net.cpp:408] bn3b2_branch2c <- res3b2_branch2c
I1011 23:13:52.531965 18092 net.cpp:369] bn3b2_branch2c -> res3b2_branch2c (in-place)
I1011 23:13:52.532189 18092 net.cpp:124] Setting up bn3b2_branch2c
I1011 23:13:52.532198 18092 net.cpp:131] Top shape: 4 512 48 64 (6291456)
I1011 23:13:52.532202 18092 net.cpp:139] Memory required for data: 2406516624
I1011 23:13:52.532209 18092 layer_factory.hpp:77] Creating layer scale3b2_branch2c
I1011 23:13:52.532223 18092 net.cpp:86] Creating Layer scale3b2_branch2c
I1011 23:13:52.532229 18092 net.cpp:408] scale3b2_branch2c <- res3b2_branch2c
I1011 23:13:52.532238 18092 net.cpp:369] scale3b2_branch2c -> res3b2_branch2c (in-place)
I1011 23:13:52.532281 18092 layer_factory.hpp:77] Creating layer scale3b2_branch2c
I1011 23:13:52.532415 18092 net.cpp:124] Setting up scale3b2_branch2c
I1011 23:13:52.532425 18092 net.cpp:131] Top shape: 4 512 48 64 (6291456)
I1011 23:13:52.532429 18092 net.cpp:139] Memory required for data: 2431682448
I1011 23:13:52.532435 18092 layer_factory.hpp:77] Creating layer res3b2
I1011 23:13:52.532443 18092 net.cpp:86] Creating Layer res3b2
I1011 23:13:52.532449 18092 net.cpp:408] res3b2 <- res3b1_res3b1_relu_0_split_1
I1011 23:13:52.532454 18092 net.cpp:408] res3b2 <- res3b2_branch2c
I1011 23:13:52.532462 18092 net.cpp:382] res3b2 -> res3b2
I1011 23:13:52.532490 18092 net.cpp:124] Setting up res3b2
I1011 23:13:52.532500 18092 net.cpp:131] Top shape: 4 512 48 64 (6291456)
I1011 23:13:52.532503 18092 net.cpp:139] Memory required for data: 2456848272
I1011 23:13:52.532510 18092 layer_factory.hpp:77] Creating layer res3b2_relu
I1011 23:13:52.532518 18092 net.cpp:86] Creating Layer res3b2_relu
I1011 23:13:52.532524 18092 net.cpp:408] res3b2_relu <- res3b2
I1011 23:13:52.532532 18092 net.cpp:369] res3b2_relu -> res3b2 (in-place)
I1011 23:13:52.532747 18092 net.cpp:124] Setting up res3b2_relu
I1011 23:13:52.532758 18092 net.cpp:131] Top shape: 4 512 48 64 (6291456)
I1011 23:13:52.532763 18092 net.cpp:139] Memory required for data: 2482014096
I1011 23:13:52.532768 18092 layer_factory.hpp:77] Creating layer res3b2_res3b2_relu_0_split
I1011 23:13:52.532775 18092 net.cpp:86] Creating Layer res3b2_res3b2_relu_0_split
I1011 23:13:52.532779 18092 net.cpp:408] res3b2_res3b2_relu_0_split <- res3b2
I1011 23:13:52.532788 18092 net.cpp:382] res3b2_res3b2_relu_0_split -> res3b2_res3b2_relu_0_split_0
I1011 23:13:52.532797 18092 net.cpp:382] res3b2_res3b2_relu_0_split -> res3b2_res3b2_relu_0_split_1
I1011 23:13:52.532847 18092 net.cpp:124] Setting up res3b2_res3b2_relu_0_split
I1011 23:13:52.532855 18092 net.cpp:131] Top shape: 4 512 48 64 (6291456)
I1011 23:13:52.532860 18092 net.cpp:131] Top shape: 4 512 48 64 (6291456)
I1011 23:13:52.532865 18092 net.cpp:139] Memory required for data: 2532345744
I1011 23:13:52.532871 18092 layer_factory.hpp:77] Creating layer res3b3_branch2a
I1011 23:13:52.532881 18092 net.cpp:86] Creating Layer res3b3_branch2a
I1011 23:13:52.532887 18092 net.cpp:408] res3b3_branch2a <- res3b2_res3b2_relu_0_split_0
I1011 23:13:52.532894 18092 net.cpp:382] res3b3_branch2a -> res3b3_branch2a
I1011 23:13:52.534111 18092 net.cpp:124] Setting up res3b3_branch2a
I1011 23:13:52.534127 18092 net.cpp:131] Top shape: 4 128 48 64 (1572864)
I1011 23:13:52.534132 18092 net.cpp:139] Memory required for data: 2538637200
I1011 23:13:52.534139 18092 layer_factory.hpp:77] Creating layer bn3b3_branch2a
I1011 23:13:52.534147 18092 net.cpp:86] Creating Layer bn3b3_branch2a
I1011 23:13:52.534153 18092 net.cpp:408] bn3b3_branch2a <- res3b3_branch2a
I1011 23:13:52.534164 18092 net.cpp:369] bn3b3_branch2a -> res3b3_branch2a (in-place)
I1011 23:13:52.534395 18092 net.cpp:124] Setting up bn3b3_branch2a
I1011 23:13:52.534405 18092 net.cpp:131] Top shape: 4 128 48 64 (1572864)
I1011 23:13:52.534410 18092 net.cpp:139] Memory required for data: 2544928656
I1011 23:13:52.534436 18092 layer_factory.hpp:77] Creating layer scale3b3_branch2a
I1011 23:13:52.534446 18092 net.cpp:86] Creating Layer scale3b3_branch2a
I1011 23:13:52.534451 18092 net.cpp:408] scale3b3_branch2a <- res3b3_branch2a
I1011 23:13:52.534458 18092 net.cpp:369] scale3b3_branch2a -> res3b3_branch2a (in-place)
I1011 23:13:52.534509 18092 layer_factory.hpp:77] Creating layer scale3b3_branch2a
I1011 23:13:52.534632 18092 net.cpp:124] Setting up scale3b3_branch2a
I1011 23:13:52.534641 18092 net.cpp:131] Top shape: 4 128 48 64 (1572864)
I1011 23:13:52.534646 18092 net.cpp:139] Memory required for data: 2551220112
I1011 23:13:52.534657 18092 layer_factory.hpp:77] Creating layer res3b3_branch2a_relu
I1011 23:13:52.534664 18092 net.cpp:86] Creating Layer res3b3_branch2a_relu
I1011 23:13:52.534669 18092 net.cpp:408] res3b3_branch2a_relu <- res3b3_branch2a
I1011 23:13:52.534678 18092 net.cpp:369] res3b3_branch2a_relu -> res3b3_branch2a (in-place)
I1011 23:13:52.535243 18092 net.cpp:124] Setting up res3b3_branch2a_relu
I1011 23:13:52.535266 18092 net.cpp:131] Top shape: 4 128 48 64 (1572864)
I1011 23:13:52.535271 18092 net.cpp:139] Memory required for data: 2557511568
I1011 23:13:52.535276 18092 layer_factory.hpp:77] Creating layer res3b3_branch2b
I1011 23:13:52.535290 18092 net.cpp:86] Creating Layer res3b3_branch2b
I1011 23:13:52.535295 18092 net.cpp:408] res3b3_branch2b <- res3b3_branch2a
I1011 23:13:52.535305 18092 net.cpp:382] res3b3_branch2b -> res3b3_branch2b
I1011 23:13:52.536939 18092 net.cpp:124] Setting up res3b3_branch2b
I1011 23:13:52.536957 18092 net.cpp:131] Top shape: 4 128 48 64 (1572864)
I1011 23:13:52.536960 18092 net.cpp:139] Memory required for data: 2563803024
I1011 23:13:52.536967 18092 layer_factory.hpp:77] Creating layer bn3b3_branch2b
I1011 23:13:52.536978 18092 net.cpp:86] Creating Layer bn3b3_branch2b
I1011 23:13:52.536983 18092 net.cpp:408] bn3b3_branch2b <- res3b3_branch2b
I1011 23:13:52.536989 18092 net.cpp:369] bn3b3_branch2b -> res3b3_branch2b (in-place)
I1011 23:13:52.537250 18092 net.cpp:124] Setting up bn3b3_branch2b
I1011 23:13:52.537259 18092 net.cpp:131] Top shape: 4 128 48 64 (1572864)
I1011 23:13:52.537266 18092 net.cpp:139] Memory required for data: 2570094480
I1011 23:13:52.537274 18092 layer_factory.hpp:77] Creating layer scale3b3_branch2b
I1011 23:13:52.537282 18092 net.cpp:86] Creating Layer scale3b3_branch2b
I1011 23:13:52.537287 18092 net.cpp:408] scale3b3_branch2b <- res3b3_branch2b
I1011 23:13:52.537297 18092 net.cpp:369] scale3b3_branch2b -> res3b3_branch2b (in-place)
I1011 23:13:52.537358 18092 layer_factory.hpp:77] Creating layer scale3b3_branch2b
I1011 23:13:52.537479 18092 net.cpp:124] Setting up scale3b3_branch2b
I1011 23:13:52.537488 18092 net.cpp:131] Top shape: 4 128 48 64 (1572864)
I1011 23:13:52.537492 18092 net.cpp:139] Memory required for data: 2576385936
I1011 23:13:52.537498 18092 layer_factory.hpp:77] Creating layer res3b3_branch2b_relu
I1011 23:13:52.537508 18092 net.cpp:86] Creating Layer res3b3_branch2b_relu
I1011 23:13:52.537513 18092 net.cpp:408] res3b3_branch2b_relu <- res3b3_branch2b
I1011 23:13:52.537519 18092 net.cpp:369] res3b3_branch2b_relu -> res3b3_branch2b (in-place)
I1011 23:13:52.537735 18092 net.cpp:124] Setting up res3b3_branch2b_relu
I1011 23:13:52.537746 18092 net.cpp:131] Top shape: 4 128 48 64 (1572864)
I1011 23:13:52.537750 18092 net.cpp:139] Memory required for data: 2582677392
I1011 23:13:52.537755 18092 layer_factory.hpp:77] Creating layer res3b3_branch2c
I1011 23:13:52.537766 18092 net.cpp:86] Creating Layer res3b3_branch2c
I1011 23:13:52.537771 18092 net.cpp:408] res3b3_branch2c <- res3b3_branch2b
I1011 23:13:52.537781 18092 net.cpp:382] res3b3_branch2c -> res3b3_branch2c
I1011 23:13:52.539081 18092 net.cpp:124] Setting up res3b3_branch2c
I1011 23:13:52.539098 18092 net.cpp:131] Top shape: 4 512 48 64 (6291456)
I1011 23:13:52.539103 18092 net.cpp:139] Memory required for data: 2607843216
I1011 23:13:52.539109 18092 layer_factory.hpp:77] Creating layer bn3b3_branch2c
I1011 23:13:52.539120 18092 net.cpp:86] Creating Layer bn3b3_branch2c
I1011 23:13:52.539126 18092 net.cpp:408] bn3b3_branch2c <- res3b3_branch2c
I1011 23:13:52.539132 18092 net.cpp:369] bn3b3_branch2c -> res3b3_branch2c (in-place)
I1011 23:13:52.539355 18092 net.cpp:124] Setting up bn3b3_branch2c
I1011 23:13:52.539364 18092 net.cpp:131] Top shape: 4 512 48 64 (6291456)
I1011 23:13:52.539368 18092 net.cpp:139] Memory required for data: 2633009040
I1011 23:13:52.539377 18092 layer_factory.hpp:77] Creating layer scale3b3_branch2c
I1011 23:13:52.539386 18092 net.cpp:86] Creating Layer scale3b3_branch2c
I1011 23:13:52.539391 18092 net.cpp:408] scale3b3_branch2c <- res3b3_branch2c
I1011 23:13:52.539404 18092 net.cpp:369] scale3b3_branch2c -> res3b3_branch2c (in-place)
I1011 23:13:52.539448 18092 layer_factory.hpp:77] Creating layer scale3b3_branch2c
I1011 23:13:52.539574 18092 net.cpp:124] Setting up scale3b3_branch2c
I1011 23:13:52.539584 18092 net.cpp:131] Top shape: 4 512 48 64 (6291456)
I1011 23:13:52.539588 18092 net.cpp:139] Memory required for data: 2658174864
I1011 23:13:52.539602 18092 layer_factory.hpp:77] Creating layer res3b3
I1011 23:13:52.539611 18092 net.cpp:86] Creating Layer res3b3
I1011 23:13:52.539618 18092 net.cpp:408] res3b3 <- res3b2_res3b2_relu_0_split_1
I1011 23:13:52.539623 18092 net.cpp:408] res3b3 <- res3b3_branch2c
I1011 23:13:52.539629 18092 net.cpp:382] res3b3 -> res3b3
I1011 23:13:52.539662 18092 net.cpp:124] Setting up res3b3
I1011 23:13:52.539671 18092 net.cpp:131] Top shape: 4 512 48 64 (6291456)
I1011 23:13:52.539675 18092 net.cpp:139] Memory required for data: 2683340688
I1011 23:13:52.539680 18092 layer_factory.hpp:77] Creating layer res3b3_relu
I1011 23:13:52.539685 18092 net.cpp:86] Creating Layer res3b3_relu
I1011 23:13:52.539691 18092 net.cpp:408] res3b3_relu <- res3b3
I1011 23:13:52.539700 18092 net.cpp:369] res3b3_relu -> res3b3 (in-place)
I1011 23:13:52.539904 18092 net.cpp:124] Setting up res3b3_relu
I1011 23:13:52.539916 18092 net.cpp:131] Top shape: 4 512 48 64 (6291456)
I1011 23:13:52.539921 18092 net.cpp:139] Memory required for data: 2708506512
I1011 23:13:52.539925 18092 layer_factory.hpp:77] Creating layer res3b3_res3b3_relu_0_split
I1011 23:13:52.539937 18092 net.cpp:86] Creating Layer res3b3_res3b3_relu_0_split
I1011 23:13:52.539942 18092 net.cpp:408] res3b3_res3b3_relu_0_split <- res3b3
I1011 23:13:52.539948 18092 net.cpp:382] res3b3_res3b3_relu_0_split -> res3b3_res3b3_relu_0_split_0
I1011 23:13:52.539957 18092 net.cpp:382] res3b3_res3b3_relu_0_split -> res3b3_res3b3_relu_0_split_1
I1011 23:13:52.540009 18092 net.cpp:124] Setting up res3b3_res3b3_relu_0_split
I1011 23:13:52.540017 18092 net.cpp:131] Top shape: 4 512 48 64 (6291456)
I1011 23:13:52.540024 18092 net.cpp:131] Top shape: 4 512 48 64 (6291456)
I1011 23:13:52.540026 18092 net.cpp:139] Memory required for data: 2758838160
I1011 23:13:52.540030 18092 layer_factory.hpp:77] Creating layer res4a_branch1
I1011 23:13:52.540041 18092 net.cpp:86] Creating Layer res4a_branch1
I1011 23:13:52.540047 18092 net.cpp:408] res4a_branch1 <- res3b3_res3b3_relu_0_split_0
I1011 23:13:52.540058 18092 net.cpp:382] res4a_branch1 -> res4a_branch1
I1011 23:13:52.543217 18092 net.cpp:124] Setting up res4a_branch1
I1011 23:13:52.543234 18092 net.cpp:131] Top shape: 4 1024 24 32 (3145728)
I1011 23:13:52.543239 18092 net.cpp:139] Memory required for data: 2771421072
I1011 23:13:52.543248 18092 layer_factory.hpp:77] Creating layer bn4a_branch1
I1011 23:13:52.543260 18092 net.cpp:86] Creating Layer bn4a_branch1
I1011 23:13:52.543267 18092 net.cpp:408] bn4a_branch1 <- res4a_branch1
I1011 23:13:52.543272 18092 net.cpp:369] bn4a_branch1 -> res4a_branch1 (in-place)
I1011 23:13:52.543498 18092 net.cpp:124] Setting up bn4a_branch1
I1011 23:13:52.543511 18092 net.cpp:131] Top shape: 4 1024 24 32 (3145728)
I1011 23:13:52.543515 18092 net.cpp:139] Memory required for data: 2784003984
I1011 23:13:52.543524 18092 layer_factory.hpp:77] Creating layer scale4a_branch1
I1011 23:13:52.543531 18092 net.cpp:86] Creating Layer scale4a_branch1
I1011 23:13:52.543535 18092 net.cpp:408] scale4a_branch1 <- res4a_branch1
I1011 23:13:52.543541 18092 net.cpp:369] scale4a_branch1 -> res4a_branch1 (in-place)
I1011 23:13:52.543586 18092 layer_factory.hpp:77] Creating layer scale4a_branch1
I1011 23:13:52.543709 18092 net.cpp:124] Setting up scale4a_branch1
I1011 23:13:52.543716 18092 net.cpp:131] Top shape: 4 1024 24 32 (3145728)
I1011 23:13:52.543720 18092 net.cpp:139] Memory required for data: 2796586896
I1011 23:13:52.543727 18092 layer_factory.hpp:77] Creating layer res4a_branch2a
I1011 23:13:52.543741 18092 net.cpp:86] Creating Layer res4a_branch2a
I1011 23:13:52.543747 18092 net.cpp:408] res4a_branch2a <- res3b3_res3b3_relu_0_split_1
I1011 23:13:52.543761 18092 net.cpp:382] res4a_branch2a -> res4a_branch2a
I1011 23:13:52.545058 18092 net.cpp:124] Setting up res4a_branch2a
I1011 23:13:52.545073 18092 net.cpp:131] Top shape: 4 256 24 32 (786432)
I1011 23:13:52.545078 18092 net.cpp:139] Memory required for data: 2799732624
I1011 23:13:52.545085 18092 layer_factory.hpp:77] Creating layer bn4a_branch2a
I1011 23:13:52.545096 18092 net.cpp:86] Creating Layer bn4a_branch2a
I1011 23:13:52.545111 18092 net.cpp:408] bn4a_branch2a <- res4a_branch2a
I1011 23:13:52.545119 18092 net.cpp:369] bn4a_branch2a -> res4a_branch2a (in-place)
I1011 23:13:52.545343 18092 net.cpp:124] Setting up bn4a_branch2a
I1011 23:13:52.545354 18092 net.cpp:131] Top shape: 4 256 24 32 (786432)
I1011 23:13:52.545359 18092 net.cpp:139] Memory required for data: 2802878352
I1011 23:13:52.545367 18092 layer_factory.hpp:77] Creating layer scale4a_branch2a
I1011 23:13:52.545373 18092 net.cpp:86] Creating Layer scale4a_branch2a
I1011 23:13:52.545379 18092 net.cpp:408] scale4a_branch2a <- res4a_branch2a
I1011 23:13:52.545384 18092 net.cpp:369] scale4a_branch2a -> res4a_branch2a (in-place)
I1011 23:13:52.545433 18092 layer_factory.hpp:77] Creating layer scale4a_branch2a
I1011 23:13:52.545553 18092 net.cpp:124] Setting up scale4a_branch2a
I1011 23:13:52.545562 18092 net.cpp:131] Top shape: 4 256 24 32 (786432)
I1011 23:13:52.545567 18092 net.cpp:139] Memory required for data: 2806024080
I1011 23:13:52.545572 18092 layer_factory.hpp:77] Creating layer res4a_branch2a_relu
I1011 23:13:52.545579 18092 net.cpp:86] Creating Layer res4a_branch2a_relu
I1011 23:13:52.545584 18092 net.cpp:408] res4a_branch2a_relu <- res4a_branch2a
I1011 23:13:52.545593 18092 net.cpp:369] res4a_branch2a_relu -> res4a_branch2a (in-place)
I1011 23:13:52.546156 18092 net.cpp:124] Setting up res4a_branch2a_relu
I1011 23:13:52.546171 18092 net.cpp:131] Top shape: 4 256 24 32 (786432)
I1011 23:13:52.546176 18092 net.cpp:139] Memory required for data: 2809169808
I1011 23:13:52.546185 18092 layer_factory.hpp:77] Creating layer res4a_branch2b
I1011 23:13:52.546196 18092 net.cpp:86] Creating Layer res4a_branch2b
I1011 23:13:52.546202 18092 net.cpp:408] res4a_branch2b <- res4a_branch2a
I1011 23:13:52.546211 18092 net.cpp:382] res4a_branch2b -> res4a_branch2b
I1011 23:13:52.549650 18092 net.cpp:124] Setting up res4a_branch2b
I1011 23:13:52.549667 18092 net.cpp:131] Top shape: 4 256 24 32 (786432)
I1011 23:13:52.549672 18092 net.cpp:139] Memory required for data: 2812315536
I1011 23:13:52.549679 18092 layer_factory.hpp:77] Creating layer bn4a_branch2b
I1011 23:13:52.549688 18092 net.cpp:86] Creating Layer bn4a_branch2b
I1011 23:13:52.549693 18092 net.cpp:408] bn4a_branch2b <- res4a_branch2b
I1011 23:13:52.549700 18092 net.cpp:369] bn4a_branch2b -> res4a_branch2b (in-place)
I1011 23:13:52.549931 18092 net.cpp:124] Setting up bn4a_branch2b
I1011 23:13:52.549939 18092 net.cpp:131] Top shape: 4 256 24 32 (786432)
I1011 23:13:52.549943 18092 net.cpp:139] Memory required for data: 2815461264
I1011 23:13:52.549950 18092 layer_factory.hpp:77] Creating layer scale4a_branch2b
I1011 23:13:52.549958 18092 net.cpp:86] Creating Layer scale4a_branch2b
I1011 23:13:52.549963 18092 net.cpp:408] scale4a_branch2b <- res4a_branch2b
I1011 23:13:52.549971 18092 net.cpp:369] scale4a_branch2b -> res4a_branch2b (in-place)
I1011 23:13:52.550024 18092 layer_factory.hpp:77] Creating layer scale4a_branch2b
I1011 23:13:52.550141 18092 net.cpp:124] Setting up scale4a_branch2b
I1011 23:13:52.550149 18092 net.cpp:131] Top shape: 4 256 24 32 (786432)
I1011 23:13:52.550153 18092 net.cpp:139] Memory required for data: 2818606992
I1011 23:13:52.550160 18092 layer_factory.hpp:77] Creating layer res4a_branch2b_relu
I1011 23:13:52.550169 18092 net.cpp:86] Creating Layer res4a_branch2b_relu
I1011 23:13:52.550174 18092 net.cpp:408] res4a_branch2b_relu <- res4a_branch2b
I1011 23:13:52.550180 18092 net.cpp:369] res4a_branch2b_relu -> res4a_branch2b (in-place)
I1011 23:13:52.550408 18092 net.cpp:124] Setting up res4a_branch2b_relu
I1011 23:13:52.550426 18092 net.cpp:131] Top shape: 4 256 24 32 (786432)
I1011 23:13:52.550436 18092 net.cpp:139] Memory required for data: 2821752720
I1011 23:13:52.550443 18092 layer_factory.hpp:77] Creating layer res4a_branch2c
I1011 23:13:52.550453 18092 net.cpp:86] Creating Layer res4a_branch2c
I1011 23:13:52.550459 18092 net.cpp:408] res4a_branch2c <- res4a_branch2b
I1011 23:13:52.550468 18092 net.cpp:382] res4a_branch2c -> res4a_branch2c
I1011 23:13:52.553198 18092 net.cpp:124] Setting up res4a_branch2c
I1011 23:13:52.553216 18092 net.cpp:131] Top shape: 4 1024 24 32 (3145728)
I1011 23:13:52.553222 18092 net.cpp:139] Memory required for data: 2834335632
I1011 23:13:52.553230 18092 layer_factory.hpp:77] Creating layer bn4a_branch2c
I1011 23:13:52.553236 18092 net.cpp:86] Creating Layer bn4a_branch2c
I1011 23:13:52.553242 18092 net.cpp:408] bn4a_branch2c <- res4a_branch2c
I1011 23:13:52.553252 18092 net.cpp:369] bn4a_branch2c -> res4a_branch2c (in-place)
I1011 23:13:52.553483 18092 net.cpp:124] Setting up bn4a_branch2c
I1011 23:13:52.553491 18092 net.cpp:131] Top shape: 4 1024 24 32 (3145728)
I1011 23:13:52.553495 18092 net.cpp:139] Memory required for data: 2846918544
I1011 23:13:52.553503 18092 layer_factory.hpp:77] Creating layer scale4a_branch2c
I1011 23:13:52.553529 18092 net.cpp:86] Creating Layer scale4a_branch2c
I1011 23:13:52.553535 18092 net.cpp:408] scale4a_branch2c <- res4a_branch2c
I1011 23:13:52.553541 18092 net.cpp:369] scale4a_branch2c -> res4a_branch2c (in-place)
I1011 23:13:52.553586 18092 layer_factory.hpp:77] Creating layer scale4a_branch2c
I1011 23:13:52.553706 18092 net.cpp:124] Setting up scale4a_branch2c
I1011 23:13:52.553714 18092 net.cpp:131] Top shape: 4 1024 24 32 (3145728)
I1011 23:13:52.553719 18092 net.cpp:139] Memory required for data: 2859501456
I1011 23:13:52.553726 18092 layer_factory.hpp:77] Creating layer res4a
I1011 23:13:52.553733 18092 net.cpp:86] Creating Layer res4a
I1011 23:13:52.553738 18092 net.cpp:408] res4a <- res4a_branch1
I1011 23:13:52.553745 18092 net.cpp:408] res4a <- res4a_branch2c
I1011 23:13:52.553750 18092 net.cpp:382] res4a -> res4a
I1011 23:13:52.553782 18092 net.cpp:124] Setting up res4a
I1011 23:13:52.553789 18092 net.cpp:131] Top shape: 4 1024 24 32 (3145728)
I1011 23:13:52.553793 18092 net.cpp:139] Memory required for data: 2872084368
I1011 23:13:52.553802 18092 layer_factory.hpp:77] Creating layer res4a_relu
I1011 23:13:52.553807 18092 net.cpp:86] Creating Layer res4a_relu
I1011 23:13:52.553812 18092 net.cpp:408] res4a_relu <- res4a
I1011 23:13:52.553817 18092 net.cpp:369] res4a_relu -> res4a (in-place)
I1011 23:13:52.554410 18092 net.cpp:124] Setting up res4a_relu
I1011 23:13:52.554441 18092 net.cpp:131] Top shape: 4 1024 24 32 (3145728)
I1011 23:13:52.554446 18092 net.cpp:139] Memory required for data: 2884667280
I1011 23:13:52.554450 18092 layer_factory.hpp:77] Creating layer res4a_res4a_relu_0_split
I1011 23:13:52.554461 18092 net.cpp:86] Creating Layer res4a_res4a_relu_0_split
I1011 23:13:52.554467 18092 net.cpp:408] res4a_res4a_relu_0_split <- res4a
I1011 23:13:52.554474 18092 net.cpp:382] res4a_res4a_relu_0_split -> res4a_res4a_relu_0_split_0
I1011 23:13:52.554486 18092 net.cpp:382] res4a_res4a_relu_0_split -> res4a_res4a_relu_0_split_1
I1011 23:13:52.554539 18092 net.cpp:124] Setting up res4a_res4a_relu_0_split
I1011 23:13:52.554548 18092 net.cpp:131] Top shape: 4 1024 24 32 (3145728)
I1011 23:13:52.554553 18092 net.cpp:131] Top shape: 4 1024 24 32 (3145728)
I1011 23:13:52.554556 18092 net.cpp:139] Memory required for data: 2909833104
I1011 23:13:52.554563 18092 layer_factory.hpp:77] Creating layer res4b1_branch2a
I1011 23:13:52.554574 18092 net.cpp:86] Creating Layer res4b1_branch2a
I1011 23:13:52.554580 18092 net.cpp:408] res4b1_branch2a <- res4a_res4a_relu_0_split_0
I1011 23:13:52.554589 18092 net.cpp:382] res4b1_branch2a -> res4b1_branch2a
I1011 23:13:52.555946 18092 net.cpp:124] Setting up res4b1_branch2a
I1011 23:13:52.555963 18092 net.cpp:131] Top shape: 4 256 24 32 (786432)
I1011 23:13:52.555968 18092 net.cpp:139] Memory required for data: 2912978832
I1011 23:13:52.555975 18092 layer_factory.hpp:77] Creating layer bn4b1_branch2a
I1011 23:13:52.555989 18092 net.cpp:86] Creating Layer bn4b1_branch2a
I1011 23:13:52.555995 18092 net.cpp:408] bn4b1_branch2a <- res4b1_branch2a
I1011 23:13:52.556006 18092 net.cpp:369] bn4b1_branch2a -> res4b1_branch2a (in-place)
I1011 23:13:52.556236 18092 net.cpp:124] Setting up bn4b1_branch2a
I1011 23:13:52.556246 18092 net.cpp:131] Top shape: 4 256 24 32 (786432)
I1011 23:13:52.556257 18092 net.cpp:139] Memory required for data: 2916124560
I1011 23:13:52.556267 18092 layer_factory.hpp:77] Creating layer scale4b1_branch2a
I1011 23:13:52.556274 18092 net.cpp:86] Creating Layer scale4b1_branch2a
I1011 23:13:52.556280 18092 net.cpp:408] scale4b1_branch2a <- res4b1_branch2a
I1011 23:13:52.556288 18092 net.cpp:369] scale4b1_branch2a -> res4b1_branch2a (in-place)
I1011 23:13:52.556339 18092 layer_factory.hpp:77] Creating layer scale4b1_branch2a
I1011 23:13:52.556463 18092 net.cpp:124] Setting up scale4b1_branch2a
I1011 23:13:52.556471 18092 net.cpp:131] Top shape: 4 256 24 32 (786432)
I1011 23:13:52.556475 18092 net.cpp:139] Memory required for data: 2919270288
I1011 23:13:52.556483 18092 layer_factory.hpp:77] Creating layer res4b1_branch2a_relu
I1011 23:13:52.556488 18092 net.cpp:86] Creating Layer res4b1_branch2a_relu
I1011 23:13:52.556494 18092 net.cpp:408] res4b1_branch2a_relu <- res4b1_branch2a
I1011 23:13:52.556502 18092 net.cpp:369] res4b1_branch2a_relu -> res4b1_branch2a (in-place)
I1011 23:13:52.557075 18092 net.cpp:124] Setting up res4b1_branch2a_relu
I1011 23:13:52.557090 18092 net.cpp:131] Top shape: 4 256 24 32 (786432)
I1011 23:13:52.557096 18092 net.cpp:139] Memory required for data: 2922416016
I1011 23:13:52.557101 18092 layer_factory.hpp:77] Creating layer res4b1_branch2b
I1011 23:13:52.557112 18092 net.cpp:86] Creating Layer res4b1_branch2b
I1011 23:13:52.557118 18092 net.cpp:408] res4b1_branch2b <- res4b1_branch2a
I1011 23:13:52.557127 18092 net.cpp:382] res4b1_branch2b -> res4b1_branch2b
I1011 23:13:52.560546 18092 net.cpp:124] Setting up res4b1_branch2b
I1011 23:13:52.560564 18092 net.cpp:131] Top shape: 4 256 24 32 (786432)
I1011 23:13:52.560569 18092 net.cpp:139] Memory required for data: 2925561744
I1011 23:13:52.560576 18092 layer_factory.hpp:77] Creating layer bn4b1_branch2b
I1011 23:13:52.560586 18092 net.cpp:86] Creating Layer bn4b1_branch2b
I1011 23:13:52.560592 18092 net.cpp:408] bn4b1_branch2b <- res4b1_branch2b
I1011 23:13:52.560600 18092 net.cpp:369] bn4b1_branch2b -> res4b1_branch2b (in-place)
I1011 23:13:52.560837 18092 net.cpp:124] Setting up bn4b1_branch2b
I1011 23:13:52.560848 18092 net.cpp:131] Top shape: 4 256 24 32 (786432)
I1011 23:13:52.560853 18092 net.cpp:139] Memory required for data: 2928707472
I1011 23:13:52.560863 18092 layer_factory.hpp:77] Creating layer scale4b1_branch2b
I1011 23:13:52.560870 18092 net.cpp:86] Creating Layer scale4b1_branch2b
I1011 23:13:52.560875 18092 net.cpp:408] scale4b1_branch2b <- res4b1_branch2b
I1011 23:13:52.560883 18092 net.cpp:369] scale4b1_branch2b -> res4b1_branch2b (in-place)
I1011 23:13:52.560933 18092 layer_factory.hpp:77] Creating layer scale4b1_branch2b
I1011 23:13:52.561061 18092 net.cpp:124] Setting up scale4b1_branch2b
I1011 23:13:52.561069 18092 net.cpp:131] Top shape: 4 256 24 32 (786432)
I1011 23:13:52.561074 18092 net.cpp:139] Memory required for data: 2931853200
I1011 23:13:52.561080 18092 layer_factory.hpp:77] Creating layer res4b1_branch2b_relu
I1011 23:13:52.561087 18092 net.cpp:86] Creating Layer res4b1_branch2b_relu
I1011 23:13:52.561092 18092 net.cpp:408] res4b1_branch2b_relu <- res4b1_branch2b
I1011 23:13:52.561102 18092 net.cpp:369] res4b1_branch2b_relu -> res4b1_branch2b (in-place)
I1011 23:13:52.561317 18092 net.cpp:124] Setting up res4b1_branch2b_relu
I1011 23:13:52.561329 18092 net.cpp:131] Top shape: 4 256 24 32 (786432)
I1011 23:13:52.561333 18092 net.cpp:139] Memory required for data: 2934998928
I1011 23:13:52.561339 18092 layer_factory.hpp:77] Creating layer res4b1_branch2c
I1011 23:13:52.561350 18092 net.cpp:86] Creating Layer res4b1_branch2c
I1011 23:13:52.561357 18092 net.cpp:408] res4b1_branch2c <- res4b1_branch2b
I1011 23:13:52.561370 18092 net.cpp:382] res4b1_branch2c -> res4b1_branch2c
I1011 23:13:52.564134 18092 net.cpp:124] Setting up res4b1_branch2c
I1011 23:13:52.564152 18092 net.cpp:131] Top shape: 4 1024 24 32 (3145728)
I1011 23:13:52.564157 18092 net.cpp:139] Memory required for data: 2947581840
I1011 23:13:52.564165 18092 layer_factory.hpp:77] Creating layer bn4b1_branch2c
I1011 23:13:52.564184 18092 net.cpp:86] Creating Layer bn4b1_branch2c
I1011 23:13:52.564190 18092 net.cpp:408] bn4b1_branch2c <- res4b1_branch2c
I1011 23:13:52.564198 18092 net.cpp:369] bn4b1_branch2c -> res4b1_branch2c (in-place)
I1011 23:13:52.564429 18092 net.cpp:124] Setting up bn4b1_branch2c
I1011 23:13:52.564438 18092 net.cpp:131] Top shape: 4 1024 24 32 (3145728)
I1011 23:13:52.564442 18092 net.cpp:139] Memory required for data: 2960164752
I1011 23:13:52.564452 18092 layer_factory.hpp:77] Creating layer scale4b1_branch2c
I1011 23:13:52.564460 18092 net.cpp:86] Creating Layer scale4b1_branch2c
I1011 23:13:52.564465 18092 net.cpp:408] scale4b1_branch2c <- res4b1_branch2c
I1011 23:13:52.564473 18092 net.cpp:369] scale4b1_branch2c -> res4b1_branch2c (in-place)
I1011 23:13:52.564518 18092 layer_factory.hpp:77] Creating layer scale4b1_branch2c
I1011 23:13:52.564646 18092 net.cpp:124] Setting up scale4b1_branch2c
I1011 23:13:52.564654 18092 net.cpp:131] Top shape: 4 1024 24 32 (3145728)
I1011 23:13:52.564658 18092 net.cpp:139] Memory required for data: 2972747664
I1011 23:13:52.564666 18092 layer_factory.hpp:77] Creating layer res4b1
I1011 23:13:52.564672 18092 net.cpp:86] Creating Layer res4b1
I1011 23:13:52.564679 18092 net.cpp:408] res4b1 <- res4a_res4a_relu_0_split_1
I1011 23:13:52.564685 18092 net.cpp:408] res4b1 <- res4b1_branch2c
I1011 23:13:52.564692 18092 net.cpp:382] res4b1 -> res4b1
I1011 23:13:52.564723 18092 net.cpp:124] Setting up res4b1
I1011 23:13:52.564731 18092 net.cpp:131] Top shape: 4 1024 24 32 (3145728)
I1011 23:13:52.564735 18092 net.cpp:139] Memory required for data: 2985330576
I1011 23:13:52.564740 18092 layer_factory.hpp:77] Creating layer res4b1_relu
I1011 23:13:52.564748 18092 net.cpp:86] Creating Layer res4b1_relu
I1011 23:13:52.564752 18092 net.cpp:408] res4b1_relu <- res4b1
I1011 23:13:52.564760 18092 net.cpp:369] res4b1_relu -> res4b1 (in-place)
I1011 23:13:52.564970 18092 net.cpp:124] Setting up res4b1_relu
I1011 23:13:52.564981 18092 net.cpp:131] Top shape: 4 1024 24 32 (3145728)
I1011 23:13:52.564985 18092 net.cpp:139] Memory required for data: 2997913488
I1011 23:13:52.564990 18092 layer_factory.hpp:77] Creating layer res4b1_res4b1_relu_0_split
I1011 23:13:52.564997 18092 net.cpp:86] Creating Layer res4b1_res4b1_relu_0_split
I1011 23:13:52.565004 18092 net.cpp:408] res4b1_res4b1_relu_0_split <- res4b1
I1011 23:13:52.565011 18092 net.cpp:382] res4b1_res4b1_relu_0_split -> res4b1_res4b1_relu_0_split_0
I1011 23:13:52.565019 18092 net.cpp:382] res4b1_res4b1_relu_0_split -> res4b1_res4b1_relu_0_split_1
I1011 23:13:52.565073 18092 net.cpp:124] Setting up res4b1_res4b1_relu_0_split
I1011 23:13:52.565081 18092 net.cpp:131] Top shape: 4 1024 24 32 (3145728)
I1011 23:13:52.565086 18092 net.cpp:131] Top shape: 4 1024 24 32 (3145728)
I1011 23:13:52.565090 18092 net.cpp:139] Memory required for data: 3023079312
I1011 23:13:52.565096 18092 layer_factory.hpp:77] Creating layer res4b2_branch2a
I1011 23:13:52.565107 18092 net.cpp:86] Creating Layer res4b2_branch2a
I1011 23:13:52.565114 18092 net.cpp:408] res4b2_branch2a <- res4b1_res4b1_relu_0_split_0
I1011 23:13:52.565122 18092 net.cpp:382] res4b2_branch2a -> res4b2_branch2a
I1011 23:13:52.566586 18092 net.cpp:124] Setting up res4b2_branch2a
I1011 23:13:52.566604 18092 net.cpp:131] Top shape: 4 256 24 32 (786432)
I1011 23:13:52.566609 18092 net.cpp:139] Memory required for data: 3026225040
I1011 23:13:52.566615 18092 layer_factory.hpp:77] Creating layer bn4b2_branch2a
I1011 23:13:52.566624 18092 net.cpp:86] Creating Layer bn4b2_branch2a
I1011 23:13:52.566629 18092 net.cpp:408] bn4b2_branch2a <- res4b2_branch2a
I1011 23:13:52.566638 18092 net.cpp:369] bn4b2_branch2a -> res4b2_branch2a (in-place)
I1011 23:13:52.566879 18092 net.cpp:124] Setting up bn4b2_branch2a
I1011 23:13:52.566890 18092 net.cpp:131] Top shape: 4 256 24 32 (786432)
I1011 23:13:52.566893 18092 net.cpp:139] Memory required for data: 3029370768
I1011 23:13:52.566902 18092 layer_factory.hpp:77] Creating layer scale4b2_branch2a
I1011 23:13:52.566911 18092 net.cpp:86] Creating Layer scale4b2_branch2a
I1011 23:13:52.566925 18092 net.cpp:408] scale4b2_branch2a <- res4b2_branch2a
I1011 23:13:52.566931 18092 net.cpp:369] scale4b2_branch2a -> res4b2_branch2a (in-place)
I1011 23:13:52.566983 18092 layer_factory.hpp:77] Creating layer scale4b2_branch2a
I1011 23:13:52.567109 18092 net.cpp:124] Setting up scale4b2_branch2a
I1011 23:13:52.567121 18092 net.cpp:131] Top shape: 4 256 24 32 (786432)
I1011 23:13:52.567126 18092 net.cpp:139] Memory required for data: 3032516496
I1011 23:13:52.567131 18092 layer_factory.hpp:77] Creating layer res4b2_branch2a_relu
I1011 23:13:52.567140 18092 net.cpp:86] Creating Layer res4b2_branch2a_relu
I1011 23:13:52.567147 18092 net.cpp:408] res4b2_branch2a_relu <- res4b2_branch2a
I1011 23:13:52.567152 18092 net.cpp:369] res4b2_branch2a_relu -> res4b2_branch2a (in-place)
I1011 23:13:52.567368 18092 net.cpp:124] Setting up res4b2_branch2a_relu
I1011 23:13:52.567378 18092 net.cpp:131] Top shape: 4 256 24 32 (786432)
I1011 23:13:52.567384 18092 net.cpp:139] Memory required for data: 3035662224
I1011 23:13:52.567387 18092 layer_factory.hpp:77] Creating layer res4b2_branch2b
I1011 23:13:52.567399 18092 net.cpp:86] Creating Layer res4b2_branch2b
I1011 23:13:52.567404 18092 net.cpp:408] res4b2_branch2b <- res4b2_branch2a
I1011 23:13:52.567411 18092 net.cpp:382] res4b2_branch2b -> res4b2_branch2b
I1011 23:13:52.570878 18092 net.cpp:124] Setting up res4b2_branch2b
I1011 23:13:52.570895 18092 net.cpp:131] Top shape: 4 256 24 32 (786432)
I1011 23:13:52.570900 18092 net.cpp:139] Memory required for data: 3038807952
I1011 23:13:52.570909 18092 layer_factory.hpp:77] Creating layer bn4b2_branch2b
I1011 23:13:52.570919 18092 net.cpp:86] Creating Layer bn4b2_branch2b
I1011 23:13:52.570924 18092 net.cpp:408] bn4b2_branch2b <- res4b2_branch2b
I1011 23:13:52.570931 18092 net.cpp:369] bn4b2_branch2b -> res4b2_branch2b (in-place)
I1011 23:13:52.571175 18092 net.cpp:124] Setting up bn4b2_branch2b
I1011 23:13:52.571187 18092 net.cpp:131] Top shape: 4 256 24 32 (786432)
I1011 23:13:52.571190 18092 net.cpp:139] Memory required for data: 3041953680
I1011 23:13:52.571198 18092 layer_factory.hpp:77] Creating layer scale4b2_branch2b
I1011 23:13:52.571207 18092 net.cpp:86] Creating Layer scale4b2_branch2b
I1011 23:13:52.571211 18092 net.cpp:408] scale4b2_branch2b <- res4b2_branch2b
I1011 23:13:52.571218 18092 net.cpp:369] scale4b2_branch2b -> res4b2_branch2b (in-place)
I1011 23:13:52.571267 18092 layer_factory.hpp:77] Creating layer scale4b2_branch2b
I1011 23:13:52.571394 18092 net.cpp:124] Setting up scale4b2_branch2b
I1011 23:13:52.571403 18092 net.cpp:131] Top shape: 4 256 24 32 (786432)
I1011 23:13:52.571408 18092 net.cpp:139] Memory required for data: 3045099408
I1011 23:13:52.571413 18092 layer_factory.hpp:77] Creating layer res4b2_branch2b_relu
I1011 23:13:52.571424 18092 net.cpp:86] Creating Layer res4b2_branch2b_relu
I1011 23:13:52.571429 18092 net.cpp:408] res4b2_branch2b_relu <- res4b2_branch2b
I1011 23:13:52.571436 18092 net.cpp:369] res4b2_branch2b_relu -> res4b2_branch2b (in-place)
I1011 23:13:52.572011 18092 net.cpp:124] Setting up res4b2_branch2b_relu
I1011 23:13:52.572027 18092 net.cpp:131] Top shape: 4 256 24 32 (786432)
I1011 23:13:52.572031 18092 net.cpp:139] Memory required for data: 3048245136
I1011 23:13:52.572037 18092 layer_factory.hpp:77] Creating layer res4b2_branch2c
I1011 23:13:52.572049 18092 net.cpp:86] Creating Layer res4b2_branch2c
I1011 23:13:52.572055 18092 net.cpp:408] res4b2_branch2c <- res4b2_branch2b
I1011 23:13:52.572062 18092 net.cpp:382] res4b2_branch2c -> res4b2_branch2c
I1011 23:13:52.574847 18092 net.cpp:124] Setting up res4b2_branch2c
I1011 23:13:52.574864 18092 net.cpp:131] Top shape: 4 1024 24 32 (3145728)
I1011 23:13:52.574875 18092 net.cpp:139] Memory required for data: 3060828048
I1011 23:13:52.574882 18092 layer_factory.hpp:77] Creating layer bn4b2_branch2c
I1011 23:13:52.574892 18092 net.cpp:86] Creating Layer bn4b2_branch2c
I1011 23:13:52.574898 18092 net.cpp:408] bn4b2_branch2c <- res4b2_branch2c
I1011 23:13:52.574905 18092 net.cpp:369] bn4b2_branch2c -> res4b2_branch2c (in-place)
I1011 23:13:52.575146 18092 net.cpp:124] Setting up bn4b2_branch2c
I1011 23:13:52.575157 18092 net.cpp:131] Top shape: 4 1024 24 32 (3145728)
I1011 23:13:52.575161 18092 net.cpp:139] Memory required for data: 3073410960
I1011 23:13:52.575170 18092 layer_factory.hpp:77] Creating layer scale4b2_branch2c
I1011 23:13:52.575177 18092 net.cpp:86] Creating Layer scale4b2_branch2c
…
I1011 23:30:00.349639 18202 layer_factory.hpp:77] Creating layer bn4b15_branch2a
I1011 23:30:00.349649 18202 net.cpp:86] Creating Layer bn4b15_branch2a
I1011 23:30:00.349654 18202 net.cpp:408] bn4b15_branch2a <- res4b15_branch2a
I1011 23:30:00.349660 18202 net.cpp:369] bn4b15_branch2a -> res4b15_branch2a (in-place)
I1011 23:30:00.349925 18202 net.cpp:124] Setting up bn4b15_branch2a
I1011 23:30:00.349934 18202 net.cpp:131] Top shape: 1 256 24 32 (196608)
I1011 23:30:00.349939 18202 net.cpp:139] Memory required for data: 1125392868
I1011 23:30:00.349946 18202 layer_factory.hpp:77] Creating layer scale4b15_branch2a
I1011 23:30:00.349953 18202 net.cpp:86] Creating Layer scale4b15_branch2a
I1011 23:30:00.349958 18202 net.cpp:408] scale4b15_branch2a <- res4b15_branch2a
I1011 23:30:00.349964 18202 net.cpp:369] scale4b15_branch2a -> res4b15_branch2a (in-place)
I1011 23:30:00.350014 18202 layer_factory.hpp:77] Creating layer scale4b15_branch2a
I1011 23:30:00.350172 18202 net.cpp:124] Setting up scale4b15_branch2a
I1011 23:30:00.350181 18202 net.cpp:131] Top shape: 1 256 24 32 (196608)
I1011 23:30:00.350191 18202 net.cpp:139] Memory required for data: 1126179300
I1011 23:30:00.350198 18202 layer_factory.hpp:77] Creating layer res4b15_branch2a_relu
I1011 23:30:00.350206 18202 net.cpp:86] Creating Layer res4b15_branch2a_relu
I1011 23:30:00.350211 18202 net.cpp:408] res4b15_branch2a_relu <- res4b15_branch2a
I1011 23:30:00.350217 18202 net.cpp:369] res4b15_branch2a_relu -> res4b15_branch2a (in-place)
I1011 23:30:00.350486 18202 net.cpp:124] Setting up res4b15_branch2a_relu
I1011 23:30:00.350499 18202 net.cpp:131] Top shape: 1 256 24 32 (196608)
I1011 23:30:00.350503 18202 net.cpp:139] Memory required for data: 1126965732
I1011 23:30:00.350508 18202 layer_factory.hpp:77] Creating layer res4b15_branch2b
I1011 23:30:00.350519 18202 net.cpp:86] Creating Layer res4b15_branch2b
I1011 23:30:00.350525 18202 net.cpp:408] res4b15_branch2b <- res4b15_branch2a
I1011 23:30:00.350533 18202 net.cpp:382] res4b15_branch2b -> res4b15_branch2b
I1011 23:30:00.354903 18202 net.cpp:124] Setting up res4b15_branch2b
I1011 23:30:00.354919 18202 net.cpp:131] Top shape: 1 256 24 32 (196608)
I1011 23:30:00.354925 18202 net.cpp:139] Memory required for data: 1127752164
I1011 23:30:00.354931 18202 layer_factory.hpp:77] Creating layer bn4b15_branch2b
I1011 23:30:00.354940 18202 net.cpp:86] Creating Layer bn4b15_branch2b
I1011 23:30:00.354946 18202 net.cpp:408] bn4b15_branch2b <- res4b15_branch2b
I1011 23:30:00.354954 18202 net.cpp:369] bn4b15_branch2b -> res4b15_branch2b (in-place)
I1011 23:30:00.355226 18202 net.cpp:124] Setting up bn4b15_branch2b
I1011 23:30:00.355237 18202 net.cpp:131] Top shape: 1 256 24 32 (196608)
I1011 23:30:00.355240 18202 net.cpp:139] Memory required for data: 1128538596
I1011 23:30:00.355248 18202 layer_factory.hpp:77] Creating layer scale4b15_branch2b
I1011 23:30:00.355255 18202 net.cpp:86] Creating Layer scale4b15_branch2b
I1011 23:30:00.355260 18202 net.cpp:408] scale4b15_branch2b <- res4b15_branch2b
I1011 23:30:00.355268 18202 net.cpp:369] scale4b15_branch2b -> res4b15_branch2b (in-place)
I1011 23:30:00.355316 18202 layer_factory.hpp:77] Creating layer scale4b15_branch2b
I1011 23:30:00.355499 18202 net.cpp:124] Setting up scale4b15_branch2b
I1011 23:30:00.355509 18202 net.cpp:131] Top shape: 1 256 24 32 (196608)
I1011 23:30:00.355515 18202 net.cpp:139] Memory required for data: 1129325028
I1011 23:30:00.355521 18202 layer_factory.hpp:77] Creating layer res4b15_branch2b_relu
I1011 23:30:00.355530 18202 net.cpp:86] Creating Layer res4b15_branch2b_relu
I1011 23:30:00.355535 18202 net.cpp:408] res4b15_branch2b_relu <- res4b15_branch2b
I1011 23:30:00.355540 18202 net.cpp:369] res4b15_branch2b_relu -> res4b15_branch2b (in-place)
I1011 23:30:00.355805 18202 net.cpp:124] Setting up res4b15_branch2b_relu
I1011 23:30:00.355819 18202 net.cpp:131] Top shape: 1 256 24 32 (196608)
I1011 23:30:00.355823 18202 net.cpp:139] Memory required for data: 1130111460
I1011 23:30:00.355828 18202 layer_factory.hpp:77] Creating layer res4b15_branch2c
I1011 23:30:00.355836 18202 net.cpp:86] Creating Layer res4b15_branch2c
I1011 23:30:00.355841 18202 net.cpp:408] res4b15_branch2c <- res4b15_branch2b
I1011 23:30:00.355850 18202 net.cpp:382] res4b15_branch2c -> res4b15_branch2c
I1011 23:30:00.360852 18202 net.cpp:124] Setting up res4b15_branch2c
I1011 23:30:00.360873 18202 net.cpp:131] Top shape: 1 1024 24 32 (786432)
I1011 23:30:00.360878 18202 net.cpp:139] Memory required for data: 1133257188
I1011 23:30:00.360885 18202 layer_factory.hpp:77] Creating layer bn4b15_branch2c
I1011 23:30:00.360893 18202 net.cpp:86] Creating Layer bn4b15_branch2c
I1011 23:30:00.360899 18202 net.cpp:408] bn4b15_branch2c <- res4b15_branch2c
I1011 23:30:00.360909 18202 net.cpp:369] bn4b15_branch2c -> res4b15_branch2c (in-place)
I1011 23:30:00.361198 18202 net.cpp:124] Setting up bn4b15_branch2c
I1011 23:30:00.361207 18202 net.cpp:131] Top shape: 1 1024 24 32 (786432)
I1011 23:30:00.361212 18202 net.cpp:139] Memory required for data: 1136402916
I1011 23:30:00.361219 18202 layer_factory.hpp:77] Creating layer scale4b15_branch2c
I1011 23:30:00.361227 18202 net.cpp:86] Creating Layer scale4b15_branch2c
I1011 23:30:00.361238 18202 net.cpp:408] scale4b15_branch2c <- res4b15_branch2c
I1011 23:30:00.361244 18202 net.cpp:369] scale4b15_branch2c -> res4b15_branch2c (in-place)
I1011 23:30:00.361307 18202 layer_factory.hpp:77] Creating layer scale4b15_branch2c
I1011 23:30:00.361485 18202 net.cpp:124] Setting up scale4b15_branch2c
I1011 23:30:00.361495 18202 net.cpp:131] Top shape: 1 1024 24 32 (786432)
I1011 23:30:00.361498 18202 net.cpp:139] Memory required for data: 1139548644
I1011 23:30:00.361505 18202 layer_factory.hpp:77] Creating layer res4b15
I1011 23:30:00.361515 18202 net.cpp:86] Creating Layer res4b15
I1011 23:30:00.361519 18202 net.cpp:408] res4b15 <- res4b14_res4b14_relu_0_split_1
I1011 23:30:00.361526 18202 net.cpp:408] res4b15 <- res4b15_branch2c
I1011 23:30:00.361534 18202 net.cpp:382] res4b15 -> res4b15
I1011 23:30:00.361564 18202 net.cpp:124] Setting up res4b15
I1011 23:30:00.361572 18202 net.cpp:131] Top shape: 1 1024 24 32 (786432)
I1011 23:30:00.361577 18202 net.cpp:139] Memory required for data: 1142694372
I1011 23:30:00.361582 18202 layer_factory.hpp:77] Creating layer res4b15_relu
I1011 23:30:00.361588 18202 net.cpp:86] Creating Layer res4b15_relu
I1011 23:30:00.361591 18202 net.cpp:408] res4b15_relu <- res4b15
I1011 23:30:00.361599 18202 net.cpp:369] res4b15_relu -> res4b15 (in-place)
I1011 23:30:00.365186 18202 net.cpp:124] Setting up res4b15_relu
I1011 23:30:00.365209 18202 net.cpp:131] Top shape: 1 1024 24 32 (786432)
I1011 23:30:00.365214 18202 net.cpp:139] Memory required for data: 1145840100
I1011 23:30:00.365226 18202 layer_factory.hpp:77] Creating layer res4b15_res4b15_relu_0_split
I1011 23:30:00.365237 18202 net.cpp:86] Creating Layer res4b15_res4b15_relu_0_split
I1011 23:30:00.365249 18202 net.cpp:408] res4b15_res4b15_relu_0_split <- res4b15
I1011 23:30:00.365267 18202 net.cpp:382] res4b15_res4b15_relu_0_split -> res4b15_res4b15_relu_0_split_0
I1011 23:30:00.365283 18202 net.cpp:382] res4b15_res4b15_relu_0_split -> res4b15_res4b15_relu_0_split_1
I1011 23:30:00.365494 18202 net.cpp:124] Setting up res4b15_res4b15_relu_0_split
I1011 23:30:00.365504 18202 net.cpp:131] Top shape: 1 1024 24 32 (786432)
I1011 23:30:00.365509 18202 net.cpp:131] Top shape: 1 1024 24 32 (786432)
I1011 23:30:00.365514 18202 net.cpp:139] Memory required for data: 1152131556
I1011 23:30:00.365520 18202 layer_factory.hpp:77] Creating layer res4b16_branch2a
I1011 23:30:00.365536 18202 net.cpp:86] Creating Layer res4b16_branch2a
I1011 23:30:00.365542 18202 net.cpp:408] res4b16_branch2a <- res4b15_res4b15_relu_0_split_0
I1011 23:30:00.365551 18202 net.cpp:382] res4b16_branch2a -> res4b16_branch2a
I1011 23:30:00.370110 18202 net.cpp:124] Setting up res4b16_branch2a
I1011 23:30:00.370127 18202 net.cpp:131] Top shape: 1 256 24 32 (196608)
I1011 23:30:00.370132 18202 net.cpp:139] Memory required for data: 1152917988
I1011 23:30:00.370157 18202 layer_factory.hpp:77] Creating layer bn4b16_branch2a
I1011 23:30:00.370168 18202 net.cpp:86] Creating Layer bn4b16_branch2a
I1011 23:30:00.370173 18202 net.cpp:408] bn4b16_branch2a <- res4b16_branch2a
I1011 23:30:00.370180 18202 net.cpp:369] bn4b16_branch2a -> res4b16_branch2a (in-place)
I1011 23:30:00.370519 18202 net.cpp:124] Setting up bn4b16_branch2a
I1011 23:30:00.370533 18202 net.cpp:131] Top shape: 1 256 24 32 (196608)
I1011 23:30:00.370538 18202 net.cpp:139] Memory required for data: 1153704420
I1011 23:30:00.370546 18202 layer_factory.hpp:77] Creating layer scale4b16_branch2a
I1011 23:30:00.370555 18202 net.cpp:86] Creating Layer scale4b16_branch2a
I1011 23:30:00.370560 18202 net.cpp:408] scale4b16_branch2a <- res4b16_branch2a
I1011 23:30:00.370566 18202 net.cpp:369] scale4b16_branch2a -> res4b16_branch2a (in-place)
I1011 23:30:00.370617 18202 layer_factory.hpp:77] Creating layer scale4b16_branch2a
I1011 23:30:00.370781 18202 net.cpp:124] Setting up scale4b16_branch2a
I1011 23:30:00.370791 18202 net.cpp:131] Top shape: 1 256 24 32 (196608)
I1011 23:30:00.370795 18202 net.cpp:139] Memory required for data: 1154490852
I1011 23:30:00.370806 18202 layer_factory.hpp:77] Creating layer res4b16_branch2a_relu
I1011 23:30:00.370817 18202 net.cpp:86] Creating Layer res4b16_branch2a_relu
I1011 23:30:00.370822 18202 net.cpp:408] res4b16_branch2a_relu <- res4b16_branch2a
I1011 23:30:00.370827 18202 net.cpp:369] res4b16_branch2a_relu -> res4b16_branch2a (in-place)
I1011 23:30:00.371088 18202 net.cpp:124] Setting up res4b16_branch2a_relu
I1011 23:30:00.371099 18202 net.cpp:131] Top shape: 1 256 24 32 (196608)
I1011 23:30:00.371104 18202 net.cpp:139] Memory required for data: 1155277284
I1011 23:30:00.371107 18202 layer_factory.hpp:77] Creating layer res4b16_branch2b
I1011 23:30:00.371119 18202 net.cpp:86] Creating Layer res4b16_branch2b
I1011 23:30:00.371124 18202 net.cpp:408] res4b16_branch2b <- res4b16_branch2a
I1011 23:30:00.371130 18202 net.cpp:382] res4b16_branch2b -> res4b16_branch2b
I1011 23:30:00.377353 18202 net.cpp:124] Setting up res4b16_branch2b
I1011 23:30:00.377372 18202 net.cpp:131] Top shape: 1 256 24 32 (196608)
I1011 23:30:00.377377 18202 net.cpp:139] Memory required for data: 1156063716
I1011 23:30:00.377383 18202 layer_factory.hpp:77] Creating layer bn4b16_branch2b
I1011 23:30:00.377393 18202 net.cpp:86] Creating Layer bn4b16_branch2b
I1011 23:30:00.377398 18202 net.cpp:408] bn4b16_branch2b <- res4b16_branch2b
I1011 23:30:00.377405 18202 net.cpp:369] bn4b16_branch2b -> res4b16_branch2b (in-place)
I1011 23:30:00.377679 18202 net.cpp:124] Setting up bn4b16_branch2b
I1011 23:30:00.377689 18202 net.cpp:131] Top shape: 1 256 24 32 (196608)
I1011 23:30:00.377693 18202 net.cpp:139] Memory required for data: 1156850148
I1011 23:30:00.377701 18202 layer_factory.hpp:77] Creating layer scale4b16_branch2b
I1011 23:30:00.377708 18202 net.cpp:86] Creating Layer scale4b16_branch2b
I1011 23:30:00.377713 18202 net.cpp:408] scale4b16_branch2b <- res4b16_branch2b
I1011 23:30:00.377722 18202 net.cpp:369] scale4b16_branch2b -> res4b16_branch2b (in-place)
I1011 23:30:00.377769 18202 layer_factory.hpp:77] Creating layer scale4b16_branch2b
I1011 23:30:00.377929 18202 net.cpp:124] Setting up scale4b16_branch2b
I1011 23:30:00.377948 18202 net.cpp:131] Top shape: 1 256 24 32 (196608)
I1011 23:30:00.377951 18202 net.cpp:139] Memory required for data: 1157636580
I1011 23:30:00.377960 18202 layer_factory.hpp:77] Creating layer res4b16_branch2b_relu
I1011 23:30:00.377970 18202 net.cpp:86] Creating Layer res4b16_branch2b_relu
I1011 23:30:00.377975 18202 net.cpp:408] res4b16_branch2b_relu <- res4b16_branch2b
I1011 23:30:00.377982 18202 net.cpp:369] res4b16_branch2b_relu -> res4b16_branch2b (in-place)
I1011 23:30:00.378243 18202 net.cpp:124] Setting up res4b16_branch2b_relu
I1011 23:30:00.378255 18202 net.cpp:131] Top shape: 1 256 24 32 (196608)
I1011 23:30:00.378259 18202 net.cpp:139] Memory required for data: 1158423012
I1011 23:30:00.378273 18202 layer_factory.hpp:77] Creating layer res4b16_branch2c
I1011 23:30:00.378284 18202 net.cpp:86] Creating Layer res4b16_branch2c
I1011 23:30:00.378289 18202 net.cpp:408] res4b16_branch2c <- res4b16_branch2b
I1011 23:30:00.378298 18202 net.cpp:382] res4b16_branch2c -> res4b16_branch2c
I1011 23:30:00.385187 18202 net.cpp:124] Setting up res4b16_branch2c
I1011 23:30:00.385207 18202 net.cpp:131] Top shape: 1 1024 24 32 (786432)
I1011 23:30:00.385212 18202 net.cpp:139] Memory required for data: 1161568740
I1011 23:30:00.385219 18202 layer_factory.hpp:77] Creating layer bn4b16_branch2c
I1011 23:30:00.385229 18202 net.cpp:86] Creating Layer bn4b16_branch2c
I1011 23:30:00.385236 18202 net.cpp:408] bn4b16_branch2c <- res4b16_branch2c
I1011 23:30:00.385242 18202 net.cpp:369] bn4b16_branch2c -> res4b16_branch2c (in-place)
I1011 23:30:00.385536 18202 net.cpp:124] Setting up bn4b16_branch2c
I1011 23:30:00.385545 18202 net.cpp:131] Top shape: 1 1024 24 32 (786432)
I1011 23:30:00.385550 18202 net.cpp:139] Memory required for data: 1164714468
I1011 23:30:00.385557 18202 layer_factory.hpp:77] Creating layer scale4b16_branch2c
I1011 23:30:00.385567 18202 net.cpp:86] Creating Layer scale4b16_branch2c
I1011 23:30:00.385572 18202 net.cpp:408] scale4b16_branch2c <- res4b16_branch2c
I1011 23:30:00.385586 18202 net.cpp:369] scale4b16_branch2c -> res4b16_branch2c (in-place)
I1011 23:30:00.385653 18202 layer_factory.hpp:77] Creating layer scale4b16_branch2c
I1011 23:30:00.385834 18202 net.cpp:124] Setting up scale4b16_branch2c
I1011 23:30:00.385843 18202 net.cpp:131] Top shape: 1 1024 24 32 (786432)
I1011 23:30:00.385848 18202 net.cpp:139] Memory required for data: 1167860196
I1011 23:30:00.385854 18202 layer_factory.hpp:77] Creating layer res4b16
I1011 23:30:00.385864 18202 net.cpp:86] Creating Layer res4b16
I1011 23:30:00.385869 18202 net.cpp:408] res4b16 <- res4b15_res4b15_relu_0_split_1
I1011 23:30:00.385875 18202 net.cpp:408] res4b16 <- res4b16_branch2c
I1011 23:30:00.385881 18202 net.cpp:382] res4b16 -> res4b16
I1011 23:30:00.385916 18202 net.cpp:124] Setting up res4b16
I1011 23:30:00.385923 18202 net.cpp:131] Top shape: 1 1024 24 32 (786432)
I1011 23:30:00.385928 18202 net.cpp:139] Memory required for data: 1171005924
I1011 23:30:00.385932 18202 layer_factory.hpp:77] Creating layer res4b16_relu
I1011 23:30:00.385938 18202 net.cpp:86] Creating Layer res4b16_relu
I1011 23:30:00.385943 18202 net.cpp:408] res4b16_relu <- res4b16
I1011 23:30:00.385951 18202 net.cpp:369] res4b16_relu -> res4b16 (in-place)
I1011 23:30:00.387024 18202 net.cpp:124] Setting up res4b16_relu
I1011 23:30:00.387042 18202 net.cpp:131] Top shape: 1 1024 24 32 (786432)
I1011 23:30:00.387046 18202 net.cpp:139] Memory required for data: 1174151652
I1011 23:30:00.387051 18202 layer_factory.hpp:77] Creating layer res4b16_res4b16_relu_0_split
I1011 23:30:00.387060 18202 net.cpp:86] Creating Layer res4b16_res4b16_relu_0_split
I1011 23:30:00.387066 18202 net.cpp:408] res4b16_res4b16_relu_0_split <- res4b16
I1011 23:30:00.387073 18202 net.cpp:382] res4b16_res4b16_relu_0_split -> res4b16_res4b16_relu_0_split_0
I1011 23:30:00.387082 18202 net.cpp:382] res4b16_res4b16_relu_0_split -> res4b16_res4b16_relu_0_split_1
I1011 23:30:00.387141 18202 net.cpp:124] Setting up res4b16_res4b16_relu_0_split
I1011 23:30:00.387150 18202 net.cpp:131] Top shape: 1 1024 24 32 (786432)
I1011 23:30:00.387163 18202 net.cpp:131] Top shape: 1 1024 24 32 (786432)
I1011 23:30:00.387168 18202 net.cpp:139] Memory required for data: 1180443108
I1011 23:30:00.387174 18202 layer_factory.hpp:77] Creating layer res4b17_branch2a
I1011 23:30:00.387183 18202 net.cpp:86] Creating Layer res4b17_branch2a
I1011 23:30:00.387188 18202 net.cpp:408] res4b17_branch2a <- res4b16_res4b16_relu_0_split_0
I1011 23:30:00.387197 18202 net.cpp:382] res4b17_branch2a -> res4b17_branch2a
I1011 23:30:00.392446 18202 net.cpp:124] Setting up res4b17_branch2a
I1011 23:30:00.392462 18202 net.cpp:131] Top shape: 1 256 24 32 (196608)
I1011 23:30:00.392467 18202 net.cpp:139] Memory required for data: 1181229540
I1011 23:30:00.392474 18202 layer_factory.hpp:77] Creating layer bn4b17_branch2a
I1011 23:30:00.392484 18202 net.cpp:86] Creating Layer bn4b17_branch2a
I1011 23:30:00.392489 18202 net.cpp:408] bn4b17_branch2a <- res4b17_branch2a
I1011 23:30:00.392496 18202 net.cpp:369] bn4b17_branch2a -> res4b17_branch2a (in-place)
I1011 23:30:00.392765 18202 net.cpp:124] Setting up bn4b17_branch2a
I1011 23:30:00.392776 18202 net.cpp:131] Top shape: 1 256 24 32 (196608)
I1011 23:30:00.392781 18202 net.cpp:139] Memory required for data: 1182015972
I1011 23:30:00.392788 18202 layer_factory.hpp:77] Creating layer scale4b17_branch2a
I1011 23:30:00.392796 18202 net.cpp:86] Creating Layer scale4b17_branch2a
I1011 23:30:00.392801 18202 net.cpp:408] scale4b17_branch2a <- res4b17_branch2a
I1011 23:30:00.392807 18202 net.cpp:369] scale4b17_branch2a -> res4b17_branch2a (in-place)
I1011 23:30:00.392858 18202 layer_factory.hpp:77] Creating layer scale4b17_branch2a
I1011 23:30:00.393019 18202 net.cpp:124] Setting up scale4b17_branch2a
I1011 23:30:00.393028 18202 net.cpp:131] Top shape: 1 256 24 32 (196608)
I1011 23:30:00.393033 18202 net.cpp:139] Memory required for data: 1182802404
I1011 23:30:00.393046 18202 layer_factory.hpp:77] Creating layer res4b17_branch2a_relu
I1011 23:30:00.393054 18202 net.cpp:86] Creating Layer res4b17_branch2a_relu
I1011 23:30:00.393064 18202 net.cpp:408] res4b17_branch2a_relu <- res4b17_branch2a
I1011 23:30:00.393072 18202 net.cpp:369] res4b17_branch2a_relu -> res4b17_branch2a (in-place)
I1011 23:30:00.393481 18202 net.cpp:124] Setting up res4b17_branch2a_relu
I1011 23:30:00.393492 18202 net.cpp:131] Top shape: 1 256 24 32 (196608)
I1011 23:30:00.393496 18202 net.cpp:139] Memory required for data: 1183588836
I1011 23:30:00.393502 18202 layer_factory.hpp:77] Creating layer res4b17_branch2b
I1011 23:30:00.393514 18202 net.cpp:86] Creating Layer res4b17_branch2b
I1011 23:30:00.393520 18202 net.cpp:408] res4b17_branch2b <- res4b17_branch2a
I1011 23:30:00.393527 18202 net.cpp:382] res4b17_branch2b -> res4b17_branch2b
I1011 23:30:00.398602 18202 net.cpp:124] Setting up res4b17_branch2b
I1011 23:30:00.398618 18202 net.cpp:131] Top shape: 1 256 24 32 (196608)
I1011 23:30:00.398624 18202 net.cpp:139] Memory required for data: 1184375268
I1011 23:30:00.398630 18202 layer_factory.hpp:77] Creating layer bn4b17_branch2b
I1011 23:30:00.398638 18202 net.cpp:86] Creating Layer bn4b17_branch2b
I1011 23:30:00.398643 18202 net.cpp:408] bn4b17_branch2b <- res4b17_branch2b
I1011 23:30:00.398653 18202 net.cpp:369] bn4b17_branch2b -> res4b17_branch2b (in-place)
I1011 23:30:00.398928 18202 net.cpp:124] Setting up bn4b17_branch2b
I1011 23:30:00.398937 18202 net.cpp:131] Top shape: 1 256 24 32 (196608)
I1011 23:30:00.398942 18202 net.cpp:139] Memory required for data: 1185161700
I1011 23:30:00.398950 18202 layer_factory.hpp:77] Creating layer scale4b17_branch2b
I1011 23:30:00.398957 18202 net.cpp:86] Creating Layer scale4b17_branch2b
I1011 23:30:00.398962 18202 net.cpp:408] scale4b17_branch2b <- res4b17_branch2b
I1011 23:30:00.398969 18202 net.cpp:369] scale4b17_branch2b -> res4b17_branch2b (in-place)
I1011 23:30:00.399019 18202 layer_factory.hpp:77] Creating layer scale4b17_branch2b
I1011 23:30:00.399183 18202 net.cpp:124] Setting up scale4b17_branch2b
I1011 23:30:00.399193 18202 net.cpp:131] Top shape: 1 256 24 32 (196608)
I1011 23:30:00.399204 18202 net.cpp:139] Memory required for data: 1185948132
I1011 23:30:00.399211 18202 layer_factory.hpp:77] Creating layer res4b17_branch2b_relu
I1011 23:30:00.399220 18202 net.cpp:86] Creating Layer res4b17_branch2b_relu
I1011 23:30:00.399225 18202 net.cpp:408] res4b17_branch2b_relu <- res4b17_branch2b
I1011 23:30:00.399232 18202 net.cpp:369] res4b17_branch2b_relu -> res4b17_branch2b (in-place)
I1011 23:30:00.399502 18202 net.cpp:124] Setting up res4b17_branch2b_relu
I1011 23:30:00.399513 18202 net.cpp:131] Top shape: 1 256 24 32 (196608)
I1011 23:30:00.399518 18202 net.cpp:139] Memory required for data: 1186734564
I1011 23:30:00.399523 18202 layer_factory.hpp:77] Creating layer res4b17_branch2c
I1011 23:30:00.399533 18202 net.cpp:86] Creating Layer res4b17_branch2c
I1011 23:30:00.399538 18202 net.cpp:408] res4b17_branch2c <- res4b17_branch2b
I1011 23:30:00.399546 18202 net.cpp:382] res4b17_branch2c -> res4b17_branch2c
I1011 23:30:00.405164 18202 net.cpp:124] Setting up res4b17_branch2c
I1011 23:30:00.405184 18202 net.cpp:131] Top shape: 1 1024 24 32 (786432)
I1011 23:30:00.405189 18202 net.cpp:139] Memory required for data: 1189880292
I1011 23:30:00.405194 18202 layer_factory.hpp:77] Creating layer bn4b17_branch2c
I1011 23:30:00.405205 18202 net.cpp:86] Creating Layer bn4b17_branch2c
I1011 23:30:00.405211 18202 net.cpp:408] bn4b17_branch2c <- res4b17_branch2c
I1011 23:30:00.405217 18202 net.cpp:369] bn4b17_branch2c -> res4b17_branch2c (in-place)
I1011 23:30:00.405516 18202 net.cpp:124] Setting up bn4b17_branch2c
I1011 23:30:00.405525 18202 net.cpp:131] Top shape: 1 1024 24 32 (786432)
I1011 23:30:00.405530 18202 net.cpp:139] Memory required for data: 1193026020
I1011 23:30:00.405537 18202 layer_factory.hpp:77] Creating layer scale4b17_branch2c
I1011 23:30:00.405545 18202 net.cpp:86] Creating Layer scale4b17_branch2c
I1011 23:30:00.405550 18202 net.cpp:408] scale4b17_branch2c <- res4b17_branch2c
I1011 23:30:00.405556 18202 net.cpp:369] scale4b17_branch2c -> res4b17_branch2c (in-place)
I1011 23:30:00.405627 18202 layer_factory.hpp:77] Creating layer scale4b17_branch2c
I1011 23:30:00.405813 18202 net.cpp:124] Setting up scale4b17_branch2c
I1011 23:30:00.405822 18202 net.cpp:131] Top shape: 1 1024 24 32 (786432)
I1011 23:30:00.405827 18202 net.cpp:139] Memory required for data: 1196171748
I1011 23:30:00.405836 18202 layer_factory.hpp:77] Creating layer res4b17
I1011 23:30:00.405845 18202 net.cpp:86] Creating Layer res4b17
I1011 23:30:00.405851 18202 net.cpp:408] res4b17 <- res4b16_res4b16_relu_0_split_1
I1011 23:30:00.405858 18202 net.cpp:408] res4b17 <- res4b17_branch2c
I1011 23:30:00.405864 18202 net.cpp:382] res4b17 -> res4b17
I1011 23:30:00.405899 18202 net.cpp:124] Setting up res4b17
I1011 23:30:00.405906 18202 net.cpp:131] Top shape: 1 1024 24 32 (786432)
I1011 23:30:00.405910 18202 net.cpp:139] Memory required for data: 1199317476
I1011 23:30:00.405915 18202 layer_factory.hpp:77] Creating layer res4b17_relu
I1011 23:30:00.405921 18202 net.cpp:86] Creating Layer res4b17_relu
I1011 23:30:00.405926 18202 net.cpp:408] res4b17_relu <- res4b17
I1011 23:30:00.405935 18202 net.cpp:369] res4b17_relu -> res4b17 (in-place)
I1011 23:30:00.407021 18202 net.cpp:124] Setting up res4b17_relu
I1011 23:30:00.407037 18202 net.cpp:131] Top shape: 1 1024 24 32 (786432)
I1011 23:30:00.407042 18202 net.cpp:139] Memory required for data: 1202463204
I1011 23:30:00.407047 18202 layer_factory.hpp:77] Creating layer res4b17_res4b17_relu_0_split
I1011 23:30:00.407055 18202 net.cpp:86] Creating Layer res4b17_res4b17_relu_0_split
I1011 23:30:00.407061 18202 net.cpp:408] res4b17_res4b17_relu_0_split <- res4b17
I1011 23:30:00.407068 18202 net.cpp:382] res4b17_res4b17_relu_0_split -> res4b17_res4b17_relu_0_split_0
I1011 23:30:00.407078 18202 net.cpp:382] res4b17_res4b17_relu_0_split -> res4b17_res4b17_relu_0_split_1
I1011 23:30:00.407137 18202 net.cpp:124] Setting up res4b17_res4b17_relu_0_split
I1011 23:30:00.407146 18202 net.cpp:131] Top shape: 1 1024 24 32 (786432)
I1011 23:30:00.407151 18202 net.cpp:131] Top shape: 1 1024 24 32 (786432)
I1011 23:30:00.407166 18202 net.cpp:139] Memory required for data: 1208754660
I1011 23:30:00.407171 18202 layer_factory.hpp:77] Creating layer res4b18_branch2a
I1011 23:30:00.407183 18202 net.cpp:86] Creating Layer res4b18_branch2a
I1011 23:30:00.407189 18202 net.cpp:408] res4b18_branch2a <- res4b17_res4b17_relu_0_split_0
I1011 23:30:00.407198 18202 net.cpp:382] res4b18_branch2a -> res4b18_branch2a
I1011 23:30:00.410113 18202 net.cpp:124] Setting up res4b18_branch2a
I1011 23:30:00.410130 18202 net.cpp:131] Top shape: 1 256 24 32 (196608)
I1011 23:30:00.410135 18202 net.cpp:139] Memory required for data: 1209541092
I1011 23:30:00.410141 18202 layer_factory.hpp:77] Creating layer bn4b18_branch2a
I1011 23:30:00.410151 18202 net.cpp:86] Creating Layer bn4b18_branch2a
I1011 23:30:00.410156 18202 net.cpp:408] bn4b18_branch2a <- res4b18_branch2a
I1011 23:30:00.410162 18202 net.cpp:369] bn4b18_branch2a -> res4b18_branch2a (in-place)
I1011 23:30:00.410441 18202 net.cpp:124] Setting up bn4b18_branch2a
I1011 23:30:00.410454 18202 net.cpp:131] Top shape: 1 256 24 32 (196608)
I1011 23:30:00.410459 18202 net.cpp:139] Memory required for data: 1210327524
I1011 23:30:00.410466 18202 layer_factory.hpp:77] Creating layer scale4b18_branch2a
I1011 23:30:00.410476 18202 net.cpp:86] Creating Layer scale4b18_branch2a
I1011 23:30:00.410481 18202 net.cpp:408] scale4b18_branch2a <- res4b18_branch2a
I1011 23:30:00.410487 18202 net.cpp:369] scale4b18_branch2a -> res4b18_branch2a (in-place)
I1011 23:30:00.410538 18202 layer_factory.hpp:77] Creating layer scale4b18_branch2a
I1011 23:30:00.410706 18202 net.cpp:124] Setting up scale4b18_branch2a
I1011 23:30:00.410715 18202 net.cpp:131] Top shape: 1 256 24 32 (196608)
I1011 23:30:00.410720 18202 net.cpp:139] Memory required for data: 1211113956
I1011 23:30:00.410727 18202 layer_factory.hpp:77] Creating layer res4b18_branch2a_relu
I1011 23:30:00.410733 18202 net.cpp:86] Creating Layer res4b18_branch2a_relu
I1011 23:30:00.410738 18202 net.cpp:408] res4b18_branch2a_relu <- res4b18_branch2a
I1011 23:30:00.410753 18202 net.cpp:369] res4b18_branch2a_relu -> res4b18_branch2a (in-place)
I1011 23:30:00.411012 18202 net.cpp:124] Setting up res4b18_branch2a_relu
I1011 23:30:00.411025 18202 net.cpp:131] Top shape: 1 256 24 32 (196608)
I1011 23:30:00.411028 18202 net.cpp:139] Memory required for data: 1211900388
I1011 23:30:00.411036 18202 layer_factory.hpp:77] Creating layer res4b18_branch2b
I1011 23:30:00.411046 18202 net.cpp:86] Creating Layer res4b18_branch2b
I1011 23:30:00.411052 18202 net.cpp:408] res4b18_branch2b <- res4b18_branch2a
I1011 23:30:00.411062 18202 net.cpp:382] res4b18_branch2b -> res4b18_branch2b
I1011 23:30:00.415552 18202 net.cpp:124] Setting up res4b18_branch2b
I1011 23:30:00.415568 18202 net.cpp:131] Top shape: 1 256 24 32 (196608)
I1011 23:30:00.415575 18202 net.cpp:139] Memory required for data: 1212686820
I1011 23:30:00.415580 18202 layer_factory.hpp:77] Creating layer bn4b18_branch2b
I1011 23:30:00.415588 18202 net.cpp:86] Creating Layer bn4b18_branch2b
I1011 23:30:00.415594 18202 net.cpp:408] bn4b18_branch2b <- res4b18_branch2b
I1011 23:30:00.415603 18202 net.cpp:369] bn4b18_branch2b -> res4b18_branch2b (in-place)
I1011 23:30:00.415889 18202 net.cpp:124] Setting up bn4b18_branch2b
I1011 23:30:00.415897 18202 net.cpp:131] Top shape: 1 256 24 32 (196608)
I1011 23:30:00.415902 18202 net.cpp:139] Memory required for data: 1213473252
I1011 23:30:00.415910 18202 layer_factory.hpp:77] Creating layer scale4b18_branch2b
I1011 23:30:00.415917 18202 net.cpp:86] Creating Layer scale4b18_branch2b
I1011 23:30:00.415922 18202 net.cpp:408] scale4b18_branch2b <- res4b18_branch2b
I1011 23:30:00.415930 18202 net.cpp:369] scale4b18_branch2b -> res4b18_branch2b (in-place)
I1011 23:30:00.415980 18202 layer_factory.hpp:77] Creating layer scale4b18_branch2b
I1011 23:30:00.416147 18202 net.cpp:124] Setting up scale4b18_branch2b
I1011 23:30:00.416157 18202 net.cpp:131] Top shape: 1 256 24 32 (196608)
I1011 23:30:00.416160 18202 net.cpp:139] Memory required for data: 1214259684
I1011 23:30:00.416167 18202 layer_factory.hpp:77] Creating layer res4b18_branch2b_relu
I1011 23:30:00.416185 18202 net.cpp:86] Creating Layer res4b18_branch2b_relu
I1011 23:30:00.416190 18202 net.cpp:408] res4b18_branch2b_relu <- res4b18_branch2b
I1011 23:30:00.416198 18202 net.cpp:369] res4b18_branch2b_relu -> res4b18_branch2b (in-place)
I1011 23:30:00.416466 18202 net.cpp:124] Setting up res4b18_branch2b_relu
I1011 23:30:00.416478 18202 net.cpp:131] Top shape: 1 256 24 32 (196608)
I1011 23:30:00.416482 18202 net.cpp:139] Memory required for data: 1215046116
I1011 23:30:00.416486 18202 layer_factory.hpp:77] Creating layer res4b18_branch2c
I1011 23:30:00.416497 18202 net.cpp:86] Creating Layer res4b18_branch2c
I1011 23:30:00.416503 18202 net.cpp:408] res4b18_branch2c <- res4b18_branch2b
I1011 23:30:00.416512 18202 net.cpp:382] res4b18_branch2c -> res4b18_branch2c
I1011 23:30:00.420477 18202 net.cpp:124] Setting up res4b18_branch2c
I1011 23:30:00.420495 18202 net.cpp:131] Top shape: 1 1024 24 32 (786432)
I1011 23:30:00.420500 18202 net.cpp:139] Memory required for data: 1218191844
I1011 23:30:00.420506 18202 layer_factory.hpp:77] Creating layer bn4b18_branch2c
I1011 23:30:00.420517 18202 net.cpp:86] Creating Layer bn4b18_branch2c
I1011 23:30:00.420523 18202 net.cpp:408] bn4b18_branch2c <- res4b18_branch2c
I1011 23:30:00.420531 18202 net.cpp:369] bn4b18_branch2c -> res4b18_branch2c (in-place)
I1011 23:30:00.420836 18202 net.cpp:124] Setting up bn4b18_branch2c
I1011 23:30:00.420847 18202 net.cpp:131] Top shape: 1 1024 24 32 (786432)
I1011 23:30:00.420852 18202 net.cpp:139] Memory required for data: 1221337572
I1011 23:30:00.420859 18202 layer_factory.hpp:77] Creating layer scale4b18_branch2c
I1011 23:30:00.420866 18202 net.cpp:86] Creating Layer scale4b18_branch2c
I1011 23:30:00.420871 18202 net.cpp:408] scale4b18_branch2c <- res4b18_branch2c
I1011 23:30:00.420877 18202 net.cpp:369] scale4b18_branch2c -> res4b18_branch2c (in-place)
I1011 23:30:00.420940 18202 layer_factory.hpp:77] Creating layer scale4b18_branch2c
I1011 23:30:00.421133 18202 net.cpp:124] Setting up scale4b18_branch2c
I1011 23:30:00.421144 18202 net.cpp:131] Top shape: 1 1024 24 32 (786432)
I1011 23:30:00.421147 18202 net.cpp:139] Memory required for data: 1224483300
I1011 23:30:00.421154 18202 layer_factory.hpp:77] Creating layer res4b18
I1011 23:30:00.421164 18202 net.cpp:86] Creating Layer res4b18
I1011 23:30:00.421169 18202 net.cpp:408] res4b18 <- res4b17_res4b17_relu_0_split_1
I1011 23:30:00.421176 18202 net.cpp:408] res4b18 <- res4b18_branch2c
I1011 23:30:00.421182 18202 net.cpp:382] res4b18 -> res4b18
I1011 23:30:00.421216 18202 net.cpp:124] Setting up res4b18
I1011 23:30:00.421224 18202 net.cpp:131] Top shape: 1 1024 24 32 (786432)
I1011 23:30:00.421229 18202 net.cpp:139] Memory required for data: 1227629028
I1011 23:30:00.421233 18202 layer_factory.hpp:77] Creating layer res4b18_relu
I1011 23:30:00.421239 18202 net.cpp:86] Creating Layer res4b18_relu
I1011 23:30:00.421244 18202 net.cpp:408] res4b18_relu <- res4b18
I1011 23:30:00.421252 18202 net.cpp:369] res4b18_relu -> res4b18 (in-place)
I1011 23:30:00.421515 18202 net.cpp:124] Setting up res4b18_relu
I1011 23:30:00.421526 18202 net.cpp:131] Top shape: 1 1024 24 32 (786432)
I1011 23:30:00.421531 18202 net.cpp:139] Memory required for data: 1230774756
I1011 23:30:00.421536 18202 layer_factory.hpp:77] Creating layer res4b18_res4b18_relu_0_split
I1011 23:30:00.421545 18202 net.cpp:86] Creating Layer res4b18_res4b18_relu_0_split
I1011 23:30:00.421550 18202 net.cpp:408] res4b18_res4b18_relu_0_split <- res4b18
I1011 23:30:00.421556 18202 net.cpp:382] res4b18_res4b18_relu_0_split -> res4b18_res4b18_relu_0_split_0
I1011 23:30:00.421566 18202 net.cpp:382] res4b18_res4b18_relu_0_split -> res4b18_res4b18_relu_0_split_1
I1011 23:30:00.421622 18202 net.cpp:124] Setting up res4b18_res4b18_relu_0_split
I1011 23:30:00.421629 18202 net.cpp:131] Top shape: 1 1024 24 32 (786432)
I1011 23:30:00.421634 18202 net.cpp:131] Top shape: 1 1024 24 32 (786432)
I1011 23:30:00.421638 18202 net.cpp:139] Memory required for data: 1237066212
I1011 23:30:00.421650 18202 layer_factory.hpp:77] Creating layer res4b19_branch2a
I1011 23:30:00.421661 18202 net.cpp:86] Creating Layer res4b19_branch2a
I1011 23:30:00.421666 18202 net.cpp:408] res4b19_branch2a <- res4b18_res4b18_relu_0_split_0
I1011 23:30:00.421675 18202 net.cpp:382] res4b19_branch2a -> res4b19_branch2a
I1011 23:30:00.425704 18202 net.cpp:124] Setting up res4b19_branch2a
I1011 23:30:00.425722 18202 net.cpp:131] Top shape: 1 256 24 32 (196608)
I1011 23:30:00.425729 18202 net.cpp:139] Memory required for data: 1237852644
I1011 23:30:00.425737 18202 layer_factory.hpp:77] Creating layer bn4b19_branch2a
I1011 23:30:00.425747 18202 net.cpp:86] Creating Layer bn4b19_branch2a
I1011 23:30:00.425752 18202 net.cpp:408] bn4b19_branch2a <- res4b19_branch2a
I1011 23:30:00.425760 18202 net.cpp:369] bn4b19_branch2a -> res4b19_branch2a (in-place)
I1011 23:30:00.426038 18202 net.cpp:124] Setting up bn4b19_branch2a
I1011 23:30:00.426049 18202 net.cpp:131] Top shape: 1 256 24 32 (196608)
I1011 23:30:00.426054 18202 net.cpp:139] Memory required for data: 1238639076
I1011 23:30:00.426060 18202 layer_factory.hpp:77] Creating layer scale4b19_branch2a
I1011 23:30:00.426069 18202 net.cpp:86] Creating Layer scale4b19_branch2a
I1011 23:30:00.426074 18202 net.cpp:408] scale4b19_branch2a <- res4b19_branch2a
I1011 23:30:00.426079 18202 net.cpp:369] scale4b19_branch2a -> res4b19_branch2a (in-place)
I1011 23:30:00.426132 18202 layer_factory.hpp:77] Creating layer scale4b19_branch2a
I1011 23:30:00.426318 18202 net.cpp:124] Setting up scale4b19_branch2a
I1011 23:30:00.426331 18202 net.cpp:131] Top shape: 1 256 24 32 (196608)
I1011 23:30:00.426334 18202 net.cpp:139] Memory required for data: 1239425508
I1011 23:30:00.426340 18202 layer_factory.hpp:77] Creating layer res4b19_branch2a_relu
I1011 23:30:00.426348 18202 net.cpp:86] Creating Layer res4b19_branch2a_relu
I1011 23:30:00.426352 18202 net.cpp:408] res4b19_branch2a_relu <- res4b19_branch2a
I1011 23:30:00.426360 18202 net.cpp:369] res4b19_branch2a_relu -> res4b19_branch2a (in-place)
I1011 23:30:00.427428 18202 net.cpp:124] Setting up res4b19_branch2a_relu
I1011 23:30:00.427446 18202 net.cpp:131] Top shape: 1 256 24 32 (196608)
I1011 23:30:00.427451 18202 net.cpp:139] Memory required for data: 1240211940
I1011 23:30:00.427455 18202 layer_factory.hpp:77] Creating layer res4b19_branch2b
I1011 23:30:00.427466 18202 net.cpp:86] Creating Layer res4b19_branch2b
I1011 23:30:00.427474 18202 net.cpp:408] res4b19_branch2b <- res4b19_branch2a
I1011 23:30:00.427482 18202 net.cpp:382] res4b19_branch2b -> res4b19_branch2b
I1011 23:30:00.432690 18202 net.cpp:124] Setting up res4b19_branch2b
I1011 23:30:00.432708 18202 net.cpp:131] Top shape: 1 256 24 32 (196608)
I1011 23:30:00.432713 18202 net.cpp:139] Memory required for data: 1240998372
I1011 23:30:00.432719 18202 layer_factory.hpp:77] Creating layer bn4b19_branch2b
I1011 23:30:00.432729 18202 net.cpp:86] Creating Layer bn4b19_branch2b
I1011 23:30:00.432734 18202 net.cpp:408] bn4b19_branch2b <- res4b19_branch2b
I1011 23:30:00.432741 18202 net.cpp:369] bn4b19_branch2b -> res4b19_branch2b (in-place)
I1011 23:30:00.433025 18202 net.cpp:124] Setting up bn4b19_branch2b
I1011 23:30:00.433035 18202 net.cpp:131] Top shape: 1 256 24 32 (196608)
I1011 23:30:00.433039 18202 net.cpp:139] Memory required for data: 1241784804
I1011 23:30:00.433048 18202 layer_factory.hpp:77] Creating layer scale4b19_branch2b
I1011 23:30:00.433056 18202 net.cpp:86] Creating Layer scale4b19_branch2b
I1011 23:30:00.433061 18202 net.cpp:408] scale4b19_branch2b <- res4b19_branch2b
I1011 23:30:00.433068 18202 net.cpp:369] scale4b19_branch2b -> res4b19_branch2b (in-place)
I1011 23:30:00.433120 18202 layer_factory.hpp:77] Creating layer scale4b19_branch2b
I1011 23:30:00.433290 18202 net.cpp:124] Setting up scale4b19_branch2b
I1011 23:30:00.433300 18202 net.cpp:131] Top shape: 1 256 24 32 (196608)
I1011 23:30:00.433303 18202 net.cpp:139] Memory required for data: 1242571236
I1011 23:30:00.433310 18202 layer_factory.hpp:77] Creating layer res4b19_branch2b_relu
I1011 23:30:00.433316 18202 net.cpp:86] Creating Layer res4b19_branch2b_relu
I1011 23:30:00.433329 18202 net.cpp:408] res4b19_branch2b_relu <- res4b19_branch2b
I1011 23:30:00.433338 18202 net.cpp:369] res4b19_branch2b_relu -> res4b19_branch2b (in-place)
I1011 23:30:00.433603 18202 net.cpp:124] Setting up res4b19_branch2b_relu
I1011 23:30:00.433614 18202 net.cpp:131] Top shape: 1 256 24 32 (196608)
I1011 23:30:00.433619 18202 net.cpp:139] Memory required for data: 1243357668
I1011 23:30:00.433625 18202 layer_factory.hpp:77] Creating layer res4b19_branch2c
I1011 23:30:00.433637 18202 net.cpp:86] Creating Layer res4b19_branch2c
I1011 23:30:00.433642 18202 net.cpp:408] res4b19_branch2c <- res4b19_branch2b
I1011 23:30:00.433651 18202 net.cpp:382] res4b19_branch2c -> res4b19_branch2c
I1011 23:30:00.437543 18202 net.cpp:124] Setting up res4b19_branch2c
I1011 23:30:00.437561 18202 net.cpp:131] Top shape: 1 1024 24 32 (786432)
I1011 23:30:00.437566 18202 net.cpp:139] Memory required for data: 1246503396
I1011 23:30:00.437572 18202 layer_factory.hpp:77] Creating layer bn4b19_branch2c
I1011 23:30:00.437582 18202 net.cpp:86] Creating Layer bn4b19_branch2c
I1011 23:30:00.437588 18202 net.cpp:408] bn4b19_branch2c <- res4b19_branch2c
I1011 23:30:00.437594 18202 net.cpp:369] bn4b19_branch2c -> res4b19_branch2c (in-place)
I1011 23:30:00.437898 18202 net.cpp:124] Setting up bn4b19_branch2c
I1011 23:30:00.437907 18202 net.cpp:131] Top shape: 1 1024 24 32 (786432)
I1011 23:30:00.437912 18202 net.cpp:139] Memory required for data: 1249649124
I1011 23:30:00.437919 18202 layer_factory.hpp:77] Creating layer scale4b19_branch2c
I1011 23:30:00.437927 18202 net.cpp:86] Creating Layer scale4b19_branch2c
I1011 23:30:00.437932 18202 net.cpp:408] scale4b19_branch2c <- res4b19_branch2c
I1011 23:30:00.437939 18202 net.cpp:369] scale4b19_branch2c -> res4b19_branch2c (in-place)
I1011 23:30:00.438002 18202 layer_factory.hpp:77] Creating layer scale4b19_branch2c
I1011 23:30:00.438189 18202 net.cpp:124] Setting up scale4b19_branch2c
I1011 23:30:00.438199 18202 net.cpp:131] Top shape: 1 1024 24 32 (786432)
I1011 23:30:00.438208 18202 net.cpp:139] Memory required for data: 1252794852
I1011 23:30:00.438215 18202 layer_factory.hpp:77] Creating layer res4b19
I1011 23:30:00.438223 18202 net.cpp:86] Creating Layer res4b19
I1011 23:30:00.438230 18202 net.cpp:408] res4b19 <- res4b18_res4b18_relu_0_split_1
I1011 23:30:00.438235 18202 net.cpp:408] res4b19 <- res4b19_branch2c
I1011 23:30:00.438241 18202 net.cpp:382] res4b19 -> res4b19
I1011 23:30:00.438295 18202 net.cpp:124] Setting up res4b19
I1011 23:30:00.438307 18202 net.cpp:131] Top shape: 1 1024 24 32 (786432)
I1011 23:30:00.438310 18202 net.cpp:139] Memory required for data: 1255940580
I1011 23:30:00.438318 18202 layer_factory.hpp:77] Creating layer res4b19_relu
I1011 23:30:00.438323 18202 net.cpp:86] Creating Layer res4b19_relu
I1011 23:30:00.438328 18202 net.cpp:408] res4b19_relu <- res4b19
I1011 23:30:00.438336 18202 net.cpp:369] res4b19_relu -> res4b19 (in-place)
I1011 23:30:00.438599 18202 net.cpp:124] Setting up res4b19_relu
I1011 23:30:00.438611 18202 net.cpp:131] Top shape: 1 1024 24 32 (786432)
I1011 23:30:00.438616 18202 net.cpp:139] Memory required for data: 1259086308
I1011 23:30:00.438621 18202 layer_factory.hpp:77] Creating layer res4b19_res4b19_relu_0_split
I1011 23:30:00.438629 18202 net.cpp:86] Creating Layer res4b19_res4b19_relu_0_split
I1011 23:30:00.438634 18202 net.cpp:408] res4b19_res4b19_relu_0_split <- res4b19
I1011 23:30:00.438642 18202 net.cpp:382] res4b19_res4b19_relu_0_split -> res4b19_res4b19_relu_0_split_0
I1011 23:30:00.438649 18202 net.cpp:382] res4b19_res4b19_relu_0_split -> res4b19_res4b19_relu_0_split_1
I1011 23:30:00.438706 18202 net.cpp:124] Setting up res4b19_res4b19_relu_0_split
I1011 23:30:00.438714 18202 net.cpp:131] Top shape: 1 1024 24 32 (786432)
I1011 23:30:00.438719 18202 net.cpp:131] Top shape: 1 1024 24 32 (786432)
I1011 23:30:00.438724 18202 net.cpp:139] Memory required for data: 1265377764
I1011 23:30:00.438729 18202 layer_factory.hpp:77] Creating layer res4b20_branch2a
I1011 23:30:00.438740 18202 net.cpp:86] Creating Layer res4b20_branch2a
I1011 23:30:00.438753 18202 net.cpp:408] res4b20_branch2a <- res4b19_res4b19_relu_0_split_0
I1011 23:30:00.438765 18202 net.cpp:382] res4b20_branch2a -> res4b20_branch2a
I1011 23:30:00.441949 18202 net.cpp:124] Setting up res4b20_branch2a
I1011 23:30:00.441965 18202 net.cpp:131] Top shape: 1 256 24 32 (196608)
I1011 23:30:00.441970 18202 net.cpp:139] Memory required for data: 1266164196
I1011 23:30:00.441979 18202 layer_factory.hpp:77] Creating layer bn4b20_branch2a
I1011 23:30:00.441990 18202 net.cpp:86] Creating Layer bn4b20_branch2a
I1011 23:30:00.441996 18202 net.cpp:408] bn4b20_branch2a <- res4b20_branch2a
I1011 23:30:00.442003 18202 net.cpp:369] bn4b20_branch2a -> res4b20_branch2a (in-place)
I1011 23:30:00.442307 18202 net.cpp:124] Setting up bn4b20_branch2a
I1011 23:30:00.442320 18202 net.cpp:131] Top shape: 1 256 24 32 (196608)
I1011 23:30:00.442324 18202 net.cpp:139] Memory required for data: 1266950628
I1011 23:30:00.442708 18202 layer_factory.hpp:77] Creating layer scale4b20_branch2a
I1011 23:30:00.442719 18202 net.cpp:86] Creating Layer scale4b20_branch2a
I1011 23:30:00.442724 18202 net.cpp:408] scale4b20_branch2a <- res4b20_branch2a
I1011 23:30:00.442730 18202 net.cpp:369] scale4b20_branch2a -> res4b20_branch2a (in-place)
I1011 23:30:00.442787 18202 layer_factory.hpp:77] Creating layer scale4b20_branch2a
I1011 23:30:00.442955 18202 net.cpp:124] Setting up scale4b20_branch2a
I1011 23:30:00.442965 18202 net.cpp:131] Top shape: 1 256 24 32 (196608)
I1011 23:30:00.442970 18202 net.cpp:139] Memory required for data: 1267737060
I1011 23:30:00.442975 18202 layer_factory.hpp:77] Creating layer res4b20_branch2a_relu
I1011 23:30:00.442982 18202 net.cpp:86] Creating Layer res4b20_branch2a_relu
I1011 23:30:00.442987 18202 net.cpp:408] res4b20_branch2a_relu <- res4b20_branch2a
I1011 23:30:00.442994 18202 net.cpp:369] res4b20_branch2a_relu -> res4b20_branch2a (in-place)
I1011 23:30:00.444070 18202 net.cpp:124] Setting up res4b20_branch2a_relu
I1011 23:30:00.444092 18202 net.cpp:131] Top shape: 1 256 24 32 (196608)
I1011 23:30:00.444095 18202 net.cpp:139] Memory required for data: 1268523492
I1011 23:30:00.444100 18202 layer_factory.hpp:77] Creating layer res4b20_branch2b
I1011 23:30:00.444113 18202 net.cpp:86] Creating Layer res4b20_branch2b
I1011 23:30:00.444120 18202 net.cpp:408] res4b20_branch2b <- res4b20_branch2a
I1011 23:30:00.444128 18202 net.cpp:382] res4b20_branch2b -> res4b20_branch2b
I1011 23:30:00.450325 18202 net.cpp:124] Setting up res4b20_branch2b
I1011 23:30:00.450341 18202 net.cpp:131] Top shape: 1 256 24 32 (196608)
I1011 23:30:00.450347 18202 net.cpp:139] Memory required for data: 1269309924
I1011 23:30:00.450353 18202 layer_factory.hpp:77] Creating layer bn4b20_branch2b
I1011 23:30:00.450362 18202 net.cpp:86] Creating Layer bn4b20_branch2b
I1011 23:30:00.450367 18202 net.cpp:408] bn4b20_branch2b <- res4b20_branch2b
I1011 23:30:00.450374 18202 net.cpp:369] bn4b20_branch2b -> res4b20_branch2b (in-place)
I1011 23:30:00.452133 18202 net.cpp:124] Setting up bn4b20_branch2b
I1011 23:30:00.452148 18202 net.cpp:131] Top shape: 1 256 24 32 (196608)
I1011 23:30:00.452152 18202 net.cpp:139] Memory required for data: 1270096356
I1011 23:30:00.452162 18202 layer_factory.hpp:77] Creating layer scale4b20_branch2b
I1011 23:30:00.452172 18202 net.cpp:86] Creating Layer scale4b20_branch2b
I1011 23:30:00.452178 18202 net.cpp:408] scale4b20_branch2b <- res4b20_branch2b
I1011 23:30:00.452183 18202 net.cpp:369] scale4b20_branch2b -> res4b20_branch2b (in-place)
I1011 23:30:00.452241 18202 layer_factory.hpp:77] Creating layer scale4b20_branch2b
I1011 23:30:00.452383 18202 net.cpp:124] Setting up scale4b20_branch2b
I1011 23:30:00.452391 18202 net.cpp:131] Top shape: 1 256 24 32 (196608)
I1011 23:30:00.452395 18202 net.cpp:139] Memory required for data: 1270882788
I1011 23:30:00.452402 18202 layer_factory.hpp:77] Creating layer res4b20_branch2b_relu
I1011 23:30:00.452409 18202 net.cpp:86] Creating Layer res4b20_branch2b_relu
I1011 23:30:00.452414 18202 net.cpp:408] res4b20_branch2b_relu <- res4b20_branch2b
I1011 23:30:00.452432 18202 net.cpp:369] res4b20_branch2b_relu -> res4b20_branch2b (in-place)
I1011 23:30:00.452708 18202 net.cpp:124] Setting up res4b20_branch2b_relu
I1011 23:30:00.452720 18202 net.cpp:131] Top shape: 1 256 24 32 (196608)
I1011 23:30:00.452724 18202 net.cpp:139] Memory required for data: 1271669220
I1011 23:30:00.452729 18202 layer_factory.hpp:77] Creating layer res4b20_branch2c
I1011 23:30:00.452742 18202 net.cpp:86] Creating Layer res4b20_branch2c
I1011 23:30:00.452747 18202 net.cpp:408] res4b20_branch2c <- res4b20_branch2b
I1011 23:30:00.452756 18202 net.cpp:382] res4b20_branch2c -> res4b20_branch2c
I1011 23:30:00.457031 18202 net.cpp:124] Setting up res4b20_branch2c
I1011 23:30:00.457049 18202 net.cpp:131] Top shape: 1 1024 24 32 (786432)
I1011 23:30:00.457054 18202 net.cpp:139] Memory required for data: 1274814948
I1011 23:30:00.457060 18202 layer_factory.hpp:77] Creating layer bn4b20_branch2c
I1011 23:30:00.457072 18202 net.cpp:86] Creating Layer bn4b20_branch2c
I1011 23:30:00.457078 18202 net.cpp:408] bn4b20_branch2c <- res4b20_branch2c
I1011 23:30:00.457087 18202 net.cpp:369] bn4b20_branch2c -> res4b20_branch2c (in-place)
I1011 23:30:00.457341 18202 net.cpp:124] Setting up bn4b20_branch2c
I1011 23:30:00.457350 18202 net.cpp:131] Top shape: 1 1024 24 32 (786432)
I1011 23:30:00.457355 18202 net.cpp:139] Memory required for data: 1277960676
I1011 23:30:00.457362 18202 layer_factory.hpp:77] Creating layer scale4b20_branch2c
I1011 23:30:00.457370 18202 net.cpp:86] Creating Layer scale4b20_branch2c
I1011 23:30:00.457374 18202 net.cpp:408] scale4b20_branch2c <- res4b20_branch2c
I1011 23:30:00.457382 18202 net.cpp:369] scale4b20_branch2c -> res4b20_branch2c (in-place)
I1011 23:30:00.457425 18202 layer_factory.hpp:77] Creating layer scale4b20_branch2c
I1011 23:30:00.457561 18202 net.cpp:124] Setting up scale4b20_branch2c
I1011 23:30:00.457572 18202 net.cpp:131] Top shape: 1 1024 24 32 (786432)
I1011 23:30:00.457577 18202 net.cpp:139] Memory required for data: 1281106404
I1011 23:30:00.457589 18202 layer_factory.hpp:77] Creating layer res4b20
I1011 23:30:00.457597 18202 net.cpp:86] Creating Layer res4b20
I1011 23:30:00.457602 18202 net.cpp:408] res4b20 <- res4b19_res4b19_relu_0_split_1
I1011 23:30:00.457607 18202 net.cpp:408] res4b20 <- res4b20_branch2c
I1011 23:30:00.457614 18202 net.cpp:382] res4b20 -> res4b20
I1011 23:30:00.457649 18202 net.cpp:124] Setting up res4b20
I1011 23:30:00.457657 18202 net.cpp:131] Top shape: 1 1024 24 32 (786432)
I1011 23:30:00.457662 18202 net.cpp:139] Memory required for data: 1284252132
I1011 23:30:00.457666 18202 layer_factory.hpp:77] Creating layer res4b20_relu
I1011 23:30:00.457674 18202 net.cpp:86] Creating Layer res4b20_relu
I1011 23:30:00.457679 18202 net.cpp:408] res4b20_relu <- res4b20
I1011 23:30:00.457689 18202 net.cpp:369] res4b20_relu -> res4b20 (in-place)
I1011 23:30:00.457952 18202 net.cpp:124] Setting up res4b20_relu
I1011 23:30:00.457965 18202 net.cpp:131] Top shape: 1 1024 24 32 (786432)
I1011 23:30:00.457969 18202 net.cpp:139] Memory required for data: 1287397860
I1011 23:30:00.457974 18202 layer_factory.hpp:77] Creating layer res4b20_res4b20_relu_0_split
I1011 23:30:00.457981 18202 net.cpp:86] Creating Layer res4b20_res4b20_relu_0_split
I1011 23:30:00.457986 18202 net.cpp:408] res4b20_res4b20_relu_0_split <- res4b20
I1011 23:30:00.457993 18202 net.cpp:382] res4b20_res4b20_relu_0_split -> res4b20_res4b20_relu_0_split_0
I1011 23:30:00.458003 18202 net.cpp:382] res4b20_res4b20_relu_0_split -> res4b20_res4b20_relu_0_split_1
I1011 23:30:00.458062 18202 net.cpp:124] Setting up res4b20_res4b20_relu_0_split
I1011 23:30:00.458070 18202 net.cpp:131] Top shape: 1 1024 24 32 (786432)
I1011 23:30:00.458076 18202 net.cpp:131] Top shape: 1 1024 24 32 (786432)
I1011 23:30:00.458079 18202 net.cpp:139] Memory required for data: 1293689316
I1011 23:30:00.458083 18202 layer_factory.hpp:77] Creating layer res4b21_branch2a
I1011 23:30:00.458093 18202 net.cpp:86] Creating Layer res4b21_branch2a
I1011 23:30:00.458098 18202 net.cpp:408] res4b21_branch2a <- res4b20_res4b20_relu_0_split_0
I1011 23:30:00.458117 18202 net.cpp:382] res4b21_branch2a -> res4b21_branch2a
I1011 23:30:00.460580 18202 net.cpp:124] Setting up res4b21_branch2a
I1011 23:30:00.460597 18202 net.cpp:131] Top shape: 1 256 24 32 (196608)
I1011 23:30:00.460602 18202 net.cpp:139] Memory required for data: 1294475748
I1011 23:30:00.460609 18202 layer_factory.hpp:77] Creating layer bn4b21_branch2a
I1011 23:30:00.460619 18202 net.cpp:86] Creating Layer bn4b21_branch2a
I1011 23:30:00.460624 18202 net.cpp:408] bn4b21_branch2a <- res4b21_branch2a
I1011 23:30:00.460630 18202 net.cpp:369] bn4b21_branch2a -> res4b21_branch2a (in-place)
I1011 23:30:00.460889 18202 net.cpp:124] Setting up bn4b21_branch2a
I1011 23:30:00.460901 18202 net.cpp:131] Top shape: 1 256 24 32 (196608)
I1011 23:30:00.460906 18202 net.cpp:139] Memory required for data: 1295262180
I1011 23:30:00.460914 18202 layer_factory.hpp:77] Creating layer scale4b21_branch2a
I1011 23:30:00.460922 18202 net.cpp:86] Creating Layer scale4b21_branch2a
I1011 23:30:00.460927 18202 net.cpp:408] scale4b21_branch2a <- res4b21_branch2a
I1011 23:30:00.460932 18202 net.cpp:369] scale4b21_branch2a -> res4b21_branch2a (in-place)
I1011 23:30:00.460986 18202 layer_factory.hpp:77] Creating layer scale4b21_branch2a
I1011 23:30:00.461120 18202 net.cpp:124] Setting up scale4b21_branch2a
I1011 23:30:00.461128 18202 net.cpp:131] Top shape: 1 256 24 32 (196608)
I1011 23:30:00.461133 18202 net.cpp:139] Memory required for data: 1296048612
I1011 23:30:00.461138 18202 layer_factory.hpp:77] Creating layer res4b21_branch2a_relu
I1011 23:30:00.461145 18202 net.cpp:86] Creating Layer res4b21_branch2a_relu
I1011 23:30:00.461150 18202 net.cpp:408] res4b21_branch2a_relu <- res4b21_branch2a
I1011 23:30:00.461158 18202 net.cpp:369] res4b21_branch2a_relu -> res4b21_branch2a (in-place)
…
